server/model_tzh/vm_mnmx.pt (torch, 254721 bytes, 12 tensors)

conv.0.weight f4 [4, 1, 3, 3]
0.033444762 0.025354072 0.24603845 0.07521511 0.1559127 0.1446356 0.13197349 -0.4187841
0.101091556 -0.10215804 -0.14524692 -0.17132403 0.091071144 0.16659904 -0.048553064 0.021770453
-0.46916926 0.027555201 0.10570269 0.17721425 -0.45918536 0.1047897 0.42516705 0.62981737
0.29227102 -0.4181219 -0.2782186 0.061780736 -0.7062919 0.114876844 0.13528562 0.18728529
0.35547134 0.14191581 -0.056532424 -0.075333744
00000000: 60fd 083d 58b3 cf3c 81f1 7b3e 610a 9a3d
00000010: 94a7 1f3e 5b1b 143e 0f24 073e df6a d6be
00000020: 1709 cf3d 3c38 d1bd 9cbb 14be 916f 2fbe
00000030: 8283 ba3d f098 2a3e 94df 46bd f357 b23c
00000040: f436 f0be 72bb e13c a77a d83d a777 353e
00000050: 581a ebbe fb9b d63d 7faf d93e b63b 213f
00000060: 8ca4 953e 1314 d6be ab72 8ebe cc0d 7d3d
00000070: 8ccf 34bf 8d44 eb3d 5088 0a3e b7c7 3f3e
00000080: 5700 b63e 6152 113e 8b8e 67bd 9448 9abd

conv.0.bias f4 [4]
0.44698584 -0.17488323 0.15476926 0.29899532
00000000: 54db e43e 9714 33be d57b 1e3e ea15 993e

conv.2.weight f4 [4, 4, 3, 3]
-0.18413392 0.46150616 -0.008408675 0.4255707 0.08168034 0.17925449 0.16448231 0.21905892
0.07258867 -0.24179745 -0.06854313 0.13138653 0.37562552 -0.91781455 0.08101018 -0.30586055
-0.0029465866 -0.08874444 0.18583183 0.16882704 0.16182351 0.19944052 -0.05272364 -0.039384615
0.25103068 -0.16243935 0.25514996 0.09404059 0.43834135 0.3020242 0.072958745 -0.006851901
0.5205791 0.18089135 0.5694035 0.12031216 -0.05966907 -0.06086563 -0.41305706 -0.06738912
-0.3839062 -0.26386988 0.039182123 0.17522995 -0.16765538 -0.09536111 0.08070139 -0.34327036
0.056519758 0.0764567 0.445615 -0.077963375 0.084690265 -0.16417333 -0.09989621 -0.10471707
0.01670873 -0.115604594 -0.3324764 -1.6335161 -0.20333396 -0.5229168 0.15940234 -0.11204737
-0.2207235 -0.11143914 -0.18034442 0.05485854 -0.9432146 -0.06322354 0.30221435 -0.58593035
0.12003125 0.013150028 0.24384226 0.15476893 0.26287502 0.051072314 0.4577502 0.23360047
0.49319747 0.026063502 0.016982192 -0.54304683 -0.19370803 -0.24011834 -0.62137645 -0.17943627
-0.11979292 -0.0118389 0.17084955 0.08845198 -0.7869777 0.06199262 -0.023182943 0.16087994
0.053920817 -0.01489105 0.196665 0.052453678 0.14847995 -0.32849523 0.16654442 0.2457773
0.56699896 0.26944122 0.2880344 0.26342008 0.10773424 0.75488144 -0.07902415 0.25280547
0.04483812 0.26508537 0.13279048 0.27552244 0.23209709 0.023637014 0.02740139 0.19225189
0.28284404 -0.07746195 -0.3981451 0.22173287 -0.47795507 -0.03250904 0.20351791 0.32564616
-0.48649496 0.13471045 0.31999767 -0.08424349 0.28888518 -0.025347745 -0.001401401 0.2926983
0.017113594 0.29287207 0.22908464 0.065856725 0.48579788 0.0676924 0.23546772 0.15827988
00000000: 9a8d 3cbe 894a ec3e 8ac4 09bc 67e4 d93e
00000010: 0648 a73d 7d8e 373e 0d6e 283e fb50 603e
00000020: 5ea9 943d c099 77be 5760 8cbd 318a 063e
00000030: fd51 c03e e5f5 6abf aae8 a53d c199 9cbe
00000040: 851b 41bb a5bf b5bd b34a 3e3e ffe0 2c3e
00000050: 10b5 253e 233a 4c3e bef4 57bd c351 21bd
00000060: 1887 803e 8056 26be 04a3 823e 5a98 c03d
00000070: 476e e03e eaa2 9a3e 656b 953d e985 e0bb
00000080: ac44 053f 953b 393e 6ec4 113f 3966 f63d
00000090: 8e67 74bd 3d4e 79bd 377c d3be 4f03 8abd
000000a0: 5a8f c4be f419 87be 6f7d 203d 7b6f 333e
000000b0: daad 2bbe b04c c3bd c546 a53d 22c1 afbe
000000c0: 4381 673d 5595 9c3d a627 e43e 43ab 9fbd
000000d0: 1772 ad3d 0e1d 28be 6296 ccbd e775 d6bd
000000e0: bfe0 883c 1ac2 ecbd 593a aabe 0e17 d1bf
000000f0: c736 50be e0dd 05bf 5e3a 233e 1779 e5bd
00000100: 5705 62be 343a e4bd 35ac 38be 59b3 603d
00000110: 8376 71bf 587b 81bd d7bb 9a3e 88ff 15bf
00000120: f2d2 f53d 3773 573c c9b1 793e bf7b 1e3e
00000130: 8e97 863e 3431 513d 3c5e ea3e f634 6f3e
00000140: 6184 fc3e 2083 d53c 3d1e 8b3c 1e05 0bbf
00000150: 665b 46be 95e1 75be 8712 1fbf 24be 37be
00000160: fe55 f5bd f2f7 41bc 2ff3 2e3e 5026 b53d
00000170: 5f77 49bf f9eb 7d3d 28ea bdbc b6bd 243e
00000180: 13dc 5c3d 97f9 73bc 8d62 493e abd9 563d
00000190: 210b 183e 8730 a8be 9f8a 2a3e 0bad 7b3e
000001a0: d826 113f 33f4 893e 3f79 933e ffde 863e
000001b0: c5a3 dc3d e93f 413f 6ad7 a1bd b86f 813e
000001c0: 2da8 373d 45b9 873e 3afa 073e 4711 8d3e
000001d0: dcaa 6d3e 69a2 c13c e178 e03c aedd 443e
000001e0: efd0 903e 5fa4 9ebd add9 cbbe f10d 633e
000001f0: 87b6 f4be 3328 05bd 0067 503e 18bb a63e
00000200: de15 f9be 89f1 093e bcd6 a33e da87 acbd
00000210: c2e8 933e 13a6 cfbc 37af b7ba 8ddc 953e
00000220: cf31 8c3c 54f3 953e 2a95 6a3e e4df 863d
00000230: 80ba f83e 50a2 8a3d 731e 713e 1f14 223e

conv.2.bias f4 [4]
0.1795911 -0.24127224 0.059859745 -0.028079096
00000000: bbe6 373e 1210 77be 7e2f 753d 2206 e6bc

conv.5.weight f4 [64, 36]
-0.02535627 -0.0017580558 -0.020612039 -0.09580918 -0.059761666 -0.07643824 0.049957626 -0.08628023
-0.09872475 -0.055836197 0.049677566 -0.022136563 -0.05538576 -0.069569916 -0.0062608593 0.009817132
0.0059690513 0.006926207 -0.09644478 -0.071083955 0.012123088 0.010008536 0.008884414 -0.01785833
0.0142956395 -0.049852002 -0.075060666 -0.12308652 0.07399532 -0.01863556 0.06485567 -0.04158879
-0.0093874065 -0.08378567 -0.024186175 0.002165205 -0.103479326 -0.09594864 -0.19774605 0.030113505
0.2658191 0.453224 -0.15030712 -0.13599071 0.24860498 0.050574943 -0.47000253 -0.20243812
-0.042789593 -0.06081079 -0.099907234 -0.17985995 -0.058697 -1.054564 -0.34608948 -0.048286445
-0.09853745 0.07829664 0.12827007 0.21060139 0.070980854 0.065700345 -0.5804093 -0.3186855
-0.02056018 -0.15338446 0.16333437 0.013054043 -0.44122258 -0.16786274 0.0065565053 -0.6295867
-0.5464375 0.14507455 0.6124478 -0.11187509 -0.10338355 -0.0032799093 0.046325248 0.12891784
0.23951702 -0.78111356 -0.5970156 0.19222666 0.056043644 0.19161335 0.592467 0.4266715
0.072865136 -0.032277104 -0.60427415 -0.07600997 -0.7628574 0.5474639 0.38504636 0.64953583
0.9348742 -0.11283362 -0.06178486 1.2069848 0.23878364 0.15422258 0.5270578 -0.6611782
-0.6085778 0.023483323 -0.60437894 -0.12378302 0.25677475 0.13064392 -0.60722053 0.004795968
-0.043858994 0.022808878 -0.07872805 -0.10661402 0.06899557 -0.018699862 0.030586977 0.39886394
0.03628273 0.0110473335 -2.657541 0.08245064 0.03765841 0.46913797 0.013792264 -0.19317642
0.19133957 -0.22563936 -0.010127987 -1.8017726 -0.045898814 -0.02487841 2.0216072 -0.25243515
-0.017046634 -0.17310643 0.085308924 -0.04045237 -0.02976791 -0.11436421 0.0068420186 0.19876084
-0.06665234 0.28919128 -0.024832156 -0.20110583 0.22580472 0.3349333 -0.605851 -0.28099614
0.33065003 -0.37468758 -0.032951843 0.22822763 0.1454079 -0.19514734 -0.45931485 0.58773446
0.40166426 -0.32978597 -0.29501742 -0.19176948 0.35898557 -0.08513263 0.4334218 -0.09494727
0.21941401 0.5219166 -0.20134959 0.01810034 0.5463516 0.3765149 0.39671192 -0.17927419
-0.91976744 -0.0032339795 -0.09766507 -0.63500154 0.21104081 -0.017939642 0.0687616 -0.31656075
0.34018195 -0.10954384 -0.41783822 -0.22590399 0.39084792 0.09346373 -0.21561435 -1.022857
0.00097172946 -0.10078881 -0.39078867 -0.14622483 -0.26865906 -0.33011863 -0.1822233 -0.027079515
0.46844992 0.08071058 -0.1976473 -0.049511228 -0.01739723 -0.42894605 0.19330215 -0.25781524
-0.022714984 0.2873682 -0.06842962 -0.10445737 -0.5497275 -0.2066244 0.015544704 0.11252787
0.047489215 0.20184854 0.06447996 0.14421675 0.19722639 0.29108787 0.099777035 0.18938807
0.20031804 -0.16769573 -0.21566585 -0.1185713 -0.0328355 -0.1576423 0.4319455 -0.15656273
-0.15545622 -0.08488813 0.35880435 0.40038645 0.16314948 0.38175514 0.040563364 0.5331778
0.14381544 0.25366473 -0.40947974 0.3652509 0.016536992 0.08394742 0.2007912 0.09539518
0.42571622 0.12399491 0.2398957 0.20777884 0.5898636 0.36159956 0.048655655 0.2520776
00000000: f4b7 cfbc 906e e6ba 94da a8bc 9a37 c4bd
00000010: a6c8 74bd a78b 9cbd 5ea0 4c3d b0b3 b0bd
00000020: 3430 cabd 7fb4 64bd b47a 4b3d bd57 b5bc
00000030: 2edc 62bd ac7a 8ebd e527 cdbb 09d8 203c
00000040: 0898 c33b 3cf5 e23b d784 c5bd 7794 91bd
00000050: eb9f 463c d8fa 233c ef8f 113c a24b 92bc
00000060: 4238 6a3c 9d31 4cbd 68b9 99bd c914 fcbd
00000070: dc8a 973d 9aa9 98bc 0dd3 843d 0259 2abd
00000080: a3cd 19bc d297 abbd 1622 c6bc 1de6 0d3b
00000090: f8ec d3bd b880 c4bd f17d 4abe 99b0 f63c
000000a0: 7119 883e fa0c e83e 1cea 19be 2641 0bbe
000000b0: 4e92 7e3e ac27 4f3d 2ca4 f0be f04b 4fbe
000000c0: 2444 2fbd bc14 79bd 2a9c ccbd 352d 38be
000000d0: 446c 70bd f4fb 86bf a432 b1be 02c8 45bd
000000e0: 01ce c9bd fd59 a03d 3b59 033e e4a7 573e
000000f0: 695e 913d e78d 863d b495 14bf bf2a a3be
00000100: d36d a8bc d110 1dbe 2041 273e a0e0 553c
00000110: ede7 e1be 36e4 2bbe f4d7 d63b 982c 21bf
00000120: 54e3 0bbf 6c8e 143e 61c9 1c3f c41e e5bd
00000130: c1ba d3bd bff3 56bb 8bbf 3d3d 0a03 043e
00000140: f343 753e 0ff7 47bf 04d6 18bf 11d7 443e
00000150: 058e 653d 4a36 443e ebab 173f b074 da3e
00000160: 513a 953d ff34 04bd b6b1 1abf 1dab 9bbd
00000170: 9f4a 43bf 9826 0c3f cc24 c53e fb47 263f
00000180: ea53 6f3f 5015 e7bd 1f12 7dbd 7a7e 9a3f
00000190: b383 743e 86ec 1d3e 43ed 063f f942 29bf
000001a0: c1cb 1bbf 1960 c03c 94b8 1abf f481 fdbd
000001b0: fb77 833e 85c7 053e ce72 1bbf 7f27 9d3b
000001c0: 7da5 33bd afd9 ba3c 2c3c a1bd 7458 dabd
000001d0: 8d4d 8d3d 7430 99bc 8a91 fa3c e537 cc3e
000001e0: 339d 143d e0ff 343c 2715 2ac0 e2db a83d
000001f0: b43f 1a3d da32 f03e f3f8 613c 0ad0 45be
00000200: 85ee 433e 010e 67be dbef 25bc 7ca0 e6bf
00000210: 6500 3cbd cfcd cbbc 0362 0140 2e3f 81be
00000220: 62a5 8bbc d042 31be 72b6 ae3d 62b1 25bd
00000230: d5db f3bc c837 eabd 0333 e03b f687 4b3e
00000240: 0681 88bd e110 943e ce6c cbbc b0ee 4dbe
00000250: 5a39 673e 617c ab3e 0d19 1bbf bade 8fbe
00000260: f64a a93e 0dd7 bfbe 83f8 06bd 81b4 693e
00000270: cfe5 143e b4d4 47be 512b ebbe c475 163f
00000280: f0a6 cd3e b5d9 a8be 860c 97be 385f 44be
00000290: f5cc b73e 045a aebd 76e9 dd3e b773 c2bd
000002a0: 11ae 603e 549c 053f 962e 4ebe 2a47 943c
000002b0: b3dd 0b3f 90c6 c03e d31d cb3e a793 37be
000002c0: e175 6bbf 2cf1 53bb a004 c8bd 768f 22bf
000002d0: 151b 583e 28f6 92bc e2d2 8c3d 4014 a2be
000002e0: 542c ae3e 8558 e0bd e4ee d5be 6053 67be
000002f0: 381d c83e e969 bf3d 02ca 5cbe faec 82bf
00000300: a9bb 7e3a 5d6a cebd 7415 c8be f6bb 15be
00000310: ae8d 89be 4f05 a9be bf98 3abe dcd5 ddbc
00000320: abd8 ef3e 974b a53d 0e64 4abe 49cc 4abd
00000330: a384 8ebc d19e dbbe 00f1 453e 5c00 84be
00000340: c614 babc ed21 933e d424 8cbd bfed d5bd
00000350: f1ba 0cbf 5995 53be 37af 7e3c 0375 e63d
00000360: 0d84 423d 62b1 4e3e 120e 843d 8ead 133e
00000370: b7f5 493e 7809 953e e757 cc3d f2ee 413e
00000380: 2c20 4d3e 6eb8 2bbe 82d7 5cbe 82d5 f2bd
00000390: 847e 06bd fc6c 21be f627 dd3e fb51 20be
000003a0: ea2f 1fbe d4d9 adbd 34b5 b73e 74ff cc3e
000003b0: a810 273e 6975 c33e c525 263d 577e 083f
000003c0: 5b44 133e 58e0 813e 54a7 d1be 2a02 bb3e
000003d0: 9678 873c a0ec ab3d 359c 4d3e 8c5e c33d
000003e0: 7af7 d93e 0bf1 fd3d 38a7 753e fac3 543e
000003f0: 4d01 173f 9423 b93e 274b 473d 5110 813e

conv.5.bias f4 [64]
-0.13171054 -0.29637772 -0.71951926 -0.22257279 -0.21065104 -0.3864272 0.50760585 0.25089404
-0.61257887 -0.26889843 -0.6156529 -3.2660034 -0.55677533 -0.75438565 -0.088410735 -0.51430744
-0.097820684 -0.70268434 -0.70687383 -0.09723223 -3.3058712 -0.5233387 -0.4986397 -0.58222693
-0.7816083 -0.71066976 -0.45962086 -3.0499668 -0.24418202 -0.4249392 0.9498275 -0.70812994
-0.57855326 -0.13241524 -0.5479638 -0.16766872 -1.7943208 -3.2076383 0.5274154 -0.089591734
-0.11813612 -0.15346633 -0.08048932 -0.538732 0.06306899 -0.5255436 -0.6943072 0.4497737
-0.5063038 -0.69931006 -0.32950276 -0.5123622 -0.48917904 -0.30421126 -0.15460475 -0.41810763
-0.22945058 -0.14931414 -0.7038863 -0.3125167 -0.5595613 -0.523578 -0.70276964 -0.16239485
00000000: 21df 06be d2be 97be 6a32 38bf 1fea 63be
00000010: e8b4 57be c9d9 c5be 75f2 013f 2f75 803e
00000020: f8d1 1cbf 0ead 89be 6e9b 1dbf 3306 51c0
00000030: d488 0ebf 6b1f 41bf b010 b5bd a7a9 03bf
00000040: 3656 c8bd 1fe3 33bf aff5 34bf b121 c7bd
00000050: 6593 53c0 86f9 05bf b44d ffbe d30c 15bf
00000060: 7b17 48bf 74ee 35bf 6d53 ebbe a832 43c0
00000070: da0a 7abe a191 d9be e527 733f 0148 35bf
00000080: 111c 14bf dc97 07be 5b47 0cbf 59b1 2bbe
00000090: 4eac e5bf f249 4dc0 b204 073f df7b b7bd
000000a0: 5af1 f1bd 4726 1dbe 96d7 a4bd 57ea 09bf
000000b0: 512a 813d 068a 06bf 1ebe 31bf bd48 e63e
000000c0: 209d 01bf fc05 33bf 96b4 a8be 2b2a 03bf
000000d0: ad75 fabe 94c1 9bbe b550 1ebe 3412 d6be
000000e0: 18f5 6abe cee5 18be e431 34bf 3002 a0be
000000f0: 693f 0fbf 3509 06bf b6e8 33bf d64a 26be

linear.1.weight f4 [256, 169]
0.0058983564 0.03927634 0.05919365 0.054136388 -0.025531128 -0.022116046 0.031506017 0.038530543
0.0523298 0.049607404 0.015166454 -0.011316881 0.032183588 0.04855319 -0.002104357 -0.014606945
0.0063044503 -0.044173554 -0.075353146 -0.020839334 0.07390759 -0.33541235 0.07547198 0.0125961155
-0.063693196 -0.065787256 -0.01698824 0.038327307 0.025421262 -0.0027178675 0.029781707 -0.00065297633
-0.044473805 0.27190965 -0.19816738 -0.35031357 0.019612975 0.020964175 -0.042589024 0.062179737
0.04365121 -0.0557345 0.09292046 0.40550572 0.4576219 0.53969425 0.016614765 -0.74872524
0.28486815 -0.66849625 0.05591417 0.02197997 0.040363543 0.050073214 -0.00809928 0.3787587
-0.38482326 0.56180096 0.20886865 0.06725607 0.26778638 -0.32029238 -0.2990872 -0.043996677
-0.0517214 -0.02578098 -0.04729327 -0.03856768 -0.20426477 0.07665958 0.3839835 0.4090192
0.64631724 0.26873294 0.7359016 0.063155144 -0.052764453 0.031680584 0.028979488 -0.035843253
0.028441548 0.28370315 0.08491975 -0.25945696 -0.10575116 -0.017923594 -0.5966314 0.57587564
0.039388917 0.050748043 -0.033357933 -0.035545845 -0.07502456 -0.40570024 0.020509237 -0.01525435
0.3763715 -0.08913801 0.40182337 0.15926754 -0.2899397 0.054057173 -0.059245348 -0.017436177
-0.011687763 -0.11586402 -0.044761237 -0.16613114 -0.27480948 -0.13655381 -0.169827 0.13662899
0.38570154 -0.04894632 0.026477426 0.046686873 -0.027133055 -0.16817193 -0.29288363 -0.050617162
0.06358233 0.13050118 0.21561836 -0.07093528 0.3065197 0.11856508 0.046307556 0.057452045
-0.03178647 0.06811691 0.050002508 -0.02715848 0.06355839 0.13452257 0.00083228364 -0.21048433
-0.037147798 0.05011124 0.010573648 -0.011265397 -0.031354647 0.060661323 0.069087915 -0.042322554
0.038329273 0.04598538 -0.13422295 -0.020789903 0.028071843 0.0042439997 0.010441452 -0.009715192
0.029839195 0.060886286 0.049214564 0.03212122 -0.060935453 0.017652497 -0.04599788 0.010452636
0.031554922 -0.0071871653 -0.071292154 0.05728098 -0.049168203 0.021991685 0.049634017 0.018248983
0.03853458 0.058048002 -0.06958019 -0.06756942 0.011232428 0.028531149 -0.069348074 0.0133373365
-0.036762696 -0.067893185 -0.049987867 0.045926005 -0.002309762 -0.051789306 -0.02223102 -0.009927824
-0.0195866 0.039755575 -0.017362688 -0.05354937 -0.046342753 0.06266924 0.14008489 -0.18869391
-0.033220623 0.018912159 -0.061385058 -0.059954736 0.05741165 0.00097159296 -0.02349826 0.026738763
-0.038946252 -0.007274933 -0.48008323 0.06801979 0.09736953 0.017962538 0.026630998 0.0031629503
0.0043074638 0.034999967 -0.017160848 -0.12531357 0.39730963 0.29254863 0.14424998 -0.18654306
0.51712304 0.02782427 0.12780854 0.16767527 -0.008252964 -0.04443521 -0.027306192 -0.060780335
-0.13700685 -0.2290548 0.37644142 -0.7627066 0.52093786 -0.08741584 0.16483909 0.1261322
0.03689841 -0.041544072 0.053795658 -0.029634733 -0.048421595 0.16048218 0.22284395 -0.19226609
0.02343933 -0.23116742 -0.39869288 -0.42553523 0.22249672 -0.04093669 0.06748887 -0.021678265
0.03954243 0.04877039 0.3585889 -0.13108598 0.1274978 0.18352199 -0.14911073 -0.009967473
00000000: 0047 c13b 3ae0 203d 0a75 723d 1ebe 5d3d
00000010: a826 d1bc b62c b5bc 740c 013d 34d2 1d3d
00000020: c657 563d 2231 4b3d b87c 783c 706a 39bc
00000030: f0d2 033d b6df 463d 40e9 09bb f851 6fbc
00000040: 9095 ce3b 54ef 34bd c052 9abd 40b7 aabc
00000050: dd5c 973d 2bbb abbe 0e91 9a3d f05f 4e3c
00000060: 9471 82bd 78bb 86bd ec2a 8bbc 18fd 1c3d
00000070: 4040 d03c 401e 32bb c4f8 f33c 802c 2bba
00000080: 2a2a 36bd be37 8b3e 64ec 4abe 4d5c b3be
00000090: 64ab a03c 10bd ab3c d471 2ebd 2eb0 7e3d
000000a0: 9ccb 323d dc49 64bd 154d be3d 729e cf3e
000000b0: 6b4d ea3e 6729 0a3f b01b 883c 75ac 3fbf
000000c0: 3dda 913e 9222 2bbf 4206 653d 570f b43c
000000d0: 3e54 253d 9219 4d3d d8b2 04bc a9ec c13e
000000e0: 8e07 c5be 30d2 0f3f aae1 553e 8dbd 893d
000000f0: 4c1b 893e 5dfd a3be f521 99be dc35 34bd
00000100: d2d9 53bd a232 d3bc 96b6 41bd 25f9 1dbd
00000110: c92a 51be b3ff 9c3d 7c99 c43e f76a d13e
00000120: 0c75 253f 5d97 893e 0c64 3c3f 7c57 813d
00000130: 8a1f 58bd 80c3 013d 6466 ed3c 60d0 12bd
00000140: 40fe e83c 8a41 913e 68ea ad3d 8bd7 84be
00000150: 1094 d8bd 80d4 92bc d6bc 18bf 966c 133f
00000160: 4656 213d 2edd 4f3d 54a2 08bd 8598 11bd
00000170: 7aa6 99bd f1b7 cfbe fd02 a83c 62ed 79bc
00000180: c4b3 c03e fd8d b6bd cbbb cd3e 0817 233e
00000190: fa72 94be 0e6b 5d3d 40ab 72bd 50d6 8ebc
000001a0: 087e 3fbc 1e4a edbd 8f57 37bd 481e 2abe
000001b0: d4b3 8cbe c3d4 0bbe 21e7 2dbe 78e8 0b3e
000001c0: ac7a c53e f07b 48bd 30e7 d83c bc3a 3f3d
000001d0: 2446 debc 4335 2cbe d8f4 95be f153 4fbd
000001e0: 7437 823d 1aa2 053e 0fcb 5c3e 8446 91bd
000001f0: 26f0 9c3e 40d2 f23d feac 3d3d d652 6b3d
00000200: 8832 02bd e180 8b3d 6ecf 4c3d 767b debc
00000210: e72a 823d 49c0 093e 9c2d 5a3a 3489 57be
00000220: 4a28 18bd 7241 4d3d 183d 2d3c 8092 38bc
00000230: bb6d 00bd 0278 783d f77d 8d3d 6a5a 2dbd
00000240: 28ff 1c3d 2a5b 3c3d be71 09be 964f aabc
00000250: ecf6 e53c 4011 8b3b a012 2b3c 782c 1fbc
00000260: 5471 f43c e663 793d 3695 493d 8a91 033d
00000270: 7497 79bd f89b 903c 4668 3cbd 8841 2b3c
00000280: bc3f 013d 5082 ebbb 9f01 92bd 769f 6a3d
00000290: 9964 49bd e827 b43c 0a4d 4b3d e47e 953c
000002a0: 70d6 1d3d bec3 6d3d 0f80 8ebd d661 8abd
000002b0: 3808 383c 28ba e93c 5d06 8ebd d884 5a3c
000002c0: 7b94 16bd 950b 8bbd 14c0 4cbd e81c 3c3d
000002d0: 605f 17bb 0621 54bd d41d b6bc 50a8 22bc
000002e0: 1474 a0bc bed6 223d 323c 8ebc 9656 5bbd
000002f0: e6d1 3dbd bb58 803d 6a72 0f3e fa38 41be
00000300: 5912 08bd aced 9a3c e66e 7bbd 1993 75bd
00000310: 7a28 6b3d 80b2 7e3a 6c7f c0bc 400b db3c
00000320: 1b86 1fbd 9062 eebb 78cd f5be f64d 8b3d
00000330: ad69 c73d 2c26 933c 4029 da3c 8049 4f3b
00000340: a025 8d3b 205c 0f3d e894 8cbc 3352 00be
00000350: 2b6c cb3e efc8 953e 44b6 133e 2505 3fbe
00000360: 2d62 043f b9ef e33c 3ee0 023e 11b3 2b3e
00000370: 7137 07bc b201 36bd 3cb1 dfbc cdf4 78bd
00000380: 864b 0cbe 578d 6abe eebc c03e bd40 43bf
00000390: 2f5c 053f 1307 b3bd 94cb 283e cd28 013e
000003a0: ca22 173d 1e2a 2abd d658 5c3d 8ac4 f2bc
000003b0: b955 46bd 7155 243e 3431 643e 67e1 44be
000003c0: d603 c03c 27b7 6cbe 7921 ccbe c1df d9be
000003d0: 2ed6 633e 3bad 27bd 9b37 8a3d 9e96 b1bc
000003e0: 3ef7 213d 76c3 473d f798 b73e 673b 06be
000003f0: c98e 023e 30ed 3b3e 7cb0 18be 9d4e 23bc

linear.1.bias f4 [256]
-0.16044821 -0.06210555 -0.24594313 -0.0017055648 0.19303133 -0.31258678 -0.048407182 -0.23318747
-0.22022158 -0.22833093 -0.06383438 -0.091534436 -0.03965756 -0.39045957 -0.17885557 -0.07191592
-0.31745628 -0.04585233 -0.28664294 -0.2307383 0.305453 -0.22822104 -0.19168058 -0.15677956
-0.15614328 0.2512137 -0.00801955 -0.09979246 -0.1848463 0.05075106 -0.5222159 -0.13432138
0.03285792 -0.28462645 -0.1431407 -0.006453295 -0.09983516 -0.037344467 -0.103199705 -0.22659716
-0.091617994 -0.2981692 -0.23161243 0.043013312 -0.14305566 -0.37503552 0.11300841 -0.2157967
-0.2259064 -0.11515708 -0.24684784 0.07867727 0.14551796 -0.19784279 -0.20831259 -0.2752028
0.07088418 -0.19340324 -0.16097103 0.117287524 -0.1189599 -0.008846039 -0.1072706 0.06477992
-0.034645207 0.035829086 -0.4129048 -0.1128358 0.0037985393 0.027440727 0.012458884 -0.17740367
-0.329244 -0.1402992 -0.052390266 -0.17678976 0.008918236 -0.2700807 -0.11455096 -0.034971673
-0.047689635 -0.02386558 -0.07305256 -0.20376898 -0.05818715 -0.11485094 -0.015405515 -0.16336852
-0.5231271 -0.1381462 -0.23685107 -0.026412485 -0.06451045 -0.21789047 0.15240544 -0.050277356
-0.27379864 -0.1176914 0.07708649 -0.14033896 -0.10064575 0.0047602155 -0.34304035 -0.22958244
-0.016916115 -0.07195243 -0.12250385 -0.40984932 0.21572922 -0.11584825 -0.34422836 -0.25621983
0.015113823 -0.10772337 -0.28425074 0.1268774 -0.033210363 -0.15080509 -0.05778314 -0.24038303
-0.057425804 -0.050603237 -0.1332077 -0.17642713 -0.27697763 -0.4093273 -0.08993141 -0.3945556
-0.07080699 -0.2805737 -0.011336442 -0.1604287 -0.28833523 -0.1173774 -0.13439462 -0.29122984
-0.2298131 -0.27022704 -0.030214325 -0.3684055 0.036221545 -0.0560073 0.05108533 -0.26241115
-0.39039966 -0.21635436 -0.13946441 -0.18058057 -0.37268203 -0.21416831 0.15499786 -0.16317618
-0.18600172 0.07795712 -0.10777383 -0.018851966 -0.13729165 -0.06860251 -0.02426556 -0.2389915
-0.09597325 -0.20659584 -0.19439381 -0.43548018 -0.0512537 -0.32090992 0.10258665 0.007883501
-0.026850836 -0.14969406 -0.13675846 -0.34231725 0.020701434 0.0030421745 -0.079540744 -0.21816784
-0.030073471 -0.20186126 -0.3363147 -0.34388763 0.11855475 -0.46531665 0.043389264 -0.18799688
-0.19768432 -0.2712507 0.0833675 -0.11256084 -0.26540148 -0.3779325 -0.40374437 -0.46597922
-0.07106801 -0.12359503 -0.11077757 -0.11425619 -0.34114677 -0.43359455 -0.16993375 -0.22121796
-0.25131997 -0.32343477 -0.19650562 -0.2469785 -0.1359905 -0.15472189 -0.2794462 0.12748934
0.030935882 0.03457787 0.169183 -0.35971123 -0.024884798 0.085762165 -0.39856192 -0.07581507
-0.023871029 -0.056024108 -0.24611732 0.09170211 -0.14380223 -0.22953154 -0.29513633 -0.3855444
-0.19054537 -0.061167516 -0.19599001 -0.19729057 -0.13239323 0.087658346 -0.22329375 -0.14671609
-0.19603513 -0.0888934 -0.28528127 -0.28420514 0.03755012 -0.38426664 -0.39506692 -0.12953025
-0.24158745 0.0057657775 -0.37732843 -0.22378767 -0.25312898 -0.011947491 0.07017836 -0.26449743
-0.21165894 -0.207271 0.06528683 -0.30176917 -0.06526171 0.10974977 -0.21971056 -0.38782695
00000000: 894c 24be 6462 7ebd 84d8 7bbe 428d dfba
00000010: 01aa 453e 600b a0be 9c46 46bd b2c8 6ebe
00000020: c481 61be 95cf 69be 99bb 82bd 6876 bbbd
00000030: f76f 22bd 51ea c7be ea25 37be a748 93bd
00000040: a189 a2be a7cf 3bbd ddc2 92be a946 6cbe
00000050: 5664 9c3e c7b2 69be ea47 44be d28a 20be
00000060: 06e4 1fbe 159f 803e 6e64 03bc fd5f ccbd
00000070: 5948 3dbe 58e0 4f3d f1af 05bf 8b8b 09be
00000080: 0796 063d 8fba 91be 7a93 12be 2976 d3bb
00000090: 6076 ccbd 83f6 18bd 5e5a d3bd 1609 68be
000000a0: 37a2 bbbd a2a9 98be cf2b 6dbe ba2e 303d
000000b0: 2f7d 12be a804 c0be f470 e73d cff9 5cbe
000000c0: 0254 67be 7ad7 ebbd aec5 7cbe 8c21 a13d
000000d0: a902 153e 4d97 4abe e54f 55be 62e7 8cbe
000000e0: ba2b 913d 800b 46be 97d5 24be 7134 f03d
000000f0: 40a1 f3bd faee 10bc b0b0 dbbd 56ab 843d
00000100: 22e8 0dbd 85c1 123d 4268 d3be 7516 e7bd
00000110: eaf0 783b 60cb e03c 5920 4c3c 4fa9 35be
00000120: ab92 a8be 98aa 0fbe 2d97 56bd 6008 35be
00000130: cb1d 123c 0448 8abe b299 eabd 753e 0fbd
00000140: 3556 43bd c081 c3bc 959c 95bd d1a8 50be
00000150: a655 6ebd f836 ebbd 6a67 7cbc 144a 27be
00000160: a8eb 05bf 3376 0dbe 1689 72be ff5e d8bc
00000170: 0e1e 84bd ae1e 5fbe 2c10 1c3e a1ef 4dbd
00000180: 562f 8cbe 3008 f1bd 86df 9d3d 04b5 0fbe
00000190: 5c1f cebd 95fb 9b3b fca2 afbe a917 6bbe
000001a0: aa93 8abc cc5b 93bd 4ce3 fabd c5d7 d1be
000001b0: 1fe8 5c3e d941 edbd b33e b0be 3f2f 83be
000001c0: f89f 773c 129e dcbd 5089 91be 26ec 013e
000001d0: 9707 08bd a66c 1abe 04ae 6cbd f826 76be
000001e0: 5237 6bbd 5745 4fbd 9967 08be 50a9 34be
000001f0: 03d0 8dbe 5993 d1be f62d b8bd 3103 cabe
00000200: 4103 91bd 5ba7 8fbe 7cbc 39bc 6c47 24be
00000210: ada0 93be 9063 f0bd be9e 09be 141c 95be
00000220: 2054 6bbe 335b 8abe 0884 f7bc a59f bcbe
00000230: 0b5d 143d e967 65bd da3e 513d c15a 86be
00000240: 77e2 c7be ff8b 5dbe c2cf 0ebe 1dea 38be
00000250: 2ed0 bebe f04e 5bbe c2b7 1e3e a817 27be
00000260: 3c77 3ebe fca7 9f3d 87b8 dcbd 706f 9abc
00000270: 2f96 0cbe 797f 8cbd 91c8 c6bc 30ba 74be
00000280: a08d c4bd dc8d 53be 2c0f 47be 42f7 debe
00000290: 66ef 51bd 4e4e a4be f318 d23d cd29 013c
000002a0: 49f6 dbbc 6649 19be 690a 0cbe 3544 afbe
000002b0: 0e96 a93c 385f 473b 42e6 a2bd 6467 5fbe
000002c0: a45c f6bc b8b4 4ebe 7131 acbe 0a12 b0be
000002d0: d5cc f23d fc3d eebe f1b8 313d 4182 40be
000002e0: c26d 4abe 5fe1 8abe 94bc aa3d 4c86 e6bd
000002f0: b4e2 87be 5e80 c1be 95b7 cebe d494 eebe
00000300: 1b8c 91bd 641f fdbd 5adf e2bd 26ff e9bd
00000310: caaa aebe 1b00 debe 1d03 2ebe f686 62be
00000320: 03ad 80be 3e99 a5be c538 49be efe7 7cbe
00000330: 1841 0bbe 6a6f 1ebe 9313 8fbe 918c 023e
00000340: 3f6d fd3c 86a1 0d3d 4f3e 2d3e 122c b8be
00000350: 34db cbbc 13a4 af3d 4f10 ccbe ee44 9bbd
00000360: 2d8d c3bc 8979 65bd 2e06 7cbe 51ce bb3d
00000370: e440 13be 510a 6bbe 1c1c 97be 1366 c5be
00000380: 531e 43be ca8a 7abd 9bb1 48be 8a06 4abe
00000390: 1792 07be 3886 b33d 1ea7 64be be3c 16be
000003a0: 6fbd 48be be0d b6bd 6310 92be 5683 91be
000003b0: 28ce 193d 99be c4be 3646 cabe 94a3 04be
000003c0: b362 77be d9ee bc3b 3131 c1be 9828 65be
000003d0: 1f9a 81be 69bf 43bc acb9 8f3d 356c 87be
000003e0: 1fbd 58be d93e 54be 1ab5 853d 7d81 9abe
000003f0: eea7 85bd 7dc4 e03d cefb 60be 4191 c6be

linear.3.weight f4 [64, 256]
-0.14455888 0.59206456 0.13700972 -0.012892238 -0.25486037 -0.23913527 0.08285409 0.060896754
-0.009134709 0.6437196 0.27604008 -0.00587686 -0.3004439 -0.122841656 0.5020082 1.1443074
-0.47696644 0.04666258 0.32753658 -0.29555595 -0.24446961 0.4135527 0.49312904 -0.02960067
-0.10807528 -0.0030862247 -0.29029408 0.48137653 -0.41083315 -0.08855616 0.35995668 -0.2691503
0.20908745 -0.065970026 0.3486127 -0.52177817 -0.43746504 0.076278016 -0.44720855 0.5511237
0.12686537 0.35407883 -0.0512707 -0.14364673 0.8539191 -0.3836245 0.2901545 0.07722919
-0.040686324 -0.4761157 -0.21647929 -0.009273022 -0.10115624 -0.11506366 -0.3221092 0.20785122
0.23481533 0.083590575 -0.22154625 -0.10549478 -0.24165921 -0.0234203 -0.785198 -0.00059169566
0.5050873 0.13818207 -0.51999825 -0.22418329 0.47359332 -0.053320102 0.59897304 0.27351013
-0.45732474 0.27615038 -0.60449165 -0.13469636 0.6857717 -0.30388662 -0.24651754 -0.49777067
-0.26667625 0.006717484 -0.29564953 -0.1942474 -0.17284629 0.6101679 0.7454409 -0.55932224
0.60135233 0.22652407 -0.13066672 0.016453236 0.46879244 0.3204019 -0.13773479 -0.79760176
-0.5305336 -0.29615355 -0.23313694 -0.15898778 -0.2560826 -0.26741788 -0.1419362 0.48977682
0.20147432 -0.10154311 0.78397787 -0.51620024 -0.50627285 0.47382212 -0.089450754 -0.28559932
0.8392031 -0.13673596 -0.2687545 -0.27630052 0.42971814 -0.29321176 0.5920446 0.15098697
0.47201443 0.3325631 0.20662095 -0.5074046 -0.33880475 0.4185376 0.1762747 0.3316806
-0.28955993 -0.33145556 0.16276911 0.39654717 0.54485184 1.2312005 -0.1756262 -0.3059788
-0.26782095 -0.17268802 0.35777634 0.4973998 0.7469353 0.822364 -0.38852134 -0.22840281
-0.6191264 0.0055978345 0.3874281 0.19539161 -0.47285947 -0.25803614 -0.19084784 -0.38043848
-0.12805912 -0.58312553 -0.2595634 -0.19066116 0.5715043 0.345136 0.22617105 -0.5388537
-0.32736456 0.024891056 -0.22544749 -0.48392567 -0.3083019 -0.2142928 -0.23681343 0.42200294
0.6813002 -0.24688995 0.46856692 0.71069103 0.48377368 -0.099663936 0.15645322 0.10837476
-0.095640354 -0.4285775 -0.67438143 -0.30256766 0.04199404 0.056374863 -0.2746894 0.18873772
0.6677548 0.72863567 0.23525795 0.48631695 0.69427794 0.15093188 -0.02410193 0.1686893
-0.41666737 0.34661207 0.24021766 0.06949773 0.3751767 -0.1883567 0.6165707 1.1445994
-0.20042388 0.5363052 0.81032676 -0.24895583 -0.3907214 0.6492706 -0.31750426 -0.22275975
0.19235139 -0.106746756 -0.036420517 -0.7016748 0.59425527 -0.13266954 -0.047351543 1.1874685
0.48643833 -0.25337335 0.7551926 -0.003644073 -0.52624625 -0.57802904 0.49066538 -0.17436092
-0.39099765 -0.19431329 0.61557734 0.55323935 0.1270179 -0.46114358 -0.26596472 0.20433918
-0.51403683 0.7826604 -0.115501285 0.3627577 -0.06370171 0.07155986 -0.115842216 0.35109845
-0.49680004 0.53307277 0.56562954 0.44715264 0.18603165 0.67873883 -0.25255176 0.4655463
-0.33379638 0.36463118 0.12503447 -0.11850596 -0.18280913 -0.23913613 -0.13091873 -0.16627906
00000000: 3e07 14be 8b91 173f 474c 0c3e f739 53bc
00000010: 0f7d 82be e0df 74be 68af a93d e06e 793d
00000020: bfa9 15bc cfca 243f 2055 8d3e ad92 c0bb
00000030: c8d3 99be 6894 fbbd 9c83 003f aa78 923f
00000040: f234 f4be 4321 3f3d e0b2 a73e 1c53 97be
00000050: 3e56 7abe 2ebd d33e 697b fc3e 1b7d f2bc
00000060: 9356 ddbd 4242 4abb 6da1 94be fc76 f63e
00000070: b958 d2be ef5c b5bd 3e4c b83e 11ce 89be
00000080: 051b 563e 4b1b 87bd 5d7d b23e 4193 05bf
00000090: 6bfb dfbe a637 9c3d 85f8 e4be 7116 0d3f
000000a0: ffe8 013e d249 b53e 3a01 52bd 2118 13be
000000b0: 719a 5a3f 6e6a c4be 218f 943e 562a 9e3d
000000c0: b4a6 26bd 70c5 f3be bfac 5dbe e0ed 17bc
000000d0: 012b cfbd 7fa6 ebbd 7feb a4be f3d6 543e
000000e0: 6e73 703e 8931 ab3d 05dd 62be a60d d8bd
000000f0: 8375 77be eedb bfbc bc02 49bf 061c 1bba
00000100: 674d 013f 9a7f 0d3e 9b1e 05bf 4e90 65be
00000110: d37a f23e 2e66 5abd 4c56 193f 8509 8c3e
00000120: 7826 eabe 9563 8d3e f7bf 1abf d8ed 09be
00000130: bc8e 2f3f 0797 9bbe 186f 7cbe ccdb febe
00000140: ca89 88be 571e dc3b 605f 97be cae8 46be
00000150: 9efe 30be f733 1c3f 37d5 3e3f be2f 0fbf
00000160: 3af2 193f edf5 673e 7fcd 05be f0c8 863c
00000170: 9005 f03e b80b a43e 590a 0dbe a12f 4cbf
00000180: 0dd1 07bf 70a1 97be 73bb 6ebe b1cd 22be
00000190: 421d 83be ffea 88be b957 11be 07c4 fa3e
000001a0: 494f 4e3e d6f5 cfbd c6b2 483f b325 04bf
000001b0: 199b 01bf d098 f23e f531 b7bd 133a 92be
000001c0: 04d6 563f 8304 0cbe 319a 89be 4377 8dbe
000001d0: 0404 dc3e da1f 96be 3c90 173f 549c 1a3e
000001e0: e0ab f13e b645 aa3e 7194 533e 45e5 01bf
000001f0: d177 adbe 8f4a d63e 5b81 343e 0ad2 a93e
00000200: 3341 94be 8bb4 a9be f2ac 263e 3b08 cb3e
00000210: 697b 0b3f fa97 9d3f 5bd7 33be 41a9 9cbe
00000220: d41f 89be 21d5 30be 762e b73e 30ab fe3e
00000230: 2737 3f3f 7286 523f 45ec c6be 6de2 69be
00000240: 117f 1ebf 0a6e b73b fa5c c63e bd14 483e
00000250: a31a f2be 501d 84be 9e6d 43be d5c8 c2be
00000260: ee21 03be b747 15bf 7ee5 84be ae3c 43be
00000270: 1b4e 123f aab5 b03e 6299 673e 51f2 09bf
00000280: 549c a7be 54e8 cb3c b5db 66be 1bc5 f7be
00000290: bfd9 9dbe 926f 5bbe 387f 72be c510 d83e
000002a0: b169 2e3f b8d0 7cbe 01e8 ef3e d9ef 353f
000002b0: 2fb1 f73e 9b1c ccbd 4635 203e 96f3 dd3d
000002c0: 17df c3bd 836e dbbe 43a4 2cbf 26ea 9abe
000002d0: f101 2c3d 54e9 663d 17a4 8cbe 7644 413e
000002e0: fbf1 2a3f de87 3a3f 76e7 703e 89fe f83e
000002f0: 33bc 313f e38d 1a3e 6971 c5bc e3bc 2c3e
00000300: 6d55 d5be 2377 b13e 9efb 753e d354 8e3d
00000310: 2917 c03e 94e0 40be 94d7 1d3f 3c82 923f
00000320: eb3b 4dbe 4c4b 093f 9371 4f3f 47ee 7ebe
00000330: a30c c8be 9936 263f eb8f a2be 221b 64be
00000340: c3f7 443e 0b9e dabd ae2d 15bd f6a0 33bf
00000350: 1d21 183f 86da 07be b1f3 41bd f8fe 973f
00000360: 720e f93e 27ba 81be 4d54 413f 66d1 6ebb
00000370: 13b8 06bf b6f9 13bf 7e38 fb3e ab8b 32be
00000380: d830 c8be 10fa 46be 7a96 1d3f 18a1 0d3f
00000390: fb10 023e 031b ecbe 872c 88be 4a3e 513e
000003a0: eb97 03bf 6f5c 483f f08b ecbd 61bb b93e
000003b0: 0b76 82bd fa8d 923d af3e edbd 2dc3 b33e
000003c0: 935c febe 7577 083f 19cd 103f 31f1 e43e
000003d0: 157f 3e3e d4c1 2d3f 774e 81be 165c ee3e
000003e0: 5ce7 aabe f0b0 ba3e 0909 003e 41b3 f2bd
000003f0: 5132 3bbe 1ae0 74be 8f0f 06be 0f45 2abe

linear.3.bias f4 [64]
-0.25232738 -0.58367085 -0.18354225 -0.58368105 -0.53511006 -0.31175628 -0.68725157 -0.47422343
-0.6723448 -0.62765867 -0.5274047 -0.5957048 -0.7312129 -0.72521603 -0.69369966 -0.66867614
-0.359066 -0.55999976 -0.74687254 -0.7497106 -0.35851616 -0.3763637 -0.4733834 -0.6857182
-0.6209781 -0.8114812 -0.8234824 -0.73192185 -0.8286049 -0.63650316 -0.62647104 -0.6088578
-0.062355388 -0.7599642 -0.8535904 -0.48876682 -0.6437373 -0.5545524 -0.24526955 -0.49051833
-0.57442737 -0.7220153 0.11642765 -0.5367295 -0.39497367 -0.47672105 -0.6447519 -0.34547698
-0.08602274 -0.42515588 -0.59804684 -0.58098066 -0.572394 -0.62091297 -0.53022164 -0.6712498
-0.37848067 -0.48322496 -0.7213757 -0.7081108 -0.7448537 -0.30178848 -0.7437261 -0.6190354
00000000: 0e31 81be 746b 15bf 80f2 3bbe 1f6c 15bf
00000010: f9fc 08bf 859e 9fbe b8ef 2fbf 6acd f2be
00000020: ca1e 2cbf 3dae 20bf ff03 07bf 1c80 18bf
00000030: c530 3bbf c2a7 39bf 4d96 31bf 5c2e 2bbf
00000040: 80d7 b7be 255c 0fbf 0a33 3fbf 09ed 3fbf
00000050: 6e8f b7be beb2 c0be 4f5f f2be 3a8b 2fbf
00000060: 6cf8 1ebf 3bbd 4fbf becf 52bf 3b5f 3bbf
00000070: 731f 54bf dff1 22bf 6860 20bf 1bde 1bbf
00000080: 5d68 7fbd 048d 42bf e784 5abf a53f fabe
00000090: f8cb 24bf 25f7 0dbf f127 7bbe 3825 fbbe
000000a0: ac0d 13bf ffd5 38bf 9f71 ee3d 1b67 09bf
000000b0: fd39 cabe c814 f4be 760e 25bf 5ce2 b0be
000000c0: b12c b0bd 08ae d9be 9919 19bf 26bb 14bf
000000d0: 6a88 12bf 27f4 1ebf 9bbc 07bf 07d7 2bbf
000000e0: 38c8 c1be 4369 f7be 14ac 38bf c046 35bf
000000f0: bbae 3ebf 0584 9abe d564 3ebf 1b79 1ebf

reg.weight f4 [2, 128]
-0.025302913 -0.052915633 0.25747094 -1.4179704 -0.10247061 -0.053200886 -0.28293848 0.31698322
-0.020152347 -0.0015050768 0.032305367 -0.0018755635 -0.010831359 0.022138866 -0.021616178 -0.11492252
-0.03054554 0.022196189 0.019064661 0.003418153 0.024251029 -0.04025972 0.005515037 0.0040822895
0.014803613 -0.11741165 -0.1906331 0.31522888 -0.14945377 -0.11875511 -0.4113021 -0.008298318
-0.05567251 0.0045221457 0.0049308618 0.018403105 -0.010595785 -0.049382202 -0.29240388 0.01865347
-0.019311154 0.009187458 0.0070037153 0.018519761 -0.17581514 -0.1408683 0.008245919 0.35584977
-0.060192827 0.121056534 -0.0839171 -0.055174462 0.0003198388 -0.09174994 0.097139955 -0.26439616
0.01301645 0.014903598 0.01806671 0.032312542 -0.004697015 0.021606576 0.013540399 0.006052807
0.15414205 0.09248644 0.05558955 -0.009263717 -0.06967723 0.17203116 0.021042528 -0.15573499
-0.1816915 -0.012138231 0.1653965 -0.19210179 -0.011319595 0.009048201 0.0060092947 0.020478064
-0.041114427 0.021553427 -0.017186698 -0.012838547 0.013057185 -0.01098367 0.076487064 -0.0010336763
-0.0044027246 -0.17777638 0.06906464 0.1626368 0.06795637 0.034414146 -0.029007593 -0.008217198
0.13444 0.022565 -0.13337104 0.1261999 0.17183088 -0.16359262 0.04991558 0.15900546
0.0019433063 -0.111578844 0.14338279 0.08996609 0.09853284 -0.1008207 -0.15584701 0.29129532
0.07792032 0.06610223 -0.0032278618 -0.10521137 -0.024885822 -0.0034376874 0.091074124 1.7434668e-06
-0.12986378 -0.08534128 0.050409157 -0.13532996 -0.16437387 -0.15266433 0.092851415 -0.1922692
-0.18458638 -0.17115243 -0.18064788 -0.16984998 -0.16285473 -0.15242654 0.20470239 0.2120894
-0.16164754 -0.1671716 -0.19337232 -0.19816367 -0.17756173 -0.1740838 -0.2003727 -0.17195928
-0.1864041 -0.19139603 -0.1910578 -0.18262292 -0.19165292 -0.17451508 -0.17148872 -0.17128274
-0.1744452 -0.17482752 -0.1705197 -0.04465028 -0.1739472 -0.16909236 0.19928426 -0.17580247
-0.17968896 -0.18489262 -0.18961897 -0.18491592 -0.18124889 -0.18004166 0.1958968 -0.20657484
-0.18220608 -0.18295069 -0.20137483 -0.17209077 -0.1907117 -0.17545043 -0.18764241 0.20449768
-0.17215136 -0.19266813 -0.17440431 -0.1763003 -0.17627941 -0.17459467 -0.19125837 -0.17906699
-0.1823841 -0.18069577 -0.1941401 -0.17993836 -0.17269641 -0.09609475 -0.17260286 -0.17687705
0.0754696 -0.18761209 0.3272498 -0.19224331 -0.20237145 -0.17134997 -0.19014888 -0.18393017
-0.040776674 -0.19799322 -0.18437748 -0.07415423 -0.19385068 -0.19053786 -0.20067321 -0.19994895
0.1769053 -0.20251414 -0.19308464 -0.18961762 -0.19296561 -0.1719244 -0.20615138 -0.19165987
-0.20119646 -0.17041011 -0.1803841 -0.19637862 -0.19457369 -0.19298089 -0.1926843 -0.18350466
0.16816214 -0.18511602 -0.18358594 -0.20136462 -0.17615595 -0.20026419 -0.15151179 -0.1898604
-0.192728 -0.18139763 0.20179823 -0.19334476 -0.1664874 -0.18674916 -0.16617893 0.00035439277
-0.29295948 -0.26036862 -0.19825163 -0.1795654 -0.19594629 -0.19714795 -0.19447623 -0.18996885
0.14975937 -0.18977527 -0.18598893 -0.16692054 0.0030720346 0.14339471 -0.19356589 -0.07731984
00000000: 0e48 cfbc 10be 58bd 3bd3 833e 0e80 b5bf
00000010: 1cdc d1bd 2ce9 59bd 50dd 90be a04b a23e
00000020: 8916 a5bc ff45 c5ba a252 043d 78d5 f5ba
00000030: 0376 31bc 915c b53c 6914 b1bc 805c ebbd
00000040: a43a fabc c8d4 b53c 7e2d 9c3c 1703 603b
00000050: 18aa c63c 60e7 24bd 7cb7 b43b bac4 853b
00000060: da8a 723c 8575 f0bd 5335 43be ae65 a13e
00000070: 690a 19be e135 f3bd 3096 d2be abf5 07bc
00000080: dc08 64bd 822e 943b 1193 a13b 1cc2 963c
00000090: f299 2dbc fe44 4abd f6b5 95be 29cf 983c
000000a0: 6d32 9ebc fe86 163c 6c7f e53b c1b6 973c
000000b0: e208 34be c83f 10be e419 073c f131 b63e
000000c0: c18c 76bd 7dec f73d bbdc abbd 9efe 61bd
000000d0: 09b0 a739 64e7 bbbd 50f1 c63d ef5e 87be
000000e0: f342 553c 392e 743c a300 943c 285a 043d
000000f0: 6be9 99bb 4600 b13c 8dd8 5d3c a056 c63b
00000100: 6ad7 1d3e 8869 bd3d deb1 633d d8c6 17bc
00000110: f0b2 8ebd f028 303e 6161 ac3c fe78 1fbe
00000120: 560d 3abe 6edf 46bc b35d 293e 55b6 44be
00000130: d375 39bc e83e 143c 9ee9 c43b 9dc1 a73c
00000140: 9a67 28bd d090 b03c 1ecb 8cbc c558 52bc
00000150: ceed 553c daf4 33bc 40a5 9c3d 6c7c 87ba
00000160: bb44 90bb 030b 36be c371 8d3d 438a 263e
00000170: b62c 8b3d d9f5 0c3d 55a1 edbc 6da1 06bc
00000180: a4aa 093e 3cda b83c 6b92 08be 8c3a 013e
00000190: 6ff4 2f3e d384 27be 4774 4c3d 54d2 223e
000001a0: 8ab6 fe3a 7383 e4bd f0d2 123e 2440 b83d
000001b0: 96cb c93d 157b cebd 5c96 1fbe a924 953e
000001c0: b094 9f3d 9b60 873d 898a 53bb 0f79 d7bd
000001d0: 5add cbbc d34a 61bb 1285 ba3d 1001 ea35
000001e0: 03fb 04be 69c7 aebd d579 4e3d f093 0abe
000001f0: a051 28be 0a54 1cbe e228 be3d 38e2 44be
00000200: 3604 3dbe 9542 2fbe c2fb 38be 27ed 2dbe
00000210: 64c3 26be b415 1cbe 819d 513e f72d 593e
00000220: ef86 25be 082f 2bbe 6503 46be 6beb 4abe
00000230: bed2 35be 0643 32be 802e 4dbe 1816 30be
00000240: b7e0 3ebe 52fd 43be a8a4 43be 8101 3bbe
00000250: aa40 44be 15b4 32be bd9a 2fbe be64 2fbe
00000260: c3a1 32be fc05 33be b79c 2ebe 36e3 36bd
00000270: 371f 32be 8c26 2dbe 2c11 4c3e 9005 34be
00000280: 6200 38be 7e54 3dbe 7a2b 42be 995a 3dbe
00000290: 4f99 39be d75c 38be 2c99 483e 5b88 53be
000002a0: 3b94 3abe 6d57 3bbe 3435 4ebe 9038 30be
000002b0: ee49 43be 47a9 33be 5525 40be d767 513e
000002c0: 7248 30be cb4a 45be 0b97 32be 1188 34be
000002d0: 9782 34be f2c8 32be 3cd9 43be 565d 37be
000002e0: e6c2 3abe 5008 39be aacc 46be c341 38be
000002f0: 54d7 30be 53cd c4bd cebe 30be 421f 35be
00000300: ce8f 9a3d 621d 40be 498d a73e 6edb 44be
00000310: 763a 4fbe 5e76 2fbe 63b6 42be 3158 3cbe
00000320: 7105 27bd bcbe 4abe 73cd 3cbe 2cde 97bd
00000330: cb80 46be 5b1c 43be 477d 4dbe 6bbf 4cbe
00000340: aa26 353e de5f 4fbe fbb7 45be 1f2b 42be
00000350: c798 45be f30c 30be 5919 53be 7c42 44be
00000360: 7206 4ebe fd7f 2ebe 9cb6 38be 7a17 49be
00000370: 533e 47be c89c 45be 084f 45be a5e8 3bbe
00000380: b232 2c3e 0e8f 3dbe f4fd 3bbe 8732 4ebe
00000390: 3a62 34be 0e12 4dbe e825 1bbe c46a 42be
000003a0: 7d5a 45be 4dc0 39be 32a4 4e3e 2bfc 45be
000003b0: ac7b 2abe 2c3b 3fbe cf2a 2abe cbcd b939
000003c0: c9fe 95be 094f 85be 7a02 4bbe fedf 37be
000003d0: 25a6 48be 27e1 49be c724 47be 3287 42be
000003e0: 855a 193e 7354 42be e273 3ebe 38ed 2abe
000003f0: 3054 493b 10d6 123e 2336 46be dd59 9ebd

reg.bias f4 [2]
0.23540008 0.17190003
00000000: b80c 713e 9006 303e
