server/model2/value_model_minmax_noexplore30.pt (torch, 255491 bytes, 12 tensors)

conv.0.weight f4 [4, 1, 3, 3]
-0.026413066 0.07783292 0.34270686 0.18991145 0.2305821 0.19007474 0.22910683 -0.5218326
-0.085087836 -0.09337038 -0.09859365 -0.0161997 0.30424395 0.29900712 -0.27775362 0.13958445
-0.57584053 0.05357837 -0.13223301 0.035111625 -0.5005331 -0.12733598 0.458994 0.6913344
-0.024465788 -0.38286784 -0.16623428 0.2394262 -0.77795196 0.10861091 0.122967295 -0.0019039315
0.4347513 -0.098210566 -0.27610078 -0.21976322
00000000: 3760 d8bc de66 9f3d 4677 af3e 2678 423e
00000010: b71d 6c3e f4a2 423e fb9a 6a3e d296 05bf
00000020: 8842 aebd f838 bfbd 78eb c9bd 3cb5 84bc
00000030: ddc5 9b3e 7617 993e b935 8ebe 3aef 0e3e
00000040: 496a 13bf fe74 5b3d 1768 07be 35d1 0f3d
00000050: f022 00bf 5d64 02be 4301 eb3e 4bfb 303f
00000060: 7a6c c8bc 4107 c4be 5239 2abe 242c 753e
00000070: dc27 47bf 666f de3d 47d6 fb3d 578d f9ba
00000080: b997 de3e 9f22 c9bd 155d 8dbe 9c09 61be

conv.0.bias f4 [4]
0.40590498 -0.038347896 -0.05320929 0.28214398
00000000: c7d2 cf3e af12 1dbd fcf1 59bd 2d75 903e

conv.2.weight f4 [4, 4, 3, 3]
-0.21860956 0.44271848 -0.006902796 0.43725052 0.04728487 0.10604965 0.12374252 0.17873524
0.029613767 -0.054869816 -0.07002129 0.3612774 0.5093043 -0.7325081 0.0776924 -0.07820087
0.049534317 -0.17125669 0.22127478 0.14530742 0.11053949 0.20056574 -0.14642262 -0.09479856
0.120620675 -0.3157971 -0.017230881 0.036180004 0.39103135 0.25164622 0.05608574 -0.10498449
0.47563037 0.14591478 0.49011514 -0.011569572 0.20200962 0.17735395 -0.34688857 0.22006539
-0.09894243 -0.122624874 0.32728395 0.42014518 -0.05386993 -0.06745278 0.1801621 -0.6601068
0.07770732 -0.017157119 0.34562695 -0.26349583 -0.086929485 -0.29346544 0.15127726 -0.09061487
0.12561238 0.024192434 -0.46242473 -1.55846 -0.07464338 -0.32228324 0.17725168 0.27844092
-0.10426616 0.040006842 0.0040752967 0.33743298 -0.8993427 0.1763581 0.6687036 -0.66097283
0.002782191 -0.13601284 0.16261317 0.11599194 0.24782199 -0.085331395 0.43556195 0.14983115
0.33182517 0.23893118 -0.03564744 -0.42738348 0.08053988 0.068108305 -0.61995256 -0.17603719
-0.25528157 -0.14248674 0.08768805 0.121436454 -0.84865654 0.08366132 -0.153395 0.09904976
-0.020072903 -0.27013758 -0.08689793 0.09299545 0.080126815 -0.48093697 0.19565775 0.12017692
0.45513818 0.14663243 0.13750443 0.06531092 0.08167576 0.8504012 0.012375822 0.27375108
0.084639266 0.31175095 0.16810523 0.3872977 0.22040014 0.084607154 0.12523602 0.35271218
0.36443263 0.093982324 -0.10054379 0.20210218 -0.17315952 0.023217052 0.057387993 0.38636026
-0.60030687 0.22003508 0.26060143 -0.1563957 0.3575176 -0.03989756 -0.010406691 0.26661834
0.09401468 0.3916511 0.27198136 0.07175639 0.54558814 0.18061116 0.2498909 0.24441352
00000000: 2fdb 5fbe ffab e23e da30 e2bb 4ddf df3e
00000010: c8ad 413d 8f30 d93d b86c fd3d 5f06 373e
00000020: 9298 f23c 2cbf 60bd 5267 8fbd 5af9 b83e
00000030: c461 023f a785 3bbf 311d 9f3d c727 a0bd
00000040: 7fe4 4a3d ea5d 2fbe db95 623e 78cb 143e
00000050: 8762 e23d 1b61 4d3e d0ef 15be bf25 c2bd
00000060: f907 f73d 28b0 a1be c727 8dbc 7c31 143d
00000070: 4335 c83e c6d7 803e 29ba 653d 1c02 d7bd
00000080: d385 f33e af6a 153e 5ff0 fa3e 4d8e 3dbc
00000090: 9cdb 4e3e 469c 353e 619b b1be d258 613e
000000a0: 54a2 cabd c022 fbbd c391 a73e 451d d73e
000000b0: b7a6 5cbd af24 8abd 6a7c 383e c2fc 28bf
000000c0: 0425 9f3d 168d 8cbc 04f6 b03e ede8 86be
000000d0: 1608 b2bd 1a41 96be 6de8 1a3e 4a94 b9bd
000000e0: 88a0 003e 362f c63c efc2 ecbe 9e7b c7bf
000000f0: a1de 98bd 4f02 a5be 7781 353e cf8f 8e3e
00000100: 7f89 d5bd 37de 233d 118a 853b 04c4 ac3e
00000110: 533b 66bf 3897 343e 2930 2b3f 8435 29bf
00000120: 6b55 363b f346 0bbe 1184 263e 2f8d ed3d
00000130: 0cc5 7d3e 3ac2 aebd fa01 df3e 566d 193e
00000140: fde4 a93e 60aa 743e 0d03 12bd 02d2 dabe
00000150: 18f2 a43d 5e7c 8b3d 36b5 1ebf 1843 34be
00000160: 44b4 82be 0be8 11be cb95 b33d adb3 f83d
00000170: 8e41 59bf a056 ab3d 9413 1dbe 9ada ca3d
00000180: ee6f a4bc 794f 8abe 8bf7 b1bd 6674 be3d
00000190: 8719 a43d 5f3d f6be 815a 483e 511f f63d
000001a0: df07 e93e d026 163e f6cd 0c3e bbc1 853d
000001b0: 9f45 a73d e5b3 593f f6c3 4a3c 1a29 8c3e
000001c0: 5a57 ad3d d29d 9f3e c723 2c3e e24b c63e
000001d0: 93b0 613e 8446 ad3d df3d 003e b196 b43e
000001e0: ea96 ba3e ce79 c03d e7e9 cdbd e0f3 4e3e
000001f0: bb50 31be b031 be3c ac0f 6b3d 03d1 c53e
00000200: b6ad 19bf e050 613e 8d6d 853e 3226 20be
00000210: 8c0c b73e a06b 23bd d380 2abc 3382 883e
00000220: c58a c03d 7e86 c83e 2441 8b3e 04f5 923d
00000230: aaab 0b3f 22f2 383e 66e3 7f3e 8a47 7a3e

conv.2.bias f4 [4]
0.15219307 0.021776842 0.0005584312 0.017695164
00000000: 80d8 1b3e 5965 b23c af63 123a 73f5 903c

conv.5.weight f4 [64, 36]
0.0060432903 0.031193491 -0.026772477 -0.1543112 -0.036543448 -0.049546346 0.11287381 -0.047188427
-0.049783908 0.002441566 -0.10273097 -0.041869164 0.16668522 -0.12784891 0.0003120259 -0.17609133
-0.0063818274 0.0579316 -0.058352347 -0.014330806 0.029895268 -0.091837674 0.09293594 -0.041374758
0.10324748 -0.0047211167 -0.043639574 -0.13276918 0.008543792 -0.016023846 -0.048506454 0.08597248
-0.013511192 -0.054606397 0.014502272 0.059869647 -0.08472641 -0.18144989 -0.1807688 0.023812145
0.16390713 0.35280615 -0.16629443 -0.20730937 0.14101967 -0.04845272 -0.39025354 -0.30271947
0.06405028 0.089508235 -0.0485476 -0.02186636 -0.053677186 -1.0205545 -0.339812 -0.011698892
0.08282705 0.08077987 -0.0022643988 0.11908343 0.091772966 0.123611815 -0.6681177 -0.32855415
0.096674465 -0.08189631 0.24848968 0.0055925976 -0.529549 -0.11837901 -0.0011961174 -0.7385116
-0.52975535 0.11870974 0.5969783 -0.04595269 -0.033562236 -0.011788363 0.05439478 0.10863777
0.22787732 -0.6120782 -0.3928312 0.285814 -0.05886055 0.46087644 0.62262505 0.59781015
0.28358933 0.047645736 -0.59979093 -0.12424047 -0.8627253 0.6194312 0.2883252 0.5792135
0.9361009 -0.10823956 -0.025804147 1.2127448 0.22601154 0.15372448 0.5666429 -0.70453876
-0.64615285 0.041115068 -0.6238378 -0.11544978 0.27236727 0.11587368 -0.6028342 0.15012959
-0.019401977 -0.0013458407 -0.027239487 -0.09347321 0.097568914 -0.039135654 0.14796536 0.44044954
0.018986043 0.11698954 -2.6449287 0.15717292 0.024628254 0.5043601 0.02598943 -0.2115031
0.23345914 -0.21636109 -0.09417238 -1.8437941 -0.026980046 0.074882776 2.064001 -0.16740051
-0.03202622 -0.15068465 0.11523262 -0.023999074 -0.058337282 -0.04112692 0.018788077 0.1381577
0.054883055 0.36590603 0.06304932 -0.13359834 0.20460172 0.43058506 -0.6693291 -0.29192314
0.4578693 -0.4783427 0.061972503 0.10631033 0.16981903 0.0065751816 -0.42869097 0.52523303
0.40792313 -0.2892626 -0.174167 -0.020154396 0.47907582 -0.19205083 0.18707262 -0.037429515
0.2915589 0.64200604 -0.23237124 0.16327813 0.5574609 0.5179048 0.22433329 -0.19608474
-0.8915437 0.10377175 -0.14047651 -0.70790565 0.28793144 0.110682175 0.17289475 -0.2892485
0.4412118 -0.00929281 -0.35486415 -0.22912125 0.5568818 -0.018881505 -0.38639283 -1.0816466
0.098610796 -0.2409535 -0.42054638 -0.33892772 -0.38463062 -0.34785396 -0.059859674 0.0949605
0.62407404 0.03607312 0.07078555 0.1471198 0.26256195 -0.30678794 0.22567095 -0.14042014
0.106996216 0.4225128 -0.03952188 -0.00075423 -0.43181252 -0.13153352 0.0058236895 0.21948121
0.0035389445 0.1697537 0.037632488 0.06300808 0.25324535 0.2840443 0.09663651 0.1371252
0.18326938 0.17724834 -0.18978779 0.09396516 0.09736184 -0.0505088 0.66395575 -0.020799493
0.15331824 0.076227754 0.31467953 0.37044883 0.025175074 0.29379457 0.0007054398 0.55769736
0.05654556 0.23578486 -0.39530697 0.2932238 -0.032867115 0.06544982 0.115512 0.09458096
0.41425067 0.042334944 0.23888157 0.19428349 0.37241557 0.16347213 -0.15222482 -0.005870728
00000000: cb06 c63b 7e89 ff3c f451 dbbc c103 1ebe
00000010: 95ae 15bd 1cf1 4abd 622a e73d a748 41bd
00000020: 36ea 4bbd ae02 203b 9d64 d2bd 007f 2bbd
00000030: 88af 2a3e d3ea 02be 6897 a339 4951 34be
00000040: a61e d1bb af49 6d3d df02 6fbd c2cb 6abc
00000050: ece6 f43c 6415 bcbd 3355 be3d 9478 29bd
00000060: 6a73 d33d 99b3 9abb 69bf 32bd a5f4 07be
00000070: 43fb 0b3c 7144 83bc b4ae 46bd 5712 b03d
00000080: 0c5e 5dbc f5aa 5fbd f09a 6d3c e039 753d
00000090: 0a85 adbd 00ce 39be 751b 39be b011 c33c
000000a0: 45d7 273e 02a3 b43e 1649 2abe e848 54be
000000b0: 7667 103e 5c76 46bd 50cf c7be 0cfe 9abe
000000c0: cb2c 833d 1850 b73d d9d9 46bd 1521 b3bc
000000d0: 9cdc 5bbd 88a1 82bf d7fb adbe b6ac 3fbc
000000e0: 3aa1 a93d eb6f a53d 4f66 14bb 03e2 f33d
000000f0: 77f3 bb3d 3128 fd3d c309 2bbf 4038 a8be
00000100: 43fd c53d 41b9 a7bd 1474 7e3e 1c42 b73b
00000110: 8690 07bf b270 f2bd 0ac7 9cba 190f 3dbf
00000120: 0c9e 07bf 181e f33d 92d3 183f e338 3cbd
00000130: 8e78 09bd fa23 41bc 10cd 5e3d 7b7d de3d
00000140: ac58 693e 28b1 1cbf 2c21 c9be 3656 923e
00000150: c317 71bd fff7 eb3e 5b64 1f3f 160a 193f
00000160: 9f32 913e 2d28 433d e68b 19bf ca71 febd
00000170: 91db 5cbf 0b93 1e3f 5c9f 933e 5647 143f
00000180: 4fa4 6f3f b4ac ddbd 3863 d3bc 393b 9b3f
00000190: 926f 673e f369 1d3e 820f 113f a75c 34bf
000001a0: 466a 25bf 4668 283d d6b3 1fbf ef70 ecbd
000001b0: b973 8b3e 2e4f ed3d 5853 1abf 92bb 193e
000001c0: e5f0 9ebc ec66 b0ba 5825 dfbc e26e bfbd
000001d0: 36d2 c73d b54c 20bd 3b84 173e 9a82 e13e
000001e0: 9e88 9b3c 3698 ef3d 8346 29c0 f0f1 203e
000001f0: 31c1 c93c be1d 013f c9e7 d43c 4594 58be
00000200: ea0f 6f3e c38d 5dbe 73dd c0bd 7201 ecbf
00000210: 4205 ddbc 245c 993d 9818 0440 0a6b 2bbe
00000220: ed2d 03bd 144d 1abe 14ff eb3d b599 c4bc
00000230: 13f3 6ebd b474 28bd 74e9 993c 3679 0d3e
00000240: 0ecd 603d 0958 bb3e 0020 813d 01ce 08be
00000250: 1d83 513e a575 dc3e 2759 2bbf f376 95be
00000260: d86d ea3e 56e9 f4be e1d6 7d3d 3bb9 d93d
00000270: 0ae5 2d3e 9f74 d73b 627d dbbe ac75 063f
00000280: 4ddb d03e 3a1a 94be d658 32be d51a a5bc
00000290: 6d49 f53e f9a8 44be f78f 3f3e b14f 19bd
000002a0: 3547 953e 825a 243f baf2 6dbe 6232 273e
000002b0: c2b5 0e3f 6995 043f a0b7 653e 70ca 48be
000002c0: 353c 64bf 4986 d43d 13d9 0fbe 4e39 35bf
000002d0: c06b 933e 56ad e23d 520b 313e 6118 94be
000002e0: 83e6 e13e df40 18bc c1b0 b5be c39e 6abe
000002f0: ce8f 0e3f 63ad 9abc 48d5 c5be 6573 8abf
00000300: 75f4 c93d 84bc 76be db51 d7be ef87 adbe
00000310: 4eee c4be ea19 b2be 6b2f 75bd a77a c23d
00000320: 51c3 1f3f 68c1 133d 04f8 903d 93a6 163e
00000330: 856e 863e 4f13 9dbe 4916 673e 4cca 0fbe
00000340: d520 db3d 9953 d83e b2e1 21bd 85b7 45ba
00000350: 8816 ddbe b9b0 06be a6d4 be3b afbf 603e
00000360: a3ed 673b ead3 2d3e 8624 1a3d 610a 813d
00000370: 60a9 813e 416e 913e 5de9 c53d 8c6a 0c3e
00000380: f8aa 3b3e 9780 353e bb57 42be ce70 c03d
00000390: a565 c73d 51e2 4ebd 01f9 293f b363 aabc
000003a0: 75ff 1c3e 4c1d 9c3d ad1d a13e 78ab bd3e
000003b0: f53b ce3c 3e6c 963e 43ed 383a 41c5 0e3f
000003c0: 519c 673d 9671 713e ad65 cabe 6e21 963e
000003d0: ab9f 06bd 8e0a 863d 8e91 ec3d aab3 c13d
000003e0: aa18 d43e 6867 2d3d 5f9d 743e 40f2 463e
000003f0: 41ad be3e 3d65 273e d3e0 1bbe 3c5f c0bb

conv.5.bias f4 [64]
-0.08311805 -0.2897408 -0.7276218 -0.20163053 -0.09633493 -0.2934479 0.4675066 0.07802056
-0.5566379 -0.20685035 -0.6069076 -3.321261 -0.51130646 -0.7180413 0.10383646 -0.55557793
-0.058041975 -0.71554065 -0.7092835 -0.08026158 -3.2598639 -0.4763404 -0.47458228 -0.5196631
-0.7555399 -0.7153471 -0.5543198 -3.0119858 -0.39380577 -0.13237843 0.9147596 -0.65198755
-0.6299126 -0.103103235 -0.5702073 -0.13315001 -1.7634181 -3.1553514 0.54885477 -0.10520945
-0.09621221 -0.10401811 -0.083842166 -0.52841926 0.23208734 -0.6391546 -0.7519842 0.2863224
-0.5413367 -0.7357676 -0.2936608 -0.4234416 -0.49282292 -0.32161796 -0.1420185 -0.57761353
-0.2083789 -0.12451346 -0.7446345 -0.3354542 -0.66328824 -0.5589619 -0.69542783 -0.15137544
00000000: cc39 aabd e858 94be 6c45 3abf 3c78 4ebe
00000010: 3f4b c5bd ce3e 96be 065d ef3e 3ec9 9f3d
00000020: d27f 0ebf 94d0 53be 4c5e 1bbf 8a8f 54c0
00000030: fbe4 02bf 8ed1 37bf 36a8 d43d 5b3a 0ebf
00000040: 6cbd 6dbd ac2d 37bf 9a93 35bf 2f60 a4bd
00000050: 9ca1 50c0 e4e2 f3be 73fc f2be a408 05bf
00000060: 106b 41bf fd20 37bf e7e7 0dbf 60c4 40c0
00000070: e9a0 c9be 368e 07be af2d 6a3f a8e8 26bf
00000080: f441 21bf ca27 d3bd 1bf9 11bf 7a58 08be
00000090: afb7 e1bf 47f1 49c0 bf81 0c3f 0d78 d7bd
000000a0: e80a c5bd 7207 d5bd 71b5 abbd 7c46 07bf
000000b0: 4ea8 6d3e a39f 23bf 0982 40bf da98 923e
000000c0: 0b95 0abf 445b 3cbf b55a 96be 56cd d8be
000000d0: 4953 fcbe 1cab a4be 4c6d 11be 7bde 13bf
000000e0: 4761 55be ea00 ffbd 5ea0 3ebf a7c0 abbe
000000f0: 42cd 29bf 2118 0fbf 8f07 32bf 2a02 1bbe

linear.1.weight f4 [256, 169]
0.0058983564 0.03927634 0.05919365 0.054136388 -0.025531128 -0.022116046 0.031506017 0.038530543
0.0523298 0.049607404 0.015166454 -0.011316881 0.032183588 0.04855319 -0.002104357 -0.014606945
0.0063044503 -0.044173554 -0.075353146 -0.020839334 0.07390759 -0.33541235 0.07547198 0.0125961155
-0.063693196 -0.065787256 -0.01698824 0.038327307 0.025421262 -0.0027178675 0.029781707 -0.00065297633
-0.044473805 0.27190965 -0.19816738 -0.35031357 0.019612975 0.020964175 -0.042589024 0.062179737
0.04365121 -0.0557345 0.09292046 0.40550572 0.5568374 0.38697973 0.2803848 -0.59380794
0.40360048 -0.5811844 0.09481821 0.14534025 0.040363543 0.050073214 -0.00809928 0.3787587
-0.38482326 0.6930776 -0.05330411 0.162971 0.19083092 -0.5571595 -0.1388781 0.1262816
-0.0517214 -0.02578098 -0.04729327 -0.03856768 -0.29285273 -0.13443942 0.58820826 0.5374103
0.8251317 0.052456208 0.93670475 -0.05131358 -0.052764453 0.031680584 0.028979488 -0.035843253
0.028441548 0.36891904 0.31824797 -0.16864926 -0.21482342 0.06633591 -0.5966314 0.57587564
0.039388917 0.050748043 -0.033357933 -0.035545845 -0.07502456 -0.25092787 -0.10666095 -0.14719684
0.35656554 0.04499652 0.40182337 0.15926754 -0.2899397 0.054057173 -0.059245348 -0.017436177
-0.011687763 0.050681893 -0.008011197 -0.13677241 -0.1830418 -0.13655381 -0.169827 0.13662899
0.38570154 -0.04894632 0.026477426 0.046686873 -0.027133055 0.024134662 -0.21057835 -0.124959715
0.06358233 0.13050118 0.21561836 -0.07093528 0.3065197 0.11856508 0.046307556 0.057452045
-0.03178647 0.06811691 0.050002508 -0.02715848 0.06355839 0.13452257 0.00083228364 -0.21048433
-0.037147798 0.05011124 0.010573648 -0.011265397 -0.031354647 0.060661323 0.069087915 -0.042322554
0.038329273 0.04598538 -0.13422295 -0.020789903 0.028071843 0.0042439997 0.010441452 -0.009715192
0.029839195 0.060886286 0.049214564 0.03212122 -0.060935453 0.017652497 -0.04599788 0.010452636
0.031554922 -0.0071871653 -0.071292154 0.05728098 -0.049168203 0.021991685 0.049634017 0.018248983
0.03853458 0.058048002 -0.06958019 -0.06756942 0.011232428 0.028531149 -0.069348074 0.0133373365
-0.036762696 -0.067893185 -0.049987867 0.045926005 -0.002309762 -0.051789306 -0.02223102 -0.009927824
-0.0195866 0.039755575 -0.017362688 -0.05354937 -0.046342753 0.06266924 0.14008489 -0.18869391
-0.033220623 0.018912159 -0.061385058 -0.059954736 0.05741165 0.00097159296 -0.02349826 0.026738763
-0.038946252 -0.007274933 -0.48008323 0.06801979 0.09736953 0.017962538 0.026630998 0.0031629503
0.0043074638 0.034999967 -0.017160848 -0.12531357 0.39730963 0.26280317 0.15983427 -0.25511095
0.5807735 0.12874842 0.24636154 0.12692517 -0.03407025 -0.04443521 -0.027306192 -0.060780335
-0.13700685 -0.2290548 0.48144636 -0.5846 0.4302977 -0.34006083 0.32204926 0.21046802
-0.020260163 -0.041544072 0.053795658 -0.029634733 -0.048421595 0.27352417 0.30535695 -0.31821027
0.36359033 -0.23886466 -0.24853805 -0.19260329 0.3230627 -0.04093669 0.06748887 -0.021678265
0.03954243 0.04877039 0.2899721 -0.45954403 -0.12478945 0.14128207 -0.17971192 -0.009967473
00000000: 0047 c13b 3ae0 203d 0a75 723d 1ebe 5d3d
00000010: a826 d1bc b62c b5bc 740c 013d 34d2 1d3d
00000020: c657 563d 2231 4b3d b87c 783c 706a 39bc
00000030: f0d2 033d b6df 463d 40e9 09bb f851 6fbc
00000040: 9095 ce3b 54ef 34bd c052 9abd 40b7 aabc
00000050: dd5c 973d 2bbb abbe 0e91 9a3d f05f 4e3c
00000060: 9471 82bd 78bb 86bd ec2a 8bbc 18fd 1c3d
00000070: 4040 d03c 401e 32bb c4f8 f33c 802c 2bba
00000080: 2a2a 36bd be37 8b3e 64ec 4abe 4d5c b3be
00000090: 64ab a03c 10bd ab3c d471 2ebd 2eb0 7e3d
000000a0: 9ccb 323d dc49 64bd 154d be3d 729e cf3e
000000b0: e58c 0e3f 3522 c63e 998e 8f3e cc03 18bf
000000c0: b9a4 ce3e 80c8 14bf 0d30 c23d 13d4 143e
000000d0: 3e54 253d 9219 4d3d d8b2 04bc a9ec c13e
000000e0: 8e07 c5be 896d 313f 6955 5abd dfe1 263e
000000f0: 2e69 433e 01a2 0ebf 1036 0ebe f74f 013e
00000100: d2d9 53bd a232 d3bc 96b6 41bd 25f9 1dbd
00000110: cbf0 95be 7daa 09be d194 163f b993 093f
00000120: d53b 533f 52dc 563d e2cb 6f3f 302e 52bd
00000130: 8a1f 58bd 80c3 013d 6466 ed3c 60d0 12bd
00000140: 40fe e83c f5e2 bc3e 66f1 a23e 64b2 2cbe
00000150: acfa 5bbe 1fdb 873d d6bc 18bf 966c 133f
00000160: 4656 213d 2edd 4f3d 54a2 08bd 8598 11bd
00000170: 7aa6 99bd 9e79 80be 0e71 dabd c5ba 16be
00000180: c28f b63e 454e 383d cbbb cd3e 0817 233e
00000190: fa72 94be 0e6b 5d3d 40ab 72bd 50d6 8ebc
000001a0: 087e 3fbc d197 4f3d 6541 03bc 110e 0cbe
000001b0: 4f6f 3bbe c3d4 0bbe 21e7 2dbe 78e8 0b3e
000001c0: ac7a c53e f07b 48bd 30e7 d83c bc3a 3f3d
000001d0: 2446 debc 0eb6 c53c daa1 57be e1ea ffbd
000001e0: 7437 823d 1aa2 053e 0fcb 5c3e 8446 91bd
000001f0: 26f0 9c3e 40d2 f23d feac 3d3d d652 6b3d
00000200: 8832 02bd e180 8b3d 6ecf 4c3d 767b debc
00000210: e72a 823d 49c0 093e 9c2d 5a3a 3489 57be
00000220: 4a28 18bd 7241 4d3d 183d 2d3c 8092 38bc
00000230: bb6d 00bd 0278 783d f77d 8d3d 6a5a 2dbd
00000240: 28ff 1c3d 2a5b 3c3d be71 09be 964f aabc
00000250: ecf6 e53c 4011 8b3b a012 2b3c 782c 1fbc
00000260: 5471 f43c e663 793d 3695 493d 8a91 033d
00000270: 7497 79bd f89b 903c 4668 3cbd 8841 2b3c
00000280: bc3f 013d 5082 ebbb 9f01 92bd 769f 6a3d
00000290: 9964 49bd e827 b43c 0a4d 4b3d e47e 953c
000002a0: 70d6 1d3d bec3 6d3d 0f80 8ebd d661 8abd
000002b0: 3808 383c 28ba e93c 5d06 8ebd d884 5a3c
000002c0: 7b94 16bd 950b 8bbd 14c0 4cbd e81c 3c3d
000002d0: 605f 17bb 0621 54bd d41d b6bc 50a8 22bc
000002e0: 1474 a0bc bed6 223d 323c 8ebc 9656 5bbd
000002f0: e6d1 3dbd bb58 803d 6a72 0f3e fa38 41be
00000300: 5912 08bd aced 9a3c e66e 7bbd 1993 75bd
00000310: 7a28 6b3d 80b2 7e3a 6c7f c0bc 400b db3c
00000320: 1b86 1fbd 9062 eebb 78cd f5be f64d 8b3d
00000330: ad69 c73d 2c26 933c 4029 da3c 8049 4f3b
00000340: a025 8d3b 205c 0f3d e894 8cbc 3352 00be
00000350: 2b6c cb3e 238e 863e 98ab 233e e79d 82be
00000360: 92ad 143f a0d6 033e 3346 7c3e acf8 013e
00000370: 3f8d 0bbd b201 36bd 3cb1 dfbc cdf4 78bd
00000380: 864b 0cbe 578d 6abe 2380 f63e 58a8 15bf
00000390: fb4f dc3e 741c aebe a4e3 a43e ee84 573e
000003a0: a4f8 a5bc 1e2a 2abd d658 5c3d 8ac4 f2bc
000003b0: b955 46bd 5c0b 8c3e bf57 9c3e 75ec a2be
000003c0: 8328 ba3e f098 74be c280 7ebe cc39 45be
000003d0: 7968 a53e 3bad 27bd 9b37 8a3d 9e96 b1bc
000003e0: 3ef7 213d 76c3 473d 3977 943e 5b49 ebbe
000003f0: 9c91 ffbd 3fac 103e 6706 38be 9d4e 23bc

linear.1.bias f4 [256]
-0.08108049 -0.057427756 0.0267225 0.2618651 0.09023456 -0.08837903 0.30885968 -0.12689161
-0.017006295 -0.09267819 0.012121446 0.17790414 0.10462862 -0.067883976 0.039754983 -0.09863331
0.034209367 -0.114336625 -0.1173465 -0.044899 0.016252993 -0.4814669 -0.24002934 0.079456426
-0.26684338 -0.27592218 0.30915755 0.16604872 -0.2225087 -0.02222409 -0.23480533 0.090754494
-0.41429755 0.093135156 -0.071295016 0.044858307 0.16062199 0.08043012 0.009065631 -0.1708386
0.016173549 -0.10443096 -0.14604785 0.18687364 -0.06843491 -0.21543303 0.107912004 -0.45590338
0.03395539 0.21388467 0.12218114 0.046718687 0.0022665493 0.11813809 0.055691835 -0.43904176
0.007066762 0.019817121 -0.15313837 -0.04188837 -0.20629717 -0.25535613 0.15029103 0.19131523
-0.2767293 -0.015948005 0.05034975 -0.01839751 -0.006180284 0.24619566 0.14976263 -0.1756494
-0.06041097 -0.20620167 0.053935304 -0.10646163 -0.26580054 -0.030216485 -0.026518552 0.2748858
0.1680232 0.19594406 0.059386842 -0.074452266 -0.094905585 -0.31778586 -0.16130064 0.015152857
-0.44539404 -0.07209187 -0.2156845 0.036536682 0.1302014 -0.05481932 -0.12349955 0.19251385
0.1224511 0.04319408 0.27945822 -0.0005376915 -0.061453126 -0.048660643 -0.38136175 -0.118712984
-0.2722806 0.008337381 -0.20508017 -0.027028097 -0.20742677 -0.1812371 -0.44136605 0.046910852
-0.14995581 -0.11577069 -0.06157099 0.2727926 -0.09372651 0.038895886 0.15131673 -0.12488892
0.10963226 -0.09024015 -0.03597626 0.071125194 -0.31214362 -0.30599406 0.03371967 -0.144245
-0.0346541 -0.04016503 0.08933656 -0.32138428 -0.12765297 -0.025065865 -0.19149661 0.04906892
-0.019628335 0.030216224 -0.0108527355 0.21293929 -0.08179627 -0.044940505 0.06274285 -0.20119086
0.07234611 -0.07115855 -0.037054993 0.11713758 -0.23057391 -0.047276177 0.23734485 -0.13686942
-0.3029361 -0.3608773 0.08383597 0.08421498 -0.104483366 0.06347306 0.09699979 0.11026899
-0.1603256 0.03625953 -0.005617443 -0.43045533 0.016652796 0.028647335 0.23681058 -0.16410406
0.17806849 -0.12505189 0.02163053 -0.41372553 0.059971962 0.053189717 -0.13776827 -0.19287848
-0.057120983 0.16639654 0.043645747 0.06739224 -0.3321793 -0.100780666 0.15562804 0.015398319
-0.19686061 -0.40181357 0.06680435 0.04819743 -0.29470855 -0.042948384 -0.17519097 -0.23375893
0.14352375 -0.076315396 -0.23034818 -0.27412605 0.08089414 -0.13482669 -0.5686448 -0.28247604
-0.13757423 -0.2945379 -0.17923804 -0.110286854 -0.21077019 -0.12996809 -0.08917302 0.19405138
-0.4315334 0.226339 -0.30614954 -0.14150678 -0.21734266 0.2336897 -0.32688707 0.0068556066
0.013752206 -0.012375995 -0.19905736 0.24614182 0.06447207 0.042441856 -0.11789971 -0.28553084
-0.013306724 -0.062524535 -0.11114202 -0.22580089 0.04612171 0.09910184 0.27970916 -0.21079868
0.040848237 -0.2269399 -0.10211176 -0.2227497 -0.39947712 -0.2853793 -0.06887991 -0.013227108
-0.17369193 -0.20731409 -0.109057784 0.061195083 -0.055320174 -0.038227785 0.10330034 -0.30950856
0.048422337 -0.48315713 0.1528127 -0.1258541 0.20644265 0.21298347 0.08972501 -0.17729056
00000000: 870d a6bd 5e39 6bbd 25e9 da3c 2f13 863e
00000010: e6cc b83d 1100 b5bd db22 9e3e e0ef 01be
00000020: c950 8bbc 10ce bdbd 0899 463c 812c 363e
00000030: 8847 d63d c106 8bbd 1fd6 223d 4300 cabd
00000040: 1f1f 0c3d 5229 eabd 5d53 f0bd 04e8 37bd
00000050: ff24 853c d482 f6be 40ca 75be 0dba a23d
00000060: b29f 88be ac45 8dbe e649 9e3e ad08 2a3e
00000070: 52d9 63be 4b0f b6bc cf70 70be 7edd b93d
00000080: cf1e d4be a5bd be3d 1f03 92bd 58bd 373d
00000090: 177a 243e 8cb8 a43d 0388 143c 50f0 2ebe
000000a0: 647e 843c e6df d5bd 918d 15be ce5b 3f3e
000000b0: 9a27 8cbd 7a9a 5cbe f800 dd3d 2b6c e9be
000000c0: cf14 0b3d 9504 5b3e 1b3a fa3d 185c 3f3d
000000d0: 638a 143b 62f2 f13d 1f1d 643d 15ca e0be
000000e0: 4c90 e73b 8457 a23c 4ed0 1cbe 2493 2bbd
000000f0: 913f 53be 0abe 82be e4e5 193e 24e8 433e
00000100: 76af 8dbe 64a5 82bc 8a3b 4e3d 60b6 96bc
00000110: fb83 cabb b71a 7c3e 605b 193e 70dd 33be
00000120: 7e71 77bd 8826 53be 44eb 5c3d 8e08 dabd
00000130: 0217 88be 9088 f7bc 6f3d d9bc d5bd 8c3e
00000140: 460e 2c3e 8fa5 483e 9e3f 733d 6e7a 98bd
00000150: dc5d c2bd d4b4 a2be ff2b 25be b043 783c
00000160: b00a e4be e7a4 93bd 66dc 5cbe 7da7 153d
00000170: 8453 053e 398a 60bd 55ed fcbd 5a22 453e
00000180: a4c7 fa3d 47ec 303d 2615 8f3e def3 0cba
00000190: 46b6 7bbd 6250 47bd d941 c3be cb1f f3bd
000001a0: 5d68 8bbe 8399 083c 8900 52be 076a ddbc
000001b0: af67 54be 3896 39be bbfa e1be 9825 403d
000001c0: 048e 19be 2f19 edbd dd31 7cbd 79ab 8b3e
000001d0: aff3 bfbd 4b51 1f3d c6f2 1a3e c3c5 ffbd
000001e0: e186 e03d d4cf b8bd d85b 13bd 16aa 913d
000001f0: 4ad1 9fbe 41ab 9cbe a31d 0a3d f6b4 13be
00000200: 75f1 0dbd 1684 24bd 16f6 b63d 7b8c a4be
00000210: 76b7 02be ee56 cdbc b017 44be 7efc 483d
00000220: 9acb a0bc 0488 f73c accf 31bc c20c 5a3e
00000230: ce84 a7bd 8913 38bd 537f 803d fa04 4ebe
00000240: 332a 943d 93bb 91bd fac6 17bd d4e5 ef3d
00000250: 911b 6cbe aaa4 41bd 870a 733e 7f27 0cbe
00000260: 711a 9bbe e9c4 b8be 31b2 ab3d e778 ac3d
00000270: 60fb d5bd 2afe 813d d3a7 c63d b5d4 e13d
00000280: 652c 24be df84 143d 8712 b8bb a464 dcbe
00000290: 726b 883c d1ad ea3c 797e 723e e50a 28be
000002a0: 9657 363e 9a0d 00be 8232 b13c d5d3 d3be
000002b0: 29a5 753d 76dd 593d 2013 0dbe f081 45be
000002c0: b1f7 69bd db63 2a3e e2c5 323d f104 8a3d
000002d0: 6813 aabe 1866 cebd f55c 1f3e 3b49 7c3c
000002e0: d495 49be 82ba cdbe b8d0 883d ab6a 453d
000002f0: 0ae4 96be a5ea 2fbd 4365 33be 805e 6fbe
00000300: e4f7 123e 3f4b 9cbd 65e0 6bbe 405a 8cbe
00000310: d4ab a53d 0210 0abe b592 11bf b3a0 90be
00000320: 42e0 0cbe accd 96be 2d8a 37be 13de e1bd
00000330: 24d4 57be 5b16 05be 58a0 b6bd 68b5 463e
00000340: f2f1 dcbe 69c5 673e a2bf 9cbe 27e7 10be
00000350: 138f 5ebe 5a4c 6f3e be5d a7be ffa4 e03b
00000360: ef50 613c afc4 4abc b1d5 4bbe 9a0c 7c3e
00000370: ef09 843d 83d7 2d3d 6775 f1bd 1931 92be
00000380: 7204 5abc dd0c 80bd 6d9e e3bd 5938 67be
00000390: 1eea 3c3d e8f5 ca3d 0a36 8f3e 9cdb 57be
000003a0: 7b50 273d ef62 68be f81f d1bd 7f18 64be
000003b0: 4488 ccbe 3c1d 92be e910 8dbd 83b6 58bc
000003c0: 4cdc 31be 254a 54be b059 dfbd b2a7 7a3d
000003d0: 6897 62bd bd94 1cbd 218f d33d e877 9ebe
000003e0: 8056 463d 5f60 f7be ef7a 1c3e e6df 00be
000003f0: b465 533e 5718 5a3e bfc1 b73d a88b 35be

linear.3.weight f4 [64, 256]
-0.19740726 0.85161275 0.5167688 -0.11165353 -0.29330447 -0.44847983 0.40260696 -0.15663011
-0.14012995 0.9224673 0.15225653 -0.24770728 -0.47807398 0.15180944 0.3760818 1.2647972
-0.21721902 0.30078033 0.2117958 -0.39380744 -0.2590761 0.25912902 0.6690824 -0.03839788
-0.20966822 -0.08379507 -0.1806188 0.78353375 -0.41280326 0.19166909 0.52490044 -0.13522974
0.13346606 -0.27160257 0.4294695 -0.57864857 -0.6218621 -0.014817447 -0.14574772 0.83879274
0.23715127 0.4275622 -0.01673463 0.046353683 0.8700295 -0.58754575 0.6204442 -0.054053854
0.040467143 -0.096401796 -0.45367146 0.09834446 0.102607064 -0.26683533 -0.52550095 -0.0055190823
0.44884646 -0.17239763 0.006105026 0.05360738 -0.34543845 -0.08443045 -0.9007202 0.02628526
0.46906593 0.050498 -0.73003805 0.16285037 0.49520093 -0.0031194696 0.4640258 0.42195514
-0.6648942 0.38923985 -0.59538746 -0.40189165 0.43024218 -0.41689816 -0.2676074 -0.6719324
-0.05581035 -0.032045107 -0.15245923 0.10548233 -0.36497942 0.57515717 0.6097048 -0.74189025
0.75721884 0.009685383 0.10216915 -0.0557498 0.60144067 0.42063516 -0.014103485 -1.023418
-0.35318318 -0.555251 -0.3458353 0.026106764 -0.17498302 -0.12671912 -0.32478857 0.56072795
0.11059459 -0.3430016 0.80747145 -0.7058829 -0.5550038 0.5038306 -0.2157336 -0.4035156
0.7187416 -0.007348038 0.053237583 -0.35242906 0.60474193 -0.43043908 0.6236006 0.03609789
0.45786908 0.21750502 0.4656295 -0.6891835 -0.4439442 0.5393954 0.55911005 0.1731783
0.036565352 0.06034242 0.26420674 0.29265523 0.44398567 0.9454225 -0.26066485 -0.4333634
-0.40802962 -0.122225314 0.6767623 0.5525691 0.4819014 0.8857746 -0.4157987 0.20708244
-0.8153012 0.33392403 0.6160521 0.24905233 -0.6458344 -0.44411835 -0.13829108 -0.39439565
-0.23226522 -0.6533086 -0.451041 -0.064053 0.5613459 0.12243846 0.28395778 -0.35040614
-0.19844745 -0.29252473 -0.6098785 -0.7824034 -0.32636982 0.12611109 -0.19056712 0.33165705
0.54957724 0.032924227 0.66262364 0.6667481 0.34126735 0.15601037 0.39670235 0.026032321
-0.073671214 -0.67877865 -0.8702149 -0.5143529 0.05693763 0.09695374 -0.4218847 0.50581944
0.7518002 0.63089615 0.39240438 0.76939523 0.36986452 0.014885174 0.12319817 -0.0076591
-0.6086861 0.64461684 0.26406553 -0.046001107 0.3160641 -0.31778544 0.26745966 1.1552875
-0.42875537 0.5709083 1.0094004 -0.5132302 -0.4950841 0.6971239 -0.42308158 -0.14723286
0.1906148 -0.2734286 -0.04310814 -0.64833367 0.5753885 0.021349847 -0.12491268 1.326932
0.83615845 -0.14128666 0.9413035 0.051098954 -0.7663796 -0.77571267 0.7868115 -0.34587607
-0.46804193 -0.020093018 0.69587594 0.80305725 0.26907277 -0.6237079 -0.2651231 0.32884052
-0.6803977 0.69837 -0.28519297 0.49550095 -0.22222023 -0.09624868 -0.2612902 0.22927144
-0.7186266 0.5931272 0.3506819 0.80494905 0.27835482 0.8327012 -0.29080462 0.59252656
-0.49333382 0.15303856 0.23930083 -0.18082426 -0.24390766 -0.31398273 -0.5303754 -0.13957155
00000000: 2125 4abe 4b03 5a3f f64a 043f 9baa e4bd
00000010: 012c 96be 269f e5be 8022 ce3e a563 20be
00000020: 3a7e 0fbe d126 6c3f 23e9 1b3e faa6 7dbe
00000030: 1dc6 f4be ef73 1b3e cb8d c03e e0e4 a13f
00000040: aa6e 5ebe e1ff 993e 00e1 583e 21a1 c9be
00000050: 9fa5 84be 8fac 843e fc48 2b3f 1847 1dbd
00000060: 44b3 56be c09c abbd 22f4 38be ab95 483f
00000070: f35a d3be e744 443e e05f 063f aa79 0abe
00000080: 54ab 083e 7e0f 8bbe 6de3 db3e 5022 14bf
00000090: 5b32 1fbf e1c4 72bc e43e 15be 1fbb 563f
000000a0: c8d7 723e 6fe9 da3e 1017 89bc 5cdd 3d3d
000000b0: 41ba 5e3f 6669 16bf 6ed5 1e3f 9367 5dbd
000000c0: e0c0 253d 4e6e c5bd a047 e8be d268 c93d
000000d0: a723 d23d a49e 88be 3b87 06bf 6bd9 b4bb
000000e0: 34cf e53e 0189 30be ac0c c83b 6993 5b3d
000000f0: 4fdd b0be dfe9 acbd 9995 66bf 3054 d73c
00000100: 6929 f03e fed6 4e3d c6e3 3abf 3fc2 263e
00000110: fa8a fd3e 0470 4cbb ca94 ed3e 810a d83e
00000120: 8236 2abf 724a c73e 506b 18bf bec4 cdbe
00000130: b448 dc3e ad73 d5be d603 89be c303 2cbf
00000140: 6599 64bd bb41 03bd 461e 1cbe 1f07 d83d
00000150: 95de babe 803d 133f 9d15 1c3f 85ec 3dbf
00000160: 18d9 413f 71af 1e3c 0f3e d13d e759 64bd
00000170: 04f8 193f 7e5d d73e 4e12 67bc 5cff 82bf
00000180: 6dd4 b4be ee24 0ebf 5311 b1be dadd d53c
00000190: c02e 33be a8c2 01be b04a a6be de8b 0f3f
000001a0: 6b7f e23d e89d afbe 73b6 4e3f beb4 34bf
000001b0: bb14 0ebf 0bfb 003f 45e9 5cbe 9999 cebe
000001c0: 73ff 373f cfc7 f0bb a70f 5a3d 9571 b4be
000001d0: 5ed0 1a3f 8362 dcbe 4aa4 1f3f 62db 133d
000001e0: d16d ea3e a3b9 5e3e fd66 ee3e 546e 30bf
000001f0: a74c e3be d115 0a3f d621 0f3f a755 313e
00000200: 8dc5 153d 9d29 773d 1b46 873e e8d6 953e
00000210: 1752 e33e 3507 723f dd75 85be cfe1 ddbe
00000220: 42e9 d0be 4451 fabd 4b40 2d3f 2b75 0d3f
00000230: c8bb f63e 20c2 623f 91e3 d4be 6b0d 543e
00000240: 94b7 50bf 17f8 aa3e 97b5 1d3f 9307 7f3e
00000250: 6755 25bf 7b63 e3be 2d9c 0dbe 3aee c9be
00000260: efd6 6dbe 3b3f 27bf d9ee e6be 382e 83bd
00000270: 5db4 0f3f 04c1 fa3d ea62 913e 6f68 b3be
00000280: cf35 4bbe cdc5 95be ff20 1cbf 974b 48bf
00000290: f219 a7be 4423 013e 0724 43be f4ce a93e
000002a0: 18b1 0c3f 8edb 063d b4a1 293f 01b0 2a3f
000002b0: 98ba ae3e 2fc1 1f3e 921c cb3e bc41 d53c
000002c0: efe0 96bd 70c4 2dbf 67c6 5ebf a2ac 03bf
000002d0: 6f37 693d af8f c63d 4501 d8be 627d 013f
000002e0: fa75 403f 6982 213f 3ae9 c83e 16f7 443f
000002f0: e25e bd3e f2e0 733c 524f fc3d 30f9 fabb
00000300: dad2 1bbf 9c05 253f 9933 873e a86b 3cbd
00000310: 27d3 a13e c6b4 a2be 79f0 883e 76e0 933f
00000320: d385 dbbe 0c27 123f 0834 813f 0e63 03bf
00000330: aa7b fdbe b676 323f 269e d8be 36c4 16be
00000340: 8730 433e d5fe 8bbe 2992 30bd 32f9 25bf
00000350: a94c 133f e0e5 ae3c 38d2 ffbd e8d8 a93f
00000360: 7b0e 563f 73ad 10be 44f9 703f 234d 513d
00000370: 7431 44bf 1b95 46bf 7a6c 493f ab16 b1be
00000380: 31a3 efbe 1d9a a4bc ed24 323f 2995 4d3f
00000390: e8c3 893e 52ab 1fbf 37be 87be c95d a83e
000003a0: 8b2e 2ebf 60c8 323f d004 92be 4db2 fd3e
000003b0: b38d 63be 071e c5bd d4c7 85be 22c6 6a3e
000003c0: eaf7 37bf 2fd7 173f 948c b33e 2411 4e3f
000003d0: 8684 8e3e e82b 553f 58e4 94be d2af 173f
000003e0: 4096 fcbe 24b6 1c3e 470b 753e ff29 39be
000003f0: eec2 79be 58c2 a0be afc6 07bf d8eb 0ebe

linear.3.bias f4 [64]
-0.096145906 -0.3218358 -0.1530918 -0.34224218 -0.11143523 -0.25698873 -0.45014948 -0.33931643
-0.37720183 -0.35938382 -0.4302556 -0.5234646 -0.4701617 -0.48586777 -0.2583467 -0.43966773
-0.47036102 -0.34552208 -0.30291083 -0.48634803 -0.10090692 0.08963345 -0.19698876 -0.14820656
-0.16776156 -0.6421566 -0.5801384 -0.6228978 -0.59070146 -0.42213008 -0.4263189 -0.39589617
-0.06260449 -0.57688284 -0.6599029 -0.26512536 -0.48647302 -0.22131814 -0.22865696 -0.38354293
-0.33211732 -0.5648917 0.092904985 -0.33514774 -0.09277259 -0.35796657 -0.4566801 -0.09426337
-0.041170146 -0.06381494 -0.17624475 -0.20401286 -0.13180606 -0.33360422 -0.2659852 -0.25656354
-0.48412603 -0.2892354 -0.48406288 -0.5638316 -0.64262015 -0.19425295 -0.49709216 -0.48250392
00000000: 25e8 c4bd a9c7 a4be 19c4 1cbe 5e3a afbe
00000010: 2738 e4bd 0794 83be fe79 e6be e2ba adbe
00000020: 9920 c1be 2801 b8be 764a dcbe c701 06bf
00000030: 09b9 f0be a9c3 f8be 0546 84be 211c e1be
00000040: 29d3 f0be 45e8 b0be 2117 9bbe 9c02 f9be
00000050: 4aa8 cebd be91 b73d 6cb7 49be 76c3 17be
00000060: b0c9 2bbe 6064 24bf f383 14bf 3b76 1fbf
00000070: 3638 17bf 6f21 d8be 7946 dabe e7b2 cabe
00000080: c836 80bd 98ae 13bf 65ef 28bf 83be 87be
00000090: fe12 f9be 39a1 62be 0d25 6abe bd5f c4be
000000a0: 480b aabe be9c 10bf f844 be3d 7c98 abbe
000000b0: 8eff bdbd 6547 b7be f9d1 e9be 270d c1bd
000000c0: 07a2 28bd 68b1 82bd 8179 34be bfe8 50be
000000d0: 2bf8 06be 2cce aabe 362f 88be 4c5c 83be
000000e0: 5edf f7be aa16 94be 17d7 f7be 4557 10bf
000000f0: c182 24bf 3fea 46be dd82 febe c10a f7be

reg.weight f4 [2, 128]
0.16616312 -0.03154434 0.46295774 -1.3675395 0.10709033 0.2640965 -0.45810413 0.4363443
0.07650437 0.18179527 0.17035274 0.064114735 0.14036694 0.18901266 -0.23004863 -0.08423028
0.055319242 0.17338255 0.18905693 0.09960961 0.30581066 0.16054364 0.07227718 0.08388138
0.1859785 0.13033788 0.058125846 0.42134997 -0.055515368 -0.36613518 -0.597694 0.19364211
0.15484266 0.16274776 0.19504659 0.095043026 0.18046232 0.17180875 -0.5692106 0.07717809
0.07417501 0.16400328 0.058017045 0.047642156 -0.3791993 -0.043105938 0.18476471 0.45273066
0.14208128 0.25434297 -0.057925176 0.08765312 0.14317432 0.13543232 0.17950371 -0.2495585
0.17394465 0.06735316 0.17061956 0.0953221 0.1288378 0.050905325 0.18662909 0.17086826
0.42086723 0.3765072 0.3327481 0.35022986 -0.46132246 0.31849194 0.34675172 0.37217715
-0.4339954 0.32651803 0.36571085 0.36379337 0.33418533 0.3389171 -0.41903085 0.37093437
0.2634426 0.33408192 -0.4137771 0.35597402 0.3624467 -0.41437477 0.3801113 -0.4451084
-0.41997302 0.35983276 0.38134402 0.3298178 0.37128234 0.2958121 0.3538198 0.34056315
0.45674512 0.37160537 0.3747212 0.36801535 0.37505847 -0.42251492 0.3167724 0.3169555
0.34421474 0.36692485 0.45919767 0.38341695 0.44511282 0.36599565 0.35286075 0.50508255
0.29989088 0.31457824 -0.44851387 -0.44062716 -0.45418078 0.34691483 0.37928912 -0.41340527
0.37367886 0.34347156 0.36579183 0.36284563 0.36268106 -0.45201138 0.38698417 0.35398132
0.0757949 -0.030751314 0.0029682047 -0.005572165 0.03946725 0.1053418 -0.022967266 -0.003986348
0.06663678 -0.06357467 0.010228412 0.04567566 0.10878493 0.049923573 0.0038244887 0.015971014
0.07950815 0.050252922 0.020649413 0.046659462 -0.0440394 0.13540748 -0.0043838327 0.0019663083
0.0280319 -0.082360454 -0.04331327 0.25109872 0.029957179 0.0020454824 -0.022725033 0.071255445
0.12752385 0.05841631 0.06413658 0.043503474 0.0020731576 -0.022672083 0.026522214 0.051143162
0.06459499 0.087865636 0.0767997 0.058592692 0.041708276 -0.010793575 0.0001491624 -0.039716493
0.013023436 0.026975745 -0.060694035 -0.06228204 0.038905658 0.17062476 -0.025848543 0.032411546
0.07339433 0.04752728 -0.120572366 -0.022084223 0.017668363 -0.058639225 0.034070827 0.044707112
0.008996656 0.007858947 0.031354282 -0.0017217303 0.009774277 0.006612354 0.0030576962 0.012099123
-0.017658412 0.008242367 -0.021349791 -0.007231576 0.01856595 -0.010449168 -0.024478044 0.0030832533
0.023735022 -0.0009206648 -0.02002192 0.0063243103 0.009482148 0.00053737767 -0.0074596973 -0.00440231
0.010566668 0.0098108305 -0.007853446 -0.005057409 -0.0012204293 -0.013641528 0.004542321 0.021617653
0.013468112 0.002586232 -0.0045847734 -0.02321175 0.012596514 -0.027372861 0.016780814 0.0061576376
0.014862736 -0.007550118 0.014811545 -0.013439123 -0.0061658984 -0.014937185 -0.003372041 -0.019808613
-0.12951176 -0.06262553 0.007338545 0.035224058 0.023674212 -0.002805784 -0.0009480947 0.0034608238
0.023307012 0.0017656599 0.008795434 -0.0139864655 -0.004163899 -0.0033730364 -0.0008720177 -0.01887539
00000000: aa26 2a3e a334 01bd cc08 ed3e 890b afbf
00000010: 2d52 db3d a837 873e a08c eabe 8568 df3e
00000020: 53ae 9c3d 8a28 3a3e f370 2e3e 964e 833d
00000030: 5abc 0f3e 898c 413e de91 6bbe ed80 acbd
00000040: 6e96 623d 328b 313e 2498 413e 2000 cc3d
00000050: 3793 9c3e 8d65 243e 0f06 943d 00ca ab3d
00000060: 2671 3e3e 4b77 053e 5e15 6e3d 2fbb d73e
00000070: 1564 63bd 1276 bbbe 7902 19bf 1e4a 463e
00000080: 138f 1e3e 59a7 263e 4bba 473e eba5 c23d
00000090: 1dcb 383e a2ee 2f3e c9b7 11bf 8c0f 9e3d
000000a0: 11e9 973d 7af0 273e 48a3 6d3d 6c24 433d
000000b0: 6926 c2be da8f 30bd f632 3d3e 50cc e73e
000000c0: c17d 113e 3e39 823e f342 6dbd 7b83 b33d
000000d0: 4a9c 123e c5ae 0a3e d2cf 373e 438c 7fbe
000000e0: 8c1e 323e 74f0 893d e5b6 2e3e 3c38 c33d
000000f0: 0eee 033e 1a82 503d b21b 3f3e 17f8 2e3e
00000100: e97b d73e 8dc5 c03e f55d aa3e 5451 b33e
00000110: 7532 ecbe 6011 a33e 7189 b13e 018e be3e
00000120: a534 debe 5f2d a73e 743e bb3e 2043 ba3e
00000130: 571a ab3e 8b86 ad3e 368b d6be 1ceb bd3e
00000140: f3e1 863e c90c ab3e 98da d3be 3a42 b63e
00000150: 9d92 b93e ee28 d4be f39d c23e 40e5 e3be
00000160: b406 d7be 003c b83e 863f c33e e1dd a83e
00000170: b818 be3e af74 973e de27 b53e 4b5e ae3e
00000180: 7fda e93e 0f43 be3e 75db bf3e 826c bc3e
00000190: aa07 c03e e053 d8be fe2f a23e fe47 a23e
000001a0: ea3c b03e 93dd bb3e f51b eb3e 3a4f c43e
000001b0: d4e5 e33e c863 bb3e 2aaa b43e 174d 013f
000001c0: 4c8b 993e 6610 a13e 9ca3 e5be e299 e1be
000001d0: 628a e8be d29e b13e 2f32 c23e dba9 d3be
000001e0: d652 bf3e 81db af3e 1149 bb3e e7c6 b93e
000001f0: 55b1 b93e 096e e7be ca22 c63e 0a3d b53e
00000200: 5b3a 9b3d 2eea fbbc 3686 423b b596 b6bb
00000210: 69a8 213d 71bd d73d d925 bcbc e99f 82bb
00000220: dd78 883d 7033 82bd 1295 273c 6716 3b3d
00000230: a2ca de3d a97c 4c3d 46a4 7a3b a5d5 823c
00000240: 2bd5 a23d 02d6 4d3d f528 a93c fe1d 3f3d
00000250: a862 34bd 42a8 0a3e 41a6 8fbb 2edd 003b
00000260: 28a3 e53c 99ac a8bd 4169 31bd 0390 803e
00000270: c268 f53c 800d 063b d929 babc 60ee 913d
00000280: 9d95 023e f145 6f3d 0a5a 833d b330 323d
00000290: d0dd 073b ceba b9bc 1d45 d93c 7e7b 513d
000002a0: 614a 843d e6f2 b33d 2949 9d3d e4fe 6f3d
000002b0: 4cd6 2a3d 89d7 30bc 7a68 1c39 c3ad 22bd
000002c0: 4060 553c 3dfc dc3c 4f9a 78bd 741b 7fbd
000002d0: 8a5b 1f3d 42b8 2e3e 53c0 d3bc f8c1 043d
000002e0: c44f 963d f7ab 423d a5ee f6bd f9e9 b4bc
000002f0: 3ebd 903c af2f 70bd da8d 0b3d ce1e 373d
00000300: b666 133c d0c2 003c 596d 003d afab e1ba
00000310: 4a24 203c 72ac d83b a163 483b 663b 463c
00000320: 60a8 90bc fe0a 073c c2e5 aebc dbf6 ecbb
00000330: 9f17 983c fd32 2bbc 2e86 c8bc 6810 4a3b
00000340: f36f c23c c558 71ba 0205 a4bc 293c cf3b
00000350: 035b 1b3c cede 0c3a 7a70 f4bb 4141 90bb
00000360: d11f 2d3c 9bbd 203c bdab 00bc 9fb8 a5bb
00000370: d0f6 9fba b780 5fbc c0d7 943b 8117 b13c
00000380: 5ba9 5c3c c67d 293b de3b 96bb 9126 bebc
00000390: 9c61 4e3c 0d3d e0bc eb77 893c 02c6 c93b
000003a0: d582 733c fb66 f7bb 1fac 723c c42f 5cbc
000003b0: 4e0b cabb 18bb 74bc 76fd 5cbb ac45 a2bc
000003c0: bb9e 04be d041 80bd 2d78 f03b 1a47 103d
000003d0: 6cf0 c13c 3fe1 37bb 8f89 78ba fdce 623b
000003e0: 59ee be3c b76d e73a b91a 103c 7d27 65bc
000003f0: 5171 88bb 290e 5dbb 1e98 64ba 90a0 9abc

reg.bias f4 [2]
0.14445674 -0.041172296
00000000: 78ec 133e 48a4 28bd
