server/model2/value_model_minmax2_noexplore60.pt (torch, 255505 bytes, 12 tensors)

conv.0.weight f4 [4, 1, 3, 3]
0	0x40002a21	2.0025713
1	0x401c1b5b	2.4391696
2	0x407ecc1c	3.9812078
3	0x404434a6	3.0657134
4	0x40073228	2.1124363
5	0x3f9a4ef2	1.2055342
6	0x401718e6	2.3608947
7	0x3f24d180	0.6438217
8	0x3ff46df4	1.9096055
9	0x3f8a4b31	1.0804197
10	0x3f212852	0.6295215
11	0x4055f6d3	3.34319
12	0x400defde	2.2177653
13	0x4084137d	4.127379
14	0x3cc9e8a0	0.024647057
15	0x40399012	2.8994184
16	0x3f5cfc3c	0.8632238
17	0x4022a515	2.5413258
18	0xbe8916dd	-0.26775256
19	0x3fbc6475	1.4718157
20	0x3fbcc9d0	1.4749088
21	0x400a04f1	2.1565516
22	0x407a7d58	3.9139004
23	0x409cceee	4.90026
24	0x3ff53c3b	1.9159006
25	0x400b97df	2.1811445
26	0x4033074c	2.7973204
27	0x404ecb82	3.2311711
28	0x401506ab	2.328532
29	0x4058224f	3.377094
30	0x404d9253	3.212056
31	0x403ddaa8	2.9664707
32	0x4013e63d	2.3109276
33	0xbee5fa14	-0.44917357
34	0x403264db	2.7874057
35	0x3d2070d7	0.039170112

conv.0.bias f4 [4]
0	0x40081487	2.126253
1	0x3fc3a34b	1.5284208
2	0x3fe62378	1.7979574
3	0x40055820	2.0835037

conv.2.weight f4 [4, 4, 3, 3]
0	0x4007de76	2.122953
1	0x404f0955	3.2349446
2	0x401ddf94	2.4667711
3	0x402c0247	2.687639
4	0x401a7a2b	2.4137065
5	0x401b67fd	2.428222
6	0x3fd203a2	1.6407359
7	0x402a6609	2.6624777
8	0x3fd87768	1.691144
9	0x4024dca1	2.5759661
10	0x402dab21	2.7135699
11	0x403e3395	2.9718983
12	0x40486904	3.1314096
13	0x3fbc0588	1.4689188
14	0x4024a499	2.5725462
15	0x3fa39a74	1.278151
16	0x40212ca0	2.5183487
17	0x3f6e8413	0.9317028
18	0x3fe7ed3b	1.8119272
19	0x40768f85	3.8525097
20	0x401f3fe6	2.488275
21	0x4032c07e	2.7929988
22	0x4026d489	2.606722
23	0x40006f51	2.0067942
24	0x4016f4ea	2.3586984
25	0x3fd7df37	1.6864995
26	0x4005231b	2.0802677
27	0x4039c824	2.9028406
28	0x403e58c3	2.9741676
29	0x402f4c93	2.7390487
30	0x401f48f4	2.4888277
31	0x40240b85	2.563203
32	0x4029f254	2.6554155
33	0x3ffd2feb	1.9780248
34	0x4014504b	2.3174007
35	0x3fd226fc	1.6418147
36	0x3f23e817	0.64026016
37	0xbd269c09	-0.04067615
38	0xc0b8922b	-5.767843
39	0x4013f8a5	2.312051
40	0x4006c36a	2.1056771
41	0xbf237f84	-0.6386645
42	0x400d56ec	2.2084303
43	0x3f97badb	1.1853899
44	0xbf9eea8c	-1.2415328
45	0x3ef362a8	0.47536206
46	0x402ee1e3	2.732537
47	0xc0a2bf9f	-5.0858912
48	0x3fc500a5	1.5390822
49	0x400577dd	2.0854409
50	0xbfd9afa9	-1.7006732
51	0xbeaea9db	-0.34113964
52	0x3e7a6f63	0.24456553
53	0xbf951fa8	-1.1650286
54	0x3fcda840	1.6066971
55	0x4012defe	2.2948604
56	0xbf5d59c0	-0.8646507
57	0x40008f4d	2.0087464
58	0x3f774984	0.9659655
59	0xc09e7038	-4.9511986
60	0x3fa0395b	1.2517503
61	0xbda5f00d	-0.08102427
62	0x3fe347d3	1.7756294
63	0x3fabff91	1.3437368
64	0x3ee9c0be	0.45654863
65	0xc010f909	-2.2652
66	0x401b78e3	2.4292533
67	0x4032bdec	2.792842
68	0xc0598ca8	-3.39921
69	0x403ce7ec	2.9516554
70	0x3ff27f74	1.8945146
71	0xc01e3540	-2.4720001
72	0x403a470a	2.9105859
73	0x40491f19	3.142523
74	0x3fca0210	1.578188
75	0x4013d3c0	2.3097992
76	0x4013c616	2.3089652
77	0x3fc8fee1	1.5702783
78	0x3fa0b589	1.25554
79	0x3fac7e33	1.3476013
80	0x4010688d	2.2563813
81	0x405b9a39	3.431288
82	0x404e7a5a	3.2262177
83	0x3fb2440b	1.3927015
84	0x400fe492	2.2483258
85	0x40161c1a	2.3454652
86	0x3f812a6d	1.0091072
87	0x3efd809e	0.4951219
88	0x3f8343de	1.0255086
89	0x3ffa7e87	1.9569863
90	0x40351dae	2.8299365
91	0x4061d131	3.528393
92	0x3c1eb320	0.009686261
93	0x3fdbd950	1.7175694
94	0x40133715	2.300237
95	0x3fe484ce	1.7853029
96	0x3f238b62	0.63884556
97	0x3f561065	0.83618766
98	0x3faab20d	1.3335587
99	0x405479f0	3.3199425
100	0x404e3b9a	3.2223878
101	0x3fc758d1	1.557398
102	0x4016cfd7	2.3564355
103	0x403b0104	2.921937
104	0x404d4e99	3.2079222
105	0x3f7a968e	0.9788598
106	0x3f7b29e2	0.98110783
107	0x3fd6e61d	1.6788975
108	0x3ff115e1	1.8834802
109	0x4057059a	3.359717
110	0x3fb6345a	1.4234726
111	0x4023fa6c	2.5621595
112	0x40260350	2.5939522
113	0x3ff17bb5	1.8865877
114	0x4000feba	2.0155473
115	0x40201e3c	2.5018454
116	0x3fdf410d	1.7441727
117	0x3fdc9177	1.7231892
118	0x405a8db4	3.4148989
119	0x401cca4d	2.4498475
120	0x401b5cca	2.4275384
121	0x4047a24f	3.1192815
122	0x3fbd91b8	1.4810095
123	0x3feee408	1.866334
124	0x40091854	2.1421099
125	0x3fdc539c	1.7213016
126	0x4003d58b	2.0599086
127	0x40839eeb	4.113149
128	0x3ef67a88	0.4814036
129	0x404e1f1e	3.2206492
130	0x403bfe77	2.9374063
131	0x3fcae1cb	1.5850157
132	0x3fe3a50b	1.7784742
133	0x3ff921a2	1.9463389
134	0x3fae0891	1.3596364
135	0x401a7ea9	2.4139807
136	0x40270e9f	2.6102674
137	0x3ff7b761	1.9352838
138	0x4034056f	2.8128316
139	0x403f72d3	2.9913833
140	0x402c135a	2.6886811
141	0x3fca1907	1.5788888
142	0x4007ad45	2.1199505
143	0x3feb3a3f	1.837715

conv.2.bias f4 [4]
0	0x4008da91	2.1383402
1	0x3fb53503	1.4156803
2	0x3fea3a50	1.8299046
3	0x3fde485b	1.7365831

conv.5.weight f4 [64, 36]
0	0xbdce8c25	-0.10085324
1	0x3ec0b15d	0.37635317
2	0x3f9bee35	1.218207
3	0xbf2271cc	-0.6345489
4	0x3f182813	0.5943615
5	0x3fa66c4e	1.3001802
6	0xbe70b638	-0.23507011
7	0xbde9dc19	-0.114189334
8	0x3f8a3e6f	1.0800303
9	0x40724b50	3.7858467
10	0x3e92eae5	0.28694835
11	0x3fea61b7	1.831107
12	0x3fbf74b8	1.4957495
13	0xbff308d3	-1.8987068
14	0x3fc248e6	1.5178497
15	0xc0231ee2	-2.54876
16	0xc0340ae0	-2.8131638
17	0x3f50deb8	0.8158984
18	0xbea88147	-0.3291113
19	0x3e851706	0.25994128
20	0x3f8610ae	1.047384
21	0xbb8baaaf	-0.0042622904
22	0x3da749e1	0.08168388
23	0x3fd6b674	1.677443
24	0xbeca5957	-0.39521286
25	0x3db9d032	0.09072913
26	0x3fa0c789	1.2560893
27	0xbe9be97a	-0.30451566
28	0x3e96e218	0.2946937
29	0x3f9dfdb7	1.2343053
30	0xbe8f4677	-0.27983448
31	0x3eca3826	0.39495963
32	0x3fd7d052	1.6860449
33	0xbf20c30e	-0.6279763
34	0x3d863a28	0.06554061
35	0x3f9aa2f9	1.2080985
36	0x3d937a1d	0.07201026
37	0xbe983728	-0.2972958
38	0xbf1a8624	-0.6036093
39	0x3e8c24d0	0.27371836
40	0x3e5bdbd2	0.21470574
41	0x3eeb541e	0.45962614
42	0xbc33fae0	-0.010985106
43	0x3ceb5e64	0.028731532
44	0x3f0f8a0b	0.5607001
45	0x3fa4833d	1.2852551
46	0xc0a11b0d	-5.034552
47	0xbf28f5b3	-0.6599991
48	0xbe624b2d	-0.2209899
49	0x3f65d834	0.89783025
50	0xbdf31722	-0.118696466
51	0x3f301ff9	0.68798786
52	0x3f6766d4	0.9039128
53	0xbf32dc54	-0.69867444
54	0xbdec3fb1	-0.11535586
55	0xbe4bdc8e	-0.19908354
56	0xbe8a1bc0	-0.26974297
57	0x3e166dd5	0.14690335
58	0x3e88685f	0.2664213
59	0x3e72a7ae	0.23696777
60	0x3e26cd48	0.16289246
61	0x3e3f7422	0.18696645
62	0xbde144af	-0.109994285
63	0xbe02c638	-0.12770927
64	0xbdb546b9	-0.0885138
65	0xbefb3321	-0.49062446
66	0x3ec4f63e	0.38469118
67	0x3c1ef60e	0.009702219
68	0xbee9e081	-0.45679095
69	0xbd2a7bb2	-0.04162187
70	0x3e821597	0.25407097
71	0xbe67709a	-0.22601548
72	0x3fa1001c	1.2578158
73	0x3ff8fcc0	1.9452133
74	0x40249f09	2.5722067
75	0x3fbece06	1.4906623
76	0x3ff531a2	1.9155772
77	0x3ffc9551	1.9733068
78	0x3faf3bd7	1.3690137
79	0x3ff06d69	1.8783389
80	0x3ff1637d	1.8858486
81	0x3f89144b	1.0709318
82	0x405cf730	3.4525871
83	0x400d8a5c	2.2115698
84	0xbf89e6e9	-1.0773593
85	0x401450ef	2.3174398
86	0x40125347	2.2863328
87	0xbfe608d1	-1.797144
88	0x3f5712ac	0.84012866
89	0x3fd799ca	1.6843808
90	0x3f3a1587	0.726891
91	0x3fc67b34	1.5506349
92	0x3f68c33f	0.9092292
93	0x401daef0	2.4638023
94	0x3ff2e676	1.8976581
95	0x402aad14	2.6668139
96	0x401d13e6	2.4543395
97	0x3ffd84d8	1.9806166
98	0x3fdea9b2	1.7395537
99	0x4033029c	2.7970343
100	0x3fed9cca	1.8563473
101	0x4010e456	2.2639365
102	0x400aecd6	2.1707053
103	0x3f8e0b66	1.1097229
104	0x3fb66847	1.4250573
105	0x3fa8ae73	1.3178238
106	0x3f9aef40	1.2104263
107	0x3fbe2fe8	1.485837
108	0x3e86bee0	0.263175
109	0x3dc5b974	0.09654513
110	0xbf1480fb	-0.5800931
111	0x3ddc229e	0.1074879
112	0xbca85a46	-0.020550858
113	0x3d016dd2	0.031598873
114	0xbd1a49bf	-0.037667986
115	0xbdcaab32	-0.09895934
116	0x3e0e16ff	0.1387596
117	0xbe19f5d1	-0.15035178
118	0x3e54865b	0.20754378
119	0x3ee04848	0.43805146
120	0xbd2fb850	-0.042900383
121	0x3da46b24	0.08028248
122	0xc0262a0e	-2.5963168
123	0x3e38a834	0.18032914
124	0x3c925a9d	0.017865473
125	0x3f0542f7	0.52055305
126	0x3d58d91d	0.05294143
127	0xbe5cc4ff	-0.21559523
128	0x3e66cdc7	0.22539435
129	0xbe72e34b	-0.23719518
130	0xbdda10cc	-0.10647735
131	0xbfe6672c	-1.8000236
132	0xbe2f3755	-0.17110951
133	0x3daf74b8	0.08567184
134	0x4007d564	2.1223993
135	0xbe24b4b4	-0.16084558
136	0xbd174d6a	-0.036939062
137	0xbe0e3c04	-0.13890082
138	0x3de301ef	0.11084353
139	0xbd1db925	-0.038506646
140	0x3b28970d	0.00257248
141	0xbd9e770f	-0.077375524
142	0x3d403ad3	0.0469311
143	0x3e3396a3	0.17537932
144	0x3f6e4306	0.9307102
145	0x3f024b1e	0.5089587
146	0xbf290aed	-0.66032296
147	0x3f38efba	0.72240794
148	0x3e3d820c	0.1850664
149	0xbf7346e9	-0.95030075
150	0xbe4ea693	-0.2018073
151	0x3e0a5bdf	0.13511609
152	0xbfbcb72e	-1.4743402
153	0xc06cd391	-3.700413
154	0x40299b1a	2.6500916
155	0xbf7d4344	-0.98930764
156	0xbfcb7cd9	-1.5897475
157	0x407b5aa2	3.9274068
158	0xc0120b0d	-2.2819245
159	0xbe338ea9	-0.1753489
160	0x402a8f56	2.6649985
161	0xbfbdf240	-1.4839554
162	0x3ed5d5cb	0.41764674
163	0x3bf56952	0.007489362
164	0xbe9b1868	-0.30292058
165	0x3f267d95	0.6503537
166	0x3ee8154f	0.45328757
167	0xbfddeaa9	-1.7337238
168	0x3f8ef2fa	1.11679
169	0x3fba17b1	1.453848
170	0xc0173c7f	-2.3630674
171	0x3f7c9f40	0.98680496
172	0x3f071091	0.52759653
173	0xbdfcee55	-0.12350146
174	0x3f8a6adf	1.0813864
175	0x3d3f8fec	0.046768114
176	0xc024eb71	-2.5768702
177	0x3f477e4d	0.77927095
178	0x3eaf3a55	0.3422419
179	0xc0391b4c	-2.892291
180	0x3fdb380b	1.7126478
181	0x3fc7b857	1.5603131
182	0x3fe4fb3f	1.7889174
183	0x3f6a0a52	0.91422
184	0x4002c46d	2.0432389
185	0x3fc5a772	1.5441725
186	0x3f2d5ad2	0.67716706
187	0x3f9e95c0	1.238945
188	0x40053578	2.0813885
189	0x3fcfda96	1.6238582
190	0x4064cdfd	3.5750725
191	0x3ec16e07	0.37779257
192	0xbf9ca8c9	-1.2239009
193	0x3fffe211	1.9990865
194	0x3f8669bd	1.0501019
195	0xc05a0142	-3.4063268
196	0xbec6176a	-0.3868974
197	0x3f9c5449	1.2213222
198	0x3f61f339	0.88261753
199	0x3fbb591d	1.463657
200	0x4000c4d1	2.0120127
201	0x3fe6d308	1.8033152
202	0x3fa8b2d8	1.3179579
203	0x400284e8	2.039362
204	0x3fbb7c36	1.4647281
205	0x3fb52fa9	1.415517
206	0x3ff08dd7	1.8793286
207	0x3f846f8c	1.0346541
208	0x3fae1e79	1.360305
209	0x40071c85	2.1111157
210	0x3fb1f16b	1.39018
211	0x3fb60bc1	1.4222337
212	0x3fa672a5	1.3003737
213	0x3f4fbebe	0.81150424
214	0x3fc07894	1.5036798
215	0x3fe496a2	1.785847
216	0xbe32d8ad	-0.17465468
217	0x3c4c52c1	0.012470902
218	0xbeed6039	-0.46362475
219	0x3ddc03f2	0.1074294
220	0x3db882b2	0.09009303
221	0xbe0a2d82	-0.13493922
222	0x3ec66c93	0.3875471
223	0x3df5b957	0.119982414
224	0xbd6c185d	-0.057640422
225	0xbe8e47fc	-0.27789295
226	0xc03cb600	-2.9486084
227	0xbecf831b	-0.40529713
228	0x3e9903fb	0.2988585
229	0xbfdbd92b	-1.717565
230	0x3ed6e291	0.4196973
231	0x400c9cf9	2.1970809
232	0x3f5527f9	0.8326412
233	0xbe668df5	-0.2251509
234	0x3f1f6ff8	0.62280226
235	0x3ea83882	0.32855612
236	0xbe7c3498	-0.24629438
237	0x3c048a5b	0.008089627
238	0x3d32e734	0.043677524
239	0xbcad9467	-0.021188928
240	0x3c85766c	0.01629182
241	0xbda2f602	-0.079570785
242	0xbf4a4540	-0.7901192
243	0x3e9c6048	0.30542207
244	0x3d18134b	0.037127774
245	0xbf0e496f	-0.555808
246	0x3ce77031	0.02825174
247	0x3d90c400	0.07068634
248	0xbdf4ad9a	-0.11947174
249	0x3e94089c	0.28912818
250	0x3e71c71f	0.23611115
251	0xbbcd56df	-0.0062664594
252	0x3f15f39f	0.5857486
253	0x3eed7330	0.46376944
254	0xbeed4e5d	-0.4634885
255	0x3f0a46e6	0.5401443

conv.5.bias f4 [64]
0	0x3f14749a	0.5799042
1	0xbe6b6b6a	-0.22990194
2	0x3f8c0a9b	1.0940737
3	0xbe624859	-0.22097911
4	0xbe6dd085	-0.23224075
5	0x3f9bfda8	1.2186785
6	0x3e1804c5	0.1484557
7	0xbd96ffff	-0.07373046
8	0x3fa5739f	1.292591
9	0x3f90a98f	1.1301745
10	0x3f9a35e4	1.2047696
11	0xc054e4a1	-3.3264544
12	0xbf20f273	-0.6286995
13	0x3f1e8e45	0.61935836
14	0xbe5672e9	-0.20942272
15	0xbf10bf0b	-0.5654151
16	0x3fde692e	1.7375848
17	0x3f772236	0.96536577
18	0x3e1a1835	0.15048297
19	0x3fdb9da5	1.7157484
20	0xc01f230d	-2.4865143
21	0x3fa7b94d	1.3103424
22	0x3ea2c48c	0.31790578
23	0x3fb0e144	1.3818746
24	0x3f821c60	1.0164909
25	0x3f55820e	0.8340157
26	0xbf204173	-0.6259987
27	0xc02c27bb	-2.689925
28	0xbec71ca2	-0.38889033
29	0xbeef7151	-0.4676614
30	0x3f1f9bc1	0.62347037
31	0x3e236ad8	0.15958726
32	0x3d8eb639	0.0696835
33	0xbdd793aa	-0.105262116
34	0x3f0d5e0c	0.5522163
35	0xbe54d82b	-0.20785587
36	0xbd8fc58f	-0.07020103
37	0xbfd69e40	-1.6767044
38	0x3e888984	0.26667416
39	0x3fd82c8b	1.6888593
40	0x3fcd9fec	1.6064429
41	0xbdee9ed9	-0.116513915
42	0xbe1a3697	-0.15059887
43	0x3fa4ea44	1.2883992
44	0xbda9de95	-0.08294407
45	0xbf230a03	-0.6368715
46	0x3f88e22d	1.0694023
47	0x3fc73d14	1.5565515
48	0x3e31e318	0.17371786
49	0x3f8faef8	1.1225271
50	0xbe7e4f15	-0.24834855
51	0x3fb51ac5	1.4148794
52	0xbf19254b	-0.5982253
53	0xbecd7fb0	-0.4013648
54	0xbe996c2c	-0.2996534
55	0xbef2cef2	-0.47423512
56	0xbe5a5258	-0.21320474
57	0x3fd453c1	1.658806
58	0xbf550ee7	-0.83225864
59	0xbeb3544e	-0.35025257
60	0xbf42931c	-0.7600572
61	0xbf1e59b7	-0.61855644
62	0x3f8f7031	1.1206113
63	0x3e9441d1	0.28956464

linear.1.weight f4 [256, 169]
0	0x3bc14700	0.0058983564
1	0x3d20e03a	0.03927634
2	0x3d72750a	0.05919365
3	0x3d5dbe1e	0.054136388
4	0xbcd126a8	-0.025531128
5	0xbcb52cb6	-0.022116046
6	0x3d010c74	0.031506017
7	0x3d1dd234	0.038530543
8	0x3d5657c6	0.0523298
9	0x3f8938d0	1.0720463
10	0x3c787cb8	0.015166454
11	0xbc396a70	-0.011316881
12	0x3d03d2f0	0.032183588
13	0x3d46dfb6	0.04855319
14	0xbb09e940	-0.002104357
15	0xbc6f51f8	-0.014606945
16	0x3bce9590	0.0063044503
17	0xbd34ef54	-0.044173554
18	0xbd9a52c0	-0.075353146
19	0xbcaab740	-0.020839334
20	0x3d975cdd	0.07390759
21	0xc0216713	-2.5219162
22	0xbb3ad2e0	-0.002850704
23	0x3c4e5ff0	0.0125961155
24	0xbd827194	-0.063693196
25	0xbd86bb78	-0.065787256
26	0xbc8b2aec	-0.01698824
27	0x3d1cfd18	0.038327307
28	0x3cd04040	0.025421262
29	0xbb321e40	-0.0027178675
30	0x3cf3f8c4	0.029781707
31	0xba2b2c80	-0.00065297633
32	0xbd362a2a	-0.044473805
33	0x3faee486	1.366349
34	0xbe542781	-0.20718195
35	0xbfe06b45	-1.7532736
36	0x3ca0ab64	0.019612975
37	0x3cabbd10	0.020964175
38	0xbd2e71d4	-0.042589024
39	0x3d7eb02e	0.062179737
40	0x3d32cb9c	0.04365121
41	0xbd6449dc	-0.0557345
42	0xbdc232e3	-0.09482362
43	0xbf9c96cf	-1.2233523
44	0x3b214c1c	0.0024612015
45	0x3e5b9c78	0.21446407
46	0xbf6d3abf	-0.92667764
47	0xbef37550	-0.4755044
48	0x3e9eade3	0.3099204
49	0xbf0a26c4	-0.539654
50	0xbec60333	-0.38674316
51	0xbf230d02	-0.63691723
52	0x3d25543e	0.040363543
53	0x3d4d1992	0.050073214
54	0xbc04b2d8	-0.00809928
55	0x402329f2	2.5494351
56	0x3e912363	0.2834731
57	0x3fe45c58	1.7840681
58	0xbef0d079	-0.47034052
59	0xbe99d874	-0.30047953
60	0x3dfac7ff	0.122451775
61	0xbf58d84d	-0.8470505
62	0x3dae6366	0.085150525
63	0xbed64931	-0.41852716
64	0xbd53d9d2	-0.0517214
65	0xbcd332a2	-0.02578098
66	0xbd41b696	-0.04729327
67	0xbd1df925	-0.03856768
68	0xc099f25a	-4.810834
69	0xbf92e300	-1.1475525
70	0x404232c5	3.0343487
71	0x3f963d0a	1.1737378
72	0x3fc98e55	1.5746561
73	0x40042179	2.064543
74	0x3b4b684d	0.003103751
75	0xbeb095ba	-0.34489232
76	0xbd581f8a	-0.052764453
77	0x3d01c380	0.031680584
78	0x3ced6664	0.028979488
79	0xbd12d060	-0.035843253
80	0x3ce8fe40	0.028441548
81	0x3ed62c68	0.41830754
82	0xbfc981d5	-1.5742747
83	0xbc1480a1	-0.009063871
84	0xbf9ded64	-1.2338071
85	0xbe91c04a	-0.28467017
86	0xbfd6ecd0	-1.679102
87	0x3ee00710	0.43755388
88	0x3d215646	0.039388917
89	0x3d4fdd2e	0.050748043
90	0xbd08a254	-0.033357933
91	0xbd119885	-0.035545845
92	0xbd99a67a	-0.07502456
93	0x3f4ce8d5	0.80042773
94	0xbe87415f	-0.26417062
95	0x3e37b512	0.17940167
96	0x3ffe15b7	1.9850377
97	0x3fa365c1	1.2765428
98	0xbe11a3a3	-0.14222579
99	0xbfef1652	-1.8678687
100	0xc0477046	-3.1162276
101	0x3d5d6b0e	0.054057173
102	0xbd72ab40	-0.059245348
103	0xbc8ed650	-0.017436177
104	0xbc3f7e08	-0.011687763
105	0x3f182fe2	0.59448063
106	0x3e9caffd	0.30603018
107	0x400d7d9f	2.2107923
108	0xbc9d28ad	-0.019184435
109	0x3f249035	0.6428254
110	0x3f97a099	1.1845886
111	0x3fd8561c	1.6901278
112	0x3eb27545	0.34855095
113	0xbe90354d	-0.28165665
114	0x3cd8e730	0.026477426
115	0x3d3f3abc	0.046686873
116	0xbcde4624	-0.027133055
117	0x3ffde668	1.983594
118	0xc009a350	-2.1505928
119	0x3f4ce143	0.8003122
120	0xbfd228e4	-1.6418729
121	0x3ed645e1	0.41850188
122	0xbf28f01d	-0.65991384
123	0xbe848570	-0.25883055
124	0xbf849920	-1.035923
125	0xbf436bfe	-0.7633666
126	0xbd3bc6d8	-0.04584393
127	0x3d6b52d6	0.057452045
128	0xbd023288	-0.03178647
129	0x3d8b80e1	0.06811691
130	0x3d4ccf6e	0.050002508
131	0xbcde7b76	-0.02715848
132	0x3d822ae7	0.06355839
133	0x3bab4ba6	0.005227524
134	0x40080b85	2.125703
135	0x3fdc2cb7	1.7201146
136	0xbd18284a	-0.037147798
137	0x3d4d4172	0.05011124
138	0x3c2d3d18	0.010573648
139	0xbc389280	-0.011265397
140	0xbd006dbb	-0.031354647
141	0x3d787802	0.060661323
142	0x3d8d7df7	0.069087915
143	0xbd2d5a6a	-0.042322554
144	0x3d1cff28	0.038329273
145	0x3d3c5b2a	0.04598538
146	0x3ebfc561	0.37455276
147	0x40a85c8f	5.2612987
148	0x3ce5f6ec	0.028071843
149	0x3b8b1140	0.0042439997
150	0x3c2b12a0	0.010441452
151	0xbc1f2c78	-0.009715192
152	0x3cf47154	0.029839195
153	0x3d7963e6	0.060886286
154	0x3d499536	0.049214564
155	0x3d03918a	0.03212122
156	0xbd799774	-0.060935453
157	0x3c909bf8	0.017652497
158	0xbd3c6846	-0.04599788
159	0x3c2b4188	0.010452636
160	0x3d013fbc	0.031554922
161	0xbbeb8250	-0.0071871653
162	0xbd92019f	-0.071292154
163	0x3d6a9f76	0.05728098
164	0xbd496499	-0.049168203
165	0x3cb427e8	0.021991685
166	0x3d4b4d0a	0.049634017
167	0x3c957ee4	0.018248983
168	0x3d1dd670	0.03853458
169	0x3d6dc3be	0.058048002
170	0xbd8e800f	-0.06958019
171	0xbd8a61d6	-0.06756942
172	0x3c380838	0.011232428
173	0x3ce9ba28	0.028531149
174	0xbd8e065d	-0.069348074
175	0x3c5a84d8	0.0133373365
176	0xbd16947b	-0.036762696
177	0xbd8b0b95	-0.067893185
178	0x3fb15a60	1.3855705
179	0x3d3c1ce8	0.045926005
180	0xbb175f60	-0.002309762
181	0xbd542106	-0.051789306
182	0xbcb61dd4	-0.02223102
183	0xbc22a850	-0.009927824
184	0xbca07414	-0.0195866
185	0x3d22d6be	0.039755575
186	0xbc8e3c32	-0.017362688
187	0xbd5b5696	-0.05354937
188	0xbd3dd1e6	-0.046342753
189	0x3d8058bb	0.06266924
190	0x3fc4d850	1.5378513
191	0x3f98bae2	1.1932032
192	0xbd081259	-0.033220623
193	0x3c9aedac	0.018912159
194	0xbd7b6ee6	-0.061385058
195	0xbd759319	-0.059954736
196	0x3d6b287a	0.05741165
197	0x3a7eb280	0.00097159296
198	0xbcc07f6c	-0.02349826
199	0x3cdb0b40	0.026738763
200	0xbd1f861b	-0.038946252
201	0xbbee6290	-0.007274933
202	0xc0285d4b	-2.6306942
203	0x3fa16819	1.2609893
204	0xbf6adad4	-0.91740155
205	0x3c93262c	0.017962538
206	0x3cda2940	0.026630998
207	0x3b4f4980	0.0031629503
208	0x3b8d25a0	0.0043074638
209	0x3d0f5c20	0.034999967
210	0xbc8c94e8	-0.017160848
211	0xbe2fda1f	-0.1717305
212	0xbf8afe63	-1.0858883
213	0xbfb02fe3	-1.3764614
214	0x3f238e1c	0.63888717
215	0xbe2e04a3	-0.16993956
216	0x3f65fbb5	0.898372
217	0xbc615207	-0.013752467
218	0x3f4be3fa	0.7964474
219	0xbf83a7dc	-1.0285602
220	0x3fcb80cb	1.589868
221	0xbd3601b2	-0.04443521
222	0xbcdfb13c	-0.027306192
223	0xbd78f4cd	-0.060780335
224	0xbe81cd4c	-0.25351942
225	0xbf4d2b39	-0.8014408
226	0x3e1e5478	0.1546191
227	0xc01b1f7d	-2.423797
228	0x3f93b41f	1.1539344
229	0xbf336b7a	-0.7008587
230	0x3fda82fa	1.7071221
231	0x3f122b46	0.5709728
232	0xc00132bb	-2.0187213
233	0xbd2a2a1e	-0.041544072
234	0x3d5c58d6	0.053795658
235	0xbcf2c48a	-0.029634733
236	0xbd4655b9	-0.048421595
237	0xbffd6cf7	-1.9798878
238	0x3e37a9b7	0.17935835
239	0xbf44ecdc	-0.7692392
240	0x3f2c2e36	0.6725801
241	0x3f8589c7	1.0432671
242	0x3f802fe7	1.0014619
243	0xbf0c8750	-0.5489397
244	0x40281f2a	2.626902
245	0xbd27ad3b	-0.04093669
246	0x3d8a379b	0.06748887
247	0xbcb1969e	-0.021678265
248	0x3d21f73e	0.03954243
249	0x3d47c376	0.04877039
250	0x3f749c71	0.9555121
251	0x3f8567d0	1.0422306
252	0xbe248039	-0.16064538
253	0x3f57197c	0.8402326
254	0x3f09fe33	0.539035
255	0x404d224d	3.2052186

linear.1.bias f4 [256]
0	0x3d9097d1	0.07060207
1	0x3ef1ac93	0.47201976
2	0x3f307dda	0.68942034
3	0x3e61310e	0.21991369
4	0x3e4de377	0.20106302
5	0xbde5787a	-0.1120462
6	0x3f5e083b	0.8673131
7	0xba308c7c	-0.0006734801
8	0xbe42583f	-0.18978976
9	0x3e67b317	0.22626911
10	0x4058dc96	3.3884635
11	0x3da5759e	0.08079074
12	0x3eb6a847	0.3567526
13	0x3eebb4f5	0.46036497
14	0x3fdd1b40	1.7273941
15	0x3e122ee1	0.14275695
16	0x3e67af2f	0.22625421
17	0x3f0ba8a0	0.54554176
18	0x3d81dedd	0.06341336
19	0xbe850dea	-0.25987178
20	0xbea2474b	-0.31695017
21	0x3ee269c3	0.44221315
22	0x3e60b63e	0.2194452
23	0x3ed53c62	0.4164763
24	0xc005dbe5	-2.0915463
25	0x3e2e36c5	0.1701308
26	0x3e71e62c	0.2362296
27	0x3f277e02	0.6542665
28	0xbec77163	-0.38953695
29	0x3f16d286	0.58914983
30	0x3f2860cd	0.65772706
31	0x3f470297	0.77738327
32	0xc01758e3	-2.3648002
33	0x3d2e5f2f	0.042571243
34	0x3f5aaae5	0.85417014
35	0xbc4e0996	-0.012575528
36	0x3e30b1a4	0.17255265
37	0x3e4abcae	0.19798538
38	0x3ea75e73	0.32689247
39	0x3e59d5cd	0.21272965
40	0x3f37d93e	0.7181586
41	0x40430f3b	3.0478046
42	0x3eca7748	0.3954413
43	0x3ff1ffb7	1.8906163
44	0x3f01c590	0.5069208
45	0xbe5545ef	-0.20827459
46	0x3f0d91b1	0.5530043
47	0xbe6a8104	-0.22900778
48	0x40011ca3	2.0173728
49	0x3e1eafb7	0.15496717
50	0x3f04df99	0.5190368
51	0x3f1c89d7	0.61147827
52	0x3efc20ba	0.49243718
53	0x3ea6e03e	0.32592958
54	0x3ead8c89	0.33896282
55	0x3ddf4e80	0.109036446
56	0x3df56087	0.11981302
57	0x3d88b1e3	0.06674554
58	0x3eb7ad7b	0.35874543
59	0x3f1b31aa	0.60622656
60	0xbff516e3	-1.914761
61	0xc0429acb	-3.0406978
62	0x3f398b99	0.72478634
63	0x3fe5868c	1.7931685
64	0x3f2241c8	0.63381624
65	0x3da4c360	0.08045077
66	0xbda66295	-0.08124272
67	0x3eb39e02	0.35081488
68	0x3dec87ed	0.11549363
69	0x4013669f	2.3031385
70	0x4061eaf5	3.5299656
71	0x3df39c14	0.11895004
72	0x3e41ed11	0.1893809
73	0x3ea58ae5	0.3233253
74	0xbd105b11	-0.035243098
75	0xbdb18da5	-0.08669595
76	0x3f0a0af3	0.5392296
77	0xbdc12f47	-0.094328456
78	0x3e03a3df	0.1285548
79	0xbd3e4efa	-0.046462037
80	0x3f01326a	0.5046755
81	0x407c458b	3.9417446
82	0x3f26a290	0.650918
83	0x3e891d8b	0.26780352
84	0xbd6e39ef	-0.05816072
85	0x3f2d8df9	0.6779476
86	0x3f15d2fb	0.58525056
87	0xbd357532	-0.04430122
88	0x3e2e78c8	0.17038262
89	0xbe6b2477	-0.22963129
90	0x3ea92723	0.3303767
91	0xbd85087d	-0.0649576
92	0x3f073a2b	0.5282313
93	0x3ebc2595	0.36747423
94	0x3fb5fb7f	1.4217376
95	0x3e4df521	0.2011304
96	0x3edeafb9	0.4349344
97	0x3efffaaf	0.49995944
98	0x3e070f16	0.13189349
99	0x3ef5601a	0.47924882
100	0x3f1e6b32	0.6188232
101	0xbd9f8c73	-0.077904604
102	0x3e2931c5	0.16522892
103	0x3ca701a3	0.020386523
104	0xbe7bfcd6	-0.24608168
105	0xbd4fb9cf	-0.05071431
106	0xbc33f589	-0.010983833
107	0xbe517ecd	-0.20458527
108	0xbfffa0b8	-1.9970922
109	0x3e36784d	0.17819329
110	0xc011614c	-2.2715635
111	0x3dad9c9e	0.08477138
112	0x3ecea7de	0.40362448
113	0x3ecae386	0.39626712
114	0x3ebfe3a2	0.37478358
115	0x3eea20a1	0.4572802
116	0x3e1e5bba	0.15464678
117	0xbe8cd090	-0.2750287
118	0x3e69103a	0.22760096
119	0xbe2a1998	-0.16611326
120	0x3fe876cb	1.8161253
121	0x3e7d38bf	0.24728678
122	0x3eca0fc2	0.39465147
123	0xbdb6e28a	-0.08929928
124	0x3da92a54	0.082600266
125	0x3e08221c	0.13294262
126	0x3f0f5f23	0.5600454
127	0x3ef4aab6	0.47786492
128	0xbee93064	-0.45544732
129	0x3e0fcd83	0.1404324
130	0x3d849fd1	0.06475795
131	0x3f4bb1ae	0.7956799
132	0x4035db50	2.8415108
133	0x3e53d2bf	0.20685862
134	0xbd91639a	-0.070990756
135	0x3e149af0	0.14512229
136	0xbc79244d	-0.015206409
137	0x3d1a6dad	0.03770225
138	0x3f0b94e4	0.54524064
139	0x3ef99a7a	0.4875067
140	0x3de30397	0.11084669
141	0x3e2ad715	0.1668361
142	0x3e24106d	0.16021891
143	0x3e634a0d	0.22196217
144	0xbd9fb45c	-0.07798073
145	0x3ed82506	0.42215747
146	0x3f0f56f8	0.5599208
147	0x4015f6ac	2.3431807
148	0xbe1f41e4	-0.15552479
149	0x3e8ee8b6	0.2791192
150	0xbc1e381c	-0.009656932
151	0x3e4a1310	0.19733834
152	0xc0037f99	-2.054663
153	0xc007340f	-2.1125524
154	0x3e6b75c7	0.22994147
155	0x3f648ada	0.8927437
156	0x3ed99d6f	0.42502925
157	0x3d1989f2	0.03748507
158	0x3f0d803e	0.5527381
159	0x3f04d9b6	0.518947
160	0x3e005fc7	0.12536536
161	0x3eb0af8b	0.3450893
162	0xbe8f324a	-0.27968055
163	0xbeb8de2c	-0.36107004
164	0x3e7bb652	0.24581268
165	0x3ef68538	0.48148513
166	0x3e15a378	0.1461314
167	0x3f16e866	0.5894836
168	0x3e46c162	0.19409707
169	0x3eb9e602	0.36308295
170	0x3eb83240	0.35975838
171	0x3e6ae125	0.22937448
172	0x3f4895d0	0.78353596
173	0x3f1a069a	0.60166323
174	0x3e8d0e1b	0.27549824
175	0x3cfe440f	0.031038312
176	0x400d2288	2.2052326
177	0x3ef3f3b4	0.47646868
178	0xbe52d7cc	-0.20590132
179	0xbd427575	-0.047475297
180	0xc04ccccb	-3.1999996
181	0x40947b70	4.640068
182	0x3e15639c	0.14588779
183	0x3e848820	0.25885105
184	0x3dbabdc2	0.09118225
185	0xbe429aae	-0.19004318
186	0x3f23935e	0.6389674
187	0x3f2e2422	0.68023884
188	0xbe9e3d57	-0.30906174
189	0x3cbd6ebe	0.023124095
190	0xbc67791e	-0.014127998
191	0xbeb6f64a	-0.3573478
192	0x3daaef0d	0.083463766
193	0x3d7c0b7c	0.06153439
194	0x3e7cbd32	0.24681547
195	0xc06bd7b4	-3.6850405
196	0x40835020	4.103531
197	0xbd5a2380	-0.05325651
198	0xbeac2ec0	-0.33629417
199	0x3e9e5bcb	0.30929407
200	0x3dd037e7	0.101669125
201	0x3ed497ea	0.4152215
202	0x3e9aec9d	0.30258647
203	0x3e61b475	0.22041495
204	0xbff4f4c2	-1.9137194
205	0x3e381ce0	0.17979765
206	0x3e4fddcd	0.20299454
207	0x3f7e2e9d	0.99289876
208	0x3e369008	0.17828381
209	0x3e17a4e9	0.14809002
210	0xc00e3679	-2.2220747
211	0x3d9a9d23	0.07549503
212	0x3e895123	0.26819715
213	0x4008d618	2.1380672
214	0xc048fbc0	-3.1403656
215	0x3f0430ee	0.5163716
216	0x3efffe01	0.49998477
217	0x3fc8b2be	1.5679548
218	0x3dfc0241	0.123051174
219	0x4004fdb0	2.0779839
220	0x3d78e6b5	0.060766894
221	0x3f3c8a27	0.73648304
222	0x3e16211a	0.14661065
223	0x3dd8b9a2	0.10582282
224	0x3da94cd1	0.08266605
225	0xbc9f7b00	-0.01946783
226	0x3f017313	0.50566214
227	0xbe6f74df	-0.23384427
228	0x3ff0fcf3	1.8827194
229	0x3e8bcfc2	0.27306944
230	0x408c2653	4.3796782
231	0x3f0a5440	0.54034805
232	0xbe543b95	-0.20725854
233	0x3f0b5c09	0.5443731
234	0x3ded7fa5	0.11596612
235	0x3f127ecf	0.57224745
236	0xbe5f69ec	-0.2181775
237	0xbe87439e	-0.26418775
238	0xbd084f7b	-0.033278923
239	0x3e1dcfcc	0.154113
240	0x3e0d16ed	0.13778277
241	0x3eb53753	0.35393772
242	0x3ea30e0b	0.3184665
243	0x3f040a5b	0.515783
244	0x3ea3533d	0.31899443
245	0x3e49e1a6	0.19714984
246	0x3e39b6de	0.18136165
247	0x40215ba7	2.521219
248	0xbe31a944	-0.17349726
249	0xbea09b68	-0.31368566
250	0x3ff6a5a9	1.9269305
251	0xbe134fcc	-0.14385909
252	0x3ea6ae14	0.32554686
253	0x3e2c2fa3	0.16815047
254	0x3dfb20e9	0.122621365
255	0x3d265e0f	0.040617045

linear.3.weight f4 [64, 256]
0	0xc0decfe6	-6.962878
1	0x4117f995	9.498433
2	0x4148d45f	12.551848
3	0xc0d8b37b	-6.771909
4	0xc07dfad6	-3.9684348
5	0xc10c13f3	-8.75487
6	0x40da6b01	6.825562
7	0xc0ee4c5b	-7.4468207
8	0xc103976d	-8.224469
9	0x410e82f1	8.906968
10	0x3fb52a38	1.4153509
11	0xc07be576	-3.9358802
12	0xc127b321	-10.481233
13	0x414dff91	12.874894
14	0x40045869	2.0678961
15	0x415069d7	13.02584
16	0x4171aa08	15.104012
17	0x413d2ea2	11.823885
18	0xc140526e	-12.020124
19	0xc0fcfad2	-7.9056177
20	0xc10f506c	-8.957134
21	0x41492618	12.5718
22	0x414a6210	12.648941
23	0x40d3ebb0	6.6225204
24	0xbfe4e809	-1.7883312
25	0xc15c2703	-13.759524
26	0xc0955821	-4.667008
27	0x4114f88d	9.310681
28	0xc114dbb3	-9.3036375
29	0x40f3e409	7.6215863
30	0x409548f2	4.6651545
31	0x40d1baf4	6.5540714
32	0xbfb9aa2d	-1.4505059
33	0xc1048825	-8.283238
34	0x410cfa1f	8.811065
35	0xc1383111	-11.511979
36	0xc10dfc4a	-8.874094
37	0xc0471b8d	-3.1110566
38	0x41133680	9.200806
39	0x414472df	12.278045
40	0x40d620d3	6.691507
41	0x3fe1ec43	1.7650226
42	0x40895ce1	4.2925878
43	0x3fdb3531	1.7125608
44	0x41367864	11.404392
45	0xc14db6e4	-12.857151
46	0x41250cb5	10.315602
47	0xc1660b49	-14.377755
48	0x3fcee901	1.6164857
49	0x41028a46	8.158758
50	0xc155fd79	-13.374383
51	0x411828b3	9.509936
52	0x414269b2	12.1508045
53	0xc0c882e2	-6.265977
54	0xc10ba4e2	-8.727755
55	0xc1327dc8	-11.155708
56	0x41409dcb	12.038524
57	0xc167ce45	-14.487859
58	0x413e8202	11.90674
59	0x412c2fff	10.761718
60	0xc0029056	-2.0400596
61	0xbfc9763d	-1.5739208
62	0x410208d8	8.127159
63	0x3fed828d	1.8555466
64	0x4136ca1b	11.424342
65	0xc07aee9b	-3.9208133
66	0xc114460d	-9.267102
67	0x410696e8	8.411842
68	0xc1168b5e	-9.409025
69	0x3fbe02f0	1.4844646
70	0x3fd614db	1.6725115
71	0x4131d0a1	11.113435
72	0xc129bf1a	-10.609156
73	0x412f64e5	10.962132
74	0xc1232e0d	-10.198743
75	0xc0e005ba	-7.000699
76	0x416fa976	14.978872
77	0xc123d835	-10.240285
78	0xc0a65fa3	-5.1991744
79	0xc1022b92	-8.135637
80	0x409690c5	4.705172
81	0x3f429d2c	0.76021075
82	0x41201e43	10.007388
83	0x412affd6	10.68746
84	0xc0c62906	-6.1925077
85	0x4145809b	12.343898
86	0x419071d7	18.055586
87	0xc11c4139	-9.7659235
88	0x4105c7d1	8.361283
89	0xc0fbd460	-7.8696747
90	0x4181180e	16.136745
91	0xc0c8efad	-6.2792573
92	0x4126568f	10.396132
93	0x415afe36	13.687063
94	0x3fce9764	1.6139951
95	0xc1232449	-10.196359
96	0x41490bc3	12.5653715
97	0xc132828e	-11.156874
98	0xc109134e	-8.567213
99	0x406357ff	3.5522459
100	0xbedf4023	-0.4360362
101	0xc120fe3c	-10.062069
102	0xc161fc4d	-14.124097
103	0x40b1e427	5.5591006
104	0xc1789393	-15.536029
105	0xc1168331	-9.407029
106	0x412f23e7	10.946265
107	0xc149b7e5	-12.607396
108	0xc008b114	-2.135808
109	0x413c7905	11.779546
110	0xbfdfcf55	-1.7485148
111	0xc12ef2ea	-10.934305
112	0x41649652	14.286699
113	0x40e598a3	7.1748824
114	0x411d8404	9.84473
115	0xc1201cff	-10.007079
116	0x414e9dee	12.913557
117	0xc134dcf4	-11.303944
118	0xc0deb2d1	-6.959328
119	0xc0e16b83	-7.044374
120	0x4001b123	2.0264366
121	0x415178d3	13.091998
122	0x40d1a939	6.551907
123	0xc134a66c	-11.29063
124	0xc126eeb7	-10.43328
125	0x401fa228	2.4942722
126	0x4118d898	9.552879
127	0x4142d8fb	12.177974
128	0x4186fc72	16.873264
129	0x413862bd	11.524106
130	0x40cc37ab	6.3817954
131	0x414c8747	12.783027
132	0x3fe687d4	1.8010201
133	0xc0a09ec9	-5.019383
134	0xc0ec0bf6	-7.37646
135	0xc0fd5bcc	-7.9174557
136	0xc1171986	-9.443731
137	0xc0dea605	-6.957766
138	0x4154fc6b	13.3116255
139	0x40a5d028	5.1816597
140	0x417b1246	15.691961
141	0x4122bcd0	10.171097
142	0xc0d12ebd	-6.5369554
143	0x41240024	10.250034
144	0xc1410616	-12.063986
145	0x410839a0	8.514069
146	0x4137e099	11.492333
147	0x3fe17b17	1.7615689
148	0xc17f6c71	-15.963975
149	0xc124735e	-10.278166
150	0xc0fd39b4	-7.913294
151	0xc10b0b49	-8.690255
152	0xbfed59b5	-1.8543001
153	0xc0085224	-2.1300135
154	0xc149301b	-12.5742445
155	0x40bc4339	5.883206
156	0x41244018	10.265648
157	0xc127678b	-10.462779
158	0x4083fcb5	4.124598
159	0x415829bf	13.510192
160	0xc1104948	-9.017891
161	0xc109b121	-8.605744
162	0xc14d16d4	-12.818073
163	0xc1836548	-16.424454
164	0xc107cdb3	-8.48772
165	0x4138749e	11.528471
166	0xc0c6f7a1	-6.217728
167	0x4145c077	12.3594885
168	0xc0f13f97	-7.5390124
169	0x411d8f48	9.847481
170	0x410634e3	8.387912
171	0x41307b38	11.030083
172	0x41259174	10.348011
173	0x4117ea5f	9.4947195
174	0x41188b5f	9.534026
175	0xc16d44b5	-14.829274
176	0x3fc3a412	1.5284445
177	0xc10c5a63	-8.772067
178	0xc13782d5	-11.469441
179	0xc103b220	-8.230988
180	0xbf8c2341	-1.0948259
181	0x3f7b8e6d	0.982642
182	0xc162d218	-14.176292
183	0x410ca0cb	8.789256
184	0x413067dd	11.025357
185	0x41898c70	17.193573
186	0x41364bcc	11.393505
187	0x41009f54	8.038898
188	0xc122309a	-10.136866
189	0xc1286e18	-10.526878
190	0x4133175b	11.193202
191	0xc10a6f5f	-8.65219
192	0xc15e5930	-13.896774
193	0x41685c1c	14.522488
194	0x40c4a99b	6.145704
195	0xbfa66283	-1.2998813
196	0x3fb5659d	1.4171635
197	0xc0af1795	-5.4716287
198	0xc13c786e	-11.779402
199	0x41702d20	15.011017
200	0xc11724e1	-9.446504
201	0x413d4c2a	11.831095
202	0x411c452d	9.766889
203	0xc11f2659	-9.946862
204	0xc00b3c0e	-2.1755404
205	0x4116e645	9.431218
206	0xc1605158	-14.019859
207	0x40cab8c3	6.335054
208	0xc15a7c5b	-13.65536
209	0xc0e15ee4	-7.0428333
210	0xbfcd7a92	-1.605303
211	0xc13258e6	-11.146704
212	0x41629926	14.16239
213	0x3fb84791	1.439684
214	0xbfc4990a	-1.5359204
215	0x412c95a3	10.786532
216	0x415e7b90	13.905167
217	0x3fc980a8	1.5742388
218	0x4168bf6e	14.546736
219	0x3fc727c0	1.5559006
220	0xc0e1be29	-7.054463
221	0xc12f1cc5	-10.944524
222	0x413a5a41	11.647035
223	0xc14c784a	-12.779367
224	0xc113c023	-9.234408
225	0xc14cc46d	-12.7979555
226	0x415f6ab8	13.963554
227	0x416addb3	14.679126
228	0x3fd44038	1.6582098
229	0xc11894de	-9.536345
230	0x3f59d009	0.8508306
231	0x418b1cb5	17.389017
232	0xc11e6b17	-9.901145
233	0x417883d4	15.532185
234	0xc0fdf89f	-7.9365993
235	0x4163f855	14.248128
236	0xc16d9b9b	-14.85049
237	0xc10a92be	-8.660826
238	0xc0d281c0	-6.5783386
239	0xc0c62f79	-6.193295
240	0xc10778f5	-8.467031
241	0x412c19a7	10.756263
242	0xc0c22c8a	-6.067937
243	0x41337517	11.216086
244	0x411d4862	9.830172
245	0x413fbceb	11.983623
246	0xc0419754	-3.0248613
247	0x40036d80	2.0535583
248	0xc12e8807	-10.90821
249	0xc153737e	-13.215696
250	0x3fe3dbcd	1.7801453
251	0xc0ae1cb3	-5.4410033
252	0xc12d7f93	-10.843646
253	0xc10dddc9	-8.866647
254	0xc0d4ec63	-6.653856
255	0xc100c98c	-8.049206

linear.3.bias f4 [64]
0	0x3f8d3cce	1.1034181
1	0x3f6c2864	0.9224913
2	0x3fada713	1.3566612
3	0x3f71e582	0.94490826
4	0x3f897aef	1.0740641
5	0x3f7de54b	0.99178
6	0x3f45f7e9	0.77331406
7	0x3f6769f1	0.9039603
8	0x3f6042d1	0.87601954
9	0x3f6085e5	0.87704307
10	0x3f501708	0.8128514
11	0x3f3a28f8	0.72718763
12	0x3f4bd050	0.79614735
13	0x3f476ae3	0.7789747
14	0x3f780722	0.96885884
15	0x3f51e3ea	0.81988394
16	0x3f6dbf87	0.9287037
17	0x3f6f6ebf	0.9352836
18	0x3f720f82	0.94554913
19	0x3f432799	0.76232296
20	0x3f95a2fb	1.1690363
21	0x3fbd4cf2	1.4789107
22	0x3f858e97	1.043414
23	0x3f935c20	1.1512489
24	0x3f85ae9e	1.0443914
25	0x3f1b716a	0.6071993
26	0x3f270171	0.65236574
27	0x3f22b8fc	0.63563514
28	0x3f2c5d11	0.6732951
29	0x3f65c9f2	0.8976127
30	0x3f5bf095	0.85913974
31	0x3f5b5703	0.85679644
32	0x3f9202d3	1.1407112
33	0x3f2c6cc7	0.6735348
34	0x3f13521f	0.5754718
35	0x3f81dc93	1.0145439
36	0x3f4ce74b	0.80040425
37	0x3f82bb01	1.0213319
38	0x3fefef42	1.8744891
39	0x3f62c91e	0.8858813
40	0x3f699f0d	0.9125832
41	0x3f2f8e7c	0.6857679
42	0x3fb396c7	1.4030389
43	0x3f67f41e	0.9060687
44	0x3f8e1696	1.1100643
45	0x3f65e652	0.89804566
46	0x3f4d0081	0.80078894
47	0x3f8e8f26	1.1137435
48	0x400a5e9a	2.162024
49	0x3fa2b199	1.2710449
50	0x3f84c5b9	1.037284
51	0x3f848354	1.0352578
52	0x3f9071f1	1.1284772
53	0x3f672758	0.9029441
54	0x3f7a8d68	0.9787202
55	0x3f722e6b	0.9460208
56	0x3f3ad4c7	0.7298092
57	0x3f758dca	0.9591948
58	0x3f48e8e6	0.78480375
59	0x3f2f0a8e	0.6837548
60	0x3f1fb364	0.62383103
61	0x3f88fad1	1.0701543
62	0x3f3dd5f3	0.74154586
63	0x3f48fc7d	0.78510267

reg.weight f4 [2, 128]
0	0x40b05317	5.510143
1	0xc08d7ea4	-4.421709
2	0x4024117c	2.5635672
3	0xbff7785c	-1.9333606
4	0x40ec4dca	7.3844957
5	0x405fe61d	3.49842
6	0xbf37873e	-0.7169074
7	0x40d43f11	6.6326985
8	0x4031aeda	2.776297
9	0x40811da8	4.03487
10	0x403baf73	2.9325836
11	0x3d834e96	0.064114735
12	0x3fda4f69	1.7055484
13	0x40985d4c	4.761389
14	0xbf037ca5	-0.5136207
15	0xc019e096	-2.4043326
16	0x4025195e	2.5796733
17	0x4034b778	2.823698
18	0x408e53aa	4.447713
19	0x4018b3d6	2.3859763
20	0x40953346	4.662509
21	0x405fb937	3.4956796
22	0x40bf63f0	5.9809494
23	0x401e1e8c	2.4706144
24	0x404a8b0f	3.1647375
25	0x4052e3fa	3.2951646
26	0x3b287024	0.0025701607
27	0x40d1c097	6.5547595
28	0xbe5e0c4f	-0.21684383
29	0xbf1b760b	-0.60726994
30	0xbf851b00	-1.0398865
31	0x40d498ac	6.6436367
32	0x40c5e82a	6.1845903
33	0x3fe4461e	1.7833898
34	0x40974bef	4.728019
35	0x3d34edb4	0.044172004
36	0x402dbc1e	2.7146068
37	0x4059f2ed	3.405452
38	0xbf82cdfb	-1.021911
39	0x4017dc53	2.3728225
40	0x401c0e85	2.4383862
41	0x3fdff42c	1.749639
42	0x3da37bf8	0.079826295
43	0x40387305	2.8820202
44	0xbf457e90	-0.77146244
45	0xbfea5e2d	-1.830999
46	0x4058ce8e	3.387607
47	0x40620d10	3.5320473
48	0x40b83722	5.75673
49	0x402dde9f	2.7167127
50	0xc0232313	-2.5490158
51	0x4025fad7	2.593435
52	0x3d7b7627	0.061391976
53	0x3fbf1014	1.4926782
54	0x40946924	4.6378345
55	0xc031ca98	-2.7779903
56	0x3fd299a2	1.6453135
57	0x402049b8	2.5044994
58	0x3e7aa4fc	0.24476999
59	0x3da75d80	0.081721306
60	0x3db19a64	0.08672026
61	0x3cb2a9c3	0.021809464
62	0x408bc097	4.3672595
63	0x40e5f7bd	7.1864915
64	0x4268bc16	58.183678
65	0x426c1c6e	59.027763
66	0x42636da0	56.857056
67	0x426cdbae	59.21453
68	0xc2011c32	-32.277534
69	0x426c4b53	59.07356
70	0x426d48f9	59.321262
71	0x426c2dc6	59.0447
72	0xc202334a	-32.550087
73	0x426c78cd	59.11797
74	0x426c9002	59.140633
75	0x426d019c	59.25157
76	0x426dccc3	59.449963
77	0x426c5e1e	59.09191
78	0xc201b46c	-32.426193
79	0x426d51eb	59.329998
80	0x426a3236	58.549034
81	0x426c9e1c	59.154404
82	0xc20209ee	-32.509697
83	0x426c6bb6	59.105186
84	0x426c6e4e	59.10772
85	0xc205786d	-33.367603
86	0x426bbb17	58.932705
87	0xc202a717	-32.663174
88	0xc2012ec1	-32.29566
89	0x426d1184	59.267105
90	0x426cdeb7	59.217495
91	0x426ccda7	59.200832
92	0x426cde99	59.21738
93	0x426bc46d	58.941822
94	0x426c9f8e	59.155815
95	0x426ca4c9	59.160923
96	0x4268da94	58.213455
97	0x426bebe1	58.98035
98	0x426d0c9a	59.262306
99	0x426c8696	59.13143
100	0x426cf17b	59.23582
101	0xc20234d7	-32.5516
102	0x422ee8d3	43.727367
103	0x426c855e	59.13024
104	0x426c603a	59.09397
105	0x426cb790	59.17926
106	0x426b5627	58.834133
107	0x426ccfe4	59.20302
108	0x426b7f44	58.874283
109	0x426c8996	59.13436
110	0x426c9d96	59.153893
111	0x426885d9	58.13071
112	0x422cc305	43.19045
113	0x426c00b6	59.000694
114	0xc200ffaf	-32.24969
115	0xc201c54e	-32.44268
116	0xc20250d3	-32.57893
117	0x426c64ee	59.098564
118	0x4269841c	58.379013
119	0xc200c774	-32.19478
120	0x426d2549	59.28641
121	0x426d0ce0	59.262573
122	0x426c89ed	59.134693
123	0x426d19a5	59.275043
124	0x426ce71f	59.225704
125	0xc202a3c3	-32.659924
126	0x426d1c69	59.277744
127	0x426d1931	59.2746
128	0x3a6877de	0.0008867959
129	0x3b532133	0.0032215833
130	0xbbb87087	-0.0056286487
131	0x3dc67e08	0.09692007
132	0x3a15d90e	0.00057162426
133	0xbae8b5a7	-0.0017754332
134	0x3c3a98a0	0.011388928
135	0x3a89365f	0.0010468474
136	0xbaf5a74b	-0.0018741874
137	0xba93aedc	-0.0011267322
138	0x3bb983c0	0.005661458
139	0x3d3b1667	0.04567566
140	0xbb89b195	-0.0042020776
141	0xba0c7842	-0.0005358496
142	0xba788ae7	-0.0009481147
143	0x3c1df86e	0.00964175
144	0x3b9bcf3e	0.00475493
145	0xbbbd94cc	-0.0057855602
146	0xbb06e1c2	-0.002058134
147	0x3c8e5419	0.017374085
148	0x3a9b3bbc	0.0011843364
149	0xbc175962	-0.009237619
150	0x3aed7ff7	0.0018119802
151	0xbb946e65	-0.0045297616
152	0xbb05947d	-0.0020382695
153	0xba7085fb	-0.0009175238
154	0x3e010687	0.12600146
155	0xbac87558	-0.001529376
156	0x3f04dae9	0.5189653
157	0x3b543a22	0.0032383283
158	0xbb829c95	-0.003985951
159	0xbb61d248	-0.0034457613
160	0x3aadbe55	0.0013255576
161	0xbce1527a	-0.027505148
162	0xbaa9a1e1	-0.001294192
163	0x3cea2d33	0.028586006
164	0x3b81b5d6	0.003958444
165	0x3b9433f0	0.004522793
166	0xbc09ea31	-0.008417652
167	0xbcad5319	-0.021157788
168	0x39b19a12	0.00033874862
169	0x3dd5ac4c	0.10433254
170	0xbd87ea38	-0.066364706
171	0x3b0f6529	0.0021880365
172	0xbc5ee072	-0.013603317
173	0x3b8a8d09	0.0042282385
174	0xbb6562d1	-0.0035001526
175	0x3b106898	0.0022035
176	0x3b86843d	0.0041051195
177	0x3c18ca6c	0.009325605
178	0xba5d7552	-0.0008447963
179	0x3a9b7401	0.0011860133
180	0x3e10f0df	0.14154385
181	0x3c736df0	0.014857754
182	0xb9225dac	-0.0001548442
183	0x3c0e08c7	0.008669085
184	0xbd271d0c	-0.040799186
185	0x3b5cfd47	0.00337203
186	0xbea61bd2	-0.324431
187	0xbc108d42	-0.008822741
188	0xbda061a9	-0.07831127
189	0xbe1ccd78	-0.15312755
190	0x3bc20ea5	0.005922156
191	0x3a21e119	0.0006175205
192	0x3bae7385	0.0053238296
193	0x3b594a7e	0.0033155973
194	0xbbfa3d82	-0.007636727
195	0xba6383e2	-0.0008679015
196	0x3ba360c0	0.0049858987
197	0xbae6c0fe	-0.0017605124
198	0x3bacce96	0.0052736504
199	0xbc43d7bf	-0.011953293
200	0xbc610434	-0.013733912
201	0xbacbd717	-0.0015551773
202	0xbc5c65d7	-0.013452015
203	0x3bb9cdea	0.005670299
204	0x3bbd39d8	0.005774718
205	0x3b738de7	0.0037163438
206	0xbc0cdbda	-0.008597339
207	0x3a314111	0.000676171
208	0x3b312382	0.002702922
209	0xbc235d4d	-0.009970975
210	0x3b370f1d	0.0027932592
211	0x3acb5238	0.0015512174
212	0x38bcc7ee	9.0017784e-05
213	0x3a65b36d	0.0008762393
214	0xbbfc913d	-0.0077077434
215	0xbbe1eb85	-0.006894531
216	0x3c0e850f	0.008698716
217	0x3bc0a877	0.0058794576
218	0xbb97a8f8	-0.004628297
219	0xbc0859d8	-0.008322202
220	0xbae12758	-0.0017177863
221	0xbbd2b50e	-0.006430275
222	0x3be3a343	0.0069469525
223	0x3c207135	0.009792616
224	0x3c0678f2	0.008207547
225	0xbada7c43	-0.0016669113
226	0xbb6970d4	-0.003562023
227	0xbc037b65	-0.008025025
228	0x3bdc6935	0.006726409
229	0xbc9234c6	-0.01784743
230	0x3b25ce9a	0.0025300146
231	0x3be93713	0.007117161
232	0x3c85ef4b	0.016349455
233	0x3c2453a1	0.010029704
234	0x3ab18d0c	0.0013546064
235	0xbc354f85	-0.011066322
236	0xb9e6044d	-0.00043872223
237	0xbba4f8bf	-0.0050345357
238	0xbb6542c7	-0.003498243
239	0xbc4de198	-0.012565993
240	0x3bb49535	0.005510951
241	0xbbe148fb	-0.006875155
242	0x3c29d682	0.010366084
243	0x3cc560d0	0.024094015
244	0x3c910960	0.017704666
245	0x3bc86b81	0.006116331
246	0x3b969521	0.0045954143
247	0xbc431a6f	-0.011908158
248	0x3c946c4a	0.018118042
249	0x3bb70401	0.005585194
250	0xbc84b8ff	-0.016201494
251	0x3a33abf5	0.00068539317
252	0xbb7af220	-0.003829129
253	0xbc178d12	-0.009249942
254	0xbab23f28	-0.0013599144
255	0x3b4b6792	0.0031037075

reg.bias f4 [2]
0	0x3fb0d49a	1.3814881
1	0x3f054ec8	0.52073336
