server/model2/value_model_minmax2_noexplore20.pt (torch, 255505 bytes, 12 tensors)

conv.0.weight f4 [4, 1, 3, 3]
0	0x3fad8b23	1.3558086
1	0x3f9212d2	1.1411994
2	0x4027c186	2.6211867
3	0x4006c7a8	2.105936
4	0x3f14a62f	0.58066076
5	0x3ee97813	0.45599422
6	0x3fe28cdf	1.769924
7	0xbf86ca77	-1.0530537
8	0x3f96dcf4	1.178618
9	0x3f17ca49	0.5929304
10	0x3efa837f	0.4892845
11	0x3fc2c024	1.5214887
12	0x3fa1af9a	1.2631714
13	0x4023ec3b	2.5612934
14	0xbc9dacf0	-0.019247502
15	0x4016c419	2.3557189
16	0xbf89063c	-1.0705028
17	0x3f7c91a3	0.98659724
18	0xbef84658	-0.48491168
19	0x3f429291	0.7600489
20	0x3f764acb	0.96207875
21	0x3f2e8edb	0.6818673
22	0x3ff8d191	1.9438955
23	0x405214c8	3.2825184
24	0x3fb90ff0	1.4457989
25	0x3f4d0c8b	0.80097264
26	0x3fd3838f	1.6524523
27	0x401c3fa0	2.4413834
28	0x3edacbb9	0.42733553
29	0x4017dde6	2.3729186
30	0x3ffef14b	1.9917387
31	0x3f8f8521	1.1212503
32	0x3f9f78d6	1.2458751
33	0xbf00b36f	-0.50273794
34	0x3fbfbffb	1.4980463
35	0xbec5209c	-0.3850144

conv.0.bias f4 [4]
0	0x3f982f0b	1.1889356
1	0x3f14243b	0.57867783
2	0x3f644cd5	0.89179736
3	0x3f95024f	1.164133

conv.2.weight f4 [4, 4, 3, 3]
0	0x3f8e9cdf	1.1141623
1	0x4001bd13	2.0271652
2	0x3fa988bb	1.3244852
3	0x3ffe2e52	1.9857886
4	0x3fa99915	1.3249842
5	0x3fb44837	1.4084538
6	0x3f5c6088	0.86084795
7	0x3fcfc597	1.6232175
8	0x3f58286d	0.84436685
9	0x3fcf0e63	1.6176265
10	0x3f9d9857	1.2312115
11	0x3fd6c545	1.6778952
12	0x402140b6	2.5195746
13	0x3e8fbac1	0.2807217
14	0x3fb395e3	1.4030117
15	0x3ed67e12	0.4189306
16	0x3fc4d851	1.5378515
17	0x3d475e1b	0.04867373
18	0x3f2f87c5	0.6856654
19	0x40087699	2.1322386
20	0x3f96d72d	1.1784416
21	0x3ffb366b	1.9625982
22	0x3f983a2a	1.189275
23	0x3f56ba9b	0.8387849
24	0x3fb2758b	1.3942121
25	0x3f1b436b	0.60649747
26	0x3f9589b3	1.1682647
27	0x3fd1db2c	1.6395011
28	0x3fce3d7b	1.6112512
29	0x3fb94bb6	1.447623
30	0x3fe2c59d	1.7716557
31	0x3faa4e9c	1.330524
32	0x3fba5bd6	1.4559276
33	0x3f9b2953	1.2121986
34	0x3fadc701	1.3576356
35	0x3f1eccaa	0.6203104
36	0x3ec48c26	0.38388175
37	0xbf71c843	-0.944462
38	0xc06c9aac	-3.6969404
39	0x3f9a4d16	1.2054775
40	0x3f793fb9	0.9736286
41	0xbfb52916	-1.4153163
42	0x3fd139fe	1.6345823
43	0x3f5664ff	0.8374786
44	0xbf4fb96d	-0.8114231
45	0xbf89f01a	-1.0776398
46	0x3f1e3132	0.61793816
47	0xc02ba436	-2.6818976
48	0x3eb86c51	0.3602014
49	0x3fb95d3f	1.4481581
50	0xbf66e96d	-0.9019993
51	0xbf118395	-0.56841403
52	0xbe60950a	-0.21931854
53	0xbf0a28df	-0.53968614
54	0x3f32b0ea	0.698012
55	0x3ee7d587	0.45280096
56	0xbe9d6362	-0.30739886
57	0x3f80c791	1.0060903
58	0xbe01ff03	-0.12694936
59	0xc0601359	-3.501181
60	0x3f458bf7	0.77166694
61	0xbe62f1d4	-0.22162563
62	0x3f79a0ea	0.9751116
63	0x3f326748	0.69688845
64	0xbead87bb	-0.33892617
65	0xbfd670ec	-1.6753211
66	0x3f3c9f0d	0.7368019
67	0x3fd82047	1.688485
68	0xc08044f6	-4.008418
69	0x40054799	2.082495
70	0x3fcb4fb8	1.5883703
71	0xc0076035	-2.115247
72	0x3ff28aeb	1.8948644
73	0x3fdf5c3c	1.7450023
74	0x3f33ed60	0.7028408
75	0x3fc0db0f	1.5066851
76	0x3fa490b6	1.2856662
77	0x3f0ab22e	0.5417813
78	0x3f851190	1.0395985
79	0x3f369503	0.71321124
80	0x3faf3c7e	1.3690336
81	0x401dcf07	2.465761
82	0x3fe0a28e	1.7549608
83	0x3ed6cbfc	0.41952503
84	0x3fc6f990	1.554491
85	0x3f9ddfc0	1.2333908
86	0xbe59b7e6	-0.21261558
87	0x3e1b4217	0.1516193
88	0x3ede7140	0.43445778
89	0x3f8be006	1.0927742
90	0x3fce900c	1.613771
91	0x3ff01ea3	1.875935
92	0xbf7d1bf5	-0.98870784
93	0x3f6b2c87	0.9186482
94	0x3f83b153	1.028849
95	0x3f22c321	0.63578993
96	0x3ec0e55a	0.3767498
97	0x3dd7b2b4	0.10532132
98	0x3e8aad09	0.2708514
99	0x40027a6d	2.0387223
100	0x3ff454ac	1.908834
101	0x3ec96178	0.39332175
102	0x3fc9f747	1.5778588
103	0x3fc56126	1.5420272
104	0x400581f3	2.0860565
105	0x3f4d557c	0.80208564
106	0x3f150984	0.58217645
107	0x3f20f7d5	0.6287816
108	0x3f612f5b	0.87962884
109	0x40068f51	2.1024973
110	0x3ebbd32b	0.36684546
111	0x3fda02bf	1.7032088
112	0x3fbdbb4f	1.4822787
113	0x3f5a7bac	0.8534496
114	0x3f92539f	1.1431769
115	0x3fb2856f	1.3946971
116	0x3f5bfde7	0.859343
117	0x3f508e56	0.8146719
118	0x3ff27c77	1.8944234
119	0x3f9bd9d2	1.2175848
120	0x3fcbbdc0	1.5917282
121	0x3feed96a	1.86601
122	0x3ea435ee	0.32072395
123	0x3f7d0050	0.988286
124	0x3f8b6f95	1.0893427
125	0x3f5f1439	0.8714023
126	0x3f60ab28	0.87761164
127	0x401b41a1	2.4258807
128	0xbf44ad1c	-0.76826644
129	0x400b7992	2.179295
130	0x3fbda1e3	1.4815029
131	0x3ed7e0a6	0.4216358
132	0x3f568984	0.8380358
133	0x3f54d36b	0.831351
134	0x3eec3bbd	0.46139327
135	0x3f8708de	1.0549581
136	0x3f9b07b9	1.2111732
137	0x3f4b1ba7	0.7933907
138	0x3ff67f55	1.9257609
139	0x3fd5b03d	1.6694409
140	0x3fc5246a	1.5401738
141	0x3f3c0f8b	0.73461217
142	0x3f851981	1.0398408
143	0x3f4d55b4	0.802089

conv.2.bias f4 [4]
0	0x3f9b6210	1.2139301
1	0x3f161a14	0.5863354
2	0x3f66a428	0.9009423
3	0x3f482012	0.78173935

conv.5.weight f4 [64, 36]
0	0xbe2f3ac1	-0.17112257
1	0xbddc095c	-0.10743973
2	0x3e8baf51	0.27282193
3	0xbf08eb47	-0.53484005
4	0x3b05587c	0.002034693
5	0x3e6dc805	0.23220833
6	0xbb64d97e	-0.0034919675
7	0xbe3b71ca	-0.18305126
8	0x3eb23aa8	0.34810376
9	0x3fe5e771	1.7961255
10	0x3ef27c3c	0.47360408
11	0x3f2db985	0.67861205
12	0x3f9de121	1.2334329
13	0xbf129978	-0.57265425
14	0x3ebead7b	0.3724173
15	0xbf967b4a	-1.1756375
16	0xbfcaeff4	-1.5854478
17	0x3deee925	0.116655625
18	0xbebaac6a	-0.36459666
19	0xbe910f54	-0.28332007
20	0x3e479b67	0.19492875
21	0xbd3a3c39	-0.04546759
22	0xbed25408	-0.41079736
23	0x3f047b93	0.5175106
24	0xbe0c41b6	-0.13696942
25	0xbdc305e2	-0.095226064
26	0x3edb1d64	0.4279586
27	0xbec7ef95	-0.39049974
28	0xbe2ea8f8	-0.17056644
29	0x3e88d2f3	0.2672344
30	0xbe4dddf2	-0.20104197
31	0xbe26a906	-0.16275415
32	0x3f0e3e52	0.55563843
33	0xbe9bfc0c	-0.30465734
34	0x3baacd80	0.005212486
35	0x3ef66456	0.48123425
36	0xbd2bca92	-0.041941233
37	0xbeb1ac6c	-0.3470186
38	0xbeeb5c47	-0.4596884
39	0x3e06ac4e	0.13151667
40	0x3e303d7a	0.17210951
41	0x3f11c93b	0.5694768
42	0xbe2cd696	-0.16878733
43	0xbcedcff6	-0.029029828
44	0x3f18bfdc	0.59667754
45	0x3fb1d1ed	1.3892189
46	0xc02be74f	-2.685993
47	0xbef7bb87	-0.4838526
48	0xbe330f97	-0.17486416
49	0x3e2d58e9	0.16928448
50	0x3dce62ca	0.10077436
51	0x3eb8f077	0.3612096
52	0x3ea22d87	0.3167536
53	0xbeef3de5	-0.4672691
54	0xbe659b84	-0.22422606
55	0xbe4f71fb	-0.20258324
56	0xbde91115	-0.11380211
57	0x3c26d999	0.010183715
58	0x3e6f40df	0.2336459
59	0x3ea3ee5b	0.32017788
60	0x3c5997b2	0.013280796
61	0x3e4dbb1a	0.20090905
62	0xbd6dd515	-0.05806454
63	0xbe855f86	-0.2604944
64	0xbe00c766	-0.12576064
65	0xbeba7962	-0.36420733
66	0x3e7c9cdf	0.24669217
67	0x3c3afd38	0.011412911
68	0xbebaf552	-0.3651529
69	0xbe2ffe58	-0.17186868
70	0x3e3e4c1e	0.18583724
71	0xbe5055a0	-0.20345163
72	0x3eca5da9	0.39524582
73	0x3f680bde	0.9064311
74	0x3faa1db8	1.329032
75	0x3f466742	0.7750131
76	0x3f41f105	0.7575839
77	0x3f2f3fa9	0.6845651
78	0x3f601779	0.87535816
79	0x3f8b092d	1.0862175
80	0x3f55ef08	0.8356786
81	0xbf1c3a37	-0.6102633
82	0x4023c9d0	2.5591927
83	0x3f6457bd	0.8919638
84	0xbf1aa15c	-0.60402465
85	0x4006a87b	2.1040332
86	0x3f81bd26	1.0135849
87	0xbf1acf96	-0.60473
88	0x3f0d7422	0.5525533
89	0x3f0c4ba6	0.5480293
90	0xbdaf11c0	-0.085483074
91	0x3eff9219	0.4991615
92	0xbe8e1475	-0.27749982
93	0x3fd30598	1.6486082
94	0x3f511226	0.8166832
95	0x3fa72b5b	1.3060106
96	0x3ffa30d3	1.954615
97	0x3f87be3f	1.0604934
98	0x3f21b56b	0.63167447
99	0x3ff53fe5	1.9160124
100	0x3f51ced4	0.8195622
101	0x3f7ddc9e	0.9916476
102	0x3fbc2e00	1.4701538
103	0xbd75bd59	-0.05999503
104	0x3dd66119	0.10467739
105	0x3f5f345b	0.87189263
106	0x3ecf4c45	0.40487877
107	0x3ee53df4	0.4477383
108	0x3e86bee0	0.263175
109	0x3dc5b974	0.09654513
110	0xbf1480fb	-0.5800931
111	0x3ddc229e	0.1074879
112	0xbca85a46	-0.020550858
113	0x3d016dd2	0.031598873
114	0xbd1a49bf	-0.037667986
115	0xbdcaab32	-0.09895934
116	0x3e0e16ff	0.1387596
117	0xbe19f5d1	-0.15035178
118	0x3e54865b	0.20754378
119	0x3ee04848	0.43805146
120	0xbd2fb850	-0.042900383
121	0x3da46b24	0.08028248
122	0xc0262a0e	-2.5963168
123	0x3e38a834	0.18032914
124	0x3c925a9d	0.017865473
125	0x3f0542f7	0.52055305
126	0x3d58d91d	0.05294143
127	0xbe5cc4ff	-0.21559523
128	0x3e66cdc7	0.22539435
129	0xbe72e34b	-0.23719518
130	0xbdda10cc	-0.10647735
131	0xbfe6672c	-1.8000236
132	0xbe2f3755	-0.17110951
133	0x3daf74b8	0.08567184
134	0x4007d564	2.1223993
135	0xbe24b4b4	-0.16084558
136	0xbd174d6a	-0.036939062
137	0xbe0e3c04	-0.13890082
138	0x3de301ef	0.11084353
139	0xbd1db925	-0.038506646
140	0x3b28970d	0.00257248
141	0xbd9e770f	-0.077375524
142	0x3d403ad3	0.0469311
143	0x3e3396a3	0.17537932
144	0x3f3b5a56	0.73184717
145	0x3ec99141	0.39368632
146	0xbec003c8	-0.37502885
147	0x3f19dcf8	0.60102797
148	0x3e5175e7	0.20455132
149	0xbea4c532	-0.32181698
150	0xbdf3f03a	-0.11911054
151	0x3de7cf8d	0.11318884
152	0xbf696d17	-0.9118208
153	0xc014ac72	-2.3230252
154	0x40185759	2.3803313
155	0xbefc14bb	-0.49234566
156	0xbf86127c	-1.0474391
157	0x402fda5a	2.7477021
158	0xbfaf4d80	-1.3695526
159	0x3e2c7d3b	0.16844647
160	0x4002f17f	2.0459898
161	0xbfb9d0e7	-1.4516877
162	0x3e7c104b	0.2461559
163	0xbd4fe9ae	-0.050759964
164	0xbd018216	-0.0316182
165	0x3f0ecf2b	0.55784863
166	0x3efd1ea7	0.49437448
167	0xbf8d3fbe	-1.1035078
168	0x3f9218c4	1.1413808
169	0x3fadfe81	1.3593293
170	0xbfeae237	-1.8350285
171	0x3f4c6419	0.79840237
172	0x3ebdc928	0.37067533
173	0x3e27a37e	0.16370961
174	0x3f8055ce	1.0026186
175	0x3c944878	0.018100962
176	0xbff476c4	-1.9098744
177	0x3f52088b	0.82044286
178	0x3ea108eb	0.31452116
179	0xc016503d	-2.3486474
180	0x3f5a0900	0.8516998
181	0x3f05dd47	0.5229077
182	0x3f0c14be	0.5471915
183	0x3e4cb9d8	0.19992769
184	0x3f62fe3b	0.88669175
185	0x3e83932b	0.25698218
186	0x3e3d3dd8	0.18480623
187	0x3ee57283	0.44813928
188	0x3f842cc1	1.0326158
189	0xbd638ffd	-0.05555724
190	0x402bb970	2.6831932
191	0xbf70b29d	-0.9402254
192	0xbf401228	-0.75027704
193	0x3fe4abbf	1.7864913
194	0xbe625615	-0.2210315
195	0xc00da028	-2.2129002
196	0xbf2c59a9	-0.6732431
197	0x3db09aa5	0.08623246
198	0x3d932e78	0.071865976
199	0x3ed3bbc9	0.41354206
200	0x3f53a46a	0.8267275
201	0x3f7d4cbe	0.98945224
202	0x3e742d00	0.23845291
203	0x3f2e174b	0.6800429
204	0x3f775dff	0.966278
205	0x3efe4c1e	0.49667448
206	0x3f45dacf	0.77287
207	0x3e1ee771	0.15517975
208	0x3ea658c8	0.3248961
209	0x3f571a16	0.8402418
210	0x3f30e0f0	0.6909323
211	0x3e82075a	0.25396234
212	0xbc9743a7	-0.018464876
213	0x3ebbd7eb	0.3668817
214	0x3f330f40	0.69945145
215	0x3f3fc656	0.7491201
216	0xbe6d5d08	-0.2318002
217	0x3e36c98a	0.17850319
218	0x3db85a82	0.09001638
219	0xbdabeef6	-0.083951876
220	0x3e966a75	0.29378095
221	0x3ee43f9e	0.44579786
222	0xbda1b1d1	-0.07895244
223	0xbe5693c4	-0.20954806
224	0x3e807420	0.25088596
225	0x3f591e9c	0.8481233
226	0xc03cf4f4	-2.9524508
227	0x3eab9af5	0.3351666
228	0x3ee7fdbb	0.45310768
229	0xc01159b4	-2.2711
230	0x3f8c98d1	1.0984136
231	0x3fb64f9b	1.4243044
232	0x3d491d8d	0.049100447
233	0x3e85e684	0.26152432
234	0x3f034cd2	0.51289093
235	0x3f071106	0.5276035
236	0x3e85fae3	0.26167974
237	0xbe0f77d8	-0.1401056
238	0x3e581bfb	0.21104424
239	0x3f1ee447	0.62067074
240	0xbec8c96b	-0.3921617
241	0xbeae3815	-0.34027162
242	0xbee71e76	-0.45140427
243	0x3e8ea985	0.27863708
244	0x3e4567a3	0.19277816
245	0x3d3e0892	0.046394892
246	0xbe372688	-0.17885792
247	0x3e8bfb0d	0.27339974
248	0x3f050712	0.51963913
249	0xbe2fed36	-0.17180333
250	0xbe102d2d	-0.14079733
251	0x3e9872ba	0.2977503
252	0x3ee887c3	0.45416078
253	0x3e75e26e	0.24012157
254	0xbec7511a	-0.38929063
255	0x3e861072	0.26184422

conv.5.bias f4 [64]
0	0x3df97c9d	0.12181971
1	0xbe95650a	-0.2917865
2	0x3e2a10eb	0.16608016
3	0xbe624859	-0.22097911
4	0x3d05c67f	0.032660004
5	0x3e9599ff	0.29219052
6	0x3e85dada	0.26143533
7	0x3d40880f	0.047004756
8	0x3ebad54e	0.36490864
9	0x3e5114eb	0.20418136
10	0x3e8e0e23	0.2774516
11	0xc054e4a1	-3.3264544
12	0xbf20f273	-0.6286995
13	0xbe9cba6e	-0.30610985
14	0xbdf0dc5c	-0.1176078
15	0xbf207384	-0.6267626
16	0x3f4f42d3	0.8096134
17	0x3d1b1f9b	0.03787194
18	0xbf179be1	-0.5922223
19	0x3f49899b	0.78725594
20	0xc0501a54	-3.251607
21	0x3ec48036	0.38379067
22	0xbe5b97d6	-0.2144464
23	0x3ee83e1d	0.4535989
24	0x3db768fb	0.0895557
25	0xbdbe2389	-0.092841215
26	0xbf204173	-0.6259987
27	0xc0349751	-2.8217356
28	0xbec71ca2	-0.38889033
29	0xbec5e9a3	-0.38654813
30	0x3f358693	0.7090847
31	0xbf00c8ba	-0.50306284
32	0xbe6b7584	-0.22994047
33	0xbdd793aa	-0.105262116
34	0xbebf0ed2	-0.37315995
35	0xbe54d82b	-0.20785587
36	0xbf7f7595	-0.9978879
37	0xc0269d88	-2.603365
38	0x3ea4dc03	0.32199106
39	0x3f42a4a6	0.76032484
40	0x3f2d96ff	0.67808527
41	0xbdee9ed9	-0.116513915
42	0xbe1a3697	-0.15059887
43	0x3eb8ce5b	0.36094937
44	0x3c92982d	0.017894829
45	0xbf0fd41e	-0.5618304
46	0x3e123233	0.14276962
47	0x3f2158c9	0.630261
48	0xbef68ddd	-0.48155108
49	0x3e4780a8	0.19482672
50	0xbe9b8483	-0.30374536
51	0x3ef94ce8	0.48691487
52	0xbf19254b	-0.5982253
53	0xbecd7fb0	-0.4013648
54	0xbdc1e935	-0.09468309
55	0xbed771ae	-0.42078918
56	0xbe5a5258	-0.21320474
57	0x3f3b0c10	0.7306528
58	0xbf550ee7	-0.83225864
59	0xbeb3544e	-0.35025257
60	0xbf42931c	-0.7600572
61	0xbf1e59b7	-0.61855644
62	0x3e47a51a	0.19496575
63	0xbe1fa45e	-0.15590045

linear.1.weight f4 [256, 169]
0	0x3bc14700	0.0058983564
1	0x3d20e03a	0.03927634
2	0x3d72750a	0.05919365
3	0x3d5dbe1e	0.054136388
4	0xbcd126a8	-0.025531128
5	0xbcb52cb6	-0.022116046
6	0x3d010c74	0.031506017
7	0x3d1dd234	0.038530543
8	0x3d5657c6	0.0523298
9	0x3fa28296	1.2696102
10	0x3c787cb8	0.015166454
11	0xbc396a70	-0.011316881
12	0x3d03d2f0	0.032183588
13	0x3d46dfb6	0.04855319
14	0xbb09e940	-0.002104357
15	0xbc6f51f8	-0.014606945
16	0x3bce9590	0.0063044503
17	0xbd34ef54	-0.044173554
18	0xbd9a52c0	-0.075353146
19	0xbcaab740	-0.020839334
20	0x3d975cdd	0.07390759
21	0xbf6c3c15	-0.9227918
22	0xbe0a0846	-0.13479719
23	0x3c4e5ff0	0.0125961155
24	0xbd827194	-0.063693196
25	0xbd86bb78	-0.065787256
26	0xbc8b2aec	-0.01698824
27	0x3d1cfd18	0.038327307
28	0x3cd04040	0.025421262
29	0xbb321e40	-0.0027178675
30	0x3cf3f8c4	0.029781707
31	0xba2b2c80	-0.00065297633
32	0xbd362a2a	-0.044473805
33	0x3f09008e	0.5351647
34	0xbf0cc4d3	-0.5498783
35	0xbf0b9146	-0.54518545
36	0x3ca0ab64	0.019612975
37	0x3cabbd10	0.020964175
38	0xbd2e71d4	-0.042589024
39	0x3d7eb02e	0.062179737
40	0x3d32cb9c	0.04365121
41	0xbd6449dc	-0.0557345
42	0xbf7b28c3	-0.9810907
43	0xbf31271b	-0.69200295
44	0x3ef294e8	0.4737923
45	0x3f2dcf26	0.6789421
46	0xbe9e88e8	-0.30963826
47	0xbf2872cc	-0.65800166
48	0x3dd082b4	0.1018118
49	0xbd994d15	-0.07485405
50	0xbedd4827	-0.4321911
51	0x3ec0e962	0.37678057
52	0x3d25543e	0.040363543
53	0x3d4d1992	0.050073214
54	0xbc04b2d8	-0.00809928
55	0x3fca7266	1.5816162
56	0x3dbb77e5	0.091537274
57	0x3fd9cc90	1.7015553
58	0x3e0f66f3	0.14004116
59	0x3d402ad0	0.04691583
60	0xbecbefee	-0.3983149
61	0xbeeaa8e3	-0.45831975
62	0x3deaa4da	0.11457224
63	0xbec06aa1	-0.3758135
64	0xbd53d9d2	-0.0517214
65	0xbcd332a2	-0.02578098
66	0xbd41b696	-0.04729327
67	0xbd1df925	-0.03856768
68	0xc050b6b2	-3.2611508
69	0xbf6cb367	-0.92461246
70	0x3ffbf12c	1.9682975
71	0x3f95f750	1.1716099
72	0x3fcf4389	1.6192485
73	0x3fc7878b	1.558824
74	0x3f7d4bcd	0.9894379
75	0x3e32481b	0.17410319
76	0xbd581f8a	-0.052764453
77	0x3d01c380	0.031680584
78	0x3ced6664	0.028979488
79	0xbd12d060	-0.035843253
80	0x3ce8fe40	0.028441548
81	0x3dbc4ae2	0.0919397
82	0xbefc7b45	-0.49312797
83	0x3ebf1b24	0.37325394
84	0xbf713a5e	-0.94229686
85	0xbf17c0f8	-0.5927882
86	0xbf9737a6	-1.1813858
87	0x3e21e0dc	0.15808433
88	0x3d215646	0.039388917
89	0x3d4fdd2e	0.050748043
90	0xbd08a254	-0.033357933
91	0xbd119885	-0.035545845
92	0xbd99a67a	-0.07502456
93	0x3eab30b5	0.33435598
94	0xbf36f696	-0.7147001
95	0x3e45586e	0.19272014
96	0x3fdd2958	1.7278242
97	0x3f2e552e	0.68098724
98	0x3e14a22e	0.14514992
99	0xbf74530d	-0.95439225
100	0xbf8ec902	-1.1155093
101	0x3d5d6b0e	0.054057173
102	0xbd72ab40	-0.059245348
103	0xbc8ed650	-0.017436177
104	0xbc3f7e08	-0.011687763
105	0x3d01c23c	0.031679377
106	0x3f4cab2d	0.79948694
107	0x3fc28282	1.5196078
108	0xbeb37542	-0.35050398
109	0x3f5b18f7	0.8558497
110	0x3f8d5b64	1.1043515
111	0x3f8ff4d2	1.1246588
112	0x3f1157af	0.5677442
113	0xbe2291b2	-0.15875891
114	0x3cd8e730	0.026477426
115	0x3d3f3abc	0.046686873
116	0xbcde4624	-0.027133055
117	0x3f63a840	0.88928604
118	0xbf987056	-1.1909282
119	0xbeb3143a	-0.3497637
120	0xbfd06340	-1.6280289
121	0xbeae1c6d	-0.34006062
122	0xbf554020	-0.8330097
123	0xbe6cb8ab	-0.2311732
124	0xbf61d94d	-0.882222
125	0xbeb1da6e	-0.3473696
126	0x3d3dacfe	0.046307556
127	0x3d6b52d6	0.057452045
128	0xbd023288	-0.03178647
129	0x3d8b80e1	0.06811691
130	0x3d4ccf6e	0.050002508
131	0xbcde7b76	-0.02715848
132	0x3d822ae7	0.06355839
133	0x3eff7b04	0.4989854
134	0x3fcf77ba	1.6208413
135	0x3f425b1d	0.7592028
136	0xbd18284a	-0.037147798
137	0x3d4d4172	0.05011124
138	0x3c2d3d18	0.010573648
139	0xbc389280	-0.011265397
140	0xbd006dbb	-0.031354647
141	0x3d787802	0.060661323
142	0x3d8d7df7	0.069087915
143	0xbd2d5a6a	-0.042322554
144	0x3d1cff28	0.038329273
145	0x3d3c5b2a	0.04598538
146	0x3eb63113	0.35584316
147	0x40554b87	3.3327348
148	0x3ce5f6ec	0.028071843
149	0x3b8b1140	0.0042439997
150	0x3c2b12a0	0.010441452
151	0xbc1f2c78	-0.009715192
152	0x3cf47154	0.029839195
153	0x3d7963e6	0.060886286
154	0x3d499536	0.049214564
155	0x3d03918a	0.03212122
156	0xbd799774	-0.060935453
157	0x3c909bf8	0.017652497
158	0xbd3c6846	-0.04599788
159	0x3c2b4188	0.010452636
160	0x3d013fbc	0.031554922
161	0xbbeb8250	-0.0071871653
162	0xbd92019f	-0.071292154
163	0x3d6a9f76	0.05728098
164	0xbd496499	-0.049168203
165	0x3cb427e8	0.021991685
166	0x3d4b4d0a	0.049634017
167	0x3c957ee4	0.018248983
168	0x3d1dd670	0.03853458
169	0x3d6dc3be	0.058048002
170	0xbd8e800f	-0.06958019
171	0xbd8a61d6	-0.06756942
172	0x3c380838	0.011232428
173	0x3ce9ba28	0.028531149
174	0xbd8e065d	-0.069348074
175	0x3c5a84d8	0.0133373365
176	0xbd16947b	-0.036762696
177	0xbd8b0b95	-0.067893185
178	0x3f903b9f	1.1268195
179	0x3d3c1ce8	0.045926005
180	0xbb175f60	-0.002309762
181	0xbd542106	-0.051789306
182	0xbcb61dd4	-0.02223102
183	0xbc22a850	-0.009927824
184	0xbca07414	-0.0195866
185	0x3d22d6be	0.039755575
186	0xbc8e3c32	-0.017362688
187	0xbd5b5696	-0.05354937
188	0xbd3dd1e6	-0.046342753
189	0x3d8058bb	0.06266924
190	0x3f9d8d4d	1.2308747
191	0x3fd6edc8	1.6791315
192	0xbd081259	-0.033220623
193	0x3c9aedac	0.018912159
194	0xbd7b6ee6	-0.061385058
195	0xbd759319	-0.059954736
196	0x3d6b287a	0.05741165
197	0x3a7eb280	0.00097159296
198	0xbcc07f6c	-0.02349826
199	0x3cdb0b40	0.026738763
200	0xbd1f861b	-0.038946252
201	0xbbee6290	-0.007274933
202	0xbff9e031	-1.9521543
203	0x3fbc8379	1.4727622
204	0xbf821467	-1.0162476
205	0x3c93262c	0.017962538
206	0x3cda2940	0.026630998
207	0x3b4f4980	0.0031629503
208	0x3b8d25a0	0.0043074638
209	0x3d0f5c20	0.034999967
210	0xbc8c94e8	-0.017160848
211	0x3f2d8de2	0.6779462
212	0x3f246041	0.6420937
213	0xbf522107	-0.82081646
214	0xbe44ffd5	-0.19238217
215	0x3e5cb2d2	0.2155259
216	0x3f0d2563	0.5513517
217	0x3b69c389	0.0035669527
218	0x3f5da4a4	0.86579347
219	0xbf84ab55	-1.0364786
220	0x3ebcfbeb	0.36910948
221	0xbd3601b2	-0.04443521
222	0xbcdfb13c	-0.027306192
223	0xbd78f4cd	-0.060780335
224	0xbf3cae91	-0.7370387
225	0x3e0ea003	0.13928227
226	0x3dc548aa	0.09633
227	0xbfe93cc7	-1.8221673
228	0x3f4294ae	0.7600812
229	0xbf97e73d	-1.1867443
230	0x3f4bd3bd	0.7961996
231	0x3f088115	0.53321964
232	0xbfa947b7	-1.3225011
233	0xbd2a2a1e	-0.041544072
234	0x3d5c58d6	0.053795658
235	0xbcf2c48a	-0.029634733
236	0xbd4655b9	-0.048421595
237	0xbf046ccd	-0.51728517
238	0xbea59bf2	-0.3234554
239	0xbf5061ef	-0.81399435
240	0x3f2b0a5e	0.66812694
241	0x3f27c3bf	0.6553306
242	0x3f7d5964	0.98964524
243	0xbf05dd82	-0.5229112
244	0x3fb69b50	1.4266148
245	0xbd27ad3b	-0.04093669
246	0x3d8a379b	0.06748887
247	0xbcb1969e	-0.021678265
248	0x3d21f73e	0.03954243
249	0x3d47c376	0.04877039
250	0x3fa2be6d	1.2714363
251	0x3f6ea95d	0.9322718
252	0xbf409013	-0.7521984
253	0x3ee30644	0.44340718
254	0x3e87090b	0.26374087
255	0x3fd52609	1.6652232

linear.1.bias f4 [256]
0	0x3d18b1b1	0.037278835
1	0x3ea68c5b	0.32528958
2	0x3e80f7f2	0.25189167
3	0x3d96ff6d	0.07372937
4	0x3e503a22	0.20334676
5	0xbe53beb7	-0.2067822
6	0x3f20b36b	0.6277377
7	0xbe886a2d	-0.26643506
8	0xbe3fc08a	-0.18725792
9	0x3da03238	0.078220785
10	0x40130583	2.2972114
11	0x3d83d015	0.06436173
12	0x3e88b256	0.2669856
13	0x3e07a917	0.13248096
14	0x3f5aee3e	0.8551978
15	0x3db0dbf5	0.086357035
16	0x3d51d664	0.05122985
17	0x3e63a63f	0.22231387
18	0xbcd89bf6	-0.026441555
19	0xbe69b6fe	-0.22823712
20	0xbe2c84f8	-0.16847599
21	0x3db804df	0.08985304
22	0x3dd68d33	0.1047615
23	0x3eb4d11c	0.35315788
24	0xbf98fc9b	-1.1952089
25	0xbdfcef8e	-0.12350379
26	0x3e6331d4	0.22186977
27	0x3eb7f5f6	0.3592984
28	0xbe98f295	-0.29872575
29	0x3ec4b5f7	0.38420078
30	0x3e4bb67e	0.19893834
31	0x3f0e51dd	0.55593663
32	0xbfbab741	-1.4587175
33	0xbc3e22d1	-0.011604981
34	0x3f128e73	0.5724861
35	0xbd503d27	-0.05083957
36	0x3e4a10f2	0.19733027
37	0x3e0e6a3f	0.13907717
38	0x3e4ba11b	0.19885676
39	0x3dd9f10c	0.10641679
40	0x3edb1119	0.42786482
41	0x40059219	2.087042
42	0x3e8131a0	0.25233173
43	0x3f83c63f	1.0294875
44	0x3eb2eaf7	0.3494489
45	0xbe516e85	-0.20452316
46	0x3ee56511	0.4480367
47	0xbe50d9d8	-0.20395601
48	0x3f8bd5a7	1.0924577
49	0x3e74a2ef	0.23890279
50	0x3d5c88c6	0.053841375
51	0x3ecfef12	0.40612084
52	0x3ec7d536	0.39029855
53	0x3e191fcc	0.14953536
54	0x3e6e4d97	0.23271786
55	0xbc62fae1	-0.0138537595
56	0x3d6d3d4f	0.057919797
57	0xbd397893	-0.045281004
58	0x3df3e6f7	0.119092874
59	0x3e94203a	0.28930837
60	0xbf845cf6	-1.034087
61	0xc006d3cb	-2.1066768
62	0x3ed87076	0.422733
63	0x3f992a03	1.1965946
64	0x3e838d46	0.2569372
65	0x3e2df940	0.16989613
66	0x3c84d9c3	0.016217118
67	0x3d6033f4	0.054737046
68	0x3e2c54aa	0.16829172
69	0x3fb1d6c8	1.3893671
70	0x40142982	2.3150334
71	0xbe0aeddd	-0.135673
72	0x3d410a46	0.04712894
73	0xbd6ef010	-0.05833441
74	0x3a4e5656	0.00078711414
75	0xbd87036d	-0.0659245
76	0x3da81cee	0.08208643
77	0x3d76feb9	0.060301516
78	0x3dbdc58f	0.09266197
79	0x3dc43ac3	0.095815204
80	0x3ea69137	0.32532665
81	0x3f8f1a36	1.1179874
82	0x3eebe4c5	0.46072975
83	0xbdab9bb8	-0.0837931
84	0x3b3954d9	0.0028279333
85	0x3e8cf66a	0.2753175
86	0x3eb120f6	0.3459546
87	0xbaf64334	-0.0018788339
88	0xbdabfcc4	-0.083978206
89	0xbd6a7c47	-0.057247426
90	0xbd4d3cc3	-0.050106775
91	0xbdd65e23	-0.10467174
92	0x3ed4aeb2	0.41539532
93	0x3e8f302c	0.2796644
94	0x3ee82e78	0.45347953
95	0x3e90ef1c	0.28307426
96	0x3ebf8c89	0.37411907
97	0x3e6f4768	0.23367083
98	0x3e3c7111	0.18402506
99	0x3ea1dd32	0.3161407
100	0x3ee64145	0.44971672
101	0xbdc84607	-0.09778982
102	0xbdcd141f	-0.100136034
103	0xbdb2ec97	-0.08736532
104	0xbe0a0145	-0.13477047
105	0xbc1295c0	-0.008946836
106	0xbe419f62	-0.18908456
107	0xbeb71f83	-0.3576623
108	0xbf8bd56e	-1.0924509
109	0x3e0c026c	0.13672799
110	0xbfb02d92	-1.3763907
111	0xbdd9eeec	-0.10641274
112	0x3e796eb2	0.24358633
113	0x3e0af401	0.13569643
114	0x3e738f36	0.237851
115	0x3e35142e	0.17683479
116	0x3e19010a	0.14941803
117	0xbe439e80	-0.19103432
118	0x3e9de828	0.30841184
119	0x3d7d1425	0.06178679
120	0x3f6caa22	0.924471
121	0x3d582247	0.052767064
122	0x3e97bff7	0.29638645
123	0xbcbfdbaa	-0.023420174
124	0xbde35ba6	-0.11101465
125	0xbd25b9ee	-0.04046052
126	0x3e9f7198	0.31141353
127	0x3e9ec275	0.31007734
128	0xbebb46bf	-0.36577412
129	0x3c7a0cd5	0.015261848
130	0x3ddad0bb	0.106843434
131	0x3e72b91c	0.23703426
132	0x3fee13c1	1.8599778
133	0x3e8adc04	0.27120984
134	0xbd8a7709	-0.067609854
135	0x3e08e059	0.13366832
136	0x3ca4dbd1	0.020124348
137	0x3d1805d7	0.037114944
138	0x3e809b62	0.25118548
139	0x3eb51415	0.35366884
140	0x3d42c339	0.04754946
141	0x3e5c9bf7	0.21543871
142	0x3df288b0	0.11842477
143	0x3dca4f07	0.098783545
144	0xbe11be54	-0.1423276
145	0x3de0adc7	0.109706454
146	0x3e80c228	0.2514813
147	0x3fb82c4b	1.4388517
148	0xbe5998e7	-0.21249734
149	0x3e4c64ef	0.19960378
150	0x3e263d39	0.16234292
151	0x3c1796c4	0.009252254
152	0xbf949c0c	-1.1610122
153	0xbf97dcb3	-1.1864227
154	0x3e4fcfd9	0.20294131
155	0x3f11d2d4	0.56962323
156	0x3e6b9134	0.2300461
157	0xbdaab9b0	-0.08336198
158	0x3ea9c06f	0.33154628
159	0x3e9141b7	0.2837045
160	0xbdcc56dc	-0.099775046
161	0x3e0a387f	0.13498114
162	0xbe803950	-0.25043726
163	0xbeb776d9	-0.3583286
164	0x3e25a6cc	0.16176909
165	0x3e043c98	0.1291374
166	0x3e9d486f	0.30719325
167	0x3ec52053	0.38501224
168	0x3db9e4fc	0.090768784
169	0x3dd18387	0.10230165
170	0x3e82f6f8	0.25579047
171	0x3c9392c1	0.018014314
172	0x3f17b54c	0.5926101
173	0x3ef3307b	0.47497925
174	0x3e130563	0.14357524
175	0xbde51b94	-0.11186901
176	0x3fa56330	1.2920895
177	0x3eabfb40	0.33590126
178	0xbdeebce8	-0.11657125
179	0x3c897e5e	0.01678389
180	0xc00d81d4	-2.211049
181	0x3f5d88ad	0.86536676
182	0x3e1bed83	0.15227322
183	0x3e8eda78	0.27901053
184	0x3bf788be	0.0075541427
185	0xbdfb39fa	-0.122669175
186	0x3e82c592	0.2554136
187	0x3ec4abba	0.38412267
188	0xbeb0f7e6	-0.34564131
189	0xbd86cd23	-0.065820955
190	0xbd8e0a99	-0.06935615
191	0xbeda5551	-0.42643216
192	0x3d387664	0.04503478
193	0xbdadf473	-0.084938906
194	0x3e673fef	0.22582982
195	0xc02b6237	-2.6778696
196	0x4042fcba	3.0466752
197	0xbd80bfe6	-0.06286602
198	0xbebe35a3	-0.37150297
199	0x3d75b269	0.0599846
200	0x3cc06ff5	0.023490885
201	0x3e6a0ffb	0.22857659
202	0x3e19a40a	0.15003982
203	0x3e000f59	0.12505855
204	0xbf846cbb	-1.0345682
205	0x3da3d7a3	0.08000114
206	0xbcca7edb	-0.024718693
207	0x3f4417ab	0.76598614
208	0x3c8b2a39	0.016987907
209	0x3dd6ba36	0.10484736
210	0xbfa8634c	-1.3155303
211	0x3d893e63	0.067013524
212	0x3d9de85c	0.07710335
213	0x3f985686	1.1901405
214	0xc00cc72d	-2.1996567
215	0x3e45f351	0.19331099
216	0x3ea6c039	0.3256853
217	0x3f3576e4	0.7088454
218	0xbde314de	-0.110879645
219	0x3f96a574	1.1769242
220	0x3d9ff3a5	0.078101434
221	0x3eb15ac6	0.34639567
222	0x3d90aed2	0.07064594
223	0xbd69f46a	-0.057117857
224	0xbdd6894a	-0.104754046
225	0xbd2d058a	-0.04224161
226	0x3e8d90c7	0.2764952
227	0xbebca3d7	-0.3684375
228	0x3f755f8b	0.9584891
229	0x3e783a05	0.24240883
230	0x40146952	2.3189282
231	0x3e89f8e7	0.2694771
232	0xbdfea16a	-0.12433131
233	0x3ef39a29	0.47578552
234	0xbda450b3	-0.08023205
235	0x3dc38f53	0.09548821
236	0xbe63302c	-0.22186345
237	0xbe52632d	-0.20545645
238	0xbd0addfb	-0.033903103
239	0x3dd55d04	0.10418132
240	0xbdfbdc3f	-0.12297868
241	0x3ea08fa6	0.31359595
242	0x3e3e051c	0.18556637
243	0x3e78065d	0.24221177
244	0x3e9597b2	0.29217297
245	0x3da9effc	0.082977265
246	0x3d2effdd	0.04272448
247	0x3faf290f	1.3684405
248	0xbcdc968e	-0.026927259
249	0xbdf4b560	-0.11948657
250	0x3f816956	1.0110271
251	0xbe70e2b0	-0.23523974
252	0x3e81d0e6	0.2535469
253	0x3e3be9f9	0.18350972
254	0x3e17ced0	0.14824986
255	0xbdf15087	-0.117829375

linear.3.weight f4 [64, 256]
0	0xc0908659	-4.5164
1	0x40c9f339	6.3109403
2	0x410439f0	8.264145
3	0xc095262d	-4.66091
4	0xc01a9858	-2.4155483
5	0xc0b2ec3f	-5.5913386
6	0x4088b95f	4.2726283
7	0xc098d816	-4.7763777
8	0xc0a073b9	-5.0141263
9	0x40abc7b3	5.3681273
10	0x3f20b23b	0.6277196
11	0xc014c871	-2.324734
12	0xc0e52fac	-7.1620693
13	0x40f4c014	7.648447
14	0x3f96c059	1.177745
15	0x410e6526	8.899694
16	0x412059d7	10.021934
17	0x40dfb16e	6.990409
18	0xc0f95885	-7.7920556
19	0xc0766369	-3.8498175
20	0xc0cf147d	-6.471251
21	0x410cf342	8.809389
22	0x41017b2d	8.092572
23	0x40787bc5	3.8825543
24	0xbf695bc2	-0.91155636
25	0xc109b649	-8.607003
26	0xc0104eaf	-2.2548025
27	0x40b2c225	5.5861993
28	0xc0cf3c2e	-6.476096
29	0x409390ed	4.611441
30	0x402f4da2	2.7391133
31	0x40806da3	4.0133834
32	0xbf0fc824	-0.56164765
33	0xc0a43ccd	-5.132422
34	0x40b91955	5.7843423
35	0xc0f649b3	-7.6964965
36	0xc0ae15c9	-5.4401593
37	0xbf9fd384	-1.2486424
38	0x40ba82dc	5.828474
39	0x4108f015	8.558614
40	0x407d94a1	3.9621966
41	0x3f73864b	0.9512679
42	0x401c8525	2.4456265
43	0x3f444915	0.76674014
44	0x40e066bc	7.012541
45	0xc1039717	-8.224387
46	0x40c60b06	6.1888456
47	0xc1298b23	-10.596469
48	0x3f498544	0.7871897
49	0x40a99ce7	5.300403
50	0xc10e3b15	-8.889424
51	0x40c77714	6.233286
52	0x41039257	8.2232275
53	0xc08250de	-4.0723715
54	0xc098cbe8	-4.774891
55	0xc0d8e8b4	-6.778406
56	0x40f0ef7c	7.529234
57	0xc11eb3e4	-9.918919
58	0x40f11bc3	7.534639
59	0x40cdbacf	6.429054
60	0xbf8d34bb	-1.1031717
61	0xbf36e400	-0.7144165
62	0x408d0286	4.406558
63	0x3f206ab3	0.6266281
64	0x40e9d0d2	7.3067408
65	0xc0359cab	-2.8376873
66	0xc0af60e6	-5.4805784
67	0x4090b079	4.521542
68	0xc0cc6276	-6.387019
69	0x3f27220f	0.65286344
70	0x3f544cc5	0.8292964
71	0x40da2d71	6.818047
72	0xc0d990ac	-6.79891
73	0x40dc9b69	6.893971
74	0xc0c26699	-6.075024
75	0xc07c7b7f	-3.9450376
76	0x4121bf54	10.109211
77	0xc0d80010	-6.7500076
78	0xc03a009d	-2.9062874
79	0xc0a64d5e	-5.196944
80	0x402242d4	2.5353289
81	0x3d0e4ae2	0.034739383
82	0x40e9393e	7.2882376
83	0x40c2564b	6.073034
84	0xc0941a91	-4.628243
85	0x40fb633d	7.855864
86	0x41246be2	10.276339
87	0xc0afaa4c	-5.489538
88	0x40b89cd0	5.769142
89	0xc0be2d49	-5.943028
90	0x41286761	10.525239
91	0xc0628185	-3.5391552
92	0x40cb7db5	6.359095
93	0x4109e86f	8.6192465
94	0x3f343817	0.70398086
95	0xc0fc3bd4	-7.882303
96	0x40f8ca8d	7.7747254
97	0xc0e9b416	-7.303233
98	0xc0928182	-4.578309
99	0x3f7728be	0.9654654
100	0xbeb578c8	-0.3544371
101	0xc0bc8c67	-5.892139
102	0xc1139f95	-9.22646
103	0x406ce90a	3.7017236
104	0xc12590a4	-10.347813
105	0xc0cac71c	-6.3368053
106	0x40e12eb9	7.0369534
107	0xc10123dc	-8.071255
108	0xbf9e9bca	-1.2391293
109	0x40ef0bdb	7.470197
110	0xbf5a979c	-0.8538759
111	0xc0d602b1	-6.6878285
112	0x4111cd07	9.1125555
113	0x408d0556	4.4069014
114	0x40d008d4	6.5010777
115	0xc0c6b7e5	-6.209948
116	0x41089423	8.536166
117	0xc0fccbd0	-7.8998795
118	0xc08337a1	-4.1005406
119	0xc082c48c	-4.0864925
120	0x3f96a9da	1.1770585
121	0x411068b4	9.025562
122	0x408d5dd1	4.417702
123	0xc0efa750	-7.489174
124	0xc0f52e37	-7.6618915
125	0x3fc0e762	1.5070612
126	0x40abcb6e	5.3685827
127	0x40b13b65	5.5385003
128	0x412e5e1a	10.897974
129	0x410295b3	8.161548
130	0x403ea6f0	2.978939
131	0x40f40d91	7.626656
132	0x3f7594d0	0.95930195
133	0xc062d569	-3.5442755
134	0xc093f161	-4.623215
135	0xc09166b1	-4.5437856
136	0xc0b880c6	-5.7657194
137	0xc0832521	-4.0982823
138	0x41009753	8.036944
139	0x40390936	2.8911872
140	0x412cdffe	10.804686
141	0x40ccf067	6.404346
142	0xc081f635	-4.0613046
143	0x40c404b3	6.1255736
144	0xc0fc69fc	-7.8879375
145	0x40a2ed0d	5.091437
146	0x40de0b2f	6.938865
147	0x3f69f01d	0.9138201
148	0xc12504bf	-10.313659
149	0xc0c697a0	-6.206009
150	0xc0980fe7	-4.751941
151	0xc0c6574b	-6.198156
152	0xbf72524a	-0.94656813
153	0xbfa8e2f9	-1.3194267
154	0xc100a3e2	-8.04001
155	0x404ad5c9	3.1692984
156	0x40cac74f	6.3368297
157	0xc0d86b9d	-6.7631364
158	0x401a531b	2.4113224
159	0x40fbf8ea	7.874135
160	0xc0c06d08	-6.0133095
161	0xc09d2cda	-4.911725
162	0xc10aee7a	-8.683222
163	0xc12d2a0e	-10.822767
164	0xc090ae74	-4.5212955
165	0x40d6a894	6.7080784
166	0xc0709f9a	-3.7597413
167	0x40fb99fd	7.8625474
168	0xc0550d32	-3.3289304
169	0x40c8d13b	6.275541
170	0x40a8e3d6	5.277812
171	0x40ec8dd2	7.392312
172	0x40d920e4	6.785265
173	0x40c4842a	6.1411333
174	0x40adfaba	5.4368563
175	0xc1158bcd	-9.346631
176	0x3f263e3b	0.64938706
177	0xc0bc0baf	-5.876426
178	0xc0eb27ec	-7.3486233
179	0xc0adb4aa	-5.4283037
180	0xbeb94ec2	-0.361929
181	0x3e6ea38f	0.2330458
182	0xc10d5a24	-8.834507
183	0x40dba709	6.86414
184	0x40e96e3c	7.2947063
185	0x411e0e6d	9.878522
186	0x40e38202	7.10962
187	0x409c31fd	4.881102
188	0xc0ea10f7	-7.314571
189	0xc0c05ee1	-6.011582
190	0x40ea049e	7.3130636
191	0xc0a018dc	-5.0030346
192	0xc109e7d4	-8.619099
193	0x4112ae8c	9.167614
194	0x40656ef3	3.5848968
195	0xbf024129	-0.50880677
196	0x3f23e64b	0.64023274
197	0xc054415a	-3.3164887
198	0xc102527d	-8.145139
199	0x412238bc	10.138851
200	0xc0d08b5e	-6.5170126
201	0x40c0ab96	6.0209455
202	0x40d436f0	6.631706
203	0xc0f31515	-7.5963235
204	0xbfa0d814	-1.2565942
205	0x40bc788c	5.889715
206	0xc109eb00	-8.619873
207	0x405b918b	3.4307582
208	0xc10f1ed8	-8.94503
209	0xc0998cbb	-4.798429
210	0xbf3e2b87	-0.7428517
211	0xc0f2051b	-7.563123
212	0x4112a51a	9.165308
213	0x3f1cee95	0.6130155
214	0xbf2fda78	-0.6869273
215	0x40db8415	6.8598733
216	0x4102e023	8.179721
217	0x3f20925a	0.62723315
218	0x411a80bf	9.656432
219	0x3f3c430f	0.73539823
220	0xc0a78a4f	-5.2356334
221	0xc1044fc6	-8.269476
222	0x40e91e9d	7.284987
223	0xc10bc2de	-8.735075
224	0xc0c50aeb	-6.1575828
225	0xc0f72c5c	-7.724165
226	0x410dcc31	8.862351
227	0x411e84d5	9.90743
228	0x3f509a52	0.81485474
229	0xc0a23004	-5.0683613
230	0xbbb39dfd	-0.00548148
231	0x41379682	11.474245
232	0xc0e35f61	-7.105393
233	0x413060a8	11.023598
234	0xc091d36f	-4.55706
235	0x410ddddb	8.866664
236	0xc120ab67	-10.041846
237	0xc0bfd444	-5.9946613
238	0xc05b9b0a	-3.4313378
239	0xc05b6013	-3.427739
240	0xc0a1db12	-5.057992
241	0x40e22566	7.0670652
242	0xc07ae331	-3.9201167
243	0x40e71743	7.2215896
244	0x40c1225d	6.0354447
245	0x4106df3e	8.4295025
246	0xbfd70e59	-1.6801254
247	0x3f82ce41	1.0219194
248	0xc0cac79e	-6.3368673
249	0xc10ddb21	-8.865998
250	0x3f5e43f2	0.86822426
251	0xc00ec744	-2.2309122
252	0xc0d03701	-6.5067143
253	0xc0967c26	-4.702655
254	0xc09cc192	-4.898629
255	0xc0a473f9	-5.139157

linear.3.bias f4 [64]
0	0x3ec43355	0.38320413
1	0x3e612444	0.2198649
2	0x3f0e4c5e	0.5558528
3	0x3e7315ca	0.2373878
4	0x3ed96f41	0.42467692
5	0x3e9298c5	0.2863218
6	0x3d8b32e0	0.06796813
7	0x3e51da9a	0.20493546
8	0x3e5f0a54	0.21781284
9	0x3e26d92c	0.16293782
10	0x3dd9556d	0.10611997
11	0x3ccfd3ef	0.025369613
12	0x3dada447	0.08478599
13	0x3da8026b	0.08203586
14	0x3e9e989b	0.30975804
15	0x3de79972	0.11308564
16	0x3e66b96d	0.22531672
17	0x3e679f33	0.22619323
18	0x3e93cd77	0.28867695
19	0x3d64ed2a	0.05589024
20	0x3eef14b2	0.46695477
21	0x3f4d4e1b	0.80197304
22	0x3eadf09f	0.33972642
23	0x3ef88625	0.48539844
24	0x3ec7d01a	0.39025956
25	0xbdc54eb8	-0.09634155
26	0xbd4f2948	-0.05057648
27	0xbd9e9def	-0.07744967
28	0xbd20b7ae	-0.03923767
29	0x3e41cd25	0.18925913
30	0x3e25fbef	0.16209386
31	0x3e160bad	0.14652891
32	0x3ed5b6a7	0.41740915
33	0xbd067202	-0.03282357
34	0xbe0bfec9	-0.13671412
35	0x3e993a8f	0.2992749
36	0x3db868ac	0.090043396
37	0x3eb4edef	0.3533778
38	0x3f8c8120	1.0976906
39	0x3e38a1ea	0.18030515
40	0x3e515d3d	0.20445724
41	0xbcadd0c1	-0.021217706
42	0x3f2d4aef	0.67692465
43	0x3e42167d	0.18953891
44	0x3ecaa571	0.39579347
45	0x3e48a9ae	0.19595978
46	0x3dc2f594	0.095194966
47	0x3ec7c23e	0.39015383
48	0x3faa2a16	1.3294094
49	0x3f0e5128	0.55592585
50	0x3ebe1f4b	0.3713325
51	0x3ec2e2b4	0.38063586
52	0x3ef03d0c	0.46921575
53	0x3e418f6f	0.18902372
54	0x3e874c0d	0.2642521
55	0x3e9992e0	0.2999487
56	0x3ce10d5e	0.027472194
57	0x3e81c085	0.25342193
58	0x3da04068	0.078247845
59	0xbcbd3d90	-0.023100644
60	0xbdb492ca	-0.0881706
61	0x3eceb035	0.4036881
62	0x3d386aa1	0.045023564
63	0x3da478e4	0.080308706

reg.weight f4 [2, 128]
0	0x403f3ab4	2.987958
1	0xc01a014d	-2.4063294
2	0x3fc6a067	1.5517701
3	0xbff7785c	-1.9333606
4	0x40b4ff39	5.656155
5	0x401aba74	2.4176302
6	0xbf5f8c13	-0.8732311
7	0x40962ad2	4.692727
8	0x3fd9e6c9	1.7023555
9	0x4037761a	2.8665833
10	0x3fefc6f1	1.8732587
11	0x3d834e96	0.064114735
12	0x3fda4f69	1.7055484
13	0x4064557c	3.5677176
14	0xbf1b32fd	-0.60624677
15	0xbfbe2d3e	-1.4857557
16	0x3fc64c2b	1.5491995
17	0x3fe2ff11	1.773409
18	0x40399af0	2.9000816
19	0x3fadaef4	1.3569016
20	0x404b4272	3.1759305
21	0x401a2c21	2.4089434
22	0x40517fb4	3.2734194
23	0x3fb78697	1.4337949
24	0x4006da7d	2.1070855
25	0x400b4a36	2.1764045
26	0x3b287024	0.0025701607
27	0x408ad03e	4.33792
28	0xbe5e0c4f	-0.21684383
29	0xbf2c3a62	-0.67276585
30	0xbf85a136	-1.0439823
31	0x409935fa	4.787839
32	0x40601b93	3.501683
33	0x3fe4461e	1.7833898
34	0x4066a28d	3.6036713
35	0x3d34edb4	0.044172004
36	0x3fd6b968	1.6775331
37	0x40131895	2.2983754
38	0xbf716ba0	-0.9430485
39	0x3fabe4fd	1.3429257
40	0x3fb32cd1	1.3998052
41	0x3fdff42c	1.749639
42	0x3da37bf8	0.079826295
43	0x3fe8f9d8	1.8201246
44	0xbf4031ce	-0.75075996
45	0xbfb53d5b	-1.4159349
46	0x4015383c	2.3315573
47	0x401ff758	2.4994717
48	0x407eb4a8	3.9797764
49	0x3fd65edf	1.6747702
50	0xbfc37626	-1.5270431
51	0x3fc74a94	1.5569634
52	0x3d7b7627	0.061391976
53	0x3fbf1014	1.4926782
54	0x40413b45	3.0192425
55	0xc00fe456	-2.2483115
56	0x3fd299a2	1.6453135
57	0x3fbcc30c	1.4747024
58	0x3e7aa4fc	0.24476999
59	0x3da75d80	0.081721306
60	0x3db19a64	0.08672026
61	0x3cb2a9c3	0.021809464
62	0x40527160	3.2881699
63	0x40655249	3.5831473
64	0x4218df9e	38.218376
65	0x421bb7b7	38.92941
66	0x4215ad92	37.419502
67	0x421c7373	39.112743
68	0xc1856598	-16.674606
69	0x421bedcb	38.98222
70	0x421cbf37	39.186733
71	0x421bbfa2	38.93714
72	0xc1875e9b	-16.921194
73	0x421c0181	39.00147
74	0x421c2ea6	39.045555
75	0x421c8eeb	39.13957
76	0x421d4600	39.31836
77	0x421c0bca	39.011513
78	0xc186436e	-16.782925
79	0x421ce455	39.22298
80	0x421a04b7	38.504604
81	0x421c2417	39.035244
82	0xc186eb71	-16.864962
83	0x421bf230	38.98651
84	0x421bfaf6	38.99508
85	0xc18d2c64	-17.646675
86	0x421b60ab	38.844402
87	0xc1884d2c	-17.037682
88	0xc1858176	-16.688213
89	0x421c8ba2	39.13636
90	0x421c5e65	39.092182
91	0x421c5202	39.080086
92	0x421c6bc6	39.105247
93	0x421b87d7	38.882656
94	0x421c52e6	39.080956
95	0x421c3d89	39.060093
96	0x4218f4e1	38.23914
97	0x421b8624	38.880997
98	0x421c9ad0	39.151184
99	0x421c19d0	39.025208
100	0x421c7187	39.110867
101	0xc1872acb	-16.895895
102	0x41c72733	24.89414
103	0x421bfed5	38.99886
104	0x421bf2ca	38.9871
105	0x421c4e2e	39.076347
106	0x421af57a	38.739723
107	0x421c6cda	39.1063
108	0x421b24b5	38.785847
109	0x421c1e36	39.029503
110	0x421c2d7c	39.04442
111	0x4218ac31	38.168156
112	0x41c7cd92	24.975376
113	0x421b9637	38.896694
114	0xc1854bf2	-16.662083
115	0xc186af2f	-16.835539
116	0xc187bec5	-16.96815
117	0x421bfb16	38.9952
118	0x42196482	38.348152
119	0xc184f89b	-16.62139
120	0x421c9c4b	39.15263
121	0x421c88e6	39.13369
122	0x421c203a	39.03147
123	0x421c8fc9	39.140415
124	0x421c797c	39.118637
125	0xc1881b64	-17.013374
126	0x421ca37d	39.159657
127	0x421c9ffc	39.156235
128	0xbac5ef24	-0.0015101177
129	0xbbb2a108	-0.0054513253
130	0xbbc0acf6	-0.0058799936
131	0x3dc67e08	0.09692007
132	0x3b026800	0.0019898415
133	0xbb145baa	-0.0022637644
134	0xbc60f9a8	-0.013731398
135	0x3ac50517	0.0015031424
136	0x39155438	0.00014241121
137	0xba2c1d95	-0.00065656874
138	0x3bbf4600	0.005837202
139	0x3d3b1667	0.04567566
140	0xbb89b195	-0.0042020776
141	0xbaecbb43	-0.001806118
142	0x3b841412	0.004030713
143	0x3b686972	0.003546324
144	0x3b84d1c4	0.0040533263
145	0xbbc9b575	-0.0061556646
146	0x3aa741d1	0.0012760704
147	0x3c8a4f04	0.01688338
148	0x3b024c28	0.0019881818
149	0xbc2d698d	-0.010584247
150	0x3b52d173	0.0032168298
151	0xbb963397	-0.0045837867
152	0xbb2ace3c	-0.0026062867
153	0xbb01a73f	-0.0019783524
154	0x3e010687	0.12600146
155	0x399ac952	0.00029523164
156	0x3f04dae9	0.5189653
157	0xb993bd18	-0.0002817891
158	0xbbfd57ce	-0.0077314144
159	0xbb8189a3	-0.003953175
160	0xb98656dd	-0.0002562319
161	0xbce1527a	-0.027505148
162	0xba7670d2	-0.0009400967
163	0x3cea2d33	0.028586006
164	0x3b718fbc	0.0036859354
165	0x3b7d0355	0.0038606722
166	0x3c13830c	0.009003412
167	0xbcb06229	-0.021531181
168	0x38777d60	5.9006154e-05
169	0x3dd5ac4c	0.10433254
170	0xbd87ea38	-0.066364706
171	0x3b0b8b2a	0.0021292665
172	0x3c5c3c2a	0.013442079
173	0x3a563f1e	0.00081728573
174	0xbb99d0e5	-0.0046940916
175	0x38a4fe1a	7.8674595e-05
176	0x3b0df2bd	0.0021659576
177	0x3c3ee305	0.011650805
178	0xbbc76d14	-0.006086001
179	0x3b1e2850	0.0024132915
180	0x3e10f0df	0.14154385
181	0x3c736df0	0.014857754
182	0xbad1245b	-0.0015956269
183	0xbb138d55	-0.002251466
184	0xbd271d0c	-0.040799186
185	0x3b2117cd	0.0024580837
186	0xbea61bd2	-0.324431
187	0xbc108d42	-0.008822741
188	0xbda061a9	-0.07831127
189	0xbe1ccd78	-0.15312755
190	0x3bcf7f8f	0.006332345
191	0x3a2ae266	0.00065187213
192	0x3bf9925e	0.0076163253
193	0x3b8a9a88	0.0042298473
194	0x3a5937fa	0.0008286234
195	0xba4eb8fd	-0.0007885842
196	0x3ba1363d	0.004919796
197	0xbad6fbb3	-0.0016401917
198	0x3b80be30	0.003928922
199	0xbc19cbf2	-0.009387003
200	0xbc554ce4	-0.01301882
201	0xb9b7d908	-0.0003506618
202	0xbc54d469	-0.012990096
203	0x3c06a5df	0.008218258
204	0x3bb2c1bf	0.0054552252
205	0x3bb52932	0.0055285925
206	0xbbfc353e	-0.0076967767
207	0xbb5504ca	-0.0032504075
208	0x3be1b4d5	0.006888012
209	0xbc571a44	-0.013128821
210	0x3bc070ea	0.0058728354
211	0x3adc3f28	0.001680349
212	0x3a9dfe13	0.001205387
213	0x39bda6a7	0.00036173055
214	0xbbe14ad7	-0.0068753767
215	0xbc206345	-0.009789293
216	0x3c13e65b	0.009027089
217	0x3b587ef8	0.0033034664
218	0xbbd30b21	-0.0064405357
219	0xbc19d2ab	-0.009388606
220	0xbaf72c50	-0.0018857811
221	0xbbd04931	-0.0063563813
222	0x3ba70d6f	0.005098037
223	0x3c3d20f3	0.0115435
224	0x3c2115b9	0.009831839
225	0xba5a4a52	-0.00083271146
226	0xbb64a7de	-0.0034890096
227	0xbbe5b7fb	-0.0070104576
228	0x3b9bd4b8	0.0047555827
229	0xbc9b1da8	-0.01893504
230	0xbb97adfb	-0.0046288944
231	0x3be0645c	0.0068479013
232	0x3c797f94	0.015228171
233	0x3c0fccef	0.008776887
234	0xba870ea1	-0.0010304042
235	0xbbd29465	-0.0064263814
236	0xbba50513	-0.0050360053
237	0xbbba0842	-0.005677254
238	0xbba25aec	-0.0049546864
239	0xbc364b55	-0.011126359
240	0x3abd2541	0.0014430658
241	0xbbe2f221	-0.0069258367
242	0x3c158350	0.009125546
243	0x3cbb9517	0.02289824
244	0x3c97bbd0	0.018522173
245	0x3ba8f6ab	0.0051563582
246	0x3bca104c	0.0061664935
247	0xbc4806aa	-0.01220862
248	0x3c9ac128	0.018890932
249	0x3b9fa681	0.0048721437
250	0xbc842076	-0.01612876
251	0x3a870601	0.0010301472
252	0xbb37f54a	-0.0028069788
253	0xbc0f5d6c	-0.008750301
254	0xbb7335a4	-0.003711083
255	0x3b2ec2a4	0.0026666308

reg.bias f4 [2]
0	0x3eeb221f	0.4592447
1	0x3ef9c1dc	0.48780715
