server/model2/value_model_minmax_noexplore10.pt (torch, 255491 bytes, 12 tensors)

conv.0.weight f4 [4, 1, 3, 3]
000000 e1 60 4d bd 56 02 6e 3d b8 0d 9c 3e 8e f8 18 3e
       -0.05014122 0.058107696 0.30479217 0.14938566
000010 62 3a 4a 3e 22 d5 25 3e c3 a8 43 3e 46 ca 03 bf
       0.19748834 0.16194585 0.19107346 -0.5148052
000020 0b 84 d4 bd 1d 5b c3 bd c9 33 d3 bd cd 34 7c bd
       -0.10376748 -0.09538863 -0.103126116 -0.061573792
000030 99 65 97 3e ef ab 8f 3e ce ad 88 be 23 22 f3 3d
       0.295697 0.28060862 -0.26695102 0.118717454
000040 32 db 11 bf 8e b9 e3 3c 48 ef c5 bd 39 5b 7a 3d
       -0.5697509 0.02779844 -0.0966478 0.061122153
000050 30 9e ed be 1c 95 22 be 33 45 e5 3e 51 99 2a 3f
       -0.4640975 -0.15877193 0.44779357 0.6664019
000060 6d 9b 87 bc 41 0b b4 be dd c7 f8 bd c1 06 4c 3e
       -0.016553605 -0.35164836 -0.12147496 0.19924451
000070 66 0c 47 bf 12 cd 99 3d ea 5e b2 3d a8 1b 13 bd
       -0.77753294 0.07509817 0.0870951 -0.035915047
000080 b4 cf c8 3e 44 01 b2 bd d1 87 9e be 33 38 7b be
       0.39220965 -0.08691648 -0.30962995 -0.24533157

conv.0.bias f4 [4]
000000 ea 44 bc 3e e4 ad 06 bd dc 4e 52 bd 3d b9 7a 3e
       0.36771327 -0.03288068 -0.051344737 0.24484725

conv.2.weight f4 [4, 4, 3, 3]
000000 cf 06 86 be 47 a3 d2 3e 46 a3 2d bd 38 92 cf 3e
       -0.2617707 0.41140196 -0.042392038 0.40541244
000010 cc 66 47 3c 41 09 8f 3d 81 11 b4 3d ac cc 14 3e
       0.012170505 0.06984187 0.08792401 0.14531201
000020 e6 97 b1 bb 8e 79 b8 bd 64 b0 ce bd 55 ea ab 3e
       -0.005419719 -0.0900756 -0.100922376 0.3357722
000030 06 8e f6 3e 91 32 41 bf df ca 72 3d 9f e3 f0 bd
       0.4815523 -0.75467783 0.059275504 -0.11762165
000040 87 6e 01 3d 73 63 28 be bd d5 34 3e c7 e0 f5 3d
       0.031599548 -0.16444187 0.1765966 0.120057635
000050 9e a8 99 3d 58 4f 31 3e a4 be 23 be 98 2b da bd
       0.07502864 0.17315423 -0.15990692 -0.10652846
000060 cf ab b1 3d ee 47 96 be 19 83 00 bd 79 7f 6a bb
       0.08675348 -0.29351753 -0.031375024 -0.0035781546
000070 c8 2a b7 3e 51 25 5e 3e d0 e5 9c 3c 61 b5 0c be
       0.35774827 0.21693923 0.019152552 -0.13741066
000080 5c 85 e1 3e b0 d4 e5 3d 80 2b e9 3e 3f 0a 41 bd
       0.44047058 0.112222075 0.45541 -0.047128912
000090 5b a0 36 3e 8b bf 20 3e e8 77 a3 be cd 37 48 3e
       0.17834608 0.15698068 -0.3192742 0.19552536
0000a0 9e fe 05 be 96 d4 a2 bd 7e 47 9e 3e c6 9b d5 3e
       -0.1308541 -0.07950704 0.3091392 0.41720408
0000b0 6c 07 09 bd 6e e2 d6 bd 8d 17 2f 3e 6a 74 28 bf
       -0.033454344 -0.10492407 0.17098828 -0.65802634
0000c0 9a 06 5e 3d 8b a7 27 bd 76 9b bf 3e 57 9e 78 be
       0.054205514 -0.040931266 0.37423295 -0.24279152
0000d0 c8 0a ac bd dc bf 85 be 51 ba f6 3d f8 12 c7 bd
       -0.08400494 -0.2612294 0.12047256 -0.09720415
0000e0 3b a3 17 3e 0a ea 91 3c 54 f9 d6 be 84 a0 c8 bf
       0.14808361 0.017811794 -0.41987097 -1.5673985
0000f0 94 f6 98 bd 00 88 8c be 86 dd 3c 3e c8 43 75 3e
       -0.07468906 -0.2744751 0.1844388 0.23951638
000100 f8 04 c3 bd 8e 23 72 3d 41 13 9e ba e8 94 97 3e
       -0.09522432 0.05911594 -0.0012060181 0.29605794
000110 da 4b 57 bf c0 56 2d 3e fd 02 25 3f 56 1b 21 bf
       -0.84100115 0.16927624 0.64457685 -0.62932336
000120 5e 8a a2 bc 2c 0c 21 be 8f ed 02 3e 91 27 a8 3d
       -0.01984137 -0.157273 0.12785934 0.08210672
000130 a9 a7 55 3e d4 e6 e1 bd 88 21 cc 3e a8 a1 e6 3d
       0.20864739 -0.11030355 0.39869332 0.11261302
000140 5d 59 9b 3e 17 94 47 3e 1f 4a 33 bd 28 d1 d8 be
       0.30341616 0.19490086 -0.04377186 -0.42347074
000150 87 de 53 3d da 8b 15 3d bd e5 23 bf e7 c1 40 be
       0.05172589 0.036510326 -0.6402243 -0.18823968
000160 2a 5f 8e be e9 b8 1a be f8 ee 82 3d 36 18 d4 3d
       -0.2780698 -0.151096 0.06393236 0.1035618
000170 38 51 65 bf f5 cd a1 3d 9d a4 38 be 9a 9f c1 3d
       -0.89577055 0.07900611 -0.18031545 0.0945427
000180 4f d4 46 bd b0 d8 8c be 12 05 e8 bd 0d 10 71 3d
       -0.048542317 -0.2750907 -0.11329092 0.058853198
000190 29 94 91 3d 32 13 ed be a4 61 2e 3e a6 49 99 3d
       0.071083374 -0.46303707 0.17029434 0.074847504
0001a0 8c e6 db 3e fc 07 da 3d 8f 72 c6 3d 5f a5 13 3d
       0.4294933 0.10646054 0.09689819 0.036046382
0001b0 27 a7 3c 3d 4e 37 51 3f 71 c0 b2 bc 20 a0 6c 3e
       0.046057846 0.81725013 -0.021820279 0.23107958
0001c0 52 7b 3f 3d 84 13 8a 3e 7d 7f 06 3e 2e 10 b1 3e
       0.046748467 0.26968014 0.1313457 0.34582657
0001d0 2a ac 3a 3e 29 00 69 3d 0e 05 b1 3d ca 55 ae 3e
       0.18229738 0.05688492 0.08643542 0.34049827
0001e0 c5 1f a4 3e d2 e4 7b 3d 29 03 08 be a6 5a 3e 3e
       0.32055488 0.061497517 -0.13282456 0.18589267
0001f0 e8 61 46 be 6b 19 ed 3b f5 03 b9 3c d3 da b7 3e
       -0.19373286 0.007235696 0.022584895 0.35909137
000200 61 4b 1f bf c0 7c 3f 3e 52 4d 6e 3e 8c 70 26 be
       -0.62224394 0.18699932 0.23271683 -0.1625387
000210 1a 53 a2 3e 94 71 89 bd 67 d6 8c bc 4c b4 6f 3e
       0.31704026 -0.067111164 -0.017192079 0.23408622
000220 33 94 7f 3d 5b 15 b5 3e 6f 8b 70 3e 47 5e f3 3c
       0.062397193 0.35367855 0.2349069 0.02970804
000230 fe 1b 01 3f b5 88 11 3e 5e 75 5c 3e 8c 0e 4d 3e
       0.5043334 0.14212306 0.21529147 0.2002508

conv.2.bias f4 [4]
000000 98 77 f6 3d 4f d3 ac 3b 00 db 0b bd 10 e0 98 bc
       0.120345294 0.0052742134 -0.0341444 -0.018661529

conv.5.weight f4 [64, 36]
000000 80 b0 89 bb 20 a6 f6 3c 72 53 05 bd 42 63 0f be
       -0.0042019486 0.030108511 -0.032550283 -0.14002708
000010 0e 54 2f bd a5 7f 73 bd a7 b2 ce 3d b9 f4 6a bd
       -0.04280477 -0.059447903 0.10092669 -0.057362292
000020 94 7d 81 bd 41 77 18 bc 01 75 e9 bd 64 77 28 bd
       -0.0632278 -0.009305776 -0.1139927 -0.041129485
000030 48 29 ff 3d 95 e7 08 be 36 19 f5 bb 80 c7 26 be
       0.12459046 -0.13369592 -0.007479812 -0.1628704
000040 0c 36 a4 bc fc 57 3f 3d 6d 98 8e bd b4 8b e3 bc
       -0.020045303 0.046714768 -0.06962667 -0.027776577
000050 8e a2 e5 3c 1a 70 c3 bd b8 ac c4 3d a6 e5 59 bd
       0.028031614 -0.09542866 0.09603256 -0.053197525
000060 b2 f9 de 3d b5 a6 26 bc fc 3b 6b bd 02 ab 08 be
       0.10887469 -0.010171582 -0.057430252 -0.13346484
000070 ec 56 df 3b 16 54 90 bc 6e 0a 41 bd 3f 7a a5 3d
       0.006815782 -0.01761822 -0.047129087 0.08079957
000080 ef c6 aa bc b2 67 78 bd 01 9a 3c 3b 2c 4b 52 3d
       -0.020846812 -0.060645767 0.0028778317 0.05134122
000090 dc f0 91 bd 4a 48 2a be f8 1d 26 be 60 b2 19 3d
       -0.071260184 -0.16629139 -0.1622237 0.037523627
0000a0 3f 55 3a 3e 71 99 be 3e 3c 95 15 be 3d ad 41 be
       0.18196581 0.37226442 -0.1460771 -0.18913741
0000b0 b1 9a 1e 3e ca a4 32 bd bc 69 c5 be 2d e3 94 be
       0.15488698 -0.043614186 -0.3855723 -0.2907957
0000c0 bd d0 93 3d 08 f2 cc 3d 14 48 0a bd 15 e4 64 bc
       0.07217548 0.10007101 -0.033760145 -0.013970395
0000d0 d5 fd 23 bd 8c 32 81 bf 8f 21 a7 be a6 f7 1c 3b
       -0.040036995 -1.0093551 -0.3264279 0.002395132
0000e0 b1 45 cb 3d 72 3d c5 3d 79 3a 28 3c bc 89 08 3e
       0.09925402 0.096308604 0.010267847 0.13333791
0000f0 e1 0e d8 3d 1e 46 0e 3e 6a 54 28 bf 5d 08 a1 be
       0.10549713 0.13893935 -0.65753806 -0.31451693
000100 89 76 e9 3d 81 f6 7f bd b1 96 88 3e 9f 0e c6 3c
       0.11399562 -0.062490944 0.26677468 0.024176894
000110 18 a2 02 bf 8f e1 c6 bd 4b d2 96 3c 43 32 39 bf
       -0.51028585 -0.09710991 0.018410822 -0.7234232
000120 46 e4 05 bf 4d 41 00 3e f4 3e 1b 3f dd 6a 45 bd
       -0.5230144 0.1252491 0.60642934 -0.048197616
000130 79 fc df bc be ab 22 3b d2 c9 73 3d d9 a4 eb 3d
       -0.027342068 0.0024821605 0.059518643 0.115060516
000140 ae 14 73 3e 0c 92 1a bf c5 41 d1 be a6 bd 96 3e
       0.23738357 -0.603791 -0.4087049 0.29441565
000150 36 0a 2f bd 52 01 e5 3e 52 22 22 3f 63 1e 1a 3f
       -0.042734347 0.4472757 0.6333362 0.60202616
000160 8c 36 92 3e 37 6d 60 3d 7c 8d 18 bf 8c ac f5 bd
       0.2855724 0.054791655 -0.5959089 -0.11995801
000170 e6 80 59 bf a3 d4 1e 3f a6 80 94 3e ed 15 17 3f
       -0.8496231 0.6204321 0.290044 0.5901783
000180 70 99 73 3f 9f b8 ce bd 3a 7f 90 bc 0d 94 9b 3f
       0.95156 -0.100938074 -0.017638791 1.2154557
000190 ea 26 6f 3e d6 42 27 3e 01 71 10 3f 53 bf 32 bf
       0.23354688 0.1633409 0.5642243 -0.6982319
0001a0 b3 ca 21 bf d2 04 36 3d e5 2c 1e bf 09 31 db bd
       -0.6319992 0.04443819 -0.61787254 -0.10702712
0001b0 91 3b a0 3e 6c 7d 1d 3e 96 55 10 bf ba ed 3d 3e
       0.31295446 0.15379876 -0.56380594 0.18547717
0001c0 4c d5 a6 3c 1b de 1f 3d 5a 58 90 3c c4 19 52 bd
       0.02036538 0.039030176 0.017620254 -0.051294103
0001d0 c4 ca 0b 3e 14 12 e0 bb cc 5e 37 3e d9 5a f6 3e
       0.13651568 -0.0068380926 0.17907256 0.48116186
0001e0 91 af fe 3b 64 67 1f 3e 79 c0 26 c0 29 9b 42 3e
       0.007772394 0.15566784 -2.6054976 0.19004501
0001f0 5b 8e 8d 3d 98 de 0a 3f 27 60 8a 3d e1 67 2e be
       0.06911918 0.542459 0.06756621 -0.17031814
000200 76 a5 8a 3e 38 2e 34 be 15 38 66 bd 01 dc e6 bf
       0.27079362 -0.17595756 -0.056205828 -1.803589
000210 3f b0 28 3c 26 a2 ec 3d d1 76 06 40 30 eb 03 be
       0.010295927 0.11554365 2.101002 -0.12882686
000220 6f 41 fb 3b fc 3c e1 bd b2 a2 1f 3e e6 4b 8a 3c
       0.0076677124 -0.1099796 0.15589407 0.016881894
000230 0e 0a 8d bc 63 c1 5f 3b b4 8f 7e 3d 06 13 36 3e
       -0.017216709 0.0034142367 0.062148765 0.17780694
000240 83 e9 a2 3d f4 86 cb 3e 3c 12 be 3d db 2e d5 bd
       0.07954695 0.397514 0.09280822 -0.104093276
000250 bf c0 6b 3e 11 fa ed 3e a4 b8 24 bf 47 28 87 be
       0.23022746 0.46479848 -0.6434424 -0.26397917
000260 b7 e6 f8 3e 4a 5b ea be ee 73 49 3d ec 07 0a 3e
       0.4861352 -0.45772773 0.049182825 0.13479584
000270 1d 2d 36 3e d8 9b fb 3a 38 2d cd be fe 01 0c 3f
       0.17790647 0.0019196225 -0.40073562 0.5469054
000280 d2 8d da 3e 0a 0c 88 be a3 d3 1c be 7a c3 68 3b
       0.42686325 -0.26571685 -0.15315108 0.0035516904
000290 82 b1 03 3f 65 ed 28 be ec 5e 54 3e 34 9d d3 bb
       0.5144273 -0.16496809 0.20739335 -0.006457949
0002a0 90 52 a6 3e a1 9a 2b 3f 82 08 4f be 50 7e 3f 3e
       0.32484865 0.6703282 -0.20218089 0.18700528
0002b0 6a 91 15 3f 48 08 0c 3f ce 5c 7a 3e a4 76 2e be
       0.5842501 0.54700136 0.24449465 -0.17037445
0002c0 34 4f 5c bf 2e dd 01 3e b7 49 eb bd 25 84 2e bf
       -0.86058354 0.1268203 -0.11488669 -0.68170387
0002d0 cf 4d 9f 3e 08 f1 05 3e 41 80 4b 3e d1 66 88 be
       0.3111405 0.13080227 0.19873144 -0.26640943
0002e0 5a 04 e5 3e ea 40 1e 3c 36 c0 a9 be 3c 58 5e be
       0.44729882 0.009659031 -0.33154458 -0.21713346
0002f0 ca 72 13 3f f7 bb 02 bc d7 a9 d0 be 40 34 84 bf
       0.5759703 -0.007979385 -0.40754578 -1.0328445
000300 96 c8 5c 3d 14 0e 43 be d5 fe c4 be a7 91 a7 be
       0.05390223 -0.19048339 -0.3847567 -0.3272831
000310 7f 76 bc be 2f 1f aa be a2 04 0c bd 65 1f 04 3e
       -0.36809155 -0.33226916 -0.034184106 0.12902601
000320 eb 70 28 3f 3d 23 84 3d 7c dd bb 3d f0 d2 29 3e
       0.657973 0.06452034 0.09173104 0.16584373
000330 c6 5a 89 3e fe 62 8d be 39 9a 71 3e b0 07 e7 bd
       0.26827067 -0.27614588 0.23593988 -0.11280763
000340 42 9b 08 3e 68 5e e2 3e 58 d6 8e bc c0 0e bb 3c
       0.13340476 0.4421265 -0.017436191 0.022834182
000350 95 74 d1 be f9 44 e8 bd 34 dd 76 3c 52 80 74 3e
       -0.40909258 -0.113412805 0.015067387 0.23877075
000360 d7 75 d6 bc 02 64 08 3e 7a 9a 7c 3b 09 20 f0 3c
       -0.026179237 0.133194 0.0038544224 0.02931215
000370 75 b5 63 3e 47 99 7b 3e 9e 60 8a 3d d4 19 d5 3d
       0.22237189 0.2457019 0.067567095 0.10405317
000380 5f 09 1c 3e ef 07 1b 3e c7 78 2e be d1 fe 72 3d
       0.1523795 0.15139745 -0.1703826 0.059325043
000390 27 bd c3 3d 93 41 56 bd c0 7a 21 3f c2 36 3b bd
       0.09557562 -0.05230863 0.63077927 -0.045706518
0003a0 84 61 06 3e cb b0 4b 3d 72 ec 93 3e da c5 af 3e
       0.13123137 0.04972915 0.2889133 0.34330636
0003b0 e7 e9 75 bc 85 0a 86 3e 58 d9 d0 bc de 13 06 3f
       -0.01500938 0.261799 -0.025494263 0.52374065
0003c0 2a 61 a5 3c f8 3b 4c 3e 2b 4f da be 31 2c 87 3e
       0.020187933 0.19944751 -0.42638525 0.26400903
0003d0 56 54 87 bd d6 0a fc 3c bb bd bf 3d a8 e3 81 3d
       -0.06607883 0.030766886 0.0936236 0.0634225
0003e0 20 eb c1 3e 52 e1 85 3c f2 3a 54 3e 00 12 26 3e
       0.378747 0.016342793 0.20725611 0.16217804
0003f0 68 85 bc 3e 27 77 1b 3e be 28 23 be cc 88 29 bc
       0.3682053 0.15182172 -0.1593351 -0.010347556

conv.5.bias f4 [64]
000000 52 f8 b9 bd 91 76 8f be ae d8 38 bf 69 56 28 be
       -0.090805665 -0.28020146 -0.72205627 -0.16439213
000010 67 48 9d bd a1 62 8b be 00 00 e3 3e 19 55 9d 3d
       -0.07679825 -0.27223685 0.44335938 0.07682247
000020 e9 97 04 bf 89 19 36 be 4e bc 18 bf 8a 8f 54 c0
       -0.51794297 -0.17783178 -0.5966233 -3.321261
000030 2a 38 02 bf 5f 1f 36 bf 03 ac 9e 3d 87 ae 0c bf
       -0.5086695 -0.7114162 0.077476524 -0.5495381
000040 78 6b 50 bd 9e e7 34 bf 40 51 34 bf 2e f3 89 bd
       -0.05088374 -0.7066592 -0.7043648 -0.06735836
000050 26 16 4f c0 bc a7 f0 be d4 b5 e3 be ea 97 fd be
       -3.2357268 -0.4700297 -0.4447466 -0.49529964
000060 1b 5b 3f bf 91 14 33 bf f1 c6 05 bf 2d 32 3d c0
       -0.7474839 -0.69953257 -0.52256685 -2.9561875
000070 07 65 c8 be d5 f7 20 be f7 1a 64 3f 18 75 24 bf
       -0.39139578 -0.1571954 0.89103645 -0.6424117
000080 dd fc 18 bf dd 1b e1 bd 8b 40 0f bf ab 62 f6 bd
       -0.5976084 -0.109916426 -0.5595786 -0.12030538
000090 80 d7 de bf 79 7b 48 c0 75 78 06 3f 95 fc c9 bd
       -1.7409515 -3.1325362 0.5252755 -0.09862629
0000a0 a4 5e b3 bd b2 ed e3 bd d3 66 a3 bd c9 f3 f7 be
       -0.08758286 -0.11129321 -0.079785965 -0.4842818
0000b0 7d f6 54 3e 7b 9f 23 bf 0f 3c 3f bf 7a 04 8e 3e
       0.20797153 -0.6391522 -0.7470102 0.2773779
0000c0 0e 8f ff be 00 ef 39 bf 6f 43 8c be e0 9b ce be
       -0.4991383 -0.7263031 -0.27395198 -0.40353298
0000d0 b7 13 f3 be 77 68 9c be 07 47 09 be dc 2f 10 bf
       -0.4747598 -0.3054845 -0.13406001 -0.5632303
0000e0 7b 0b 5d be e5 f8 e6 bd 84 d4 3c bf 2a 35 a3 be
       -0.2158641 -0.112779416 -0.73761773 -0.31876498
0000f0 53 4b 23 bf 2f e9 0c bf de 75 30 bf 6e 10 23 be
       -0.6378681 -0.5504331 -0.6892985 -0.15924236

linear.1.weight f4 [256, 169]
000000 00 47 c1 3b 3a e0 20 3d 0a 75 72 3d 1e be 5d 3d
       0.0058983564 0.03927634 0.05919365 0.054136388
000010 a8 26 d1 bc b6 2c b5 bc 74 0c 01 3d 34 d2 1d 3d
       -0.025531128 -0.022116046 0.031506017 0.038530543
000020 c6 57 56 3d 22 31 4b 3d b8 7c 78 3c 70 6a 39 bc
       0.0523298 0.049607404 0.015166454 -0.011316881
000030 f0 d2 03 3d b6 df 46 3d 40 e9 09 bb f8 51 6f bc
       0.032183588 0.04855319 -0.002104357 -0.014606945
000040 90 95 ce 3b 54 ef 34 bd c0 52 9a bd 40 b7 aa bc
       0.0063044503 -0.044173554 -0.075353146 -0.020839334
000050 dd 5c 97 3d 2b bb ab be 0e 91 9a 3d f0 5f 4e 3c
       0.07390759 -0.33541235 0.07547198 0.0125961155
000060 94 71 82 bd 78 bb 86 bd ec 2a 8b bc 18 fd 1c 3d
       -0.063693196 -0.065787256 -0.01698824 0.038327307
000070 40 40 d0 3c 40 1e 32 bb c4 f8 f3 3c 80 2c 2b ba
       0.025421262 -0.0027178675 0.029781707 -0.00065297633
000080 2a 2a 36 bd be 37 8b 3e 64 ec 4a be 4d 5c b3 be
       -0.044473805 0.27190965 -0.19816738 -0.35031357
000090 64 ab a0 3c 10 bd ab 3c d4 71 2e bd 2e b0 7e 3d
       0.019612975 0.020964175 -0.042589024 0.062179737
0000a0 9c cb 32 3d dc 49 64 bd 15 4d be 3d 72 9e cf 3e
       0.04365121 -0.0557345 0.09292046 0.40550572
0000b0 86 59 0e 3f 45 9b c9 3e 72 7a 76 3e dd 92 16 bf
       0.5560535 0.39376274 0.24070147 -0.58817846
0000c0 5b 62 c8 3e 6d a3 15 bf 3f 91 b5 3d 8b fe f9 3d
       0.3913754 -0.5845249 0.08865594 0.12206753
0000d0 3e 54 25 3d 92 19 4d 3d d8 b2 04 bc a9 ec c1 3e
       0.040363543 0.050073214 -0.00809928 0.3787587
0000e0 8e 07 c5 be 7e 49 27 3f b1 04 d3 bc 10 db 2c 3e
       -0.38482326 0.65346515 -0.025759073 0.1688044
0000f0 e9 ba 4f 3e 58 55 11 bf bf 3d 28 be 2f fc d3 3d
       0.20286144 -0.5677085 -0.16429804 0.103508346
000100 d2 d9 53 bd a2 32 d3 bc 96 b6 41 bd 25 f9 1d bd
       -0.0517214 -0.02578098 -0.04729327 -0.03856768
000110 70 a1 90 be 19 77 f5 bd a5 56 14 3f 75 e8 01 3f
       -0.28248167 -0.11985607 0.5794471 0.50745326
000120 9f 5d 4b 3f 0a 67 74 3d 44 da 6d 3f 2f 0e 5c bd
       0.7943973 0.05966858 0.9291117 -0.053724464
000130 8a 1f 58 bd 80 c3 01 3d 64 66 ed 3c 60 d0 12 bd
       -0.052764453 0.031680584 0.028979488 -0.035843253
000140 40 fe e8 3c 90 f4 be 3e 3b 54 9c 3e 84 74 26 be
       0.028441548 0.3729596 0.30533013 -0.16255385
000150 ac fa 5b be 1f db 87 3d d6 bc 18 bf 96 6c 13 3f
       -0.21482342 0.06633591 -0.5966314 0.57587564
000160 46 56 21 3d 2e dd 4f 3d 54 a2 08 bd 85 98 11 bd
       0.039388917 0.050748043 -0.033357933 -0.035545845
000170 7a a6 99 bd d9 d9 80 be 5f f5 d6 bd b1 e1 28 be
       -0.07502456 -0.25166205 -0.104960196 -0.16492344
000180 82 c0 b6 3e 45 4e 38 3d cb bb cd 3e 08 17 23 3e
       0.35693747 0.04499652 0.40182337 0.15926754
000190 fa 72 94 be 0e 6b 5d 3d 40 ab 72 bd 50 d6 8e bc
       -0.2899397 0.054057173 -0.059245348 -0.017436177
0001a0 08 7e 3f bc 7d c1 e9 3c dc 09 5a 3c cf f8 31 be
       -0.011687763 0.028534645 0.013308015 -0.17380069
0001b0 4f 6f 3b be c3 d4 0b be 21 e7 2d be 78 e8 0b 3e
       -0.1830418 -0.13655381 -0.169827 0.13662899
0001c0 ac 7a c5 3e f0 7b 48 bd 30 e7 d8 3c bc 3a 3f 3d
       0.38570154 -0.04894632 0.026477426 0.046686873
0001d0 24 46 de bc 86 14 20 3c ce a4 7d be 86 2d e7 bd
       -0.027133055 0.009770518 -0.24769899 -0.1128798
0001e0 74 37 82 3d 1a a2 05 3e 0f cb 5c 3e 84 46 91 bd
       0.06358233 0.13050118 0.21561836 -0.07093528
0001f0 26 f0 9c 3e 40 d2 f2 3d fe ac 3d 3d d6 52 6b 3d
       0.3065197 0.11856508 0.046307556 0.057452045
000200 88 32 02 bd e1 80 8b 3d 6e cf 4c 3d 76 7b de bc
       -0.03178647 0.06811691 0.050002508 -0.02715848
000210 e7 2a 82 3d 49 c0 09 3e 9c 2d 5a 3a 34 89 57 be
       0.06355839 0.13452257 0.00083228364 -0.21048433
000220 4a 28 18 bd 72 41 4d 3d 18 3d 2d 3c 80 92 38 bc
       -0.037147798 0.05011124 0.010573648 -0.011265397
000230 bb 6d 00 bd 02 78 78 3d f7 7d 8d 3d 6a 5a 2d bd
       -0.031354647 0.060661323 0.069087915 -0.042322554
000240 28 ff 1c 3d 2a 5b 3c 3d be 71 09 be 96 4f aa bc
       0.038329273 0.04598538 -0.13422295 -0.020789903
000250 ec f6 e5 3c 40 11 8b 3b a0 12 2b 3c 78 2c 1f bc
       0.028071843 0.0042439997 0.010441452 -0.009715192
000260 54 71 f4 3c e6 63 79 3d 36 95 49 3d 8a 91 03 3d
       0.029839195 0.060886286 0.049214564 0.03212122
000270 74 97 79 bd f8 9b 90 3c 46 68 3c bd 88 41 2b 3c
       -0.060935453 0.017652497 -0.04599788 0.010452636
000280 bc 3f 01 3d 50 82 eb bb 9f 01 92 bd 76 9f 6a 3d
       0.031554922 -0.0071871653 -0.071292154 0.05728098
000290 99 64 49 bd e8 27 b4 3c 0a 4d 4b 3d e4 7e 95 3c
       -0.049168203 0.021991685 0.049634017 0.018248983
0002a0 70 d6 1d 3d be c3 6d 3d 0f 80 8e bd d6 61 8a bd
       0.03853458 0.058048002 -0.06958019 -0.06756942
0002b0 38 08 38 3c 28 ba e9 3c 5d 06 8e bd d8 84 5a 3c
       0.011232428 0.028531149 -0.069348074 0.0133373365
0002c0 7b 94 16 bd 95 0b 8b bd 14 c0 4c bd e8 1c 3c 3d
       -0.036762696 -0.067893185 -0.049987867 0.045926005
0002d0 60 5f 17 bb 06 21 54 bd d4 1d b6 bc 50 a8 22 bc
       -0.002309762 -0.051789306 -0.02223102 -0.009927824
0002e0 14 74 a0 bc be d6 22 3d 32 3c 8e bc 96 56 5b bd
       -0.0195866 0.039755575 -0.017362688 -0.05354937
0002f0 e6 d1 3d bd bb 58 80 3d 6a 72 0f 3e fa 38 41 be
       -0.046342753 0.06266924 0.14008489 -0.18869391
000300 59 12 08 bd ac ed 9a 3c e6 6e 7b bd 19 93 75 bd
       -0.033220623 0.018912159 -0.061385058 -0.059954736
000310 7a 28 6b 3d 80 b2 7e 3a 6c 7f c0 bc 40 0b db 3c
       0.05741165 0.00097159296 -0.02349826 0.026738763
000320 1b 86 1f bd 90 62 ee bb 78 cd f5 be f6 4d 8b 3d
       -0.038946252 -0.007274933 -0.48008323 0.06801979
000330 ad 69 c7 3d 2c 26 93 3c 40 29 da 3c 80 49 4f 3b
       0.09736953 0.017962538 0.026630998 0.0031629503
000340 a0 25 8d 3b 20 5c 0f 3d e8 94 8c bc 33 52 00 be
       0.0043074638 0.034999967 -0.017160848 -0.12531357
000350 2b 6c cb 3e 53 95 8b 3e 0b d7 2a 3e d4 6a 84 be
       0.39730963 0.27262363 0.16683595 -0.25862753
000360 83 0d 11 3f 0e a9 04 3e 39 87 76 3e e0 47 0a 3e
       0.5666124 0.12955114 0.24075021 0.1350398
000370 82 c6 ef bc b2 01 36 bd 3c b1 df bc cd f4 78 bd
       -0.02926946 -0.04443521 -0.027306192 -0.060780335
000380 86 4b 0c be 57 8d 6a be ec ea fd 3e 3c 49 14 bf
       -0.13700685 -0.2290548 0.49593294 -0.57924247
000390 77 6c d8 3e b0 07 a7 be 51 df a3 3e 7b 1d 57 3e
       0.42270252 -0.32623053 0.32006314 0.2100734
0003a0 20 b9 6a bc 1e 2a 2a bd d6 58 5c 3d 8a c4 f2 bc
       -0.014326364 -0.041544072 0.053795658 -0.029634733
0003b0 b9 55 46 bd f9 df 8b 3e e1 08 96 3e ee b5 9b be
       -0.048421595 0.27319315 0.2930365 -0.3041224
0003c0 5f dc b8 3e c2 07 73 be 51 2a 7f be d5 cc 41 be
       0.3610563 -0.23733428 -0.24918486 -0.18925793
0003d0 b5 f8 a8 3e 3b ad 27 bd 9b 37 8a 3d 9e 96 b1 bc
       0.33002248 -0.04093669 0.06748887 -0.021678265
0003e0 3e f7 21 3d 76 c3 47 3d 50 39 98 3e a4 21 da be
       0.03954243 0.04877039 0.29731226 -0.4260379
0003f0 a1 2c bb bd 3f ac 10 3e 67 06 38 be 9d 4e 23 bc
       -0.09139372 0.14128207 -0.17971192 -0.009967473

linear.1.bias f4 [256]
000000 29 a6 c7 bd 8f e3 5c bd 2b e7 8f 3c f9 91 75 3e
       -0.097484894 -0.053927954 0.017566284 0.23981465
000010 e6 23 9f 3d b0 de bd bd ff 2b 9e 3e 51 34 07 be
       0.07770519 -0.0927099 0.3089294 -0.13203551
000020 00 2b 0e bd 0a 4f bd bd 51 98 d5 bb 88 2d 23 3e
       -0.034708977 -0.09243591 -0.0065184017 0.15935338
000030 98 65 eb 3d e8 31 8c bd 29 3e 7e 3c 62 14 dc bd
       0.11493987 -0.06845456 0.01551775 -0.10746075
000040 c5 2f f2 3c b2 a9 e8 bd c6 aa ea bd 15 a8 75 bd
       0.029563794 -0.11360492 -0.11458354 -0.05997475
000050 e4 4c 8d 3c b0 97 e9 be 6e c6 76 be a9 b9 7f 3d
       0.017248578 -0.4562354 -0.24099132 0.06243292
000060 04 c2 7d be af 14 83 be 69 75 91 3e b1 e7 28 3e
       -0.24781042 -0.25601718 0.2840989 0.16494633
000070 78 8e 6b be 96 61 ce bc ec bb 7e be 59 92 c6 3d
       -0.23003566 -0.025193017 -0.24876374 0.09695882
000080 7b 2b c7 be a1 af ab 3d f0 04 9f bd af 08 38 3d
       -0.3890036 0.08383108 -0.07764614 0.044930156
000090 a8 c2 24 3e c5 76 67 3d 73 0e 84 3b b9 1a 30 be
       0.1608988 0.05650975 0.004030043 -0.17197694
0000a0 20 27 5f bb 04 9c 00 be da 9d 25 be 57 c9 3d 3e
       -0.003405042 -0.12559515 -0.16173497 0.18533836
0000b0 cf 63 a9 bd b8 97 5b be 30 1d dc 3d b8 7b e7 be
       -0.0827099 -0.21444595 0.107477546 -0.45211577
0000c0 4c c0 11 3c b8 df 5d 3e c9 ac f7 3d 2f de 4d 3d
       0.008895945 0.21667373 0.12093503 0.05026072
0000d0 10 d9 2f 3b 0d 20 b2 3d 8f 0a 67 3d 45 d4 db be
       0.002683226 0.086975195 0.056406554 -0.42935386
0000e0 57 5e cf 3b 60 fb a0 3c 45 f9 18 be 49 f6 0c bd
       0.006328385 0.019651115 -0.14938839 -0.034414563
0000f0 fa f9 55 be a9 38 70 be 05 6a 01 3e 51 c2 2a 3e
       -0.2089614 -0.23459114 0.126381 0.16675688
000100 98 2c 86 be 07 92 47 bd 1a 01 0d 3d 8a 72 8c bc
       -0.26205897 -0.048723247 0.03442488 -0.01714446
000110 56 06 3c bc 8a ab 65 3e f3 a6 f3 3d 7b 15 3f be
       -0.01147612 0.22428718 0.118970774 -0.18660538
000120 43 a8 88 bd 07 65 54 be 0c ff 44 3d 2c 7d f7 bd
       -0.066727184 -0.20741664 0.048094794 -0.120844215
000130 9e 6b 76 be 22 0b e6 bc 33 dc 33 bd 3a 2f 84 3e
       -0.2406449 -0.02808148 -0.04391117 0.2581728
000140 40 13 25 3e d9 1c 33 3e ee 84 73 3d a3 8b 97 bd
       0.16120625 0.17491473 0.059452944 -0.073996805
000150 2d 47 df bd d9 2f 99 be d9 5f 16 be ea da 72 3c
       -0.109022476 -0.29919317 -0.14685 0.014822701
000160 fc 59 e5 be 6f 8d 97 bd df d9 63 be 16 21 e1 3c
       -0.44795215 -0.07400023 -0.2225108 0.027481597
000170 3c 1e 07 3e 96 6d 41 bd 2b f2 02 be ab 96 3e 3e
       0.13195127 -0.04722365 -0.12787692 0.18612163
000180 84 08 e6 3d df fe 2c 3d 34 b0 8e 3e e6 24 51 bc
       0.11232093 0.04223525 0.27868807 -0.012765145
000190 46 52 c0 bd bb 89 67 bd c4 43 bb be d6 57 00 be
       -0.093906924 -0.056527834 -0.3657514 -0.12533507
0001a0 9b d0 7d be 48 ee a4 3b 2a 9e 5a be 92 2f cc bc
       -0.24786608 0.005033288 -0.21349397 -0.024925027
0001b0 8d da 4f be 21 41 2e be ad 80 d8 be 2a 99 22 3d
       -0.20298214 -0.17017032 -0.42285672 0.03969685
0001c0 27 5d 19 be 2f 08 cb bd 59 c1 6a bd a4 61 8a 3e
       -0.14976941 -0.0991367 -0.057313297 0.2702762
0001d0 2d cc c7 bd 86 6c 03 3d 64 11 37 3e 7f 6a 0c be
       -0.0975574 0.032085918 0.17877728 -0.137125
0001e0 1c 2e b0 3d 8f 55 9a bd c5 13 0b bd 1a 28 a3 3d
       0.08602545 -0.0753585 -0.0339544 0.07966633
0001f0 93 ab 9d be fa 57 a0 be 34 7e 05 3d d7 bf 16 be
       -0.30794963 -0.3131712 0.03259106 -0.14721619
000200 6f 0c 2c bd 32 3b 27 bd 49 dc 90 3d 43 26 97 be
       -0.042004045 -0.040827937 0.07073266 -0.2952138
000210 e3 ac 17 be 9a f8 f9 bc 83 e3 44 be b9 c7 0a 3d
       -0.14812045 -0.03051405 -0.19227414 0.033881877
000220 3b 8c a3 bc 74 32 0a 3c 5f 8a b4 bc a2 da 3a 3e
       -0.019964328 0.0084348805 -0.022038637 0.18247464
000230 da f6 97 bd d2 d0 5f bd 9c e4 6a 3d 8b e2 4c be
       -0.0742013 -0.054642506 0.057346925 -0.20008294
000240 ed ad 9a 3d bf 9e 98 bd 87 3f 25 bd 37 3f c0 3d
       0.07552705 -0.074521534 -0.040343788 0.09387057
000250 93 e4 71 be 21 4c 15 bd cd 6f 6f 3e 31 6d 1c be
       -0.2362235 -0.036449555 0.23382492 -0.15276028
000260 49 87 93 be 9e 36 b2 be f8 f9 ab 3d aa 3d 9f 3d
       -0.28814152 -0.34807295 0.08397287 0.07775433
000270 70 b5 f8 bd 62 cb 03 3d 08 8b a3 3d 74 82 e3 3d
       -0.121439815 0.032176383 0.079855025 0.11108866
000280 f9 d6 0a be 61 4a ee 3c 0b 07 50 bb 4f 8a d7 be
       -0.13558568 0.029088201 -0.003174248 -0.4209771
000290 64 3d ce 3c 71 22 e7 3c 42 1c 70 3e a7 12 15 be
       0.025175758 0.028214665 0.2344828 -0.14557897
0002a0 9f d8 36 3e 08 a6 fa bd 82 04 5f 3c 93 74 d1 be
       0.17856072 -0.12238699 0.013611915 -0.40909252
0002b0 3c 58 76 3d af bc 6b 3d 43 6c 0c be 0a f5 2c be
       0.06014274 0.05755299 -0.13713174 -0.1689035
0002c0 24 92 aa bd 49 ae 26 3e a6 b6 39 3d 22 8b 59 3d
       -0.08328655 0.16277422 0.045340203 0.053111203
0002d0 96 e5 9d be 28 4f f6 bd 25 de 16 3e 35 32 95 3c
       -0.30839223 -0.120268166 0.14733179 0.018212417
0002e0 27 60 4c be 70 4c c4 be 99 fa 92 3d 6e 42 47 3d
       -0.19958554 -0.38339567 0.07176704 0.048647337
0002f0 f9 1c 96 be 94 53 5c bd 00 55 38 be 5d 94 73 be
       -0.2931898 -0.053790644 -0.18001175 -0.23787065
000300 77 94 0a 3e 22 e3 a2 bd 93 30 6c be 63 2a 81 be
       0.13533197 -0.079534784 -0.23065405 -0.2522765
000310 7d fa 8b 3d 4b 56 00 be fb 97 0e bf b1 74 91 be
       0.06834886 -0.12532918 -0.55700654 -0.2840934
000320 52 f2 13 be 35 47 93 be a2 3f 39 be 47 a1 de bd
       -0.14447907 -0.28765264 -0.1809068 -0.10870605
000330 59 21 4f be ac 24 29 be ff c2 a7 bd a0 ae 47 3e
       -0.20227565 -0.16517895 -0.081914894 0.19500208
000340 ea c8 cf be a6 60 5b 3e 8b 28 90 be a8 61 0a be
       -0.40582973 0.21423587 -0.28155932 -0.13513815
000350 92 d7 50 be b3 e0 56 3e 23 86 9d be e6 5a 94 3a
       -0.20394734 0.20984153 -0.307664 0.0011318594
000360 20 75 83 3c 89 a0 15 bd e7 14 51 be ba b4 62 3e
       0.01604706 -0.03653005 -0.2041813 0.22139254
000370 6c b9 69 3d 54 34 02 3d e9 49 f2 bd f7 15 8e be
       0.057061598 0.031788185 -0.118305035 -0.27751133
000380 5d c1 f1 bc 97 e5 75 bd 17 09 c7 bd b2 41 6b be
       -0.029511148 -0.060033407 -0.097185306 -0.2297428
000390 ff 0b 10 3d 58 9a cd 3d 74 5e 80 3e 7a c0 4e be
       0.03516769 0.10039204 0.25072062 -0.20190611
0003a0 60 da 22 3d ec f0 5c be 56 42 ee bd 9b 64 69 be
       0.03975904 -0.2157628 -0.11633746 -0.22792284
0003b0 cf a3 c5 be 89 94 96 be 19 84 93 bd 3a 6f 24 bc
       -0.3860154 -0.29410198 -0.0720293 -0.010036284
0003c0 61 1d 31 be 96 70 43 be 13 fd d9 bd 4e 45 91 3d
       -0.17296363 -0.19085917 -0.10643973 0.07093297
0003d0 71 cf 70 bd 86 b4 15 bd 8d b4 b2 3d 6b db a0 be
       -0.05879158 -0.036549114 0.087258436 -0.31417403
0003e0 64 c9 3f 3d 7e 0b ef be 54 c9 0c 3e 10 62 11 be
       0.04682292 -0.46688455 0.13748676 -0.14197564
0003f0 8c 2c 58 3e 5f 90 52 3e 78 f4 b1 3d 79 3e 4f be
       0.21110743 0.20562886 0.08689207 -0.20238675

linear.3.weight f4 [64, 256]
000000 19 34 49 be 6b a2 5a 3f 96 67 01 3f 08 55 ec bd
       -0.1964878 0.8540408 0.50548685 -0.11539656
000010 4a 25 97 be db 27 e4 be 79 f8 cd 3e b3 5f 17 be
       -0.29520637 -0.44561657 0.40228632 -0.147826
000020 af b0 16 be 7d f6 67 3f c8 1b 18 3e 75 50 7d be
       -0.14715837 0.90610486 0.14854348 -0.24737723
000030 4d 29 f4 be d5 24 0f 3e 58 41 be 3e 19 75 9f 3f
       -0.4768776 0.13978894 0.37159228 1.245761
000040 63 24 6f be 02 fa 9a 3e 8a 9e 61 3e 06 59 c8 be
       -0.23353724 0.30268866 0.22033134 -0.3913042
000050 fe b7 87 be b5 28 8a 3e bf 65 27 3f 7c c3 2a bd
       -0.26507562 0.26984182 0.6538963 -0.041690335
000060 86 e8 4d be b8 b4 99 bd 88 0f 3a be af 73 46 3f
       -0.20108232 -0.075051725 -0.18169987 0.7752027
000070 0f 69 cf be b6 68 4a 3e 6b ef 03 3f e9 57 e9 bd
       -0.4050984 0.19766507 0.515372 -0.11393721
000080 13 b7 0e 3e f3 42 8a be 06 ce d6 3e 46 72 12 bf
       0.13937025 -0.27004203 0.41954058 -0.5720562
000090 a9 0a 1e bf 97 01 88 bc f7 66 1f be 77 0d 54 3f
       -0.61735016 -0.01660232 -0.15566622 0.82833046
0000a0 45 b2 59 3e 4a ec d6 3e 92 ca be bc 16 e8 10 3d
       0.2125941 0.4197715 -0.023289952 0.035377584
0000b0 3b 51 5a 3f 37 89 13 bf 31 87 1c 3f 06 fa 33 bd
       0.852802 -0.5763125 0.61143786 -0.043939613
0000c0 74 ad 01 3d d2 c5 d4 bd d5 98 e2 be da 7a f3 3d
       0.03165956 -0.10389294 -0.44257227 0.118886665
0000d0 12 e9 dc 3d df 09 88 be 16 6f 05 bf 0a 41 4f 3b
       0.10786642 -0.2657003 -0.5212263 0.003162446
0000e0 1e 0d e5 3e 43 a6 1f be 5e 17 f6 bb 35 8d 23 3d
       0.4473657 -0.15590768 -0.00751011 0.039929587
0000f0 e4 d9 ac be 83 e7 a4 bd 91 dd 64 bf 57 8f b5 3c
       -0.33759987 -0.0805197 -0.89400584 0.022163076
000100 d3 2a f7 3e 37 4a 51 3d db 37 3a bf be a8 1c 3e
       0.4827486 0.051096167 -0.7274148 0.15298745
000110 1a b7 ff 3e 9b 9d 88 bc 4e da e4 3e a6 3b ce 3e
       0.49944383 -0.016676715 0.44697803 0.40279883
000120 00 20 28 bf 74 98 c6 3e 55 2c 18 bf 65 c5 cb be
       -0.6567383 0.38788188 -0.59442645 -0.39799038
000130 46 be de 3e 83 d8 d3 be e6 c4 89 be aa b5 2c bf
       0.43504542 -0.41376123 -0.26908034 -0.674647
000140 29 c8 86 bd 1c a0 2a bd d7 a0 0f be 29 62 d8 3d
       -0.06581146 -0.0416566 -0.140262 0.105655976
000150 a3 18 b7 be 42 51 14 3f 3b b9 1d 3f 9b 44 3d bf
       -0.35760984 0.5793649 0.61610764 -0.7393281
000160 f3 31 3f 3f 93 ab b2 3c 91 b7 c6 3d 2e 39 70 bd
       0.7468559 0.021810329 0.09702981 -0.05864828
000170 68 01 19 3f 2c 7b d4 3e 92 b5 ae bc 9b 38 81 bf
       0.5976777 0.41500223 -0.021326814 -1.00954
000180 ca 9f bd be a3 46 0d bf 39 95 a9 be 60 0a 81 3c
       -0.37035972 -0.5518591 -0.3312166 0.015752017
000190 83 42 3d be bb cb 01 be c5 05 a1 be 6c 30 0d 3f
       -0.18482403 -0.12675373 -0.31449714 0.5515201
0001a0 e0 d8 f0 3d ba 89 af be ad 74 4f 3f 74 1c 34 bf
       0.117601156 -0.34284765 0.8103741 -0.70355916
0001b0 14 16 0c bf 5e 46 00 3f bf 21 55 be 72 4d ce be
       -0.5472119 0.5010737 -0.20813654 -0.4029346
0001c0 71 e9 36 3f 62 86 ec bb 24 cd 10 3d 71 41 b4 be
       0.71449953 -0.007218168 0.035351887 -0.35206178
0001d0 56 ae 1a 3f 14 dd d9 be 59 62 22 3f c6 38 20 3d
       0.60422266 -0.42551482 0.63431317 0.039116643
0001e0 8b 95 e6 3e 1b b1 64 3e c2 cc f1 3e ed 63 3f bf
       0.45035967 0.22333185 0.4722653 -0.7476185
0001f0 42 0a df be a5 23 07 3f 09 66 0f 3f 74 cf 3c 3e
       -0.43562514 0.52788764 0.5601507 0.18438512
000200 c9 fd a7 3c a4 25 47 3d 13 dd 84 3e ae e9 99 3e
       0.020506756 0.04861988 0.25949916 0.30061096
000210 53 ee dd 3e c5 4a 70 3f 40 ad 82 be 34 8d db be
       0.4334589 0.9386409 -0.25522804 -0.42881167
000220 62 40 cb be 04 b4 fb bd 50 f3 27 3f 1b 3b 0a 3f
       -0.39697558 -0.12290195 0.6560564 0.5399644
000230 a3 82 fd 3e 99 41 67 3f 03 82 d1 be 57 dc 49 3e
       0.4951373 0.9033447 -0.40919504 0.19712959
000240 3b 8e 4f bf 38 ef a5 3e 42 91 19 3f 1b ca 74 3e
       -0.810764 0.32409072 0.5998727 0.23905222
000250 52 17 28 bf f7 9e dd be 75 16 15 be de db cd be
       -0.65660584 -0.43285343 -0.14559348 -0.40206808
000260 d0 0f 66 be 59 20 24 bf 64 11 e0 be f1 d7 95 bd
       -0.2246697 -0.6411186 -0.43763268 -0.07316578
000270 18 70 08 3f 21 28 e6 3d 80 27 8d 3e d9 14 b9 be
       0.5329604 0.11238123 0.275692 -0.36148718
000280 bf 3a 48 be 27 14 96 be d3 c0 1a bf 44 46 45 bf
       -0.1955366 -0.2931225 -0.60450476 -0.7706034
000290 fa ad a7 be 10 d4 ea 3d 10 9c 4c be 74 a3 b1 3e
       -0.3274992 0.11466229 -0.19981408 0.34695017
0002a0 b6 a8 0a 3f 4c 0b 29 3d f7 69 28 3f 35 72 31 3f
       0.5416368 0.04127054 0.6578669 0.6931489
0002b0 22 12 b4 3e 10 cb 15 3e 57 a6 cb 3e ba b8 03 3d
       0.35170084 0.14628243 0.39775345 0.03215859
0002c0 ad 73 a4 bd be 12 2c bf bc bc 5f bf 99 5a 03 bf
       -0.08029876 -0.672161 -0.8739736 -0.51310116
0002d0 fc bb 85 3d de 0b b4 3d a9 76 d3 be c9 1b 00 3f
       0.06529996 0.08791326 -0.41301468 0.50042397
0002e0 0d de 40 3f 13 8b 22 3f 83 c6 c3 3e 54 ab 41 3f
       0.7533882 0.6349346 0.3823739 0.7565205
0002f0 f3 1b bf 3e 55 72 97 ba 25 dd d4 3d 1c 2c a9 bb
       0.3732601 -0.0011554459 0.103937425 -0.005162729
000300 19 42 1b bf 74 fc 21 3f 7d 95 86 3e be e4 16 bd
       -0.6064773 0.6327584 0.26285926 -0.03683924
000310 b6 2f a2 3e ca d6 9b be a9 47 8f 3e 0a a4 92 3f
       0.31677026 -0.3043731 0.2798436 1.1456311
000320 d6 51 d3 be 0c de 18 3f 63 6a 80 3f 94 e6 00 bf
       -0.41273373 0.59713817 1.0032467 -0.50351834
000330 a8 61 f9 be 03 86 28 3f ac 63 d6 be 2d 26 00 be
       -0.48707318 0.65829486 -0.4187292 -0.12514563
000340 98 78 47 3e ce 06 8e be 3e 24 12 bd 39 4d 2f bf
       0.19479597 -0.27739567 -0.035679094 -0.6847721
000350 21 d0 13 3f f7 0c 5d 3c 84 b2 f1 bd ba 60 a7 3f
       0.57739455 0.013491861 -0.11801627 1.3076394
000360 e9 ce 52 3f ea 9f 17 be d4 95 70 3f 36 fd 31 3d
       0.8234697 -0.14807096 0.9397862 0.04345437
000370 a7 e3 43 bf 30 03 44 bf 07 0b 49 3f be 39 a8 be
       -0.76519245 -0.76567364 0.7853245 -0.32856554
000380 9b 92 ee be 46 cb 07 3b 40 8c 39 3f 89 fb 4a 3f
       -0.46596226 0.0020720526 0.7247963 0.7929006
000390 ef ff 82 3e bf 47 1e bf 98 46 8a be dc 40 ac 3e
       0.25585887 -0.61828226 -0.27006984 0.33643234
0003a0 bc e9 2c bf 89 49 33 3f f6 db 90 be 6e e1 f7 3e
       -0.6754415 0.7003408 -0.28292817 0.48414177
0003b0 9f 50 57 be 9e 27 e9 bd ee a8 84 be 99 e3 71 3e
       -0.21026848 -0.113845095 -0.25910133 0.23621978
0003c0 0d 38 36 bf 34 2d 1b 3f 0f 8a b3 3e 2f 1f 4a 3f
       -0.71179277 0.6061585 0.35066268 0.7895383
0003d0 47 5b 9a 3e 45 b5 56 3f f8 a7 95 be 4f c3 1c 3f
       0.30147764 0.83870345 -0.29229712 0.6123552
0003e0 47 ca f8 be 24 bd 24 3e 34 e9 67 3e 76 8a 3b be
       -0.48591825 0.16087776 0.22647554 -0.18314537
0003f0 b9 60 84 be bc 7c 9b be ab 14 05 bf b5 df 11 be
       -0.25855044 -0.30368602 -0.5198466 -0.14245494

linear.3.bias f4 [64]
000000 00 fe d0 bd 03 19 a5 be dc 7b 31 be a1 66 b2 be
       -0.10204697 -0.32245645 -0.17332405 -0.34843925
000010 bd be 0a be 5f 71 85 be 12 e3 e6 be b2 4b b1 be
       -0.13549323 -0.26063058 -0.45095116 -0.34628063
000020 17 9e cd be 62 8a bc be ba 5e dc be 7f ef 05 bf
       -0.40159675 -0.36824328 -0.4304102 -0.5231857
000030 1d 45 f3 be 39 56 fa be 63 c6 90 be 21 c5 e2 be
       -0.47513667 -0.48893908 -0.28276357 -0.44291022
000040 be d1 ee be 7c 9b b3 be 0d 9a a7 be 53 a2 fe be
       -0.46644396 -0.35079563 -0.3273472 -0.4973322
000050 9b 16 e1 bd 93 dc 89 3d 93 1b 4c be 6d b1 30 be
       -0.1099064 0.06731524 -0.19932394 -0.17255183
000060 48 a6 44 be 4a 0f 24 bf 43 c4 14 bf 53 a1 1f bf
       -0.19204056 -0.6408583 -0.5811197 -0.62355536
000070 f9 1e 17 bf 8e 25 d7 be fc 2e dd be 71 54 cd be
       -0.59031636 -0.4202084 -0.4319991 -0.40103486
000080 1f 2e 8c bd 3a 70 13 bf b3 be 29 bf 9d a5 87 be
       -0.068447344 -0.5759312 -0.6630661 -0.2649354
000090 2f 72 fa be 99 ab 7b be a7 9e 50 be 47 9d c5 be
       -0.4891524 -0.24577178 -0.20373021 -0.38596556
0000a0 2b ef ac be 14 49 10 bf e9 3f ac 3d 7c d6 aa be
       -0.3377622 -0.5636151 0.084106274 -0.33366764
0000b0 66 33 d5 bd 8a 0a b7 be 26 f9 eb be c5 65 cf bd
       -0.10410194 -0.35750228 -0.46088523 -0.10126833
0000c0 87 dd 8c bc 57 f4 86 bd 27 2d 4d be bf 91 69 be
       -0.017195476 -0.06589573 -0.20036756 -0.22809504
0000d0 c6 9f 1f be e1 91 b0 be f5 b1 88 be ca d2 8f be
       -0.15588292 -0.34486297 -0.2669827 -0.28090507
0000e0 bf 29 f7 be 97 86 97 be ec 29 fc be 94 b8 0f bf
       -0.48274037 -0.2959487 -0.49250734 -0.5614102
0000f0 b4 1d 26 bf 08 bb 5f be a1 14 00 bf e3 ad f6 be
       -0.64889073 -0.2184869 -0.5003148 -0.4817954

reg.weight f4 [2, 128]
000000 3b c6 1a 3e 03 3f 43 bd 5f 15 e9 3e 2b f9 b2 bf
       0.15114681 -0.047667515 0.45524117 -1.398229
000010 61 60 fa 3d 88 a6 7e 3e 39 c9 d8 be ed c1 df 3e
       0.12225414 0.24868214 -0.4234102 0.4370264
000020 82 9c 05 3e c2 1e 3c 3e eb f2 27 3e 96 4e 83 3d
       0.13047984 0.18371108 0.1640126 0.064114735
000030 70 6d 0f 3e 63 bc 2f 3e 47 c4 47 be 62 bf b9 bd
       0.14006591 0.17161708 -0.19508468 -0.090697065
000040 3d 1c 53 3d 3b d9 2c 3e ac 1d 37 3e 76 b5 e3 3d
       0.051540602 0.16879742 0.17882413 0.11118595
000050 c9 da 95 3e e4 31 1f 3e fe 58 f1 3d 51 c2 f5 3d
       0.29268482 0.15546376 0.11784552 0.119999535
000060 35 d5 38 3e 34 4f 05 3e 97 43 89 3d ef d5 e1 3e
       0.18050082 0.13018495 0.06702345 0.4410853
000070 e6 45 6c bd c6 1e a8 be 40 88 10 bf 55 17 35 3e
       -0.057683848 -0.32835978 -0.564579 0.17684682
000080 29 3f 16 3e b1 9e 17 3e 0b 56 38 3e f8 ac e4 3d
       0.14672531 0.1480663 0.18001573 0.11165804
000090 bf 5d 33 3e 33 60 10 3e 60 05 09 bf 3b ed ad 3d
       0.1751623 0.14099197 -0.53523827 0.08492514
0000a0 ad 8b 96 3d d7 22 19 3e e4 72 7b 3d 19 72 e3 3d
       0.0735086 0.14954697 0.061388865 0.11105747
0000b0 6b b9 af be 56 91 30 bd 5e 72 3a 3e 30 bd e4 3e
       -0.3432115 -0.043107353 0.1820769 0.4467559
0000c0 fe ca 14 3e c2 4d 83 3e a8 3a a8 bd 43 46 e5 3d
       0.1453056 0.25645262 -0.08214313 0.11195042
0000d0 ab 0f 10 3e b6 5c 18 3e 14 a3 36 3e 39 d8 85 be
       0.14068477 0.14879116 0.17835647 -0.26141527
0000e0 a9 2a 24 3e 7d ac 93 3d 1d 20 28 3e 89 03 f9 3d
       0.16031899 0.07210634 0.164185 0.121588774
0000f0 dc 66 07 3e 6b d6 a7 3d a2 cc 2b 3e b4 06 1f 3e
       0.13222831 0.08195194 0.1677728 0.15529901
000100 fe 14 d2 3e 64 af bb 3e 4d ec 9f 3e f1 77 af 3e
       0.4103164 0.3665725 0.3123497 0.34271196
000110 f8 ad dd be a7 e4 9c 3e d7 d3 ad 3e bf 1e ba 3e
       -0.4329679 0.30643198 0.33950683 0.36351582
000120 83 7d cf be 36 be a3 3e ee 23 b5 3e 3f f7 b3 3e
       -0.40525445 0.31981057 0.35378975 0.3514957
000130 be 53 a6 3e 1a bf a7 3e c6 b9 c7 be d4 38 ba 3e
       0.32485765 0.32762986 -0.3900892 0.3637148
000140 40 4e 80 3e 5e e8 a5 3e d5 27 c5 be 9c 1d b3 3e
       0.250597 0.32403845 -0.38506952 0.34983528
000150 9d 59 b7 3e 9b f7 c4 be ac fe bd 3e 4f 51 d5 be
       0.35810557 -0.38470158 0.37108362 -0.41663596
000160 83 59 c8 be 92 70 b2 3e a6 21 bf 3e 89 25 a4 3e
       -0.39130792 0.3485151 0.3733036 0.32059887
000170 e5 ce b7 3e 91 49 91 3e 55 b0 b0 3e bc 48 a9 3e
       0.35900036 0.2837644 0.3450953 0.33063304
000180 70 e0 e4 3e 6d 05 b8 3e 24 75 bc 3e 55 74 b8 3e
       0.44702482 0.3594164 0.3680812 0.36026254
000190 07 ae bc 3e cf d4 c9 be be 67 93 3e 6c 71 9c 3e
       0.36851522 -0.39420173 0.28790087 0.30555284
0001a0 b2 f4 aa 3e 75 b7 b5 3e c6 ea e3 3e ef 04 be 3e
       0.33389813 0.3549153 0.44515055 0.3711314
0001b0 09 89 de 3e ab 36 b5 3e 66 42 b1 3e 9e 73 fd 3e
       0.43463925 0.3539327 0.3462097 0.4950227
0001c0 fc 60 8b 3e 4f b5 99 3e 0a 34 d7 be e4 e3 d2 be
       0.2722243 0.3002114 -0.4203189 -0.41189492
0001d0 1d d5 d9 be 86 12 ad 3e 6b c7 bc 3e 64 f1 c4 be
       -0.42545405 0.33803195 0.36870894 -0.38465416
0001e0 8a 46 b9 3e 16 08 ab 3e 84 11 b8 3e 1b 0c b4 3e
       0.3618663 0.33404607 0.35950863 0.35165486
0001f0 1d 03 b5 3e 31 b5 d8 be ab 2f c2 3e 71 a0 ae 3e
       0.35353938 -0.42325738 0.37926993 0.34106782
000200 31 bc 12 3d 9f 83 2d bd 9e 98 c7 3d 67 8e 20 3c
       0.035824005 -0.04236185 0.09745906 0.009799576
000210 86 3f 96 3c 78 1d df 3c e3 91 8e 39 dd 28 27 3c
       0.018340837 0.027235731 0.00027193045 0.010202614
000220 4e d7 66 bc 10 1e fa 3c f1 ca d5 bc 67 16 3b 3d
       -0.014089419 0.030531913 -0.026097747 0.04567566
000230 4b 6e 58 3d bf 7a 5c bb 46 dd c2 3c 9c 99 ca 3c
       0.05283956 -0.0033642498 0.023787152 0.02473145
000240 54 52 7c 3d 36 e5 b2 bb 46 93 d3 bb 01 ce bd 3c
       0.06160195 -0.005459453 -0.0064567653 0.02316952
000250 de 85 50 3c 5d 31 e7 3b c2 e3 e0 bb f5 8e 40 bc
       0.012727229 0.007055445 -0.0068630883 -0.011752834
000260 26 3a 5c 3b 0c b8 eb bc 8c 74 55 3c c7 7f b8 3d
       0.0033603995 -0.028774284 0.013028275 0.090087466
000270 c1 06 14 3d c6 1e c3 3b c4 62 4c bb c7 cb 68 bc
       0.036139254 0.005954596 -0.0031186799 -0.014208741
000280 22 b7 55 3c 57 ed de 3c 7b 33 d5 bc bb e4 eb 3c
       0.013044151 0.027212782 -0.026025524 0.02879559
000290 7c 2a fb 3c 90 13 36 3d 86 0e 2f 3d 98 56 13 3d
       0.030659907 0.04445225 0.04273846 0.035971254
0002a0 9e f8 4c 3d 2f 33 20 3d 4f 8f 44 3d a6 32 d8 bb
       0.050041787 0.039111312 0.047988232 -0.0065978346
0002b0 08 47 88 3d 8f d7 30 bc 67 92 38 bc 06 77 07 bd
       0.06654173 -0.010793581 -0.011265374 -0.033072494
0002c0 c8 e0 79 bd f2 1c 68 3c 48 0a 5a bd 7e a7 17 bd
       -0.061005384 0.014167057 -0.05323246 -0.037024967
0002d0 2e be 37 bd 7f 4b 4d 3d 18 53 13 3d 9d e9 f1 3c
       -0.044859104 0.050120827 0.035967916 0.02953034
0002e0 e7 cb 00 3d f0 3d 14 3d 93 0f ec bc af a3 94 3a
       0.031444456 0.03619188 -0.02881602 0.0011340285
0002f0 19 4c 15 3d 63 14 dc bc 2f 84 1a bb b2 4a a1 3c
       0.036449526 -0.02686519 -0.0023577323 0.019688938
000300 58 fc 1c 3c 3e b3 02 3c cc 0f 2d 3d f1 bf a7 bb
       0.009581648 0.007977305 0.042251393 -0.0051193167
000310 36 40 49 3c 71 41 11 3a b3 12 b5 3b ff 0f c8 3b
       0.0122833755 0.00055410626 0.0055259108 0.0061054225
000320 f4 e6 b1 bc 65 0a 76 3b 4f 8f 31 bc 10 3b 2b bc
       -0.021716572 0.0037542817 -0.01083739 -0.010451093
000330 9f 03 67 3c 90 22 9b bc 9c ef b9 bc 6a 84 47 3b
       0.014099984 -0.01893738 -0.022697262 0.0030443915
000340 b5 23 db 3c fa 9a c4 ba 41 c8 90 bc 7a 8b c9 3b
       0.026750425 -0.00149998 -0.017673614 0.00615066
000350 1e 54 ab 3c b5 ac 7d bb 7b 7f 91 bb bf 75 12 bc
       0.020914134 -0.0038707678 -0.0044402457 -0.008939206
000360 e6 0e 33 3c fa 73 2c 3c 49 64 44 3b c8 65 3e bc
       0.010928845 0.010525698 0.0029967001 -0.011620946
000370 2e fb 5f 3b b4 a0 a2 3b 44 42 3a 3b 8f 39 a6 3c
       0.0034176814 0.004963005 0.0028420845 0.020291118
000380 eb 53 47 3c aa 9d 82 bb 33 5d 04 bb 9b de b6 bc
       0.012166004 -0.00398608 -0.0020197153 -0.022322943
000390 ee e5 8d 3b 6c 73 e1 bc bd d9 4c 3b 43 bc 3e 3c
       0.0043303883 -0.027520858 0.0031257712 0.011641565
0003a0 1c ac 13 bb 4e 19 29 bc 1c d7 a7 3c 12 d1 57 bc
       -0.0022533005 -0.0103209745 0.020488314 -0.013172405
0003b0 24 4d 59 3c 4f 18 d3 bc 3e 03 ab ba 43 17 ad bc
       0.013263021 -0.025768427 -0.0013047231 -0.021129256
0003c0 0e 7e 0f be f4 48 a4 bd c5 65 29 3c ae 3f 0b 3d
       -0.1401293 -0.08021727 0.010339205 0.033996277
0003d0 30 1f af 3c 6c ab bc 3b a4 49 8f bb 78 b5 06 3b
       0.021377176 0.00575774 -0.0043727923 0.002055494
0003e0 cf 71 b5 3c 4f 33 b6 3b 1a 58 14 3c 48 59 54 bc
       0.022148995 0.0055603157 0.009054208 -0.012960739
0003f0 a7 d5 91 bb 9c 2c dd bb fb 9d 34 3c 53 34 a0 bc
       -0.004450518 -0.0067497026 0.011023994 -0.0195562

reg.bias f4 [2]
000000 16 f8 2a 3e 21 65 8d bc
       0.166962 -0.017260136
