server/model2/value_model_minmax2_noexplore80.pt (torch, 255505 bytes, 12 tensors)

conv.0.weight f4 [4, 1, 3, 3]
0	0x40126a5a	2.2877412
1	0x402c6d7c	2.6941824
2	0x409f40fc	4.9766827
3	0x407adc06	3.9196792
4	0x4031117f	2.7666929
5	0x3ff0be82	1.8808138
6	0x401b2f0e	2.424747
7	0x3f34da9c	0.7064607
8	0x401d8fba	2.4618974
9	0x3f87d8a4	1.0612988
10	0x3d381400	0.04494095
11	0x408e2c64	4.442919
12	0x4040810c	3.0078764
13	0x409cddb9	4.9020658
14	0x3eb5a1b4	0.35474932
15	0x403a74eb	2.913386
16	0x3fb14b6e	1.3851144
17	0x406583fd	3.586181
18	0x3e38018b	0.17969339
19	0x3fb16e1a	1.3861725
20	0x4011c9e7	2.2779481
21	0x4030a184	2.7598581
22	0x408ee087	4.464908
23	0x40b8bb3f	5.772857
24	0x40045b01	2.0680544
25	0x403c984b	2.9467952
26	0x4070b08b	3.7607753
27	0x4076f3f4	3.8586397
28	0x4028a246	2.6349044
29	0x408d8d58	4.423504
30	0x4074a5cb	3.8226192
31	0x40614d0a	3.520327
32	0x4032fea4	2.796792
33	0xbef1dd78	-0.4723928
34	0x4059841d	3.3986886
35	0x3eecefba	0.46276647

conv.0.bias f4 [4]
0	0x402d60ca	2.7090325
1	0x4007106f	2.110378
2	0x4017323c	2.362441
3	0x4029e095	2.6543324

conv.2.weight f4 [4, 4, 3, 3]
0	0x402a3774	2.6596346
1	0x407ba8f2	3.9321866
2	0x405551b0	3.3331108
3	0x40422ac2	3.0338597
4	0x4044e9ef	3.0767782
5	0x404e02dd	3.2189248
6	0x3ffff6b6	1.9997165
7	0x4055ff6a	3.3437142
8	0x4018fb63	2.3903434
9	0x404421dc	3.0645666
10	0x40607af4	3.5075045
11	0x4078926c	3.883937
12	0x405d1d18	3.4549007
13	0x400966fd	2.146911
14	0x405b2a7a	3.4244676
15	0x3fd1b922	1.6384623
16	0x404b2213	3.1739547
17	0x3fd4e7a4	1.6633191
18	0x4018e450	2.388935
19	0x4093d94e	4.6202765
20	0x405ba789	3.4321005
21	0x40510d93	3.2664535
22	0x40557873	3.3354766
23	0x40375b1c	2.8649359
24	0x403813c6	2.8762069
25	0x401455ba	2.3177323
26	0x40310056	2.7656455
27	0x40606569	3.5061896
28	0x4066f4ae	3.608684
29	0x40689626	3.6341643
30	0x40360e95	2.84464
31	0x404bb901	3.1831667
32	0x405f6d99	3.4910643
33	0x4018a309	2.3849509
34	0x403d1d77	2.9549234
35	0x4016ed5f	2.358238
36	0x3fd1a229	1.6377612
37	0x3f8f3689	1.1188518
38	0xc0e24fba	-7.0722322
39	0x405b9302	3.4308476
40	0x403cc5ea	2.9495797
41	0xbf798a2b	-0.9747645
42	0x402bd60d	2.6849396
43	0x3f9361c7	1.1514214
44	0xbfb5b0f5	-1.4194628
45	0x4012426e	2.2853045
46	0x408fcfb7	4.494106
47	0xc0e188ce	-7.04795
48	0x401b5d03	2.427552
49	0x403e8d41	2.9773715
50	0xc01a1a35	-2.4078496
51	0x3dba85d8	0.0910756
52	0x3e24530f	0.1604731
53	0xbfba69c6	-1.456353
54	0x40309639	2.7591689
55	0x4065e751	3.5922434
56	0xc01942ab	-2.394694
57	0x402cd609	2.7005637
58	0x3fcb1c5c	1.586803
59	0xc0b3a9fd	-5.6145005
60	0x3fc31397	1.5240353
61	0xbe00cb3a	-0.12577525
62	0x3ffe4dc2	1.986748
63	0x4015ad73	2.3387115
64	0x3fd2920a	1.6450818
65	0xc045b745	-3.089311
66	0x4055f9e7	3.3433778
67	0x406235d6	3.534536
68	0xc06c82ae	-3.695476
69	0x405e38ff	3.4722288
70	0x3fead71b	1.8346895
71	0xc02a5e93	-2.6620224
72	0x40542e75	3.3153355
73	0x407238cc	3.7847166
74	0x4016f15a	2.358481
75	0x402a630a	2.6622949
76	0x403f3535	2.9876225
77	0x40162963	2.346276
78	0x3fd164ca	1.6358883
79	0x3ff5a944	1.9192281
80	0x40400f03	3.0009162
81	0x40743eec	3.8163404
82	0x407c8e63	3.9461906
83	0x400d2437	2.2053354
84	0x40255ce6	2.583795
85	0x40401466	3.001245
86	0x3feb9b68	1.8406801
87	0x3f5d2f24	0.86400056
88	0x3fd1c9ac	1.638967
89	0x402e57dc	2.7241125
90	0x4054e636	3.326551
91	0x4089b012	4.302743
92	0x3f634736	0.88780534
93	0x400a4eb9	2.1610548
94	0x403d4ff4	2.958005
95	0x40287356	2.6320395
96	0x3f8ed8f3	1.1159958
97	0x3fb90aa2	1.445637
98	0x40025fef	2.0371053
99	0x407450dd	3.8174355
100	0x4072372a	3.784617
101	0x4016c588	2.3558064
102	0x402e00e2	2.718804
103	0x40670268	3.6095219
104	0x408138fc	4.038206
105	0x3fb4b017	1.4116238
106	0x3fbaf607	1.4606332
107	0x401c02d9	2.4376738
108	0x401d75a4	2.4603052
109	0x4083fdd1	4.1247334
110	0x400e3114	2.2217455
111	0x403c9955	2.9468586
112	0x4050b136	3.260816
113	0x402a17d2	2.6577039
114	0x40172b77	2.362028
115	0x404930b5	3.1435978
116	0x401a9c2a	2.4157815
117	0x4012144d	2.282489
118	0x4087d83b	4.2451453
119	0x40527208	3.28821
120	0x40327334	2.7882814
121	0x4071a5aa	3.7757363
122	0x4013c136	2.3086677
123	0x400d11a0	2.2042007
124	0x40326292	2.7872663
125	0x401aeac8	2.42058
126	0x402ae013	2.6699264
127	0x409e43af	4.945762
128	0x3facbcff	1.3495177
129	0x406e26ca	3.7211175
130	0x40682d48	3.6277637
131	0x401a28cc	2.40874
132	0x40117496	2.2727408
133	0x402262c9	2.5372794
134	0x4001ae2a	2.0262551
135	0x40459944	3.0874796
136	0x40533fd3	3.3007705
137	0x402fcdf4	2.7469454
138	0x404dd7a1	3.216286
139	0x406a40ee	3.660213
140	0x405db432	3.4641232
141	0x3ffe2e7a	1.9857934
142	0x402d8fb1	2.7118952
143	0x4021df86	2.5292678

conv.2.bias f4 [4]
0	0x402caecc	2.6981688
1	0x3ff91e0e	1.9462297
2	0x4018fbf1	2.3903773
3	0x4012a7f7	2.2915018

conv.5.weight f4 [64, 36]
0	0x3eecc78b	0.4624599
1	0x3f8c4286	1.0957801
2	0x40014db7	2.0203683
3	0xbeb4fce6	-0.35349196
4	0x3f9473a5	1.1597792
5	0x4007a309	2.1193259
6	0xbc7cf37b	-0.01543891
7	0x3e57c7de	0.21072337
8	0x3fdd433f	1.7286147
9	0x408afac1	4.3431096
10	0x3f4df8c5	0.8045772
11	0x4029d744	2.6537638
12	0x3f9f231d	1.2432591
13	0xc00500fb	-2.0781848
14	0x40158551	2.336262
15	0xc0317da0	-2.7732925
16	0xc0232e2a	-2.5496926
17	0x3fd73782	1.6813815
18	0x3e6fe9a9	0.23428978
19	0x3f80b149	1.0054103
20	0x3fecc4ab	1.8497518
21	0x3e9bfe03	0.30467233
22	0x3f1e3b14	0.61808896
23	0x40209646	2.509172
24	0xbe5acdaf	-0.21367525
25	0x3eca87d8	0.39556766
26	0x3ff53885	1.9157873
27	0x3e804b07	0.2505724
28	0x3f81484b	1.0100187
29	0x40020f16	2.0321708
30	0xbcfa5f8f	-0.030563144
31	0x3f671967	0.90273136
32	0x402030fd	2.50299
33	0xbedcc6c7	-0.43120405
34	0x3ecdfd96	0.40232533
35	0x3fef3916	1.8689296
36	0x3cea0233	0.028565502
37	0xbee4adee	-0.44663948
38	0xbf4ac35e	-0.79204357
39	0x3ec009ae	0.37507385
40	0x3e82c717	0.25542518
41	0x3e9ea6b3	0.30986556
42	0x3dc2de4b	0.09515055
43	0x3de9bf2c	0.11413416
44	0x3eb5ebe0	0.3553152
45	0x3fab18c9	1.3366939
46	0xc0a4b9bb	-5.147672
47	0xbf5217f7	-0.8206782
48	0xbd3b1234	-0.045671657
49	0x3fbe3f7b	1.4863123
50	0xbe80796e	-0.25092643
51	0x3f505772	0.8138343
52	0x3f85e886	1.0461586
53	0xbf943846	-1.1579673
54	0xbe2af886	-0.16696367
55	0xbeb4f55c	-0.35343444
56	0xbef7bd13	-0.4838644
57	0x3e868b92	0.2627836
58	0x3ea163b2	0.31521374
59	0x3dad7aaa	0.08470662
60	0x3e8d830d	0.27639046
61	0x3e9f047b	0.31058106
62	0xbeac0fca	-0.33605796
63	0xbe22b771	-0.1589029
64	0xbe77a392	-0.24183491
65	0xbf2aa02c	-0.6665065
66	0x3f00b7ad	0.50280267
67	0x3dc8dc51	0.09807647
68	0xbf19d4c2	-0.6009027
69	0x3d6e5bc6	0.05819299
70	0x3eaca077	0.33716175
71	0xbeea07ae	-0.45708984
72	0x3fea2a82	1.8294222
73	0x402b084c	2.6723814
74	0x40587a62	3.3824697
75	0x3fe3d65e	1.7799795
76	0x401f45dd	2.488639
77	0x40333a03	2.8004158
78	0x3fcc6885	1.5969397
79	0x400d8257	2.2110803
80	0x4022b07b	2.5420215
81	0x3fd17c73	1.6366104
82	0x407e7445	3.9758465
83	0x4042b90e	3.0425448
84	0xbfa9841b	-1.324344
85	0x4009473f	2.1449735
86	0x404738fb	3.1128528
87	0xc000e1aa	-2.0137734
88	0x3f8e3337	1.110938
89	0x4023ab6c	2.5573378
90	0x3fa6373f	1.298561
91	0x4013734a	2.3039117
92	0x3fdc2129	1.719762
93	0x4031f9e2	2.7808766
94	0x401c43cf	2.4416387
95	0x40606930	3.5064201
96	0x40293ac3	2.6442115
97	0x4012c3a4	2.293191
98	0x401a0935	2.406812
99	0x40571078	3.3603802
100	0x402514d4	2.5793962
101	0x404477e5	3.0698178
102	0x401b6782	2.4281926
103	0x3fd00373	1.6251053
104	0x400fffa4	2.249978
105	0x3fc2edd2	1.5228827
106	0x3fc70945	1.5549704
107	0x4009de51	2.154194
108	0x3e86bee0	0.263175
109	0x3dc5b974	0.09654513
110	0xbf1480fb	-0.5800931
111	0x3ddc229e	0.1074879
112	0xbca85a46	-0.020550858
113	0x3d016dd2	0.031598873
114	0xbd1a49bf	-0.037667986
115	0xbdcaab32	-0.09895934
116	0x3e0e16ff	0.1387596
117	0xbe19f5d1	-0.15035178
118	0x3e54865b	0.20754378
119	0x3ee04848	0.43805146
120	0xbd2fb850	-0.042900383
121	0x3da46b24	0.08028248
122	0xc0262a0e	-2.5963168
123	0x3e38a834	0.18032914
124	0x3c925a9d	0.017865473
125	0x3f0542f7	0.52055305
126	0x3d58d91d	0.05294143
127	0xbe5cc4ff	-0.21559523
128	0x3e66cdc7	0.22539435
129	0xbe72e34b	-0.23719518
130	0xbdda10cc	-0.10647735
131	0xbfe6672c	-1.8000236
132	0xbe2f3755	-0.17110951
133	0x3daf74b8	0.08567184
134	0x4007d564	2.1223993
135	0xbe24b4b4	-0.16084558
136	0xbd174d6a	-0.036939062
137	0xbe0e3c04	-0.13890082
138	0x3de301ef	0.11084353
139	0xbd1db925	-0.038506646
140	0x3b28970d	0.00257248
141	0xbd9e770f	-0.077375524
142	0x3d403ad3	0.0469311
143	0x3e3396a3	0.17537932
144	0x3fb0b9e6	1.3806732
145	0x3f52ba67	0.8231568
146	0xbf4a2d58	-0.7897544
147	0x3f3672b0	0.7126875
148	0x3e47c6f5	0.1950949
149	0xbf94f11d	-1.1636082
150	0xbebf1404	-0.37319958
151	0x3c3d3c2f	0.011549993
152	0xbf95943a	-1.168586
153	0xc08200fa	-4.062619
154	0x405c6b66	3.444055
155	0xbfac72b6	-1.3472507
156	0xc01e1b5c	-2.47042
157	0x40792ba0	3.8932877
158	0xc02c107b	-2.688506
159	0xbf117cca	-0.5683104
160	0x401fa0c6	2.4941878
161	0xbf22040b	-0.6328742
162	0x3f5f125c	0.8713739
163	0x3e90f58b	0.28312334
164	0xbedcc193	-0.43116435
165	0x3f247320	0.64238167
166	0x3f15056b	0.5821139
167	0xbff3840e	-1.9024675
168	0x3f6858d8	0.90760565
169	0x3fa76025	1.3076216
170	0xc003f50f	-2.0618322
171	0x3fb7573d	1.4323498
172	0x3f5f3e42	0.8720437
173	0xbe81189c	-0.25214088
174	0x3f833986	1.025193
175	0x3d8c6e78	0.06857008
176	0xc031edce	-2.7801394
177	0x3f164953	0.58705634
178	0x3e4fb3ad	0.20283385
179	0xc022276c	-2.5336561
180	0x4011ef81	2.2802432
181	0x401228c1	2.2837374
182	0x402618b6	2.5952582
183	0x3f998ae0	1.1995506
184	0x4027355f	2.6126325
185	0x4017848f	2.3674657
186	0x3f66aff7	0.9011225
187	0x3fc8b2a1	1.5679513
188	0x402ef84d	2.733905
189	0x400bdf47	2.1855028
190	0x40830f08	4.095585
191	0x3f9a3670	1.2047863
192	0xbfbc9b03	-1.4734806
193	0x3fe95f8b	1.8232282
194	0x3fefb531	1.872717
195	0xc0681c85	-3.6267407
196	0xbdf4ec57	-0.11959141
197	0x4005cdfa	2.0906968
198	0x3fb9a470	1.4503307
199	0x400da3f6	2.2131324
200	0x4034643a	2.8186173
201	0x400773f2	2.1164517
202	0x3feddd15	1.8583094
203	0x4038030a	2.8751855
204	0x3fd346db	1.6505998
205	0x3fdcb8a5	1.7243849
206	0x4022bfa7	2.5429475
207	0x3fcc08a1	1.5940133
208	0x40051800	2.0795898
209	0x403a716e	2.9131732
210	0x3fd26685	1.6437536
211	0x3ff78b78	1.9339437
212	0x4007c5ad	2.1214402
213	0x3f819d8b	1.0126203
214	0x3fec18b6	1.8445041
215	0x401cd6e7	2.4506166
216	0xbeac0483	-0.33597192
217	0xbe4d2291	-0.20032717
218	0xbf2504ed	-0.6446064
219	0x3e629bd3	0.22129755
220	0x3e0a710e	0.1351969
221	0xbe78f406	-0.24311838
222	0x3f0cbae1	0.54972655
223	0x3e8b2778	0.2717855
224	0xbe976d58	-0.2957561
225	0xbea7aefd	-0.32750693
226	0xc0555ea3	-3.3339012
227	0xbef70061	-0.48242477
228	0x3f2c3c44	0.6727946
229	0xbfb81526	-1.4381454
230	0x3eb6d377	0.3570821
231	0x4020ff66	2.5155883
232	0x3f859bc2	1.0438159
233	0xbf308cec	-0.6896503
234	0x3ee8e3fa	0.45486432
235	0x3e05e583	0.13075833
236	0xbee34ef9	-0.4439619
237	0x3e11e34c	0.14246863
238	0x3d9de399	0.077094264
239	0xbdf0b0e5	-0.1175249
240	0x3e5a3d22	0.21312383
241	0x3e0b2b3a	0.13590708
242	0xbf855637	-1.0416936
243	0x3e187d13	0.14891462
244	0xbe423d33	-0.18968658
245	0xbf394b4d	-0.72380525
246	0x3e333c0c	0.17503375
247	0x3e2b3b2a	0.16721788
248	0xbe6f6c5f	-0.23381184
249	0x3ee4ecc4	0.44711888
250	0x3ecf6fa7	0.4051487
251	0xbe88aa9d	-0.26692668
252	0x3f71e894	0.9449551
253	0x3f4a6d9c	0.790735
254	0xbf17e6d2	-0.5933658
255	0x3f088c69	0.5333925

conv.5.bias f4 [64]
0	0x3f8caf8e	1.0991075
1	0xbe7df4c2	-0.24800399
2	0x3fcf9418	1.621707
3	0xbe624859	-0.22097911
4	0xbe820d33	-0.25400695
5	0x3fdf0234	1.7422547
6	0x3daf9918	0.08574122
7	0xbd8ff649	-0.07029397
8	0x3fe8d64d	1.81904
9	0x3fd37ca8	1.6522417
10	0x3fdd8131	1.7305051
11	0xc054e4a1	-3.3264544
12	0xbf20f273	-0.6286995
13	0x3f91e974	1.1399369
14	0xbe6524a4	-0.22377259
15	0xbf2044ca	-0.62604964
16	0x4010f6d7	2.265066
17	0x3fbeeba4	1.4915662
18	0x3f2beaa2	0.67154896
19	0x400fa3ee	2.2443805
20	0xbffba2d6	-1.9659069
21	0x3feabf0e	1.8339555
22	0x3f5626a7	0.8365273
23	0x3ff47add	1.9099995
24	0x3fc548ac	1.5412803
25	0x3faddbca	1.3582699
26	0xbf204173	-0.6259987
27	0xc00dc6a4	-2.215249
28	0xbec71ca2	-0.38889033
29	0xbeea5047	-0.45764372
30	0x3f0cf122	0.5505544
31	0x3f2d7949	0.6776319
32	0x3f1c42aa	0.6103922
33	0xbdd793aa	-0.105262116
34	0x3f895383	1.0728611
35	0xbe54d82b	-0.20785587
36	0x3ee9c397	0.45657036
37	0xbf938ee1	-1.1527978
38	0x3e5cf9f2	0.21579722
39	0x400decbf	2.2175748
40	0x40089f1b	2.134711
41	0xbdee9ed9	-0.116513915
42	0xbe1a3697	-0.15059887
43	0x3fe83c66	1.8143432
44	0xbe05a2b2	-0.13050345
45	0xbf27f3fd	-0.6560667
46	0x3fcbf419	1.5933868
47	0x40051f2d	2.0800278
48	0x3f315397	0.6926817
49	0x3fd31c94	1.6493096
50	0xbe4ccb80	-0.19999504
51	0x3ff89e38	1.9423285
52	0xbf19254b	-0.5982253
53	0xbecd7fb0	-0.4013648
54	0xbe8e964d	-0.27849045
55	0xbef581a9	-0.47950485
56	0xbe5a5258	-0.21320474
57	0x400bf324	2.1867151
58	0xbf550ee7	-0.83225864
59	0xbeb3544e	-0.35025257
60	0xbf42931c	-0.7600572
61	0xbf1e59b7	-0.61855644
62	0x3fd22d2d	1.6420037
63	0x3f4ea091	0.80713755

linear.1.weight f4 [256, 169]
0	0x3bc14700	0.0058983564
1	0x3d20e03a	0.03927634
2	0x3d72750a	0.05919365
3	0x3d5dbe1e	0.054136388
4	0xbcd126a8	-0.025531128
5	0xbcb52cb6	-0.022116046
6	0x3d010c74	0.031506017
7	0x3d1dd234	0.038530543
8	0x3d5657c6	0.0523298
9	0x3f5daf48	0.8659558
10	0x3c787cb8	0.015166454
11	0xbc396a70	-0.011316881
12	0x3d03d2f0	0.032183588
13	0x3d46dfb6	0.04855319
14	0xbb09e940	-0.002104357
15	0xbc6f51f8	-0.014606945
16	0x3bce9590	0.0063044503
17	0xbd34ef54	-0.044173554
18	0xbd9a52c0	-0.075353146
19	0xbcaab740	-0.020839334
20	0x3d975cdd	0.07390759
21	0xc06a6fa3	-3.6630638
22	0xbf944d69	-1.1586124
23	0x3c4e5ff0	0.0125961155
24	0xbd827194	-0.063693196
25	0xbd86bb78	-0.065787256
26	0xbc8b2aec	-0.01698824
27	0x3d1cfd18	0.038327307
28	0x3cd04040	0.025421262
29	0xbb321e40	-0.0027178675
30	0x3cf3f8c4	0.029781707
31	0xba2b2c80	-0.00065297633
32	0xbd362a2a	-0.044473805
33	0x3fb77849	1.4333583
34	0x3e8ae5ca	0.2712844
35	0xc03850ef	-2.8799398
36	0x3ca0ab64	0.019612975
37	0x3cabbd10	0.020964175
38	0xbd2e71d4	-0.042589024
39	0x3d7eb02e	0.062179737
40	0x3d32cb9c	0.04365121
41	0xbd6449dc	-0.0557345
42	0x3ecc9e35	0.39964452
43	0xbf8b86c9	-1.0900508
44	0xbebbd67e	-0.36687082
45	0x3f0e43f1	0.5557242
46	0xbf842c87	-1.0326089
47	0xbee63a15	-0.44966188
48	0x3f0f473a	0.5596806
49	0xbf2083c4	-0.6270106
50	0xbed01dd7	-0.40647766
51	0xbf91a8c5	-1.1379629
52	0x3d25543e	0.040363543
53	0x3d4d1992	0.050073214
54	0xbc04b2d8	-0.00809928
55	0x40353896	2.8315787
56	0x3f411795	0.7542661
57	0x3fc13789	1.5095073
58	0xbec42f6c	-0.3831743
59	0x3da88b7b	0.08229729
60	0x3e5c3ae4	0.2150684
61	0xbf8d104f	-1.1020602
62	0xbe70e750	-0.23525739
63	0xbfb188b5	-1.3869845
64	0xbd53d9d2	-0.0517214
65	0xbcd332a2	-0.02578098
66	0xbd41b696	-0.04729327
67	0xbd1df925	-0.03856768
68	0xc0a54a6d	-5.165335
69	0xbfa5278e	-1.2902696
70	0x4046774c	3.1010313
71	0x3fba3560	1.4547539
72	0x3ff9763d	1.9489208
73	0x400bd42d	2.1848252
74	0xbf382951	-0.71938044
75	0x3db9ffc2	0.09081985
76	0xbd581f8a	-0.052764453
77	0x3d01c380	0.031680584
78	0x3ced6664	0.028979488
79	0xbd12d060	-0.035843253
80	0x3ce8fe40	0.028441548
81	0x3f69190d	0.9105385
82	0xc0000ec5	-2.0009015
83	0x3e048f64	0.12945324
84	0xc0063124	-2.0967493
85	0xbea9617c	-0.33082187
86	0xbfe9a7a5	-1.8254286
87	0xbe55bdc4	-0.20873171
88	0x3d215646	0.039388917
89	0x3d4fdd2e	0.050748043
90	0xbd08a254	-0.033357933
91	0xbd119885	-0.035545845
92	0xbd99a67a	-0.07502456
93	0x3fcbcc04	1.5921636
94	0xbed2ce9b	-0.41173252
95	0xbd4513da	-0.048114635
96	0x3fc557b2	1.5417387
97	0x3fe109ae	1.7581079
98	0xbec9ae6e	-0.39390892
99	0xc03f0a18	-2.984991
100	0xc09190c0	-4.5489197
101	0x3d5d6b0e	0.054057173
102	0xbd72ab40	-0.059245348
103	0xbc8ed650	-0.017436177
104	0xbc3f7e08	-0.011687763
105	0x3f8e45e5	1.111508
106	0x3e839b72	0.25704533
107	0x400d2b5b	2.2057712
108	0x3f2e1ba7	0.68010944
109	0x3faa8a29	1.3323413
110	0x3f7cec81	0.98798376
111	0x4000aa78	2.0104046
112	0xbef5d200	-0.4801178
113	0x3ed41f7d	0.41430274
114	0x3cd8e730	0.026477426
115	0x3d3f3abc	0.046686873
116	0xbcde4624	-0.027133055
117	0x40028829	2.0395606
118	0xc0145879	-2.3179
119	0x3f69175c	0.9105127
120	0xc0002f4f	-2.0028875
121	0x3fa8d8fe	1.3191221
122	0xbf4c9451	-0.7991381
123	0xbebbd7d3	-0.36688098
124	0xbef3590f	-0.47528884
125	0xbf359f4d	-0.709462
126	0xbe685280	-0.22687721
127	0x3d6b52d6	0.057452045
128	0xbd023288	-0.03178647
129	0x3d8b80e1	0.06811691
130	0x3d4ccf6e	0.050002508
131	0xbcde7b76	-0.02715848
132	0x3d822ae7	0.06355839
133	0xbf64ccb5	-0.8937486
134	0x3fdd117d	1.7270962
135	0x40122e1a	2.2840638
136	0xbd18284a	-0.037147798
137	0x3d4d4172	0.05011124
138	0x3c2d3d18	0.010573648
139	0xbc389280	-0.011265397
140	0xbd006dbb	-0.031354647
141	0x3d787802	0.060661323
142	0x3d8d7df7	0.069087915
143	0xbd2d5a6a	-0.042322554
144	0x3d1cff28	0.038329273
145	0x3d3c5b2a	0.04598538
146	0x3f3482a3	0.70511836
147	0x4093db81	4.620545
148	0x3ce5f6ec	0.028071843
149	0x3b8b1140	0.0042439997
150	0x3c2b12a0	0.010441452
151	0xbc1f2c78	-0.009715192
152	0x3cf47154	0.029839195
153	0x3d7963e6	0.060886286
154	0x3d499536	0.049214564
155	0x3d03918a	0.03212122
156	0xbd799774	-0.060935453
157	0x3c909bf8	0.017652497
158	0xbd3c6846	-0.04599788
159	0x3c9a20db	0.018814495
160	0x3d013fbc	0.031554922
161	0xbbeb8250	-0.0071871653
162	0xbd92019f	-0.071292154
163	0x3d6a9f76	0.05728098
164	0xbd496499	-0.049168203
165	0x3cb427e8	0.021991685
166	0x3d4b4d0a	0.049634017
167	0x3c957ee4	0.018248983
168	0x3d1dd670	0.03853458
169	0x3d6dc3be	0.058048002
170	0xbd8e800f	-0.06958019
171	0xbd8a61d6	-0.06756942
172	0x3c380838	0.011232428
173	0x3ce9ba28	0.028531149
174	0xbd8e065d	-0.069348074
175	0x3c5a84d8	0.0133373365
176	0xbd16947b	-0.036762696
177	0xbd8b0b95	-0.067893185
178	0x3f54a233	0.83059996
179	0x3d3c1ce8	0.045926005
180	0xbb175f60	-0.002309762
181	0xbd542106	-0.051789306
182	0xbcb61dd4	-0.02223102
183	0xbc22a850	-0.009927824
184	0xbca07414	-0.0195866
185	0x3d22d6be	0.039755575
186	0xbc8e3c32	-0.017362688
187	0xbd5b5696	-0.05354937
188	0xbd3dd1e6	-0.046342753
189	0x3d8058bb	0.06266924
190	0x3fe4ccb0	1.7874966
191	0x3f90a9f9	1.1301872
192	0xbd081259	-0.033220623
193	0x3c9aedac	0.018912159
194	0xbd7b6ee6	-0.061385058
195	0xbd759319	-0.059954736
196	0x3d6b287a	0.05741165
197	0x3a7eb280	0.00097159296
198	0xbcc07f6c	-0.02349826
199	0x3cdb0b40	0.026738763
200	0xbd1f861b	-0.038946252
201	0xbbee6290	-0.007274933
202	0xc031c46c	-2.7776136
203	0x3f87e38c	1.0616317
204	0xbfa7aec2	-1.3100207
205	0x3c93262c	0.017962538
206	0x3cda2940	0.026630998
207	0x3b4f4980	0.0031629503
208	0x3b8d25a0	0.0043074638
209	0x3d0f5c20	0.034999967
210	0xbc8c94e8	-0.017160848
211	0xbe3ef52e	-0.18648216
212	0xc0113bf9	-2.2692854
213	0xc0580f2f	-3.3759267
214	0x3f24f2b8	0.6443286
215	0xbd92a9d7	-0.07161301
216	0x3f602ab7	0.8756518
217	0xbed0d658	-0.4078853
218	0x3f7d52b8	0.98954344
219	0xbf2a7ebc	-0.6659963
220	0x40066764	2.1000605
221	0xbd3601b2	-0.04443521
222	0xbcdfb13c	-0.027306192
223	0xbd78f4cd	-0.060780335
224	0x3cf87639	0.03032981
225	0xc0095c9a	-2.146277
226	0xbc950175	-0.018189171
227	0xc01c214f	-2.439533
228	0x3e88174d	0.26580277
229	0xbf493376	-0.7859415
230	0x3ff6a2cd	1.9268433
231	0x3fba0668	1.4533205
232	0xbffad350	-1.9595737
233	0xbd2a2a1e	-0.041544072
234	0x3d5c58d6	0.053795658
235	0xbcf2c48a	-0.029634733
236	0xbd4655b9	-0.048421595
237	0xc06a309c	-3.659217
238	0x3e60afb6	0.21942028
239	0xbf4bbc30	-0.79584026
240	0x3f36797b	0.71279114
241	0x3fae2a65	1.3606688
242	0x3f27f84c	0.65613246
243	0xbf08d3fb	-0.53448457
244	0x4040878b	3.008273
245	0xbd27ad3b	-0.04093669
246	0x3d8a379b	0.06748887
247	0xbcb1969e	-0.021678265
248	0x3d21f73e	0.03954243
249	0x3d47c376	0.04877039
250	0x3f41988f	0.7562341
251	0x3f8dff52	1.1093543
252	0xbd3d7e0b	-0.046262782
253	0x3f924815	1.1428248
254	0x3f85227c	1.0401149
255	0x406ecb9a	3.7311769

linear.1.bias f4 [256]
0	0x3d4a1a9a	0.049341775
1	0x3eed9282	0.4640084
2	0x3f4ceb77	0.8004679
3	0x3eaa514b	0.33265147
4	0x3e909ca5	0.2824451
5	0xbdd1bc74	-0.10241023
6	0x3f8508c9	1.0393306
7	0x3e2a19a3	0.16611342
8	0x3d3847f1	0.044990484
9	0x3e41bca8	0.18919623
10	0x408223ce	4.0668707
11	0xbd1a7317	-0.037707414
12	0x3eaa3b3a	0.3324831
13	0x3f47cd86	0.7804798
14	0x4013b0f3	2.3076751
15	0x3c659ad7	0.0140139675
16	0x3e8bc9c8	0.27302384
17	0x3f0d108a	0.5510336
18	0x3c72ac38	0.014811568
19	0xbe78e65c	-0.24306625
20	0xbe9c8cb8	-0.3057611
21	0x3f1c10ef	0.6096334
22	0x3eca55be	0.3951854
23	0x3ec4b453	0.38418826
24	0xc02c0b00	-2.6881714
25	0x3e533dcd	0.20629044
26	0x3e8c8ec0	0.2745266
27	0x3f3b6a68	0.7320924
28	0xbe89daa6	-0.26924628
29	0x3f5f93d2	0.8733493
30	0x3f628320	0.8848133
31	0x3f4ac137	0.7920107
32	0xc03db2b0	-2.9640312
33	0x3d4c6e48	0.04990986
34	0x3f878bf6	1.0589588
35	0xbe2e702d	-0.17034979
36	0x3eb6a9b6	0.35676354
37	0x3e70adc2	0.23503783
38	0x3e734105	0.23755272
39	0x3e415443	0.188798
40	0x3f5378be	0.8260611
41	0x406babaf	3.6823537
42	0x3f0f670a	0.560166
43	0x401dba4c	2.4644957
44	0x3ee7a1e7	0.4524071
45	0xbe18a0c7	-0.14905082
46	0x3f159990	0.5843744
47	0xbe369fbc	-0.17834371
48	0x40286de0	2.6317062
49	0x3ddefdec	0.108882755
50	0x3f3f21c5	0.74660903
51	0x3f08011e	0.53126705
52	0x3efa68b8	0.4890802
53	0x3ef58e81	0.47960284
54	0x3eb66804	0.35626233
55	0x3d8e6069	0.069519825
56	0x3e085b8c	0.13316172
57	0x3d6ac488	0.057316333
58	0x3f10d72f	0.56578344
59	0x3f373253	0.71561164
60	0xc01fd654	-2.4974566
61	0xc069f090	-3.6553078
62	0x3f20ac02	0.62762463
63	0x40127db8	2.2889233
64	0x3f252025	0.64502174
65	0xba4ed0aa	-0.000788937
66	0xbc82ceab	-0.015967688
67	0x3ef6ae2d	0.4817976
68	0xbb6ca9d8	-0.0036111977
69	0x403a4fc9	2.9111197
70	0x40881850	4.252968
71	0x3ea7ccee	0.32773536
72	0x3e1c6439	0.15272607
73	0x3f0b55e6	0.54427946
74	0x3b4c3516	0.0031159571
75	0xbe3d0967	-0.18460618
76	0x3f704904	0.93861413
77	0xbe2f51b6	-0.17121014
78	0x3e0abcd9	0.13548602
79	0xb9fd0486	-0.0004825929
80	0x3ef0c668	0.47026372
81	0x40a3003e	5.0937796
82	0x3f476bdc	0.77898955
83	0x3ec99358	0.39370227
84	0xbcdec00b	-0.027191183
85	0x3f77d818	0.9681411
86	0x3f55b2e5	0.83476096
87	0xbe58204b	-0.21106069
88	0x3e950eec	0.29112947
89	0xbe319ecf	-0.17345737
90	0x3ebce7c0	0.3689556
91	0xbe2d2b71	-0.16911103
92	0x3e906ff1	0.28210405
93	0x3f0c54dc	0.54816985
94	0x4001cc93	2.0281112
95	0x3e219c3a	0.15782252
96	0x3efc3e3b	0.49266228
97	0x3f13b8c5	0.5770381
98	0xbd1322de	-0.035921924
99	0x3f199600	0.59994507
100	0x3f32c976	0.69838655
101	0xbdfc0715	-0.12306038
102	0x3e96a7e6	0.2942497
103	0x3e6c1ea0	0.23058558
104	0xbe3ea5a7	-0.18617879
105	0xbc7b261a	-0.015328908
106	0x3d9cb062	0.0765083
107	0xbdf3556c	-0.11881527
108	0xc025f628	-2.5931492
109	0x3e4b84e7	0.19874917
110	0xc03798e0	-2.8687057
111	0x3ea7e3ab	0.32790884
112	0x3ef7426c	0.48292863
113	0x3f0ed8d1	0.55799586
114	0x3e5574d6	0.2084535
115	0x3f1f2bf7	0.6217646
116	0x3d8c32b5	0.06845609
117	0xbdfe7adf	-0.124257796
118	0x3df2f7eb	0.11863693
119	0xbeaf7360	-0.34267712
120	0x401a4a5f	2.4107893
121	0x3ecd3ade	0.40083975
122	0x3ef845a4	0.48490632
123	0xbd1a3dec	-0.03765671
124	0x3e8d2944	0.27570546
125	0x3e460293	0.1933692
126	0x3f63eb8e	0.890313
127	0x3efeb2f8	0.49745917
128	0xbeca81c9	-0.39552143
129	0x3d6bd41c	0.05757533
130	0x3d21d65b	0.039511066
131	0x3f866133	1.0498413
132	0x405eda78	3.4820843
133	0x3e40d850	0.18832517
134	0xbd9bbd37	-0.07604449
135	0x3e6c0948	0.23050416
136	0xbda9423e	-0.08264588
137	0x3da8f167	0.08249169
138	0x3efe1148	0.4962256
139	0x3eccf298	0.40028834
140	0x3d536578	0.05161044
141	0x3e254603	0.16139989
142	0x3e3d7919	0.18503226
143	0x3e3c7dbc	0.18407339
144	0x3dd8c7a9	0.10584957
145	0x3f003402	0.5007936
146	0x3f3cd545	0.73762923
147	0x403c9fe9	2.9472601
148	0xbe3ed6f8	-0.18636692
149	0x3e0e9b59	0.13926448
150	0xbb40a137	-0.0029392967
151	0x3ef2b808	0.4740603
152	0xc0295964	-2.646081
153	0xc02ec28f	-2.730625
154	0x3eba5698	0.3639419
155	0x3f8b416b	1.0879339
156	0x3ef531a0	0.47889423
157	0x3e229efc	0.1588096
158	0x3f48714e	0.7829789
159	0x3edec55f	0.43509957
160	0x3e5e4f97	0.21710049
161	0x3ed86b98	0.42269588
162	0xbe7d2b02	-0.24723437
163	0xbea4a4fd	-0.32157126
164	0x3eb9d42c	0.36294687
165	0x3f0e17f0	0.55505276
166	0x3cd24676	0.025668364
167	0x3f49d280	0.7883682
168	0x3e352605	0.17690285
169	0x3ebe8c99	0.37216642
170	0x3eab15ed	0.33415166
171	0x3edbfc33	0.4296585
172	0x3f508dbe	0.8146628
173	0x3f0862da	0.53275836
174	0x3ec9c0c0	0.3940487
175	0x3ba1f9f0	0.004943125
176	0x403376b9	2.8041213
177	0x3f08a4c9	0.5337644
178	0xbe918535	-0.2842194
179	0xbdcf6ac4	-0.10127786
180	0xc076e2b9	-3.857588
181	0x40c801e6	6.2502317
182	0x3dee6f02	0.11642267
183	0x3ec5be22	0.38621622
184	0x3e7af199	0.24506225
185	0xbe3bf044	-0.18353373
186	0x3f4a54d3	0.7903568
187	0x3f3f1cfd	0.7465361
188	0xbe3a2402	-0.18177798
189	0x3d00788c	0.031364962
190	0x3dac9a3f	0.084278576
191	0xbee31169	-0.4434922
192	0x3e8655c1	0.262373
193	0x3dad6acb	0.08467635
194	0x3e4efa79	0.20212735
195	0xc08aabe7	-4.333484
196	0x40991122	4.7833414
197	0x3e302a76	0.17203698
198	0xbecc7629	-0.399339
199	0x3ecb0901	0.39655307
200	0x3d7c2018	0.061554044
201	0x3f369bfa	0.7133175
202	0x3eb08c0f	0.34481856
203	0x3e7f0d09	0.24907316
204	0xc01fd047	-2.4970872
205	0x3e6a03a3	0.2285295
206	0x3ed653ed	0.41860905
207	0x3f7b863a	0.9825169
208	0x3e835abc	0.25655162
209	0x3e37fcc7	0.1796752
210	0xc0349685	-2.821687
211	0x3daa60f5	0.08319274
212	0x3e82bdd0	0.2553544
213	0x4030f8ce	2.7651858
214	0xc070470d	-3.7543366
215	0x3efc6d3f	0.49302098
216	0x3f0961d1	0.5366488
217	0x4008e037	2.138685
218	0x3ddea129	0.108705826
219	0x402b8d4b	2.6804988
220	0x3dfb76b5	0.12278501
221	0x3f44fd41	0.76948935
222	0x3e223498	0.15840375
223	0x3e24959b	0.16072695
224	0xbcd4a0c0	-0.025955558
225	0x3ddfb128	0.10922462
226	0x3f26e308	0.6519017
227	0xbe0114e1	-0.12605621
228	0x401f7d04	2.4920053
229	0x3e41ec9c	0.18937916
230	0x40acf5e8	5.405018
231	0x3f2402d5	0.6406682
232	0xbe4d5c0d	-0.20054646
233	0x3f2c0061	0.6718808
234	0x3db5736b	0.08859905
235	0x3f5eaae7	0.86979526
236	0xbe83050c	-0.25589788
237	0xbe5aa936	-0.21353611
238	0x3ce70ed1	0.028205307
239	0x3db40202	0.087894455
240	0x3e82f2ca	0.25575858
241	0x3e8a9b4a	0.270716
242	0x3ef06955	0.46955362
243	0x3ef380d2	0.4755922
244	0x3eb96c46	0.3621542
245	0x3e07d509	0.1326486
246	0x3e8d5071	0.27600434
247	0x404eb745	3.229936
248	0xbe4b68fb	-0.19864266
249	0xbe8beb5e	-0.27328008
250	0x40222964	2.5337763
251	0xbda1e847	-0.079056315
252	0x3eb3d419	0.35122755
253	0x3eada8ec	0.3391794
254	0x3d173a34	0.03692074
255	0x3e1a4810	0.15066552

linear.3.weight f4 [64, 256]
0	0xc10b23ad	-8.69621
1	0x41308165	11.03159
2	0x416e1e37	14.882377
3	0xc0fdd167	-7.931812
4	0xc0a96aa6	-5.2942686
5	0xc129184c	-10.568432
6	0x41067f0d	8.406018
7	0xc1085b46	-8.522284
8	0xc120edcd	-10.058057
9	0x412ab2ad	10.668622
10	0x3ff46bcc	1.9095397
11	0xc0ae33e4	-5.4438343
12	0xc14220c1	-12.132997
13	0x4177a4d8	15.477745
14	0x402386c1	2.5550997
15	0x416b6ea8	14.714516
16	0x4189d800	17.230469
17	0x4153d687	13.239875
18	0xc15ad404	-13.676762
19	0xc129492e	-10.580366
20	0xc1290e17	-10.56594
21	0x416b0bcc	14.69038
22	0x417a1d6d	15.632184
23	0x40f51a0a	7.6594286
24	0xc011120f	-2.2667272
25	0xc17ff879	-15.998162
26	0xc0c92eb6	-6.286952
27	0x412c3277	10.7623205
28	0xc1275d36	-10.460257
29	0x4116540b	9.395518
30	0x40b10902	5.5323496
31	0x40f818a0	7.753006
32	0xbff77825	-1.933354
33	0xc1233732	-10.200975
34	0x411f5cfd	9.960202
35	0xc14fed6e	-12.995466
36	0xc1342f29	-11.261514
37	0xc09b9b98	-4.8627434
38	0x412e3ab9	10.889337
39	0x416078d4	14.029499
40	0x41004e45	8.019109
41	0x400dec4a	2.217547
42	0x40af8509	5.4849896
43	0x400d217e	2.2051692
44	0x414fb7e9	12.9824
45	0xc175fed7	-15.374717
46	0x41416393	12.08681
47	0xc1897d33	-17.186132
48	0x40054d6e	2.082851
49	0x41245ec4	10.273136
50	0xc17b729f	-15.715484
51	0x4130abf4	11.041981
52	0x4160f95d	14.06088
53	0xc0ef646e	-7.4810095
54	0xc11e5a1c	-9.896999
55	0xc14ad395	-12.676656
56	0x41580a4e	13.502516
57	0xc18bfb33	-17.497656
58	0x41563b54	13.389484
59	0x41421e29	12.132363
60	0xc0225e29	-2.536997
61	0xc0025cbc	-2.03691
62	0x411bfc15	9.749043
63	0x401f0120	2.4844437
64	0x4157d697	13.48989
65	0xc0a0714b	-5.0138297
66	0xc131908e	-11.097792
67	0x413131c1	11.074647
68	0xc12b0ecb	-10.691112
69	0x3ff91d7a	1.946212
70	0x400c221d	2.189582
71	0x41529dc3	13.163516
72	0xc146c1b0	-12.422287
73	0x415a3696	13.638327
74	0xc13f5efd	-11.9606905
75	0xc1050b14	-8.315205
76	0x418df711	17.745638
77	0xc144b528	-12.294228
78	0xc0db6a60	-6.856735
79	0xc122e017	-10.179709
80	0x40bd0f32	5.908105
81	0x3f97f393	1.1871208
82	0x414e69fd	12.900876
83	0x413ed3e2	11.926729
84	0xc0f9675f	-7.7938685
85	0x416e1993	14.881244
86	0x41a9241c	21.142632
87	0xc13f2f70	-11.949081
88	0x4120dd1d	10.053983
89	0xc11073cd	-9.028272
90	0x41919e31	18.202242
91	0xc10addc3	-8.679141
92	0x41438037	12.218802
93	0x4180ac06	16.083996
94	0x4009bc61	2.1521227
95	0xc13ca15a	-11.789392
96	0x416b3c79	14.702264
97	0xc14df230	-12.871628
98	0xc125c8c0	-10.361511
99	0x409afba0	4.843216
100	0xbee359ce	-0.44404453
101	0xc140774a	-12.029123
102	0xc180ebae	-16.115078
103	0x40d6228d	6.6917176
104	0xc18db896	-17.71513
105	0xc133ce66	-11.23789
106	0x414efc34	12.936573
107	0xc178fa1a	-15.56106
108	0xc028556d	-2.630214
109	0x415e11ce	13.879347
110	0xc00d8856	-2.2114463
111	0xc157f33a	-13.4968815
112	0x418666aa	16.800129
113	0x41127452	9.1533985
114	0x41388f9b	11.53506
115	0xc13a36e3	-11.6384
116	0x416f81bb	14.9691725
117	0xc15b9fc5	-13.726506
118	0xc0fbf0b8	-7.8731346
119	0xc10a9e57	-8.663657
120	0x401faf26	2.4950652
121	0x41689475	14.536244
122	0x40f56f83	7.6698623
123	0xc15a86bf	-13.657897
124	0xc14f1c22	-12.944368
125	0x404699c1	3.1031344
126	0x413fcccd	11.9875
127	0x416dc2b5	14.860036
128	0x419bd867	19.480665
129	0x415a4202	13.641115
130	0x4102c483	8.1729765
131	0x4178624d	15.523999
132	0x401081e5	2.2579281
133	0xc0c2dc7e	-6.0894156
134	0xc111720b	-9.0903425
135	0xc11f6ae5	-9.963597
136	0xc136ec14	-11.432636
137	0xc107a9bb	-8.478938
138	0x417c98a4	15.787266
139	0x40cd30a3	6.412187
140	0x41944e93	18.538366
141	0x4146db87	12.428596
142	0xc0e71194	-7.220896
143	0x413ef758	11.935387
144	0xc16971c9	-14.59028
145	0x411f41d4	9.953571
146	0x41575a8d	13.459607
147	0x400de5e8	2.2171574
148	0xc1991351	-19.134432
149	0xc14b9bf8	-12.725578
150	0xc11a49a2	-9.642977
151	0xc12344e2	-10.204317
152	0xc015e95b	-2.342368
153	0xc0259f6d	-2.5878556
154	0xc1788ff6	-15.535147
155	0x40e8fd18	7.280895
156	0x4143cfa6	12.238195
157	0xc140ca12	-12.049334
158	0x409e5fef	4.9492106
159	0x417fb147	15.980781
160	0xc131c277	-11.109977
161	0xc1307eab	-11.030925
162	0xc175c905	-15.361577
163	0xc19eaf03	-19.835455
164	0xc1308f78	-11.035027
165	0x415a85b7	13.657645
166	0xc0ee39a8	-7.444538
167	0x416b885d	14.720792
168	0xc11f4e40	-9.956604
169	0x41396021	11.585969
170	0x412a9f08	10.663826
171	0x41576625	13.462438
172	0x4140c76b	12.048686
173	0x4131b333	11.10625
174	0x4135b5bf	11.356872
175	0xc183fb87	-16.497816
176	0x40026a50	2.0377388
177	0xc121b8f2	-10.107653
178	0xc1643ac7	-14.26435
179	0xc124ad83	-10.292361
180	0xbfc2f075	-1.5229632
181	0x3fb559a1	1.4167978
182	0xc1833622	-16.401432
183	0x412791a1	10.473054
184	0x4150ed46	13.057928
185	0x41a76bf0	20.927704
186	0x41551de1	13.319795
187	0x4113a795	9.228414
188	0xc1458a59	-12.346276
189	0xc14e07c9	-12.876901
190	0x415d18b0	13.818527
191	0xc12beab9	-10.744805
192	0xc189bcc5	-17.217173
193	0x418db3d0	17.7128
194	0x40f7152e	7.7213354
195	0xbfe2811a	-1.7695649
196	0x3fef534f	1.8697299
197	0xc0d84d17	-6.7594104
198	0xc151fdb5	-13.12444
199	0x418cac04	17.583992
200	0xc12ae3dd	-10.680631
201	0x4176098c	15.377331
202	0x41328041	11.156312
203	0xc130397e	-11.014036
204	0xc02a8851	-2.66457
205	0x41389764	11.536961
206	0xc17987d0	-15.595657
207	0x4105969a	8.349268
208	0xc185cb45	-16.724253
209	0xc105fb4a	-8.37385
210	0xc006366b	-2.0970714
211	0xc154f463	-13.309665
212	0x41877ac6	16.934948
213	0x3ff54d97	1.9164304
214	0xc00180fd	-2.0234978
215	0x41486ab4	12.526051
216	0x41825f30	16.296478
217	0x4007032d	2.1095688
218	0x41894296	17.157513
219	0x4001084a	2.016131
220	0xc10ee5c7	-8.931098
221	0xc14811b0	-12.504318
222	0x4159d8dc	13.615444
223	0xc170e527	-15.055945
224	0xc12d4213	-10.828631
225	0xc1758199	-15.34414
226	0x4184bc4b	16.59194
227	0x4186f6a1	16.870424
228	0x400998d7	2.1499536
229	0xc13bebb3	-11.745044
230	0x3fa842c2	1.3145373
231	0x41a0d467	20.103712
232	0xc13082b7	-11.031913
233	0x4190a361	18.079775
234	0xc117182d	-9.443402
235	0x4189be12	17.217808
236	0xc18e9035	-17.820414
237	0xc125c0f1	-10.359605
238	0xc10b1e0c	-8.694836
239	0xc104a20b	-8.289561
240	0xc1296ff7	-10.589835
241	0x414a5528	12.64579
242	0xc0f8d0a2	-7.775468
243	0x4156d421	13.426789
244	0x413db168	11.855812
245	0x415527d0	13.32222
246	0xc073bca0	-3.8083878
247	0x40289305	2.6339734
248	0xc15041fa	-13.016108
249	0xc183c026	-16.468822
250	0x400f408a	2.2383142
251	0xc0e18676	-7.0476637
252	0xc14f2ee5	-12.948949
253	0xc12fdeea	-10.991922
254	0xc10c179f	-8.755767
255	0xc1171454	-9.442463

linear.3.bias f4 [64]
0	0x3fc6f2bd	1.5542828
1	0x3fae1ace	1.360193
2	0x3ff418ae	1.9070032
3	0x3fb20073	1.3906387
4	0x3fb57520	1.4176369
5	0x3fb75253	1.4321998
6	0x3f9baf55	1.2162882
7	0x3fac8fe5	1.3481413
8	0x3f9b17e5	1.2116667
9	0x3fa8bce6	1.3182647
10	0x3fa0942d	1.254522
11	0x3f9608a8	1.1721392
12	0x3f9eb195	1.2397944
13	0x3f9c5bbe	1.2215497
14	0x3fa77d25	1.3085066
15	0x3fa1c767	1.2638978
16	0x3faf7a90	1.3709278
17	0x3fb01810	1.3757343
18	0x3fa4dabf	1.2879256
19	0x3f9a1c30	1.2039852
20	0x3fcdd08b	1.6079267
21	0x3fe80265	1.8125731
22	0x3fbdf4f9	1.4840385
23	0x3fbe8047	1.4882897
24	0x3fb19038	1.3872137
25	0x3f867dc9	1.0507137
26	0x3f8c6d8d	1.0970932
27	0x3f89fa66	1.077954
28	0x3f8edcfc	1.1161189
29	0x3fab705e	1.3393667
30	0x3fa68db2	1.3011992
31	0x3fa6800c	1.3007827
32	0x3fcbb716	1.5915248
33	0x3f8ef4d2	1.1168463
34	0x3f8298f1	1.0202924
35	0x3fba19e0	1.4539146
36	0x3f9f1e6b	1.2431158
37	0x3fae056f	1.3595408
38	0x40187c98	2.3826046
39	0x3fa9edeb	1.3275732
40	0x3fad4808	1.3537607
41	0x3f90752e	1.128576
42	0x3fed1127	1.852086
43	0x3facd1b7	1.35015
44	0x3fc71f04	1.555634
45	0x3fab241f	1.3370398
46	0x3f9f2034	1.2431703
47	0x3fc8c705	1.5685736
48	0x402900a8	2.640665
49	0x3fdb3430	1.7125301
50	0x3fb0f532	1.3824828
51	0x3faf4903	1.3694156
52	0x3fbb0b0e	1.4612749
53	0x3fac4896	1.3459651
54	0x3fb69558	1.4264326
55	0x3fa50582	1.2892306
56	0x3f962b1c	1.1731906
57	0x3fb354b9	1.401023
58	0x3f9d6994	1.2297845
59	0x3f9068fd	1.128204
60	0x3f8896dd	1.067104
61	0x3fb3e070	1.4052868
62	0x3f975794	1.1823602
63	0x3f9d32ca	1.2281125

reg.weight f4 [2, 128]
0	0x40cef3b1	6.4672475
1	0xc0b46ebc	-5.6385174
2	0x404a2dfb	3.1590564
3	0xbff7785c	-1.9333606
4	0x4100414f	8.0159445
5	0x40843ae1	4.1321874
6	0xbfe5f32e	-1.7964838
7	0x40e16df5	7.0446725
8	0x4059d424	3.403573
9	0x40964ae1	4.6966405
10	0x4063362f	3.550182
11	0x3d834e96	0.064114735
12	0x3fda4f69	1.7055484
13	0x40ae6245	5.449496
14	0xbfb50651	-1.4142553
15	0xc058c3f6	-3.3869605
16	0x404bc476	3.183866
17	0x405bccdf	3.4343793
18	0x40a631ee	5.193595
19	0x403f5c36	2.990003
20	0x40ace7bb	5.4032874
21	0x408436fc	4.131712
22	0x40dd7e4c	6.921667
23	0x4044f38d	3.0773652
24	0x4071dbfb	3.7790515
25	0x407caadb	3.9479282
26	0x3b287024	0.0025701607
27	0x40f67bf6	7.702632
28	0xbe5e0c4f	-0.21684383
29	0xbfd31073	-1.6489395
30	0xc007104d	-2.11037
31	0x40ee1c6a	7.4409685
32	0x40e84874	7.2588444
33	0x3fe4461e	1.7833898
34	0x40abf224	5.373308
35	0x3d34edb4	0.044172004
36	0x40546e8b	3.319247
37	0x40816ee4	4.0447865
38	0xc005e0c6	-2.091844
39	0x403e88e1	2.9771044
40	0x4042fbc4	3.0466166
41	0x3fdff42c	1.749639
42	0x3da37bf8	0.079826295
43	0x4060ba16	3.5113578
44	0xbfe51aac	-1.7898765
45	0xc0094f3e	-2.1454616
46	0x40804a6a	4.0090837
47	0x40842a8a	4.1301928
48	0x40d2a6d7	6.582866
49	0x4054a798	3.322729
50	0xc05e861d	-3.4769356
51	0x404ca60e	3.1976352
52	0x3d7b7627	0.061391976
53	0x3fbf1014	1.4926782
54	0x40b31318	5.596081
55	0xc05eaa84	-3.4791574
56	0x3fd299a2	1.6453135
57	0x4046e5d0	3.1077766
58	0x3e7aa4fc	0.24476999
59	0x3da75d80	0.081721306
60	0x3db19a64	0.08672026
61	0x3cb2a9c3	0.021809464
62	0x409feb72	4.997491
63	0x40ff3df5	7.976313
64	0x4281b7fb	64.85934
65	0x42837c2b	65.742516
66	0x427cf097	63.23495
67	0x4283d76f	65.92077
68	0xc21d8998	-39.38437
69	0x42839219	65.78535
70	0x4284130a	66.037186
71	0x42838296	65.75505
72	0xc21e9cab	-39.652996
73	0x4283aba3	65.83523
74	0x4283b189	65.84675
75	0x4283efa9	65.96809
76	0x428454fc	66.165985
77	0x42839a03	65.800804
78	0xc21e1d5a	-39.528664
79	0x4284128a	66.03621
80	0x428279c6	65.23784
81	0x4283bd4e	65.869736
82	0xc21e7810	-39.61725
83	0x4283a31e	65.81859
84	0x4283a3bb	65.819786
85	0xc221e880	-40.47705
86	0x4283456e	65.635605
87	0xc21f1f80	-39.78076
88	0xc21d9e94	-39.40486
89	0x4283f80e	65.98448
90	0x4283dd95	65.93278
91	0x4283d4f0	65.91589
92	0x4283db3c	65.92819
93	0x42834532	65.63515
94	0x4283b791	65.85853
95	0x4283bd2f	65.8695
96	0x4281c9db	64.89425
97	0x4283616d	65.690285
98	0x4283f1ea	65.97249
99	0x4283b054	65.84439
100	0x4283e69f	65.95043
101	0xc21e9f23	-39.655407
102	0x42481e42	50.02955
103	0x4283b69d	65.85667
104	0x42839b21	65.802986
105	0x4283c5f1	65.886604
106	0x42830e8b	65.528404
107	0x4283d0f6	65.90813
108	0x42832757	65.576836
109	0x4283b241	65.84815
110	0x4283baa8	65.86456
111	0x42819f2d	64.81089
112	0x42454bac	49.3239
113	0x428367f8	65.703064
114	0xc21d5bc5	-39.33962
115	0xc21e2905	-39.54006
116	0xc21eb60f	-39.67779
117	0x42839ee5	65.81034
118	0x42822562	65.07301
119	0xc21d3671	-39.303165
120	0x428401a7	66.00323
121	0x4283f507	65.97857
122	0x4283b1a2	65.84694
123	0x4283faa4	65.98953
124	0x4283df8a	65.9366
125	0xc21f0a7b	-39.760235
126	0x4283fbfe	65.99217
127	0x4283f857	65.98504
128	0xb9a3e674	-0.00031261484
129	0x3936847b	0.00017406225
130	0xbbaab0d2	-0.005209067
131	0x3dc67e08	0.09692007
132	0x3b9827cd	0.0046434165
133	0xbb037853	-0.0020060732
134	0x3bf400b0	0.007446371
135	0xbb092ec8	-0.0020932425
136	0xbab53c31	-0.0013827143
137	0xbabe1d71	-0.0014504624
138	0x3bb9aeb8	0.00566658
139	0x3d3b1667	0.04567566
140	0xbb89b195	-0.0042020776
141	0x386215c0	5.3902855e-05
142	0xbbabf459	-0.0052476344
143	0xbb8d13d5	-0.0043053427
144	0x3b8e3977	0.0043403464
145	0xbbc075f3	-0.0058734356
146	0xbb1c151d	-0.0023816295
147	0x3c8b31bf	0.016991494
148	0x3a0499c4	0.0005058313
149	0xbc0f167e	-0.00873339
150	0xba0b0d3d	-0.0005304402
151	0xbb954b36	-0.004556085
152	0xbaf74cb4	-0.0018867464
153	0xb92ea030	-0.00016653608
154	0x3e010687	0.12600146
155	0x3a970819	0.0011522799
156	0x3f04dae9	0.5189653
157	0x3afbe3fb	0.0019217724
158	0x3bb17ca0	0.005416468
159	0xbb543250	-0.0032378621
160	0xbaa7ef77	-0.0012812455
161	0xbce1527a	-0.027505148
162	0xba2044ca	-0.0006113766
163	0x3cea2d33	0.028586006
164	0x3b6bbf9f	0.003597237
165	0x3b80933d	0.003923802
166	0xba69b4a8	-0.00089151645
167	0xbcafc143	-0.021454459
168	0xb90df452	-0.00013537824
169	0x3dd5ac4c	0.10433254
170	0xbd87ea38	-0.066364706
171	0x3b1409d4	0.0022588866
172	0xbc0dd6ad	-0.00865714
173	0xbbddb062	-0.0067654112
174	0xbb4be84c	-0.0031113802
175	0x3a66e148	0.0008807373
176	0x3bada69f	0.005299404
177	0x3c115a59	0.008871638
178	0x3afd81cf	0.0019341054
179	0x3a0eed7c	0.0005452258
180	0x3e10f0df	0.14154385
181	0x3c736df0	0.014857754
182	0xbb3ba1cb	-0.0028630372
183	0x3b8ce8b2	0.0043002004
184	0xbd271d0c	-0.040799186
185	0x3b40c4b9	0.002941413
186	0xbea61bd2	-0.324431
187	0xbc108d42	-0.008822741
188	0xbda061a9	-0.07831127
189	0xbe1ccd78	-0.15312755
190	0x3bd22149	0.0064126593
191	0x3aa6eeba	0.0012735941
192	0x3bb2a653	0.0054519563
193	0x3b585553	0.0033009842
194	0xbbec83d9	-0.007217866
195	0xba7a147b	-0.0009539795
196	0x3bc37a0e	0.005965478
197	0xbab349ef	-0.001367865
198	0x3ba6dac8	0.0050919987
199	0xbc41c2c5	-0.011826222
200	0xbc6983cd	-0.014252615
201	0xbaa4bee2	-0.0012569095
202	0xbc61e270	-0.013786897
203	0x3baf3738	0.0053471588
204	0x3bc02e34	0.005864883
205	0x3b6758b3	0.0035300672
206	0xbc0d7d21	-0.00863579
207	0x3a2d9087	0.00066209625
208	0x3b26b31e	0.0025436352
209	0xbc1ce2f8	-0.009575598
210	0x3acad6a7	0.0015475348
211	0x3af84809	0.0018942367
212	0x3695caa6	4.4641374e-06
213	0xbb0ac695	-0.0021175493
214	0xbbf2c7d2	-0.0074090743
215	0xbbfcd0d3	-0.0077153235
216	0x3c11d3ff	0.008900641
217	0x3bb57125	0.0055371695
218	0xbb9e7870	-0.0048361346
219	0xbc0ba3ed	-0.00852297
220	0xbac6035c	-0.0015107202
221	0xbbd30eef	-0.006440989
222	0x3bf1bcfa	0.007377264
223	0x3c1746f2	0.009233223
224	0x3c00b2cf	0.007855131
225	0xbac835f6	-0.0015274871
226	0xbb70621b	-0.003667957
227	0xbbf33294	-0.007421801
228	0x3be19a9e	0.006884887
229	0xbc9337af	-0.017970888
230	0x3a146a3c	0.0005661582
231	0x3bece5dc	0.00722955
232	0x3c8ad0c4	0.01694525
233	0x3c218546	0.009858435
234	0x3abe65b3	0.0014526158
235	0xbc3aea94	-0.011408467
236	0xba87a692	-0.0010349324
237	0xbb9cb795	-0.004782627
238	0xbb8084a7	-0.0039220634
239	0xbc5076c9	-0.012723633
240	0x3b62a347	0.0034582184
241	0xbbd51d40	-0.006503731
242	0x3c3c2e5c	0.011485662
243	0x3cc84f62	0.024451915
244	0x3c89b99e	0.016812142
245	0x3bcbb744	0.0062169153
246	0x3b82424b	0.003975188
247	0xbc2f5fed	-0.010704023
248	0x3c925817	0.01786427
249	0x3bb02840	0.005375892
250	0xbc86b9cc	-0.016446017
251	0x3a1d1a2e	0.0005992976
252	0xbb8007b8	-0.00390717
253	0xbc1ca9b9	-0.009561949
254	0xbabdda7f	-0.0014484673
255	0x3b4e5421	0.003148325

reg.bias f4 [2]
0	0x3ff2477d	1.8928066
1	0x3f036928	0.5133233
