server/model2/value_model_minmax2_noexplore50.pt (torch, 255505 bytes, 12 tensors)

conv.0.weight f4 [4, 1, 3, 3]
000000 fb 45 fb 3f 0e 91 0d 40 da ef 67 40 2a f9 2f 40
       1.9630731 2.2119784 3.6240144 2.7495828
000010 45 5c e2 3f bf 39 76 3f 47 29 10 40 61 65 b9 3e
       1.7684408 0.96181864 2.2525194 0.36210158
000020 eb 10 df 3f 04 e4 6e 3f 07 21 2b 3f 19 c0 3c 40
       1.7427038 0.93316674 0.6684727 2.9492247
000030 b3 81 02 40 68 c2 6e 40 cd 64 ed 3c 1c 69 37 40
       2.0391662 3.7306156 0.02897873 2.8657904
000040 ff 42 19 3f 24 1f 04 40 89 41 d7 bd f5 20 aa 3f
       0.5986785 2.0644007 -0.10510547 1.3291308
000050 c8 bb aa 3f 22 aa e8 3f 78 06 65 40 09 13 90 40
       1.3338556 1.817692 3.5785198 4.5023236
000060 5a 08 f7 3f 93 0e fa 3f d8 bc 17 40 47 9b 43 40
       1.9299424 1.9535698 2.370901 3.0563524
000070 f0 2f 02 40 d1 92 43 40 e4 1c 3a 40 68 11 2e 40
       2.0341759 3.055836 2.9080133 2.7198124
000080 18 5a f4 3f 5a 4d fe be e1 d4 1f 40 cd 16 56 bd
       1.9089994 -0.4966839 2.497368 -0.05226784

conv.0.bias f4 [4]
000000 8d fc f5 3f d0 00 a9 3f 03 7d cc 3f 11 d7 f0 3f
       1.9217697 1.3203373 1.597565 1.8815633

conv.2.weight f4 [4, 4, 3, 3]
000000 85 54 f2 3f 3a d1 3b 40 e1 ef 0a 40 10 fe 22 40
       1.8932043 2.9346452 2.170891 2.5467567
000010 e2 6c 09 40 6e 45 0a 40 a8 38 bf 3f 51 68 19 40
       2.1472707 2.1604877 1.4939165 2.396992
000020 20 77 ba 3f 6f 53 17 40 07 91 14 40 51 6c 2a 40
       1.4567604 2.3644674 2.3213518 2.662861
000030 9e e3 3f 40 3f 32 98 3f cf b3 10 40 a4 83 90 3f
       2.9982677 1.1890334 2.2609746 1.1290174
000040 c8 90 10 40 b1 99 35 3f 66 90 c3 3f 16 5c 5d 40
       2.2588367 0.7093764 1.5278442 3.4587455
000050 32 2a 08 40 c6 4a 26 40 55 04 12 40 7d b5 db 3f
       2.1275754 2.5983138 2.2815144 1.7164761
000060 a9 b6 08 40 6a 09 b4 3f 52 c8 ec 3f c3 8b 26 40
       2.1361487 1.4065373 1.8498633 2.6022804
000070 dc fb 29 40 e5 44 18 40 f7 5e 15 40 1b fc 11 40
       2.6559973 2.379205 2.3339212 2.2810123
000080 d1 b8 17 40 93 f3 e7 3f 10 f4 03 40 e1 68 af 3f
       2.3706553 1.8121208 2.0617714 1.3703882
000090 4c 0a 04 3f 4b 16 d0 be 6e bb a4 c0 a3 2a f3 3f
       0.5157821 -0.40642008 -5.1478796 1.8997387
0000a0 24 98 d0 3f 35 f0 73 bf 13 67 01 40 a0 45 89 3f
       1.629643 -0.952884 2.0219162 1.0724373
0000b0 a3 6b 98 bf 21 8d 57 be ad 78 08 40 dd b7 85 c0
       -1.1907848 -0.2104993 2.1323655 -4.1786942
0000c0 5c bc a8 3f 3f 60 de 3f 34 b4 d8 bf 14 15 05 bf
       1.3182483 1.7373122 -1.6929994 -0.5198529
0000d0 8a 22 f2 3d 74 9e 81 bf 6e 18 a6 3f a6 fe e3 3f
       0.11822994 -1.0126481 1.2976205 1.7812088
0000e0 98 dc f0 be 28 fb e1 3f 56 cc 06 3f 69 ef 9b c0
       -0.470433 1.7654772 0.5265554 -4.872975
0000f0 cc 84 8b 3f 33 4e 05 be 69 ff cf 3f 6e 2e 9d 3f
       1.0899901 -0.13018112 1.624982 1.2279794
000100 94 06 d7 3c 7d ab fc bf a6 98 03 40 37 ea 19 40
       0.026248254 -1.9739834 2.056192 2.4049203
000110 95 df 6b c0 2a a9 2d 40 fd ae e7 3f 4b 4f 24 c0
       -3.6855214 2.71345 1.8100277 -2.5673397
000120 58 58 2e 40 a8 bd 37 40 d2 b9 ad 3f 3a b9 09 40
       2.724142 2.8709507 1.3572333 2.1519303
000130 48 e1 02 40 45 04 a6 3f ed 9e 9c 3f c9 72 91 3f
       2.045 1.2970053 1.2236 1.1363155
000140 a3 0d fc 3f d5 a3 4f 40 3e de 3a 40 2c f5 91 3f
       1.9691662 3.2443745 2.9198146 1.1402946
000150 eb 6f 08 40 36 68 04 40 91 87 2e 3f f7 fd dc 3e
       2.131831 2.0688605 0.6817561 0.4316251
000160 d6 83 4d 3f 12 41 d6 3f 35 bb 24 40 2c c7 4a 40
       0.8027929 1.6738608 2.5739262 3.1684065
000170 4f 10 9e be 43 68 c7 3f ba 83 00 40 cb 75 ba 3f
       -0.30871817 1.5578693 2.00804 1.4567198
000180 8f f1 10 3f 4e de 16 3f 53 82 86 3f ec 11 45 40
       0.5661859 0.5893296 1.0508522 3.0792189
000190 7e c0 3d 40 12 81 a2 3f a5 2b 0c 40 7b 5e 26 40
       2.9648738 1.2695639 2.1901639 2.5995166
0001a0 ec cb 39 40 44 cf 6f 3f 0d b2 51 3f 65 00 ac 3f
       2.9030714 0.9367564 0.8191231 1.343762
0001b0 f4 09 d3 3f 86 8e 44 40 a5 41 90 3f 4c 94 1a 40
       1.6487412 3.071199 1.1270033 2.4153013
0001c0 55 f2 15 40 15 67 c7 3f 0f 79 ef 3f 3c d3 0f 40
       2.3429158 1.5578333 1.8708819 2.2472677
0001d0 68 de bc 3f d8 1d bf 3f cd 41 44 40 79 91 08 40
       1.4755373 1.4930983 3.0665162 2.133879
0001e0 9f 80 12 40 33 73 37 40 be c3 8d 3f b7 51 db 3f
       2.2891004 2.8664062 1.1075361 1.7134312
0001f0 62 c7 f1 3f 90 0a bb 3f 5b bf e7 3f 86 8b 6e 40
       1.8888972 1.4612598 1.8105272 3.7272658
000200 ca 30 de 3d d1 8a 41 40 59 13 29 40 83 87 9c 3f
       0.108491495 3.0240977 2.641806 1.2228855
000210 db e9 c9 3f 03 1e d6 3f 3a 2b 8d 3f f6 c5 06 40
       1.5774492 1.6727909 1.1028817 2.1058326
000220 4d d2 13 40 5d 5f cd 3f 32 c6 29 40 4d a5 2d 40
       2.3097107 1.6044728 2.652722 2.7132142
000230 94 ec 16 40 5d 81 b4 3f 58 b8 ed 3f b5 cf c4 3f
       2.3581896 1.4101979 1.8571882 1.5375887

conv.2.bias f4 [4]
000000 83 a3 f7 3f 10 9c 9d 3f 30 0f d0 3f 33 ee c3 3f
       1.9346775 1.2313251 1.6254635 1.5307068

conv.5.weight f4 [64, 36]
000000 d6 da a0 be d5 66 a0 3d d9 6e 5f 3f bd 37 46 bf
       -0.3141696 0.07832114 0.87278515 -0.774288
000010 ef dd a0 3e 14 2e 71 3f a5 a0 a7 be a7 8e 90 be
       0.31419322 0.94210935 -0.3273975 -0.28233835
000020 15 4b 45 3f d2 2d 5d 40 bc 7e 75 3e 01 7b bd 3f
       0.7706769 3.4559216 0.23974127 1.4803163
000030 09 b8 cd 3f 79 68 ee bf 9e 43 96 3f cc c9 13 c0
       1.6071788 -1.8625633 1.1739385 -2.3091917
000040 46 a5 3e c0 f1 03 cd 3e c3 ae 07 bf be 72 2b bd
       -2.9788375 0.4004207 -0.5300104 -0.041857474
000050 d7 ea 33 3f ab a9 28 be 43 d1 3e be e7 e2 a7 3f
       0.7028021 -0.16470973 -0.18634515 1.311612
000060 bd dc f4 be 03 61 c3 bd c2 dc 70 3f 96 25 04 bf
       -0.4782466 -0.09539988 0.9408685 -0.5161985
000070 b0 a7 cd 3a 9f d1 63 3f 78 3b d1 be 1a f3 f9 3d
       0.0015690234 0.8899173 -0.40865684 0.12204571
000080 7e 5e aa 3f b7 93 34 bf dd 3f e4 bd 26 6a 64 3f
       1.3310087 -0.70537895 -0.111449935 0.8922447
000090 e3 3b 6b 3d 8d 2c 98 be 7c e6 0b bf 92 8f 53 3e
       0.05743016 -0.2972149 -0.54648566 0.20660236
0000a0 42 35 31 3e 9d 2a 08 3f 37 cc d2 bd 9c f4 54 bd
       0.17305472 0.5319002 -0.10292857 -0.05199109
0000b0 1b 13 26 3f cc 89 97 3f cf 2d 9b c0 c4 f4 13 bf
       0.648729 1.1838927 -4.849342 -0.5779536
0000c0 c3 a5 1f be 7d 36 1c 3f f2 9b d2 bc b6 3a 1e 3f
       -0.15590577 0.6102064 -0.025709126 0.61808336
0000d0 7d c2 48 3f b6 d6 f2 be 1d cf 09 be 70 56 4e be
       0.78421766 -0.47429436 -0.13457914 -0.20150161
0000e0 00 67 5c be d0 0d 8a 3d 3b 58 66 3e 2b 69 99 3e
       -0.21523666 0.06740916 0.22494595 0.2996305
0000f0 15 03 a0 3d 70 7a da 3d 49 7b b2 bb a9 e6 1a be
       0.07813088 0.10667884 -0.0054468256 -0.15127052
000100 8f 0a be bd 76 37 e4 be 19 f6 a0 3e d9 8d 2d bd
       -0.09279358 -0.44573563 0.31437758 -0.042371605
000110 0d 1e c5 be 53 65 01 be f6 05 31 3e 1c 52 04 be
       -0.3849949 -0.12636308 0.1728743 -0.12921947
000120 c3 db 86 3f b9 4a d3 3f 81 b7 0f 40 2e b2 b0 3f
       1.0535816 1.6507179 2.2455752 1.3804376
000130 de 23 d4 3f 23 8d d0 3f d0 99 a7 3f 15 b3 de 3f
       1.6573446 1.6293072 1.3093815 1.7398401
000140 56 81 cb 3f 4f fe 48 3f a5 ec 54 40 39 43 f1 3f
       1.5898845 0.78513044 3.3269436 1.884864
000150 d0 4a 6a bf 99 cb 1a 40 e6 41 fb 3f 38 2a c7 bf
       -0.91520405 2.4186766 1.9629486 -1.5559759
000160 b5 5a 37 3f 03 e4 a3 3f 3c 1e 08 3f fe 67 a0 3f
       0.7162278 1.2803959 0.53171134 1.2531736
000170 33 52 16 3f 2e 91 15 40 1b 35 d3 3f 78 3c 14 40
       0.58719176 2.336986 1.6500582 2.3161907
000180 c1 c4 19 40 26 0d ea 3f 9d c4 b7 3f 4c 1b 26 40
       2.402634 1.8285263 1.4356877 2.595416
000190 85 2c c8 3f 3f 2a f8 3f 3e b9 04 40 55 63 5c 3f
       1.5638586 1.9387892 2.0738063 0.8608907
0001a0 ba dc 8a 3f c8 cb a2 3f 08 54 88 3f 04 7a 97 3f
       1.084861 1.2718439 1.0650644 1.1834111
0001b0 e0 be 86 3e 74 b9 c5 3d fb 80 14 bf 9e 22 dc 3d
       0.263175 0.09654513 -0.5800931 0.1074879
0001c0 46 5a a8 bc d2 6d 01 3d bf 49 1a bd 32 ab ca bd
       -0.020550858 0.031598873 -0.037667986 -0.09895934
0001d0 ff 16 0e 3e d1 f5 19 be 5b 86 54 3e 48 48 e0 3e
       0.1387596 -0.15035178 0.20754378 0.43805146
0001e0 50 b8 2f bd 24 6b a4 3d 0e 2a 26 c0 34 a8 38 3e
       -0.042900383 0.08028248 -2.5963168 0.18032914
0001f0 9d 5a 92 3c f7 42 05 3f 1d d9 58 3d ff c4 5c be
       0.017865473 0.52055305 0.05294143 -0.21559523
000200 c7 cd 66 3e 4b e3 72 be cc 10 da bd 2c 67 e6 bf
       0.22539435 -0.23719518 -0.10647735 -1.8000236
000210 55 37 2f be b8 74 af 3d 64 d5 07 40 b4 b4 24 be
       -0.17110951 0.08567184 2.1223993 -0.16084558
000220 6a 4d 17 bd 04 3c 0e be ef 01 e3 3d 25 b9 1d bd
       -0.036939062 -0.13890082 0.11084353 -0.038506646
000230 0d 97 28 3b 0f 77 9e bd d3 3a 40 3d a3 96 33 3e
       0.00257248 -0.077375524 0.0469311 0.17537932
000240 18 04 54 3f 85 32 be 3e 8b 53 1e bf c7 9a 36 3f
       0.82818747 0.37147918 -0.61846226 0.7132992
000250 a0 bc 1e 3e bf 1c 5d bf 4f d3 1a be 2e 08 d4 3d
       0.15501642 -0.8637199 -0.1511967 0.10353123
000260 14 e3 c4 bf 0a 89 56 c0 85 44 24 40 37 9f 5e bf
       -1.5381799 -3.3521142 2.566682 -0.8696169
000270 7a b0 92 bf 8b 26 7e 40 d9 00 04 c0 9e 8d d8 3d
       -1.1460106 3.9711025 -2.0625517 0.10573886
000280 75 89 2a 40 0d b7 dc bf 17 98 9b 3e 2a 13 b8 bd
       2.6646397 -1.7243363 0.30389473 -0.0898803
000290 10 d2 87 be 3a c7 28 3f 3b 06 d0 3e bc 98 d2 bf
       -0.26527452 0.65928996 0.40629753 -1.6452861
0002a0 7c 49 95 3f 6a c3 b8 3f 0e 8b 1d c0 69 a8 63 3f
       1.1663051 1.4434636 -2.4616122 0.8892885
0002b0 16 f5 c4 3e b7 56 a4 bd af b3 8c 3f 6a 44 70 3c
       0.38468236 -0.08024352 1.0992335 0.014664749
0002c0 6f 37 1f c0 47 45 56 3f c9 52 a5 3e c8 92 3e c0
       -2.4877584 0.8369946 0.32289723 -2.9777088
0002d0 1c 3b c1 3f 5a 2a a2 3f e2 50 bb 3f 3f 16 4e 3f
       1.5096164 1.2669175 1.4634058 0.80502695
0002e0 ea 9d e4 3f 43 c3 99 3f 19 56 1e 3f 77 fa 8c 3f
       1.7860692 1.2012714 0.61850125 1.1013936
0002f0 79 a8 e4 3f 91 69 ab 3f 94 d3 5c 40 42 d0 55 3d
       1.7863914 1.3391591 3.4504137 0.052200563
000300 14 d9 87 bf 41 77 06 40 3a 52 3a 3f 8b 83 4a c0
       -1.0613122 2.1010287 0.7278172 -3.1642787
000310 c2 8a 02 bf 12 7a 51 3f c1 4b 30 3f f8 68 95 3f
       -0.5099298 0.8182689 0.6886559 1.1672659
000320 8d 75 d8 3f 2c b8 d6 3f 93 24 89 3f b3 4c d8 3f
       1.6910874 1.6774955 1.0714287 1.6898407
000330 b8 fd b4 3f f9 d5 a1 3f a7 c8 c9 3f 2e 8f 55 3f
       1.4139929 1.2643424 1.5764359 0.834216
000340 29 d2 88 3f 37 bf e4 3f 23 ab a5 3f a6 54 96 3f
       1.0689136 1.7870854 1.2942852 1.1744583
000350 1e 17 76 3f 7f 38 44 3f 95 fb ad 3f 79 00 be 3f
       0.96129024 0.76648706 1.3592402 1.4843894
000360 92 f8 3f be 9b 81 1a 3d 96 d8 b0 be cf 84 59 3d
       -0.18747166 0.037721258 -0.34540242 0.05310517
000370 25 d2 a3 3d 0e 82 d8 bc 65 f8 89 3e f1 a8 a6 bc
       0.07999066 -0.026429202 0.26947322 -0.02034423
000380 13 60 09 3d 44 04 34 be 45 d6 34 c0 e2 19 8b be
       0.03353889 -0.17579752 -2.825578 -0.27168185
000390 42 42 82 3e 4b 89 ed bf 42 dd 0d 3f 47 4a 03 40
       0.25441176 -1.8557523 0.5541574 2.0514085
0003a0 dc 91 37 3f 70 ab 64 3d 6a d5 19 3f bd 2a b7 3e
       0.7170694 0.055827558 0.6009127 0.35774794
0003b0 9a 6f f1 bd 43 72 4f bd 09 38 43 3d 69 ac 9b 3d
       -0.117888644 -0.050646078 0.04766086 0.07601244
0003c0 67 49 c4 bd 30 b5 69 be 12 52 35 bf 80 fd 96 3e
       -0.09584313 -0.22823024 -0.70828354 0.2949028
0003d0 9a 7c 80 3d 08 08 e1 be a5 4e 15 bd 5c 5b 7e 3d
       0.06273766 -0.4395144 -0.036451954 0.062098846
0003e0 04 c9 67 bc e7 fa 30 3e ce c0 af 3d 72 5b ae 3d
       -0.014147047 0.17283212 0.085816965 0.085135356
0003f0 6e 9c fa 3e 49 d8 9c 3e 9a 72 e6 be 93 bf 0e 3f
       0.4894747 0.30633762 -0.4500931 0.5576107

conv.5.bias f4 [64]
000000 a7 86 b6 3e 5f b9 84 be 19 b8 65 3f 59 48 62 be
       0.35649607 -0.25922677 0.89734036 -0.22097911
000010 da 7a 3a be 41 f3 82 3f 66 f2 23 3e 8e d5 8f 39
       -0.18210927 1.0230485 0.16010436 0.00027434196
000020 79 4e 8c 3f 42 57 6f 3f 02 18 81 3f a1 e4 54 c0
       1.0961448 0.9349252 1.0085452 -3.3264544
000030 73 f2 20 bf 80 55 d9 3e 32 a2 5d be 26 07 18 bf
       -0.6286995 0.42448044 -0.21643904 -0.5938591
000040 80 3b c5 3f 71 de 44 3f 1e 86 36 bd 56 64 c2 3f
       1.5408783 0.7690192 -0.044561498 1.518687
000050 fc 9c 2b c0 cf ad 8e 3f 0c c3 b8 3d f1 ac 97 3f
       -2.6814566 1.1146792 0.09021577 1.1849653
000060 3d 0e 52 3f eb 5e 23 3f 73 41 20 bf 51 ca 2c c0
       0.82052976 0.6381671 -0.6259987 -2.6998484
000070 a2 1c c7 be 83 23 fa be a9 65 20 3f b5 1b 0e bd
       -0.38889033 -0.48855218 0.6265512 -0.034694392
000080 c7 40 3c bc aa 93 d7 bd 9e f6 b6 3e 2b d8 54 be
       -0.0114900535 -0.105262116 0.3573503 -0.20785587
000090 7f 8c 88 be 10 ac ef bf 0a d3 80 3e 8f f2 be 3f
       -0.2666969 -1.8724384 0.2516101 1.4917773
0000a0 bd 69 b4 3f d9 9e ee bd 97 36 1a be 40 ca 8b 3f
       1.4094769 -0.116513915 -0.15059887 1.0921097
0000b0 0f 20 9a bd b8 a5 20 bf 1d a8 5f 3f 16 35 ae 3f
       -0.07525646 -0.62752867 0.87365896 1.360995
0000c0 73 89 aa bc 3d 10 6d 3f 1f fc 8c be 3f ed 9b 3f
       -0.020817494 0.926029 -0.27536103 1.2181777
0000d0 4b 25 19 bf b0 7f cd be 11 ac 4b be 5c d3 ea be
       -0.5982253 -0.4013648 -0.19889857 -0.4586438
0000e0 58 52 5a be dc 21 bb 3f e7 0e 55 bf 4e 54 b3 be
       -0.21320474 1.4619708 -0.83225864 -0.35025257
0000f0 1c 93 42 bf b7 59 1e bf 75 f1 6c 3f 9e 5c c3 3d
       -0.7600572 -0.61855644 0.92555934 0.0953915

linear.1.weight f4 [256, 169]
000000 00 47 c1 3b 3a e0 20 3d 0a 75 72 3d 1e be 5d 3d
       0.0058983564 0.03927634 0.05919365 0.054136388
000010 a8 26 d1 bc b6 2c b5 bc 74 0c 01 3d 34 d2 1d 3d
       -0.025531128 -0.022116046 0.031506017 0.038530543
000020 c6 57 56 3d f1 b3 a5 3f b8 7c 78 3c 70 6a 39 bc
       0.0523298 1.2945539 0.015166454 -0.011316881
000030 f0 d2 03 3d b6 df 46 3d 40 e9 09 bb f8 51 6f bc
       0.032183588 0.04855319 -0.002104357 -0.014606945
000040 90 95 ce 3b 54 ef 34 bd c0 52 9a bd 40 b7 aa bc
       0.0063044503 -0.044173554 -0.075353146 -0.020839334
000050 dd 5c 97 3d 29 af 01 c0 40 69 c9 bd f0 5f 4e 3c
       0.07390759 -2.026316 -0.09834528 0.0125961155
000060 94 71 82 bd 78 bb 86 bd ec 2a 8b bc 18 fd 1c 3d
       -0.063693196 -0.065787256 -0.01698824 0.038327307
000070 40 40 d0 3c 40 1e 32 bb c4 f8 f3 3c 80 2c 2b ba
       0.025421262 -0.0027178675 0.029781707 -0.00065297633
000080 2a 2a 36 bd f3 dd 80 3f cf fc f5 be b9 62 ae bf
       -0.044473805 1.0067734 -0.4804444 -1.3623878
000090 64 ab a0 3c 10 bd ab 3c d4 71 2e bd 2e b0 7e 3d
       0.019612975 0.020964175 -0.042589024 0.062179737
0000a0 9c cb 32 3d dc 49 64 bd d3 bd c5 be 7f 72 94 bf
       0.04365121 -0.0557345 -0.38621387 -1.1597441
0000b0 21 57 62 3d be 88 53 3e 99 39 33 bf 7a 43 27 bf
       0.055258874 0.20657632 -0.7000976 -0.65337336
0000c0 57 88 48 3e ab 69 97 be 91 02 b7 be f2 91 df be
       0.1958326 -0.29572806 -0.35744146 -0.43666035
0000d0 3e 54 25 3d 92 19 4d 3d d8 b2 04 bc 5e 40 1e 40
       0.040363543 0.050073214 -0.00809928 2.4726787
0000e0 56 58 81 3e 25 75 eb 3f a9 47 60 be 51 fe c0 be
       0.25262707 1.8395125 -0.21902336 -0.37694028
0000f0 35 27 06 bd 50 b7 24 bf 8e 54 6c 3e dd b7 d9 be
       -0.032752234 -0.6434221 0.2307913 -0.4252309
000100 d2 d9 53 bd a2 32 d3 bc 96 b6 41 bd 25 f9 1d bd
       -0.0517214 -0.02578098 -0.04729327 -0.03856768
000110 c6 d4 89 c0 44 37 85 bf 2f 58 35 40 3d 13 9b 3f
       -4.3072233 -1.0407491 2.8335073 1.2115246
000120 91 72 b9 3f f3 15 05 40 62 be a4 3e 88 8e ad be
       1.4488088 2.0794647 0.321765 -0.33897805
000130 8a 1f 58 bd 80 c3 01 3d 64 66 ed 3c 60 d0 12 bd
       -0.052764453 0.031680584 0.028979488 -0.035843253
000140 40 fe e8 3c 04 64 49 3e 0f 67 a1 bf 6d 92 47 bc
       0.028441548 0.19667059 -1.2609576 -0.012180907
000150 23 a7 82 bf ef 43 4d be d8 74 c2 bf 2b bf eb 3e
       -1.0207256 -0.20045446 -1.5191908 0.46044287
000160 46 56 21 3d 2e dd 4f 3d 54 a2 08 bd 85 98 11 bd
       0.039388917 0.050748043 -0.033357933 -0.035545845
000170 7a a6 99 bd 61 03 21 3f d7 38 ee be e1 02 26 3b
       -0.07502456 0.6289578 -0.4652774 0.0025331306
000180 ea fe 01 40 74 53 67 3f 5d cb 95 bd 5e cc d4 bf
       2.0311837 0.90361714 -0.07314179 -1.6624868
000190 ea f6 04 c0 0e 6b 5d 3d 40 ab 72 bd 50 d6 8e bc
       -2.0775704 0.054057173 -0.059245348 -0.017436177
0001a0 08 7e 3f bc bb 52 e9 3e 5d 51 9f 3e 78 e2 06 40
       -0.011687763 0.4557093 0.31116763 2.1075726
0001b0 52 f5 59 be 12 e3 42 3f 3e 71 ae 3f 62 44 b4 3f
       -0.21284989 0.7612773 1.3628309 1.4083369
0001c0 38 02 2e 3f 58 f9 06 bf 30 e7 d8 3c bc 3a 3f 3d
       0.67972136 -0.5272422 0.026477426 0.046686873
0001d0 24 46 de bc 28 f9 e7 3f c2 b9 f5 bf 16 e7 13 3f
       -0.027133055 1.8122911 -1.9197314 0.57774484
0001e0 f4 0a ea bf ac 31 24 3e 5b 8a 20 bf 93 09 9e be
       -1.8284593 0.16034573 -0.62711114 -0.3086668
0001f0 5b 71 8c bf c5 f6 d4 be fe ac 3d 3d d6 52 6b 3d
       -1.0972093 -0.4159452 0.046307556 0.057452045
000200 88 32 02 bd e1 80 8b 3d 6e cf 4c 3d 76 7b de bc
       -0.03178647 0.06811691 0.050002508 -0.02715848
000210 e7 2a 82 3d 24 44 9a 3e a1 45 03 40 2b cf b0 3f
       0.06355839 0.30130112 2.0511248 1.3813223
000220 4a 28 18 bd 72 41 4d 3d 18 3d 2d 3c 80 92 38 bc
       -0.037147798 0.05011124 0.010573648 -0.011265397
000230 bb 6d 00 bd 02 78 78 3d f7 7d 8d 3d 6a 5a 2d bd
       -0.031354647 0.060661323 0.069087915 -0.042322554
000240 28 ff 1c 3d 2a 5b 3c 3d 31 4f 37 3e e7 2c 9a 40
       0.038329273 0.04598538 0.17901303 4.8179812
000250 ec f6 e5 3c 40 11 8b 3b a0 12 2b 3c 78 2c 1f bc
       0.028071843 0.0042439997 0.010441452 -0.009715192
000260 54 71 f4 3c e6 63 79 3d 36 95 49 3d 8a 91 03 3d
       0.029839195 0.060886286 0.049214564 0.03212122
000270 74 97 79 bd f8 9b 90 3c 46 68 3c bd 88 41 2b 3c
       -0.060935453 0.017652497 -0.04599788 0.010452636
000280 bc 3f 01 3d 50 82 eb bb 9f 01 92 bd 76 9f 6a 3d
       0.031554922 -0.0071871653 -0.071292154 0.05728098
000290 99 64 49 bd e8 27 b4 3c 0a 4d 4b 3d e4 7e 95 3c
       -0.049168203 0.021991685 0.049634017 0.018248983
0002a0 70 d6 1d 3d be c3 6d 3d 0f 80 8e bd d6 61 8a bd
       0.03853458 0.058048002 -0.06958019 -0.06756942
0002b0 38 08 38 3c 28 ba e9 3c 5d 06 8e bd d8 84 5a 3c
       0.011232428 0.028531149 -0.069348074 0.0133373365
0002c0 7b 94 16 bd 95 0b 8b bd fc ae 9a 3f e8 1c 3c 3d
       -0.036762696 -0.067893185 1.2084651 0.045926005
0002d0 60 5f 17 bb 06 21 54 bd d4 1d b6 bc 50 a8 22 bc
       -0.002309762 -0.051789306 -0.02223102 -0.009927824
0002e0 14 74 a0 bc be d6 22 3d 32 3c 8e bc 96 56 5b bd
       -0.0195866 0.039755575 -0.017362688 -0.05354937
0002f0 e6 d1 3d bd bb 58 80 3d b6 56 96 3f 28 34 a9 3f
       -0.046342753 0.06266924 1.1745212 1.3219042
000300 59 12 08 bd ac ed 9a 3c e6 6e 7b bd 19 93 75 bd
       -0.033220623 0.018912159 -0.061385058 -0.059954736
000310 7a 28 6b 3d 80 b2 7e 3a 6c 7f c0 bc 40 0b db 3c
       0.05741165 0.00097159296 -0.02349826 0.026738763
000320 1b 86 1f bd 90 62 ee bb 41 5a 16 c0 64 d4 ae 3f
       -0.038946252 -0.007274933 -2.3492587 1.3658566
000330 b4 0d 3b bf 2c 26 93 3c 40 29 da 3c 80 49 4f 3b
       -0.73067784 0.017962538 0.026630998 0.0031629503
000340 a0 25 8d 3b 20 5c 0f 3d e8 94 8c bc 42 51 94 3d
       0.0043074638 0.034999967 -0.017160848 0.07242061
000350 cf a5 1b bf 1b e9 97 bf 81 74 b1 3e d7 86 b2 be
       -0.6079988 -1.1868013 0.34659198 -0.348685
000360 a7 80 66 3f 34 80 3e 3e 9d 7e 67 3f 5a 4e 89 bf
       0.9004006 0.18603593 0.9042757 -1.0727036
000370 55 ff a3 3f b2 01 36 bd 3c b1 df bc cd f4 78 bd
       1.2812296 -0.04443521 -0.027306192 -0.060780335
000380 b3 34 b0 be 0f 95 0b bf 8b c6 59 3d f6 fd 17 c0
       -0.34415206 -0.5452432 0.05316786 -2.3748755
000390 33 7b 95 3f 06 c6 31 bf 52 78 c3 3f 1f e5 82 3e
       1.1678222 -0.69442785 1.5271094 0.2556543
0003a0 b8 01 fb bf 1e 2a 2a bd d6 58 5c 3d 8a c4 f2 bc
       -1.96099 -0.041544072 0.053795658 -0.029634733
0003b0 b9 55 46 bd 3f 8c a4 bf b6 c4 ae 3c 3a a8 5a bf
       -0.048421595 -1.28553 0.021334033 -0.85412943
0003c0 56 46 2e 3f d3 24 65 3f 53 f5 8a 3f f3 2a 0a bf
       0.68076074 0.89509314 1.0856117 -0.53971785
0003d0 fe 9a 16 40 3b ad 27 bd 9b 37 8a 3d 9e 96 b1 bc
       2.35321 -0.04093669 0.06748887 -0.021678265
0003e0 3e f7 21 3d 76 c3 47 3d 59 cb 7e 3f 5c e1 90 3f
       0.03954243 0.04877039 0.99529034 1.1318774
0003f0 07 0b cb be de 32 6d 3f ce 93 ab 3e 3a 61 30 40
       -0.3965685 0.9265574 0.33511204 2.7559342

linear.1.bias f4 [256]
000000 d0 de 4e 3d b5 ad de 3e 34 e9 10 3f 9a 92 30 3e
       0.05050546 0.43491903 0.5660584 0.17243424
000010 43 12 4d 3e f2 2f 34 be 3a a9 55 3f f9 b0 ff bd
       0.20026498 -0.17596415 0.83461344 -0.12484927
000020 07 0e 6e be 9e a5 81 3e 20 f3 45 40 67 95 25 3d
       -0.23247539 0.25321668 3.0929642 0.040425684
000030 6a 42 ab 3e c3 f8 be 3e e9 d0 be 3f 23 2c 1b 3e
       0.33449107 0.37299165 1.4907504 0.15153556
000040 89 6a 44 3e 4f b6 ef 3e 05 29 a9 3d 38 52 71 be
       0.19181265 0.46818778 0.08259777 -0.2356652
000050 a2 b8 96 be 8a e9 b9 3e 4d 8a 46 3e 8d ce cc 3e
       -0.2943774 0.3631099 0.19388695 0.40001336
000060 4b 6b ec bf 0a 0d bc 3d 4c 96 69 3e 2c 53 23 3f
       -1.8470243 0.091821745 0.2281124 0.63798785
000070 f1 b4 d6 be 12 a5 04 3f 12 e7 0b 3f 8b 5f 37 3f
       -0.41934922 0.5181438 0.5464946 0.7163016
000080 e5 8f 07 c0 36 54 5e 3c e8 99 41 3f a2 a6 d8 bc
       -2.1181576 0.013569882 0.7562547 -0.026446644
000090 13 f8 07 3e 59 66 3a 3e 7d b7 a4 3e 8b 97 64 3e
       0.13278227 0.18203105 0.3217124 0.22323434
0000a0 fb 6c 2a 3f 00 3d 32 40 0f 19 c0 3e 1c 22 d4 3f
       0.6657254 2.7849731 0.37519118 1.6572909
0000b0 f6 d2 03 3f de fe 8a be f5 40 0f 3f e4 7b b3 be
       0.51493776 -0.27147573 0.5595849 -0.3505546
0000c0 97 ca e1 3f 1a 6d 3b 3e 3c c2 c5 3e 8d 41 24 3f
       1.763995 0.18303338 0.38624752 0.6416252
0000d0 09 5c 01 3f 3f f4 54 3e a2 90 a6 3e c2 04 03 3e
       0.5053106 0.20796297 0.3253222 0.12794784
0000e0 4c 00 24 3e 29 29 0c 3d 33 40 8c 3e 67 d8 0a 3f
       0.16015738 0.03421894 0.2739273 0.54236454
0000f0 42 85 d6 bf 0e 52 32 c0 1e b4 40 3f 54 72 d3 3f
       -1.6759417 -2.7862582 0.75274837 1.6519265
000100 9b 09 1c 3f d5 a3 cd 3d cb 58 51 bd 73 c4 9a 3e
       0.60952157 0.10041014 -0.05111007 0.30228004
000110 81 dc 4a 3e b1 6e 03 40 0e 1f 4d 40 2d f9 07 3d
       0.19810678 2.053631 3.2050204 0.033196617
000120 39 a2 2e 3e bd 9b 52 3e 76 0a 91 bc d0 dc a5 bc
       0.1705407 0.20567222 -0.017705183 -0.020246893
000130 4c 57 cf 3e 88 ec 1a bd 8f ce 92 3d 88 53 29 bd
       0.4049629 -0.03782323 0.07168304 -0.041339427
000140 07 e7 f6 3e 0f ed 54 40 dd 4d 20 3f 89 f5 2c 3e
       0.48223135 3.326969 0.6261881 0.16890539
000150 e5 49 0c bc 01 aa 0e 3f 29 46 06 3f 1f 09 46 bd
       -0.00856254 0.55728155 0.52450806 -0.048348542
000160 4c 41 be 3d 98 ea 5d be 9e e6 84 3e d7 e9 90 bd
       0.09289798 -0.21671522 0.25957197 -0.070758514
000170 93 eb 1c 3f cd d3 a6 3e 4d 14 95 3f fc 13 20 3e
       0.6129696 0.32583466 1.164682 0.15632623
000180 a4 80 dc 3e 84 34 e3 3e 1f b6 1d 3e 75 9e cd 3e
       0.43066895 0.44376004 0.15401505 0.40159956
000190 af 24 0c 3f da 59 47 bd b0 0f a0 3d 91 c0 2b bd
       0.54743475 -0.048669674 0.07815492 -0.041931693
0001a0 08 d7 4f be e0 05 27 ba 41 fe 49 bd 31 0c 75 be
       -0.20296872 -0.000637142 -0.04931474 -0.23930432
0001b0 02 31 e0 bf a4 12 2f 3e 16 c1 01 c0 ce ad 55 3a
       -1.7514956 0.17096955 -2.02741 0.0008151204
0001c0 fa 7a a4 3e c7 aa 94 3e fa 08 dd 3e e7 62 ac 3e
       0.32125074 0.29036543 0.4317091 0.33669207
0001d0 df 58 3d 3e e2 aa 94 be 78 a9 8a 3e d4 60 db bd
       0.18490933 -0.29036623 0.2708242 -0.10711828
0001e0 c7 61 c9 3f 3b 3f 5b 3e 6f ac d4 3e 3c b9 e9 bd
       1.5732964 0.2141084 0.41537806 -0.11412284
0001f0 fe f0 a9 ba 40 4f 0f 3e d4 c3 d4 3e d5 ef 00 3f
       -0.0012965498 0.13995075 0.41555655 0.50365955
000200 7b 2c f2 be ac 86 38 3e 05 56 78 3d e6 4e 21 3f
       -0.4729956 0.18020123 0.06062891 0.63011014
000210 77 c2 24 40 9b 1b 25 3e fd b4 0a be 87 2a 0d 3e
       2.5743692 0.16123812 -0.13545604 0.13785754
000220 72 87 f4 bc b8 68 0a 3c eb e5 f5 3e 6c df f7 3e
       -0.029849742 0.008447818 0.48026976 0.48412645
000230 fd bc 28 3e bd 4c 28 3e 84 7f c5 3d 72 5b 7a 3e
       0.16478343 0.16435523 0.09643462 0.24448946
000240 c8 f5 8c bd dc dd bd 3e af 35 e4 3e a0 2c 06 40
       -0.068828166 0.37083328 0.44572207 2.0964737
000250 43 46 e7 bd 75 4e 63 3e 0d fa d6 3c 4f 63 e5 3d
       -0.11292698 0.22197898 0.02624228 0.11200582
000260 96 ed e7 bf eb d3 ed bf 65 a4 39 3e 60 92 52 3f
       -1.811938 -1.8580297 0.18129118 0.822546
000270 bc 77 ba 3e 4c 02 8d bd 6d a2 01 3f b7 40 16 3f
       0.36419475 -0.06885204 0.5063847 0.58692497
000280 ab 7d 0e 3d a0 d4 81 3e b1 8d 8b be dd 44 ca be
       0.034787815 0.25357533 -0.2725654 -0.39505664
000290 d7 18 65 3e 5e 19 de 3e 7d 74 c3 3d 25 68 f9 3e
       0.22372757 0.4337873 0.09543703 0.48712268
0002a0 c9 c3 2d 3e 2a 30 c5 3e 7f e7 c9 3e aa b0 0e 3e
       0.16969217 0.3851331 0.3943443 0.1393458
0002b0 e3 29 42 3f c6 af 21 3f fd cb 4e 3e 7b 3f af 3d
       0.75845164 0.63158834 0.20195003 0.0855703
0002c0 78 85 fa 3f 72 8b e2 3e ad 5e 5f be c8 ef 2a bd
       1.9571981 0.44247013 -0.2181346 -0.04173258
0002d0 e1 43 3b c0 31 b6 6c 40 b9 02 13 3e 87 0e a2 3e
       -2.926018 3.69862 0.14356507 0.31651708
0002e0 d4 c8 b3 3c 51 1f 33 be e4 90 17 3f 1b 59 22 3f
       0.021946348 -0.17492415 0.5920546 0.63417214
0002f0 b5 32 ac be e7 37 21 3d d8 01 ba bb dc ad ab be
       -0.33632436 0.039359953 -0.0056764893 -0.33531082
000300 9b 70 53 3d c3 3e 4e 3d fb 79 88 3e c6 41 5a c0
       0.05162106 0.050352823 0.26655564 -3.4102645
000310 b8 25 74 40 4a fa 82 bd ce f7 71 be d1 c5 27 3e
       3.8148022 -0.06395395 -0.23629686 0.16384055
000320 89 58 b5 3d a2 e8 a5 3e 5d a7 a5 3e 00 94 2a 3e
       0.08854777 0.32404047 0.3235425 0.1665802
000330 e0 70 d6 bf f5 1d 5f 3e f2 75 b8 3d 50 42 76 3f
       -1.6753197 0.21788771 0.09006871 0.96194935
000340 84 c4 2d 3e 45 51 db 3d 67 c7 fc bf 8d 42 7e 3d
       0.16969496 0.1070886 -1.9748353 0.062075187
000350 5f 43 70 3e 93 63 f0 3f f3 95 38 c0 9d 18 05 3f
       0.234632 1.8780388 -2.8841522 0.5199068
000360 7c e0 ff 3e 9b b3 aa 3f e6 da 50 3d 12 79 ea 3f
       0.49975955 1.3336061 0.050990008 1.8318198
000370 bb 4f 08 3d b1 f1 21 3f e0 af 1c 3e b4 c7 3b 3d
       0.033279162 0.63259417 0.15301466 0.04584475
000380 46 d4 d0 3c 2c ff 1b bd e6 5a d7 3e 61 9b 79 be
       0.025491845 -0.038085148 0.42061538 -0.24375679
000390 ae b5 d0 3f 14 39 97 3e 94 1e 78 40 d7 06 df 3e
       1.6305444 0.29535735 3.8768663 0.43559906
0003a0 75 5b 27 be 31 12 0c 3f f7 84 dc 3d 01 d8 de 3e
       -0.16343482 0.5471526 0.107675485 0.43524173
0003b0 ad 27 84 be 9e 35 7f be 8f fe 25 bd 79 4b 1d 3e
       -0.2581152 -0.24922797 -0.04052597 0.15360822
0003c0 ab 71 08 3e 50 2f c6 3e c7 d6 75 3e 63 77 09 3f
       0.13324611 0.38707972 0.24007712 0.53697795
0003d0 67 9e aa 3e 8c dd 2c 3e ec 33 cf 3d ec e9 0c 40
       0.33323976 0.16881388 0.10117325 2.2017775
0003e0 54 a1 0d be 02 64 82 be 6e cd d6 3f 46 b4 3f be
       -0.13831073 -0.25466925 1.6781442 -0.18721113
0003f0 c9 a8 97 3e 84 52 17 3e f7 f4 03 3e d0 70 c5 bb
       0.2962096 0.14777571 0.12886415 -0.006025411

linear.3.weight f4 [64, 256]
000000 4b 4c c7 c0 ac 7d 0b 41 6a 56 37 41 de e2 ca c0
       -6.228063 8.718182 11.458597 -6.3401937
000010 de c2 5a c0 33 cc f6 c0 76 9e c6 40 8b 5c dc c0
       -3.4181437 -7.7124267 6.2068434 -6.8862967
000020 18 4a e9 c0 4d 93 02 41 59 9e 99 3f f0 da 5e c0
       -7.2902946 8.160962 1.2001449 -3.482113
000030 3d 89 1d c1 7e 60 37 41 13 b9 ed 3f d2 23 41 41
       -9.846005 11.461058 1.8572105 12.071245
000040 f0 60 5e 41 e5 db 2c 41 30 fb 30 c1 74 2d d8 c0
       13.898666 10.803685 -11.061325 -6.7555485
000050 ca bd 03 c1 6e 00 39 41 e1 13 36 41 c3 d9 c0 40
       -8.233835 11.562605 11.379853 6.0265822
000060 43 c0 ca bf 75 a3 45 c1 e2 0a 7f c0 64 1b 07 41
       -1.5839924 -12.3524065 -3.9850392 8.444187
000070 33 1a 0a c1 46 dd d4 40 fd 88 87 40 92 5c c0 40
       -8.631396 6.652011 4.235472 6.0113
000080 83 0b 9f bf a5 b5 ef c0 7f 19 01 41 24 2f 29 c1
       -1.2425388 -7.4909234 8.068725 -10.574009
000090 20 6c f5 c0 13 0b 1b c0 c4 d0 04 41 24 0b 34 41
       -7.669449 -2.422551 8.300968 11.25272
0000a0 c3 a9 c0 40 f4 bf c8 3f 47 14 70 40 d9 6a bf 3f
       6.020723 1.568358 3.7512376 1.4954482
0000b0 96 86 25 41 d8 91 3a c1 c9 8f 14 41 78 51 55 c1
       10.345358 -11.660606 9.285104 -13.33239
0000c0 b8 55 b5 3f e5 97 e6 40 60 b2 44 c1 38 51 0b 41
       1.4166784 7.206042 -12.293549 8.707329
0000d0 ea 44 36 41 0b d1 b6 c0 9c cf fb c0 6a 91 20 c1
       11.391825 -5.713018 -7.869093 -10.0355015
0000e0 c3 a4 32 41 a8 61 4f c1 4d b2 2d 41 0d d4 1b 41
       11.165225 -12.961342 10.85603 9.73927
0000f0 05 82 e9 bf d8 55 af bf e3 66 e8 40 dc 77 c4 3f
       -1.8242804 -1.3698072 7.2625594 1.5349078
000100 5c 4b 25 41 b5 8b 6e c0 38 b4 02 c1 c0 6d e0 40
       10.330898 -3.727277 -8.168999 7.013397
000110 cc e8 0d c1 53 78 a5 3f 80 36 b9 3f b1 9e 1e 41
       -8.869335 1.2927345 1.4469757 9.913743
000120 b9 9f 1a c1 54 64 1b 41 65 01 15 c1 a5 c8 c6 c0
       -9.663995 9.711994 -9.31284 -6.2119927
000130 da 8d 5f 41 ee f7 10 c1 53 dc 8e c0 0c 40 e9 c0
       13.972132 -9.06053 -4.464395 -7.289068
000140 51 79 84 40 b3 30 14 3f 83 4b 13 41 39 09 1b 41
       4.139809 0.5788681 9.2059355 9.689752
000150 75 b8 b2 c0 6e a5 33 41 11 44 81 41 1e 70 07 c1
       -5.5850167 11.227888 16.158236 -8.464872
000160 bb fb f7 40 70 fa ec c0 88 b9 6e 41 aa 91 aa c0
       7.749479 -7.405571 14.920296 -5.3302813
000170 47 42 18 41 9a db 46 41 3f 32 ae 3f 38 64 1b c1
       9.516181 12.428614 1.3609084 -9.711967
000180 f6 01 37 41 9c 92 21 c1 4a 8a ef c0 c4 a8 34 40
       11.437979 -10.098293 -7.485631 2.8228006
000190 a3 08 bd be 31 f1 0f c1 a4 06 4f c1 8e 21 a1 40
       -0.36920652 -8.996385 -12.939121 5.035346
0001a0 b5 44 62 c1 81 0b 09 c1 f1 fe 1e 41 a0 8a 32 c1
       -14.141774 -8.565309 9.937242 -11.158844
0001b0 f8 e1 f5 bf 43 eb 28 41 70 b7 c5 bf a4 15 1a c1
       -1.9209585 10.557437 -1.5446606 -9.630283
0001c0 d0 24 52 41 47 99 ca 40 8e ad 10 41 c6 e2 13 c1
       13.133987 6.3312106 9.042372 -9.242865
0001d0 3e 79 41 41 52 f3 26 c1 d4 b8 d0 c0 af bf c8 c0
       12.0921 -10.434404 -6.522562 -6.273399
0001e0 56 3f e9 3f e6 70 44 41 87 3f c0 40 f4 8c 26 c1
       1.8222454 12.277563 6.007755 -10.409412
0001f0 86 22 18 c1 59 21 10 40 59 f0 05 41 8a cd 29 41
       -9.508429 2.2520354 8.371179 10.61268
000200 bd 1f 76 41 8f fe 2a 41 2e e7 af 40 3f 5b 37 41
       15.382749 10.687148 5.49697 11.459777
000210 9c c5 cc 3f 07 14 8f c0 f3 a9 cc c0 b2 de da c0
       1.5997806 -4.4711947 -6.3957458 -6.8396845
000220 f3 eb 0a c1 40 ff c3 c0 ee 7c 3e 41 80 f1 93 40
       -8.682605 -6.1249084 11.9055 4.62323
000230 14 ae 62 41 91 9f 15 41 ec 67 c0 c0 e9 a5 13 41
       14.1675 9.351457 -6.012686 9.228005
000240 58 82 30 c1 5b db fa 40 ea b5 23 41 3b 58 c8 3f
       -11.031822 7.839277 10.231913 1.5651926
000250 04 41 68 c1 67 14 14 c1 a4 c8 e5 c0 21 27 01 c1
       -14.515873 -9.254981 -7.1807423 -8.072053
000260 e1 03 d2 bf 91 a0 f8 bf 54 07 36 c1 ed 2f a8 40
       -1.6407434 -1.9424001 -11.376789 5.2558503
000270 38 e9 13 41 bf 76 17 c1 8c d6 6b 40 fe cc 41 41
       9.244438 -9.466491 3.68497 12.112547
000280 50 ea 00 c1 3c 55 f1 c0 9e 8d 37 c1 2f 36 68 c1
       -8.057205 -7.5416546 -11.4720745 -14.513228
000290 2a 06 ec c0 26 bc 25 41 c4 d1 b0 c0 b8 3b 30 41
       -7.3757524 10.358435 -5.525606 11.01458
0002a0 ef 40 cd c0 62 f1 10 41 4c 1b ef 40 9c d7 1c 41
       -6.4141765 9.058931 7.472082 9.802639
0002b0 46 4e 16 41 13 a7 0a 41 55 a9 08 41 9a 14 59 c1
       9.39411 8.66579 8.541341 -13.56753
0002c0 39 68 a7 3f 85 c1 02 c1 33 06 29 c1 7b 39 ef c0
       1.3078681 -8.172246 -10.5640135 -7.4757667
0002d0 60 1a 6a bf 08 49 4d 3f 90 33 4c c1 33 cf 04 41
       -0.91446495 0.8018956 -12.7625885 8.300586
0002e0 c0 b2 1e 41 87 fd 73 41 ce e1 24 41 42 41 eb 40
       9.91864 15.249396 10.305128 7.351716
0002f0 3a 5e 12 c1 8e 4e 16 c1 38 3a 25 41 de 01 fc c0
       -9.148005 -9.394178 10.326714 -7.875228
000300 f8 8e 48 c1 34 d5 51 41 43 fb ad 40 fc f4 8b bf
       -12.5349045 13.114552 5.4369216 -1.0934138
000310 7a 99 9c 3f 99 79 9b c0 a4 e5 2d c1 cb 90 58 41
       1.2234337 -4.8585935 -10.868565 13.53535
000320 f3 06 0e c1 5c 06 25 41 8f 83 10 41 86 97 16 c1
       -8.876697 10.314053 9.032119 -9.411993
000330 cc 55 fb bf e8 16 08 41 b0 ae 4e c1 89 d5 af 40
       -1.9635558 8.505592 -12.917648 5.4948163
000340 88 d5 43 c1 70 59 cd c0 98 af b2 bf a0 c2 26 c1
       -12.239632 -6.4171677 -1.3959837 -10.422516
000350 57 75 4c 41 42 21 9e 3f d1 5c a9 bf 93 20 1e 41
       12.778647 1.23539 -1.323145 9.882953
000360 5a 8b 44 41 de cd aa 3f f6 52 52 41 a0 eb ad 3f
       12.284021 1.3344076 13.145254 1.3587532
000370 9a ac ca c0 54 3b 20 c1 9c 61 2a 41 96 38 3b c1
       -6.3335695 -10.014484 10.64883 -11.701315
000380 2d 7f 04 c1 4f c5 32 c1 ed 46 4b 41 af 93 59 41
       -8.281049 -11.173171 12.704816 13.598556
000390 85 5b b9 3f fa d6 04 c1 8b e0 26 3f 3d 4b 7c 41
       1.4481055 -8.3024845 0.65186375 15.768369
0003a0 01 66 12 c1 36 2f 68 41 b3 a6 ed c0 bf d2 4d 41
       -9.149903 14.511526 -7.426599 12.863952
0003b0 28 82 58 c1 88 d6 fb c0 a7 81 b5 c0 35 cb ab c0
       -13.531776 -7.869938 -5.6720767 -5.3685555
0003c0 8b c8 ed c0 ad 9c 1c 41 50 22 ab c0 90 bb 22 41
       -7.4307303 9.788251 -5.3479385 10.170792
0003d0 6d ff 0e 41 a0 76 32 41 70 33 2f c0 bc 08 e5 3f
       8.93736 11.153961 -2.7375145 1.789329
0003e0 e7 3f 1d c1 d0 b8 3e c1 23 05 ca 3f 24 83 93 c0
       -9.828101 -11.92012 1.5782818 -4.6097584
0003f0 18 55 1f c1 99 1c fb c0 09 f8 c1 c0 f9 ef ea c0
       -9.958275 -7.847241 -6.0615277 -7.3417935

linear.3.bias f4 [64]
000000 56 a8 6b 3f af f2 3d 3f c3 6f 92 3f 4b 30 44 3f
       0.92053735 0.7419843 1.1440357 0.7663619
000010 b5 26 5c 3f 9c c8 4f 3f e0 07 18 3f 52 9f 39 3f
       0.8599656 0.8116548 0.59387016 0.7250873
000020 17 1d 27 3f 05 0f 32 3f 23 4d 22 3f c4 6b 0c 3f
       0.6527876 0.6955417 0.6339895 0.5485194
000030 09 f1 1d 3f 65 95 19 3f ff c1 3e 3f 10 2f 24 3f
       0.61695915 0.5999358 0.74514765 0.6413431
000040 ab 6c 3e 3f 6b 1b 41 3f d4 c2 39 3f 32 41 15 3f
       0.74384564 0.7543246 0.7256291 0.58302605
000050 0d 09 7d 3f 85 53 a0 3f f6 e7 5c 3f 79 3e 6e 3f
       0.98841935 1.2525488 0.86291444 0.93064076
000060 6d 24 52 3f de 25 db 3e a2 0c f2 3e 0e 42 e9 3e
       0.8208683 0.42802328 0.47275263 0.45558208
000070 50 6b fc 3e a1 19 37 3f e4 7b 2e 3f 9e fa 2c 3f
       0.49300623 0.7152348 0.6815779 0.6756991
000080 d9 bb 74 3f 55 70 fc 3e 9d 45 ca 3e d4 89 54 3f
       0.9559913 0.49304453 0.39506236 0.8302281
000090 58 f3 1e 3f 4c 27 4c 3f d3 99 d6 3f 3b 56 34 3f
       0.62090063 0.7974746 1.6765693 0.7044408
0000a0 52 3c 3b 3f a4 92 01 3f 26 60 9c 3f 53 6f 39 3f
       0.73138916 0.5061438 1.2216842 0.7243549
0000b0 92 35 6d 3f 9e d4 37 3f 09 54 1f 3f 71 50 6e 3f
       0.92659867 0.71808803 0.622376 0.93091494
0000c0 9e 55 fa 3f 5a 68 8b 3f 93 77 50 3f 90 2c 50 3f
       1.9557378 1.089122 0.81432456 0.81317997
0000d0 d5 d8 67 3f bc ae 38 3f 9c cd 4b 3f ba f8 3a 3f
       0.90565234 0.72141623 0.7961061 0.73035777
0000e0 4e d3 0c 3f c2 3a 47 3f 06 3c 1b 3f ee 0f 01 3f
       0.55009925 0.7782403 0.60638463 0.5041493
0000f0 f4 89 e3 3e ba d0 58 3f 48 83 10 3f 82 6f 1a 3f
       0.44441187 0.8469349 0.5645032 0.603264

reg.weight f4 [2, 128]
000000 3c bc 9f 40 23 64 7c c0 d3 6b 15 40 5c 78 f7 bf
       4.991728 -3.9436119 2.334706 -1.9333606
000010 e8 fb e6 40 b3 e9 4f 40 56 1b a7 be 00 3c d0 40
       7.2182503 3.2486389 -0.32638043 6.507324
000020 28 de 21 40 35 35 71 40 8c 32 2c 40 96 4e 83 3d
       2.5291843 3.7688725 2.6905851 0.064114735
000030 69 4f da 3f d2 69 8f 40 cf 75 33 be a9 9b 00 c0
       1.7055484 4.4816675 -0.17525409 -2.0095007
000040 18 23 16 40 9c 7c 25 40 31 27 84 40 90 c1 09 40
       2.345892 2.5857306 4.129784 2.152439
000050 3b 23 8b 40 eb 91 4f 40 07 ae af 40 1c 06 0f 40
       4.3480506 3.2432811 5.4899936 2.234748
000060 39 2e 3b 40 74 29 42 40 24 70 28 3b 7a 1b bd 40
       2.9246962 3.03378 0.0025701607 5.909604
000070 4f 0c 5e be d4 93 06 be 6e 4f 16 bf c0 2a c9 40
       -0.21684383 -0.1314233 -0.5871495 6.2864685
000080 15 09 b3 40 1e 46 e4 3f 52 2a 8f 40 b4 ed 34 3d
       5.5948586 1.7833898 4.473916 0.044172004
000090 60 bd 1e 40 bb c3 49 40 64 8e 17 bf db e6 08 40
       2.4803085 3.1525714 -0.59201646 2.1390903
0000a0 e5 fd 0c 40 2c f4 df 3f f8 7b a3 3d 9f a2 28 40
       2.2029965 1.749639 0.079826295 2.6349256
0000b0 ad d4 c6 be 5c 3f b5 bf 72 2b 49 40 2d 88 53 40
       -0.38834134 -1.4159961 3.1432767 3.3051865
0000c0 8c 21 ac 40 af c4 1e 40 b9 9a fe bf 78 fc 16 40
       5.379095 2.4807546 -1.9890968 2.3591595
0000d0 27 76 7b 3d 14 10 bf 3f 39 31 8e 40 ce b9 24 c0
       0.061391976 1.4926782 4.4435086 -2.5738406
0000e0 a2 99 d2 3f b4 5b 11 40 fc a4 7a 3e 80 5d a7 3d
       1.6453135 2.271222 0.24476999 0.081721306
0000f0 64 9a b1 3d c3 a9 b2 3c 4d cc 83 40 af f8 d9 40
       0.08672026 0.021809464 4.118689 6.811607
000100 90 75 58 42 db bc 5b 42 7b ab 53 42 26 7e 5c 42
       54.114807 54.93443 52.91746 55.12319
000110 ec 02 e2 c1 f6 ec 5b 42 ce e3 5c 42 be ce 5b 42
       -28.251427 54.981407 55.222466 54.951897
000120 34 33 e4 c1 fc 15 5c 42 0b 34 5c 42 ba a0 5c 42
       -28.525002 55.02147 55.050823 55.15696
000130 78 6a 5d 42 9a 01 5c 42 66 2b e3 c1 09 f4 5c 42
       55.353973 55.001564 -28.39619 55.238316
000140 c8 dc 59 42 a2 3c 5c 42 22 d4 e3 c1 5a 0b 5c 42
       54.465607 55.05921 -28.47858 55.011086
000150 2b 0b 5c 42 ab bb ea c1 06 63 5b 42 94 1b e5 c1
       55.010906 -29.341635 54.846703 -28.638466
000160 31 24 e2 c1 23 ae 5c 42 d0 7b 5c 42 27 6c 5c 42
       -28.267672 55.170055 55.12091 55.105618
000170 93 7e 5c 42 89 6e 5b 42 4c 44 5c 42 81 44 5c 42
       55.123608 54.857944 55.066696 55.0669
000180 61 92 58 42 1c 8d 5b 42 e5 ad 5c 42 8f 28 5c 42
       54.14295 54.887802 55.16982 55.039608
000190 cc 8e 5c 42 f4 2e e4 c1 e6 7c 1f 42 be 1f 5c 42
       55.13945 -28.522926 39.87197 55.031
0001a0 13 00 5c 42 17 5a 5c 42 c4 fe 5a 42 fd 73 5c 42
       55.000072 55.08798 54.748795 55.11327
0001b0 48 22 5b 42 c4 29 5c 42 e2 3d 5c 42 1f 3b 58 42
       54.783478 55.040787 55.060432 54.057735
0001c0 7f d5 1d 42 1e a3 5b 42 c6 cf e1 c1 f1 5d e3 c1
       39.458492 54.909294 -28.226452 -28.42087
0001d0 61 77 e4 c1 9a 04 5c 42 b6 2e 59 42 3a 60 e1 c1
       -28.55829 55.004494 54.295616 -28.171986
0001e0 e5 c1 5c 42 dd aa 5c 42 23 2a 5c 42 32 b6 5c 42
       55.18935 55.16686 55.04115 55.177925
0001f0 3a 89 5c 42 59 15 e5 c1 55 bb 5c 42 21 b9 5c 42
       55.13401 -28.635424 55.18294 55.18079
000200 74 10 6d bb 9d 15 aa ba 18 c0 d6 bb 08 7e c6 3d
       -0.0036173137 -0.0012976412 -0.006553661 0.09692007
000210 2d 50 76 39 2e 33 ae ba cf c3 4b 3b 60 26 f8 39
       0.00023490256 -0.0013290399 0.0031092053 0.00047330838
000220 6a 25 27 bb 33 b6 8c ba 51 ed b5 3b 67 16 3b 3d
       -0.0025504478 -0.0010735452 0.005551972 0.04567566
000230 95 b1 89 bb 1a 03 2b b9 61 d3 28 3c 16 43 d3 3b
       -0.0042020776 -0.00016308986 0.010304303 0.0064472063
000240 cf 15 90 3b c5 4e be bb 55 8a 20 bb 22 a2 8a 3c
       0.004397131 -0.00580773 -0.0024496515 0.016923014
000250 eb f7 80 3a 05 37 13 bc d8 ea ff 3a 83 74 9d bb
       0.000983951 -0.008985286 0.0019524945 -0.004805149
000260 0b 25 0f bb 46 d1 44 b8 87 06 01 3e de 08 e2 ba
       -0.0021842148 -4.6924943e-05 0.12600146 -0.0017245074
000270 e9 da 04 3f e8 71 d5 bb c5 5a 4c bb 31 0d 01 bb
       0.5189653 -0.006513823 -0.0031182033 -0.00196917
000280 b9 ae ed 3a 7a 52 e1 bc ed ef 0f bb 33 2d ea 3c
       0.0018133736 -0.027505148 -0.0021963075 0.028586006
000290 2c 1c 7c 3b 2f 0b 9f 3b 03 47 96 3b d9 58 b0 bc
       0.003846894 0.004853628 0.004586102 -0.02152674
0002a0 da af 2c 39 4c ac d5 3d 38 ea 87 bd 47 9f 19 3b
       0.00016468708 0.10433254 -0.066364706 0.0023440884
0002b0 32 ee 88 bc 02 81 93 bb ea dc 58 bb 7c 6c fa 3a
       -0.016715143 -0.004501463 -0.003309066 0.0019105817
0002c0 73 fa 83 3b 67 63 18 3c 40 e0 8c 3b e1 38 69 3a
       0.0040276586 0.009301043 0.0042991936 0.000889672
0002d0 df f0 10 3e f0 6d 73 3c 97 14 69 3a bc c6 14 3a
       0.14154385 0.014857754 0.0008891313 0.00056753657
0002e0 0c 1d 27 bd d0 e7 41 3b d2 1b a6 be 42 8d 10 bc
       -0.040799186 0.0029587634 -0.324431 -0.008822741
0002f0 a9 61 a0 bd 78 cd 1c be 8f 0d c7 3b 04 48 42 3b
       -0.07831127 -0.15312755 0.0060746144 0.0029644975
000300 85 13 d6 3b 94 ef 62 3b 36 73 07 bc de ba 4f ba
       0.0065330886 0.0034627663 -0.0082672145 -0.0007924269
000310 ad c5 30 3b 0f 00 17 bb 90 84 a7 3b d2 77 3d bc
       0.0026973293 -0.0023040806 0.005112238 -0.011564212
000320 39 c5 62 bc c8 c6 28 bb 1b 0b 54 bc 74 f6 c7 3b
       -0.013840967 -0.0025753248 -0.012942101 0.0061023775
000330 61 da cc 3b 19 8d 91 3b c2 79 18 bc 55 2c 64 3a
       0.0062516187 0.004441869 -0.009306373 0.0008704116
000340 b7 17 4e 3b 6c d6 43 bc d4 e8 84 3b 1f b8 37 3a
       0.003144724 -0.011952978 0.0040560756 0.0007008332
000350 a0 a5 98 ba f0 65 c5 3b 06 18 fe bb fe 2a d8 bb
       -0.001164604 0.006024115 -0.0077543287 -0.006596922
000360 1f 21 e8 3b c0 55 b7 3b 53 32 8f bb be 6a 15 bc
       0.0070840265 0.005594939 -0.004370013 -0.009119688
000370 91 a3 05 bb 5f ff f7 bb 9b fe e3 3b b7 1e 2d 3c
       -0.0020391683 -0.0075682844 0.0069578416 0.010566405
000380 16 64 1a 3c 92 e3 0a bb f4 9a 5b bb 96 b7 19 bc
       0.009423276 -0.0021192771 -0.0033509107 -0.009382149
000390 21 54 ce 3b a7 c2 92 bc 99 81 ce 3b 12 ed cc 3b
       0.00629665 -0.017915083 0.0063020703 0.006253847
0003a0 aa 10 7d 3c d0 c1 27 3c d8 66 75 39 d8 5d 25 bc
       0.015445868 0.01023908 0.00023403333 -0.010093175
0003b0 7a 06 5d b9 8b 8e b6 bb 3a 58 5c bb aa 4e 33 bc
       -0.00021078615 -0.0055711917 -0.0033621923 -0.010944048
0003c0 47 e7 bf 3b 9c 9f f2 bb 44 ef fe 3b 44 9c bb 3c
       0.005856428 -0.007404281 0.0077799875 0.022901662
0003d0 66 cc 99 3c 3a 61 be 3b 29 61 b8 3b e1 8b 72 bc
       0.018774223 0.00580993 0.005626817 -0.014803858
0003e0 a6 58 94 3c d6 1e 9b 3b 99 65 84 bc 7c 08 fb 39
       0.018108677 0.0047339005 -0.016161727 0.00047880772
0003f0 b3 34 6a bb 2c 02 0b bc c5 42 e9 ba 32 d3 32 3b
       -0.0035736978 -0.0084844045 -0.0017796388 0.0027286527

reg.bias f4 [2]
000000 ec 29 98 3f 99 25 fd 3e
       1.1887794 0.49442747
