server/model2/value_model_minmax2_noexplore70.pt (torch, 255505 bytes, 12 tensors)

conv.0.weight f4 [4, 1, 3, 3]
0	0x40072281	2.111481
1	0x402fcc79	2.746855
2	0x4090cce5	4.5250115
3	0x4066bbf5	3.605222
4	0x40206163	2.505944
5	0x3fdae8c8	1.7102289
6	0x402187ea	2.5239205
7	0x3f582019	0.8442398
8	0x400f8a7b	2.2428272
9	0x3f906d54	1.1283364
10	0x3f14e867	0.5816712
11	0x407efd8a	3.9842248
12	0x402e6d9d	2.7254403
13	0x40913ee4	4.538927
14	0x3e8b5675	0.272144
15	0x404132cd	3.0187256
16	0x3fa6c36e	1.302839
17	0x404983d1	3.1486704
18	0xbe089fb1	-0.13342167
19	0x3fdc1510	1.7193928
20	0x3fe9b344	1.8257833
21	0x401d8001	2.4609377
22	0x408c7f5a	4.390546
23	0x40ac12c5	5.377291
24	0x4004ba95	2.073888
25	0x402d1cd5	2.7048848
26	0x40580bb6	3.3757148
27	0x4065814f	3.5860174
28	0x402c3410	2.6906776
29	0x407bfb41	3.9372103
30	0x40655aac	3.5836592
31	0x4057709e	3.3662486
32	0x4030a7b1	2.760235
33	0xbe91f27c	-0.28505313
34	0x404b2617	3.1741998
35	0x3eb958d1	0.36200574

conv.0.bias f4 [4]
0	0x401e02be	2.4689174
1	0x3fef764a	1.8707974
2	0x40085642	2.1302648
3	0x401ae495	2.4202015

conv.2.weight f4 [4, 4, 3, 3]
0	0x401e7c5b	2.47634
1	0x406973c7	3.6476915
2	0x403c6739	2.9438002
3	0x403c061d	2.9378731
4	0x403442d1	2.8165781
5	0x4039fed3	2.9061782
6	0x3ff3e9ba	1.9055703
7	0x4045d5d4	3.091176
8	0x4007d750	2.1225166
9	0x4038d2d4	2.887868
10	0x404ad93d	3.1695092
11	0x405d888f	3.4614599
12	0x405762dc	3.365409
13	0x3ff075fb	1.8786005
14	0x40453993	3.081639
15	0x3fc53d41	1.5409318
16	0x403b9381	2.930878
17	0x3faed0bf	1.3657454
18	0x400b7f09	2.1796286
19	0x408a36dd	4.319197
20	0x40429e62	3.040917
21	0x40480869	3.1255133
22	0x40450417	3.0783746
23	0x402240d5	2.535207
24	0x402d0d45	2.703935
25	0x4004b08e	2.073276
26	0x40201584	2.5013132
27	0x4052a285	3.2911694
28	0x40573592	3.3626447
29	0x404fc3dd	3.2463295
30	0x402f9efa	2.7440782
31	0x403d9cc6	2.9626937
32	0x4049242d	3.142833
33	0x4010f2b5	2.2648137
34	0x402e9a65	2.7281735
35	0x4005b162	2.0889516
36	0x3fa64569	1.2989932
37	0x3ef30b0f	0.47469375
38	0xc0d1d6e0	-6.55748
39	0x4042ea3d	3.0455468
40	0x402edbc6	2.732164
41	0xbef5efc7	-0.48034498
42	0x4020b739	2.511183
43	0x3fa67d51	1.3006994
44	0xbf9e37cc	-1.2360778
45	0x3fc7642a	1.5577443
46	0x4064c5ce	3.574573
47	0xc0c54abc	-6.165373
48	0x40047de1	2.070183
49	0x402c884f	2.6958196
50	0xbfe31027	-1.7739304
51	0xbda843af	-0.082160346
52	0x3eadf32c	0.33974588
53	0xbf9fbc88	-1.247941
54	0x40180ff2	2.3759732
55	0x404048c4	3.0044413
56	0xbfcae0ae	-1.5849817
57	0x401fa758	2.4945889
58	0x3fbf932a	1.4966786
59	0xc0a02372	-5.004327
60	0x3fb9177e	1.4460294
61	0x3cdffd5e	0.027342495
62	0x3ff8e629	1.9445239
63	0x3ffe81e4	1.988339
64	0x3f845445	1.0338217
65	0xc02d2325	-2.70527
66	0x40439c8c	3.0564299
67	0x4056317f	3.346771
68	0xc05212c7	-3.282396
69	0x405260d1	3.2871592
70	0x3fff80d8	1.9961195
71	0xc01cb4de	-2.4485393
72	0x404e2347	3.2209032
73	0x4062e27a	3.545073
74	0x40036313	2.052922
75	0x4022223a	2.533339
76	0x402cc0e8	2.699274
77	0x40036839	2.0532362
78	0x3fb83a2b	1.4392751
79	0x3fd6ca90	1.6780567
80	0x402da169	2.7129767
81	0x406e31c4	3.7217875
82	0x40698efa	3.6493516
83	0x3ff0c7de	1.8810995
84	0x401c2182	2.4395452
85	0x402e2684	2.7211008
86	0x3fc1fffc	1.5156245
87	0x3f2d6616	0.67733896
88	0x3faff12e	1.3745477
89	0x401a81ae	2.414165
90	0x404abe04	3.1678476
91	0x40807503	4.0142837
92	0x3f10b101	0.56520087
93	0x3ffba03e	1.9658277
94	0x402cf00c	2.7021513
95	0x40143c7b	2.3161914
96	0x3f5e081d	0.8673113
97	0x3f97abf2	1.1849349
98	0x3fe1124f	1.7583712
99	0x406ab2db	3.6671665
100	0x40658f04	3.586854
101	0x40030aa2	2.047524
102	0x4025b29b	2.5890262
103	0x4056130e	3.344913
104	0x406d90e5	3.7119687
105	0x3f959ba1	1.1688119
106	0x3fa1aa4a	1.2630093
107	0x40098933	2.148999
108	0x401145ff	2.2698972
109	0x4073e22d	3.8106797
110	0x3ff18854	1.8869729
111	0x403527b2	2.8305478
112	0x403e94c3	2.9778297
113	0x40186ba8	2.3815708
114	0x4010a38d	2.2599823
115	0x4038cd6c	2.887538
116	0x400b2d33	2.1746337
117	0x4005b500	2.0891724
118	0x4079239f	3.8927991
119	0x403b486f	2.926296
120	0x402b49bf	2.676376
121	0x405f7237	3.4913461
122	0x4000317f	2.003021
123	0x4006a4bb	2.1038043
124	0x4021ad57	2.5262048
125	0x400a1d78	2.1580486
126	0x401d0c38	2.4538708
127	0x4093c1ed	4.6174226
128	0x3f825268	1.0181398
129	0x4063b285	3.557771
130	0x4056efdf	3.3583906
131	0x40078909	2.117739
132	0x40061339	2.0949233
133	0x4013480b	2.3012722
134	0x3fe3807d	1.7773587
135	0x40364bea	2.8483834
136	0x4041a503	3.0256965
137	0x401ad32c	2.419139
138	0x4045b35e	3.0890727
139	0x405934b8	3.3938427
140	0x404b22e6	3.174005
141	0x3feccae6	1.849942
142	0x401f29f2	2.4869351
143	0x4011d679	2.2787154

conv.2.bias f4 [4]
0	0x401e0937	2.4693124
1	0x3fdd1eb1	1.7274991
2	0x400a50ce	2.161182
3	0x400427c7	2.0649278

conv.5.weight f4 [64, 36]
0	0x3e7a01cd	0.2441475
1	0x3f548bf8	0.83026075
2	0x3fdb4b80	1.7132416
3	0xbee78012	-0.45214897
4	0x3f7b930b	0.98271245
5	0x3fe8280e	1.8137224
6	0xbe0f5876	-0.13998589
7	0x3d6d7172	0.057969518
8	0x3fbb3e6d	1.4628426
9	0x408467f6	4.1376905
10	0x3f17a1db	0.59231347
11	0x40148811	2.3208048
12	0x3fad5d22	1.3544047
13	0xbff9627a	-1.9483178
14	0x40018961	2.02401
15	0xc02a3e4b	-2.660052
16	0xc02d63ce	-2.7092166
17	0x3fa69158	1.3013105
18	0x3c6844e5	0.014176582
19	0x3f38c6d8	0.7217841
20	0x3fc47877	1.5349263
21	0x3e474e2c	0.19463414
22	0x3eef62a3	0.4675494
23	0x400c7cfa	2.195128
24	0xbea407cb	-0.32037196
25	0x3e89d282	0.26918417
26	0x3fd2efa0	1.6479378
27	0x3d1102f8	0.03540322
28	0x3f3f9ffc	0.7485349
29	0x3fdd0b68	1.7269106
30	0xbdf53c47	-0.119743876
31	0x3f42ae87	0.7604756
32	0x400c83d4	2.1955462
33	0xbf0ccf71	-0.5500403
34	0x3e7527bb	0.23940937
35	0x3fcc120a	1.5943005
36	0x3d9be84a	0.07612665
37	0xbeae24fc	-0.34012592
38	0xbf2c9068	-0.67407846
39	0x3eaee5b0	0.34159613
40	0x3e82d478	0.25552726
41	0x3ed57475	0.41690412
42	0x3de2f2f0	0.11081493
43	0x3e0c6419	0.13710059
44	0x3f0a1072	0.53931344
45	0x3fb1d17b	1.3892053
46	0xc0a1deeb	-5.0584617
47	0xbf375fdd	-0.7163065
48	0xbd16cd76	-0.036817037
49	0x3f90e33e	1.1319349
50	0xbe28bdc8	-0.16478646
51	0x3f4bffbf	0.7968711
52	0x3f829169	1.0200626
53	0xbf5f50b8	-0.8723254
54	0xbdeb0e7b	-0.11477371
55	0xbe771a8e	-0.24131224
56	0xbeb29eab	-0.3488668
57	0x3e662baa	0.22477594
58	0x3e9ac6e7	0.30229875
59	0x3e3f56fc	0.18685526
60	0x3e929ede	0.2863683
61	0x3e98aa14	0.2981726
62	0xbe10ddc6	-0.141471
63	0xbdefad70	-0.117030025
64	0xbe0a8aba	-0.13529482
65	0xbf0e265e	-0.55527294
66	0x3eee4889	0.46539715
67	0x3d8b499a	0.06801148
68	0xbeff0f1b	-0.49816212
69	0x3da39b65	0.079886235
70	0x3eb9c9c4	0.36286747
71	0xbe85e717	-0.2615287
72	0x3fcda5bb	1.6066202
73	0x4019c5d1	2.4026988
74	0x40448a24	3.0709314
75	0x3fd69d0c	1.6766677
76	0x4013ad10	2.307438
77	0x401f644c	2.4904966
78	0x3fbbd788	1.467515
79	0x400370ec	2.0537672
80	0x4011677e	2.2719417
81	0x3fb696db	1.4264787
82	0x4070ad34	3.7605715
83	0x402d1f67	2.7050416
84	0xbf9bbcba	-1.216697
85	0x40115512	2.2708173
86	0x4032f491	2.7961771
87	0xbff3dd1c	-1.9051852
88	0x3f726ed1	0.9470034
89	0x400b1215	2.1729786
90	0x3f89786e	1.0739877
91	0x4001075c	2.0160742
92	0x3fb34211	1.4004537
93	0x402aa3d7	2.66625
94	0x40125eff	2.287048
95	0x404c09d3	3.1880996
96	0x402215f2	2.5325894
97	0x400a63e0	2.162346
98	0x40089e8c	2.134677
99	0x40490264	3.140771
100	0x4014150c	2.3137846
101	0x4030a6bd	2.760177
102	0x401565ac	2.3343306
103	0x3fbd47ca	1.4787533
104	0x3ff8165c	1.9381824
105	0x3fb31745	1.3991476
106	0x3fb19a98	1.3875303
107	0x3ff00988	1.8752909
108	0x3e86bee0	0.263175
109	0x3dc5b974	0.09654513
110	0xbf1480fb	-0.5800931
111	0x3ddc229e	0.1074879
112	0xbca85a46	-0.020550858
113	0x3d016dd2	0.031598873
114	0xbd1a49bf	-0.037667986
115	0xbdcaab32	-0.09895934
116	0x3e0e16ff	0.1387596
117	0xbe19f5d1	-0.15035178
118	0x3e54865b	0.20754378
119	0x3ee04848	0.43805146
120	0xbd2fb850	-0.042900383
121	0x3da46b24	0.08028248
122	0xc0262a0e	-2.5963168
123	0x3e38a834	0.18032914
124	0x3c925a9d	0.017865473
125	0x3f0542f7	0.52055305
126	0x3d58d91d	0.05294143
127	0xbe5cc4ff	-0.21559523
128	0x3e66cdc7	0.22539435
129	0xbe72e34b	-0.23719518
130	0xbdda10cc	-0.10647735
131	0xbfe6672c	-1.8000236
132	0xbe2f3755	-0.17110951
133	0x3daf74b8	0.08567184
134	0x4007d564	2.1223993
135	0xbe24b4b4	-0.16084558
136	0xbd174d6a	-0.036939062
137	0xbe0e3c04	-0.13890082
138	0x3de301ef	0.11084353
139	0xbd1db925	-0.038506646
140	0x3b28970d	0.00257248
141	0xbd9e770f	-0.077375524
142	0x3d403ad3	0.0469311
143	0x3e3396a3	0.17537932
144	0x3f950ee8	1.1645174
145	0x3f35d059	0.7102104
146	0xbf3558ea	-0.708388
147	0x3f3162bd	0.6929129
148	0x3e73ff50	0.23827863
149	0xbf87fbd8	-1.0623732
150	0xbeb77d55	-0.35837808
151	0x3d9473a3	0.072486185
152	0xbfb2a77a	-1.395736
153	0xc07eacb5	-3.9792912
154	0x4043dbdd	3.0602944
155	0xbf951f5b	-1.1650194
156	0xc015d956	-2.3413901
157	0x407b3a0b	3.9254177
158	0xc021376e	-2.5190082
159	0xbf215b64	-0.63030076
160	0x40259f78	2.5878582
161	0xbf904b93	-1.1273063
162	0x3f27ee68	0.65598154
163	0x3e384967	0.17996751
164	0xbeb7eede	-0.3592443
165	0x3f2279c7	0.6346707
166	0x3f114df8	0.56759596
167	0xbfe8cb08	-1.818696
168	0x3f6e3be2	0.93060124
169	0x3fb14f8e	1.3852403
170	0xc011d88d	-2.2788422
171	0x3f9ba8d2	1.2160895
172	0x3f3e1ec9	0.74265724
173	0xbe2eaa6f	-0.17057203
174	0x3f8258e4	1.0183377
175	0x3dda6384	0.10663512
176	0xc02b8ec3	-2.6805885
177	0x3f1a3149	0.60231453
178	0x3e8be018	0.27319407
179	0xc03257e9	-2.7866156
180	0x4003d017	2.0595758
181	0x400106db	2.0160434
182	0x40124ab6	2.28581
183	0x3f8c99af	1.09844
184	0x401bbc5c	2.4333715
185	0x4003d017	2.0595758
186	0x3f4624a0	0.77399635
187	0x3fb4d60b	1.4127821
188	0x401dd096	2.465856
189	0x3ffd20df	1.9775656
190	0x40786eb0	3.8817558
191	0x3f5e923b	0.8694188
192	0xbfae9e21	-1.3642007
193	0x3ff9b9c6	1.9509819
194	0x3fc77135	1.5581423
195	0xc0610579	-3.515959
196	0xbe901b57	-0.2814586
197	0x3fdaab0d	1.708345
198	0x3f9d2a26	1.2278488
199	0x3ff6b28f	1.9273242
200	0x40201740	2.501419
201	0x400041c4	2.004014
202	0x3fda51cf	1.7056216
203	0x4023c481	2.5588686
204	0x3fc5493d	1.5412976
205	0x3fcc3dd2	1.5956366
206	0x4011766f	2.2728536
207	0x3fb03136	1.3765018
208	0x3fe870ce	1.8159425
209	0x4026c252	2.6056104
210	0x3fc6aaa8	1.552083
211	0x3fe50f13	1.7895225
212	0x3fe7e67d	1.8117214
213	0x3f64247c	0.8911817
214	0x3fd6f040	1.6792068
215	0x400b1e75	2.173734
216	0xbe3477cc	-0.17623824
217	0xbd54a639	-0.051916335
218	0xbf152014	-0.5825207
219	0x3e36817f	0.17822836
220	0x3de4d7ea	0.11173995
221	0xbe587686	-0.21138963
222	0x3eff5059	0.49865988
223	0x3e6b8f20	0.23003817
224	0xbe02b772	-0.12765291
225	0xbe9d92dd	-0.3077611
226	0xc043af22	-3.0575643
227	0xbef2ce48	-0.47423005
228	0x3ee0b0b0	0.43884802
229	0xbfc87f88	-1.566392
230	0x3eac7a1d	0.33686915
231	0x4019062d	2.391002
232	0x3f686098	0.9077239
233	0xbed04203	-0.40675363
234	0x3f1e7950	0.6190386
235	0x3e863703	0.26213846
236	0xbec18ae3	-0.37801275
237	0x3dacdc0e	0.084404096
238	0x3d651fe0	0.0559386
239	0xbda2726f	-0.07931983
240	0x3e0f0dd9	0.13970126
241	0x3d474c8f	0.048656996
242	0xbf5b70f7	-0.85719246
243	0x3e9d3918	0.30707622
244	0xbd17fa25	-0.03710379
245	0xbf2aed1c	-0.6676805
246	0x3de93038	0.1138615
247	0x3ddd12d9	0.107946105
248	0xbe45530b	-0.1926996
249	0x3ecc0d7f	0.39854047
250	0x3eb430b5	0.3519341
251	0xbdaaa1d5	-0.08331648
252	0x3f39d1f6	0.72586
253	0x3f1abad9	0.60441357
254	0xbf0899bf	-0.533596
255	0x3f040ad6	0.51579034

conv.5.bias f4 [64]
0	0x3f64664f	0.8921861
1	0xbe3cdb47	-0.18443023
2	0x3fb47c3f	1.4100417
3	0xbe624859	-0.22097911
4	0xbe965bba	-0.29366857
5	0x3fc433de	1.5328329
6	0x3e023ed2	0.12719277
7	0xbdd6512b	-0.104647
8	0x3fcdd467	1.6080445
9	0x3fb8ca83	1.4436802
10	0x3fc28bdc	1.5198932
11	0xc054e4a1	-3.3264544
12	0xbf20f273	-0.6286995
13	0x3f6ea4fd	0.932205
14	0xbe5200dd	-0.20508142
15	0xbf127cdb	-0.57221764
16	0x40036c85	2.0534985
17	0x3fa3edb9	1.2806922
18	0x3eed5642	0.46354872
19	0x40020f36	2.0321784
20	0xc00b1d3c	-2.1736593
21	0x3fcff045	1.62452
22	0x3f2141e5	0.6299117
23	0x3fd95ac5	1.6980826
24	0x3faa6471	1.3311902
25	0x3f930185	1.1484839
26	0xbf204173	-0.6259987
27	0xc01af83b	-2.4214008
28	0xbec71ca2	-0.38889033
29	0xbeee31e0	-0.46522427
30	0x3f1b3ca8	0.6063943
31	0x3ef153ae	0.47134155
32	0x3eced6a5	0.40398136
33	0xbdd793aa	-0.105262116
34	0x3f5d765c	0.8650873
35	0xbe54d82b	-0.20785587
36	0x3e7b4745	0.24538906
37	0xbfae6323	-1.3624004
38	0x3e81a2e1	0.2531958
39	0x4000575f	2.0053327
40	0x3ff61bcb	1.9227232
41	0xbdee9ed9	-0.116513915
42	0xbe1a3697	-0.15059887
43	0x3fcd43ac	1.6036277
44	0xbdc0021f	-0.093754046
45	0xbf1ff835	-0.6248811
46	0x3fb11e4f	1.3837374
47	0x3fef716c	1.8706489
48	0x3ef8c3a8	0.48586774
49	0x3fb81459	1.438121
50	0xbe5ff434	-0.218705
51	0x3fdd89f4	1.7307725
52	0xbf19254b	-0.5982253
53	0xbecd7fb0	-0.4013648
54	0xbeac95e4	-0.33708107
55	0xbefb0d06	-0.49033374
56	0xbe5a5258	-0.21320474
57	0x3ffcc97e	1.974899
58	0xbf550ee7	-0.83225864
59	0xbeb3544e	-0.35025257
60	0xbf42931c	-0.7600572
61	0xbf1e59b7	-0.61855644
62	0x3fb78717	1.4338101
63	0x3f19e3b9	0.601131

linear.1.weight f4 [256, 169]
0	0x3bc14700	0.0058983564
1	0x3d20e03a	0.03927634
2	0x3d72750a	0.05919365
3	0x3d5dbe1e	0.054136388
4	0xbcd126a8	-0.025531128
5	0xbcb52cb6	-0.022116046
6	0x3d010c74	0.031506017
7	0x3d1dd234	0.038530543
8	0x3d5657c6	0.0523298
9	0x3f50bb64	0.81535935
10	0x3c787cb8	0.015166454
11	0xbc396a70	-0.011316881
12	0x3d03d2f0	0.032183588
13	0x3d46dfb6	0.04855319
14	0xbb09e940	-0.002104357
15	0xbc6f51f8	-0.014606945
16	0x3bce9590	0.0063044503
17	0xbd34ef54	-0.044173554
18	0xbd9a52c0	-0.075353146
19	0xbcaab740	-0.020839334
20	0x3d975cdd	0.07390759
21	0xc046f53e	-3.1087184
22	0xbef37b9e	-0.4755525
23	0x3c4e5ff0	0.0125961155
24	0xbd827194	-0.063693196
25	0xbd86bb78	-0.065787256
26	0xbc8b2aec	-0.01698824
27	0x3d1cfd18	0.038327307
28	0x3cd04040	0.025421262
29	0xbb321e40	-0.0027178675
30	0x3cf3f8c4	0.029781707
31	0xba2b2c80	-0.00065297633
32	0xbd362a2a	-0.044473805
33	0x3fcb40a6	1.5879104
34	0x3d0d6231	0.03451747
35	0xc01b9a1e	-2.4312816
36	0x3ca0ab64	0.019612975
37	0x3cabbd10	0.020964175
38	0xbd2e71d4	-0.042589024
39	0x3d7eb02e	0.062179737
40	0x3d32cb9c	0.04365121
41	0xbd6449dc	-0.0557345
42	0x3d244b3b	0.040110808
43	0xbf8ff53f	-1.1246718
44	0x3d93d2fc	0.072179765
45	0x3ec7b661	0.39006332
46	0xbf8cefcf	-1.1010684
47	0xbefd80f3	-0.49512443
48	0x3eb9e79a	0.3630951
49	0xbf39d9a3	-0.7259771
50	0xbf0a3a18	-0.53994894
51	0xbf76ba18	-0.96377707
52	0x3d25543e	0.040363543
53	0x3d4d1992	0.050073214
54	0xbc04b2d8	-0.00809928
55	0x4034200d	2.8144562
56	0x3f0e8092	0.5566493
57	0x3fdad33a	1.7095711
58	0xbef988e5	-0.48737255
59	0xbe0c0e90	-0.1367743
60	0x3e6115ec	0.21981019
61	0xbf8495f7	-1.0358266
62	0xbd87cf64	-0.066313535
63	0xbf809cb5	-1.0047823
64	0xbd53d9d2	-0.0517214
65	0xbcd332a2	-0.02578098
66	0xbd41b696	-0.04729327
67	0xbd1df925	-0.03856768
68	0xc09b51f5	-4.8537545
69	0xbfad2561	-1.3527032
70	0x4043cb9e	3.0593028
71	0x3f9b0ed5	1.2113901
72	0x3fd91ac3	1.6961292
73	0x40039600	2.0560303
74	0xbeee9f76	-0.46606034
75	0xbda4f9a1	-0.080554254
76	0xbd581f8a	-0.052764453
77	0x3d01c380	0.031680584
78	0x3ced6664	0.028979488
79	0xbd12d060	-0.035843253
80	0x3ce8fe40	0.028441548
81	0x3f370078	0.7148509
82	0xbff60a74	-1.922194
83	0x3c1aaf59	0.00944122
84	0xbfcfe42d	-1.6241509
85	0xbe9bb6f4	-0.3041302
86	0xbfd71bf5	-1.6805407
87	0xbc6c9c48	-0.014441557
88	0x3d215646	0.039388917
89	0x3d4fdd2e	0.050748043
90	0xbd08a254	-0.033357933
91	0xbd119885	-0.035545845
92	0xbd99a67a	-0.07502456
93	0x3f9b2d99	1.212329
94	0xbe3eb7dd	-0.18624826
95	0x3d938e56	0.07204883
96	0x3fee3dd0	1.8612614
97	0x3fbfff14	1.4999719
98	0xbe0e8ac5	-0.13920124
99	0xc01ac8a9	-2.4184973
100	0xc06dc350	-3.715046
101	0x3d5d6b0e	0.054057173
102	0xbd72ab40	-0.059245348
103	0xbc8ed650	-0.017436177
104	0xbc3f7e08	-0.011687763
105	0x3f523640	0.8211403
106	0x3e847a2a	0.25874454
107	0x4013e81f	2.3110425
108	0x3ea44699	0.32085112
109	0x3f6f00b9	0.9336048
110	0x3f7d667c	0.98984504
111	0x3ff3df50	1.9052525
112	0xbe41809b	-0.18896715
113	0x3e5d8d02	0.21635821
114	0x3cd8e730	0.026477426
115	0x3d3f3abc	0.046686873
116	0xbcde4624	-0.027133055
117	0x4005a657	2.0882776
118	0xc00f2e58	-2.2372036
119	0x3f78a545	0.9712718
120	0xbfde18c1	-1.7351304
121	0x3f6f5dad	0.9350231
122	0xbf4a6165	-0.7905486
123	0xbea6f6a7	-0.32610056
124	0xbf3cd096	-0.73755777
125	0xbf776081	-0.9663163
126	0xbdd76b36	-0.10518496
127	0x3d6b52d6	0.057452045
128	0xbd023288	-0.03178647
129	0x3d8b80e1	0.06811691
130	0x3d4ccf6e	0.050002508
131	0xbcde7b76	-0.02715848
132	0x3d822ae7	0.06355839
133	0xbe91c46b	-0.28470168
134	0x4011fa9f	2.2809217
135	0x400429b6	2.0650458
136	0xbd18284a	-0.037147798
137	0x3d4d4172	0.05011124
138	0x3c2d3d18	0.010573648
139	0xbc389280	-0.011265397
140	0xbd006dbb	-0.031354647
141	0x3d787802	0.060661323
142	0x3d8d7df7	0.069087915
143	0xbd2d5a6a	-0.042322554
144	0x3d1cff28	0.038329273
145	0x3d3c5b2a	0.04598538
146	0x3f2c810c	0.6738441
147	0x40b6449e	5.695876
148	0x3ce5f6ec	0.028071843
149	0x3b8b1140	0.0042439997
150	0x3c2b12a0	0.010441452
151	0xbc1f2c78	-0.009715192
152	0x3cf47154	0.029839195
153	0x3d7963e6	0.060886286
154	0x3d499536	0.049214564
155	0x3d03918a	0.03212122
156	0xbd799774	-0.060935453
157	0x3c909bf8	0.017652497
158	0xbd3c6846	-0.04599788
159	0x3c2b4188	0.010452636
160	0x3d013fbc	0.031554922
161	0xbbeb8250	-0.0071871653
162	0xbd92019f	-0.071292154
163	0x3d6a9f76	0.05728098
164	0xbd496499	-0.049168203
165	0x3cb427e8	0.021991685
166	0x3d4b4d0a	0.049634017
167	0x3c957ee4	0.018248983
168	0x3d1dd670	0.03853458
169	0x3d6dc3be	0.058048002
170	0xbd8e800f	-0.06958019
171	0xbd8a61d6	-0.06756942
172	0x3c380838	0.011232428
173	0x3ce9ba28	0.028531149
174	0xbd8e065d	-0.069348074
175	0x3c5a84d8	0.0133373365
176	0xbd16947b	-0.036762696
177	0xbd8b0b95	-0.067893185
178	0x3fa5db41	1.2957536
179	0x3d3c1ce8	0.045926005
180	0xbb175f60	-0.002309762
181	0xbd542106	-0.051789306
182	0xbcb61dd4	-0.02223102
183	0xbc22a850	-0.009927824
184	0xbca07414	-0.0195866
185	0x3d22d6be	0.039755575
186	0xbc8e3c32	-0.017362688
187	0xbd5b5696	-0.05354937
188	0xbd3dd1e6	-0.046342753
189	0x3d8058bb	0.06266924
190	0x3fd4bbff	1.6619872
191	0x3f9fec90	1.2494068
192	0xbd081259	-0.033220623
193	0x3c9aedac	0.018912159
194	0xbd7b6ee6	-0.061385058
195	0xbd759319	-0.059954736
196	0x3d6b287a	0.05741165
197	0x3a7eb280	0.00097159296
198	0xbcc07f6c	-0.02349826
199	0x3cdb0b40	0.026738763
200	0xbd1f861b	-0.038946252
201	0xbbee6290	-0.007274933
202	0xc032eb71	-2.7956202
203	0x3f860836	1.0471256
204	0xbf963ca9	-1.1737262
205	0x3c93262c	0.017962538
206	0x3cda2940	0.026630998
207	0x3b4f4980	0.0031629503
208	0x3b8d25a0	0.0043074638
209	0x3d0f5c20	0.034999967
210	0xbc8c94e8	-0.017160848
211	0xbeb9eb4f	-0.3631234
212	0xbfd068d1	-1.6281987
213	0xc01077da	-2.2573152
214	0x3efe69a4	0.49689972
215	0xbe5220c1	-0.20520307
216	0x3f4dc947	0.8038525
217	0xbe1e2f17	-0.15447651
218	0x3f6d56a5	0.92710334
219	0xbf572428	-0.84039545
220	0x3ffc3ec8	1.9706659
221	0xbd3601b2	-0.04443521
222	0xbcdfb13c	-0.027306192
223	0xbd78f4cd	-0.060780335
224	0xbe064f26	-0.1311613
225	0xbfa80a07	-1.312806
226	0x3d83ee5b	0.06441947
227	0xc0172fde	-2.3622966
228	0x3f5ee215	0.87063724
229	0xbf0d3391	-0.5515681
230	0x4000852a	2.0081277
231	0x3f868deb	1.051206
232	0xbfee56e3	-1.8620266
233	0xbd2a2a1e	-0.041544072
234	0x3d5c58d6	0.053795658
235	0xbcf2c48a	-0.029634733
236	0xbd4655b9	-0.048421595
237	0xc0371344	-2.8605509
238	0x3e3720df	0.17883633
239	0xbf3f011e	-0.7461108
240	0x3f304d1f	0.6886768
241	0x3fa6196e	1.297651
242	0x3f63e63f	0.890232
243	0xbf0ad913	-0.5423748
244	0x4039f6f9	2.905699
245	0xbd27ad3b	-0.04093669
246	0x3d8a379b	0.06748887
247	0xbcb1969e	-0.021678265
248	0x3d21f73e	0.03954243
249	0x3d47c376	0.04877039
250	0x3f75331c	0.9578111
251	0x3f900aba	1.1253273
252	0xbd946ba0	-0.0724709
253	0x3f776aac	0.96647143
254	0x3f59a6a6	0.8501991
255	0x40638f10	3.5556068

linear.1.bias f4 [256]
0	0x3d576900	0.05259037
1	0x3f0787d1	0.52941614
2	0x3f4e5243	0.8059427
3	0x3e8b0e14	0.27159178
4	0x3e6c039a	0.23048249
5	0xbd3fc5ea	-0.046819605
6	0x3f774d56	0.9660238
7	0x3d9affde	0.07568334
8	0xbded1e83	-0.11578085
9	0x3e823b20	0.25435734
10	0x40749743	3.8217323
11	0x3d01bb53	0.031672787
12	0x3ecd0f07	0.40050527
13	0x3f14e1d5	0.5815709
14	0x40061ce6	2.0955138
15	0x3dbd6cb2	0.092492476
16	0x3e6885b5	0.22707255
17	0x3f161ca7	0.5863747
18	0x3d9257c8	0.07145649
19	0xbe819af6	-0.25313538
20	0xbea6015a	-0.32422906
21	0x3f0f076a	0.5587069
22	0x3e778310	0.2417109
23	0x3ee5f958	0.44916797
24	0xc01e180a	-2.4702172
25	0x3e54c794	0.20779258
26	0x3e6d6afe	0.23185346
27	0x3f34c8e7	0.7061905
28	0xbeb3214c	-0.3498634
29	0x3f332fbc	0.6999471
30	0x3f50b650	0.81528187
31	0x3f523a34	0.8212006
32	0xc02fb5cd	-2.7454712
33	0x3d51f5e4	0.05125989
34	0x3f74b92b	0.95595044
35	0xbd4a7f50	-0.04943782
36	0x3e67cfa6	0.22637805
37	0x3e72ac3b	0.23698513
38	0x3ea651e7	0.32484362
39	0x3e6cfd9d	0.23143621
40	0x3f5411d6	0.82839715
41	0x405cdbef	3.4509237
42	0x3ef217e0	0.4728384
43	0x40104c0a	2.254641
44	0x3f05e429	0.5230127
45	0xbe2dfa93	-0.16990118
46	0x3f18d6e5	0.59702903
47	0xbe62c7fa	-0.22146598
48	0x401a1834	2.4077272
49	0x3e3ff614	0.18746215
50	0x3f1afc84	0.6054156
51	0x3f21df20	0.63231087
52	0x3ef9fd3a	0.4882601
53	0x3eda7a45	0.4267141
54	0x3eb0d701	0.34539035
55	0x3dace852	0.08442749
56	0x3e2cc524	0.16872078
57	0x3dd76c52	0.10518707
58	0x3eec3215	0.4613196
59	0x3f3442cc	0.70414424
60	0xc0123aae	-2.2848315
61	0xc05b977d	-3.431121
62	0x3f377695	0.71665317
63	0x40060744	2.0941935
64	0x3f26dd52	0.6518146
65	0x3d26f0d6	0.040757023
66	0xbc3a16a9	-0.011357942
67	0x3ed70877	0.41998646
68	0x3d893fd3	0.06701627
69	0x402c1b64	2.6891718
70	0x407f9e23	3.994027
71	0x3e4ead90	0.20183396
72	0x3e655f1e	0.22399566
73	0x3ed9a70a	0.42510253
74	0xbaae1a79	-0.0013283036
75	0xbdf7fb5a	-0.121084884
76	0x3f2ee5b2	0.6831924
77	0xbdcc4a69	-0.0997513
78	0x3e19b3f7	0.15010057
79	0xbcd1f178	-0.025627837
80	0x3f0abf0d	0.5419777
81	0x40962eb7	4.6932025
82	0x3f378a17	0.71695083
83	0x3ec49db9	0.38401583
84	0xbd69416b	-0.056947153
85	0x3f4c9934	0.7992127
86	0x3f20c68e	0.6280297
87	0xbdad3651	-0.08457626
88	0x3e543de3	0.20726733
89	0xbe53232c	-0.20618886
90	0x3eb5dc52	0.35519654
91	0xbdc9213c	-0.09820792
92	0x3edfbf00	0.4370041
93	0x3ef79028	0.4835217
94	0x3fe772af	1.8081874
95	0x3e5c3706	0.21505365
96	0x3ed9af26	0.4251644
97	0x3f0817f0	0.53161526
98	0x3d43bde2	0.04778851
99	0x3f16510a	0.58717406
100	0x3f373bdb	0.7157571
101	0xbdda692e	-0.10664593
102	0x3e708389	0.23487677
103	0x3df7a950	0.12092841
104	0xbe75b344	-0.23994166
105	0xbd4e5468	-0.050373465
106	0x3d305b67	0.043055918
107	0xbe40c649	-0.1882564
108	0xc0180edb	-2.3759067
109	0x3e4da7ac	0.20083493
110	0xc029a033	-2.6504028
111	0x3e1bd1f6	0.15216812
112	0x3ef90121	0.48633674
113	0x3f0097bf	0.50231546
114	0x3ebdb9af	0.37055728
115	0x3f12b2b3	0.57303923
116	0x3df95844	0.121750385
117	0xbe646b1f	-0.22306488
118	0x3e058f7e	0.13043019
119	0xbe3f6577	-0.1869105
120	0x400c63ec	2.1935987
121	0x3e9a3f63	0.30126485
122	0x3eea4906	0.45758837
123	0xbd08ad70	-0.033368528
124	0x3e76141a	0.24031106
125	0x3e45af4b	0.1930515
126	0x3f39f82b	0.726443
127	0x3f02e174	0.51125264
128	0xbee226cc	-0.44170225
129	0x3df1837b	0.11792656
130	0x3d991926	0.074755
131	0x3f81251b	1.0089449
132	0x404fef00	3.2489624
133	0x3e5fcd5b	0.2185568
134	0xbd2a9852	-0.04164917
135	0x3e269cba	0.16270724
136	0xbc83c881	-0.016086819
137	0x3dcd9009	0.10037238
138	0x3f0002bb	0.50004166
139	0x3efc9ce6	0.49338454
140	0x3d86b87b	0.065781556
141	0x3e3129ad	0.17301054
142	0x3e5af49f	0.21382378
143	0x3e814e8d	0.25255242
144	0xbbb88dc2	-0.005632133
145	0x3ef00ac6	0.4688322
146	0x3f2defd3	0.6794407
147	0x402e7def	2.7264364
148	0xbe580f6b	-0.21099631
149	0x3e831a45	0.2560598
150	0xbc5ff377	-0.013668886
151	0x3e9f06ea	0.31059963
152	0xc01b85ba	-2.430037
153	0xc0205d44	-2.5056925
154	0x3e836359	0.25661734
155	0x3f7dd254	0.9914906
156	0x3ee571a0	0.44813251
157	0x3e0ae81c	0.13565105
158	0x3f32a773	0.6978676
159	0x3efa7714	0.48918974
160	0x3e390fd1	0.1807244
161	0x3ed86a67	0.4226868
162	0xbe8b90ac	-0.27258813
163	0xbead02c2	-0.33791167
164	0x3e908fc4	0.28234684
165	0x3f091e17	0.5356154
166	0x3de003c9	0.10938222
167	0x3f392ab2	0.7233077
168	0x3e306060	0.17224264
169	0x3ecf44a6	0.40482062
170	0x3eb6be36	0.35691994
171	0x3e93629a	0.28786165
172	0x3f455ee5	0.7709792
173	0x3f19b185	0.600365
174	0x3ea13d0d	0.3149189
175	0x3c8f859e	0.017519768
176	0x4025808e	2.5859714
177	0x3efe6fee	0.4969477
178	0xbe4a19dc	-0.19736427
179	0xbd3ec514	-0.046574667
180	0xc0678c83	-3.6179512
181	0x40b66e09	5.700932
182	0x3e1e7517	0.15474354
183	0x3e6db96b	0.23215263
184	0x3e7808d9	0.24222125
185	0xbe40a7ff	-0.18814085
186	0x3f33b67f	0.7020034
187	0x3f3b2495	0.73102695
188	0xbe6bdc6d	-0.23033305
189	0x3ce214f3	0.02759788
190	0xbc001611	-0.007817761
191	0xbece8444	-0.40335286
192	0x3e347fcd	0.17626877
193	0x3dff2529	0.124582596
194	0x3e526efb	0.20550148
195	0xc0832215	-4.0979104
196	0x40912d89	4.5368085
197	0x3d859ef2	0.06524457
198	0xbec4786e	-0.3837313
199	0x3ecabc86	0.39596957
200	0x3dc232d7	0.09482353
201	0x3f07967b	0.5296399
202	0x3ea499c0	0.32148552
203	0x3e560ed0	0.20904088
204	0xc0122cba	-2.28398
205	0x3e6c34cc	0.23067015
206	0x3eac41e3	0.33644018
207	0x3f7a5b4f	0.97795576
208	0x3e643204	0.22284704
209	0x3e352156	0.17688498
210	0xc02696ba	-2.6029496
211	0x3e0b50f0	0.13605094
212	0x3e865d72	0.26243168
213	0x40225974	2.5367098
214	0xc061f82a	-3.5307717
215	0x3f0dd553	0.5540363
216	0x3f0ae185	0.54250365
217	0x3ff71441	1.9303056
218	0x3e1b3331	0.15156247
219	0x401d73fb	2.460204
220	0x3da0938d	0.07840643
221	0x3f4e2154	0.80519605
222	0x3e3642ec	0.17798966
223	0x3e1016d4	0.14071208
224	0x3d89c417	0.06726854
225	0x3da74e4a	0.08169229
226	0x3f0cc2e0	0.54984856
227	0xbe04e723	-0.12978797
228	0x40114984	2.270112
229	0x3e74983d	0.238862
230	0x40a16cb0	5.0445175
231	0x3f21e148	0.63234377
232	0xbe6733c3	-0.2257834
233	0x3f028269	0.5098024
234	0x3d9afb63	0.075674795
235	0x3f28a083	0.6586992
236	0xbe3387ce	-0.17532274
237	0xbe703b65	-0.23460157
238	0x3cd56990	0.026051313
239	0x3e158d14	0.14604598
240	0x3e4f29f5	0.20230849
241	0x3ebdb36a	0.37050945
242	0x3ed4d1be	0.4156627
243	0x3ef93a51	0.48677304
244	0x3ebb98f8	0.36640143
245	0x3dfef104	0.12448314
246	0x3e5b8dff	0.21440886
247	0x403e849c	2.9768438
248	0xbe35a7d2	-0.177398
249	0xbea764b2	-0.32694012
250	0x4013fade	2.3121867
251	0xbdcc46f5	-0.099744715
252	0x3eb7efac	0.35925043
253	0x3e6eaf54	0.2330907
254	0x3d77f9c4	0.06054093
255	0x3de2f561	0.110819586

linear.3.weight f4 [64, 256]
0	0xc0fa5323	-7.8226485
1	0x4125a581	10.352906
2	0x415e3e7c	13.890255
3	0xc0ec2428	-7.3794136
4	0xc0942d20	-4.6305084
5	0xc11dd9e9	-9.865701
6	0x40f4beb8	7.648281
7	0xc0ff5c51	-7.980019
8	0xc111718a	-9.0902195
9	0x411e8fc4	9.910099
10	0x3fe2424e	1.7676485
11	0xc091670f	-4.5438304
12	0xc13575c5	-11.341252
13	0x41660965	14.377294
14	0x401b1c54	2.423604
15	0x41602db2	14.011156
16	0x41824bc3	16.286993
17	0x414d5618	12.833519
18	0xc150a310	-13.03981
19	0xc113ca5f	-9.236907
20	0xc1191cc1	-9.56952
21	0x41594b35	13.580861
22	0x41607de5	14.030736
23	0x40eab05c	7.3340282
24	0xc0090f2d	-2.1415513
25	0xc16fa7a4	-14.978428
26	0xc0ab32c0	-5.349945
27	0x412390c7	10.222846
28	0xc11d6bb6	-9.838797
29	0x4109b249	8.606027
30	0x40a86886	5.262759
31	0x40e77c7b	7.2339454
32	0xbfe7a5fa	-1.8097527
33	0xc11325ed	-9.196759
34	0x4116e75a	9.431482
35	0xc14404d5	-12.25118
36	0xc11fea3e	-9.994688
37	0xc0788494	-3.883092
38	0x41230fd2	10.191362
39	0x4155783b	13.341853
40	0x40f0890f	7.516731
41	0x4006ae3b	2.1043842
42	0x409f53ce	4.97898
43	0x40051bcc	2.0798216
44	0x41483993	12.514056
45	0xc160e10f	-14.054946
46	0x4136700e	11.402357
47	0xc17be296	-15.742819
48	0x3ffba3f9	1.9659415
49	0x41164155	9.39095
50	0xc168cb4a	-14.549631
51	0x412730ce	10.449415
52	0x41538a3e	13.221251
53	0xc0d9f9fe	-6.8117666
54	0xc11653d3	-9.395465
55	0xc140ed58	-12.057945
56	0x414ed4b6	12.926931
57	0xc1805b34	-16.044533
58	0x414ddccb	12.866405
59	0x413a52cc	11.645214
60	0xc019e80a	-2.4047875
61	0xbff681f3	-1.9258407
62	0x4111b06d	9.105573
63	0x4011c58c	2.2776823
64	0x4149fb3c	12.6238365
65	0xc08a57f0	-4.3232346
66	0xc1250511	-10.313737
67	0x41200757	10.001792
68	0xc1205601	-10.020997
69	0x3fe9197a	1.82109
70	0x40028b21	2.0397418
71	0x4142f426	12.184607
72	0xc13a083a	-11.627008
73	0x4146223b	12.383357
74	0xc130b7af	-11.044845
75	0xc0f30202	-7.593995
76	0x41819ee4	16.202583
77	0xc1377342	-11.465639
78	0xc0c144e3	-6.039659
79	0xc110e6a9	-9.0563135
80	0x40af449d	5.4771256
81	0x3f88c775	1.068587
82	0x41331213	11.191913
83	0x4139d22f	11.613814
84	0xc0e26c89	-7.075749
85	0x41599692	13.59926
86	0x419cfc0b	19.623068
87	0xc12fedbc	-10.995541
88	0x41115ebf	9.085631
89	0xc106978a	-8.411997
90	0x418a9fa0	17.327942
91	0xc0ed8572	-7.4225397
92	0x4136fd7f	11.436889
93	0x416eaadf	14.916717
94	0x3fffe466	1.9991577
95	0xc12f55dd	-10.958463
96	0x415c44ef	13.7668295
97	0xc14134ae	-12.075361
98	0xc117b00c	-9.48048
99	0x408e06f5	4.4383492
100	0xbeac83a6	-0.3369419
101	0xc132929c	-11.160793
102	0xc172d73c	-15.177547
103	0x40c75ce8	6.230091
104	0xc185e579	-16.737047
105	0xc1251287	-10.317023
106	0x413fb317	11.981223
107	0xc15f79ea	-13.967264
108	0xc0201e62	-2.5018544
109	0x414f260a	12.946787
110	0xc00622aa	-2.0958657
111	0xc142edaa	-12.183023
112	0x4175ed82	15.370485
113	0x4103bc20	8.233429
114	0x412ef67c	10.935177
115	0xc12e41fa	-10.891108
116	0x41625f5c	14.148281
117	0xc147b1f9	-12.48095
118	0xc0e830dc	-7.2559643
119	0xc0ff8f98	-7.9862785
120	0x40189313	2.3839767
121	0x415ad674	13.677357
122	0x40e86a60	7.262985
123	0xc146e54c	-12.430981
124	0xc13d228d	-11.820935
125	0x403bfbc2	2.937241
126	0x412bfe2c	10.749554
127	0x415e5002	13.894533
128	0x419257ca	18.292866
129	0x414874b7	12.528495
130	0x40ed3234	7.4123783
131	0x4165614e	14.336256
132	0x40097748	2.1479053
133	0xc0aec3aa	-5.461385
134	0xc10430c1	-8.261903
135	0xc10e4d34	-8.893848
136	0xc1282fc3	-10.511661
137	0xc0f74e3e	-7.728301
138	0x41693c9c	14.577297
139	0x40bdafc8	5.9277077
140	0x4189e66d	17.237513
141	0x41345690	11.271133
142	0xc0dec9a9	-6.9621167
143	0x4133fdda	11.2494755
144	0xc1525389	-13.145394
145	0x4116cdd0	9.425247
146	0x414af67a	12.685175
147	0x400688c8	2.1020985
148	0xc18cc143	-17.594366
149	0xc1377f7d	-11.468625
150	0xc10af2bf	-8.684264
151	0xc1167e69	-9.405862
152	0xc00dac0b	-2.2136257
153	0xc01d99e8	-2.4625187
154	0xc15e1819	-13.880883
155	0x40d58000	6.671875
156	0x4131ebb6	11.120047
157	0xc131d5a6	-11.11466
158	0x4098c8a2	4.7744913
159	0x4170a915	15.04128
160	0xc121990f	-10.099868
161	0xc11cb83b	-9.794978
162	0xc162d0bf	-14.175963
163	0xc19267f9	-18.300768
164	0xc11b9047	-9.722724
165	0x414b2a78	12.697868
166	0xc0dd77d3	-6.920877
167	0x415a7ca7	13.655433
168	0xc10d98bb	-8.849788
169	0x412ea6ba	10.915705
170	0x411a5b53	9.647296
171	0x41437426	12.215857
172	0x413432d5	11.26241
173	0x4126f7d0	10.435501
174	0x4126b9c6	10.420355
175	0xc17b527b	-15.707637
176	0x3ff326ff	1.8996276
177	0xc114dc65	-9.303807
178	0xc14e3393	-12.887591
179	0xc113e483	-9.243289
180	0xbfb57766	-1.4177063
181	0x3fa44733	1.2834228
182	0xc1777dc4	-15.4682045
183	0x4118ab0b	9.541759
184	0x4144d8ab	12.302897
185	0x41991bf1	19.138643
186	0x4148989d	12.537259
187	0x410d4a4a	8.830637
188	0xc1359199	-11.348046
189	0xc13bdc24	-11.741245
190	0x41451d3d	12.319638
191	0xc1198cca	-9.596872
192	0xc177d679	-15.4898615
193	0x418191cb	16.196188
194	0x40e10df4	7.0329533
195	0xbfd326a4	-1.6496167
196	0x3fe07e2a	1.7538502
197	0xc0c2da5e	-6.089156
198	0xc1484cd7	-12.51876
199	0x4183b1d4	16.46183
200	0xc11f873c	-9.970516
201	0x415a2d09	13.635995
202	0x412a44e5	10.64182
203	0xc128268a	-10.509409
204	0xc022406e	-2.5351825
205	0x4129af33	10.605273
206	0xc16dd092	-14.8634205
207	0x40e9fa9c	7.311842
208	0xc1722de7	-15.136207
209	0xc0f83a4c	-7.7571163
210	0xbffc1450	-1.9693699
211	0xc144dbf8	-12.303703
212	0x4177e8d1	15.49434
213	0x3fe5030e	1.7891557
214	0xbff35e73	-1.9013199
215	0x413dc076	11.859488
216	0x417836af	15.5133505
217	0x3ffbe485	1.9679114
218	0x417fa98f	15.978896
219	0x3ff28cee	1.8949258
220	0xc0fe625e	-7.9495077
221	0xc13df262	-11.8716755
222	0x414cc5cd	12.798291
223	0xc15e8626	-13.907751
224	0xc1203588	-10.013069
225	0xc16368dc	-14.2131
226	0x4172a336	15.164846
227	0x417fa2a5	15.977208
228	0x4000f7b3	2.0151184
229	0xc1296901	-10.588136
230	0x3f973798	1.1813841
231	0x41970d57	18.881514
232	0xc127d83c	-10.490292
233	0x4185dbbd	16.732294
234	0xc109289d	-8.572415
235	0x417a9bd8	15.663048
236	0xc18222f3	-16.267065
237	0xc117ffcb	-9.499949
238	0xc0f3dded	-7.6208405
239	0xc0e50535	-7.1568856
240	0xc118d83a	-9.55279
241	0x413e89e6	11.908667
242	0xc0dd8d84	-6.923525
243	0x41457847	12.341865
244	0x412ca74b	10.790843
245	0x414c6813	12.775409
246	0xc052c714	-3.2934008
247	0x401dae9b	2.463782
248	0xc13dfead	-11.874677
249	0xc16c98a0	-14.787262
250	0x40081fbd	2.1269372
251	0xc0c8c9b0	-6.27462
252	0xc13e3bde	-11.889616
253	0xc11e6ccd	-9.901563
254	0xc0efaa04	-7.489504
255	0xc10bc3c8	-8.735298

linear.3.bias f4 [64]
0	0x3fb281c0	1.3945847
1	0x3f9a0ea9	1.2035724
2	0x3fdae545	1.7101218
3	0x3f9d6146	1.229531
4	0x3faaa90a	1.3332837
5	0x3fa30328	1.2735338
6	0x3f87494b	1.0569242
7	0x3f97cd54	1.1859536
8	0x3f90a9fe	1.1301877
9	0x3f94926d	1.1607186
10	0x3f8c4b31	1.0960447
11	0x3f811f35	1.0087649
12	0x3f8a3ae7	1.0799226
13	0x3f87ac14	1.0599389
14	0x3f9d49a6	1.2288101
15	0x3f8d6a0e	1.104799
16	0x3f9af472	1.2105849
17	0x3f9bd2da	1.2173722
18	0x3f9a2c1a	1.2044709
19	0x3f85a328	1.0440416
20	0x3fb9979d	1.4499394
21	0x3fddaa59	1.7317611
22	0x3fa9cfd6	1.3266551
23	0x3fb35bc1	1.4012376
24	0x3fa68a28	1.3010912
25	0x3f63b3aa	0.8894602
26	0x3f6f810e	0.93556297
27	0x3f6b0acb	0.91813344
28	0x3f74bba1	0.955988
29	0x3f971153	1.1802162
30	0x3f920176	1.1406696
31	0x3f921899	1.1413757
32	0x3fb74f7a	1.4321129
33	0x3f749601	0.9554139
34	0x3f5c02f5	0.8594201
35	0x3fa5d083	1.2954258
36	0x3f8aa8b3	1.0832733
37	0x3fa3cf2e	1.2797601
38	0x400dbcca	2.2146478
39	0x3f950372	1.1641676
40	0x3f98bcfe	1.1932676
41	0x3f781183	0.9690172
42	0x3fd8df9a	1.6943238
43	0x3f986382	1.1905367
44	0x3fb31847	1.3991784
45	0x3f96d1e3	1.1782802
46	0x3f8ab35a	1.0835984
47	0x3fb430a8	1.4077349
48	0x4020a187	2.5098588
49	0x3fc73244	1.5562215
50	0x3fa60467	1.2970093
51	0x3fa498fd	1.2859188
52	0x3fb0859e	1.3790777
53	0x3f97c221	1.1856118
54	0x3fa26142	1.2685931
55	0x3f99900d	1.1997086
56	0x3f814979	1.0100547
57	0x3f9ea55b	1.2394212
58	0x3f88eb03	1.069672
59	0x3f7798ad	0.9671734
60	0x3f683749	0.9070936
61	0x3fa93e90	1.3222218
62	0x3f82b529	1.0211536
63	0x3f88698d	1.0657212

reg.weight f4 [2, 128]
0	0x40c378e7	6.1085086
1	0xc0a1cc60	-5.056198
2	0x403b59b2	2.9273496
3	0xbff7785c	-1.9333606
4	0x40f88358	7.766033
5	0x4078c821	3.887215
6	0xbfa6b745	-1.302468
7	0x40db5ef5	6.8553414
8	0x404a6073	3.1621368
9	0x408e1f69	4.4413342
10	0x4053f286	3.3116775
11	0x3d834e96	0.064114735
12	0x3fda4f69	1.7055484
13	0x40a5f9ec	5.186758
14	0xbf74300a	-0.953858
15	0xc03bd3b9	-2.9347975
16	0x403cbe5d	2.9491189
17	0x404cb102	3.1983037
18	0x409d1bf0	4.9096603
19	0x403056f7	2.755308
20	0x40a3d93b	5.1202674
21	0x4078c91c	3.8872747
22	0x40d27762	6.577073
23	0x4035db69	2.8415167
24	0x4062ac82	3.541779
25	0x406c96d8	3.6967068
26	0x3b287024	0.0025701607
27	0x40e95b9b	7.2924323
28	0xbe5e0c4f	-0.21684383
29	0xbf962c66	-1.1732299
30	0xbfd071f7	-1.6284779
31	0x40e49cee	7.1441565
32	0x40dc04e8	6.875599
33	0x3fe4461e	1.7833898
34	0x40a3ffcc	5.124975
35	0x3d34edb4	0.044172004
36	0x40456fcf	3.0849493
37	0x40730e48	3.7977467
38	0xbfcefb24	-1.6170392
39	0x402f82e7	2.7423646
40	0x4033da61	2.8102038
41	0x3fdff42c	1.749639
42	0x3da37bf8	0.079826295
43	0x4051230b	3.2677639
44	0xbfa7fd88	-1.3124247
45	0xc008eac9	-2.1393301
46	0x40713909	3.7691061
47	0x407963d3	3.8967178
48	0x40c8d6ac	6.276205
49	0x4045a920	3.0884476
50	0xc044a2f2	-3.0724454
51	0x403d9ebd	2.9628136
52	0x3d7b7627	0.061391976
53	0x3fbf1014	1.4926782
54	0x40a64d5a	5.1969423
55	0xc044eed6	-3.0770774
56	0x3fd299a2	1.6453135
57	0x4037e4e1	2.8733447
58	0x3e7aa4fc	0.24476999
59	0x3da75d80	0.081721306
60	0x3db19a64	0.08672026
61	0x3cb2a9c3	0.021809464
62	0x40982e30	4.755638
63	0x40f55f87	7.667911
64	0x4277d8ea	61.96183
65	0x427b4e16	62.826256
66	0x4271f201	60.486332
67	0x427c0a40	63.01001
68	0xc211a4d7	-36.410976
69	0x427b7bae	62.87078
70	0x427c7def	63.122982
71	0x427b5f4f	62.843075
72	0xc212b8c6	-36.680443
73	0x427bacbf	62.918697
74	0x427bbdc7	62.93533
75	0x427c35c2	63.052498
76	0x427d01b9	63.251682
77	0x427b8d8e	62.888237
78	0xc2123aea	-36.557533
79	0x427c8131	63.126163
80	0x42795489	62.332554
81	0x427bd11c	62.95421
82	0xc21292c1	-36.643314
83	0x427b9df6	62.90426
84	0x427b9fde	62.90612
85	0xc2160350	-37.503235
86	0x427ae6d0	62.725403
87	0xc2133431	-36.80097
88	0xc211b8f2	-36.43061
89	0x427c471d	63.069447
90	0x427c1309	63.01859
91	0x427c00ac	63.000656
92	0x427c0fcc	63.015427
93	0x427aeadc	62.729355
94	0x427bcb7c	62.948715
95	0x427bd4cc	62.95781
96	0x4277f9f4	61.994095
97	0x427b1c20	62.777466
98	0x427c3d71	63.06
99	0x427bb66f	62.928158
100	0x427c2568	63.03653
101	0xc212bb4b	-36.682903
102	0x423d39a5	47.306293
103	0x427bbf51	62.936832
104	0x427b9004	62.89064
105	0x427be67c	62.975082
106	0x427a7e64	62.62343
107	0x427bfcd4	62.996902
108	0x427aab35	62.667194
109	0x427bbbd9	62.933445
110	0x427bcf0e	62.9522
111	0x4277a5f2	61.912056
112	0x423aaa16	46.6661
113	0x427b2d38	62.79416
114	0xc2117dd8	-36.372894
115	0xc21247d9	-36.570164
116	0xc212d2fc	-36.70604
117	0x427b9778	62.89792
118	0x4278aadc	62.166855
119	0xc211506d	-36.32854
120	0x427c59d8	63.087738
121	0x427c407a	63.062965
122	0x427bbc1e	62.93371
123	0x427c4d3d	63.075428
124	0x427c17af	63.02313
125	0xc2132904	-36.790054
126	0x427c4f8f	63.077694
127	0x427c4947	63.07156
128	0xb8a4e25a	-7.862291e-05
129	0xbb8a59f6	-0.00422215
130	0xbbafc6b8	-0.0053642653
131	0x3dc67e08	0.09692007
132	0xb987407a	-0.00025797245
133	0xbabfc857	-0.001463185
134	0x3c51be4d	0.012801719
135	0x387eb15c	6.0723498e-05
136	0xbad24b2b	-0.001604413
137	0xba6eefc1	-0.00091147056
138	0x3bb1eecf	0.0054300795
139	0x3d3b1667	0.04567566
140	0xbb89b195	-0.0042020776
141	0xb9fbfbbc	-0.00048062007
142	0xbba3408b	-0.0049820594
143	0xbb630ca4	-0.0034644986
144	0x3b936218	0.0044977777
145	0xbbc75707	-0.0060833725
146	0xbb07a763	-0.0020699135
147	0x3c8d3a31	0.017239662
148	0x3a80cf54	0.0009827414
149	0xbc186b2e	-0.009302897
150	0x39f8c474	0.00047448615
151	0xbb9cb666	-0.004782486
152	0xbb185015	-0.0023241092
153	0xba6175c8	-0.00086006196
154	0x3e010687	0.12600146
155	0xb89a0a86	-7.3452524e-05
156	0x3f04dae9	0.5189653
157	0x3b800edc	0.0039080214
158	0x38023f06	3.105311e-05
159	0xbb689b07	-0.0035492794
160	0x3a8b3513	0.0010620676
161	0xbce1527a	-0.027505148
162	0xba81ded0	-0.0009908322
163	0x3cea2d33	0.028586006
164	0x3b682358	0.0035421457
165	0x3b7cf344	0.0038597146
166	0xbbaaefa9	-0.005216558
167	0xbcae63d6	-0.02128784
168	0xb7c75158	-2.3760527e-05
169	0x3dd5ac4c	0.10433254
170	0xbd87ea38	-0.066364706
171	0x3afe71e3	0.0019412603
172	0xbc3130a6	-0.010814821
173	0x3c3d1a31	0.011541889
174	0xbb667129	-0.0035162664
175	0x3ae3a8f2	0.0017369075
176	0x3b92b52a	0.004477163
177	0x3c132b07	0.0089824265
178	0xba0c855a	-0.0005360447
179	0x3a365bd7	0.0006956434
180	0x3e10f0df	0.14154385
181	0x3c736df0	0.014857754
182	0xbb099c7e	-0.0020997818
183	0x3a5c2963	0.0008398501
184	0xbd271d0c	-0.040799186
185	0x3b4c67b4	0.0031189742
186	0xbea61bd2	-0.324431
187	0xbc108d42	-0.008822741
188	0xbda061a9	-0.07831127
189	0xbe1ccd78	-0.15312755
190	0x3bbe5fce	0.0058097607
191	0x3b077b34	0.00206728
192	0x3ba20ce0	0.0049453825
193	0x3b68cd4e	0.0035522762
194	0xbc068403	-0.008210185
195	0xba5d7ed7	-0.00084493816
196	0x3bedcc3c	0.0072570127
197	0xba6d972e	-0.000906336
198	0x3bb17357	0.005415361
199	0xbc42c8f0	-0.011888728
200	0xbc672641	-0.014108242
201	0xba017c9a	-0.00049395266
202	0xbc60b9a5	-0.013716136
203	0x3bb3dcf7	0.0054889875
204	0x3bc80a6c	0.006104758
205	0x3b649b98	0.003488278
206	0xbc0ab77e	-0.0084665995
207	0x39fc3d8e	0.00048111047
208	0x3b365056	0.002781888
209	0xbc0b8417	-0.008515379
210	0x3a9dc4d5	0.001203681
211	0x3b15c379	0.0022852106
212	0x3a8d0b46	0.0010760806
213	0xbb924eeb	-0.004464974
214	0xbbf2f4d2	-0.0074144388
215	0xbc0b0fc6	-0.008487647
216	0x3c1cb7e1	0.0095653245
217	0x3bbadde7	0.0057027224
218	0xbb9c44c6	-0.0047689406
219	0xbc004a8b	-0.007830272
220	0xba8f29ea	-0.0010922526
221	0xbbbba5f8	-0.005726572
222	0x3be7bbc2	0.007071943
223	0x3c1abc21	0.0094442675
224	0x3beaf24b	0.007169997
225	0xba951364	-0.0011373577
226	0xbb66c2f9	-0.0035211428
227	0xbbd420fd	-0.006473659
228	0x3bf28220	0.007400766
229	0xbc975413	-0.018472707
230	0xb93f1c27	-0.00018225667
231	0x3c071c64	0.008246515
232	0x3c8fa722	0.01753575
233	0x3c230641	0.0099502215
234	0x3a93514e	0.0011239441
235	0xbc33f225	-0.010983025
236	0xba99159d	-0.0011679415
237	0xbb92b8bd	-0.004477589
238	0xbb7c66e5	-0.0038513478
239	0xbc5f8da4	-0.01364461
240	0x3ba7ca2a	0.0051205354
241	0xbbd73d93	-0.0065686195
242	0x3c4e04b0	0.01257436
243	0x3ccbf9f1	0.024899455
244	0x3c86586c	0.016399585
245	0x3bd1cb3f	0.0064024027
246	0x3b809771	0.003924303
247	0xbc1bbf35	-0.0095060365
248	0x3c95678a	0.018237848
249	0x3bc617e0	0.0060453266
250	0xbc83f7ed	-0.016109431
251	0x3a8b984d	0.0010650248
252	0xbb7ac3d8	-0.0038263705
253	0xbc209d86	-0.0098031815
254	0xba932c4e	-0.0011228414
255	0x3b60f909	0.0034328124

reg.bias f4 [2]
0	0x3fd86083	1.6904453
1	0x3f0933e8	0.5359483
