server/model2/value_model_minmax80.pt (torch, 255287 bytes, 12 tensors)

conv.0.weight f4 [4, 1, 3, 3]
0	0x3fa0845a	1.254039
1	0x3dfcc8b2	0.12342967
2	0x3fe868f1	1.8157026
3	0x3f86130c	1.0474563
4	0x3f0597db	0.5218484
5	0x3e75acaa	0.23991647
6	0x3f5ce928	0.8629327
7	0xbf3284ec	-0.6973407
8	0x3f531046	0.82446706
9	0x3f38397e	0.71962726
10	0x3f205836	0.626346
11	0x3ea80f79	0.32824305
12	0x3f15ac7f	0.58466333
13	0x3fe2c445	1.7716147
14	0xbf2c952c	-0.6741512
15	0x3fdcdee9	1.7255527
16	0xbf83293d	-1.024696
17	0x3ea3243d	0.31863585
18	0x3eb40b51	0.35164884
19	0x3e6f2c1e	0.23356673
20	0x3e880bf6	0.26571625
21	0x3b5b4044	0.0033455053
22	0x3f1dd4cb	0.6165282
23	0x401329be	2.2994227
24	0x3f05d49a	0.5227753
25	0x3ded2d6c	0.11580929
26	0x3f3b32b6	0.73124254
27	0x3fbd412a	1.4785511
28	0xbf3d7c47	-0.7401776
29	0x3fb74c15	1.4320093
30	0x3faec565	1.365399
31	0x3f623bdf	0.88372606
32	0x3f5239d7	0.82119507
33	0xbf180e1e	-0.5939654
34	0x3f3135c9	0.69222695
35	0xbf557d02	-0.8339387

conv.0.bias f4 [4]
0	0x3f30ffe6	0.6914047
1	0x3db1afc1	0.086761005
2	0x3e9d2655	0.30693308
3	0x3f1d8eef	0.61546224

conv.2.weight f4 [4, 4, 3, 3]
0	0x3f7e5296	0.99344766
1	0x3fbf7538	1.4957647
2	0x3f4861e1	0.7827435
3	0x3fb5a547	1.4191064
4	0x3f07682d	0.52893335
5	0x3f8214ae	1.0162561
6	0x3ea17b73	0.31539497
7	0x3f6db927	0.92860645
8	0x3f31f299	0.695108
9	0x3fd2a029	1.6455127
10	0x3f115d63	0.5678312
11	0x3fa68ccc	1.3011718
12	0x3ff405aa	1.9064229
13	0xbedd2f43	-0.4320012
14	0x3f4435ca	0.76644576
15	0xbd6609aa	-0.05616156
16	0x3f733dc8	0.95016146
17	0x3e070106	0.13183984
18	0x3e82fded	0.25584355
19	0x3f97e50f	1.1866778
20	0x3f38f678	0.7225108
21	0x3fa5f3eb	1.2965063
22	0x3ec55341	0.3854008
23	0x3f18d791	0.5970393
24	0x3f14a868	0.5806947
25	0xbc8fd7d3	-0.017558968
26	0x3f6ddba6	0.9291328
27	0x3fa81f40	1.3134537
28	0x3f9f96f8	1.2467947
29	0x3f865da0	1.0497322
30	0x3f9b3dbc	1.2128215
31	0x3f18b68a	0.5965353
32	0x3f8c5141	1.0962297
33	0x3f2f6ca9	0.6852518
34	0x3f730c5c	0.94940734
35	0x3f143b7f	0.57903284
36	0x3ea18023	0.31543073
37	0xbe702919	-0.23453178
38	0xbff635a1	-1.9235116
39	0x3f7a45a7	0.9776253
40	0x3f2b4f4b	0.66917866
41	0xbf6a14ca	-0.9143797
42	0x3f4778ce	0.7791871
43	0x3f6b7a1d	0.91983205
44	0xbf0c639f	-0.5483951
45	0xbf1a8b58	-0.6036887
46	0x3f2910ac	0.66041064
47	0xc00397b8	-2.0561352
48	0xbc79bbec	-0.015242558
49	0x3f9ad824	1.2097211
50	0xbec8384d	-0.39105454
51	0xbebc7c1b	-0.36813435
52	0x3d17a495	0.037022192
53	0xbed96f4b	-0.42467722
54	0x3f35d141	0.7102242
55	0x3de50b86	0.111838385
56	0x3cc165bc	0.023608081
57	0x3f2528a7	0.64515156
58	0xbf1f0e6f	-0.621314
59	0xc031b6e4	-2.7767878
60	0x3e303d48	0.17210877
61	0x3d5818b3	0.05275793
62	0x3e85a1a0	0.26099873
63	0x3f54c651	0.83115107
64	0x3e178201	0.14795686
65	0xbf6b761d	-0.919771
66	0x3f45c86d	0.7725895
67	0x3f600205	0.8750308
68	0xc02f9254	-2.7433062
69	0x3f58c1a0	0.8467045
70	0x3fdae8cc	1.7102294
71	0xbfb31965	-1.3992125
72	0x3f90afc6	1.1303642
73	0x3f3f83af	0.7481031
74	0x3eaa5d0b	0.3327411
75	0x3f808c5f	1.0042838
76	0x3f365dc9	0.71236855
77	0x3b73d719	0.0037207066
78	0x3f783364	0.96953416
79	0x3ee1ba73	0.44087562
80	0x3f813835	1.0095278
81	0x3fee7b6d	1.8631417
82	0x3f5328c2	0.82484066
83	0x3da1ed97	0.07906645
84	0x3fa060de	1.2529562
85	0x3f13f3fe	0.5779418
86	0xbf3b9850	-0.73279285
87	0x3de2ea36	0.110798284
88	0x3e955650	0.29167414
89	0x3f3c5167	0.7356171
90	0x3f3e41b7	0.7431902
91	0x3f70e4d2	0.9409915
92	0xbfb0b8f9	-1.3806449
93	0x3f16efd9	0.5895973
94	0x3ec58535	0.3857819
95	0x3ea9e604	0.331833
96	0x3e80acdc	0.2513188
97	0xbb71aa4f	-0.0036875193
98	0x3e55e2cb	0.20887296
99	0x3fab71d2	1.339411
100	0x3f75b2ba	0.9597584
101	0xbcdddade	-0.027081903
102	0x3f7f6ad8	0.99772406
103	0x3f80ee0d	1.0072647
104	0x3fa8837e	1.3165128
105	0x3f4e27ac	0.80529284
106	0x3f1debf7	0.6168818
107	0x3ed236f8	0.41057563
108	0x3ea3053f	0.3183994
109	0x3fa07996	1.2537105
110	0x3d9dbf49	0.077025004
111	0x3f2b78a5	0.66980964
112	0x3f0ac97c	0.5421369
113	0x3f15925f	0.5842647
114	0x3ef42f40	0.476923
115	0x3f15d374	0.58525777
116	0x3f19c4dd	0.60066015
117	0x3edcaf4f	0.431025
118	0x3f662636	0.89902055
119	0x3f3b8cca	0.732617
120	0x3f490df4	0.78536916
121	0x3f1328df	0.5748424
122	0x3d309a6a	0.04311601
123	0x3ed2c0d2	0.41162735
124	0x3e06d3da	0.13166752
125	0x3f51f945	0.8202098
126	0x3e716937	0.23575293
127	0x3f8ab883	1.0837559
128	0xbf64f2fb	-0.8943326
129	0x3f65545f	0.89581865
130	0x3f078859	0.52942425
131	0x3e07c731	0.13259579
132	0x3e16ec4c	0.14738578
133	0x3e41b488	0.18916523
134	0x3e7d8b2f	0.24760126
135	0x3eb51d1a	0.35373765
136	0x3ee8b7dc	0.45452774
137	0x3f1bf528	0.60920954
138	0x3f5ef861	0.87097746
139	0x3f10a5d9	0.56503063
140	0x3f86391a	1.0486176
141	0x3e482f8f	0.19549392
142	0x3f0bc46d	0.54596597
143	0x3f0932bd	0.53593045

conv.2.bias f4 [4]
0	0x3f3035e0	0.68832207
1	0x3e330005	0.17480476
2	0x3eb9412d	0.36182538
3	0x3e1ef369	0.15522541

conv.5.weight f4 [64, 36]
0	0xbda807df	-0.08204626
1	0x3d26a1f0	0.04068178
2	0x3e477fe1	0.19482376
3	0xbecaac11	-0.395844
4	0xbcc18276	-0.023621779
5	0x3d9dbb46	0.07701735
6	0x3da3b9ed	0.07994447
7	0xbe191f71	-0.149534
8	0x3e0eb068	0.13934481
9	0x3f46172c	0.7737911
10	0xbf514d70	-0.81758785
11	0x3ec44add	0.38338366
12	0x3f7c4f7a	0.9855877
13	0xbf76e191	-0.9643794
14	0x3e8dbb28	0.2768185
15	0xbec3aafb	-0.38216385
16	0xbd8ab0eb	-0.06772026
17	0x3bc777ee	0.006087295
18	0xbe36b9c6	-0.17844304
19	0xbdfe00d9	-0.124025054
20	0x3e6ce558	0.23134363
21	0xbd14cca7	-0.036327984
22	0xbe4b70f6	-0.1986731
23	0x3e5270ae	0.20550796
24	0x3d01799f	0.031610128
25	0xbdce2f5c	-0.10067627
26	0x3e09a12f	0.13440393
27	0xbe891f9f	-0.26781937
28	0x3d15c19d	0.036561597
29	0x3e496840	0.19668674
30	0xbe0ede6f	-0.13952039
31	0xbc105a2c	-0.008810561
32	0x3e5d9514	0.216389
33	0xbdc84874	-0.09779444
34	0x3c512e21	0.012767346
35	0x3e383b13	0.17991285
36	0xbe34d54b	-0.1765949
37	0xbe8306e9	-0.2559121
38	0xbe8d0ca9	-0.2754872
39	0x3dd4bd95	0.103877224
40	0x3e65516f	0.22394346
41	0x3ef9bfaa	0.4877904
42	0xbe0c6d3d	-0.13713546
43	0xbd96b85b	-0.07359382
44	0x3e0f9315	0.14020951
45	0x3f35d6ee	0.7103108
46	0xbf8fa966	-1.1223571
47	0xbeb73e7b	-0.35789856
48	0x3ee3ae8d	0.4446911
49	0x3f1db954	0.61610913
50	0x3d06da95	0.0329233
51	0x3e6b8b3f	0.23002337
52	0x3f2c5446	0.6731609
53	0xbf6ffd1e	-0.937456
54	0xbed5c7bc	-0.41753948
55	0xbe0df6b9	-0.13863648
56	0x3d9d0500	0.07666969
57	0x3debc788	0.11512667
58	0x3e19e843	0.15030007
59	0x3e9d71be	0.3075084
60	0x3e1e2c11	0.15446497
61	0x3e91963e	0.28434938
62	0xbf299a24	-0.66250825
63	0xbee950cc	-0.45569456
64	0xbd711ae3	-0.05886353
65	0xbdea3a63	-0.11436918
66	0x3ea660ea	0.32495815
67	0x3d89fa18	0.06737155
68	0xbec62f42	-0.3870793
69	0xbd5dfe01	-0.054197315
70	0x3e0864e2	0.13319734
71	0xbf31ab7f	-0.6940231
72	0xbe7e50fc	-0.2483558
73	0x3ecee46f	0.40408656
74	0x3f4bb336	0.7957033
75	0x3e0b1fe5	0.13586386
76	0x3e39784d	0.18112297
77	0x3e8d9ae2	0.2765723
78	0x3e8f40a3	0.27979
79	0x3ef8d640	0.4860096
80	0x3f3053d7	0.6887793
81	0xbf18c314	-0.59672666
82	0x3f8ca00a	1.098634
83	0x3ea2d4f2	0.3180309
84	0xbeeb0e78	-0.45909476
85	0x3ebc54fe	0.36783594
86	0x3f382e12	0.719453
87	0xbdc27b9d	-0.094962336
88	0xbd284df3	-0.041089963
89	0x3eb38210	0.35060167
90	0xbf188759	-0.59581524
91	0x3d01a7f0	0.0316543
92	0xbf4010f3	-0.7502586
93	0x3f6a6dda	0.9157387
94	0x3ed4e457	0.4158046
95	0x3f47ac25	0.77997047
96	0x3fa70888	1.3049479
97	0x3e9f62fe	0.31130213
98	0x3ef3a8ae	0.4758963
99	0x3fa86526	1.3155868
100	0x3ec1351b	0.3773583
101	0x3ed67c5a	0.41891748
102	0x3f483d5f	0.78218645
103	0xbf0a80fb	-0.5410306
104	0xbedea05f	-0.43481728
105	0x3e8b53c7	0.27212355
106	0xbe845efb	-0.25853714
107	0x3e86eda8	0.26353192
108	0x3e86bee0	0.263175
109	0x3dc5b974	0.09654513
110	0xbf1480fb	-0.5800931
111	0x3ddc229e	0.1074879
112	0xbca85a46	-0.020550858
113	0x3d016dd2	0.031598873
114	0xbd1a49bf	-0.037667986
115	0xbdcaab32	-0.09895934
116	0x3e0e16ff	0.1387596
117	0xbe19f5d1	-0.15035178
118	0x3e54865b	0.20754378
119	0x3ee04848	0.43805146
120	0xbd2fb850	-0.042900383
121	0x3da46b24	0.08028248
122	0xc0262a0e	-2.5963168
123	0x3e38a834	0.18032914
124	0x3c925a9d	0.017865473
125	0x3f0542f7	0.52055305
126	0x3d58d91d	0.05294143
127	0xbe5cc4ff	-0.21559523
128	0x3e66cdc7	0.22539435
129	0xbe72e34b	-0.23719518
130	0xbdda10cc	-0.10647735
131	0xbfe6672c	-1.8000236
132	0xbe2f3755	-0.17110951
133	0x3daf74b8	0.08567184
134	0x4007d564	2.1223993
135	0xbe24b4b4	-0.16084558
136	0xbd174d6a	-0.036939062
137	0xbe0e3c04	-0.13890082
138	0x3de301ef	0.11084353
139	0xbd1db925	-0.038506646
140	0x3b28970d	0.00257248
141	0xbd9e770f	-0.077375524
142	0x3d403ad3	0.0469311
143	0x3e3396a3	0.17537932
144	0x3ed6a594	0.419232
145	0x3ea8ce12	0.3296972
146	0xbe9fbb51	-0.311976
147	0x3e507c35	0.20359881
148	0x3e23b1d8	0.15985811
149	0xbc3e771b	-0.011625077
150	0xbecae46d	-0.396274
151	0xbdabb815	-0.0838472
152	0xbc39b5a8	-0.011334814
153	0xbf400c35	-0.75018626
154	0x3fa46ca3	1.2845653
155	0xbec86025	-0.39135852
156	0xbf7ca277	-0.986854
157	0x3f76ca2c	0.9640224
158	0xbf89abaa	-1.0755513
159	0x3ec8a005	0.39184585
160	0x3f3f93b1	0.74834734
161	0xbf3beb6b	-0.73406094
162	0x3c7f9999	0.015600585
163	0xbe0e21bd	-0.13880058
164	0xbcf52289	-0.029923694
165	0x3e4223b0	0.18958926
166	0x3ec54f0a	0.38536865
167	0xbf2fc008	-0.6865239
168	0x3f3ad101	0.72975165
169	0x3f7f376d	0.9969395
170	0xbf3bfb2f	-0.7343015
171	0x3f01e6c1	0.5074273
172	0x3e9e5254	0.30922186
173	0x3e156441	0.14589025
174	0x3f1d2be9	0.61395127
175	0xbe197f71	-0.14990021
176	0xbfbb3c55	-1.4627787
177	0x3ed811df	0.42201135
178	0x3d35dc20	0.04439938
179	0xbfa6fcc5	-1.3045889
180	0x3e95b480	0.29239273
181	0x3dd13be5	0.10216502
182	0x3daa5cf5	0.083185114
183	0xbeb6afbd	-0.35680953
184	0x3ecd72a7	0.40126535
185	0xbda3557f	-0.079752915
186	0xbeb0e149	-0.3454688
187	0xbd981072	-0.07425012
188	0x3f6ec360	0.9326687
189	0x3d628429	0.05530182
190	0x3f9efd71	1.2421094
191	0xbfb9ef2f	-1.4526118
192	0xbefe0c22	-0.49618632
193	0x3d73b7ae	0.059501342
194	0xbef14883	-0.47125635
195	0xbfc1153f	-1.5084609
196	0xbfa0c2c0	-1.2559433
197	0xbd8dc4b3	-0.06922283
198	0xbeb41afb	-0.35176834
199	0x3cdfb489	0.027307766
200	0x3ed8f5bf	0.4237499
201	0x3ea36524	0.31913102
202	0xbd8ca9ab	-0.06868299
203	0x3e571b75	0.21006568
204	0x3ec43202	0.38319403
205	0xbe36222f	-0.17786478
206	0x3f289982	0.65859234
207	0xbeb7eafb	-0.35921463
208	0xbd166dec	-0.036725923
209	0x3eaca827	0.3372204
210	0x3da1b5c5	0.07895998
211	0xbe09abca	-0.13444439
212	0xbf008caf	-0.50214666
213	0xbe2bf391	-0.16792132
214	0x3dd6d1ed	0.10489259
215	0x3f1bf1db	0.6091592
216	0x3e93745b	0.2879971
217	0x3f17684a	0.5914351
218	0x3f0e16de	0.5550364
219	0x3ed68a54	0.4190241
220	0x3f418d81	0.7560654
221	0x3f494da6	0.7863411
222	0x3ec0e4c3	0.3767453
223	0x3e842101	0.2580643
224	0x3ea11fe3	0.3146964
225	0x3f67a229	0.9048181
226	0xbfd17d05	-1.6366278
227	0x3f5810d2	0.84400666
228	0x3eb84072	0.35986668
229	0xbf3c13cf	-0.73467726
230	0x3fa955fd	1.3229367
231	0x3f77b6a9	0.9676309
232	0x3ef276bd	0.47356215
233	0x3ebe9000	0.37219238
234	0x3f667353	0.9001972
235	0x3f68530e	0.9075173
236	0x3f2a6bb1	0.66570574
237	0x3ee676cf	0.4501252
238	0x3efd43d3	0.49465808
239	0x3f8a6031	1.0810605
240	0x3df15cdc	0.1178529
241	0x3e8689e8	0.2627709
242	0xbebc08a2	-0.36725336
243	0x3f413df3	0.7548515
244	0x3f0bce9e	0.5461215
245	0x3f0d26d5	0.5513738
246	0x3ebc411a	0.3676842
247	0x3f215819	0.6302505
248	0x3f7de308	0.9917455
249	0x3e92ba17	0.286576
250	0x3ec2e8b7	0.38068172
251	0x3ecd5a0f	0.40107772
252	0x3ed1f485	0.41006866
253	0x3e3c7fbe	0.18408105
254	0xbe93c83b	-0.288637
255	0x3d5544b9	0.052067492

conv.5.bias f4 [64]
0	0x3b3381c2	0.0027390574
1	0xbe9b5287	-0.303364
2	0xbede0071	-0.43359712
3	0xbe624859	-0.22097911
4	0xbc98da31	-0.01865873
5	0xbe75947d	-0.23982425
6	0x3f40d1d8	0.75320196
7	0x3ded4334	0.115850836
8	0xbe70c891	-0.2351401
9	0xbe0ccfc2	-0.13751128
10	0xbea51f3a	-0.32250386
11	0xc054e4a1	-3.3264544
12	0xbf1cafda	-0.6120583
13	0xbf1bea0c	-0.60904
14	0x3ec72f0b	0.38903078
15	0xbee5225a	-0.4475277
16	0x3e56d331	0.20979
17	0xbf0fe4f1	-0.5620871
18	0xbf30a4ba	-0.6900135
19	0x3e4009be	0.18753716
20	0xc0515900	-3.2710571
21	0xbe5d9051	-0.21637084
22	0xbebfbda4	-0.37449372
23	0xbe15ad67	-0.14616929
24	0xbf02ae45	-0.51047164
25	0xbf279b1a	-0.6547104
26	0xbf204173	-0.6259987
27	0xc03de2c6	-2.9669662
28	0xbec71ca2	-0.38889033
29	0x3e1ccc7f	0.15312384
30	0x3f99a63f	1.2003859
31	0xbf25a360	-0.64702415
32	0xbeb7aac9	-0.35872486
33	0xbddab831	-0.10679663
34	0xbf35a6f4	-0.70957875
35	0xbe54d82b	-0.20785587
36	0xbfcc83b8	-1.5977697
37	0xc0497e2c	-3.148326
38	0x3f559c3c	0.8344152
39	0x3e2477b9	0.16061296
40	0x3da09193	0.07840266
41	0xbde7eb6c	-0.113242
42	0xbe1a3697	-0.15059887
43	0xbe74d04b	-0.23907582
44	0x3f047ff8	0.51757765
45	0xbeae0143	-0.33985338
46	0xbeea2306	-0.45729846
47	0x3eafc41a	0.343293
48	0xbf0d70a4	-0.5525
49	0xbecf5a51	-0.40498593
50	0xbcb8c0c2	-0.022552852
51	0xbde71c3f	-0.112846844
52	0xbf19254b	-0.5982253
53	0xbecae040	-0.39624214
54	0xbde4c1bd	-0.11169765
55	0xbeb65b76	-0.35616654
56	0xbe5a9b50	-0.2134831
57	0x3e0605ab	0.130881
58	0xbf550ee7	-0.83225864
59	0xbeb3544e	-0.35025257
60	0xbf42931c	-0.7600572
61	0xbf1e59b7	-0.61855644
62	0xbecf7dcd	-0.40525666
63	0xbe4139aa	-0.18869653

linear.1.weight f4 [256, 169]
0	0x3bc14700	0.0058983564
1	0x3d20e03a	0.03927634
2	0x3d72750a	0.05919365
3	0x3d5dbe1e	0.054136388
4	0xbcd126a8	-0.025531128
5	0xbcb52cb6	-0.022116046
6	0x3d010c74	0.031506017
7	0x3d1dd234	0.038530543
8	0x3d5657c6	0.0523298
9	0xbe1cca35	-0.15311511
10	0x3c787cb8	0.015166454
11	0xbc396a70	-0.011316881
12	0x3d03d2f0	0.032183588
13	0x3d46dfb6	0.04855319
14	0xbb09e940	-0.002104357
15	0xbc6f51f8	-0.014606945
16	0x3bce9590	0.0063044503
17	0xbd34ef54	-0.044173554
18	0xbd9a52c0	-0.075353146
19	0xbcaab740	-0.020839334
20	0x3d975cdd	0.07390759
21	0x3e68a346	0.22718534
22	0xbd1eba5e	-0.038751952
23	0x3c4e5ff0	0.0125961155
24	0xbd827194	-0.063693196
25	0xbd86bb78	-0.065787256
26	0xbc8b2aec	-0.01698824
27	0x3d1cfd18	0.038327307
28	0x3cd04040	0.025421262
29	0xbb321e40	-0.0027178675
30	0x3cf3f8c4	0.029781707
31	0xba2b2c80	-0.00065297633
32	0xbd362a2a	-0.044473805
33	0x3d5a1583	0.05324317
34	0xbf7ba096	-0.9829191
35	0x3f077c0e	0.5292367
36	0x3ca0ab64	0.019612975
37	0x3cabbd10	0.020964175
38	0xbd2e71d4	-0.042589024
39	0x3d7eb02e	0.062179737
40	0x3d32cb9c	0.04365121
41	0xbd6449dc	-0.0557345
42	0x3e6f08ef	0.23343252
43	0xbe9f9744	-0.31170094
44	0x3e55a699	0.20864333
45	0x3f29d007	0.6633305
46	0xbcc4ae6d	-0.024008954
47	0xbf3edd69	-0.74556595
48	0xbd2db8f1	-0.042412702
49	0xbd75d311	-0.06001574
50	0xbef8435d	-0.48488894
51	0x3e82bd58	0.25535083
52	0x3d25543e	0.040363543
53	0x3d4d1992	0.050073214
54	0xbc04b2d8	-0.00809928
55	0x3f2e8ae6	0.6818069
56	0xbeba72d9	-0.36415747
57	0x3f3e6be3	0.7438337
58	0x3f346491	0.7046595
59	0xbc5f972d	-0.013646883
60	0xbe791e58	-0.24327981
61	0xbe96fbfa	-0.29489118
62	0xbee7f4f1	-0.45304063
63	0xbec311fe	-0.38099664
64	0xbd53d9d2	-0.0517214
65	0xbcd332a2	-0.02578098
66	0xbd41b696	-0.04729327
67	0xbd1df925	-0.03856768
68	0xbff47535	-1.9098269
69	0xbf387dc2	-0.7206689
70	0x3f6ba1a2	0.9204351
71	0x3f4bd06a	0.7961489
72	0x3fbf2501	1.4933168
73	0x3f618e19	0.8810745
74	0x3f816d4c	1.011148
75	0x3ed08d80	0.40732956
76	0xbd581f8a	-0.052764453
77	0x3d01c380	0.031680584
78	0x3ced6664	0.028979488
79	0xbd12d060	-0.035843253
80	0x3ce8fe40	0.028441548
81	0x3f29c356	0.66313684
82	0xbe47f6c0	-0.19527721
83	0x3e160723	0.1465116
84	0xbf1270c4	-0.57203317
85	0xbed96cbf	-0.4246578
86	0xbf424c51	-0.758977
87	0x3f6e034e	0.9297379
88	0x3d215646	0.039388917
89	0x3d4fdd2e	0.050748043
90	0xbd08a254	-0.033357933
91	0xbd119885	-0.035545845
92	0xbd99a67a	-0.07502456
93	0x3e785f71	0.24255158
94	0xbec34c1d	-0.38144007
95	0x3ed1962d	0.40934888
96	0x3f8e9459	1.1139022
97	0x3eb3ecfd	0.35141745
98	0x3e69348c	0.22773951
99	0x3dc1469a	0.09437294
100	0xbf987c8a	-1.1913006
101	0x3d5d6b0e	0.054057173
102	0xbd72ab40	-0.059245348
103	0xbc8ed650	-0.017436177
104	0xbc3f7e08	-0.011687763
105	0xbd80c91a	-0.06288357
106	0x3f5f0e2b	0.87130994
107	0x3f2cac17	0.6745009
108	0xbf491a71	-0.7855597
109	0x3f28aba8	0.65886927
110	0x3f06d792	0.52672684
111	0x3f23ad5d	0.63936406
112	0x3dfca3e2	0.12335946
113	0xbe7e6c2f	-0.24845956
114	0x3cd8e730	0.026477426
115	0x3d3f3abc	0.046686873
116	0xbcde4624	-0.027133055
117	0x3efa9f39	0.48949602
118	0xbf537c94	-0.82611966
119	0xbf320e1a	-0.6955277
120	0xbf7ea352	-0.9946796
121	0x3dcaddaf	0.09905564
122	0xbf32ade6	-0.697966
123	0xbe5660b9	-0.20935334
124	0xbf01ab6f	-0.5065221
125	0xbee8a61b	-0.45439228
126	0x3d3dacfe	0.046307556
127	0x3d6b52d6	0.057452045
128	0xbd023288	-0.03178647
129	0x3d8b80e1	0.06811691
130	0x3d4ccf6e	0.050002508
131	0xbcde7b76	-0.02715848
132	0x3d822ae7	0.06355839
133	0x3ef78c8c	0.48349416
134	0x3f4518ea	0.7699114
135	0xbf51719d	-0.81813985
136	0xbd18284a	-0.037147798
137	0x3d4d4172	0.05011124
138	0x3c2d3d18	0.010573648
139	0xbc389280	-0.011265397
140	0xbd006dbb	-0.031354647
141	0x3d787802	0.060661323
142	0x3d8d7df7	0.069087915
143	0xbd2d5a6a	-0.042322554
144	0x3d1cff28	0.038329273
145	0x3d3c5b2a	0.04598538
146	0xbee53cb4	-0.44772875
147	0x3ff8fe94	1.9452691
148	0x3ce5f6ec	0.028071843
149	0x3b8b1140	0.0042439997
150	0x3c2b12a0	0.010441452
151	0xbc1f2c78	-0.009715192
152	0x3cf47154	0.029839195
153	0x3d7963e6	0.060886286
154	0x3d499536	0.049214564
155	0x3d03918a	0.03212122
156	0xbd799774	-0.060935453
157	0x3c909bf8	0.017652497
158	0xbd3c6846	-0.04599788
159	0x3c2b4188	0.010452636
160	0x3d013fbc	0.031554922
161	0xbbeb8250	-0.0071871653
162	0xbd92019f	-0.071292154
163	0x3d6a9f76	0.05728098
164	0xbd496499	-0.049168203
165	0x3cb427e8	0.021991685
166	0x3d4b4d0a	0.049634017
167	0x3c957ee4	0.018248983
168	0x3d1dd670	0.03853458
169	0x3d6dc3be	0.058048002
170	0xbd8e800f	-0.06958019
171	0xbd8a61d6	-0.06756942
172	0x3c380838	0.011232428
173	0x3ce9ba28	0.028531149
174	0xbd8e065d	-0.069348074
175	0x3c5a84d8	0.0133373365
176	0xbd16947b	-0.036762696
177	0xbd8b0b95	-0.067893185
178	0xbed3ab98	-0.41341853
179	0x3d3c1ce8	0.045926005
180	0xbb175f60	-0.002309762
181	0xbd542106	-0.051789306
182	0xbcb61dd4	-0.02223102
183	0xbc22a850	-0.009927824
184	0xbca07414	-0.0195866
185	0x3d22d6be	0.039755575
186	0xbc8e3c32	-0.017362688
187	0xbd5b5696	-0.05354937
188	0xbd3dd1e6	-0.046342753
189	0x3d8058bb	0.06266924
190	0x3f67ec73	0.9059517
191	0x3f5d1f6e	0.8637608
192	0xbd081259	-0.033220623
193	0x3c9aedac	0.018912159
194	0xbd7b6ee6	-0.061385058
195	0xbd759319	-0.059954736
196	0x3d6b287a	0.05741165
197	0x3a7eb280	0.00097159296
198	0xbcc07f6c	-0.02349826
199	0x3cdb0b40	0.026738763
200	0xbd1f861b	-0.038946252
201	0xbbee6290	-0.007274933
202	0xbf862073	-1.0478653
203	0x3f735b45	0.9506114
204	0xbf4fd367	-0.8118195
205	0x3c93262c	0.017962538
206	0x3cda2940	0.026630998
207	0x3b4f4980	0.0031629503
208	0x3b8d25a0	0.0043074638
209	0x3d0f5c20	0.034999967
210	0xbc8c94e8	-0.017160848
211	0xbf05bd98	-0.5224242
212	0x3ece0a13	0.4024206
213	0x3d1be970	0.03806442
214	0xbdd916b5	-0.10600034
215	0xbc939d40	-0.018019319
216	0x3e108fa5	0.14117296
217	0xbe214ba1	-0.15751506
218	0x3f0e3ba4	0.55559754
219	0xbe9703b3	-0.2949501
220	0x3ec172f0	0.37783003
221	0xbd3601b2	-0.04443521
222	0xbcdfb13c	-0.027306192
223	0xbd78f4cd	-0.060780335
224	0xbf73ccc8	-0.95234346
225	0x3f0ced71	0.55049807
226	0x3d8711e3	0.065952085
227	0xbf787194	-0.97048306
228	0x3f19cc0c	0.60076976
229	0xbeb7ad19	-0.3587425
230	0x3eaf5066	0.34241027
231	0x3f0b4b40	0.544117
232	0xbfb207e6	-1.390866
233	0xbd2a2a1e	-0.041544072
234	0x3d5c58d6	0.053795658
235	0xbcf2c48a	-0.029634733
236	0xbd4655b9	-0.048421595
237	0x3e8e874c	0.27837598
238	0xbeabb418	-0.33535838
239	0xbf1a8bfe	-0.6036986
240	0x3e58f81c	0.21188396
241	0x3f082615	0.5318311
242	0x3f34ea90	0.70670414
243	0xbf4a0af2	-0.7892295
244	0x3f85d19e	1.0454595
245	0xbd27ad3b	-0.04093669
246	0x3d8a379b	0.06748887
247	0xbcb1969e	-0.021678265
248	0x3d21f73e	0.03954243
249	0x3d47c376	0.04877039
250	0x3f8494ac	1.0357871
251	0x3e2adbec	0.16685456
252	0xbe5987ba	-0.21243182
253	0x3c660ef1	0.014041648
254	0x3e4c2544	0.1993609
255	0x3f1e4600	0.6182556

linear.1.bias f4 [256]
0	0xbd85ff4a	-0.06542833
1	0x3e399384	0.18122679
2	0x3dbbbb31	0.09166563
3	0x3de181c0	0.11011076
4	0xba2a72e1	-0.00065021036
5	0xbe3cf156	-0.18451437
6	0x3ebe6064	0.37182915
7	0xbe9a7584	-0.30167782
8	0xbe3f1ddc	-0.18663734
9	0xbc42c301	-0.011887313
10	0x3fd9263b	1.6964792
11	0x3e50dabf	0.20395945
12	0x3e9ee791	0.31036046
13	0xbdecafad	-0.11556945
14	0x3eee276c	0.46514452
15	0x3d7037a9	0.05864683
16	0x3d56de4a	0.052458085
17	0xbdb8fc6e	-0.09032522
18	0xbb1ac0ee	-0.002361353
19	0xbe67752a	-0.22603288
20	0xbe122d8b	-0.14275186
21	0xbde9c7e3	-0.114150785
22	0x3e0cd305	0.13752373
23	0x3e468f7a	0.1939067
24	0xbf4b6cc8	-0.7946286
25	0x3c06fa7c	0.008238431
26	0x3e9b0e80	0.302845
27	0x3de61a47	0.11235481
28	0xbe36e4b2	-0.17860678
29	0x3e086b41	0.13322164
30	0xbc143649	-0.009046146
31	0x3ef0f4d5	0.47061792
32	0xbf84be3e	-1.0370557
33	0x3c5cdb17	0.013479969
34	0x3eb2e499	0.3494003
35	0x3d8780a5	0.06616334
36	0x3e57d49b	0.21077196
37	0x3e7b0b2e	0.24515983
38	0x3e285c65	0.16441496
39	0xbcd3e3e5	-0.025865505
40	0x3e99d22d	0.30043164
41	0x3fcf582e	1.6198785
42	0x3d7177cc	0.058952138
43	0x3f21ebb5	0.63250285
44	0x3e0b18b2	0.1358364
45	0xbe39ca1a	-0.18143502
46	0x3e3f6f9a	0.18694916
47	0xbe3197dd	-0.17343087
48	0x3f306ff2	0.68920815
49	0x3e8d8dcc	0.27647245
50	0x3da7cb8a	0.08193119
51	0x3e9366c6	0.28789347
52	0x3e94b2e2	0.29042727
53	0x3db50ea7	0.08840685
54	0x3e77b275	0.2418917
55	0xbd2fa724	-0.042884007
56	0xbd315dd3	-0.04330237
57	0x3d12cba3	0.035838734
58	0xbe08f048	-0.1337291
59	0x3e080f15	0.13287003
60	0xbf23f920	-0.6405201
61	0xbfd3d83a	-1.6550362
62	0x3ea37dda	0.31931955
63	0x3f131e62	0.57468235
64	0x3d1ab351	0.037768666
65	0x3c83a54c	0.01607003
66	0x3d911855	0.07084719
67	0xbd21e9e8	-0.03952971
68	0x3d3782d9	0.04480252
69	0x3f7aaaeb	0.9791705
70	0x3fcb8a32	1.5901549
71	0xbe0ae1a7	-0.13562642
72	0x3d9a887d	0.07545564
73	0xbe1993a3	-0.14997725
74	0x3c9cce6d	0.0191414
75	0xbce97513	-0.028498208
76	0x3d5f47a4	0.05451168
77	0xbcc84305	-0.02444602
78	0x3e52c396	0.20582423
79	0x3e4f90a3	0.20270018
80	0x3e2d170d	0.16903324
81	0x3f46f501	0.77717596
82	0x3e846d26	0.25864524
83	0xbe2275e8	-0.1586529
84	0xbe30d41f	-0.17268418
85	0x3cb2b883	0.021816498
86	0x3dc946de	0.0982797
87	0x3d468222	0.048463948
88	0xbe42c0b5	-0.19018824
89	0xbdd68f3a	-0.10476537
90	0xbe8dc691	-0.27690557
91	0xbdff7403	-0.12473299
92	0x3e84915f	0.2589216
93	0x3deb7a93	0.114979886
94	0x3dffcb2d	0.124899246
95	0x3e96f906	0.29486865
96	0x3e31f8c6	0.17380056
97	0x3dacdfff	0.08441161
98	0x3e843082	0.2581826
99	0x3e85e777	0.26153156
100	0x3ecd6bf7	0.40121433
101	0xbc96ccea	-0.018408258
102	0xbd5d37c9	-0.05400828
103	0xbe3eb312	-0.18622997
104	0xbdbf098a	-0.09327991
105	0xbe0d39f3	-0.13791637
106	0xbe6d70e3	-0.23187594
107	0xbeb2afa0	-0.34899616
108	0xbf31aa08	-0.6940007
109	0xbc0020ae	-0.007820291
110	0xbf75b016	-0.9597181
111	0xbd28b88a	-0.041191615
112	0x3e88b18c	0.26697958
113	0x3de33cff	0.110956185
114	0x3d872dd1	0.06600536
115	0x3e2f36d3	0.17110758
116	0xbcb2bf16	-0.021819633
117	0xbdea8cdd	-0.11452649
118	0x3e978a58	0.29597735
119	0xbc8316d1	-0.01600209
120	0x3f053452	0.5203296
121	0x3d2d0f20	0.042250752
122	0x3daceff5	0.08444206
123	0x3d0558b8	0.032555312
124	0xbdef5945	-0.11686949
125	0xbdfc54e7	-0.12320881
126	0x3e4a8423	0.19776969
127	0x3d971774	0.0737752
128	0xbeba0d37	-0.36338207
129	0xbdc84c61	-0.09780193
130	0x3dca273a	0.09870763
131	0xbd90e903	-0.070756935
132	0x3fb29c77	1.3953999
133	0x3e6ac99b	0.22928469
134	0x3c090b71	0.008364544
135	0x3dad666d	0.08466802
136	0x3db208e7	0.08693104
137	0x3c848a24	0.016179152
138	0x3e1d0dcb	0.15337293
139	0x3e82c8f7	0.2554395
140	0xbdfd7135	-0.12375108
141	0x3d58f585	0.05296852
142	0x3e171196	0.14752802
143	0xbdc5e345	-0.09662489
144	0xbe262920	-0.16226625
145	0xbdf9197c	-0.12163064
146	0x3cf3efe3	0.029777473
147	0x3f832f1a	1.0248749
148	0xbe449eb7	-0.1920117
149	0x3e3acad9	0.18241443
150	0x3e943b65	0.28951564
151	0xbe0438c2	-0.12912276
152	0xbf421b1e	-0.7582263
153	0xbf47882f	-0.77942175
154	0x3e93fe14	0.28904784
155	0x3ed1846c	0.40921342
156	0x3d4960cd	0.049164582
157	0x3c149e3d	0.00907093
158	0x3e161a93	0.14658575
159	0x3da2efc3	0.07955887
160	0xbe007906	-0.12546167
161	0xbd7c00d2	-0.06152422
162	0xbe5c0dc6	-0.21489629
163	0xbeb671ae	-0.35633606
164	0x3e0ff2b7	0.14057432
165	0x3d0fed45	0.035138387
166	0x3ecdf43a	0.40225393
167	0x3e644b1d	0.22294278
168	0x3c90d829	0.017681198
169	0xbd6aab53	-0.057292294
170	0x3dcb41bb	0.099246465
171	0xbdb811ac	-0.08987746
172	0x3ed4b39d	0.41543284
173	0x3eafd597	0.34342644
174	0x3c10ce95	0.0088383155
175	0xbe000177	-0.12500559
176	0x3f623c13	0.88372916
177	0x3ea00588	0.3125422
178	0xbcd91b4e	-0.026502278
179	0x3e193363	0.14961009
180	0xbfde253b	-1.7355112
181	0x3e42190a	0.18954864
182	0x3e835736	0.25652474
183	0x3e1a70f8	0.15082157
184	0xbdff3c9e	-0.12462734
185	0xbe785349	-0.24250521
186	0x3cdfedd8	0.027335092
187	0x3e21ac0d	0.15788288
188	0xbeb2ee9c	-0.3494767
189	0x3ba819dc	0.005130036
190	0xbe0df24a	-0.13861957
191	0xbea808b8	-0.32819152
192	0x3d92a271	0.071598895
193	0xbe256cdb	-0.16154806
194	0xbc8c0e8f	-0.017096786
195	0xc00b0e5d	-2.1727517
196	0x401d47ab	2.4574993
197	0x3c3f91f3	0.011692512
198	0xbe906985	-0.28205505
199	0xbd119878	-0.035545796
200	0x3b94d544	0.004542025
201	0xbcd1988f	-0.02558544
202	0x3dcab8a7	0.09898501
203	0x3dcd46c1	0.10023261
204	0xbf247b5e	-0.64250743
205	0xbd07dfe9	-0.03317252
206	0xbe05b5c8	-0.13057625
207	0x3f1e00d9	0.61720043
208	0xbd7e9950	-0.06215793
209	0x3e674101	0.22583391
210	0xbf67db64	-0.9056914
211	0x3d5c8122	0.05383409
212	0xbdb1eae5	-0.08687381
213	0x3f42a3c0	0.7603111
214	0xbfdd9ed2	-1.7314093
215	0x3ad4f601	0.0016247631
216	0x3deebb5c	0.1165683
217	0x3ec245db	0.3794392
218	0xbe9649df	-0.29353234
219	0x3f46aca4	0.7760718
220	0x3dafb0f0	0.0857867
221	0x3e60c034	0.2194832
222	0xbbc2786d	-0.005934766
223	0x3d074e24	0.033033505
224	0xbe43e07a	-0.191286
225	0xbdce7817	-0.10081499
226	0x3d9187d8	0.07105988
227	0xbee2eaf9	-0.44319895
228	0x3f0c4681	0.5479508
229	0x3e8f431a	0.27980882
230	0x3f5603e8	0.8359971
231	0xbce629c7	-0.028096093
232	0xbde61024	-0.11233547
233	0x3eac44de	0.33646291
234	0xbe0f03a6	-0.13966236
235	0xbd87f5b8	-0.06638664
236	0xbe02ec71	-0.12785508
237	0xbe6d6186	-0.23181733
238	0x3cd7b727	0.026332451
239	0x3dafdb3e	0.08586739
240	0xbc97929b	-0.018502524
241	0x3e3df63b	0.1855096
242	0x3e6942e7	0.22779427
243	0x3d47c931	0.048775855
244	0x3de9b2f5	0.114110865
245	0xbc2bd58f	-0.010487928
246	0x3d664073	0.056213807
247	0x3f4ab7b9	0.7918659
248	0x3d439d2b	0.04775731
249	0xbe1f3560	-0.15547705
250	0x3f1773a7	0.59160846
251	0xbe221591	-0.1582854
252	0x3e8fe36a	0.2810319
253	0x3e915a2b	0.28389105
254	0x3e1cdab6	0.15317807
255	0xbe47dbc3	-0.19517426

linear.3.weight f4 [64, 256]
0	0xc0147476	-2.3196082
1	0x4081d489	4.057194
2	0x408c8c9f	4.3921657
3	0xbffcde83	-1.9755405
4	0xbfcd195b	-1.6023363
5	0xc043c4f9	-3.0588973
6	0x402cbbd3	2.6989639
7	0xc014dcf1	-2.3259852
8	0xc01e02ab	-2.4689128
9	0x4055a409	3.338137
10	0x3ebc0564	0.36722863
11	0xbf791cdf	-0.9730968
12	0xc081b582	-4.0534067
13	0x4080fd57	4.0309253
14	0x3f531365	0.8245147
15	0x40aff4dd	5.4986405
16	0x4090d17f	4.5255733
17	0x4040ef5a	3.0146089
18	0xc099fac8	-4.811863
19	0xc004ef3e	-2.0771022
20	0xc0628464	-3.5393305
21	0x40992748	4.786045
22	0x40a1a247	5.0510592
23	0x4003b9e6	2.0582213
24	0xbf04b3af	-0.51836675
25	0xc08f07ab	-4.469686
26	0xbf8b28e0	-1.0871849
27	0x404d2b30	3.205761
28	0xc0644c41	-3.5671542
29	0x401afa88	2.4215412
30	0x3fc0df17	1.5068082
31	0x3feac854	1.8342385
32	0xbe403e90	-0.18773866
33	0xc02f85d6	-2.7425437
34	0x40665754	3.59908
35	0xc08a6cc0	-4.325775
36	0xc0435697	-3.05216
37	0xbecf94ee	-0.40543312
38	0x404a2de1	3.1590502
39	0x408eb55f	4.45964
40	0x40131bab	2.2985637
41	0x3f22a7e8	0.63537455
42	0x3f9fc9f4	1.2483506
43	0x3ec53e1e	0.38523954
44	0x408432cc	4.131201
45	0xc092ccb8	-4.58749
46	0x4061e608	3.529665
47	0xc0b210d6	-5.564555
48	0x3edebf0f	0.4350514
49	0x40288337	2.6330087
50	0xc08ad813	-4.3388762
51	0x4042d238	3.0440807
52	0x4093ae85	4.6150537
53	0xbfbb4fc8	-1.4633722
54	0xc0426745	-3.037553
55	0xc08ab62b	-4.3347373
56	0x406dd885	3.7163403
57	0xc0b7468f	-5.727363
58	0x4070b5f4	3.7611055
59	0x404c3848	3.1909351
60	0xbf2d4f39	-0.6769901
61	0xbebeaad4	-0.37239707
62	0x3ff05342	1.8775408
63	0x3df271d7	0.118381195
64	0x4082691a	4.07533
65	0xbfc25e67	-1.5185059
66	0xc0763c2f	-3.8474233
67	0x401a9c5e	2.415794
68	0xc05a3551	-3.4095042
69	0x3ea29e7f	0.31761548
70	0x3f0afccc	0.5429199
71	0x40780f08	3.8759174
72	0xc0640687	-3.5628984
73	0x407ee231	3.9825556
74	0xc05e69df	-3.4752119
75	0xc00e01f3	-2.218869
76	0x40b324d2	5.5982447
77	0xc08ba874	-4.364313
78	0xc00242ba	-2.0353227
79	0xc02f867b	-2.742583
80	0x3f86f79e	1.0544317
81	0xbdbf9352	-0.09354271
82	0x407a76ba	3.9134965
83	0x4043578d	3.0522187
84	0xc0382ea8	-2.8778477
85	0x4076e274	3.8575716
86	0x40a1f9a6	5.0617247
87	0xc048a86c	-3.1352797
88	0x4076d25c	3.8565893
89	0xc0362d2d	-2.8465073
90	0x40c5d4d9	6.1822324
91	0xbfc50afe	-1.539398
92	0x406e9b3f	3.7282255
93	0x40acdd26	5.4019957
94	0x3e81dce6	0.25363845
95	0xc0a3d61a	-5.1198854
96	0x40812d44	4.0367756
97	0xc085e6ce	-4.1844244
98	0xc01ad282	-2.4190984
99	0x3eaa14b4	0.3321892
100	0xbe98b147	-0.29822752
101	0xc05ef1b2	-3.483502
102	0xc0abec7d	-5.372618
103	0x3ffb0890	1.9611988
104	0xc0abc784	-5.368105
105	0xc04ca7a4	-3.197732
106	0x40991bbb	4.784635
107	0xc088497a	-4.2589693
108	0xbf5ad684	-0.85483575
109	0x408bdbb2	4.3705683
110	0xbef149fd	-0.4712676
111	0xc0814cca	-4.0406237
112	0x40b1982f	5.549827
113	0x4009c863	2.1528556
114	0x4081fc40	4.062042
115	0xc05d35b5	-3.456403
116	0x40a73acd	5.225928
117	0xc094284d	-4.6299195
118	0xbfceec60	-1.6165886
119	0xc011a0c4	-2.2754374
120	0x3f58f8b2	0.8475448
121	0x40889c23	4.2690597
122	0x400b810d	2.1797516
123	0xc0817ab4	-4.0462284
124	0xc08e4da3	-4.446977
125	0x3f7fadf4	0.99874806
126	0x4041e3de	3.029533
127	0x3ea1adbb	0.31577858
128	0x40c719ff	6.2219234
129	0x408c7303	4.3890395
130	0x3f8c220b	1.0947889
131	0x404980bc	3.1484823
132	0x3f26c401	0.6514283
133	0xbfbcacb9	-1.4740211
134	0xc0409b4f	-3.0094793
135	0xc02f3d70	-2.7381248
136	0xc05f5b8d	-3.4899628
137	0xc01878cc	-2.3823729
138	0x4093b558	4.6158867
139	0x3fd8c5aa	1.6935322
140	0x40d6b680	6.709778
141	0x407dafc3	3.9638526
142	0xc013b71c	-2.308051
143	0x4060d5f5	3.513059
144	0xc08354db	-4.1041083
145	0x4046cdd6	3.1063132
146	0x4092ffe8	4.5937386
147	0x3f1233fe	0.57110584
148	0xc0be68e3	-5.9503036
149	0xc0882e3c	-4.255644
150	0xc00dc18d	-2.2149384
151	0xc0679df7	-3.6190164
152	0xbf087d1f	-0.5331592
153	0xbf7305bc	-0.94930625
154	0xc09a2f77	-4.818294
155	0x3fcf1af7	1.6180104
156	0x408a5e80	4.3240356
157	0xc035d12c	-2.8408918
158	0x3f8a1733	1.078833
159	0x408ba252	4.3635645
160	0xc06e45a5	-3.7230008
161	0xc0312188	-2.7676716
162	0xc0aa85ef	-5.3288493
163	0xc0bf3278	-5.9749107
164	0xc00b27d7	-2.1743066
165	0x4042f74e	3.0463443
166	0xc00df6ab	-2.2181804
167	0x408bb085	4.365298
168	0xbf8f33a5	-1.1187636
169	0x403585bd	2.8362877
170	0x403005f0	2.7503624
171	0x409a8b11	4.829476
172	0x40901fdc	4.503889
173	0x404c6572	3.1936917
174	0x40190603	2.390992
175	0xc0824eec	-4.072134
176	0x3e8cbd75	0.27488294
177	0xc0516885	-3.2720044
178	0xc087eb2c	-4.2474575
179	0xc05ceeef	-3.4520833
180	0xbd8d7a6f	-0.06908118
181	0x3d9399a8	0.07207042
182	0xc0a32421	-5.0981603
183	0x408acd5f	4.3375697
184	0x4096d07a	4.712949
185	0x40abd6c8	5.3699684
186	0x406ba5de	3.6819987
187	0x40426fe3	3.038079
188	0xc088a086	-4.269595
189	0xc04aadbb	-3.1668537
190	0x4071aa15	3.776006
191	0xc00a1ce7	-2.158014
192	0xc08f48b9	-4.4776273
193	0x40ad57a0	5.4169464
194	0x4000c91d	2.012275
195	0xbe507e6d	-0.20360728
196	0x3eb08d4e	0.34482807
197	0xc0138cd8	-2.3054714
198	0xc0865de4	-4.1989613
199	0x40d41a8d	6.628241
200	0xc05fac77	-3.4949014
201	0x4077973c	3.8686056
202	0x4083a52a	4.1139116
203	0xc0915ba5	-4.542437
204	0xbf57efa4	-0.8435004
205	0x403c7ff1	2.945309
206	0xc06e7c89	-3.726351
207	0x3ff5cbe3	1.9202846
208	0xc0a0c836	-5.02444
209	0xc04074c7	-3.0071275
210	0xbebcf83d	-0.3690814
211	0xc092d976	-4.5890455
212	0x40b9ef21	5.8104405
213	0x3e87833c	0.2646731
214	0xbebc02d9	-0.36720923
215	0x407d4a81	3.9576724
216	0x409d5ba0	4.9174347
217	0x3e8f478c	0.27984273
218	0x40ce0b47	6.4388766
219	0x3ed2e450	0.41189814
220	0xc036cc00	-2.8562012
221	0xc09cd248	-4.900669
222	0x406257b4	3.536603
223	0xc0a4815f	-5.1407924
224	0xc06ae05d	-3.669944
225	0xc095adf4	-4.6774845
226	0x40ada42d	5.426291
227	0x40c6ddbb	6.2145667
228	0x3f044f9d	0.5168398
229	0xc03379f1	-2.8043177
230	0xbea3f3cc	-0.3202194
231	0x40c476e3	6.1395125
232	0xc07a671f	-3.912544
233	0x40cc443f	6.383331
234	0xc01180e7	-2.2734926
235	0x409d2e73	4.91192
236	0xc0a1212b	-5.035299
237	0xc05bc852	-3.4341016
238	0xc01abae1	-2.4176562
239	0xbfbb336e	-1.462507
240	0xc04735f1	-3.1126673
241	0x408ef200	4.467041
242	0xc0050a3f	-2.0787504
243	0x4094540e	4.6352606
244	0x4065799e	3.585548
245	0x408bcb9b	4.368604
246	0xbf248475	-0.64264613
247	0x3f22cc8e	0.63593376
248	0xc084c4b2	-4.1490107
249	0xc08fa886	-4.4893217
250	0x3ef2cdbb	0.47422585
251	0xbf4542ea	-0.7705523
252	0xc04fe198	-3.2481441
253	0xc035d2a0	-2.8409805
254	0xc05196fb	-3.27484
255	0xc0494267	-3.1446779

linear.3.bias f4 [64]
0	0x3d8a47fc	0.06752011
1	0xbdaf3754	-0.08555475
2	0x3e25e716	0.16201434
3	0xbdab6bb3	-0.08370151
4	0x3e74a97b	0.23892777
5	0xbbed2857	-0.007237475
6	0xbe792901	-0.24332048
7	0xbdd36df6	-0.10323708
8	0xbc289507	-0.010289437
9	0xbe08e938	-0.13370216
10	0xbe5041e9	-0.20337643
11	0xbe94230f	-0.28932998
12	0xbe7608ba	-0.24026766
13	0xbe7134d9	-0.23555316
14	0x3dbffb2e	0.093740806
15	0xbe5391c3	-0.20661072
16	0xbd8d0b05	-0.068868674
17	0xbda93d5b	-0.08263656
18	0x3d6dcf8c	0.05805926
19	0xbe835608	-0.25651574
20	0x3e2ecafe	0.17069623
21	0x3f03c931	0.5147887
22	0x3d1f16a2	0.038839944
23	0x3e7209e5	0.23636587
24	0x3e3be0cf	0.18347476
25	0xbece2541	-0.40262797
26	0xbeb72034	-0.35766757
27	0xbec7a49a	-0.3899277
28	0xbeb45d81	-0.35227588
29	0xbdfe5129	-0.12417824
30	0xbe1f7de8	-0.15575373
31	0xbe2dbf1f	-0.16967438
32	0x3dcd8d80	0.100367546
33	0xbeaa477c	-0.33257663
34	0xbee43790	-0.4457364
35	0xba511dcc	-0.00079771574
36	0xbe6f8b44	-0.2339297
37	0x3e0cc071	0.13745286
38	0xbf36ed31	-0.71455675
39	0xbdf15077	-0.117829256
40	0xbdc67553	-0.096903466
41	0xbea9aa09	-0.3313754
42	0x3eac1d5c	0.3361615
43	0xbde1046b	-0.10987171
44	0x3d98da80	0.074635506
45	0xbde2003f	-0.11035203
46	0xbe685e2b	-0.22692172
47	0x3daade9e	0.08343242
48	0xbea068b4	-0.31329882
49	0x3e62b947	0.2214099
50	0x3e35bde9	0.17748226
51	0x3e1e4af3	0.15458278
52	0x3e73c2ef	0.2380483
53	0xbdf67e58	-0.12035817
54	0xbcadbe13	-0.021208799
55	0x3dc60dba	0.09670587
56	0xbe92257f	-0.28544232
57	0xbd63327e	-0.055468075
58	0xbe6e2a84	-0.23258406
59	0xbeaa1421	-0.33218482
60	0xbecce60d	-0.40019265
61	0x3e335d81	0.17516138
62	0xbe8783ea	-0.2646783
63	0xbe7b4f47	-0.2454196

reg.weight f4 [2, 128]
0	0x40153003	2.3310554
1	0xc007919b	-2.118262
2	0x3f718611	0.94345194
3	0xbff7785c	-1.9333606
4	0x404ebc76	3.2302527
5	0x3fe53041	1.7905351
6	0xbf802e96	-1.0014217
7	0x40029bc3	2.040757
8	0x3f8b8659	1.0900375
9	0x400529a8	2.0806675
10	0x3f9ffb25	1.2498518
11	0x3d834e96	0.064114735
12	0x3fd96f73	1.6987137
13	0x403913a9	2.891825
14	0xbf3b59ab	-0.731837
15	0xbf848a32	-1.0354674
16	0x3f6c20b6	0.9223741
17	0x3f8f41de	1.1191976
18	0x3fd950c0	1.6977768
19	0x3f3b4533	0.73152465
20	0x3ff662de	1.9248922
21	0x3fe91b33	1.8211426
22	0x40092719	2.1430113
23	0x3f5335ac	0.8250377
24	0x3fba8a0f	1.4573382
25	0x3fcae378	1.5850668
26	0x3b287024	0.0025701607
27	0x4000f61c	2.0150213
28	0xbe5e0c4f	-0.21684383
29	0xbf689aeb	-0.90861386
30	0xbf9433d8	-1.1578321
31	0x40529c23	3.2907798
32	0x402410da	2.5635285
33	0x3fe1f333	1.7652344
34	0x40105c29	2.255625
35	0x3d34edb4	0.044172004
36	0x3f8369e4	1.026669
37	0x3fca4308	1.5801706
38	0xbf8f5c6e	-1.1200082
39	0x3f37b9d3	0.7176792
40	0x3f4026c1	0.75059134
41	0x3fe3c17f	1.7793425
42	0x3da37bf8	0.079826295
43	0x3fa0040d	1.2501236
44	0xbf5fbc96	-0.87397134
45	0xbf911d90	-1.1337147
46	0x3fdfac1e	1.7474401
47	0x3fced8eb	1.6159948
48	0x4051d650	3.2787056
49	0x3f88b636	1.0680606
50	0xbf937074	-1.1518693
51	0x3f6ed846	0.9329876
52	0x3d7b7627	0.061391976
53	0x3fc2574d	1.5182892
54	0x3f7d987c	0.990608
55	0xbff31598	-1.8990965
56	0x3fcec3d6	1.6153514
57	0x3f57bc02	0.8427125
58	0x3e7aa4fc	0.24476999
59	0x3da75d80	0.081721306
60	0x3db19a64	0.08672026
61	0x3cb2a9c3	0.021809464
62	0x402acf66	2.6689086
63	0x3fd555c7	1.6666802
64	0x418534ba	16.650745
65	0x41896a5c	17.176933
66	0x4184837c	16.564201
67	0x418a1668	17.26094
68	0xc0bbd141	-5.8692937
69	0x418929f4	17.145485
70	0x418a3f97	17.28105
71	0x4188f24d	17.11831
72	0xc0bec64a	-5.961705
73	0x41894cbd	17.16247
74	0x41895cfd	17.170404
75	0x418a55c8	17.291885
76	0x418b100d	17.382837
77	0x4189b3d0	17.2128
78	0xc0bb1263	-5.8459945
79	0x418abd7c	17.342522
80	0x41868211	16.813509
81	0x41891146	17.133434
82	0xc0bd73df	-5.9203944
83	0x4189058d	17.12771
84	0x418916f8	17.136215
85	0xc0cc1854	-6.3779697
86	0x41888a06	17.067394
87	0xc0c0fc98	-6.030834
88	0xc0ba29d4	-5.817606
89	0x4189a9d9	17.207933
90	0x4189a9bc	17.207878
91	0x418975e4	17.182564
92	0x41899647	17.198378
93	0x41886c2c	17.052818
94	0x418a2247	17.266737
95	0x4189987d	17.199457
96	0x41855cd7	16.670332
97	0x4188b873	17.090063
98	0x418a224f	17.266752
99	0x4189d094	17.226845
100	0x41899bd7	17.201094
101	0xc0bd97ff	-5.924804
102	0x40ae3721	5.4442296
103	0x4188f865	17.121286
104	0x4189047e	17.127193
105	0x4189a0c4	17.203499
106	0x4187aea8	16.960281
107	0x4189d466	17.22871
108	0x4187b1f3	16.96189
109	0x41897b42	17.185184
110	0x418945dc	17.159111
111	0x418509bf	16.629759
112	0x40b235cd	5.5690675
113	0x41882dbb	17.02233
114	0xc0badbc0	-5.839325
115	0xc0bcc087	-5.898502
116	0xc0bff730	-5.9989243
117	0x41890178	17.125717
118	0x41856c73	16.677954
119	0xc0b9f318	-5.8109245
120	0x4189d56f	17.229216
121	0x4189c8cf	17.223051
122	0x4189898b	17.19216
123	0x4189c51c	17.221245
124	0x4189cbde	17.224545
125	0xc0bf712a	-5.982564
126	0x418a3af6	17.27879
127	0x4189e94c	17.238914
128	0xba2b6778	-0.00065385504
129	0x3ac300cd	0.0014877558
130	0xbbe08b88	-0.006852571
131	0x3dc67e08	0.09692007
132	0x399941e1	0.00029231518
133	0x3a9de1eb	0.0012045478
134	0xbccf5b2b	-0.025312027
135	0xbab603cc	-0.001388663
136	0xbb317ca1	-0.0027082341
137	0xbb49e167	-0.0030804516
138	0x3b580228	0.003296027
139	0x3d3b1667	0.04567566
140	0xbc8b13d3	-0.016977226
141	0xbb945e20	-0.004527822
142	0x3be85727	0.0070904675
143	0x3b860d22	0.004090921
144	0x3b966696	0.004589866
145	0xbbc9e9ed	-0.0061619193
146	0x3bae24a8	0.0053144284
147	0x3c94957c	0.018137686
148	0x3b854614	0.004067192
149	0xbc3e2b9f	-0.01160708
150	0x3bd88ff6	0.0066089584
151	0xbbd0311a	-0.0063535096
152	0xbbbb4815	-0.00571538
153	0x3b8350a2	0.004007415
154	0x3e010687	0.12600146
155	0x3ac813ff	0.0015264748
156	0x3f04dae9	0.5189653
157	0xbb3200ea	-0.002716119
158	0xbc8eb5c2	-0.017420653
159	0xbb4550a4	-0.003010788
160	0xbabe8155	-0.0014534394
161	0xbcdaba91	-0.02670029
162	0x3ad2bd16	0.001607808
163	0x3cea2d33	0.028586006
164	0x3bd3e610	0.0064666346
165	0xbba20390	-0.0049442723
166	0x3ce2a3d4	0.02766601
167	0xbca426e0	-0.020038068
168	0xba98f698	-0.001167017
169	0x3caa2bbb	0.020772805
170	0xbd87ea38	-0.066364706
171	0x3b9ed7d9	0.0048475084
172	0x3cbfa0ca	0.0233921
173	0xbbcb1c00	-0.006198406
174	0xbb3496f5	-0.0027555798
175	0x39d7b2bf	0.00041141172
176	0x3b2c799f	0.002631761
177	0x3c3c6527	0.011498726
178	0xbc60b55a	-0.013715113
179	0x3a8215ea	0.0009924744
180	0x3e10f0df	0.14154385
181	0x3cc78429	0.024355011
182	0x396fc3fa	0.00022865823
183	0x3aa6cb60	0.0012725405
184	0xbd38fc55	-0.045162518
185	0x3b382b71	0.0028102065
186	0xbea61bd2	-0.324431
187	0xbc108d42	-0.008822741
188	0xbda061a9	-0.07831127
189	0xbe1ccd78	-0.15312755
190	0x3c01166b	0.00787888
191	0x3d004b05	0.031321544
192	0x3bbf3b28	0.0058359094
193	0x3b91a25e	0.0044444045
194	0x3b3193fa	0.0027096258
195	0xbb8de857	-0.0043306756
196	0x3c23005b	0.009948815
197	0x3b936038	0.004497554
198	0x3bd6a6f0	0.006550662
199	0xbc0ccee4	-0.008594248
200	0xbc9e7eb6	-0.01934753
201	0xba97b8f9	-0.0011575512
202	0xbc49ecbf	-0.012324511
203	0x3b5405aa	0.003235201
204	0x3b3dc956	0.0028959117
205	0xbb77aef7	-0.0037793496
206	0xbc3fd02f	-0.01170735
207	0xbb0b7707	-0.0021280663
208	0x3c18b0cd	0.009319496
209	0xbc95ae17	-0.01827149
210	0x39ddade0	0.00042281952
211	0x3b776682	0.0037750308
212	0x3c026b1e	0.007960109
213	0x39d362ab	0.0004031857
214	0xbbbc92a2	-0.0057547847
215	0xbc4e4b69	-0.012591221
216	0x3c247429	0.01003746
217	0x3b90855e	0.00441043
218	0xbbfe06cb	-0.0077522746
219	0xbbc7a0be	-0.00609216
220	0xbb1f54bb	-0.0024311978
221	0xbc21910b	-0.009861241
222	0xbbc009a6	-0.005860525
223	0x3c48318a	0.012218842
224	0x3bfe7031	0.007764839
225	0x3b3e8dc0	0.0029076189
226	0xbb450c95	-0.0030067314
227	0xbc14a8f0	-0.009073481
228	0x3c140490	0.009034291
229	0xbcabb0ed	-0.020958388
230	0x3d2ab43a	0.041675784
231	0x3b3e6587	0.0029052214
232	0x3c87d922	0.01658303
233	0x3c18c84b	0.009325097
234	0x3bbf61de	0.005840524
235	0xbb8f00b5	-0.004364098
236	0x3b1f760b	0.0024331834
237	0xbbddf4c7	-0.0067735645
238	0xbbe4a964	-0.0069782007
239	0xbc7e5e57	-0.015525422
240	0xbb39ff70	-0.0028381012
241	0xbbb3335e	-0.00546877
242	0x3baa9c12	0.0052065933
243	0x3cede0ae	0.0290378
244	0x3cab77e4	0.020931192
245	0x3baf6e28	0.005353708
246	0x3bd6688d	0.006543225
247	0xbb15faba	-0.002288504
248	0x3cb6aeb0	0.022300094
249	0x3baf23d2	0.0053448463
250	0xbca9cfbc	-0.020728938
251	0x3b198a0f	0.0023428237
252	0xbbc95c83	-0.0061450615
253	0xbbe3e3b6	-0.0069546355
254	0xbad8035e	-0.0016480496
255	0x3afbd392	0.0019212833

reg.bias f4 [2]
0	0xbe109470	-0.14119124
1	0x3ebb5747	0.36590025
