server/model2/value_model_minmax10.pt (torch, 255287 bytes, 12 tensors)

conv.0.weight f4 [4, 1, 3, 3]
00000000: 5987 b83d 9018 78bb 5e93 0e3f b8c7 613e
00000010: 8590 963e fec6 553e f937 ff3e 89df 15bf
00000020: d729 3cbd 13f1 5dbe bf59 b2bd 86fd 15bd
00000030: 51c0 8e3e 4e14 113f e1da 8dbe 9228 ff3e
00000040: e0e2 f1be d760 233c 12f7 22bb 3187 9a3d
00000050: da78 98be c26d 96be d3bd 1a3f c5ca 6f3f
00000060: 43bb de3c e05c b1be 6277 3d3e 2441 e43e
00000070: 24ae 2cbf d7e1 a13e 9114 0f3e 0416 abbd
00000080: 85dd e63e 05c0 8c3d e5af 77be d5fd e3bd
0.090101905 -0.0037856437 0.55693614 0.22048843 0.29407135 0.20876691 0.4984739 -0.5854421
-0.04593834 -0.21673994 -0.08708524 -0.036618732 0.278811 0.5667161 -0.27706054 0.4983564
-0.47243404 0.009971819 -0.0024866504 0.07545317 -0.29779702 -0.29380614 0.604459 0.93668777
0.027188903 -0.3464117 0.18502572 0.44580948 -0.6745322 0.31617615 0.13972689 -0.083538085
0.4509088 0.06872562 -0.24188192 -0.11132399

conv.0.bias f4 [4]
00000000: 9bbe ee3e 4fc9 eabd 91aa 9ebc c343 ac3e
0.46629795 -0.11464178 -0.019368442 0.33645448

conv.2.weight f4 [4, 4, 3, 3]
00000000: 92c2 21be e5ec 063f 0bd3 6f3d e420 153f
00000010: 6b87 a03d f698 273e c678 003e 1ab6 2b3e
00000020: f325 1b3d 1d2a 543e 2ab6 3c3d 3741 7e3e
00000030: 1d79 743f 0fdb 60bf 431b ef3d eb5b 3ebe
00000040: bbe2 5a3e e9f6 89be dce6 013e 07fa 2b3e
00000050: dbbb ca3d 0b44 a13e 9684 64bd cd05 16bd
00000060: f79d 583e 406b bfbe 42b0 7b3d afdc b73d
00000070: ef2e ad3e bbe7 863e 8bd3 793e ab22 a53c
00000080: 6710 083f a327 563e b2b3 dd3e ccb0 91bc
00000090: f091 d43d a93f 0c3e 7b41 14bf f17d bc3e
000000a0: e6f5 bebd 775e 76be 1f27 b73e 4549 e83e
000000b0: b9b1 afbd dfa0 c8be 18d8 a43e ccb3 23bf
000000c0: 7069 5c3d 16cb 343e 96cd a53e ac8e 6dbe
000000d0: 2e99 afbd dd6d 4fbe 70ee 833d ea68 9ebd
000000e0: de0b d83d 3474 763e 0950 29bf 4bd5 d8bf
000000f0: ffca 24be cb3d 71be 945e 213e 9860 7d3e
00000100: fe75 82be 4917 5fbd 1e54 303e 5728 a23e
00000110: e446 9cbf 8a0b 3a3e f575 403f bd85 50bf
00000120: d585 183e 61db d0bd a907 633e 5602 a63e
00000130: bec3 6a3e 8eac eabd f197 eb3e 1220 3e3e
00000140: ee4c e23e 1717 943e d476 8cbd 5fdc f3be
00000150: 1e82 bb3d 783e 473d 74e7 06bf ab1d 99be
00000160: 6b66 afbe 7d78 dd3d f371 123e cdfb 863e
00000170: cc53 8ebf e540 493e 85b9 37bd 97ed 81bc
00000180: 3760 f23c e663 86be 379c 60bd 6caa a13e
00000190: a788 773d 20c6 f7be 6b95 4f3e 18d9 f73d
000001a0: 8ca6 c83e 1980 ac3e 9b1f 123e 215d 3a3e
000001b0: 1dca b33d 8511 5f3f 7039 cd3b 1aae 913e
000001c0: f57f 6d3d 4e87 a73e 12a1 123e e4b5 bf3e
000001d0: 4bde 123e 1d6b 203e 055c a13e 5671 c23e
000001e0: ba10 bb3e a52c e9bc 3409 01be 9b46 6e3e
000001f0: 539f 8ebe 3db3 273e 601f 1c3d 2bfa ee3e
00000200: e56e 22bf 614c 713e 88ed 463e ce98 9cbe
00000210: 448c 263e ee6f b3bd 6911 9ebd 02fc 353e
00000220: fd7d 233d bff8 d63e 9759 ac3e 43a1 f73d
00000230: 41a1 103f f0cd af3d 48ca 8c3e 6d73 473e
-0.15796879 0.5270522 0.058550876 0.5825331 0.07838329 0.16366944 0.12546071 0.16768685
0.037877988 0.2071919 0.046072163 0.24829565 0.95497304 -0.87834257 0.11675122 -0.18589751
0.21375553 -0.2694619 0.12685722 0.16794597 0.09899112 0.31497225 -0.055790506 -0.036626626
0.21154009 -0.37386513 0.06144739 0.08977639 0.3382487 0.2634867 0.24397103 0.020158133
0.5315003 0.20913558 0.4330116 -0.017784499 0.10379398 0.1369616 -0.57912415 0.36814836
-0.09324245 -0.24059473 0.35772035 0.453684 -0.0857882 -0.39185235 0.32196116 -0.63946223
0.05381149 0.17655596 0.32383412 -0.23198956 -0.085741386 -0.20256753 0.06441963 -0.077348545
0.105491385 0.24067765 -0.6613775 -1.6940092 -0.16093062 -0.23558728 0.15758735 0.24743879
-0.25480646 -0.054465566 0.17219588 0.31671402 -1.2209134 0.18168464 0.7517999 -0.8145407
0.14894803 -0.10198093 0.22170891 0.32423657 0.22926232 -0.114586934 0.4601436 0.18566921
0.44199318 0.28923866 -0.06858602 -0.47629067 0.09155677 0.04864356 -0.5269692 -0.29905447
-0.34257826 0.10813997 0.1430128 0.26363984 -1.1119323 0.19653662 -0.04485466 -0.015860362
0.029586894 -0.2624809 -0.054836478 0.31575334 0.060433056 -0.48393345 0.20271842 0.12101954
0.39189565 0.3369148 0.14269869 0.18199588 0.087787844 0.8713611 0.0062629506 0.2845314
0.057983357 0.32720417 0.14319256 0.3744346 0.1434261 0.1566586 0.31515518 0.37977093
0.365362 -0.028463671 -0.12601167 0.23269121 -0.2785593 0.16376968 0.03811586 0.46675238
-0.6345046 0.23564292 0.19426548 -0.3058533 0.16264445 -0.08761583 -0.077181645 0.17771915
0.039915074 0.41986653 0.33662102 0.12091305 0.56496054 0.08584201 0.27498078 0.19477625

conv.2.bias f4 [4]
00000000: 92f7 5b3e c436 a2bc ac58 3f3c e9b5 c2bc
0.2148116 -0.019801505 0.011678856 -0.023768382

conv.5.weight f4 [64, 36]
00000000: bec7 8ebd cb93 d4bc 5381 2cbd 8ce3 5ebe
00000010: 3681 433d f812 95bd c7c1 e63d 9721 f6bd
00000020: c1b6 f9bd bba4 3e3e cd19 53be 9955 913d
00000030: 3506 213e e791 a0be 89a0 013d a24c 8ebd
00000040: 80d8 e2bd dcb3 093d 8da9 eebd 50dd a1bc
00000050: 5a83 613d 9b9c 19be f390 fd3d 6e77 84bc
00000060: 94e6 9a3d f65b bdbd d460 ecbd 7bf1 2cbe
00000070: 8b3f c83c 9def fbbc 148b b4bd 4145 033e
00000080: 9eab 82bb fcd4 83bd db4f f9bc b8b0 fa3b
00000090: c6aa babb 1e27 f3bd 96b4 e2bd 7238 af3d
000000a0: 0770 4e3e 5e73 c63e e673 06be f60d 0bbe
000000b0: f8a7 4a3e ac94 1dbd f98c bebe cabd 9dbe
000000c0: 639e 613d 7dda 293e 8a78 9abc 3816 0e3d
000000d0: a826 8a3b 032f 71bf dae6 87be 74a9 d13c
000000e0: 1d1b 083e 2682 0b3e b082 033e bc0a 063e
000000f0: a7db 363e 1d74 433e 7eb2 19bf 5a2b 86be
00000100: 811e 173e a6b1 b5bc e7ea 9d3e abff 623d
00000110: c5ef ffbe 7bc1 43bd d9ce 393d 7fae 2fbf
00000120: 635f ebbe e195 443e cc65 213f 0ded 483c
00000130: 2604 c2bd 3e63 153d f703 3f3d b8d3 1a3e
00000140: bc04 903e 8108 3cbf 0c1c ecbe d4f0 533e
00000150: 4dc2 20be 52ea 393f f8f4 223f 3ada 033f
00000160: 6e28 a63e 027b 9f3d ce28 0fbf c9f9 d2bd
00000170: 7320 64bf 4cd3 2d3f 1963 5a3e 2be1 133f
00000180: 5ccc 803f 233a 51bd 9553 9ebc 993c 9f3f
00000190: 5a1e 7c3e 8943 753e 35d5 1a3f 1a78 3ebf
000001a0: 895e 25bf adeb 293d 7d1b 1dbf 0e34 89bd
000001b0: 50de a63e 76a0 113e e48d 0abf 3914 4f3e
000001c0: 25a2 563d c690 a83d 6864 7f3d aacf 3abc
000001d0: c9ca 343e bebd 09bd 464d 683e ae6d 003f
000001e0: 5a5b 84bd f763 9d3c 27a4 23c0 d535 913e
000001f0: 0521 df3d 9f2b 193f 4aaf fb3d 25b1 26be
00000200: a55d 963e 47b7 14be 5fb8 33bd 6f91 e1bf
00000210: 4263 7ebd c100 173e 17bf 0940 1af0 cdbd
00000220: 212b f33c 3988 afbd 0b3d 463e 0388 193d
00000230: c7e7 263d 2432 ef3c 3660 de3d d8c5 683e
00000240: e521 073e e78b e93e 1bb7 c43d 754a 96bd
00000250: f53d f73d efc7 ef3e cd51 25bf ab5b 5ebe
00000260: 97b0 043f dec1 0bbf dd9c f43c 6ae4 0a3d
00000270: 857a bcbc cfa8 b63e 4d3a e2be fe5b e53e
00000280: d9d3 093f 6d52 85be 4bb3 13be 42d2 92bc
00000290: dcaf e23e 9aec e3bd 22eb 213e 356d 8abd
000002a0: 3129 cd3e 3d7b 393f 959e 32be 51ec 4c3e
000002b0: dd0b 0c3f 0384 123f 678f 943e 2040 71be
000002c0: cf84 65bf cfad 0a3e c2c6 c8bd c81a 2abf
000002d0: 34d7 c33e 9122 5e3e c5fd 663e 8c05 67be
000002e0: b3c3 cb3e 6ce1 f13c 0668 acbe 502c 18be
000002f0: a013 223f 0412 eabd 551a febe c2ef 90bf
00000300: 1cbc 42be 1636 1b3e e240 ddbe 5a91 e2be
00000310: 44f3 8fbe 3e68 a5be 8b39 8e3b 0574 373e
00000320: 5e22 193f 0307 f33d 93a6 553c b3c1 0e3e
00000330: 42de b23e fb22 77be 913e 8d3e 5e9f afbd
00000340: a582 093e df1d ff3e 72d6 c53c 8062 57bc
00000350: 1865 debe b901 05be 8922 403d e790 8e3e
00000360: 56ef 33bd ada3 f73d 5a69 e03c 0b8b e13c
00000370: c089 af3e b522 893e 8b68 fa3d 229e da3d
00000380: 6cb2 0e3e 2465 bb3e c098 80bd cec3 3f3e
00000390: f452 713e 893a b7be 09cd 343f aa3c b03d
000003a0: e1ce a53d 73ce 9e3d 49ea 9c3e d269 b83e
000003b0: e170 993d d7f3 873e fb83 da3d e27a 1b3f
000003c0: c9c0 b2bc 2a1a 4c3e fb1c d9be 3760 923e
000003d0: ed23 e5bc 79e3 da3b 9959 c93d e743 253e
000003e0: fc05 e73e 2df0 9b3d 8878 813e 7cf8 2f3e
000003f0: 431e d53e 6dec 4b3e 36ea dabd 36d3 813d
-0.069716915 -0.02594938 -0.04211552 -0.2176649 0.047730647 -0.072790086 0.11267429 -0.120181255
-0.12193061 0.18617527 -0.20615311 0.070964046 0.15725024 -0.31361315 0.03164724 -0.0694821
-0.1107645 0.033618793 -0.11653433 -0.01975885 0.055056907 -0.15001146 0.123811625 -0.01617023
0.075635105 -0.09246056 -0.11541906 -0.16888992 0.024444362 -0.030753905 -0.088155895 0.12819387
-0.0039877435 -0.06437108 -0.030433586 0.007650461 -0.0056966273 -0.118726954 -0.110696 0.08555688
0.20159923 0.38759893 -0.13130149 -0.13579544 0.19790637 -0.038471863 -0.3721693 -0.3080886
0.05508269 0.16587253 -0.018856306 0.03468916 0.004216034 -0.9421236 -0.26543313 0.025593497
0.13291593 0.13623866 0.12842822 0.13090032 0.17857228 0.19087262 -0.6003798 -0.2620495
0.1475773 -0.022179436 0.3084328 0.055419605 -0.49987617 -0.04779194 0.04536328 -0.68625635
-0.45971212 0.191978 0.63045955 0.012263549 -0.094734475 0.036471598 0.04663464 0.15119827
0.28128612 -0.73450476 -0.46115148 0.20697337 -0.1569912 0.7262317 0.6365504 0.5150486
0.3245272 0.07787134 -0.5592164 -0.10301549 -0.89112014 0.6790054 0.21326865 0.57765454
1.0062366 -0.051080834 -0.019326964 1.2440368 0.24620953 0.23951544 0.6048158 -0.7440201
-0.64597374 0.041484524 -0.6137007 -0.06699382 0.32591486 0.14221367 -0.5412276 0.20222558
0.052400727 0.08230738 0.062351614 -0.01140205 0.17655481 -0.033628218 0.22685727 0.5016736
-0.064627364 0.019212706 -2.556894 0.28361383 0.1089497 0.59832186 0.12289293 -0.16278513
0.2936832 -0.1452304 -0.043877 -1.7622508 -0.06210638 0.14746381 2.1522882 -0.10055561
0.029683651 -0.08570904 0.19359224 0.037483227 0.040748384 0.029198714 0.108581945 0.22731721
0.13196523 0.4561455 0.09605237 -0.0733842 0.12072364 0.46832225 -0.64577943 -0.21714656
0.51831955 -0.5459269 0.029859954 0.03390924 -0.02300764 0.35675666 -0.44185105 0.44796747
0.5383888 -0.26039448 -0.14423864 -0.017922524 0.44274795 -0.111291125 0.15812352 -0.06759111
0.4007049 0.7245367 -0.17443307 0.20012023 0.547056 0.57232684 0.29015657 -0.23559618
-0.89655775 0.13542865 -0.09803535 -0.66447115 0.38250124 0.21692874 0.22557743 -0.2256071
0.39797744 0.029526435 -0.33673114 -0.14860654 0.63311195 -0.114292175 -0.49629465 -1.1323168
-0.1901707 0.15157351 -0.43213564 -0.4425152 -0.28115284 -0.32306093 0.0043403558 0.17915352
0.59818065 0.11866572 0.013040203 0.13941078 0.34935194 -0.24134438 0.27586797 -0.08575319
0.13428743 0.49827477 0.024150107 -0.013146043 -0.43436503 -0.12988938 0.046907935 0.27844927
-0.04392942 0.120917656 0.027393986 0.027532121 0.34284782 0.26784292 0.12226971 0.10674693
0.1393525 0.36600602 -0.06279135 0.18727037 0.235668 -0.35786846 0.7062536 0.08605321
0.080961 0.07754221 0.30647495 0.36018234 0.07492233 0.26553223 0.106697045 0.6073438
-0.021820443 0.19931856 -0.42404923 0.2858903 -0.027971232 0.006679949 0.098315425 0.16139184
0.45121753 0.07614169 0.2528727 0.17184633 0.4162465 0.19914408 -0.106892034 0.063391134

conv.5.bias f4 [64]
00000000: 508a ffbd a2cc 63be 1289 2bbf d2cf 09be
00000010: 444b 04bd 2351 67be b7d0 de3e 04ae d13d
00000020: 0077 e9be 2eb2 6dbe a69e 0dbf a1e4 54c0
00000030: 9437 0dbf 2113 2dbf 1b06 923d 2409 febe
00000040: 2851 0c3c 4a70 29bf 8b03 29bf 90cd 9dbc
00000050: 9117 4ec0 9265 ddbe 2349 d9be ab94 efbe
00000060: b3e6 34bf d0ec 29bf 7341 20bf ffd3 3cc0
00000070: d417 b4be 49c7 28be 16e5 613f 5ea8 19bf
00000080: 5941 2dbf 59ef 0dbe f319 26bf 2bd8 54be
00000090: 3b9c ddbf 6376 47c0 0f38 043f e529 39bd
000000a0: c28f f0bc b364 12be 8d6f ffbd 2316 eabe
000000b0: 3085 4c3e ee5f 0ebf 5f45 31bf 7ec7 a03e
000000c0: d541 11bf b9dc 2ebf 409b 7cbe 7237 c6be
000000d0: 4b25 19bf 9769 afbe 4935 9fbd 9a5e 00bf
000000e0: 293a 77be 84b3 80bd 490e 55bf 4e54 b3be
000000f0: 1c93 42bf b759 1ebf 2429 24bf bd4b 38be
-0.12477553 -0.2224603 -0.6700603 -0.13458183 -0.03229834 -0.22589545 0.43518612 0.10238269
-0.45598602 -0.23212501 -0.55320203 -3.3264544 -0.5516293 -0.67607313 0.07130071 -0.4961635
0.008564271 -0.66186965 -0.6602103 -0.019263059 -3.2201884 -0.43241554 -0.4243861 -0.46793112
-0.7066452 -0.6637697 -0.6259987 -2.9504392 -0.3517443 -0.16482271 0.8824018 -0.6002253
-0.6767784 -0.13860835 -0.64883345 -0.20785587 -1.7313303 -3.1166008 0.5164804 -0.04520597
-0.029365424 -0.14296226 -0.124724485 -0.45720014 0.19972682 -0.5561513 -0.69246477 0.314022
-0.56741077 -0.68305546 -0.24668598 -0.38714176 -0.5982253 -0.34260246 -0.07773835 -0.5014435
-0.2414328 -0.0628424 -0.8322492 -0.35025257 -0.7600572 -0.61855644 -0.64125276 -0.17997642

linear.1.weight f4 [256, 169]
00000000: 0047 c13b 3ae0 203d 0a75 723d 1ebe 5d3d
00000010: a826 d1bc b62c b5bc 740c 013d 34d2 1d3d
00000020: c657 563d 9ca1 3a3d b87c 783c 706a 39bc
00000030: f0d2 033d b6df 463d 40e9 09bb f851 6fbc
00000040: 9095 ce3b 54ef 34bd c052 9abd 40b7 aabc
00000050: dd5c 973d 34f4 c1be 80ed d73d f05f 4e3c
00000060: 9471 82bd 78bb 86bd ec2a 8bbc 18fd 1c3d
00000070: 4040 d03c 401e 32bb c4f8 f33c 802c 2bba
00000080: 2a2a 36bd 4ffc ac3d ae0d 1ebe 923d ecbe
00000090: 64ab a03c 10bd ab3c d471 2ebd 2eb0 7e3d
000000a0: 9ccb 323d dc49 64bd 154d be3d 7308 ee3e
000000b0: d262 1d3f f888 dc3e bc11 063e 4416 11bf
000000c0: 0370 bb3e 498a f5be 7c24 423d 65fb 003e
000000d0: 3e54 253d 9219 4d3d d8b2 04bc b193 ba3e
000000e0: 6510 0cbf 7f17 403f 5a5c c53d 3cf7 903e
000000f0: e3a1 7b3e f962 fbbe 7b83 eebe c3d2 4dbd
00000100: d2d9 53bd a232 d3bc 96b6 41bd 25f9 1dbd
00000110: 0f14 9ebe bb70 51be a7c0 1a3f 4abb f23e
00000120: 1bc5 843f de95 633e f117 713f 75c5 d1bd
00000130: 8a1f 58bd 80c3 013d 6466 ed3c 60d0 12bd
00000140: 40fe e83c e9b5 c83e b0d0 3f3e 3218 0bbe
00000150: 49d7 8bbe a52f 19be 34ef 2fbf 20a3 fd3e
00000160: 4656 213d 2edd 4f3d 54a2 08bd 8598 11bd
00000170: 7aa6 99bd ca37 5dbe 4fcc bbbe cc3a edbd
00000180: e251 bb3e 305b 913c 8436 043f 7e9c 613c
00000190: f132 a0be 0e6b 5d3d 40ab 72bd 50d6 8ebc
000001a0: 087e 3fbc 50bf b5bc 5ffd 81bd 6dda 88bd
000001b0: 9ad8 dcbd b73d cbbd 47bd 2ebe b2ba 083e
000001c0: ac7a c53e f07b 48bd 30e7 d83c bc3a 3f3d
000001d0: 2446 debc 4bf9 06be 8b27 84be 67d4 b5be
000001e0: 6a80 1b3e fdcc a73b 5fbe 863e 7d13 78be
000001f0: 26f0 9c3e 40d2 f23d feac 3d3d d652 6b3d
00000200: 8832 02bd e180 8b3d 6ecf 4c3d 767b debc
00000210: e72a 823d 1a8d 6a3e 7ab9 613d ea5f c6be
00000220: 4a28 18bd 7241 4d3d 183d 2d3c 8092 38bc
00000230: bb6d 00bd 0278 783d f77d 8d3d 6a5a 2dbd
00000240: 28ff 1c3d 2a5b 3c3d 2eaf 92be 7643 25bd
00000250: ecf6 e53c 4011 8b3b a012 2b3c 782c 1fbc
00000260: 5471 f43c e663 793d 3695 493d 8a91 033d
00000270: 7497 79bd f89b 903c 4668 3cbd 8841 2b3c
00000280: bc3f 013d 5082 ebbb 9f01 92bd 769f 6a3d
00000290: 9964 49bd e827 b43c 0a4d 4b3d e47e 953c
000002a0: 70d6 1d3d bec3 6d3d 0f80 8ebd d661 8abd
000002b0: 3808 383c 28ba e93c 5d06 8ebd d884 5a3c
000002c0: 7b94 16bd 950b 8bbd 3a43 e0bc e81c 3c3d
000002d0: 605f 17bb 0621 54bd d41d b6bc 50a8 22bc
000002e0: 1474 a0bc bed6 223d 323c 8ebc 9656 5bbd
000002f0: e6d1 3dbd bb58 803d 8796 0c3e b303 3cbe
00000300: 5912 08bd aced 9a3c e66e 7bbd 1993 75bd
00000310: 7a28 6b3d 80b2 7e3a 6c7f c0bc 400b db3c
00000320: 1b86 1fbd 9062 eebb 72d8 8cbe 35f9 a23d
00000330: d810 1e3e 2c26 933c 4029 da3c 8049 4f3b
00000340: a025 8d3b 205c 0f3d e894 8cbc 3352 00be
00000350: bdd3 b33e cc1b bcb9 876f 573e 9a01 16be
00000360: 07dc 033f b140 84bd fd70 c53e e824 843e
00000370: 476c ebbd b201 36bd 3cb1 dfbc cdf4 78bd
00000380: c1fa 92bd 8a63 1fbe bc0a fc3e 1978 17bf
00000390: c190 003f a607 d0be 0e46 2d3e f177 643e
000003a0: b0c3 a6bd 1e2a 2abd d658 5c3d 8ac4 f2bc
000003b0: b955 46bd b5da fd3d 76aa 883d 26e2 f6be
000003c0: 78c9 153e cd43 16be a468 67be 74e4 70be
000003d0: 1840 0e3f 3bad 27bd 9b37 8a3d 9e96 b1bc
000003e0: 3ef7 213d 76c3 473d 5bcd 713e 7370 a6be
000003f0: e49a 363e 2f04 673e 0ebb 38be 011d 00be
0.0058983564 0.03927634 0.05919365 0.054136388 -0.025531128 -0.022116046 0.031506017 0.038530543
0.0523298 0.04556428 0.015166454 -0.011316881 0.032183588 0.04855319 -0.002104357 -0.014606945
0.0063044503 -0.044173554 -0.075353146 -0.020839334 0.07390759 -0.37881625 0.105433464 0.0125961155
-0.063693196 -0.065787256 -0.01698824 0.038327307 0.025421262 -0.0027178675 0.029781707 -0.00065297633
-0.044473805 0.084465615 -0.15434906 -0.46140724 0.019612975 0.020964175 -0.042589024 0.062179737
0.04365121 -0.0557345 0.09292046 0.4649082 0.6147891 0.4307325 0.13092703 -0.566746
0.36608896 -0.47957066 0.047398075 0.125959 0.040363543 0.050073214 -0.00809928 0.36440805
-0.54712516 0.7503585 0.09636755 0.28313625 0.24573474 -0.49098948 -0.46584687 -0.050249826
-0.0517214 -0.02578098 -0.04729327 -0.03856768 -0.30874678 -0.2045316 0.60450214 0.47408515
1.0372652 0.22225139 0.94177157 -0.1024274 -0.052764453 0.031680584 0.028979488 -0.035843253
0.028441548 0.39201286 0.18731952 -0.13583449 -0.27312687 -0.14959581 -0.6872437 0.49538517
0.039388917 0.050748043 -0.033357933 -0.035545845 -0.07502456 -0.21603313 -0.36679313 -0.1158348
0.3658591 0.017743677 0.51645684 0.013770221 -0.31288865 0.054057173 -0.059245348 -0.017436177
-0.011687763 -0.022185951 -0.06347155 -0.066822864 -0.10783501 -0.099238805 -0.17064391 0.13352469
0.38570154 -0.04894632 0.026477426 0.046686873 -0.027133055 -0.13181035 -0.2581142 -0.35513613
0.15185705 0.005120872 0.26317117 -0.24226184 0.3065197 0.11856508 0.046307556 0.057452045
-0.03178647 0.06811691 0.050002508 -0.02715848 0.06355839 0.22905388 0.055108525 -0.38745052
-0.037147798 0.05011124 0.010573648 -0.011265397 -0.031354647 0.060661323 0.069087915 -0.042322554
0.038329273 0.04598538 -0.28649276 -0.04034754 0.028071843 0.0042439997 0.010441452 -0.009715192
0.029839195 0.060886286 0.049214564 0.03212122 -0.060935453 0.017652497 -0.04599788 0.010452636
0.031554922 -0.0071871653 -0.071292154 0.05728098 -0.049168203 0.021991685 0.049634017 0.018248983
0.03853458 0.058048002 -0.06958019 -0.06756942 0.011232428 0.028531149 -0.069348074 0.0133373365
-0.036762696 -0.067893185 -0.027375806 0.045926005 -0.002309762 -0.051789306 -0.02223102 -0.009927824
-0.0195866 0.039755575 -0.017362688 -0.05354937 -0.046342753 0.06266924 0.13729297 -0.18360786
-0.033220623 0.018912159 -0.061385058 -0.059954736 0.05741165 0.00097159296 -0.02349826 0.026738763
-0.038946252 -0.007274933 -0.27508885 0.07957689 0.15436113 0.017962538 0.026630998 0.0031629503
0.0043074638 0.034999967 -0.017160848 -0.12531357 0.3512248 -0.00035878865 0.21038638 -0.14649048
0.5150761 -0.064576514 0.38562766 0.25809407 -0.11495262 -0.04443521 -0.027306192 -0.060780335
-0.07176734 -0.15565315 0.4922694 -0.5916763 0.50220877 -0.40630835 0.16921255 0.22311379
-0.08142793 -0.041544072 0.053795658 -0.029634733 -0.048421595 0.12395231 0.06673138 -0.48219413
0.14627635 -0.14674301 -0.22598511 -0.23524648 0.5556655 -0.04093669 0.06748887 -0.021678265
0.03954243 0.04877039 0.23613493 -0.32507667 0.17832524 0.2256019 -0.18040106 -0.12511064

linear.1.bias f4 [256]
00000000: 1894 66be 9eee 84bd 3de5 3f3d fabe 033e
00000010: 0188 04bd 3be8 54be abb8 7d3e 1a52 3cbe
00000020: f089 28be 47ff e9bd 83e6 6abd 6a22 193e
00000030: 97da 393e 8ef9 cfbd b737 20bc bc04 72bd
00000040: 9305 7e3d 3519 afbd f7f4 86bd 6d73 2dbe
00000050: dce9 f53c 08ff c3be 89ee b5be ae0f d53c
00000060: c074 7bbe 8fe6 0ebe d2d1 363e c3a6 e63d
00000070: 06c5 32be 9a69 6a3c 2a00 0bbe 9a22 733e
00000080: fcde c8be 67f0 d2bc 74a6 6739 0e2a d0ba
00000090: 7f1a ef3d 0287 2d3e 90a5 c8bc 5f83 0fbe
000000a0: 287b 453d dc89 a6bd b7e5 93bd 3d75 4a3e
000000b0: e35f 83bd 2731 71be ea84 283e e281 c3be
000000c0: f8de d03c 69f6 483e 54ea ca3c 3145 cb3d
000000d0: 71bc 4a3d ddb3 a83d 6451 e93d 3804 c0be
000000e0: a54a 193d e36e c2bc 2b5e c4bd 7421 1bbd
000000f0: 93d3 54be 203f 89be 9ee1 6f3e 66f9 203e
00000100: 34e6 2bbe cbda 80bd 6275 dcbd 6036 833c
00000110: ad5a 5dbc eef9 7d3e 11f4 183e b102 64be
00000120: f0de 7239 f585 7ebe 1b2f 04bd 7b06 b8bd
00000130: 0d79 39be 4ad5 8dbd 5697 b8ba 6259 4f3e
00000140: c34f 143e a0d0 213e f3ba 7f3d d835 3ebe
00000150: bc6a 8dbe fe5c 89be cce6 0bbe de85 3ebc
00000160: b856 cebe a263 2dbe 7525 75be 883b 2f3d
00000170: 4bb9 1e3e 4868 153d d54a 03be 45ef 533e
00000180: 0c5e 663d 618d e6bc 87dd 7d3e ee75 e53b
00000190: 6a85 9c3c aeec a3bd 2a14 9fbe eeb1 1abe
000001a0: 4d3f 20be 450c f9bc 7af1 43be 4b99 2ebe
000001b0: ea92 4fbe 4020 2fbe b4f3 dbbe e39a 04be
000001c0: 7768 debd 4a5d a9bd 6699 60bd b71a 4c3e
000001d0: b4e8 74bd 72fa 02bd ca2f 353e c7f7 0fbe
000001e0: 4dda 633d 39fc efbc ea39 863c c17f c13c
000001f0: b30a 0fbe 7258 97be c825 d03c e3d7 f2bd
00000200: 158f eebd 679f 8bbd 5114 843d 3c9e 85be
00000210: bde1 16be bc0a c2bd f77c 79bd bf28 7ebd
00000220: e9e4 2e3c e3be 9fbc 8f12 bb3d 13ea 163e
00000230: dd51 58bd ad25 1c3c cab5 973d a7df 89be
00000240: 3ae2 d0bd 9389 9cbd f964 cabd 827f bd3d
00000250: cb55 b2be 6f2a 1dbd 1d66 aa3e 7dc0 1bbe
00000260: 98aa 87be bcb5 b3be 49b2 18bc 7b3e a23d
00000270: 53c4 20be 0291 94bd 8bab 8e3d de02 8b3d
00000280: 23a6 f9bd ab92 dbbd dbfa 4abe 3d2e c9be
00000290: fc3d a23c c228 2c3d 543b 843e c971 f1bd
000002a0: ba31 7f3d 86a6 f3bc 2aea 9f3d 2c95 76be
000002b0: d72f 303e 8b18 0e3e 7fc2 06be f78f 90bd
000002c0: 555d d8bd fa0f 363d 5a10 a23c b312 dabd
000002d0: 4833 b9be c66e 57be b698 f03d e891 6c3a
000002e0: 9852 3dbe 081e b0be 7871 883d 76ed a53d
000002f0: 1f87 d3be c6e6 54bd 16a4 05be 2a89 cabe
00000300: dac8 6a3d 3baa 1bbe 25ed 78be 1122 77be
00000310: fb51 363d b9c6 a3bd 20aa e6be 3bd1 45be
00000320: cf02 14bc 8d9b a7be 1772 13be 676c 8fbd
00000330: 692c 43be bfc8 febc 0f3c 05be a41c 5c3e
00000340: 0a21 abbe 907f e83d 5597 8dbe 50d7 06bd
00000350: 663d 87be e609 5b3e 12ce 99be ee33 84bd
00000360: dee5 493d 0456 f9bc a634 8bbe 4cda 603e
00000370: ebc7 8d3d b3d3 723d a0b9 88bd 9ee1 94be
00000380: 645f 27be 68a9 0ebe 6c8c e4bd 7112 91be
00000390: 9eff 6d3d 9325 d63d f23f a53e c9a3 29be
000003a0: 9c06 93bd 57a7 50be 27dc 81be 3163 98be
000003b0: 5d93 ebbe 43a9 9bbe 910f cdbd 1b23 e83c
000003c0: 734c 86bd 51db f2bd 6b11 79bd 6019 35bb
000003d0: f2f1 193d ed3d b1bd 3c8f 043c 5af5 dfbd
000003e0: 6104 26bd 2a25 c8be 5a43 0a3e e944 21be
000003f0: 070c 643e 39c9 353e 0d6d e03b 739a 8abe
-0.22517431 -0.06490825 0.046849478 0.1286582 -0.032356266 -0.20791714 0.24777476 -0.18390694
-0.16458869 -0.114256434 -0.05734874 0.14954534 0.18149792 -0.10155021 -0.009778908 -0.059086546
0.062017035 -0.0854973 -0.06589692 -0.16938563 0.03001874 -0.3828051 -0.3553355 0.026008453
-0.24556255 -0.13955139 0.17853478 0.11262276 -0.17457971 0.014307404 -0.13574281 0.23743668
-0.39232624 -0.025749398 0.00022091885 -0.0015881674 0.116749756 0.16946033 -0.024493009 -0.14014958
0.048213154 -0.08131763 -0.07221549 0.19771285 -0.06414773 -0.23553906 0.16456953 -0.3818503
0.025496945 0.19625248 0.02476994 0.099253066 0.049496118 0.08237431 0.11392477 -0.3750322
0.037424702 -0.023734516 -0.095882736 -0.0378737 -0.20783834 -0.26805973 0.2342591 0.15720138
-0.16787034 -0.062917314 -0.107645765 0.016017139 -0.013510388 0.24802372 0.14936854 -0.22266652
0.00023161969 -0.24855788 -0.032271486 -0.08985611 -0.18112583 -0.06925447 -0.0014083188 0.2024894
0.14483552 0.1580224 0.062434148 -0.18575227 -0.27620494 -0.2682876 -0.13662261 -0.011628596
-0.40300536 -0.16932538 -0.2394007 0.042781383 0.15500371 0.036476403 -0.12821515 0.20696743
0.056242034 -0.028143587 0.24791537 0.0070025837 0.019106586 -0.080041274 -0.3107007 -0.15106937
-0.15649147 -0.030401358 -0.19135085 -0.17050664 -0.20270887 -0.17102146 -0.42959368 -0.1294971
-0.10859769 -0.082697466 -0.054833792 0.19932066 -0.059792235 -0.031977125 0.17694011 -0.14059363
0.05562811 -0.029295074 0.016385037 0.023620488 -0.13968925 -0.29559666 0.02540864 -0.118575834
-0.116483845 -0.06817513 0.064491875 -0.26097286 -0.1473455 -0.09474704 -0.06091019 -0.062050577
0.010674694 -0.019500202 0.09134399 0.1473773 -0.052812446 0.009530467 0.074077204 -0.26928446
-0.10199399 -0.07643428 -0.0988254 0.09252836 -0.3483108 -0.038370546 0.3328103 -0.15210147
-0.2649734 -0.3509959 -0.00931985 0.079220735 -0.15699892 -0.072542205 0.06966313 0.06787656
-0.12189891 -0.10721334 -0.19822256 -0.3929309 0.019804947 0.042031057 0.25826514 -0.11789281
0.062303282 -0.02974249 0.07808335 -0.24080342 0.1720575 0.1387655 -0.13160132 -0.07058709
-0.10564677 0.04444883 0.019783188 -0.10648098 -0.36171937 -0.2103835 0.11747877 0.0009024427
-0.18488538 -0.34397912 0.066622674 0.08101933 -0.41314027 -0.051977895 -0.13050875 -0.39557773
0.057320453 -0.15201657 -0.24309213 -0.24134089 0.044511776 -0.07996888 -0.4505167 -0.19318096
-0.009033873 -0.32735863 -0.1439899 -0.07003098 -0.1905991 -0.031101583 -0.13011192 0.214953
-0.33423644 0.113524556 -0.2765452 -0.03292018 -0.2641403 0.21390495 -0.30040032 -0.06455217
0.049291484 -0.030436523 -0.27188605 0.21958274 0.06922897 0.059283923 -0.0667603 -0.29078382
-0.16344982 -0.13931811 -0.11159596 -0.28334382 0.058105104 0.104563855 0.3227535 -0.16566385
-0.07178995 -0.20376335 -0.25363275 -0.29763177 -0.46010867 -0.30402574 -0.10012735 0.028337052
-0.0655755 -0.118582375 -0.060807627 -0.0027633533 0.037584253 -0.086543895 0.00809079 -0.10935469
-0.04053152 -0.39090854 0.13502255 -0.15748943 0.22270213 0.17752542 0.0068489374 -0.2707096

linear.3.weight f4 [64, 256]
00000000: a3cf aabe 6178 793f 6468 303f 7b29 fabc
00000010: 18ff 67be e3ad 0bbf d04c d23e 6d48 43be
00000020: 1dcd cabd bca8 623f 2d7f 893e 6fee 87be
00000030: 4428 4fbf 00b1 c43e 40f1 003f cf6d aa3f
00000040: aae2 14be 4f67 c43e dd8f 71be 9225 acbe
00000050: 3491 08bf d93e c03e 66f0 453f 4826 623e
00000060: 48d1 81be f879 10be 8d51 4cbe 6431 673f
00000070: 66d6 c8be c723 a83e 2b71 2f3f 75e5 063d
00000080: d4e5 8b3d 9138 a9be 600d 153f 5e7e 3fbf
00000090: 63e5 36bf ffe2 4fbe 2727 07be 3336 923f
000000a0: 9b01 c63e 17a5 003f c4fa f03d 9ec3 103e
000000b0: a5e7 8f3f 2a96 42bf 7a1b 173f 8177 39be
000000c0: cba8 063e 2cb7 81bd dc40 1abf bf09 053e
000000d0: 7f6c 093e af29 70be cd7c 1dbf df3c bbbe
000000e0: b605 333f bf23 88be c5ea 023e 79d4 953d
000000f0: 7ed6 d9be 6187 32be dd08 29bf 2a0b 733d
00000100: cf68 263f 26c7 cb3b c1a0 5dbf 547d 7e3d
00000110: dc8e 8c3e 2c7f 9d3c 5314 083f 46a3 f23e
00000120: 7965 5bbf f742 053f d3a7 33bf 3721 05bf
00000130: 5544 073f e444 54bf 9f5d d9be b380 33bf
00000140: 7bf0 733d 027f b13d 1178 ee3d 4b3d 983e
00000150: 5b90 c5be 7a15 073f 38d3 1a3f f446 3cbf
00000160: 8a21 6a3f 3a39 88bd a285 a43e a537 08be
00000170: cc83 423f cb5f 223f d787 36bd 6576 a7bf
00000180: d704 47be 599a 34bf 4343 01bf dcbd 413d
00000190: 2c74 73be fbaf cbbe 13e1 bebe 26ef 333f
000001a0: 3645 06be 5edd b0be d1f0 563f 7536 5bbf
000001b0: 72e1 1fbf 2865 383f cc0a 89be 970e cabe
000001c0: 1274 4a3f 8508 1a3e 945c 123e 7e57 34bf
000001d0: b9fc 593f ac96 74bf 7804 193e d532 983d
000001e0: 58b8 123f 58c7 be3e 91cd 013f e11c 32bf
000001f0: 329e 39bf 8c41 313f cc94 063f 0cab 853e
00000200: 7d9f 3b3e 8540 f33d 3e25 a73e 8577 863e
00000210: 2d92 fd3e 3916 213f da4a f2be 30cb 0ebf
00000220: 5748 33bf 61cd cabe a4d9 523f 63eb 2b3f
00000230: 398e 8c3f ca2e 853f ef1b 1bbf 979c 773e
00000240: 7273 71bf 41f2 ad3e 851d 253f 18ad ae3e
00000250: 0530 21bf 8ace 01bf 2688 93be 43eb f2be
00000260: 6aeb 96be 0241 30bf 7043 69bf 13b9 91bd
00000270: c75a 143f 2ad8 9dbd 1254 d23e a6f2 15be
00000280: 902c 0cbf 6211 e4bd 4e07 4dbf 4c86 6dbf
00000290: bdb6 19bf 7a23 8f3d 7f7f febe 7977 023f
000002a0: 4d07 003f 60c1 033e f072 443f 8e90 833f
000002b0: 9ed8 fb3e cf79 403d bd6d d03e 218f 0fbe
000002c0: b2aa 82bb 95b2 51bf e826 8cbf 975b 15bf
000002d0: 84b1 bc3d b463 f03d 2871 12bf 5bd8 013f
000002e0: ebe5 8a3f 9614 363f 5bf8 183f 29a1 503f
000002f0: 2bc9 973d 33c2 14be b262 363e c4ec 173e
00000300: 0421 5cbf f733 383f 61f4 903e dbac 2fbd
00000310: fbec a03e 7057 24bf 12af 063e 2cbe ae3f
00000320: 4fb2 08bf 6c60 303f 7fc4 a23f 09c4 3abf
00000330: 5600 13bf fe80 303f 4d36 1abf 2a3f e6bc
00000340: fc9b 093e a463 6abe 755c d1bd 6410 9ebf
00000350: e4af 203f 358b eb3d a315 35be 5a2e c53f
00000360: f3bd 633f 76fa 87bd 1767 ac3f 1caf fe3d
00000370: b0eb 46bf a5ee 97bf c6e9 6e3f b843 edbe
00000380: 31c4 07bf 456c 96be cca5 853f 8815 5c3f
00000390: 6d9b ad3e e943 51bf 03d6 8abe c799 3d3f
000003a0: 70af 0dbf e047 423f c183 63be 4f9b 063f
000003b0: 2934 61be 6239 9dbe 34bd c9be 1200 05be
000003c0: f0f4 61bf f9d0 4e3f 6fa2 793e 3b65 4e3f
000003d0: 1e9e cd3e e950 143f 946f 93be fd5c 193f
000003e0: 2912 28bf cde6 a03d c7d4 b03e 054d d5bd
000003f0: e457 cabe 7b15 2abf c6fe 2cbf ed26 73be
-0.3336154 0.9744931 0.6890929 -0.030537358 -0.22655904 -0.54562205 0.41074228 -0.19070597
-0.099024035 0.8853872 0.2685484 -0.26549098 -0.80920815 0.3841629 0.5036812 1.3314761
-0.1453959 0.38360068 -0.23590036 -0.33622414 -0.5334656 0.3754795 0.77319944 0.22084916
-0.2535498 -0.14109027 -0.19952984 0.9030974 -0.39226073 0.32839796 0.68532056 0.03293367
0.068309456 -0.3305097 0.58223534 -0.74802196 -0.71443766 -0.20301436 -0.13198529 1.142279
0.386731 0.5025191 0.1176658 0.14137122 1.1242567 -0.7601038 0.590263 -0.18111993
0.13150327 -0.063337654 -0.6025522 0.12991999 0.13420294 -0.23453401 -0.61518556 -0.36569878
0.6993059 -0.26589772 0.1278487 0.073159166 -0.42546457 -0.17434455 -0.6602915 0.05933682
0.65003675 0.0062188087 -0.86573416 0.06213124 0.27452743 0.01922568 0.5315601 0.47390193
-0.8570171 0.52055305 -0.70177954 -0.52003807 0.5283864 -0.8291762 -0.4245424 -0.70118254
0.059555512 0.08666803 0.116439946 0.29734263 -0.38586697 0.52767146 0.60478544 -0.73545766
0.91457427 -0.0665154 0.32133204 -0.13302477 0.75982356 0.6342742 -0.04456314 -1.3083006
-0.1943544 -0.70548016 -0.5049326 0.047300205 -0.23774785 -0.397827 -0.37281093 0.70286787
-0.1311234 -0.3454389 0.83961207 -0.8562997 -0.6245338 0.7202935 -0.2676605 -0.39464256
0.7908336 0.15042312 0.14293128 -0.70446 0.8515125 -0.9554241 0.14943111 0.074315704
0.57312536 0.37261462 0.50704294 -0.69575316 -0.7250701 0.6924064 0.52570796 0.2610706
0.18322559 0.118775405 0.326456 0.2626306 0.49525586 0.62924534 -0.47322732 -0.5577879
-0.70032257 -0.39609817 0.82363343 0.67156047 1.0980903 1.0404904 -0.605895 0.24180828
-0.9431678 0.33973888 0.6449817 0.34116435 -0.62963897 -0.5070578 -0.2881481 -0.47445115
-0.29476482 -0.68849194 -0.91118526 -0.07115378 0.57951015 -0.07707246 0.41079766 -0.14643344
-0.54755497 -0.11136128 -0.8008927 -0.92783046 -0.6004446 0.069891885 -0.49706647 0.5096355
0.5001114 0.12866735 0.7673788 1.027849 0.49188703 0.046991166 0.40708724 -0.14019443
-0.0039876336 -0.8191312 -1.0949373 -0.5834288 0.09213546 0.11737767 -0.5720391 0.5072076
1.0851415 0.7112516 0.5975396 0.8149591 0.074114166 -0.14527206 0.17811087 0.14836413
-0.8598788 0.7195429 0.28311446 -0.042889457 0.31430802 -0.6419592 0.13152722 1.3651786
-0.5339708 0.6889713 1.2716216 -0.72955376 -0.5742239 0.68946826 -0.60239106 -0.02810629
0.1343841 -0.22889572 -0.10222713 -1.2348752 0.6276839 0.11501161 -0.17684035 1.540477
0.88961715 -0.066395685 1.346896 0.12435743 -0.7770338 -1.1869704 0.9332546 -0.46340728
-0.5303374 -0.29379478 1.0441222 0.85970354 0.33907643 -0.8174425 -0.27116403 0.7406277
-0.5534582 0.7589092 -0.22218229 0.5258073 -0.21992554 -0.30707842 -0.39402163 -0.12988308
-0.8826437 0.80787617 0.2437837 0.80623215 0.40159696 0.5793596 -0.28796065 0.59907514
-0.6565271 0.07856522 0.34537336 -0.10415081 -0.3952018 -0.66439027 -0.67576253 -0.23745318

linear.3.bias f4 [64]
00000000: b5f8 e0bd 87b3 a0be a84d adbd adeb aabe
00000010: 43e3 12be 0480 75be c8ee e7be e4e9 9fbe
00000020: 5987 d0be c13b b9be 1fc0 c8be 1445 febe
00000030: 367b fbbe 9e82 eebe f1a9 94be d1b4 e1be
00000040: e31c c7be 7ba1 9bbe a17a abbe 44dd ebbe
00000050: 2f6c 80bd 320b 9b3d 243a 47be 7a53 2dbe
00000060: bdaa 4abe 856a 1ebf 2978 0fbf 71d2 1abf
00000070: 2556 0ebf 2da9 b3be 135e dbbe 48b2 b9be
00000080: 5f55 85bd e2f9 08bf ee35 22bf 9385 5cbe
00000090: 11c6 dfbe 9d69 80be 5957 49be 14cb afbe
000000a0: 2f58 9cbe 7fc6 07bf f2d0 263e cff0 95be
000000b0: 9d4a b7bd 547e a3be 0aa4 d3be 441f c4bd
000000c0: c9f1 18bc 479a f8bc c57b 54be d14f 70be
000000d0: 87dd 25be d67b 9cbe 396b 8bbe c6bf 93be
000000e0: f192 efbe 71b7 87be ae35 dcbe cd16 05bf
000000f0: c17d 1abf efc3 64be 8320 edbe db73 edbe
-0.10984937 -0.31386968 -0.084620774 -0.3338293 -0.14344506 -0.23974615 -0.45299363 -0.31233132
-0.40728262 -0.361784 -0.39209077 -0.49662077 -0.4911744 -0.46584028 -0.29035905 -0.44083264
-0.38889226 -0.30396637 -0.33491996 -0.4606725 -0.062706344 0.07570495 -0.19455773 -0.16926375
-0.19791694 -0.61881286 -0.56042725 -0.6047736 -0.55600196 -0.35090008 -0.4284521 -0.3626883
-0.06510424 -0.5350629 -0.6336354 -0.2153533 -0.437058 -0.25080577 -0.19662227 -0.34334624
-0.3053603 -0.53037256 0.16290644 -0.29285285 -0.08949778 -0.31932318 -0.4133609 -0.09576276
-0.00933499 -0.030347003 -0.2075034 -0.23467948 -0.16197787 -0.3056323 -0.27230242 -0.2885725
-0.46791795 -0.26507142 -0.43009704 -0.51987916 -0.60348135 -0.22340368 -0.46313867 -0.46377453

reg.weight f4 [2, 128]
00000000: c812 d23e bd94 6abe ec6e 273f aeab c4bf
00000010: 7d55 3d3e a581 c53e 6e83 fabe 0fbc 553f
00000020: 7cd9 4d3e 9b1b 833e cd47 fa3e 964e 833d
00000030: e936 103f 37c4 043f 5093 81be 0a3b 91be
00000040: 0a36 263e 1880 df3e a0cc ef3e 4553 2c3e
00000050: 0164 003f 9aca bd3e 4c4b 853e 8f21 1f3e
00000060: 7a46 eb3e 76e2 913e 2470 283b 9e15 1b3f
00000070: 3cf2 04be 3d90 cebe b1ad 22bf 6f74 de3e
00000080: c2db 443e 1ad4 c73e 83ad 463f b4ed 343d
00000090: fb32 b63e 3eb1 553e 5a49 1abf d8f3 1f3e
000000a0: 7f28 473e 8132 d53e d2a4 ce3d d5d4 353e
000000b0: 7def c8be c028 dbbe fdcc f13e eab7 513f
000000c0: e164 003f 9777 f23e 3304 c2be 1440 9d3e
000000d0: 2776 7b3d b55f 2e3f 98de a63e 6279 53bf
000000e0: f32a d43e 9ec2 443e fca4 7a3e 805d a73d
000000f0: 649a b13d c3a9 b23c 80d4 003f 0659 d43e
00000100: 340c 5a3f 62e5 4a3f f072 323f 42b8 3f3f
00000110: d397 1fbf 1d12 323f 341b 3e3f 3721 403f
00000120: efc2 18bf 4e20 3c3f f6ea 413f 341e 3c3f
00000130: a146 423f 6ae1 383f 7b24 15bf 8d5c 483f
00000140: 1df8 0f3f 3c0b 373f 1634 16bf 3290 413f
00000150: 4167 393f 5110 1cbf e52c 4a3f 26bc 1bbf
00000160: b382 13bf 8283 3b3f fefd 413f 418e 393f
00000170: 749e 3c3f 96af 253f c6ac 3c3f 8d4f 393f
00000180: 6527 623f db45 413f bf41 433f 4c9c 413f
00000190: e627 3b3f 0a39 16bf 9513 f73e 309b 303f
000001a0: 1c5b 393f 7502 423f 064c 573f 0fb9 473f
000001b0: 1eb0 603f 4297 433f 3806 3c3f 438d 703f
000001c0: f5b7 de3e 7749 373f 7df8 1bbf 7ad8 18bf
000001d0: 386a 1dbf cb84 3b3f 0c45 483f ad21 12bf
000001e0: f6c2 413f 7d56 3d3f 0b5b 373f 3634 423f
000001f0: 2f71 3f3f 0ce7 1dbf 2211 473f ac73 3f3f
00000200: 185f 093d 0477 4a3d 3e15 823a 70ba 6fbd
00000210: 3f57 4a3c 324f ca3c 0bef 8fbc 40d5 fd3b
00000220: 60a0 f5bc e5d6 9d3e 12fa 53bd 6716 3b3d
00000230: c0be 2d3e 8007 b6bb b671 483c 1884 adbe
00000240: f91b e23c ff0f 883d 39ce f23c afc0 f23c
00000250: 09a0 c1bd cc46 e23c fd5f 53bc 4749 923d
00000260: 008e 9eb9 972e 05bd 8706 013e 7b7b e2bc
00000270: 934e d93e b896 d138 5d49 3fbc 0d46 80bb
00000280: 5ece 5e3e d303 8d3d 7a6a b63d 332d ea3c
00000290: 244e cf3b 06d5 b4bd 1235 123d 3ac3 393d
000002a0: 8660 0d3d d619 423d 443e 51bd 2cbc 4b3d
000002b0: 435c 203d 2645 8d3e 5166 8dbc 6fbf f1bc
000002c0: c465 86bd 431d 413d 128b 84be d3d0 bbbd
000002d0: dff0 103e 813b 33be 5c94 f6bc 1686 833d
000002e0: 9b0c 5d3d dcbd 4b3d d21b a6be 428d 10bc
000002f0: a961 a0bd 78cd 1cbe d583 1ebb 062b 813c
00000300: 5a11 c83b 88a5 853b 7193 fbb9 f9d2 f13b
00000310: 4877 133c cb3c 933c af78 8d3c 5f0d 07bc
00000320: cdf8 7cbc 83aa 12bb cddc 6bbc fdd1 21bc
00000330: 71b9 593c 6ff4 37bc 92ef 8bbc d3df c93a
00000340: 397a c53b 7ff7 27bc 644d 1dbc 2016 b63b
00000350: 32b3 9d3c 66bb d7bb 76f7 033b 00f4 02bc
00000360: 8b4d 4b3c ae99 7d3a f094 c1ba 89b0 dbbb
00000370: ac78 8fbb 6d92 4c3a 20c0 98ba 8d30 073c
00000380: ba1f 823c c3f6 983b 405c 1b3c 46a5 25bc
00000390: ca6f b43c df7c f6bc d01a 453c c419 3fbc
000003a0: f45e 633c 6496 bbba 33c7 a83b e635 0ebc
000003b0: 7f71 7abc 3455 05bc aa82 1ebc f8c2 e2bc
000003c0: 581a 05be 16eb 1abc 7f58 033c fc1b 023d
000003d0: ae00 c83c df16 393a d4db 543c d2a0 5bb9
000003e0: 7118 b93c d0a5 ac3a 3465 e3bb 3084 92bc
000003f0: fd72 8bbb 9a9e 04bc eb93 29bb e143 26bc
0.41029954 -0.22908302 0.6540363 -1.5364892 0.18489642 0.38575473 -0.48928398 0.8349008
0.20102495 0.25607 0.48882905 0.064114735 0.56333786 0.518619 -0.25307703 -0.28365356
0.16231552 0.43652415 0.46835804 0.1682864 0.50152594 0.37068635 0.2603401 0.15540145
0.45952207 0.28493088 0.0025701607 0.6057986 -0.1298303 -0.4034442 -0.6354628 0.43448207
0.19224456 0.39029008 0.7760851 0.044172004 0.3558577 0.20868394 -0.60268176 0.15620363
0.19449042 0.41640094 0.10090031 0.1775697 -0.39245215 -0.42804527 0.47226706 0.81921256
0.5015393 0.47356865 -0.3789383 0.3071295 0.061391976 0.6811479 0.325917 -0.8260709
0.41439018 0.19214866 0.24476999 0.081721306 0.08672026 0.021809464 0.5032425 0.4147417
0.8517487 0.7925626 0.6970663 0.7489053 -0.6234104 0.6955889 0.7426026 0.7505068
-0.59672445 0.73486793 0.75749147 0.73483586 0.7588902 0.72218955 -0.5825879 0.7826622
0.56237966 0.7150152 -0.58673227 0.7561065 0.7242318 -0.60962397 0.78974754 -0.60833967
-0.57621306 0.7324754 0.75778186 0.7248269 0.7367928 0.6472105 0.7370113 0.7238701
0.8834136 0.75497216 0.76272196 0.75629115 0.73107755 -0.58680785 0.48257127 0.689868
0.72404647 0.75785 0.8410038 0.7801675 0.87768734 0.76402676 0.7344699 0.9396555
0.43499723 0.71596473 -0.6092604 -0.5970532 -0.614902 0.732495 0.7823036 -0.57082635
0.7568811 0.73960096 0.71623296 0.7586092 0.7478208 -0.61680675 0.7776052 0.74785876
0.033537954 0.04942991 0.0009924544 -0.05852741 0.012349903 0.024695966 -0.01757004 0.0077463686
-0.0299837 0.30828014 -0.051752158 0.04567566 0.16967297 -0.0055550933 0.012234142 -0.33889842
0.027601229 0.06643676 0.02963935 0.029632894 -0.094543524 0.02762165 -0.012901303 0.07142883
-0.00030241907 -0.032515135 0.12600146 -0.02764677 0.4244276 9.99397e-05 -0.011675206 -0.0039146007
0.2175841 0.06885495 0.089070275 0.028586006 0.0063264538 -0.088296935 0.035695143 0.0453522
0.03451588 0.04738792 -0.05108477 0.04974 0.039150488 0.2759182 -0.017260702 -0.029510228
-0.06562379 0.047147047 -0.25887352 -0.091706894 0.14154385 -0.17503168 -0.03010004 0.06422059
0.0539671 0.04974161 -0.324431 -0.008822741 -0.07831127 -0.15312755 -0.0024187465 0.015767585
0.006105584 0.0040785708 -0.00047984303 0.007379886 0.009000607 0.017973324 0.01726946 -0.008242934
-0.015440178 -0.0022379465 -0.014395905 -0.009876725 0.013288842 -0.011227711 -0.01708201 0.0015401788
0.006026533 -0.010251879 -0.009600971 0.0055568367 0.019250486 -0.006583619 0.0020136512 -0.007992744
0.012408624 0.0009674084 -0.0014769118 -0.0067043942 -0.004378399 0.00078038016 -0.0011653937 0.0082513215
0.015884269 0.004668088 0.009482443 -0.010110205 0.022025961 -0.03008884 0.012030318 -0.011663858
0.013877619 -0.0014311788 0.0051506995 -0.008679843 -0.015285849 -0.00813799 -0.009674707 -0.027680859
-0.1299833 -0.009455463 0.008016705 0.03176497 0.024414387 0.0007060598 0.012991864 -0.00020945378
0.022594662 0.0013171975 -0.0069395546 -0.017885298 -0.004255651 -0.008094454 -0.002587552 -0.0101480195

reg.bias f4 [2]
00000000: 1602 353e e432 1bbc
0.17676577 -0.0094725825
