server/model2/value_model_minmax_noexplore20.pt (torch, 255491 bytes, 12 tensors)

conv.0.weight f4 [4, 1, 3, 3]
00000000: 0508 afbc 2eca a23d 6397 b13e 62a1 473e
00000010: 5db2 713e 57d8 473e 6a73 6e3e bd4d 05bf
00000020: 206a a6bd 75d4 b0bd 6efb c9bd 490c 87bc
00000030: 6654 a03e d58d 9c3e 5458 8ebe 7b94 153e
00000040: ba22 15bf 33e8 593d ffca 06be 6311 2a3d
00000050: f502 00bf de07 04be eb2f f03e 4aaf 323f
00000060: 43c5 bdbc ce90 c6be 2e99 22be 6811 7a3e
00000070: 9e65 44bf d9a1 eb3d f066 033e b966 893b
00000080: ff5e e13e 7e28 c7bd 3e7b 8bbe 7fcb 55be
-0.021366129 0.07948719 0.3468581 0.19495156 0.23603196 0.19516121 0.23286214 -0.52071744
-0.081257105 -0.08634273 -0.098624095 -0.01648535 0.3131439 0.3057696 -0.27801764 0.14607422
-0.58256114 0.053199958 -0.13163374 0.041520488 -0.5000451 -0.12893626 0.46911559 0.6979872
-0.02316535 -0.38782352 -0.15878746 0.24420702 -0.76717556 0.11505479 0.12832236 0.0041931537
0.4401779 -0.0972452 -0.27242464 -0.20878409

conv.0.bias f4 [4]
00000000: b68f d23e 3abb 01bd 3855 51bd 25f1 923e
0.41125268 -0.031672694 -0.05110666 0.28699604

conv.2.weight f4 [4, 4, 3, 3]
00000000: 821d 5cbe db8d e53e 7caa efba e1a0 e13e
00000010: cc99 523d e8f6 e03d 6197 033e 073a 3c3e
00000020: 3f60 0e3d 8f48 40bd 6b26 88bd 5b6b bc3e
00000030: bb7a 033f 31ca 3abf 0b50 a33d f63f 9fbd
00000040: 4cdf 833d 2351 2bbe 3b7b 623e 57d7 1b3e
00000050: ecba e33d f5e2 4e3e 0cb2 18be c8f3 bdbd
00000060: dd31 013e 0d2a a0be fb68 84bc 6c9e 283d
00000070: 4863 cb3e 99fd 823e 58d1 703d 9351 d2bd
00000080: 8d19 f63e 3ad2 193e e957 fd3e 7882 f0bb
00000090: ad8c 543e ee2d 3c3e 9e25 afbe bf1a 6a3e
000000a0: 88aa bbbd dba2 d7bd 3a7d ad3e 0582 db3e
000000b0: 3775 26bd b9ec 83bd 9561 3e3e b7a1 2abf
000000c0: fb81 a03d 5afc 76bc 7698 b63e 33af 83be
000000d0: cde3 cabd 2e09 95be 0e3b 1e3e 0df3 bebd
000000e0: 9228 043e 99bd c43c c0fe eabe e1c3 c8bf
000000f0: bfb0 96bd f5ec 9ebe 026e 3a3e 874f 903e
00000100: 2082 d1bd 0f56 2e3d 3ff4 513c fb10 b23e
00000110: fd39 5fbf b688 3c3e 29ea 2d3f 617e 25bf
00000120: 997a 113c 1006 05be 31e5 2c3e 881a f93d
00000130: a866 813e cfaf 9fbd 1669 e13e ecbe 1d3e
00000140: b74c ad3e 2630 773e 2d9b 04bd 5680 d8be
00000150: f2ec b03d 5a68 983d 6c3d 1dbf f63c 30be
00000160: 716f 7fbe bc1f 0bbe eeaa ba3d fd7f fc3d
00000170: db58 5bbf 79e3 b43d a0b3 19be ec50 d83d
00000180: af37 89bc dc08 89be e292 abbd 4f51 cb3d
00000190: aaa4 ae3d 2649 f2be ec38 4d3e 099f 003e
000001a0: 9e75 ec3e 01d0 1b3e f81f 123e d290 933d
000001b0: 0717 b13d 57cb 5a3f 01ec 8d3c 362c 8e3e
000001c0: 1a61 b73d cf9c a13e 54ea 303e 2f50 c83e
000001d0: 01f9 653e eeb4 b73d 72d4 053e 0028 b83e
000001e0: 31b7 bc3e 3647 cb3d 9e2d c5bd 449f 583e
000001f0: fc8f 27be f835 c53c ec22 7d3d 123c c83e
00000200: 9f05 19bf e8a0 643e 80ce 863e 8d0a 1fbe
00000210: eed8 b93e 98a0 24bd e054 93bb 2812 8b3e
00000220: 37c7 c83d 8139 ca3e a460 8d3e f8c8 9b3d
00000230: c51a 0d3f b8b6 3d3e 5f45 823e 0480 7f3e
-0.21495631 0.4483479 -0.0018285061 0.44068053 0.051416203 0.10984594 0.12850715 0.1838151
0.034759756 -0.046944197 -0.06647953 0.36800656 0.51359147 -0.7296477 0.07974251 -0.077758715
0.06439075 -0.1673017 0.22117321 0.15218864 0.11119637 0.20203765 -0.1491167 -0.09275013
0.12616678 -0.31282082 -0.01616334 0.041166708 0.39724183 0.25584105 0.058793396 -0.10269465
0.4806637 0.15021601 0.49481133 -0.007339772 0.20756789 0.18376896 -0.34208387 0.22861765
-0.09163386 -0.10529109 0.33884603 0.42872635 -0.04063913 -0.06441636 0.18591912 -0.6665301
0.07837292 -0.015074814 0.35663193 -0.25719604 -0.09906731 -0.29108566 0.15452215 -0.09323702
0.12906101 0.024016188 -0.45897484 -1.5684777 -0.073579304 -0.3104016 0.18206027 0.28185675
-0.102298975 0.04256254 0.01281458 0.3477858 -0.8719786 0.18411526 0.67935425 -0.64645964
0.008879327 -0.12990594 0.16884305 0.121632636 0.25273633 -0.07797205 0.44025487 0.15404862
0.3384759 0.24139461 -0.03237455 -0.42285413 0.08638944 0.074417785 -0.6142185 -0.17210755
-0.24944855 -0.13586324 0.091146335 0.12329099 -0.8568246 0.088324495 -0.15009928 0.105623096
-0.016750185 -0.26764572 -0.08377625 0.09927618 0.08527501 -0.47321433 0.20041245 0.12560667
0.46183485 0.15216066 0.14270008 0.07205357 0.0864697 0.8546652 0.01732445 0.27768105
0.089540675 0.31564948 0.17276889 0.39123675 0.22458269 0.089700565 0.13069323 0.35968018
0.36858514 0.09925692 -0.096278414 0.21154505 -0.1636352 0.024073586 0.061800882 0.3910833
-0.597742 0.22327006 0.26329422 -0.15531369 0.36298317 -0.040192217 -0.004496202 0.2716229
0.09803622 0.39496997 0.27612793 0.07606691 0.5511897 0.18526733 0.2544355 0.24951178

conv.2.bias f4 [4]
00000000: 7769 203e 74fb ee3c 88f8 a93b 3081 ae3c
0.15665232 0.029172637 0.005187098 0.021301836

conv.5.weight f4 [64, 36]
00000000: 2012 c43b 0739 0c3d 96ee d1bc a0be 21be
00000010: 495a 06bd 2fe1 42bd 8a50 e83d b047 35bd
00000020: 58e6 4dbd 0505 ab3b 66f3 ecbd 2dec 2ebd
00000030: 3f9c 233e 04d5 0fbe a83b 8d3a 7720 3abe
00000040: 7581 8cbb ded6 6d3d 0eb1 77bd 4a3c 99bc
00000050: 2db8 0a3d 6f5b c2bd 54a9 bd3d 6327 22bd
00000060: 5f20 d43d 56fb bfbb 9d8a 2fbd e692 0abe
00000070: d2d2 233c f84a 5abc d56d 52bd 2c20 b33d
00000080: 6a41 42bc db34 5bbd 8651 923c cef4 783d
00000090: 572d a7bd 6c09 35be b023 34be e9ac f03c
000000a0: 68f3 2e3e 3e7b b83e 32ba 23be 9a2a 4fbe
000000b0: 913e 143e 04da 42bd b3a7 c7be 07a9 98be
000000c0: 9b43 853d 5eb9 bd3d b250 32bd 7950 9cbc
000000d0: bb96 4fbd ae38 82bf b761 acbe 04a7 fbbb
000000e0: 7aa2 b23d e672 ac3d e864 843a 2a7d fd3d
000000f0: 38e3 c33d 7369 023e 157a 2abf 43a9 a5be
00000100: d413 d53d 22f2 96bd 9de8 823e 3b6c 5f3c
00000110: e148 05bf 2db6 e1bd 176a b13b 0ac7 3bbf
00000120: a1b2 08bf 93f5 e93d 69c3 173f 5498 47bd
00000130: b47e 18bd b116 75bc d829 4f3d 630f d63d
00000140: 5144 663e 714b 1dbf 4b95 c9be 735a 903e
00000150: 0b99 80bd d84b ea3e 7985 1e3f 987f 183f
00000160: 97e6 8e3e 73c7 373d d797 1abf 60eb 04be
00000170: bcf5 5dbf 0d94 1d3f 04d6 903e 1551 133f
00000180: 269e 6e3f c23d e6bd e258 f0bc e9dc 9a3f
00000190: 29d3 633e da26 1a3e 3f4e 103f 8446 35bf
000001a0: ea31 26bf 9b43 193d cdac 20bf ed6f f2bd
000001b0: 83b2 983e c1e3 103e 919f 13bf 96ea 333e
000001c0: 77a9 fc3b 302e d03c 69bb e13a ecaa 87bd
000001d0: 48dd fb3d c89a a4bc fcda 2d3e af0a ef3e
000001e0: bc83 093c e608 123e 929c 27c0 8b3d 383e
000001f0: 796b 563d 8d72 073f 4855 563d f312 3dbe
00000200: dd7f 843e e7c6 42be d8ed 8cbd 34a7 e8bf
00000210: 279a 11bb a874 ce3d a099 0540 d59a 10be
00000220: 3f11 a1bb 495d fcbd f63f 123e aa27 7b3b
00000230: 02d0 fbbc 6d33 41bc cdd1 403d f757 283e
00000240: afbc 4c3d fb19 b93e 3d83 6d3d 3de6 0bbe
00000250: 39d8 4d3e 9a9f da3e 0a40 2cbf 4180 97be
00000260: 92b1 e83e da31 f7be 72bd 7c3d 6267 d13d
00000270: 89be 293e 7490 cf3b f961 ddbe d9ed 053f
00000280: 1af5 ce3e d4d3 95be 1b0f 37be a6a9 d1bc
00000290: ce0b f33e f7a4 48be 0e00 393e e9fc 27bd
000002a0: dd6d 933e a342 233f f0ac 71be 24ce 233e
000002b0: 2cb2 0d3f 9b98 033f 8c4b 633e 581f 4dbe
000002c0: 8032 65bf dd10 ce3d f3a1 13be 8c1a 36bf
000002d0: f7f7 963e 5d43 ef3d 32b7 373e 86f6 92be
000002e0: 7a31 e53e 2236 bfbb 4e19 b2be a324 63be
000002f0: ed14 103f 0a87 46bc 1e56 c0be 1b48 89bf
00000300: 644b c23d 6cfd 73be fdd2 d3be 7086 aebe
00000310: 3c6b c1be 856c afbe 7695 53bd b534 d83d
00000320: c256 213f aec1 363d f174 a73d 116d 1d3e
00000330: d4d6 843e 1f9c 9bbe 09c5 6c3e 5468 0abe
00000340: 46b1 e23d 3972 da3e 2823 01bd 6679 a73b
00000350: 519e dabe 639b 00be a91d 3c3c 9023 663e
00000360: 4134 043c 43b8 323e 8a7a 2e3d 8a10 893d
00000370: 28a2 833e 7f4e 933e d6d0 ce3d bbb7 103e
00000380: 4f3d 3f3e 6f78 393e 2329 40be 9985 c93d
00000390: e5cd d23d e051 3dbd 3b00 2b3f 59bb 8bbc
000003a0: dce5 213e 5202 a33d c663 a33e 37b8 c03e
000003b0: 9750 fa3c 3be1 983e 693a e43b f6d6 0f3f
000003c0: 0a9d 7b3d 1444 763e f43f c8be 11f0 973e
000003d0: adc5 ecbc b8bb 8d3d 0296 f43d 8d20 ca3d
000003e0: 9ede d53e 5cb9 3d3d 3865 783e 182f 4a3e
000003f0: 9984 bf3e 8fb0 263e 0e02 1abe bf88 15bc
0.005983606 0.034234073 -0.025626462 -0.15795374 -0.032800946 -0.047578033 0.113434866 -0.04425782
-0.0502685 0.0052191042 -0.11569862 -0.042705704 0.15977572 -0.14046103 0.0010775225 -0.18176447
-0.0042878934 0.05806624 -0.060471587 -0.018705506 0.03386705 -0.09490096 0.092608124 -0.039588343
0.10357737 -0.005858819 -0.0428568 -0.135326 0.009998994 -0.013323538 -0.051374275 0.08746371
-0.011856416 -0.053517204 0.017861139 0.06078034 -0.08162945 -0.17679375 -0.17591739 0.029379325
0.1708504 0.36031526 -0.15988997 -0.20231095 0.14476992 -0.047571197 -0.38995132 -0.29816458
0.06507035 0.092638716 -0.04353399 -0.019081341 -0.050680857 -1.0173547 -0.336683 -0.007679822
0.08722396 0.08420353 0.0010100873 0.12377389 0.09564823 0.12735538 -0.6659253 -0.323557
0.104041725 -0.07370402 0.25568095 0.013636644 -0.5206433 -0.110210754 0.005414258 -0.73350585
-0.53397566 0.11423793 0.5928255 -0.048729256 -0.03723021 -0.014959023 0.050577015 0.104521535
0.22486998 -0.6144324 -0.39371714 0.28194007 -0.06279191 0.4576099 0.61922413 0.5956969
0.279103 0.044867944 -0.6038794 -0.12980413 -0.86703086 0.6155403 0.2828828 0.57545596
0.93210065 -0.11242248 -0.029339258 1.2098666 0.2224852 0.15053883 0.56369394 -0.70810723
-0.6491991 0.03741799 -0.62763673 -0.118377544 0.29823694 0.14149381 -0.57665354 0.17569956
0.0077106315 0.025412649 0.001722199 -0.06624398 0.122980654 -0.020093337 0.16978067 0.46687838
0.008393224 0.14261207 -2.6189313 0.17992227 0.052348588 0.52909166 0.052327424 -0.1846426
0.25878802 -0.19021188 -0.068813026 -1.8176026 -0.0022217126 0.10080844 2.0875015 -0.14121564
-0.004915386 -0.1232248 0.14282212 0.0038323202 -0.030738834 -0.011792046 0.04707508 0.16439806
0.04998463 0.36152634 0.057986487 -0.13662048 0.20102014 0.4269989 -0.67285216 -0.29590037
0.45447975 -0.4828022 0.061704107 0.10224797 0.1657659 0.006334359 -0.4323881 0.5231605
0.40421373 -0.29263175 -0.17876856 -0.02559359 0.47469944 -0.19594179 0.18066427 -0.04101268
0.28794757 0.63773555 -0.23601127 0.15996605 0.55349994 0.5140473 0.22196788 -0.20031488
-0.8953018 0.1006181 -0.14417247 -0.7113426 0.29486057 0.116827704 0.17940977 -0.28703707
0.4476431 -0.0058353106 -0.3478493 -0.22181945 0.5628193 -0.012117157 -0.37565702 -1.072513
0.09487036 -0.23827142 -0.4137191 -0.34086943 -0.37777126 -0.3426248 -0.05165621 0.10556928
0.63023007 0.0446183 0.08176602 0.15373637 0.2594515 -0.30392548 0.23122038 -0.1351636
0.110689685 0.4266527 -0.03152767 0.0051109074 -0.4269891 -0.12559275 0.011481681 0.22474504
0.008069099 0.17453103 0.04259733 0.06692608 0.25709653 0.28770825 0.10098426 0.14132588
0.18675731 0.18112348 -0.18765692 0.09839935 0.102931775 -0.04622066 0.66797227 -0.017057108
0.1581034 0.07959427 0.3191206 0.37640545 0.030556006 0.29859337 0.006964971 0.5618738
0.06142906 0.24049407 -0.39111292 0.29675344 -0.028902853 0.0692057 0.11942674 0.0986949
0.41771406 0.04631935 0.24257362 0.19744527 0.3740585 0.1627829 -0.15039846 -0.009126841

conv.5.bias f4 [64]
00000000: 2414 adbd 09da 92be 829a 3abf e49c 35be
00000010: 67f7 c8bd 4c43 94be d34d f03e bba2 a73d
00000020: 5f6e 0bbf 4898 44be 4ddb 1abf 8a8f 54c0
00000030: bb7f 01bf c7dc 36bf 865f d93d 7d66 0dbf
00000040: dd58 61bd 5f6c 37bf 8c96 35bf 8812 a4bd
00000050: b8e0 50c0 db45 f5be 7757 efbe aa52 04bf
00000060: 8894 41bf 57fc 35bf 6b15 0bbf 7f59 3fc0
00000070: e5d6 c8be 6591 05be 2a9e 6a3f b865 26bf
00000080: d1b3 1dbf 4e74 d6bd 8256 11bf d10b 09be
00000090: 3dbd e1bf 682e 4ac0 23f1 0c3f fe56 dabd
000000a0: 9201 bfbd 2ef8 d6bd 48e7 b2bd 0915 02bf
000000b0: 6893 6f3e a49f 23bf fa31 41bf e8f6 933e
000000c0: 3365 04bf 92bc 3bbf d024 8fbe 2493 d8be
000000d0: f6af f7be 0d22 9ebe 4fda 10be aab2 11bf
000000e0: 2402 57be dff1 fabd 07cf 3dbf 1492 a8be
000000f0: 540f 25bf 7180 0cbf 4e08 31bf 7414 1dbe
-0.08451107 -0.28681973 -0.7289201 -0.1773563 -0.09812813 -0.28957593 0.46934375 0.08185335
-0.5446529 -0.19198716 -0.60490876 -3.321261 -0.50585526 -0.7143063 0.10613923 -0.5523451
-0.055016387 -0.71649736 -0.7093284 -0.08011347 -3.2637157 -0.47904858 -0.46746418 -0.51688635
-0.75617266 -0.71088165 -0.54329556 -2.9898374 -0.39226452 -0.13043745 0.9164759 -0.6499896
-0.61602503 -0.10471402 -0.56772625 -0.13383414 -1.7635876 -3.1590824 0.55055445 -0.10661124
-0.093264714 -0.10496555 -0.0873552 -0.5081335 0.23396075 -0.6391547 -0.75466883 0.28899312
-0.5171692 -0.7333461 -0.27957773 -0.4229976 -0.48376435 -0.30885354 -0.14145778 -0.56913245
-0.2099691 -0.122531645 -0.74144024 -0.3292395 -0.64476514 -0.54883486 -0.69153297 -0.15339833

linear.1.weight f4 [256, 169]
00000000: 0047 c13b 3ae0 203d 0a75 723d 1ebe 5d3d
00000010: a826 d1bc b62c b5bc 740c 013d 34d2 1d3d
00000020: c657 563d 2231 4b3d b87c 783c 706a 39bc
00000030: f0d2 033d b6df 463d 40e9 09bb f851 6fbc
00000040: 9095 ce3b 54ef 34bd c052 9abd 40b7 aabc
00000050: dd5c 973d 2bbb abbe 0e91 9a3d f05f 4e3c
00000060: 9471 82bd 78bb 86bd ec2a 8bbc 18fd 1c3d
00000070: 4040 d03c 401e 32bb c4f8 f33c 802c 2bba
00000080: 2a2a 36bd be37 8b3e 64ec 4abe 4d5c b3be
00000090: 64ab a03c 10bd ab3c d471 2ebd 2eb0 7e3d
000000a0: 9ccb 323d dc49 64bd 154d be3d 729e cf3e
000000b0: 071e 0f3f e083 c63e 781b 8f3e 0449 18bf
000000c0: e891 d03e 0f91 14bf f259 c83d fb0d 173e
000000d0: 3e54 253d 9219 4d3d d8b2 04bc a9ec c13e
000000e0: 8e07 c5be 1fc6 313f 0da5 58bd a47a 283e
000000f0: b687 443e a922 0ebf 7fdf 0cbe f8c6 013e
00000100: d2d9 53bd a232 d3bc 96b6 41bd 25f9 1dbd
00000110: 85b2 95be b0d3 12be cef3 163f 9cc9 093f
00000120: dbde 533f a5d6 553d 6872 703f 64e6 49bd
00000130: 8a1f 58bd 80c3 013d 6466 ed3c 60d0 12bd
00000140: 40fe e83c e7bb c03e 7b47 a33e 1677 29be
00000150: acfa 5bbe 1fdb 873d d6bc 18bf 966c 133f
00000160: 4656 213d 2edd 4f3d 54a2 08bd 8598 11bd
00000170: 7aa6 99bd 1c15 82be f118 d3bd 5e00 14be
00000180: a0d1 b63e 454e 383d cbbb cd3e 0817 233e
00000190: fa72 94be 0e6b 5d3d 40ab 72bd 50d6 8ebc
000001a0: 087e 3fbc 3f70 543d 25a4 adbb b8b3 0abe
000001b0: 4f6f 3bbe c3d4 0bbe 21e7 2dbe 78e8 0b3e
000001c0: ac7a c53e f07b 48bd 30e7 d83c bc3a 3f3d
000001d0: 2446 debc 1b06 d63c dd4f 56be 909c fdbd
000001e0: 7437 823d 1aa2 053e 0fcb 5c3e 8446 91bd
000001f0: 26f0 9c3e 40d2 f23d feac 3d3d d652 6b3d
00000200: 8832 02bd e180 8b3d 6ecf 4c3d 767b debc
00000210: e72a 823d 49c0 093e 9c2d 5a3a 3489 57be
00000220: 4a28 18bd 7241 4d3d 183d 2d3c 8092 38bc
00000230: bb6d 00bd 0278 783d f77d 8d3d 6a5a 2dbd
00000240: 28ff 1c3d 2a5b 3c3d be71 09be 964f aabc
00000250: ecf6 e53c 4011 8b3b a012 2b3c 782c 1fbc
00000260: 5471 f43c e663 793d 3695 493d 8a91 033d
00000270: 7497 79bd f89b 903c 4668 3cbd 8841 2b3c
00000280: bc3f 013d 5082 ebbb 9f01 92bd 769f 6a3d
00000290: 9964 49bd e827 b43c 0a4d 4b3d e47e 953c
000002a0: 70d6 1d3d bec3 6d3d 0f80 8ebd d661 8abd
000002b0: 3808 383c 28ba e93c 5d06 8ebd d884 5a3c
000002c0: 7b94 16bd 950b 8bbd 14c0 4cbd e81c 3c3d
000002d0: 605f 17bb 0621 54bd d41d b6bc 50a8 22bc
000002e0: 1474 a0bc bed6 223d 323c 8ebc 9656 5bbd
000002f0: e6d1 3dbd bb58 803d 6a72 0f3e fa38 41be
00000300: 5912 08bd aced 9a3c e66e 7bbd 1993 75bd
00000310: 7a28 6b3d 80b2 7e3a 6c7f c0bc 400b db3c
00000320: 1b86 1fbd 9062 eebb 78cd f5be f64d 8b3d
00000330: ad69 c73d 2c26 933c 4029 da3c 8049 4f3b
00000340: a025 8d3b 205c 0f3d e894 8cbc 3352 00be
00000350: 2b6c cb3e d642 873e 88b8 2a3e 5a6c 82be
00000360: 6a05 153f 59d8 043e dc0f 7e3e 85fa 053e
00000370: 3af5 fdbc b201 36bd 3cb1 dfbc cdf4 78bd
00000380: 864b 0cbe 578d 6abe f51f f63e 0c4d 15bf
00000390: 6ca1 dd3e a867 afbe 09eb a53e 116d 5d3e
000003a0: 6b12 90bc 1e2a 2abd d658 5c3d 8ac4 f2bc
000003b0: b955 46bd dc91 8e3e c089 9f3e f354 a4be
000003c0: 2965 ba3e e306 77be 55c6 7dbe 25b1 44be
000003d0: 9afd a63e 3bad 27bd 9b37 8a3d 9e96 b1bc
000003e0: 3ef7 213d 76c3 473d df64 933e 0ff6 e9be
000003f0: bfc0 fcbd 3fac 103e 6706 38be 9d4e 23bc
0.0058983564 0.03927634 0.05919365 0.054136388 -0.025531128 -0.022116046 0.031506017 0.038530543
0.0523298 0.049607404 0.015166454 -0.011316881 0.032183588 0.04855319 -0.002104357 -0.014606945
0.0063044503 -0.044173554 -0.075353146 -0.020839334 0.07390759 -0.33541235 0.07547198 0.0125961155
-0.063693196 -0.065787256 -0.01698824 0.038327307 0.025421262 -0.0027178675 0.029781707 -0.00065297633
-0.044473805 0.27190965 -0.19816738 -0.35031357 0.019612975 0.020964175 -0.042589024 0.062179737
0.04365121 -0.0557345 0.09292046 0.40550572 0.55905193 0.38772488 0.27950644 -0.59486413
0.40736318 -0.5803384 0.09782781 0.14751427 0.040363543 0.050073214 -0.00809928 0.3787587
-0.38482326 0.69442934 -0.05289178 0.16453034 0.19192395 -0.5552164 -0.13757132 0.12673557
-0.0517214 -0.02578098 -0.04729327 -0.03856768 -0.29237762 -0.14338565 0.58965766 0.53823256
0.82761925 0.052206654 0.9392457 -0.049291983 -0.052764453 0.031680584 0.028979488 -0.035843253
0.028441548 0.37643358 0.31890473 -0.16549334 -0.21482342 0.06633591 -0.5966314 0.57587564
0.039388917 0.050748043 -0.033357933 -0.035545845 -0.07502456 -0.2540673 -0.103074916 -0.14453265
0.35706806 0.04499652 0.40182337 0.15926754 -0.2899397 0.054057173 -0.059245348 -0.017436177
-0.011687763 0.05186486 -0.0052991086 -0.1354512 -0.1830418 -0.13655381 -0.169827 0.13662899
0.38570154 -0.04894632 0.026477426 0.046686873 -0.027133055 0.026125958 -0.20928903 -0.123833776
0.06358233 0.13050118 0.21561836 -0.07093528 0.3065197 0.11856508 0.046307556 0.057452045
-0.03178647 0.06811691 0.050002508 -0.02715848 0.06355839 0.13452257 0.00083228364 -0.21048433
-0.037147798 0.05011124 0.010573648 -0.011265397 -0.031354647 0.060661323 0.069087915 -0.042322554
0.038329273 0.04598538 -0.13422295 -0.020789903 0.028071843 0.0042439997 0.010441452 -0.009715192
0.029839195 0.060886286 0.049214564 0.03212122 -0.060935453 0.017652497 -0.04599788 0.010452636
0.031554922 -0.0071871653 -0.071292154 0.05728098 -0.049168203 0.021991685 0.049634017 0.018248983
0.03853458 0.058048002 -0.06958019 -0.06756942 0.011232428 0.028531149 -0.069348074 0.0133373365
-0.036762696 -0.067893185 -0.049987867 0.045926005 -0.002309762 -0.051789306 -0.02223102 -0.009927824
-0.0195866 0.039755575 -0.017362688 -0.05354937 -0.046342753 0.06266924 0.14008489 -0.18869391
-0.033220623 0.018912159 -0.061385058 -0.059954736 0.05741165 0.00097159296 -0.02349826 0.026738763
-0.038946252 -0.007274933 -0.48008323 0.06801979 0.09736953 0.017962538 0.026630998 0.0031629503
0.0043074638 0.034999967 -0.017160848 -0.12531357 0.39730963 0.2641818 0.16671956 -0.2547329
0.58211386 0.12973155 0.24810737 0.13083847 -0.031000722 -0.04443521 -0.027306192 -0.060780335
-0.13700685 -0.2290548 0.48071256 -0.5832069 0.43287218 -0.3425877 0.3240588 0.21623637
-0.017586907 -0.041544072 0.053795658 -0.029634733 -0.048421595 0.27845657 0.31159782 -0.3209606
0.36405304 -0.24123721 -0.24782689 -0.192082 0.32615358 -0.04093669 0.06748887 -0.021678265
0.03954243 0.04877039 0.28787896 -0.4569554 -0.12341451 0.14128207 -0.17971192 -0.009967473

linear.1.bias f4 [256]
00000000: 01a2 a0bd 6e67 5dbd ae21 cf3c e80d 873e
00000010: 413b ba3d e1d8 b0bd 0273 9f3e faa6 00be
00000020: 64b0 6abc 5e2d b9bd aef4 623c fea0 373e
00000030: c037 e53d 1b2d 89bd 7db8 333d 2020 c9bd
00000040: 357c 183d 2fa2 e6bd 275e e9bd f366 34bd
00000050: 067e 903c 5c87 f9be 31f8 74be 2371 a63d
00000060: 7714 8ebe 6703 92be 1474 9f3e 6582 2c3e
00000070: b80b 64be 9d5b a2bc 9b36 68be e9b3 c53d
00000080: 7739 d6be c7d7 bf3d c880 94bd ae9d 373d
00000090: 2e39 253e d238 ac3d 5935 fb3b afb7 2dbe
000000a0: 1912 a53c fe3c cbbd 1439 13be 7840 563e
000000b0: 1cdc 82bd 6a5d 5bbe 641a df3d 0210 f4be
000000c0: 12e0 1c3d 9580 5c3e 5b9e fd3d 1adf 5d3d
000000d0: 9384 353b f82d f33d 5577 6a3d b6b1 e6be
000000e0: a7a9 0e3c 70e0 d43c 9417 1bbe a688 23bd
000000f0: 5b31 6ebe 47f8 83be 3b4c 1a3e 234c 483e
00000100: b209 8ebe dbd3 55bc ac07 543d 56fa 81bc
00000110: 2c35 19bb 3ff6 813e 6f17 1e3e aaef 32be
00000120: a11f 81bd 719d 51be f6e0 633d 86a3 d9bd
00000130: dd52 89be 9fe3 d7bc 1e8c cebc b22e 8d3e
00000140: 684a 3f3e 8faf 4a3e b5da 813d 12aa 96bd
00000150: 8374 c1bd 5d2f a3be f9db 25be f233 603c
00000160: 5203 e4be e513 91bd b403 5dbe 8aea 1b3d
00000170: fb22 083e d90a 42bd c0be f6bd 24e2 443e
00000180: d1d5 023e 3bff 3b3d b967 8e3e 0e14 1a3c
00000190: 3728 62bd bf2f 44bd 8cc0 c8be 8e89 cebd
000001a0: 9a30 8ebe 3247 123c ab23 50be 4dc0 d6bc
000001b0: f94e 67be 1300 32be c3e8 e6be d58f 433d
000001c0: a038 0ebe 2cd7 d9bd dbe8 6abd e47a 8c3e
000001d0: 1aef bdbd cc7a 223d 6cc6 313e afe6 fbbd
000001e0: c4a9 ea3d 40a2 bbbd cde4 06bd c4d3 893d
000001f0: ffd3 a9be a35f 94be 65d1 0d3d e95d 14be
00000200: 7119 09bd 7848 1ebd d1ae c93d 534b a6be
00000210: 8e24 f6bd 0b7d 83bc e84f 46be e27c 563d
00000220: 77e0 abbc 6154 083d a88f 3dbc c04b 5f3e
00000230: d467 a4bd bebd 2fbd a285 793d bab5 4cbe
00000240: f6b7 993d bef6 8bbd e3b0 16bd c6f0 fa3d
00000250: 9309 6fbe dae2 38bd 8ec5 723e 5ae2 09be
00000260: cd0a a2be d290 bebe f0cc a93d e43a b23d
00000270: 1168 d4bd eb0f 863d 4bbd dd3d 76c4 e63d
00000280: 5302 1abe d906 173d 171a 82bb 60ef ddbe
00000290: a215 d43c db0e ee3c 6387 723e b7e2 29be
000002a0: 41f9 383e 0a70 f4bd f048 cf3c 7597 d3be
000002b0: 2ca3 743d 4d3f 613d a54c 0bbe abd8 49be
000002c0: 978c 5fbd 26a7 2c3e 045c 383d 3137 8b3d
000002d0: 72b7 adbe 69cd c6bd 6392 1b3e 6a30 933c
000002e0: 3516 47be 313e cebe 2ba3 893d 3919 4a3d
000002f0: 4410 96be f616 2cbd 673f 34be 0eff 6bbe
00000300: 0e57 143e 89fb 97bd f98e 6abe 7d70 8ebe
00000310: 728f b83d ca71 06be 55f3 15bf 892c 8ebe
00000320: 9809 0ebe 0689 97be c90d 36be 0da2 e6bd
00000330: 7be3 67be 3192 02be 80bf b0bd 2cac 4a3e
00000340: dc7f debe 0b1a 683e f512 9fbe 6f0a 10be
00000350: 662d 5fbe dec0 763e f9d2 a8be 7d9b 0f3c
00000360: 3e32 8c3c 771b 15bc 517d 4bbe d1e5 803e
00000370: 25c0 863d f2a2 3d3d 2754 eebd bb47 94be
00000380: 8f68 4dbc 4533 6bbd 27cc dfbd 07f7 66be
00000390: 25b2 743d a7e9 c83d c1e8 903e e8e1 51be
000003a0: 4c50 2a3d 4bb4 68be c543 cfbd 5232 61be
000003b0: f067 d2be 1dfb 90be 2a31 8abd 14a8 1abc
000003c0: 74d6 30be f298 4dbe 899a dbbd c5b5 7d3d
000003d0: e1b8 50bd ff98 07bd 2ac3 d53d 8f40 9ebe
000003e0: 695d 3c3d b319 febe e9d7 293e 2048 febd
000003f0: f513 533e d5d1 5c3e 4981 bc3d 0235 31be
-0.078434 -0.054053716 0.025284614 0.26377797 0.09093333 -0.08635116 0.31142431 -0.12563697
-0.014324281 -0.09041856 0.0138522815 0.17932507 0.11192274 -0.06698056 0.043877114 -0.098205805
0.037227828 -0.11261403 -0.11394911 -0.044043493 0.017638218 -0.48736084 -0.23922803 0.08127048
-0.27749988 -0.2851822 0.31143248 0.16846617 -0.22270095 -0.019819075 -0.2267708 0.09653456
-0.41840717 0.09367328 -0.072511256 0.04482811 0.16135094 0.08409275 0.0076662716 -0.16964601
0.020150231 -0.09923743 -0.14377242 0.2092303 -0.06389639 -0.21422353 0.108937055 -0.47668463
0.038299628 0.21533425 0.123837195 0.054167844 0.0027697429 0.11874002 0.05724271 -0.45057458
0.00870744 0.025985926 -0.15145713 -0.03992524 -0.23261015 -0.25775358 0.15068142 0.19560294
-0.27741772 -0.013050999 0.05176513 -0.01586644 -0.002337764 0.25383183 0.15438627 -0.17474237
-0.06304861 -0.20470215 0.05563446 -0.10626893 -0.26821032 -0.026353655 -0.025213297 0.27574688
0.18680727 0.19793533 0.06340543 -0.07356657 -0.09446051 -0.31872073 -0.16197194 0.01368426
-0.44533783 -0.07083873 -0.21583444 0.03806547 0.13294594 -0.047373626 -0.120481014 0.19226891
0.12776877 0.045897704 0.2781351 0.0094041955 -0.055214133 -0.047897097 -0.39209402 -0.1008483
-0.27771455 0.008928107 -0.20326106 -0.026214743 -0.2258872 -0.17382841 -0.45099458 0.04774459
-0.13888788 -0.10636744 -0.057350975 0.27437508 -0.09274121 0.03966789 0.17360848 -0.12299859
0.114581615 -0.09161806 -0.032933045 0.06729844 -0.33169553 -0.28979215 0.034623522 -0.14488949
-0.03347153 -0.03864333 0.09847797 -0.32479343 -0.12018691 -0.016050836 -0.1936642 0.05236519
-0.020981057 0.033283595 -0.011569895 0.2180624 -0.08027616 -0.04290556 0.060918458 -0.19991198
0.07505791 -0.06834172 -0.036789786 0.12252955 -0.23343496 -0.045138218 0.23708174 -0.13465253
-0.31648865 -0.37219864 0.08291042 0.08702639 -0.103714116 0.06546005 0.108271204 0.11267941
-0.15039949 0.036871765 -0.0039703953 -0.4334669 0.025889222 0.029059818 0.23684458 -0.16590391
0.18063833 -0.11935432 0.025303334 -0.4132649 0.059725925 0.05499201 -0.13603456 -0.19711559
-0.054577436 0.16860637 0.045009628 0.06797636 -0.3392902 -0.09707148 0.15192561 0.017967422
-0.19442065 -0.40281823 0.06720575 0.04934046 -0.29309285 -0.042014085 -0.17602311 -0.23046514
0.14486334 -0.074210234 -0.22906102 -0.27820197 0.09011735 -0.13129345 -0.5857442 -0.27768353
-0.13870847 -0.29596728 -0.17778696 -0.112613775 -0.2264537 -0.1275108 -0.08630276 0.19792241
-0.43456924 0.22666185 -0.3106915 -0.1406648 -0.21794662 0.2409701 -0.3297346 0.008765099
0.017113801 -0.009100786 -0.19872023 0.25175336 0.065796174 0.046297975 -0.116371445 -0.28960976
-0.012537136 -0.05742194 -0.10927611 -0.22555171 0.059740204 0.09810191 0.28302577 -0.20496333
0.041580483 -0.22725026 -0.10120348 -0.21991852 -0.41094923 -0.28316584 -0.067476586 -0.009439487
-0.17269307 -0.20077875 -0.107228346 0.061940927 -0.050957564 -0.033104893 0.10437615 -0.3090863
0.04598752 -0.49628982 0.1658627 -0.124161005 0.20613082 0.2156442 0.09204347 -0.17305377

linear.3.weight f4 [64, 256]
00000000: 3c62 4cbe 7231 5c3f ce7c 043f 6997 e7bd
00000010: e89d 96be 1e41 e7be eb64 cf3e 5fe1 22be
00000020: 0f42 12be d184 6d3f c5e3 193e 1f3e 7ebe
00000030: 84f1 f5be c876 1f3e d451 c03e af6a a23f
00000040: b8b3 5bbe b408 9f3e 1c70 553e 2738 cbbe
00000050: 7061 86be 2a77 843e 08ba 2c3f da69 24bd
00000060: 9491 57be e6ef acbd 6e90 39be 95bf 493f
00000070: 5408 d4be 1aa5 4f3e bec5 063f 1a68 ffbd
00000080: bcdd 073e 64c7 8cbe 2906 dc3e 6413 14bf
00000090: c4da 1fbf 173d 6bbc 0bda 12be 09f5 573f
000000a0: b207 753e 4f75 da3e f964 9cbc e27d 403d
000000b0: d877 5f3f bd30 17bf dcd5 1f3f 7930 61bd
000000c0: d10e 233d 9920 b8bd 8f97 e8be 6d5a ee3d
000000d0: 0e0d f13d 6ad7 89be 31ad 06bf 0ad1 88bb
000000e0: 6f0a ea3e e5d9 33be 03c2 0b3c bd90 653d
000000f0: 8ba3 b1be f6c5 acbd 06c0 66bf 2c33 ca3c
00000100: cd80 f03e 6503 423d c84c 3bbf 4b0c 2e3e
00000110: 1312 fe3e fda6 59bb e7a9 ec3e 1fe7 d93e
00000120: 2fa0 2bbf c73e ca3e 36df 1abf f3ee cfbe
00000130: 3151 dc3e b3ef d8be b1e7 88be 165e 2cbf
00000140: c966 5fbd 290c 07bd 16d0 0bbe 3509 e33d
00000150: c91b bcbe 9f43 133f 3414 1c3f 3278 3ebf
00000160: 43b7 423f 03da c73b ae47 de3d e573 6cbd
00000170: 83b9 1c3f c4b5 de3e 2ec5 70bc 593b 83bf
00000180: e4c0 b2be eedd 0ebf 1fb3 aebe 08b6 e93c
00000190: 5222 34be 0a68 02be cdac a7be 45af 0f3f
000001a0: 5ea6 e13d 982e b1be 0700 523f 7057 35bf
000001b0: 8e78 0ebf 9e43 043f b5d1 5dbe c5ef cfbe
000001c0: bfb5 393f 7832 04bb ccdc 6e3d 53f1 b3be
000001d0: 4316 1f3f 8e71 debe 1fac 223f 1348 073d
000001e0: 3048 ea3e 9ad3 5f3e 6df8 f03e 78f7 37bf
000001f0: c2f4 e3be 5892 0a3f 66e3 103f d695 313e
00000200: 07f7 213d ec83 813d db84 873e 11f1 953e
00000210: d513 e33e 7354 733f 158c 85be 046f dfbe
00000220: 2496 d1be 6a35 f7bd 1c18 2e3f f720 0d3f
00000230: 2f75 fa3e a478 673f 0606 d4be 11c7 563e
00000240: d5f0 51bf 026e ac3e 5f3e 1e3f 9a1d 7e3e
00000250: 332c 2bbf 1842 e4be 6ae0 0bbe 96c9 cdbe
00000260: 9ade 6ebe c2b5 27bf e426 e9be 0e04 79bd
00000270: d049 103f 9e35 f63d d45f 913e 6dd7 afbe
00000280: b763 4cbe 3e25 97be 9da7 1cbf 8028 49bf
00000290: 2aa2 a7be a4fd 033e 7265 43be 6240 aa3e
000002a0: 957d 0c3f fdaf 263d 809d 2a3f 81bf 2d3f
000002b0: c482 af3e 5f8a 223e 64a1 ce3e 505b d13c
000002c0: 5b02 99bd 5e2e 2ebf 0dfe 5fbf be5c 04bf
000002d0: 6d21 673d 465d c13d 258e d9be 3223 033f
000002e0: ddc4 453f 8c87 213f f7f9 ca3e 1cf2 453f
000002f0: 9f72 bb3e 3680 343c 60e0 013e b976 3ebc
00000300: 9871 1cbf df40 253f cbfe 893e 5c5a 3bbd
00000310: e2c0 a13e 10d8 a2be f635 883e 9518 953f
00000320: c6b9 dbbe 6495 123f 99c4 813f 0551 04bf
00000330: 7add fdbe ffe1 333f 885e d9be c382 02be
00000340: 48ea 423e ace4 8cbe 8d58 33bd 38cb 29bf
00000350: 59a9 133f fe90 b23c 455e 00be ca2f aa3f
00000360: 973f 583f 369b 10be 2712 723f a364 503d
00000370: e41d 45bf 089d 47bf 1ddd 493f a9ce b1be
00000380: 7de5 f0be 0210 743b 0e8a 343f 22b1 4f3f
00000390: 7691 8a3e 215d 1fbf 2e20 88be 2e0d b23e
000003a0: 28b1 2ebf d8f8 323f 7337 93be 7f33 013f
000003b0: 1638 65be ed90 e3bd 5bd0 87be 3fc0 693e
000003c0: ce12 39bf 2b8f 1a3f fcfa b13e e0bd 4e3f
000003d0: 9af2 973e 0e5a 593f 38e0 94be 6b86 173f
000003e0: 98fc febe 23c9 1b3e 7d0a 753e 9e87 3bbe
000003f0: 3255 80be e032 a1be 33e7 08bf 351e 0ebe
-0.19959348 0.8601295 0.51752937 -0.11308176 -0.29417348 -0.45166868 0.40506682 -0.15906285
-0.14283012 0.92780787 0.15028293 -0.24828385 -0.48035824 0.15572655 0.3756243 1.2688807
-0.21455276 0.31061327 0.20843548 -0.39691278 -0.26246214 0.25872165 0.6747136 -0.04014001
-0.21051627 -0.084441945 -0.18121502 0.78807956 -0.41412604 0.20277825 0.5264548 -0.12471028
0.13268179 -0.27495873 0.4297345 -0.5784209 -0.62443185 -0.014357827 -0.1434099 0.8435827
0.23928717 0.42667624 -0.019091116 0.04699505 0.8729224 -0.59058744 0.624357 -0.054977868
0.039809052 -0.089905925 -0.4542813 0.11638341 0.11770068 -0.2692216 -0.5260802 -0.00417531
0.45711085 -0.17563589 0.008530143 0.056046236 -0.34695086 -0.084361956 -0.90136755 0.024682604
0.46973267 0.04736652 -0.73164034 0.16996877 0.49623165 -0.0033211105 0.46223375 0.42559144
-0.67041296 0.3950102 -0.6049684 -0.4061199 0.43030694 -0.42370376 -0.26739267 -0.67331064
-0.054541383 -0.03297058 -0.13653597 0.110857405 -0.36739948 0.57525057 0.6096833 -0.74402153
0.76060885 0.006098987 0.108535156 -0.057727713 0.6122057 0.4349805 -0.014695449 -1.0252486
-0.3491279 -0.5580739 -0.34121034 0.028529182 -0.17591217 -0.12735 -0.32749024 0.56126815
0.1101806 -0.3460586 0.8203129 -0.70836544 -0.556527 0.51665676 -0.21662028 -0.40612617
0.7254295 -0.0020171683 0.058316037 -0.35145053 0.62143344 -0.4344601 0.63543886 0.03302772
0.457582 0.21858063 0.47064534 -0.7186198 -0.44522673 0.5412955 0.5659698 0.17342314
0.039542224 0.0632399 0.26468548 0.29285482 0.44351068 0.95050734 -0.26083437 -0.43639386
-0.4093486 -0.12070735 0.6800554 0.55128425 0.4891753 0.9041846 -0.41410846 0.20974375
-0.82008106 0.3367768 0.6181392 0.2481598 -0.6686432 -0.44581676 -0.13659826 -0.4019286
-0.23327103 -0.65511715 -0.45537484 -0.060794882 0.5636263 0.120219454 0.28393424 -0.34344044
-0.19959913 -0.295206 -0.6119326 -0.78577423 -0.3274091 0.12889725 -0.19081667 0.33252245
0.5487912 0.04069518 0.66646576 0.67870337 0.34279454 0.15873097 0.40357506 0.025556237
-0.074711524 -0.680395 -0.87497026 -0.51704013 0.05642836 0.094416186 -0.4249126 0.5122558
0.77253515 0.63097453 0.39643833 0.77322555 0.36610886 0.011016896 0.12683249 -0.011624985
-0.6111083 0.6455211 0.26952204 -0.04574047 0.3159247 -0.31805468 0.2660367 1.1648127
-0.4291517 0.572592 1.0138122 -0.51686126 -0.49583036 0.7026672 -0.42454934 -0.12745194
0.19034684 -0.27518213 -0.04378562 -0.6632571 0.5768028 0.021797653 -0.12535961 1.3295834
0.8447203 -0.14121708 0.9455895 0.050877225 -0.76998734 -0.77973986 0.7885302 -0.34727982
-0.47050086 0.0037240987 0.70523155 0.8112966 0.27064103 -0.6225148 -0.2658705 0.3477568
-0.6823907 0.69910955 -0.28753242 0.504692 -0.22384676 -0.11111627 -0.2652615 0.22827242
-0.7229432 0.60374707 0.34761798 0.80758476 0.29677278 0.8490304 -0.29077315 0.5918948
-0.4980209 0.15213446 0.23929782 -0.18313453 -0.25065 -0.31484127 -0.5347778 -0.1387871

linear.3.bias f4 [64]
00000000: b4d3 c1bd 9a8f a3be 0965 19be dbb1 afbe
00000010: deb9 e0bd 9e8d 83be 7022 e3be b2d9 adbe
00000020: df3a c0be b2cf b7be 9d04 dbbe 1568 05bf
00000030: f5eb f0be 4856 f8be 155c 83be 6337 e0be
00000040: d79f edbe 02e4 b0be 672d 9abe 9e52 f9be
00000050: 1251 d0bd b927 bb3d 61a3 47be 4b00 16be
00000060: 5b01 2abe d0bf 23bf abf4 13bf 73d7 1ebf
00000070: cd9a 16bf 2cdb d6be 537e dabe c809 cbbe
00000080: 2e1d 7abd fd1c 13bf 8b80 28bf 7376 85be
00000090: ad41 f8be f3d0 60be 6027 6cbe fc73 c4be
000000a0: 2904 aabe de02 10bf 7944 bf3d 9b6e aabe
000000b0: a902 bcbd 591c b6be a9f1 e8be 7848 bfbd
000000c0: 63e0 2fbd 3eec 7ebd 31b8 32be 9a2b 4fbe
000000d0: 253c 05be 7756 abbe 79fd 85be 8776 82be
000000e0: 9d8f f6be 4c09 94be 34cd f6be 45c0 0fbf
000000f0: 068b 24bf 0327 45be 3da3 fdbe bf24 f6be
-0.09464207 -0.31945497 -0.14979948 -0.3431538 -0.10972951 -0.25693983 -0.4436221 -0.3395515
-0.37544915 -0.35900646 -0.42776957 -0.5211194 -0.4705502 -0.48503327 -0.2565619 -0.43792257
-0.4641101 -0.34548956 -0.30112764 -0.48695844 -0.10171713 0.09138436 -0.19495918 -0.1464855
-0.1660208 -0.6396456 -0.5779521 -0.620475 -0.5882996 -0.4196409 -0.42674503 -0.396559
-0.061062984 -0.5746611 -0.6582114 -0.26066932 -0.48487607 -0.21954708 -0.23061895 -0.3836974
-0.332063 -0.56254375 0.09339232 -0.3328751 -0.09180195 -0.35568503 -0.45496872 -0.09339994
-0.0429386 -0.062237017 -0.17453076 -0.20231476 -0.13011225 -0.33464405 -0.26169947 -0.25481054
-0.48156443 -0.28913343 -0.48203433 -0.56152755 -0.6427463 -0.19253163 -0.49538603 -0.4807491

reg.weight f4 [2, 128]
00000000: 7845 313e ed9f 31bd ff38 ef3e 8b65 b1bf
00000010: 476f ec3d 03f2 8c3e cbe3 ecbe 14fb e53e
00000020: ad4b c43d fbcd 513e 3423 3d3e 964e 833d
00000030: dc99 193e 6dfd 463e 0b46 70be dc09 b7bd
00000040: 59e3 7b3d 1639 423e 6df8 4a3e d580 e03d
00000050: 4548 a03e b77c 323e 3726 b93d c96d c83d
00000060: 7ac1 4d3e d037 193e 7ee2 a43d 375d e33e
00000070: d5a3 6abd cdc1 bdbe d52d 1abf 5e29 4e3e
00000080: 25af 2e3e 9a2c 2e3e f9b8 523e 0665 da3d
00000090: 2aa3 483e 09e8 373e 93ee 12bf d23f b53d
000000a0: ab6b a53d 7ec5 2f3e b7a2 853d 7286 ab3d
000000b0: ca94 c4be da8f 30bd e1b8 4b3e daad ed3e
000000c0: 515f 2a3e 7db5 8d3e 1685 91bd 0f28 c43d
000000d0: 696d 263e 4b16 1f3e 2d7e 443e 427c 83be
000000e0: dc80 3a3e 5211 973d 58ea 423e f8ae df3d
000000f0: 160c 1b3e 2765 993d cd9f 433e 94f7 353e
00000100: 197e dd3e 4cd6 c63e ccc8 af3e f5da ba3e
00000110: 2033 efbe 3481 a83e 011b b83e b456 c53e
00000120: ce3d e1be 6b7b ae3e d521 c13e 6eda bf3e
00000130: 2dd0 b13e 30b3 b23e fa76 d9be 7311 c53e
00000140: 96f0 8c3e 72af b13e 43d9 d6be 4d8a bd3e
00000150: 8a97 c13e dfd9 d7be 6b21 c93e 0a17 e7be
00000160: fefb d9be 3011 be3e 7e22 ca3e 6247 af3e
00000170: f2e2 c33e f426 9d3e 8838 bc3e 0dde b43e
00000180: 9533 f03e f6eb c33e 8413 c73e ffef c23e
00000190: 6a4c c73e cf61 dbbe d0c1 a43e 8e3c a83e
000001a0: 3675 b63e 4896 c13e e544 f13e 00b0 c93e
000001b0: 6bc8 e93e 7438 c13e b180 bb3e 995c 043f
000001c0: bf48 9c3e f1e7 a63e 56a9 e8be 4c8b e4be
000001d0: dc95 ebbe eb6f b83e 1502 c83e 8994 d6be
000001e0: 1186 c53e b57e b63e 6f5c c23e 9fe8 bf3e
000001f0: 7d69 c03e 2e76 eabe dd0d cd3e 470a bb3e
00000200: be1c 9b3d c9af 0fbd 1cb4 2e3c fe4f 16bc
00000210: 2e5a dc3c f0cf bf3d f186 c3bc f757 76bc
00000220: df03 4a3d 52fe 99bd 32d8 123c 6716 3b3d
00000230: 113e f73d f091 3d3d 1f5b 1a3b f120 873c
00000240: c498 9f3d 652d 7c3d ac9e c83c c53c 4c3d
00000250: 865b f7bc 1cda 013e 3f7a 3d3c e7db 3ebc
00000260: 90b0 143d abc6 c8bd 9814 20bd 49b8 7f3e
00000270: db46 013d f248 3eba c246 ccbc d9d2 983d
00000280: 2a5c 873d a38e 6f3d 5996 bc3d 07ed 4a3d
00000290: c95c 5d3c e5bc 92bc 8267 c53c 0de8 5d3d
000002a0: ba85 843d 7014 ad3d 0711 b03d af9c 6c3d
000002b0: 5043 2a3d 89d7 30bc 44b4 e3bb cae9 16bd
000002c0: 7177 2a3c b68e 423c c3dd 8ebd fda6 8ebd
000002d0: f11b baba 3c9f 203e dc1c 83bc 70e8 033d
000002e0: 762f 8f3d 5351 4e3d 5be0 efbd cceb d1bc
000002f0: 5096 253c 40a3 eebc 9529 133d da58 293d
00000300: 4a91 0b3c 5820 ff3b de41 f43c 9fd7 37ba
00000310: 3204 2f3c 9b9c 823b 32b7 4b3b 3206 513c
00000320: d017 9bbc 8a07 0d3c b645 acbc f868 10bc
00000330: da8a 9a3c 13b6 27bc 42aa c5bc 76cd 7d3b
00000340: 262f ad3c 6832 c0ba 6ff2 a4bc 9559 f83b
00000350: 511c 6b3c 03a1 423a 32a3 08bc 3997 a2bb
00000360: b28d 303c 1b04 1f3c 2e7a 03bc 6e41 e2bb
00000370: 4e95 63ba 3633 61bc e165 c73b 4aa8 a63c
00000380: 7cd8 493c 1344 a73a 5011 63bb 7e8d c9bc
00000390: e6a1 3f3c 49ef e7bc b740 823c 141f cd3b
000003a0: 3ff7 663c f780 11bc 8d2d 863c d778 7cbc
000003b0: 5033 63bb e6c9 89bc 65e8 5fbb a0d9 a7bc
000003c0: 6599 04be b15d 81bd 210b f93b d848 0d3d
000003d0: 0949 be3c afcd 16bb cd52 27bb a33c 5e3b
000003e0: dfb6 c43c ac86 f93a bbfd 1b3c 7070 72bc
000003f0: 5136 63bb f505 94bb d758 99b9 1fb7 a3bc
0.17311656 -0.043365408 0.46723172 -1.3859113 0.11544662 0.2752839 -0.46267542 0.4491812
0.095847465 0.20488732 0.1847046 0.064114735 0.15000099 0.19432612 -0.2346422 -0.089374274
0.061496112 0.18967089 0.1982133 0.10962073 0.31305137 0.17430387 0.09040492 0.09786565
0.20093337 0.14962697 0.080510125 0.44407055 -0.05728515 -0.3706192 -0.60226184 0.20132968
0.17059 0.17009202 0.20578374 0.106638 0.19593492 0.17959608 -0.57395285 0.088500634
0.08077177 0.17165181 0.06525176 0.08375253 -0.38394767 -0.043105938 0.19894744 0.464217
0.16637923 0.27677527 -0.07105462 0.09577953 0.16252674 0.15535848 0.19188757 -0.2568074
0.18213218 0.073763505 0.19034708 0.109220445 0.15141329 0.074899964 0.19103928 0.17770225
0.43260267 0.3883537 0.34332883 0.36495176 -0.46718693 0.32911074 0.35958102 0.38542712
-0.43992466 0.34078535 0.37721124 0.37471336 0.34729138 0.34902334 -0.42473584 0.38489875
0.27527303 0.34704167 -0.41962633 0.37019578 0.37810928 -0.4215841 0.39283308 -0.45134765
-0.42575067 0.37122488 0.3947944 0.34234148 0.38259083 0.3069378 0.3676188 0.3532566
0.46914354 0.3826596 0.38882077 0.38073727 0.38925487 -0.4284806 0.32179117 0.328587
0.356363 0.37809968 0.47122875 0.3939209 0.4566072 0.37738383 0.3662162 0.5170379
0.3052425 0.32598832 -0.45441693 -0.44637525 -0.4601277 0.36022887 0.39064088 -0.41910198
0.38578847 0.35643545 0.37961146 0.37482163 0.3758048 -0.4579329 0.4004964 0.36531278
0.075738415 -0.03507975 0.010663059 -0.009174345 0.02689847 0.09365833 -0.023868056 -0.015035621
0.049320098 -0.07519211 0.008962678 0.04567566 0.12072385 0.046281755 0.0023552848 0.0164952
0.077928096 0.06156673 0.024489723 0.04986264 -0.030195009 0.12680858 0.01156479 -0.0116491085
0.036301196 -0.09803518 -0.03908214 0.24972643 0.031561714 -0.00072587945 -0.024936084 0.07462091
0.06609376 0.05848564 0.09208364 0.049542453 0.013510891 -0.017912338 0.024097208 0.05417638
0.06470819 0.08451164 0.08596998 0.057766613 0.0415681 -0.010793575 -0.0069489796 -0.036844052
0.010404454 0.011874845 -0.069758914 -0.06965444 -0.0014199001 0.15685743 -0.016004972 0.03220409
0.06991474 0.050370526 -0.11712714 -0.025625132 0.010106638 -0.029130578 0.035928328 0.0413445
0.008518526 0.007785838 0.029816564 -0.0007013026 0.010682153 0.003985954 0.0031084535 0.012757825
-0.018932253 0.0086077545 -0.021029335 -0.008814089 0.018865038 -0.010236281 -0.024129037 0.00387272
0.021140646 -0.001466346 -0.020135133 0.0075790384 0.014350013 0.00074245053 -0.00833969 -0.004961875
0.01077597 0.009705569 -0.008024735 -0.0069047725 -0.0008681611 -0.01374512 0.006085143 0.020343918
0.01231968 0.0012761377 -0.003464777 -0.024603602 0.011696314 -0.028312342 0.015899999 0.0062598083
0.014097034 -0.008880845 0.016379142 -0.01540967 -0.0034668036 -0.016819905 -0.0034165618 -0.020489514
-0.1294914 -0.06316698 0.0076002036 0.034493297 0.023228185 -0.002301078 -0.002553153 0.0033910654
0.024012981 0.0019037328 0.009520943 -0.014797315 -0.0034669826 -0.0045173117 -0.00029248625 -0.01998478

reg.bias f4 [2]
00000000: 6594 123e 29a5 2abd
0.1431442 -0.041661415
