server/model2/value_model_minmax50.pt (torch, 255287 bytes, 12 tensors)

conv.0.weight f4 [4, 1, 3, 3]
0	0x3f8fc73a	1.1232674
1	0x3c1d22e5	0.009590839
2	0x3ff9130c	1.9458938
3	0x3f8bfe77	1.0937032
4	0x3f36bb2d	0.7137936
5	0x3f512b32	0.81706536
6	0x3f7acf69	0.9797273
7	0xbf138fb8	-0.5764117
8	0x3f5b2775	0.8560708
9	0x3f500de3	0.8127119
10	0x3e1cdaf5	0.153179
11	0xbd2190eb	-0.039444845
12	0x3e02e7c9	0.12783732
13	0x40021408	2.0324726
14	0x3e8da321	0.2766352
15	0x3f8c851d	1.0978123
16	0xbdafa813	-0.085769795
17	0x3f59952c	0.84993243
18	0x3f61c9be	0.8819846
19	0x3f025726	0.5091423
20	0xbb80fbc0	-0.003936261
21	0xbde9fcae	-0.11425148
22	0x3f7d0286	0.98831975
23	0x40014766	2.0199828
24	0x3e9eddb7	0.3102853
25	0xbdc716fd	-0.097211815
26	0x3f4536b9	0.77036625
27	0x3f9daf47	1.2319115
28	0xbf401d3d	-0.75044614
29	0x3fdcf062	1.7260859
30	0x3f5d4cb9	0.86445194
31	0x3e8e63fa	0.2781065
32	0x3fab93d4	1.3404489
33	0x3ed4b38f	0.41543242
34	0x3ed3cdab	0.4136785
35	0xbeafaa66	-0.3430969

conv.0.bias f4 [4]
0	0x3f8497eb	1.0358862
1	0x3ed19edd	0.40941516
2	0x3f27e588	0.6558461
3	0x3f7acbb4	0.97967076

conv.2.weight f4 [4, 4, 3, 3]
0	0x3f853b48	1.0408716
1	0x3fd46859	1.6594344
2	0x3f8d2dc6	1.1029594
3	0x3fc74095	1.5566584
4	0x3f454a58	0.77066565
5	0x3f987901	1.1911927
6	0x3ecb34d0	0.3968873
7	0x3f7d5f84	0.9897387
8	0x3f4a68cd	0.79066163
9	0x3fb03915	1.376742
10	0x3f7429da	0.9537636
11	0x3f975489	1.1822673
12	0x3fee4577	1.8614949
13	0xbeb5f224	-0.355363
14	0x3f24a450	0.6431322
15	0x3cc07ff2	0.02349851
16	0x3f4ae750	0.79259205
17	0x3e66012b	0.22461383
18	0x3f3a1ba8	0.7269845
19	0x3fa9515d	1.3227955
20	0x3f620468	0.88287973
21	0x3fa21c90	1.2664967
22	0x3e74b883	0.2389851
23	0x3f5c5c03	0.860779
24	0x3f106f2d	0.5641964
25	0x3e5edff3	0.21765117
26	0x3f94629e	1.1592596
27	0x3f885b9b	1.0652956
28	0x3f9731d1	1.1812078
29	0x3fb73f23	1.4316143
30	0x3fa12755	1.2590128
31	0x3f4d4114	0.80177426
32	0x3fb2c526	1.3966415
33	0x3f2c01dc	0.6719034
34	0x3f938342	1.1524432
35	0x3f443f53	0.76659125
36	0x3efdb349	0.49550846
37	0x3ce82d08	0.028341785
38	0xbfc9071a	-1.5705292
39	0x3f4fbab9	0.8114429
40	0x3f35db2f	0.7103757
41	0xbf792515	-0.9732221
42	0x3f2f577b	0.6849286
43	0x3f612955	0.8795369
44	0xbf0133e4	-0.50469804
45	0xbe9dba25	-0.3080608
46	0x3f130508	0.5742955
47	0xbfede039	-1.8584052
48	0x3eb354df	0.3502569
49	0x3f947f66	1.1601379
50	0xbe99f37a	-0.3006857
51	0xbe033e53	-0.12816744
52	0xbda9d5f8	-0.082927644
53	0xbeb6baf0	-0.35689497
54	0x3e2d7a3f	0.16941164
55	0x3e65336f	0.22382902
56	0xbef3a7c1	-0.47588924
57	0x3f1166d6	0.5679754
58	0xbeb00e0c	-0.34385717
59	0xc02d90b8	-2.711958
60	0xbcb4686d	-0.02202245
61	0x3dfdc98b	0.12391957
62	0x3ea48217	0.321305
63	0x3f3aad6a	0.7292086
64	0x3e91b0df	0.28455254
65	0xbf3a40a1	-0.72754866
66	0x3f5d5750	0.86461353
67	0x3f719cae	0.943797
68	0xc01fd6dd	-2.4974892
69	0x3f186fbf	0.5954551
70	0x3fc87182	1.565964
71	0xbf8ec595	-1.1154047
72	0x3fa6e10f	1.3037432
73	0x3f4a7a1b	0.7909257
74	0x3f727899	0.9471527
75	0x3fb7a597	1.4347409
76	0x3f82b6ac	1.0211997
77	0x3ee6b6aa	0.45061237
78	0x3f9ebc78	1.2401266
79	0x3f653dcb	0.89547414
80	0x3facb241	1.3491899
81	0x3feee313	1.8663048
82	0x3f82b268	1.0210695
83	0x3ec854f7	0.39127323
84	0x3f9d4de1	1.2289392
85	0x3f52b864	0.8231261
86	0xbe0f56ca	-0.13997951
87	0x3ea49fac	0.3215307
88	0x3ee124bb	0.43973336
89	0x3f4dc053	0.8037159
90	0x3fa8d6d4	1.319056
91	0x3f801c82	1.00087
92	0xbf32bf86	-0.6982349
93	0x3f58702f	0.8454618
94	0x3f48fe5c	0.7851312
95	0x3f331c8b	0.6996543
96	0x3f1426b6	0.5787157
97	0x3e2cf550	0.16890454
98	0x3eeba45e	0.4602384
99	0x3fa4f367	1.288678
100	0x3f166b4c	0.5875747
101	0x3e58ba6f	0.21164869
102	0x3f9015cd	1.1256653
103	0x3fad3e38	1.3534613
104	0x3fbacb59	1.4593307
105	0x3f8cdde4	1.1005216
106	0x3f5a57f1	0.8529044
107	0x3f5bc4d0	0.8584719
108	0x3ef621a8	0.48072553
109	0x3fb2c2b6	1.3965671
110	0x3eb9c51c	0.36283195
111	0x3f4c1253	0.7971546
112	0x3f43e712	0.7652446
113	0x3f6f84fe	0.93562305
114	0x3f1ed71c	0.6204698
115	0x3f63e9d1	0.8902865
116	0x3f69350f	0.91096586
117	0x3ec2e326	0.38063926
118	0x3f6a0741	0.9141732
119	0x3f6d3e28	0.9267297
120	0x3f46bdbc	0.7763326
121	0x3f27899e	0.6544436
122	0x3e995ea0	0.29955006
123	0x3eea82b1	0.45802835
124	0x3e4dc7b8	0.20095718
125	0x3f756294	0.95853543
126	0x3e921856	0.28534192
127	0x3f80c842	1.0061114
128	0xbeb62095	-0.35571733
129	0x3f4c5ba3	0.79827327
130	0x3f2b2d22	0.6686574
131	0x3eeabc03	0.45846567
132	0x3ebe268f	0.37138793
133	0x3ea55891	0.32294133
134	0x3ef3f5c0	0.4764843
135	0x3edb77fd	0.4286498
136	0x3ef7a68b	0.4836925
137	0x3f6935c6	0.91097677
138	0x3f58ccc0	0.84687424
139	0x3f3b6af3	0.73210067
140	0x3fae1fc5	1.3603445
141	0x3eb69913	0.3566366
142	0x3f3e704c	0.743901
143	0x3f605cd6	0.87641656

conv.2.bias f4 [4]
0	0x3f73a897	0.9517912
1	0x3ebe85d5	0.3721148
2	0x3f360dd0	0.71114826
3	0x3ecfb6d6	0.4056918

conv.5.weight f4 [64, 36]
0	0xbd9c1a0b	-0.07622155
1	0xbb7cf13c	-0.0038595935
2	0x3d7890d0	0.06068498
3	0xbeac9449	-0.33706883
4	0xbd649eef	-0.055815633
5	0xbd74a4c1	-0.059727434
6	0x3e0bf61f	0.13668106
7	0xbdda3d53	-0.10656228
8	0x3bf5936e	0.0074943816
9	0x3ed4a95d	0.41535464
10	0xbf88f6f2	-1.0700362
11	0x3e5b294c	0.21402472
12	0x3f1fcf02	0.62425244
13	0xbef2b06b	-0.4740022
14	0x3d775004	0.060379043
15	0xbf024160	-0.50881004
16	0x3d8914e9	0.066934414
17	0xbcd2b4fc	-0.025721066
18	0xbe2db455	-0.16963322
19	0xbe35c422	-0.177506
20	0x3ddf757f	0.109110825
21	0x3c19fa5c	0.009398069
22	0xbe569694	-0.20955878
23	0x3ca5163d	0.020152206
24	0x3dd246c8	0.10267407
25	0xbd9db957	-0.077013664
26	0x3d3167b6	0.043311797
27	0xbe7d3c95	-0.24730141
28	0xbc91740f	-0.017755536
29	0x3d76c341	0.060244802
30	0xbdb3ab00	-0.0877285
31	0xbc8c241a	-0.017107058
32	0x3d49920e	0.049211554
33	0xbd06c30c	-0.032900855
34	0x3d18dbdc	0.03731905
35	0x3db140f5	0.08654968
36	0xbde5fb05	-0.11229519
37	0xbe875e96	-0.2643935
38	0xbe8e5f49	-0.27807072
39	0x3d77842d	0.060428787
40	0x3e4a13c0	0.19734097
41	0x3ee71c6a	0.45138866
42	0xbe53cc3b	-0.20683376
43	0xbe2b3e02	-0.16722873
44	0x3d15c5aa	0.03656546
45	0x3e955b71	0.29171327
46	0xbeafaf10	-0.3431325
47	0xbe9ab323	-0.30214795
48	0x3d979f98	0.07403487
49	0x3ed6bb74	0.4193989
50	0xba2c563f	-0.0006574131
51	0xbd2253e2	-0.039630778
52	0x3e994191	0.29932836
53	0xbf6c3bdc	-0.9227884
54	0xbeae4c38	-0.34042525
55	0xbdf1dc2f	-0.11809575
56	0x3dcc2294	0.09967533
57	0x3df14388	0.11780459
58	0x3dee94e4	0.116494924
59	0x3e78fd1e	0.24315307
60	0x3dfddf59	0.12396116
61	0x3e584edd	0.21123834
62	0xbf428e52	-0.75998414
63	0xbead4ac2	-0.33846098
64	0xbd092539	-0.033482764
65	0xbdcc4c4d	-0.09975491
66	0x3e9ed962	0.31025225
67	0x3d171df9	0.03689382
68	0xbed44ebc	-0.4146632
69	0xbdc5d87e	-0.09660433
70	0x3ccac2aa	0.024751026
71	0xbf43107a	-0.76197016
72	0xbf0a8a76	-0.54117525
73	0x3ce3d133	0.027809715
74	0x3edb2f91	0.42809728
75	0xbc55e201	-0.013054372
76	0xbdd0027d	-0.101567246
77	0xbd8e67f2	-0.0695342
78	0x3e3913f0	0.18074012
79	0x3e9f5143	0.31116685
80	0x3ec85ca8	0.3913319
81	0xbf307ce7	-0.68940586
82	0x3e91c31f	0.28469178
83	0xbdb814dd	-0.08988354
84	0xbd9dc33a	-0.07703252
85	0x3f090fa2	0.5353948
86	0x3eabf577	0.33585712
87	0x3de5c5d6	0.11219375
88	0x3e91c3c0	0.28469658
89	0x3d344860	0.044014335
90	0xbf5caf4f	-0.86205
91	0xbea9b22b	-0.33143744
92	0xbf92f736	-1.1481693
93	0x3f4615ec	0.773772
94	0x3e3f3991	0.18674304
95	0x3ec80a61	0.39070418
96	0x3f99dcfc	1.2020564
97	0x3e0a3921	0.13498355
98	0x3e528ae7	0.205608
99	0x3f83f086	1.0307777
100	0x3c165bc3	0.009177151
101	0x3c17a0bf	0.009254633
102	0x3f24d3fd	0.6438597
103	0xbf48f43d	-0.7849768
104	0xbf51a1b5	-0.8188737
105	0x3e31075d	0.17287965
106	0xbee73330	-0.4515624
107	0x3acb8224	0.0015526456
108	0x3e8b5991	0.2721677
109	0x3dd82612	0.10554136
110	0xbf123363	-0.5710966
111	0x3dee8fd4	0.11648527
112	0xbc3d47a2	-0.011552723
113	0x3d26485b	0.040596347
114	0xbceadd90	-0.028670102
115	0xbdb83d64	-0.08996084
116	0x3e174da7	0.14775716
117	0xbe10e4f7	-0.14149843
118	0x3e57a2d5	0.21058209
119	0x3ee4e2c6	0.44704264
120	0xbd547abe	-0.05187487
121	0x3db6d642	0.08927585
122	0xc02596c0	-2.587326
123	0x3e2f72f9	0.17133702
124	0x3cdbf9de	0.026852544
125	0x3f079053	0.52954596
126	0x3d7dacd0	0.061932385
127	0xbe538f15	-0.2066005
128	0x3e700425	0.23439081
129	0xbe69ace9	-0.22819866
130	0xbdc7a35d	-0.09747956
131	0xbfe5405c	-1.7910266
132	0xbe2600dd	-0.16211267
133	0x3dc1e248	0.09466988
134	0x400868ce	2.1313968
135	0xbe1b802a	-0.1518561
136	0xbce4ebf5	-0.027944544
137	0xbe0505db	-0.12990515
138	0x3df56ea9	0.119839974
139	0xbcf1bd11	-0.0295091
140	0x3c3d89b0	0.011568472
141	0xbd8c0a1f	-0.06837868
142	0x3d651570	0.055928648
143	0x3e3ccce4	0.18437535
144	0x3dffc446	0.12488608
145	0x3e97f9f4	0.29682887
146	0xbdfa6c25	-0.12227658
147	0xbd356928	-0.044289738
148	0xbd471497	-0.04860362
149	0x3e4bf0cf	0.1991608
150	0xbf0fc962	-0.5616666
151	0xbe6fbb72	-0.23411348
152	0x3e395b24	0.18101174
153	0xbe437e5f	-0.19091175
154	0x3efa1cef	0.488502
155	0xbdae1427	-0.084999375
156	0xbe85c919	-0.26129988
157	0x3f08ac69	0.5338808
158	0xbf51c3e4	-0.8193953
159	0x3f038afa	0.51383936
160	0x3f6fbd76	0.9364847
161	0xbf166c1c	-0.5875871
162	0xbe86bb80	-0.26314926
163	0xbe757552	-0.23970535
164	0x3e190646	0.149438
165	0xbce6ab95	-0.028157989
166	0x3e3ee47d	0.18641849
167	0xbed5effe	-0.41784662
168	0x3f0ae4c9	0.5425535
169	0x3f5baa77	0.85806984
170	0xbf0c49e8	-0.5480027
171	0x3e2ad1e4	0.1668163
172	0x3e8725af	0.26395938
173	0x3eaff54b	0.3436683
174	0x3ec9e1b7	0.3943002
175	0xbeb9057a	-0.3613699
176	0xbf9bfa91	-1.2185842
177	0x3e806b68	0.25081944
178	0xbd544d27	-0.05183139
179	0xbf8af6a2	-1.0856516
180	0x3e6f9475	0.23396476
181	0x3dad1eeb	0.08453163
182	0x3d0df9fb	0.034662228
183	0xbead0dcc	-0.3379959
184	0x3ebee4bb	0.37283882
185	0xbd7bb8fa	-0.061455704
186	0xbe92a6b0	-0.28642797
187	0xbdaf58a4	-0.08561829
188	0x3f4896e9	0.7835527
189	0xbed56096	-0.41675252
190	0x3eb5bd96	0.35496205
191	0xbfb655a4	-1.4244885
192	0xbdbc4df8	-0.09194559
193	0xbe102dcc	-0.1407997
194	0xbf170334	-0.5898926
195	0xbf5db97c	-0.8661115
196	0xbf2d4234	-0.6767914
197	0xbe49ca01	-0.19705965
198	0xbec1a3db	-0.37820324
199	0xbd573f93	-0.052550863
200	0x3ed1414f	0.4087014
201	0x3e7d96d7	0.24764572
202	0xbd7e1a64	-0.062036887
203	0x3dbf155e	0.09330247
204	0x3ef96f58	0.4871776
205	0xbe32ab8b	-0.17448251
206	0x3f046c0c	0.51727366
207	0xbec7df20	-0.39037418
208	0xbdaae296	-0.08343999
209	0x3ea059cf	0.3131852
210	0x3d3fbe2a	0.046812214
211	0xbdca58c9	-0.09880216
212	0xbf085b4a	-0.53264296
213	0xbd500d66	-0.050794028
214	0x3d5e8208	0.054323226
215	0x3ef21d2c	0.4728788
216	0x3f13303a	0.5749546
217	0x3f6e0fea	0.9299303
218	0x3f607c02	0.8768922
219	0x3f0b8b1d	0.54509145
220	0x3f840a5c	1.0315661
221	0x3f8da6a2	1.1066477
222	0x3eea20d8	0.45728183
223	0x3ede8f9a	0.43468934
224	0x3f1ea786	0.6197437
225	0x3f55f6ff	0.8358001
226	0xbf2fb7c4	-0.6863978
227	0x3f990552	1.1954749
228	0xbbd38eaf	-0.006456218
229	0xbf703d3b	-0.9384343
230	0x3fd6b9a1	1.67754
231	0x3f42f7a8	0.76159143
232	0x3e166231	0.14685895
233	0x3f2db08f	0.6784753
234	0x3f9472d3	1.1597542
235	0x3f9fe211	1.2490865
236	0x3f810447	1.007943
237	0x3f127ee4	0.5722487
238	0x3f3b5f48	0.7319226
239	0x3fb9d8ec	1.4519324
240	0x3e4b0f6e	0.19830105
241	0x3edfeadf	0.4373388
242	0xbdad5cf0	-0.08464992
243	0x3f846a8f	1.0345019
244	0x3f622554	0.8833821
245	0x3f6885ad	0.90828973
246	0x3ef9105f	0.48645303
247	0x3f5fe758	0.8746238
248	0x3fac7e60	1.3476067
249	0x3ebbcbde	0.36678976
250	0x3f13b68c	0.5770042
251	0x3f2b6934	0.669574
252	0x3ec33939	0.38129595
253	0x3e34da74	0.17661458
254	0xbe547d90	-0.20751023
255	0x3d225d89	0.039639983

conv.5.bias f4 [64]
0	0xbda56c46	-0.08077292
1	0xbe9cf46d	-0.30655232
2	0xbf3cb6fe	-0.73716724
3	0xbe593f42	-0.21215537
4	0xbda854c3	-0.08219292
5	0xbe9a27a3	-0.30108365
6	0x3f853473	1.0406631
7	0x3df0155d	0.11722825
8	0xbf0b4c3f	-0.5441322
9	0xbe55a449	-0.20863451
10	0xbf169636	-0.58822954
11	0xc054e4a1	-3.3264544
12	0xbf1ca911	-0.61195475
13	0xbf3b408e	-0.7314538
14	0x3f2d3c19	0.67669827
15	0xbe23b374	-0.15986425
16	0x3bbe7e3b	0.0058133877
17	0xbf31b45e	-0.69415843
18	0xbf304305	-0.68852264
19	0x3b9ea1f1	0.0048410823
20	0xc05359f4	-3.3023653
21	0xbef3e072	-0.47632176
22	0xbee131d8	-0.4398334
23	0xbee144dc	-0.43997848
24	0xbf38d005	-0.7219241
25	0xbf3ef42a	-0.74591315
26	0xbf204173	-0.6259987
27	0xc04524bb	-3.0803668
28	0xbec71ca2	-0.38889033
29	0x3ee19dda	0.44065744
30	0x3fbe6f99	1.4877807
31	0xbf2d4743	-0.6768686
32	0xbefed840	-0.4977436
33	0xbdca5e61	-0.098812826
34	0xbf2eefde	-0.6833476
35	0xbe54d82b	-0.20785587
36	0xbfe1c198	-1.7637205
37	0xc04cad17	-3.1980646
38	0x3f8f983c	1.1218333
39	0xbc867eb0	-0.016417831
40	0xba8a1703	-0.0010535422
41	0xbdd934ce	-0.10605775
42	0xbe1a3697	-0.15059887
43	0xbee48fe6	-0.44641036
44	0x3f4e1ed3	0.80515784
45	0xbd56f93d	-0.052483786
46	0xbf40939e	-0.75225246
47	0x3eb5db67	0.35518953
48	0xbf246344	-0.6421397
49	0xbf33fab5	-0.70304424
50	0x3e87a313	0.26491603
51	0xbec179a8	-0.3778813
52	0xbf19254b	-0.5982253
53	0xbeb7afd6	-0.3587634
54	0xbda86255	-0.0822188
55	0xbddc9e59	-0.1077239
56	0xbe4b1362	-0.19831613
57	0xbd8358db	-0.06413432
58	0xbf550ee7	-0.83225864
59	0xbeb3544e	-0.35025257
60	0xbf42931c	-0.7600572
61	0xbf1e59b7	-0.61855644
62	0xbf316032	-0.6928741
63	0xbe24eebc	-0.16106695

linear.1.weight f4 [256, 169]
0	0x3bc14700	0.0058983564
1	0x3d20e03a	0.03927634
2	0x3d72750a	0.05919365
3	0x3d5dbe1e	0.054136388
4	0xbcd126a8	-0.025531128
5	0xbcb52cb6	-0.022116046
6	0x3d010c74	0.031506017
7	0x3d1dd234	0.038530543
8	0x3d5657c6	0.0523298
9	0x3ed4d95f	0.4157209
10	0x3c787cb8	0.015166454
11	0xbc396a70	-0.011316881
12	0x3d03d2f0	0.032183588
13	0x3d46dfb6	0.04855319
14	0xbb09e940	-0.002104357
15	0xbc6f51f8	-0.014606945
16	0x3bce9590	0.0063044503
17	0xbd34ef54	-0.044173554
18	0xbd9a52c0	-0.075353146
19	0xbcaab740	-0.020839334
20	0x3d975cdd	0.07390759
21	0xbf26f948	-0.65224123
22	0x3e8e4bcc	0.27792203
23	0x3c4e5ff0	0.0125961155
24	0xbd827194	-0.063693196
25	0xbd86bb78	-0.065787256
26	0xbc8b2aec	-0.01698824
27	0x3d1cfd18	0.038327307
28	0x3cd04040	0.025421262
29	0xbb321e40	-0.0027178675
30	0x3cf3f8c4	0.029781707
31	0xba2b2c80	-0.00065297633
32	0xbd362a2a	-0.044473805
33	0x3ea0cc5d	0.31405917
34	0xbf5fc2f2	-0.8740684
35	0xbe0afb5e	-0.13572451
36	0x3ca0ab64	0.019612975
37	0x3cabbd10	0.020964175
38	0xbd2e71d4	-0.042589024
39	0x3d7eb02e	0.062179737
40	0x3d32cb9c	0.04365121
41	0xbd6449dc	-0.0557345
42	0x3dbe4d15	0.09292046
43	0xbd7966e7	-0.06088915
44	0x3e1892ec	0.14899796
45	0x3f32395e	0.69618785
46	0x3d9acf59	0.0755908
47	0xbf103b8d	-0.5634087
48	0xbde2f47f	-0.1108179
49	0xbecc0790	-0.3984952
50	0x3da556bc	0.08073184
51	0x3f075dfd	0.5287779
52	0x3d25543e	0.040363543
53	0x3d4d1992	0.050073214
54	0xbc04b2d8	-0.00809928
55	0x3ecc79db	0.39936718
56	0x3e111c0c	0.14170855
57	0x3f4aa389	0.79155785
58	0x3f68ff96	0.91014993
59	0x3eb47b64	0.3525039
60	0xbd823038	-0.06356853
61	0xbea373d6	-0.31924313
62	0xbef1d3f9	-0.47232035
63	0xbd0c85f1	-0.034307424
64	0xbd53d9d2	-0.0517214
65	0xbcd332a2	-0.02578098
66	0xbd41b696	-0.04729327
67	0xbd1df925	-0.03856768
68	0xbf7eb17f	-0.9948959
69	0xbf3f666d	-0.74765664
70	0x3eeba9c2	0.46027952
71	0x3f6699ec	0.90078616
72	0x3fb6ee1a	1.4291413
73	0x3f4feebb	0.8122365
74	0x3f92c7f3	1.146727
75	0x3da396d3	0.07987752
76	0xbd581f8a	-0.052764453
77	0x3d01c380	0.031680584
78	0x3ced6664	0.028979488
79	0xbd12d060	-0.035843253
80	0x3ce8fe40	0.028441548
81	0x3f1835a2	0.5945684
82	0xbe57e9d0	-0.21085286
83	0xbded3db3	-0.11584034
84	0xbea9c3b2	-0.33157116
85	0xbef280e3	-0.47363958
86	0xbf20b264	-0.627722
87	0x3edbda01	0.4293976
88	0x3d215646	0.039388917
89	0x3d4fdd2e	0.050748043
90	0xbd08a254	-0.033357933
91	0xbd119885	-0.035545845
92	0xbd99a67a	-0.07502456
93	0xbefe9cd0	-0.49729013
94	0xbe8e6214	-0.27809203
95	0x3e377974	0.17917424
96	0x3f46905e	0.77564037
97	0xbcce8a3b	-0.025212398
98	0x3f0d9f3f	0.55321115
99	0xbe11be33	-0.14232711
100	0xbf1a3833	-0.60242003
101	0x3d5d6b0e	0.054057173
102	0xbd72ab40	-0.059245348
103	0xbc8ed650	-0.017436177
104	0xbc3f7e08	-0.011687763
105	0xbd9e9a6a	-0.07744296
106	0x3ed73ec8	0.42040086
107	0x3eb7b122	0.3587733
108	0xbf29e1a7	-0.66359943
109	0x3e79aa0f	0.24381278
110	0x3ea928e5	0.33039013
111	0x3eb0eec1	0.34557155
112	0xbe86c528	-0.26322293
113	0xbe8e1e5f	-0.27757546
114	0x3cd8e730	0.026477426
115	0x3d3f3abc	0.046686873
116	0xbcde4624	-0.027133055
117	0x3c6ee96c	0.014582019
118	0xbe61e412	-0.22059658
119	0xbf5000f5	-0.8125146
120	0xbeb43ac8	-0.35201097
121	0x3e1cba2e	0.15305397
122	0xbedc5f2c	-0.4304136
123	0xbde8f029	-0.11373932
124	0x3e07527f	0.13215064
125	0x3e285d2a	0.1644179
126	0x3d3dacfe	0.046307556
127	0x3d6b52d6	0.057452045
128	0xbd023288	-0.03178647
129	0x3d8b80e1	0.06811691
130	0x3d4ccf6e	0.050002508
131	0xbcde7b76	-0.02715848
132	0x3d822ae7	0.06355839
133	0x3f0dbc68	0.5536561
134	0x3ece1c35	0.40255895
135	0xbe5d3075	-0.21600516
136	0xbd18284a	-0.037147798
137	0x3d4d4172	0.05011124
138	0x3c2d3d18	0.010573648
139	0xbc389280	-0.011265397
140	0xbd006dbb	-0.031354647
141	0x3d787802	0.060661323
142	0x3d8d7df7	0.069087915
143	0xbd2d5a6a	-0.042322554
144	0x3d1cff28	0.038329273
145	0x3d3c5b2a	0.04598538
146	0xbf2b6d6a	-0.6696383
147	0x3f7b79d7	0.9823279
148	0x3ce5f6ec	0.028071843
149	0x3b8b1140	0.0042439997
150	0x3c2b12a0	0.010441452
151	0xbc1f2c78	-0.009715192
152	0x3cf47154	0.029839195
153	0x3d7963e6	0.060886286
154	0x3d499536	0.049214564
155	0x3d03918a	0.03212122
156	0xbd799774	-0.060935453
157	0x3c909bf8	0.017652497
158	0xbd3c6846	-0.04599788
159	0x3c2b4188	0.010452636
160	0x3d013fbc	0.031554922
161	0xbbeb8250	-0.0071871653
162	0xbd92019f	-0.071292154
163	0x3d6a9f76	0.05728098
164	0xbd496499	-0.049168203
165	0x3cb427e8	0.021991685
166	0x3d4b4d0a	0.049634017
167	0x3c957ee4	0.018248983
168	0x3d1dd670	0.03853458
169	0x3d6dc3be	0.058048002
170	0xbd8e800f	-0.06958019
171	0xbd8a61d6	-0.06756942
172	0x3c380838	0.011232428
173	0x3ce9ba28	0.028531149
174	0xbd8e065d	-0.069348074
175	0x3c5a84d8	0.0133373365
176	0xbd16947b	-0.036762696
177	0xbd8b0b95	-0.067893185
178	0x3e9b4784	0.30328
179	0x3d3c1ce8	0.045926005
180	0xbb175f60	-0.002309762
181	0xbd542106	-0.051789306
182	0xbcb61dd4	-0.02223102
183	0xbc22a850	-0.009927824
184	0xbca07414	-0.0195866
185	0x3d22d6be	0.039755575
186	0xbc8e3c32	-0.017362688
187	0xbd5b5696	-0.05354937
188	0xbd3dd1e6	-0.046342753
189	0x3d8058bb	0.06266924
190	0x3e930ae6	0.28719252
191	0x3d2d96a2	0.042379983
192	0xbd081259	-0.033220623
193	0x3c9aedac	0.018912159
194	0xbd7b6ee6	-0.061385058
195	0xbd759319	-0.059954736
196	0x3d6b287a	0.05741165
197	0x3a7eb280	0.00097159296
198	0xbcc07f6c	-0.02349826
199	0x3cdb0b40	0.026738763
200	0xbd1f861b	-0.038946252
201	0xbbee6290	-0.007274933
202	0xbf21c356	-0.63188684
203	0x3f38fd0f	0.72261137
204	0xbda5a76f	-0.08088576
205	0x3c93262c	0.017962538
206	0x3cda2940	0.026630998
207	0x3b4f4980	0.0031629503
208	0x3b8d25a0	0.0043074638
209	0x3d0f5c20	0.034999967
210	0xbc8c94e8	-0.017160848
211	0xbe005233	-0.12531357
212	0x3f3cd67c	0.7376478
213	0x3f2b3742	0.6688119
214	0xbe36d705	-0.17855461
215	0xbdc74496	-0.097298786
216	0x3dd936e8	0.10606176
217	0xbf18ad84	-0.59639764
218	0x3ee5fa8a	0.4491771
219	0x3df8d3e6	0.121497914
220	0x3d0b6250	0.034029305
221	0xbd3601b2	-0.04443521
222	0xbcdfb13c	-0.027306192
223	0xbd78f4cd	-0.060780335
224	0xbf0c85e1	-0.54891783
225	0x3e711899	0.2354454
226	0x3f16b0f5	0.58863765
227	0xbf5d2854	-0.8638966
228	0x3f3e95fa	0.74447596
229	0xbf25fedb	-0.64842004
230	0x3e1ea003	0.15490727
231	0x3ebe4c6a	0.37167674
232	0xbf650fa8	-0.89477015
233	0xbd2a2a1e	-0.041544072
234	0x3d5c58d6	0.053795658
235	0xbcf2c48a	-0.029634733
236	0xbd4655b9	-0.048421595
237	0x3f1b49cc	0.6065948
238	0xbe842001	-0.25805667
239	0xbf1dd903	-0.6165926
240	0x3e2a452a	0.16627946
241	0x3eac0970	0.3360095
242	0x3d11269b	0.035437208
243	0xbeb26848	-0.34845185
244	0x3f238b04	0.63883996
245	0xbd27ad3b	-0.04093669
246	0x3d8a379b	0.06748887
247	0xbcb1969e	-0.021678265
248	0x3d21f73e	0.03954243
249	0x3d47c376	0.04877039
250	0x3e9136d7	0.28362152
251	0x3db60c7c	0.088891
252	0xbcd8b0ae	-0.026451435
253	0x3e5ac13a	0.21362773
254	0x3e428b40	0.18998432
255	0x3e008077	0.12549005

linear.1.bias f4 [256]
0	0xbde5298a	-0.111895636
1	0x3d8408f7	0.064470224
2	0xbc548678	-0.012971513
3	0x3e2faa34	0.17154771
4	0xbcea41f6	-0.028595906
5	0xbe1b5b79	-0.15171613
6	0x3e6c2752	0.23061875
7	0xbe81b906	-0.25336474
8	0xbe58056e	-0.21095821
9	0xbd454585	-0.048162002
10	0x400f4da1	2.239113
11	0x3e83b868	0.25726628
12	0x3e779179	0.24176587
13	0xbd5db701	-0.054129604
14	0x3efa809b	0.48926243
15	0x3da9934a	0.08280046
16	0x3dccf8aa	0.100083664
17	0xbe3d3233	-0.1847618
18	0xbca76a12	-0.02043632
19	0xbe438d1f	-0.19096802
20	0xbd9a0311	-0.07520116
21	0xbe60e3df	-0.21961926
22	0x3cb24bd9	0.021764683
23	0x3e202252	0.15638092
24	0xbf5295f7	-0.8226008
25	0xbcd3c0a3	-0.025848692
26	0x3ea45f4b	0.32103953
27	0x3dd2a609	0.10285575
28	0xbe3190d6	-0.17340407
29	0x3e0d4287	0.1379491
30	0xbdc66424	-0.09687069
31	0x3ed656ad	0.41863003
32	0xbf8a2d1f	-1.079502
33	0x3c70de04	0.01470137
34	0x3e46130e	0.19343206
35	0x3d175526	0.03694644
36	0x3dc5a8e8	0.09651357
37	0x3e9cf369	0.30654457
38	0x3de9655d	0.11396287
39	0xbd780fa7	-0.060561802
40	0x3e9003c5	0.28127876
41	0x3fddd07a	1.7329247
42	0x3d3a845a	0.045536377
43	0x3f2cd002	0.67504895
44	0x3d1401bf	0.036134478
45	0xbdb3a6ea	-0.08772071
46	0x3e0eeaa5	0.13956697
47	0xbe8a3ce6	-0.26999587
48	0x3f3989e9	0.7247606
49	0x3e50aa5e	0.2037749
50	0xbca61d9a	-0.020277787
51	0x3e7e1164	0.24811321
52	0x3e081eb2	0.1329296
53	0x3d16fac7	0.036860254
54	0x3e2ccfc2	0.16876128
55	0xbe942d38	-0.2894075
56	0xbd5709c6	-0.052499555
57	0x3c7b5807	0.015340812
58	0xbe1dca3f	-0.15409182
59	0x3d31c6d0	0.043402493
60	0xbf28c4dd	-0.6592539
61	0xbfe05039	-1.7524482
62	0x3e8b8a7d	0.27254096
63	0x3fea7931	1.8318235
64	0x3dc9c90a	0.09852798
65	0x3d05d652	0.032675095
66	0xbdbddd78	-0.092707574
67	0x3c1429d2	0.009043174
68	0xbcb4880a	-0.022037525
69	0x3f8205cf	1.0158023
70	0x4024626a	2.5685067
71	0xbde2d7d2	-0.11076321
72	0x3db791b2	0.08963336
73	0xbe1bec64	-0.15226895
74	0x3c8ebb2e	0.017423239
75	0xbda93a20	-0.082630396
76	0x3cea81d9	0.02862637
77	0xbd9a4d23	-0.07534244
78	0x3dcf794b	0.10130557
79	0x3e78a438	0.24281394
80	0x3ded88b3	0.11598339
81	0x3f6cc74f	0.9249162
82	0x3e2abe39	0.16674127
83	0xbe13324b	-0.14374654
84	0xbe1ba422	-0.1519933
85	0xbd587f2b	-0.05285565
86	0x3cd65b06	0.02616645
87	0xbd0b3849	-0.033989225
88	0xbeb790e8	-0.35852742
89	0xbe425707	-0.18978511
90	0xbec6a105	-0.38794723
91	0xbdf111d1	-0.11770976
92	0x3e84a338	0.25905776
93	0x3e249a2d	0.16074438
94	0x3e06d472	0.13166979
95	0x3e12a968	0.14322436
96	0x3dd3f2a9	0.10349018
97	0x3d886ee0	0.06661773
98	0x3e77da6c	0.24204415
99	0x3ed3c098	0.41357875
100	0x3f2cd59b	0.67513436
101	0xbc898b71	-0.016790124
102	0xbdd77119	-0.105196185
103	0xbe3153ff	-0.17317198
104	0xbdc3abaa	-0.09554227
105	0xbdc5dbe1	-0.09661079
106	0xbe5d9062	-0.21637109
107	0xbe8de460	-0.277133
108	0xbf383431	-0.7195464
109	0xbd978f35	-0.074003614
110	0xbf7fe9ec	-0.9996631
111	0xbd0f5c64	-0.03500022
112	0x3e088670	0.13332534
113	0x3c4fcf8f	0.012683763
114	0xbbf86211	-0.00758005
115	0x3e39df81	0.18151666
116	0xbd8dda33	-0.06926384
117	0xbcc4d56d	-0.02402755
118	0x3e5f6660	0.21816397
119	0xbd78b5ad	-0.060720135
120	0x3f167d72	0.58785164
121	0x3d6b9579	0.057515595
122	0x3ddb7e3f	0.10717439
123	0xba94ec64	-0.0011361954
124	0xbe293f6f	-0.16528104
125	0xbd130c7e	-0.035900585
126	0x3daae669	0.083447285
127	0xbdd44a74	-0.10365763
128	0xbdf5a971	-0.11995209
129	0xbdd3b138	-0.10336536
130	0x3e1f2b19	0.15543784
131	0xbe669da9	-0.2252108
132	0x3fbfcdda	1.4984696
133	0x3da4c484	0.08045295
134	0x3d01fe90	0.03173691
135	0xbc637d8c	-0.013884913
136	0x3e115b37	0.14194952
137	0xbd5990b1	-0.053116504
138	0x3e2e8dcb	0.17046277
139	0x3e930a7b	0.28718933
140	0xbe11bae1	-0.14231445
141	0x3d5b4b12	0.05353839
142	0x3e09a5ee	0.13442203
143	0xbe6ab7de	-0.22921702
144	0xbe05ea0f	-0.13077568
145	0xbe154e8a	-0.14580742
146	0xbbb8405a	-0.0056229057
147	0x3f89d5a2	1.076832
148	0xbe9def61	-0.30846694
149	0x3e52faa8	0.2060343
150	0x3eb82009	0.3596194
151	0xbe229128	-0.15875685
152	0xbf49e22a	-0.78860724
153	0xbf4c1f9c	-0.7973573
154	0x3dcf767e	0.101300225
155	0x3e6d6c0b	0.23185746
156	0x3b956540	0.004559189
157	0xbcbf1f9f	-0.023330508
158	0x3e316fea	0.17327848
159	0x3e05b181	0.13055994
160	0xbdda416d	-0.1065701
161	0xbd8bbb4e	-0.06822835
162	0xbe8c0e47	-0.27354643
163	0xbebb1250	-0.3653741
164	0x3cfd4415	0.030916253
165	0x3d9f1f10	0.077695966
166	0x3eb54bfe	0.3540954
167	0x3de17825	0.11009244
168	0x3c067415	0.008206387
169	0x3b012085	0.001970322
170	0x3dda081e	0.106460795
171	0xbde6ea80	-0.11275196
172	0x3e8fec2c	0.28109872
173	0x3e596383	0.21229367
174	0xbd31e7a3	-0.043433797
175	0xbdca3040	-0.09872484
176	0x3f6cc324	0.9248526
177	0x3dfe08ce	0.12404023
178	0x3d61d595	0.05513533
179	0x3a9ac186	0.0011806942
180	0xbfe97e03	-1.8241581
181	0x3ecf36f8	0.40471625
182	0x3e5c95e3	0.21541552
183	0x3dd33203	0.10312273
184	0xbe020df1	-0.1270063
185	0xbe744554	-0.23854572
186	0x3db2a307	0.08722501
187	0x3df911cd	0.12161598
188	0xbebd731e	-0.3700189
189	0xbd8d9529	-0.06913216
190	0xbdd1f36b	-0.102515064
191	0xbe9de1b4	-0.3083626
192	0x3d14c77a	0.03632305
193	0xbd99c7f3	-0.075088404
194	0xbdfc09e9	-0.12306578
195	0xc019c5d6	-2.4027
196	0x4031b543	2.7766883
197	0xbd23e5a8	-0.04001394
198	0xbea09f85	-0.31371704
199	0xbd8c98da	-0.068650916
200	0x3d510727	0.05103221
201	0xbe5f92f9	-0.2183341
202	0x3d157ea2	0.03649772
203	0x3c57ef50	0.013179615
204	0xbf29555c	-0.66145873
205	0x3b72e86f	0.003706481
206	0xbe4e1048	-0.20123398
207	0x3ee805a1	0.45316795
208	0xbdf855fc	-0.12125775
209	0x3e1ff6ff	0.15621565
210	0xbf71b14c	-0.9441116
211	0x3d510644	0.051031366
212	0xbdb448f5	-0.08802978
213	0x3f505829	0.8138452
214	0xbfef050e	-1.8673418
215	0x3ad024da	0.0015880123
216	0x3d84d15c	0.06485245
217	0x3ed24c04	0.4107362
218	0xbe546499	-0.207415
219	0x3f4e3a31	0.80557543
220	0x3cc120da	0.023575235
221	0x3e2af5eb	0.16695373
222	0x3c383ce6	0.011244988
223	0xbdf0671e	-0.11738418
224	0xbe788523	-0.24269538
225	0xbdb273a1	-0.08713461
226	0x3d18889c	0.037239656
227	0xbeb56d9d	-0.3543519
228	0x3f14e4e2	0.5816175
229	0x3e46ebfd	0.1942596
230	0x3fa3a155	1.278361
231	0xbd99a88b	-0.0750285
232	0xbd80e379	-0.06293387
233	0x3e259d9a	0.16173401
234	0xbe4bd81c	-0.19906658
235	0xbe836bdb	-0.25668225
236	0xbe57521a	-0.21027413
237	0xbe936e57	-0.2879512
238	0xbd83d4e2	-0.064370885
239	0x3d9e4b8b	0.077292524
240	0xbe1219ac	-0.14267606
241	0x3db26758	0.087111175
242	0x3ddb61cf	0.10712015
243	0x3c85f3e3	0.016351646
244	0x3c6d1afc	0.014471766
245	0xbc945180	-0.018105268
246	0x3e5c6814	0.21524078
247	0x3feece74	1.8656754
248	0x3c54b79c	0.012983229
249	0xbeae920e	-0.34095806
250	0x3f23f743	0.64049166
251	0xbc803d3c	-0.015654199
252	0x3e6d3722	0.23165563
253	0x3e5016bb	0.20321171
254	0x3d7bc041	0.061462644
255	0xbe5f48c4	-0.21805102

linear.3.weight f4 [64, 256]
0	0xbfbc38b2	-1.4704802
1	0x401fe368	2.4982548
2	0x400bf79a	2.1869874
3	0xbf72afdf	-0.9479961
4	0xbf75a795	-0.95958835
5	0xbfdd8893	-1.7307304
6	0x3fd6c3f1	1.6778547
7	0xbfa129d2	-1.2590888
8	0xbfa56884	-1.2922521
9	0x4013701a	2.3037171
10	0x3eb5f8cb	0.35541376
11	0xbf0c9483	-0.5491411
12	0xc0171b40	-2.3610382
13	0x4033af43	2.8075721
14	0x3f4fad79	0.81124073
15	0x4051db83	3.279023
16	0x401d187a	2.454619
17	0x3fcc249d	1.5948673
18	0xc03b5a4d	-2.9273865
19	0xbfa6fccb	-1.3045896
20	0xc001a767	-2.0258424
21	0x404543f5	3.0822728
22	0x40451335	3.0792973
23	0x3f9d88e2	1.2307398
24	0xbee89a7b	-0.4543036
25	0xc00a4066	-2.1601806
26	0xbf0815b9	-0.53158146
27	0x401ae8ea	2.420466
28	0xbfca85b8	-1.5822058
29	0x3fafec3d	1.3743969
30	0x3f79daf4	0.9759972
31	0x3f9b2de2	1.2123377
32	0xbe206ddb	-0.15666907
33	0xbff49780	-1.9108734
34	0x400e95ff	2.227905
35	0xc0213541	-2.5188754
36	0xbfe6e150	-1.803751
37	0xbe3656c0	-0.1780653
38	0x4003c450	2.058857
39	0x406ce08c	3.7012053
40	0x3fbbeb4c	1.4681182
41	0x3f1b9ee8	0.60789347
42	0x3f3ad956	0.7298788
43	0x3ea6c512	0.32572228
44	0x4033f947	2.8120897
45	0xc03fa140	-2.994217
46	0x3fe5f5f4	1.7965684
47	0xc01901b1	-2.3907282
48	0x3ecda70e	0.40166515
49	0x3facc5ca	1.349786
50	0xc003cc3e	-2.059341
51	0x3fbe33d1	1.4859563
52	0x40143eeb	2.3163402
53	0xbf344824	-0.7042258
54	0xc000bb02	-2.011414
55	0xc0188123	-2.3828819
56	0x402ac2a8	2.6681309
57	0xc03802b1	-2.8751643
58	0x3fdf9c15	1.7469507
59	0x3fbe8d37	1.4886845
60	0xbf1e40c2	-0.6181756
61	0xbeb3ca34	-0.35115206
62	0x3f49b4f7	0.78791755
63	0x3db4c4f1	0.08826626
64	0x4025245d	2.5803444
65	0xbee4dfb6	-0.44701928
66	0xc0218abd	-2.524093
67	0x3fa49708	1.2858591
68	0xbfbc6588	-1.4718485
69	0x3e8d84fa	0.27640516
70	0x3f0b184b	0.54333943
71	0x400a5bb8	2.161848
72	0xc01059fe	-2.2554927
73	0x40220b6d	2.5319474
74	0xc0187893	-2.3823593
75	0xbfbbda66	-1.4676025
76	0x404ebedb	3.230399
77	0xc0218211	-2.5235636
78	0xbfc198e6	-1.5124786
79	0xbfc63a7d	-1.5486599
80	0x3eecb9a6	0.4623539
81	0xbd95c814	-0.073135525
82	0x402147e3	2.5200126
83	0x3fc97077	1.5737447
84	0xbfea84de	-1.8321798
85	0x3ff54a47	1.9163293
86	0x3fc0016a	1.5000432
87	0xc007e98d	-2.1236298
88	0x400e626e	2.2247577
89	0xbfe0b0fa	-1.7554009
90	0x4042b933	3.0425537
91	0xbf255254	-0.6457875
92	0x4004d468	2.0754642
93	0x405a9e33	3.4159057
94	0x3e43d343	0.19123559
95	0xc0609782	-3.5092473
96	0x400c22dd	2.189628
97	0xc00b9d2b	-2.1814678
98	0xbf8a90b6	-1.0825412
99	0x3e6d76a6	0.23189792
100	0xbea14e64	-0.3150512
101	0xc004bf40	-2.074173
102	0xc0421f3a	-3.033156
103	0x3f9fa6d4	1.2472787
104	0xc0137153	-2.3037918
105	0xbfd37da9	-1.6522723
106	0x4026d683	2.6068428
107	0xc035bc4b	-2.8396175
108	0xbf50a3a3	-0.8149969
109	0x4014742f	2.3195913
110	0xbededc95	-0.43527666
111	0xc009e743	-2.15474
112	0x405c957b	3.4466236
113	0x3f8f924a	1.1216519
114	0x3fe873b3	1.8160309
115	0xbff8ffd5	-1.9453074
116	0x403bd097	2.9346063
117	0xc024c2c0	-2.5743866
118	0xbf01def1	-0.50730807
119	0xbf9f602f	-1.2451228
120	0x3f52a6ff	0.82286066
121	0x402e4f30	2.7235832
122	0x3f9f3dd8	1.2440748
123	0xc022030b	-2.5314357
124	0xc0358128	-2.836008
125	0x3f77b60c	0.96762156
126	0x40059c0c	2.0876493
127	0x3e534602	0.20632175
128	0x405276d1	3.288502
129	0x400b1172	2.1729398
130	0x3f275f33	0.6537964
131	0x3fba215a	1.4541428
132	0x3f2076af	0.62681097
133	0xbf153fe0	-0.5830059
134	0xbff61516	-1.9225185
135	0xbfcb107e	-1.5864408
136	0xc00355af	-2.0521047
137	0xbfa21aed	-1.2664467
138	0x40316b30	2.7721672
139	0x3fb50c50	1.4144382
140	0x40937972	4.608575
141	0x4012bf6a	2.292933
142	0xbfb21b08	-1.3914499
143	0x3ff20562	1.8907893
144	0xc052b11a	-3.2920594
145	0x3fac1623	1.3444256
146	0x403b3fbe	2.9257655
147	0x3f06d3d4	0.52666974
148	0xc04a32fb	-3.1593616
149	0xc01b915a	-2.4307466
150	0xbf7b0e19	-0.98068386
151	0xc0155513	-2.3333175
152	0xbef24502	-0.47318274
153	0xbf6c0ac7	-0.92203945
154	0xc04dcdaf	-3.215679
155	0x3f8d46e9	1.1037265
156	0x4034d623	2.8255699
157	0xbf8bde12	-1.0927145
158	0x3f3a7c43	0.7284586
159	0x40188233	2.3829467
160	0xc00f22df	-2.2365034
161	0xbfb0983a	-1.3796456
162	0xc01a638a	-2.4123254
163	0xc04ca3b2	-3.1974912
164	0xbfc65eb2	-1.5497649
165	0x3fbe701b	1.4877962
166	0xbf9c758c	-1.2223372
167	0x402b5402	2.6770024
168	0xbed5fe0b	-0.41795382
169	0x3f9e6ab0	1.2376308
170	0x3fed69ca	1.8547909
171	0x4047e3bf	3.1232755
172	0x4005b5e4	2.0892267
173	0x3fdcac5e	1.7240102
174	0x3fa1d7c9	1.2643977
175	0xc01cc684	-2.4496164
176	0x3e4b56fd	0.19857402
177	0xc010cd53	-2.262532
178	0xc024e52f	-2.5764883
179	0xc00c38fc	-2.190978
180	0xbd9f3cb9	-0.07775254
181	0xbc0b3986	-0.008497601
182	0xc042e8f0	-3.0454674
183	0x40120f46	2.2821822
184	0x403ed03e	2.98146
185	0x403ab4a3	2.9172752
186	0x400a5cfd	2.1619256
187	0x400f28c3	2.236863
188	0xbfeff7c5	-1.8747488
189	0xbfcf8425	-1.6212202
190	0x400fea54	2.2486773
191	0xbf6e64e8	-0.9312272
192	0xc01125f0	-2.2679405
193	0x404f0874	3.234891
194	0x3f8cf06b	1.101087
195	0xbe445143	-0.19171624
196	0x3eb00f04	0.34386456
197	0xbfb86d2e	-1.4408319
198	0xc000ac4f	-2.010517
199	0x4088739c	4.2641125
200	0xbfd7d908	-1.6863108
201	0x4020b0a7	2.510782
202	0x4039f675	2.9056675
203	0xc027bfd4	-2.6210833
204	0xbf467d96	-0.7753538
205	0x3fdcdb37	1.7254399
206	0xbfece251	-1.8506566
207	0x3f88cfe8	1.0688448
208	0xbfe5a7b4	-1.7941804
209	0xbfb5f49f	-1.4215277
210	0xbeaeb967	-0.34125826
211	0xc02fb01e	-2.7451243
212	0x40189b1b	2.384467
213	0x3e675621	0.2259145
214	0xbeac70ac	-0.33679712
215	0x4048fa63	3.1402824
216	0x405669d7	3.35021
217	0x3e565a96	0.20932993
218	0x408a7e39	4.327908
219	0x3ec02a34	0.37532198
220	0xbfd1481e	-1.6350133
221	0xc06bd528	-3.684885
222	0x4012182d	2.2827256
223	0xc0294648	-2.6449146
224	0xc00bc959	-2.1841643
225	0xc03b438b	-2.9259975
226	0x404eb3d7	3.2297266
227	0x40490597	3.1409662
228	0x3eff7b22	0.4989863
229	0xbff5546b	-1.9166387
230	0xbe9c29d2	-0.30500656
231	0x4049f050	3.1552925
232	0xc001b13d	-2.0264428
233	0x40516482	3.2717595
234	0xbf8f60b3	-1.1201385
235	0x404a64cf	3.1624029
236	0xc0278db0	-2.618023
237	0xbfecb938	-1.8494024
238	0xbfda9be6	-1.7078826
239	0xbf3c7b86	-0.7362598
240	0xbfeac578	-1.8341513
241	0x40342d7b	2.815276
242	0xbf937d4f	-1.1522616
243	0x4024e211	2.576298
244	0x4006b439	2.10475
245	0x4021a3dd	2.5256264
246	0xbe8ef99e	-0.27924818
247	0x3f164edb	0.58714074
248	0xc0245808	-2.567873
249	0xc00b7633	-2.1790893
250	0x3edf8f5b	0.4366406
251	0xbe8e030e	-0.27736706
252	0xbfdc316a	-1.720258
253	0xbfefc94c	-1.8733306
254	0xc0027606	-2.0384536
255	0xbfbb628d	-1.463945

linear.3.bias f4 [64]
0	0x3d5a9fd3	0.053375077
1	0xbdda5f2d	-0.106626846
2	0x3dddf977	0.10838597
3	0xbdecdfa1	-0.11566091
4	0x3eeae37e	0.45876688
5	0xbcd44191	-0.02591017
6	0xbe842d3c	-0.2581576
7	0xbdfd9222	-0.12381388
8	0x3e4fc2f4	0.20289212
9	0xbe165c47	-0.14683639
10	0xbe5e7f34	-0.21728212
11	0xbea09897	-0.31366417
12	0xbe87d05e	-0.2652616
13	0xbe87aedb	-0.26500592
14	0x3ea18fe1	0.31555083
15	0xbe78a544	-0.24281794
16	0xbe01de68	-0.12682498
17	0xbddf10ee	-0.10891901
18	0x3e8b9f1f	0.27269837
19	0xbe8fe162	-0.2810164
20	0x3e096e49	0.13420977
21	0x3f343b92	0.704034
22	0x3ca116cb	0.019664189
23	0x3ee14ab2	0.440023
24	0x3ed18a5b	0.4092587
25	0xbedb6c28	-0.42855954
26	0xbec10f97	-0.37707207
27	0xbed2a92e	-0.411447
28	0xbec06af5	-0.37581602
29	0xbe18d76c	-0.14925927
30	0xbe4792a7	-0.19489537
31	0xbe38ad1c	-0.18034786
32	0x3dab807c	0.08374116
33	0xbeb7312b	-0.357797
34	0xbeedd288	-0.46449685
35	0xbcd4db6c	-0.025983535
36	0xbe86cf72	-0.26330143
37	0x3eb54f64	0.35412133
38	0xbf4d1986	-0.8011707
39	0xbe10f15a	-0.14154568
40	0xbdfef789	-0.12449557
41	0xbeb1e084	-0.34741604
42	0x3e939efc	0.28832233
43	0xbe040fdc	-0.12896675
44	0x3d568595	0.052373488
45	0xbe08dcb2	-0.13365439
46	0xbe7a8e94	-0.24468452
47	0x3d73e00a	0.059539832
48	0xbf1d0138	-0.61329985
49	0x3e406883	0.18789868
50	0x3ecd1cab	0.40060934
51	0x3ebe9feb	0.37231383
52	0x3ee563e3	0.4480277
53	0xbe1b23cd	-0.15150376
54	0xbd6c3bcf	-0.057674225
55	0x3ea26798	0.3171966
56	0xbe9d659c	-0.30741584
57	0xbda24691	-0.07923616
58	0xbe81f39a	-0.25381166
59	0xbeb2dae4	-0.34932625
60	0xbed986cc	-0.42485654
61	0x3ec4b25f	0.38417336
62	0xbe905ab6	-0.28194207
63	0xbe892544	-0.26786244

reg.weight f4 [2, 128]
0	0x3fed7007	1.8549813
1	0xbfdeee0b	-1.7416395
2	0x3f6329d3	0.88735694
3	0xbff7785c	-1.9333606
4	0x3fb4aabf	1.4114608
5	0x3f83e0cd	1.0302979
6	0xbfa22e1f	-1.2670325
7	0x3fc00685	1.500199
8	0x3f16b3b2	0.58867943
9	0x3fae9127	1.3638047
10	0x3f73a406	0.95172155
11	0x3d834e96	0.064114735
12	0x3fd96f73	1.6987137
13	0x3fd95625	1.6979414
14	0xbf7e5db9	-0.9936176
15	0xbfa546ac	-1.2912192
16	0x3f4e90f7	0.8068995
17	0x3f8089e6	1.0042083
18	0x3f9f5691	1.2448293
19	0x3f2a081d	0.6641863
20	0x3f9312b5	1.1490084
21	0x3f996f26	1.1987045
22	0x3f69f539	0.91389805
23	0x3f19ad52	0.6003009
24	0x3fa4951e	1.2858007
25	0x3f65ce49	0.8976789
26	0x3b287024	0.0025701607
27	0x3f48e254	0.7847035
28	0xbe5e0c4f	-0.21684383
29	0xbf957c0b	-1.167848
30	0xbfb69470	-1.426405
31	0x3fd7d9b9	1.6863319
32	0x3fb564b5	1.4171358
33	0x3fdd99d6	1.7312572
34	0x3fc37f94	1.5273309
35	0x3d34edb4	0.044172004
36	0x3f6f156d	0.9339207
37	0x3f567095	0.83765537
38	0xbfb1410b	-1.3847975
39	0x3f25a39c	0.64702773
40	0x3f37d399	0.7180725
41	0x3fe43670	1.7829113
42	0x3da37bf8	0.079826295
43	0x3f181cfe	0.5941924
44	0xbf914466	-1.1348999
45	0xbfb47eb7	-1.410117
46	0x3f9987ed	1.1994606
47	0x3fadb00d	1.3569351
48	0x3ffc2bbd	1.9700848
49	0x3f737b4f	0.9511003
50	0xbfb4465f	-1.4083976
51	0x3f400d19	0.75019985
52	0x3d7b7627	0.061391976
53	0x3fb79967	1.434369
54	0x3f4ac29a	0.7920319
55	0xc00985bc	-2.1487875
56	0x3fddae26	1.7318771
57	0x3f419ee1	0.75633055
58	0x3e7aa4fc	0.24476999
59	0x3da75d80	0.081721306
60	0x3db19a64	0.08672026
61	0x3cb2a9c3	0.021809464
62	0x3fb8fd5d	1.445232
63	0x3fbf9906	1.4968574
64	0x40f0fa95	7.5305886
65	0x40f815fc	7.7526836
66	0x40ed3249	7.4123883
67	0x40f657b7	7.6982074
68	0xc068498b	-3.6294887
69	0x40f35c33	7.605005
70	0x40f712c4	7.7210407
71	0x40f53d2b	7.663717
72	0xc06952c1	-3.645676
73	0x40f86790	7.762642
74	0x40f430eb	7.6309714
75	0x40f6bb05	7.7103295
76	0x40f96b08	7.7943153
77	0x40f4f173	7.654474
78	0xc064a58f	-3.572605
79	0x40f73260	7.7248993
80	0x40ef64ba	7.4810457
81	0x40f26211	7.574471
82	0xc067a005	-3.6191418
83	0x40f4320b	7.6311088
84	0x40f2db46	7.589267
85	0xc078c59e	-3.8870616
86	0x40f5ebb2	7.6850214
87	0xc06bc6bf	-3.6840055
88	0xc063eab4	-3.5612001
89	0x40f43d13	7.6324553
90	0x40f4e14d	7.6525025
91	0x40f447c7	7.633762
92	0x40f2f800	7.5927734
93	0x40eef0ef	7.466911
94	0x40f5ba47	7.678989
95	0x40f3dee8	7.62096
96	0x40f12e07	7.5368686
97	0x40f3fa6a	7.624318
98	0x40f53fba	7.664029
99	0x40f7bd94	7.741892
100	0x40f350cd	7.6036134
101	0xc0677c62	-3.6169667
102	0x40581ac9	3.3766348
103	0x40f219d6	7.565654
104	0x40f2d414	7.5883884
105	0x40f46fa6	7.638629
106	0x40f20ab4	7.5638065
107	0x40f4d6df	7.6512294
108	0x40f31586	7.5963774
109	0x40f4353a	7.6314974
110	0x40f2782a	7.5771685
111	0x40f3cb17	7.6185412
112	0x40575675	3.364652
113	0x40f15353	7.5414214
114	0xc0660f17	-3.594671
115	0xc066d325	-3.6066372
116	0xc06b18a9	-3.6733801
117	0x40f16eca	7.544774
118	0x40f30b62	7.5951395
119	0xc063cf01	-3.5595095
120	0x40f446bd	7.633635
121	0x40f3f098	7.6231194
122	0x40f3c192	7.617379
123	0x40f4a3cf	7.644996
124	0x40f47ef6	7.640498
125	0xc069ec87	-3.6550615
126	0x40f5adf0	7.6774826
127	0x40f3f526	7.6236753
128	0x3c801f6e	0.015639987
129	0xbc5a6274	-0.013329137
130	0xbb724976	-0.0036970056
131	0x3dc67e08	0.09692007
132	0xba337a64	-0.0006846546
133	0x3b940454	0.0045171175
134	0xbcc368f2	-0.023853753
135	0xbc370e4e	-0.011172844
136	0x3c60c8d8	0.01371976
137	0xbb9d17dc	-0.004794104
138	0x3c3a1da7	0.011359609
139	0x3d3b1667	0.04567566
140	0xbc9318b5	-0.017956117
141	0xbb4c9cb5	-0.0031221334
142	0x3bdb4a38	0.006692197
143	0x3c0997c7	0.008398003
144	0x3b99e788	0.00469679
145	0xba87eef7	-0.00103709
146	0xbc64b5a4	-0.013959322
147	0x3c916ee8	0.01775308
148	0x3aebe9f5	0.0017998802
149	0x3b8ed29f	0.004358604
150	0x3bc3a00d	0.0059700073
151	0xbc9fd42e	-0.019510355
152	0x39aba244	0.0003273656
153	0x3c35d4dd	0.011098114
154	0x3e010687	0.12600146
155	0xbb987164	-0.004652189
156	0x3f04dae9	0.5189653
157	0xbba352f2	-0.004984253
158	0xbc8a55b7	-0.016886575
159	0xbbea5ffe	-0.0071525564
160	0xbbc80ef6	-0.006105299
161	0xbbd8164e	-0.006594456
162	0x3cb5a632	0.022173975
163	0x3cea2d33	0.028586006
164	0xbc40c0af	-0.011764689
165	0xbbe69684	-0.007036986
166	0x3cf510f8	0.029915318
167	0xbc27f187	-0.010250456
168	0x3c77d80a	0.015127191
169	0x3d6cc542	0.057805307
170	0xbd87ea38	-0.066364706
171	0x3acebce6	0.0015772849
172	0x3ccdfa7c	0.025143854
173	0xbbbbd657	-0.0057323384
174	0xbc76fd8f	-0.0150751015
175	0x3c2e0974	0.010622371
176	0x37437fbd	1.1652647e-05
177	0x3c311937	0.010809234
178	0xbc724daa	-0.014789024
179	0x3bd0a807	0.0063676867
180	0x3e10f0df	0.14154385
181	0xbb8da554	-0.004322687
182	0x3bbc296e	0.0057422435
183	0xbb7bbc52	-0.0038411808
184	0x3c4ac7d5	0.012376745
185	0x3ba275c5	0.004957887
186	0xbea61bd2	-0.324431
187	0xbc108d42	-0.008822741
188	0xbda061a9	-0.07831127
189	0xbe1ccd78	-0.15312755
190	0x3ca63636	0.020289522
191	0x3d415543	0.047200453
192	0x3c1cd2aa	0.009571711
193	0x3b83e99b	0.0040256507
194	0x3c4f5ca3	0.012656364
195	0xbbb024bf	-0.005375474
196	0x3c4a7209	0.01235629
197	0x3c01f4e0	0.007931918
198	0x3bb27391	0.0054459055
199	0xbba209bd	-0.0049450085
200	0xbc9b57e5	-0.01896281
201	0xbb2dfaa5	-0.00265471
202	0xbc1c8fc5	-0.009555762
203	0xba7d4980	-0.00096621364
204	0x399d2ff2	0.00029981096
205	0xbb2a89ca	-0.002602207
206	0xbc6145f0	-0.013749585
207	0xbba26ca8	-0.0049568005
208	0x3c51ba03	0.012800696
209	0xbcb0afa6	-0.02156813
210	0xbac080dc	-0.0014686841
211	0x3b7fa1a3	0.0039006255
212	0x3c5ccaaa	0.013476053
213	0x39b02208	0.0003359469
214	0xba6a53fc	-0.0008938906
215	0xbc405b0a	-0.011740455
216	0x3c2ebc4a	0.010665009
217	0x3b95ab95	0.0045675733
218	0xbbdf865e	-0.0068214377
219	0xbc06e22c	-0.0082326345
220	0xbb095b87	-0.0020959096
221	0xbc2e3545	-0.010632818
222	0xbbf659db	-0.007518036
223	0x3c35da10	0.011099353
224	0x3c4fcdc1	0.012683333
225	0x3b71def2	0.0036906567
226	0x3a1e315e	0.0006034578
227	0xbc621a58	-0.013800226
228	0x3c5790b8	0.013157062
229	0xbcb73938	-0.022366151
230	0x3c56a6b1	0.013101266
231	0xba6b6312	-0.0008979301
232	0x3c8717a0	0.016490757
233	0x3c0f67aa	0.008752743
234	0x3c1ebea4	0.009689007
235	0xbb142056	-0.0022602282
236	0xbb0d3db8	-0.002155168
237	0xbbe688e3	-0.007035361
238	0xbbfd014a	-0.007721101
239	0xbc979605	-0.018504152
240	0xbde7db58	-0.113211334
241	0xbc3e6a25	-0.0116219865
242	0x3ba1beb0	0.004936062
243	0x3d020fcc	0.031753346
244	0x3cbacfdb	0.022804191
245	0x3bef3643	0.0073001697
246	0x3c237860	0.00997743
247	0xba30d209	-0.0006745165
248	0x3cc51267	0.024056626
249	0x3b954a79	0.004555997
250	0xbcc72e88	-0.02431418
251	0xba543788	-0.0008095433
252	0xbbd52555	-0.0065046945
253	0xbbcebcb4	-0.0063091163
254	0xba505872	-0.00079477497
255	0x3b295dfa	0.0025843368

reg.bias f4 [2]
0	0xbedb32fc	-0.42812335
1	0x3e632b51	0.22184493
