server/model2/value_model_minmax100.pt (torch, 255301 bytes, 12 tensors)

conv.0.weight f4 [4, 1, 3, 3]
00000000: eeaf bc3f d3be db3e 446b 1540 68e8 be3f
00000010: 9ca1 373f b0fa df3e 4747 ab3f 9a1b 81bf
00000020: 7e5a 833f 321f 7d3f 7443 7d3f 1294 4a3f
00000030: 5ca5 473f 5862 0940 0590 9dbd df88 0d40
00000040: ed52 bcbf 2938 2a3f 3f3e b53e a2e0 123f
00000050: b6e1 4d3f 51fd 023f 925c 8f3f 47aa 3540
00000060: b835 793f 76fd 033f 8a36 a13f de36 fa3f
00000070: 6ed4 ebbe b376 fa3f f43c de3f 4728 8f3f
00000080: 711f 913f a157 20bf 8687 9f3f 8c62 94be
1.474119 0.42919025 2.334672 1.4914675 0.7173097 0.43745947 1.3381127 -1.0086548
1.0261991 0.98875725 0.9893105 0.7913219 0.77986693 2.1466274 -0.07693485 2.211479
-1.4712807 0.66491944 0.35399053 0.5737401 0.8042253 0.5116778 1.1200125 2.838518
0.97347593 0.51558626 1.2594769 1.9547994 -0.46060508 1.9567474 1.7362351 1.1184167
1.133772 -0.6263371 1.2463233 -0.28981435

conv.0.bias f4 [4]
00000000: 26df 7c3f cedf be3e 37cd 253f 2267 6f3f
0.98778 0.37280124 0.6476626 0.93516743

conv.2.weight f4 [4, 4, 3, 3]
00000000: 4506 8a3f 08b7 e83f 071e 873f 3077 e13f
00000010: 25b7 823f 3956 a23f 744f 1e3f 36d7 a83f
00000020: be5e 683f a7fe d43f 52e3 7b3f 5241 c13f
00000030: 357c 1340 c941 15bc f084 953f f013 6e3e
00000040: 2a2a a73f 0892 7a3e db2f e83e 8d99 cc3f
00000050: e277 6e3f da60 d93f 5199 3e3f 3715 403f
00000060: f8e6 823f aa20 a63e 3902 913f b2bd c13f
00000070: d055 bd3f e951 a93f 7d8d cb3f b18b 843f
00000080: cccd a63f e0c9 853f 1f20 9e3f 2a84 383f
00000090: a943 323e 9acf 10bf 7564 21c0 1f34 a43f
000000a0: eba6 543f bd2d 96bf a92c 8f3f 5d44 4d3f
000000b0: e84b debe 91f4 2abf 896a 593f 4274 0cc0
000000c0: 4367 14be 62d1 b43f 1de1 12bf 7863 0fbf
000000d0: aca9 81be 66e0 32be 48f6 633f 0c98 c03e
000000e0: 42e6 223e 8954 1b3f d1bd c9be fade 4dc0
000000f0: da79 8b3e 160b cabd dd3a 1e3f e5b3 613f
00000100: c29c 0a3d 1b6b 7dbf 58ac 2a3f 77d3 a43f
00000110: 8021 5ac0 8487 b63f 86d2 d03f 6dfd cfbf
00000120: e452 c63f 4099 953f 9a74 e43e a71e a63f
00000130: e570 883f adda 993e 7843 843f 9597 2b3f
00000140: 9c99 a13f 4a36 1040 f0c1 a83f 229a 903e
00000150: 81ee b33f 87bb 703f 8c8c 06bf 09d2 f23d
00000160: 4c65 ea3e 915f 7a3f 8858 923f c9ab a53f
00000170: a965 93bf 3182 3c3f 7be7 1a3f ee42 d63e
00000180: 2b1e a83e 4256 ac3d e3a9 6a3d 80c4 d93f
00000190: 7ae5 b23f 60dc 223e 8c27 ad3f 02ff a33f
000001a0: 5aa5 e13f 3bc9 5a3f 376f 463f 1532 fd3e
000001b0: 78a5 303f 31ba d93f 8504 473e 5a38 ad3f
000001c0: 3260 983f 77ee 2e3f 98ed 693f 227a 853f
000001d0: 3db7 623f f310 2e3f b7a3 c83f c625 893f
000001e0: 2f57 a43f e085 bb3f 007f e93d 78d3 4b3f
000001f0: d57e 453f 723c 803f cd4b 0d3f 4a8b f13f
00000200: 91b3 69bf e197 de3f 7efd 6c3f 401b 8a3e
00000210: 1ce3 053f e686 053f a5fb c63e 3247 4b3f
00000220: 5d6c 5e3f b7bf 3f3f be7e d03f d675 a53f
00000230: 4d88 a33f 579f 083f 280d 6c3f e105 3d3f
1.0783163 1.8180857 1.0556039 1.7614498 1.0212141 1.2682563 0.61839986 1.3190677
0.90769565 1.6640214 0.9839374 1.5098059 2.304456 -0.009109923 1.1681194 0.23249793
1.3059742 0.24469769 0.4534901 1.598436 0.93151677 1.6982682 0.7445269 0.7503237
1.0226736 0.32446796 1.1328803 1.5136015 1.4791813 1.3228122 1.5902554 1.035513
1.3031554 1.0452232 1.2353553 0.72076666 0.17408623 -0.56566775 -2.5217564 1.2828406
0.83067197 -1.1732708 1.1185504 0.8018244 -0.43417287 -0.6677943 0.84928185 -2.1945958
-0.14492516 1.4126399 -0.57374746 -0.5601115 -0.25324762 -0.17468414 0.8904767 0.37616003
0.15908149 0.60675865 -0.3940263 -3.2167344 0.27241403 -0.09865396 0.6180857 0.8816512
0.033840902 -0.98991555 0.66669226 1.2877034 -3.4082947 1.4260106 1.6314247 -1.6249214
1.5494046 1.1687393 0.4462021 1.2978104 1.0659453 0.3004965 1.033309 0.6702817
1.2625003 2.2533135 1.3184185 0.28242594 1.4057161 0.94036144 -0.5255821 0.11856467
0.45780408 0.9780207 1.1433268 1.294305 -1.1515399 0.73636156 0.6050946 0.41847938
0.32835516 0.0841489 0.057290923 1.7013092 1.3976281 0.15904379 1.3527694 1.2812197
1.7628586 0.85463303 0.7751345 0.49452272 0.69002485 1.7009946 0.19435318 1.3532822
1.1904356 0.6833262 0.91378164 1.0427897 0.8856085 0.6799461 1.5674962 1.0714653
1.2839106 1.465023 0.114011765 0.7961955 0.77146655 1.0018446 0.5519379 1.8870633
-0.9128962 1.73901 0.925743 0.26973915 0.52299666 0.52158964 0.38863865 0.7940551
0.868841 0.7490191 1.6288679 1.2926586 1.2775971 0.53368133 0.92207575 0.73837095

conv.2.bias f4 [4]
00000000: 6d13 7e3f b03f bd3e 0bc1 2b3f 958e 073f
0.9924839 0.36962652 0.67091435 0.5295194

conv.5.weight f4 [64, 36]
00000000: 30ed 8ebd 05b4 9f3d b8d1 983e c671 e7be
00000010: 1aa5 953d 206d 783e cfce 063d 12d9 5abe
00000020: 54f8 773e ce63 873f 6853 31be 6c5e 1c3f
00000030: 0909 7b3f 4102 91bf 977b e13e 4c66 37bf
00000040: 08f6 29bf 81f7 0a3c e713 6cbe d720 cfbd
00000050: d058 923e cd0d cabd c72c 83be 3ad0 f03e
00000060: 03a1 c6bd de43 01be 0019 8a3e 2460 94be
00000070: d4b5 233d d5ea 973e 5d71 48be 3cdc e1bc
00000080: aefb 003f 82c1 62be 106f 2dbc cc72 943e
00000090: dc6d 0abe 02bc a1be bf8d b1be 58a8 093e
000000a0: da14 3d3e 978e 003f 3eb2 ddbd 50d3 fcbb
000000b0: ffd6 c03e a24b 803f 96d3 e0bf 3481 c7be
000000c0: 99f3 98bd afb4 ac3e 8deb dc3c afdb c13e
000000d0: c3ef 0e3f 1538 25bf f947 b8be db5e 50be
000000e0: 013e 253b 7676 ba3d a1a4 1e3e b0c5 8e3e
000000f0: 7858 fe3d a8df 913e 4af5 aebe 42a2 c6be
00000100: 015f 0bbe 6ee4 61be 590c a23e 54ba 143d
00000110: 08af d5be 8565 55bd e571 603e 128e d2be
00000120: ca5c 0c3e 9268 443f 7989 8f3f cee5 e73e
00000130: 9b41 0f3f fd87 123f a3c4 103f ede4 433f
00000140: bf3f 533f 9c8f 46bf 8606 f53f baac 1f3f
00000150: 3afe d1be f3c3 6c3f 89f6 793f 00cc 92be
00000160: 8a36 263e 6eee e33e 40d5 8cbe dd45 cb3e
00000170: 3cd6 e4be 74eb 9f3f 1316 323f 2a64 933f
00000180: e692 cd3f 4aa5 2e3f a4dc 193f 54c0 d53f
00000190: 4842 3c3f 162f 423f 4c1b 8e3f b8cb 7abe
000001a0: 0ec8 57bd 1dd5 0d3f cf3b 843d 2919 ca3e
000001b0: e0be 863e 74b9 c53d fb80 14bf 9e22 dc3d
000001c0: 465a a8bc d26d 013d bf49 1abd 32ab cabd
000001d0: ff16 0e3e d1f5 19be 5b86 543e 4848 e03e
000001e0: 50b8 2fbd 246b a43d 0e2a 26c0 34a8 383e
000001f0: 9d5a 923c f742 053f 1dd9 583d ffc4 5cbe
00000200: c7cd 663e 4be3 72be cc10 dabd 2c67 e6bf
00000210: 5537 2fbe b874 af3d 64d5 0740 b4b4 24be
00000220: 6a4d 17bd 043c 0ebe ef01 e33d 25b9 1dbd
00000230: 0d97 283b 0f77 9ebd d33a 403d a396 333e
00000240: d7ee 1c3f cef8 a93e ba97 e0be 88c2 c13e
00000250: edc0 4b3e 5679 3fbe e3e5 99be 11e5 12bb
00000260: 901f b9be e977 b2bf e7dd 0040 c2bc 2abf
00000270: 4f29 59bf 2a44 c93f 3692 9fbf 2bac 5b3e
00000280: eef9 863f df51 8cbf dfc1 363e 78f2 9ebd
00000290: 8033 fcbd 0afc b23e 5142 f83e d571 6dbf
000002a0: 2d96 673f 669b 943f 96a8 96bf 343e 343f
000002b0: 4e16 b63e 1187 3d3d 2a47 4a3f 2676 85bd
000002c0: a5cb dabf eeec 153f c8c4 133e ed36 dbbf
000002d0: 10d4 173f a23d c43e 80a5 ad3e 051a fbbd
000002e0: ec36 303f 57f6 133e 1865 00be 64e9 013e
000002f0: cdd3 823f 98df 62be 3e76 0240 a6b8 9abf
00000300: fb4c 0ebf b36a 1b3f 3955 84be 6698 f2bf
00000310: f62c 88bf cd7c 89bc d0f6 f1bd ea39 9f3e
00000320: 2228 283f b6fa 163f f4a6 ef3d 6072 063f
00000330: eb09 1e3f 4bdc f13d 13ff 3d3f 5721 bbbd
00000340: 9315 763e 0052 1b3f 6c3c a93e 6e97 8c3d
00000350: d363 34be d349 473d 7dc1 b73e 1c33 323f
00000360: e6b6 c8bd a3ca 683e 4d61 6a3e a18d d13d
00000370: 702e c13e adf3 fa3e 131a bf3d 5740 9ebc
00000380: d5a8 373e 987f 8a3f 6588 1cc0 57b3 093f
00000390: cfb1 a23e 5119 a5bf 4a5c 883f 0e95 943f
000003a0: 3ba4 8b3e d78d 8e3e 3430 143f 5b74 0a3f
000003b0: d849 b93e d60f f03d 63f9 5b3e d886 353f
000003c0: 5d37 39be f4e2 d8bd 9c5d fbbe be9f cc3e
000003d0: 7c4b 3f3e 0d53 583e e164 243d e6ff aa3e
000003e0: 97ea 1b3f bb94 e73b 9ca6 743d 28d6 8a3e
000003f0: 0c79 d53e 7402 f63d 8c48 d9be 5187 ee3d
-0.06978834 0.07798008 0.29847503 -0.4520399 0.07306881 0.24260378 0.03291207 -0.21371868
0.24215823 1.0577333 -0.17316973 0.61081576 0.9806066 -1.1328813 0.44039604 -0.7164047
-0.6639104 0.008481861 -0.23054467 -0.101136856 0.28583384 -0.098659135 -0.256201 0.47033864
-0.09698679 -0.12623546 0.26972198 -0.289796 0.039968327 0.2967135 -0.19574495 -0.027570836
0.5038403 -0.2214413 -0.010585561 0.28993833 -0.1351847 -0.3158875 -0.34678456 0.13443124
0.18464985 0.50217575 -0.108250126 -0.00771562 0.3766403 1.0023081 -1.7564571 -0.38965762
-0.074683376 0.337316 0.026967788 0.37862918 0.558346 -0.645387 -0.3599241 -0.20348684
0.002521396 0.09104626 0.15492488 0.278852 0.12419218 0.2849095 -0.34171516 -0.38795668
-0.1361046 -0.22059795 0.31650046 0.03631051 -0.417351 -0.05209877 0.21918447 -0.41124016
0.13707271 0.7672206 1.1213828 0.45292515 0.5595948 0.5723875 0.56550044 0.7652119
0.82519144 -0.7756288 1.9142616 0.62372935 -0.41014272 0.92486495 0.9764181 -0.28671265
0.16231743 0.44517845 -0.27506447 0.3970174 -0.44694698 1.249373 0.6956493 1.1514943
1.6060455 0.6822096 0.60102296 1.6699319 0.7353864 0.758531 1.110208 -0.24491775
-0.05268102 0.5540331 0.0645672 0.3947232 0.263175 0.09654513 -0.5800931 0.1074879
-0.020550858 0.031598873 -0.037667986 -0.09895934 0.1387596 -0.15035178 0.20754378 0.43805146
-0.042900383 0.08028248 -2.5963168 0.18032914 0.017865473 0.52055305 0.05294143 -0.21559523
0.22539435 -0.23719518 -0.10647735 -1.8000236 -0.17110951 0.08567184 2.1223993 -0.16084558
-0.036939062 -0.13890082 0.11084353 -0.038506646 0.00257248 -0.077375524 0.0469311 0.17537932
0.6130194 0.33197635 -0.43865758 0.37843728 0.19897814 -0.1869863 -0.30058202 -0.0022414366
-0.36156893 -1.3942844 2.0135438 -0.6669427 -0.84828657 1.5723927 -1.2466495 0.21452396
1.0545022 -1.0962485 0.17847393 -0.07761091 -0.1231451 0.34957916 0.48488095 -0.9275182
0.90463525 1.1609924 -1.1770198 0.70407414 0.35563892 0.046271387 0.7901484 -0.06516676
-1.7093397 0.5856465 0.14430535 -1.7126137 0.59307957 0.38328272 0.3391533 -0.12260822
0.68833804 0.1444944 -0.12538564 0.12686688 1.0220886 -0.22155607 2.038467 -1.20876
-0.5558621 0.60709685 -0.2584627 -1.8952758 -1.0638721 -0.016783142 -0.11814654 0.31098872
0.6568624 0.58976305 0.11701766 0.5251827 0.61733884 0.11809596 0.7421734 -0.091372184
0.24031667 0.60672 0.3305391 0.068648204 -0.17616205 0.04865439 0.35889807 0.69609237
-0.0980051 0.2273355 0.2288868 0.10232092 0.37730742 0.49014035 0.09331145 -0.019317789
0.17935498 1.0820189 -2.4458249 0.53789276 0.31776282 -1.2898351 1.0653164 1.1607988
0.27273735 0.2784259 0.5788605 0.54083794 0.3618915 0.117217705 0.21481852 0.7090888
-0.18087526 -0.10590163 -0.49094856 0.39965624 0.18681139 0.21125431 0.040135268 0.3339836
0.6090483 0.0070672906 0.059729204 0.27116513 0.41693914 0.12012187 -0.4243816 0.11646903

conv.5.bias f4 [64]
00000000: b160 e73d 671a 98be eb6e 9bbd 5948 62be
00000010: fcc4 a8bc fb35 4c3d 8ffa ca3e 7c90 5c3d
00000020: 8e89 fb3d 43ff 01bd e6a0 103d a1e4 54c0
00000030: 73f2 20bf 3cf8 06bf 1a22 053d 1d93 1cbf
00000040: 884e 113f 5d2c 51be 579f 22bf 699e 0b3f
00000050: 6dc6 4fc0 fae1 103e 59b9 5fbe 9ec7 583e
00000060: fc5a 1cbe 4a8f abbe 7341 20bf e1cc 37c0
00000070: a21c c7be a87c 50be 56f5 573f 9b68 06bf
00000080: d6d7 7dbe aa93 d7bd ecb0 1bbf 2bd8 54be
00000090: 5ab7 9ebf 2c1f 36c0 848d f43e 1eba 043f
000000a0: 7554 df3e 3f73 ecbd 9736 1abe f669 f33d
000000b0: 76ba 243e 8ae7 12bf 0fd0 cbbd 6246 c73e
000000c0: 3fa2 f7be 886d 41bd 8d7a a0be b3d1 7a3e
000000d0: 4b25 19bf b07f cdbe 8803 e0bd b04c e4be
000000e0: 5852 5abe c135 fa3e e70e 55bf 4e54 b3be
000000f0: 1c93 42bf b759 1ebf fd97 42bd 7d78 25be
0.11297739 -0.29707643 -0.07589515 -0.22097911 -0.020601742 0.049856167 0.39644286 0.05384873
0.12282096 -0.031737577 0.035309695 -3.3264544 -0.6286995 -0.52722526 0.032503225 -0.6116198
0.56760454 -0.2042708 -0.63524383 0.5453859 -3.246486 0.14148703 -0.21848048 0.21169898
-0.15269083 -0.33507758 -0.6259987 -2.8718798 -0.38889033 -0.20360053 0.8435873 -0.52503365
-0.24789366 -0.105262116 -0.60816836 -0.20785587 -1.2399704 -2.8456526 0.47764218 0.5184649
0.43619123 -0.11545419 -0.15059887 0.11885445 0.16086754 -0.5738455 -0.099517934 0.38920885
-0.4836597 -0.047223598 -0.313435 0.24494056 -0.5982253 -0.4013648 -0.109381735 -0.44589758
-0.21320474 0.48869136 -0.83225864 -0.35025257 -0.7600572 -0.61855644 -0.04750823 -0.16159244

linear.1.weight f4 [256, 169]
00000000: 0047 c13b 3ae0 203d 0a75 723d 1ebe 5d3d
00000010: a826 d1bc b62c b5bc 740c 013d 34d2 1d3d
00000020: c657 563d 9191 c73e b87c 783c 706a 39bc
00000030: f0d2 033d b6df 463d 40e9 09bb f851 6fbc
00000040: 9095 ce3b 54ef 34bd c052 9abd 40b7 aabc
00000050: dd5c 973d a094 7a3d 33d7 bc3e f05f 4e3c
00000060: 9471 82bd 78bb 86bd ec2a 8bbc 18fd 1c3d
00000070: 4040 d03c 401e 32bb c4f8 f33c 802c 2bba
00000080: 2a2a 36bd 22cf b83e 87bf 4cbf 10a3 34be
00000090: 64ab a03c 10bd ab3c d471 2ebd 2eb0 7e3d
000000a0: 9ccb 323d dc49 64bd 2609 edbd a72f 98be
000000b0: ae9d e53e 2b2e 203f c423 38be 0176 55bf
000000c0: 1532 193e a11c 6bbe c2a0 cbbe 842d e63e
000000d0: 3e54 253d 9219 4d3d d8b2 04bc a27e a23f
000000e0: c257 06be 17c0 ad3f 972e 093f a038 32bc
000000f0: 38e9 c6be 43e7 c5be aea1 1abe 4af7 abbe
00000100: d2d9 53bd a232 d3bc 96b6 41bd 25f9 1dbd
00000110: f9b7 2fc0 28fd 3ebf 59ad b93f 2c8a 7b3f
00000120: a65d c53f 0384 9f3f 4edc 493f 1dfe ec3e
00000130: 8a1f 58bd 80c3 013d 6466 ed3c 60d0 12bd
00000140: 40fe e83c 4d1f cf3e 3ed4 6fbe 4358 a13e
00000150: 3cb1 41bf 6726 1abf e981 4ebf 4132 b23e
00000160: 4656 213d 2edd 4f3d 54a2 08bd 8598 11bd
00000170: 7aa6 99bd cfff b93e 3e1d 3dbf 8662 d43e
00000180: 6d47 c23f 760e 063f ee55 4c3e 85d7 77be
00000190: 00d1 86bf 0e6b 5d3d 40ab 72bd 50d6 8ebc
000001a0: 087e 3fbc 1664 f1bd e52c 773f 90f8 863f
000001b0: 91bd d5be 45e5 473f 03fc f23e 50a8 383f
000001c0: e639 1b3e 3188 623e 30e7 d83c bc3a 3f3d
000001d0: 2446 debc f753 de3e cfeb 89bf 7f60 0dbf
000001e0: b338 9ebf 3c3c f73d 6735 50bf 9458 97be
000001f0: 126b f2be bc34 02bf feac 3d3d d652 6b3d
00000200: 8832 02bd e180 8b3d 6ecf 4c3d 767b debc
00000210: e72a 823d ea0f 123f 9c09 803f 449e 23be
00000220: 4a28 18bd 7241 4d3d 183d 2d3c 8092 38bc
00000230: bb6d 00bd 0278 783d f77d 8d3d 6a5a 2dbd
00000240: 28ff 1c3d 2a5b 3c3d 8914 6abd 1762 2340
00000250: ecf6 e53c 4011 8b3b a012 2b3c 782c 1fbc
00000260: 5471 f43c e663 793d 3695 493d 8a91 033d
00000270: 7497 79bd f89b 903c 4668 3cbd 8841 2b3c
00000280: bc3f 013d 5082 ebbb 9f01 92bd 769f 6a3d
00000290: 9964 49bd e827 b43c 0a4d 4b3d e47e 953c
000002a0: 70d6 1d3d bec3 6d3d 0f80 8ebd d661 8abd
000002b0: 3808 383c 28ba e93c 5d06 8ebd d884 5a3c
000002c0: 7b94 16bd 950b 8bbd ddc1 223f e81c 3c3d
000002d0: 605f 17bb 0621 54bd d41d b6bc 50a8 22bc
000002e0: 1474 a0bc bed6 223d 323c 8ebc 9656 5bbd
000002f0: e6d1 3dbd bb58 803d 905c 9e3f 67d3 ac3f
00000300: 5912 08bd aced 9a3c e66e 7bbd 1993 75bd
00000310: 7a28 6b3d 80b2 7e3a 6c7f c0bc 400b db3c
00000320: 1b86 1fbd 9062 eebb f34e dbbf 5ab7 9c3f
00000330: c508 b0bf 2c26 933c 4029 da3c 8049 4f3b
00000340: a025 8d3b 205c 0f3d e894 8cbc 4749 473e
00000350: eba0 923e 6753 42bf 807b 67be 7720 883e
00000360: 0136 9a3e 4ec9 ad3b 2324 343f 73e0 3cbf
00000370: 938a cb3e b201 36bd 3cb1 dfbc cdf4 78bd
00000380: 5c08 a6bf dd68 073f bc65 ca3a 0a52 bfbf
00000390: 7ee4 333f 0498 7bbf 0112 123f e364 1e3f
000003a0: 7493 acbf 1e2a 2abd d658 5c3d 8ac4 f2bc
000003b0: b955 46bd d146 1ebd a360 a0be ffac 0ebf
000003c0: a908 f03e 6526 1d3f fb0d 4d3f 01a4 0ebf
000003d0: ddf0 883f 3bad 27bd 9b37 8a3d 9e96 b1bc
000003e0: 3ef7 213d 76c3 473d f9e3 a63f e209 1c3f
000003f0: b9c8 35bf c980 023e 38cb 5f3d f631 893f
0.0058983564 0.03927634 0.05919365 0.054136388 -0.025531128 -0.022116046 0.031506017 0.038530543
0.0523298 0.38978246 0.015166454 -0.011316881 0.032183588 0.04855319 -0.002104357 -0.014606945
0.0063044503 -0.044173554 -0.075353146 -0.020839334 0.07390759 0.061176896 0.36882934 0.0125961155
-0.063693196 -0.065787256 -0.01698824 0.038327307 0.025421262 -0.0027178675 0.029781707 -0.00065297633
-0.044473805 0.3609553 -0.7997975 -0.17640328 0.019612975 0.020964175 -0.042589024 0.062179737
0.04365121 -0.0557345 -0.115740106 -0.29723856 0.44846863 0.62570447 -0.17982394 -0.83383185
0.14960511 -0.2296014 -0.39771086 0.449566 0.040363543 0.050073214 -0.00809928 1.2694895
-0.13119414 1.3574246 0.53586715 -0.010877758 -0.38849807 -0.38653 -0.15100738 -0.33587104
-0.0517214 -0.02578098 -0.04729327 -0.03856768 -2.7456038 -0.74605036 1.4506027 0.9825771
1.5419204 1.2462162 0.78851783 0.46287623 -0.052764453 0.031680584 0.028979488 -0.035843253
0.028441548 0.40453568 -0.23420808 0.3151265 -0.75661063 -0.6021485 -0.8066698 0.34803966
0.039388917 0.050748043 -0.033357933 -0.035545845 -0.07502456 0.3632798 -0.73872745 0.41481417
1.5178047 0.52365816 0.19954655 -0.24203308 -1.0532532 0.054057173 -0.059245348 -0.017436177
-0.011687763 -0.11786668 0.9655288 1.0544605 -0.4174619 0.7808421 0.47457895 0.72131824
0.15158805 0.22122265 0.026477426 0.046686873 -0.027133055 0.43423435 -1.0775088 -0.55225366
-1.2361053 0.12072036 -0.81331486 -0.29559767 -0.47347313 -0.50861716 0.046307556 0.057452045
-0.03178647 0.06811691 0.050002508 -0.02715848 0.06355839 0.5705553 1.0002933 -0.15978342
-0.037147798 0.05011124 0.010573648 -0.011265397 -0.031354647 0.060661323 0.069087915 -0.042322554
0.038329273 0.04598538 -0.05714849 2.552862 0.028071843 0.0042439997 0.010441452 -0.009715192
0.029839195 0.060886286 0.049214564 0.03212122 -0.060935453 0.017652497 -0.04599788 0.010452636
0.031554922 -0.0071871653 -0.071292154 0.05728098 -0.049168203 0.021991685 0.049634017 0.018248983
0.03853458 0.058048002 -0.06958019 -0.06756942 0.011232428 0.028531149 -0.069348074 0.0133373365
-0.036762696 -0.067893185 0.6357706 0.045926005 -0.002309762 -0.051789306 -0.02223102 -0.009927824
-0.0195866 0.039755575 -0.017362688 -0.05354937 -0.046342753 0.06266924 1.2371998 1.3502015
-0.033220623 0.018912159 -0.061385058 -0.059954736 0.05741165 0.00097159296 -0.02349826 0.026738763
-0.038946252 -0.007274933 -1.7133468 1.2243454 -1.3752676 0.017962538 0.026630998 0.0031629503
0.0043074638 0.034999967 -0.017160848 0.19461547 0.28638396 -0.7590851 -0.22605705 0.2658727
0.30119327 0.0053035384 0.7036764 -0.7377998 0.3975416 -0.04443521 -0.027306192 -0.060780335
-1.2971301 0.52894384 0.0015441696 -1.4946911 0.70270526 -0.9827883 0.5705872 0.6187269
-1.3482499 -0.041544072 0.053795658 -0.029634733 -0.048421595 -0.038641755 -0.31323728 -0.5573272
0.46881607 0.6138671 0.8009946 -0.55719 1.0698506 -0.04093669 0.06748887 -0.021678265
0.03954243 0.04877039 1.3038322 0.6095258 -0.71009403 0.1274444 0.054637164 1.0718372

linear.1.bias f4 [256]
00000000: 3111 b3bc 409f 733e f1ae 2d3e 5bbf a73d
00000010: 37cc e93d d887 3abe 1bf7 ef3e bf3c 8fbe
00000020: a185 4abe f453 483b a8c7 f33f b5f0 1c3e
00000030: e4c2 9e3e edf6 aabd c34d 1a3f bd3a 823d
00000040: 37e7 aa3d 9a31 303d 27a2 89bc 31fb 5ebe
00000050: 6a91 a0bd ae4d 62bc 6423 153e 3140 753e
00000060: 3bff 6ebf 5505 20bd b799 7f3e 6b64 0a3e
00000070: 225d 71be 133d 723e b16e 6a3d 2cad fd3e
00000080: 175e 98bf f0f0 19ba d4a4 d43e e95f 2b3d
00000090: cbe7 6d3e d361 323e 79b1 103e c222 8f3d
000000a0: 7981 973e bb8e e43f aa69 253e 6376 443f
000000b0: 38f6 4f3e 0cd0 08be f3b4 883e 7a5f 62be
000000c0: 2d04 543f 9842 793e f32e 193d 49ad 983e
000000d0: b19a 8e3e 20fd 0d3e d5e9 953e 7a5c e6bc
000000e0: 1af4 99bc 5050 e13c f103 913b 2283 f73d
000000f0: f46d 47bf b5e0 e8bf 032b bb3e 4c42 6b3f
00000100: 1fd2 063e 3417 023e 05d3 553d c39e 8fbd
00000110: 02c3 fa3d b29c 8f3f 582a ea3f e07b 45be
00000120: 4883 633d f9e0 2abe d890 f639 37df b3bc
00000130: 3d0e 283c 16a7 873d 953b 1e3e 0ff0 3c3e
00000140: 2efb 4b3e 007f 503f f3ea bb3e 2a15 3dbe
00000150: 72b0 40bd f754 0d3e 88fe 233e f645 713d
00000160: f94c 3cbe 88fb 33bd 608f 49be 75cb 06be
00000170: 573d 8a3e baee 293e 1314 6a3e a37b b03e
00000180: ff69 8c3e fa4f 403e 10c5 663e c335 803e
00000190: e162 c83e 5989 95bd 2395 a7bd bd7e 39be
000001a0: 4412 11be 136a aebd fe41 7fbe 4946 afbe
000001b0: 4638 54bf aecc 463d 9245 8ebf a4e1 3bbd
000001c0: f774 5d3e dca4 c83d 13db 173e 776d 4f3e
000001d0: df1d 303d 2bd6 ddbd 5d7a a13e 940b 0b3d
000001e0: 7253 2a3f 9517 133d 350a 1e3e 4c1e 0c3d
000001f0: 3641 aebd 7fe2 e4bd 91c6 8a3e ae58 5a3e
00000200: 4266 d4be 61b2 7dbd f5e2 873d 11ed 793c
00000210: 85c0 c63f e3fd a73e 1400 17bd 4a7c 1a3e
00000220: 676f 613d a8c6 683d 474c 463e 06b4 8d3e
00000230: 4ecc d7bc d02b ee3d 32ef 3b3e 5646 32bd
00000240: e111 05be de4e 1bbd 368d da3d 68c4 953f
00000250: 8f06 1fbe 9921 163e e40a 823e b46f 14bd
00000260: bb29 66bf 9eb6 6cbf b200 853e bd6f e73e
00000270: a0d5 a03d 191d 81bd 569b 523e 2f68 fc3d
00000280: f414 8bbd 2f3f 623d db0d 06be 654a c5be
00000290: 123d 333e 6928 e33c 482e b23e 509c aa3e
000002a0: 3dcb a63d 2b96 0bbc cc6a 1a3e 4e59 53bd
000002b0: 2831 f13e 058d cc3e fe84 783d a355 01be
000002c0: 383a 833f b245 ce3e 3d15 4abd a6d5 a43d
000002d0: 33df f4bf 2c67 c43e 04d9 813e e627 3a3e
000002e0: d1a1 d7bd 11e2 43be cd61 a73d e89b 6a3e
000002f0: 4273 abbe 47ca b7bc a7ae 47be ccde b6be
00000300: 801f 923d 4945 28be af33 093e 5070 16c0
00000310: c2f0 2a40 4642 433c cac9 97be 8c9e cbbc
00000320: 66ab 033d d789 153e cf5e c23d 13e6 df3d
00000330: e381 47bf a942 cc3c 9765 08bd 958b 3c3f
00000340: 4cd5 d8bc 08a7 383e 6b73 86bf fd58 cb3d
00000350: 8a89 48bc 2fc9 693f eafa f3bf b77a 493d
00000360: 4ff1 363e 2d26 f63e 1675 86be 3da1 6a3f
00000370: 8611 ce3d a369 ae3e 7e14 1ebc 6224 d13c
00000380: b26c a3bd 4769 1dbd 7f38 023e 14fd d2be
00000390: 45ba 303f 71c4 a33e 6772 9b3f fd5c 123e
000003a0: 5c94 dbbd dd61 c63e 6856 a3bd 9098 5fbc
000003b0: 6b23 32be 91dc 64be a92a 823d 9bf9 a23d
000003c0: 77cd 93bd 607e 723e da1f 443e 2280 0d3e
000003d0: 6dca 363e 7629 563d d926 e13d cef1 7a3f
000003e0: e16b 47bc 0d27 02be 87d7 3c3f f9c5 4fbe
000003f0: 9780 853e 916b 913e c7d9 5e3e 2a5a 32be
-0.021858783 0.23791218 0.16961266 0.08190795 0.11415904 -0.18215883 0.46868214 -0.27976033
-0.19777538 0.0030567618 1.9045305 0.15326197 0.31008065 -0.083478786 0.60274905 0.0635886
0.08344882 0.043016054 -0.016800953 -0.2177551 -0.078402355 -0.013812466 0.14564282 0.23950268
-0.933582 -0.039067585 0.24960981 0.13514869 -0.23570684 0.2365611 0.05723447 0.49546182
-1.1903714 -0.00058723893 0.41532004 0.041839514 0.23232953 0.1742013 0.141302 0.069890514
0.29590967 1.7856058 0.16153589 0.76743144 0.20308769 -0.13360614 0.26700553 -0.22106734
0.8281887 0.2434181 0.03739829 0.29819706 0.27852395 0.13866091 0.29279962 -0.028120268
-0.018793155 0.027504116 0.0044255187 0.120855585 -0.7790215 -1.8193575 0.36556253 0.91898036
0.13166092 0.12704164 0.052203197 -0.07012703 0.12244226 1.1219695 1.8294172 -0.19285536
0.05554512 -0.16687383 0.00047028693 -0.021957023 0.010257301 0.06623666 0.15452416 0.1845095
0.19920036 0.81443787 0.3670269 -0.18465105 -0.04704327 0.13801943 0.16015065 0.05890461
-0.18388738 -0.04394105 -0.196836 -0.1316355 0.26999924 0.16594973 0.2285922 0.34469327
0.2742462 0.18780509 0.22536111 0.25041017 0.3913794 -0.073015876 -0.081827424 -0.18114753
-0.14167124 -0.08516326 -0.24927518 -0.3423331 -0.82898366 0.04853504 -1.1114981 -0.045869485
0.2162665 0.097970694 0.14829664 0.20256601 0.042997237 -0.10831865 0.31538668 0.03394659
0.6653358 0.03591116 0.15433581 0.03420858 -0.08508532 -0.11176013 0.2710462 0.21322891
-0.41484267 -0.061937694 0.066350855 0.015254275 1.5527502 0.32810888 -0.03686531 0.15086475
0.055037882 0.05683008 0.19365035 0.2767641 -0.026342537 0.1162945 0.18352965 -0.04352411
-0.12995102 -0.03791701 0.10671465 1.1700563 -0.15529846 0.14661254 0.25398934 -0.03623934
-0.89907426 -0.9246615 0.25977093 0.45202437 0.07853246 -0.06304378 0.20567068 0.12324559
-0.06791106 0.055236038 -0.13091223 -0.3853332 0.17503765 0.02772923 0.34800935 0.33322382
0.081442334 -0.00851969 0.15079802 -0.05159884 0.47107816 0.3995134 0.060673706 -0.12630324
1.0252142 0.40287548 -0.04933666 0.08048563 -1.9130615 0.38359964 0.25360882 0.18179283
-0.10528911 -0.19129206 0.08172951 0.22911036 -0.33486372 -0.02243532 -0.19500218 -0.35716856
0.071349144 -0.1643268 0.13398622 -2.350605 2.6709447 0.011917656 -0.2964614 -0.024855874
0.03214588 0.14603363 0.094907396 0.10932555 -0.77932566 0.02493413 -0.03330001 0.73650485
-0.026468895 0.18032467 -1.0503973 0.099290825 -0.012239823 0.91322607 -1.9060948 0.049189296
0.1786549 0.48076 -0.26261204 0.9165228 0.10061936 0.3406497 -0.00964844 0.025530044
-0.07979716 -0.03843048 0.12716864 -0.41208708 0.69034225 0.3198581 1.2144288 0.14293285
-0.10721657 0.3874654 -0.07975465 -0.013647214 -0.17396323 -0.22349764 0.06355793 0.07957765
-0.07216924 0.2368102 0.19152775 0.1381841 0.17850657 0.052285634 0.10993738 0.98025215
-0.012171716 -0.12710209 0.7376637 -0.20290364 0.2607467 0.2840238 0.21762763 -0.17417207

linear.3.weight f4 [64, 256]
00000000: 134c 55c0 6fc8 a340 7c45 ca40 1bbf 46c0
00000010: 9c59 00c0 52bf 83c0 b387 5440 af07 5dc0
00000020: 05a4 70c0 1799 7c40 c1d2 dd3e 0c4e c0bf
00000030: 3534 afc0 521d b440 d680 723f 2a61 e140
00000040: 3104 e640 db04 9e40 2fab d2c0 d6e3 35c0
00000050: 3e8f 99c0 ee08 cd40 25bb c740 63eb 3740
00000060: ad10 2cbf e1f9 d1c0 95e1 c7bf bff2 8540
00000070: 49e6 a2c0 ddc1 6340 b405 0540 0e49 2840
00000080: 8b18 a4be 918a 6fc0 dcb9 9040 fcae bdc0
00000090: 3f75 7bc0 22f5 3fbf d5ab 8840 a894 d040
000000a0: ca80 3d40 c853 3a3f 6c03 f13f 67b6 013f
000000b0: 81b9 ad40 76f9 cbc0 481e 9640 847d ffc0
000000c0: e8ba 0f3f dbba 7640 9b87 c6c0 70ff 8f40
000000d0: a110 be40 1698 27c0 c518 7ac0 3553 afc0
000000e0: 4353 ad40 3bcb f8c0 8935 a940 072c 9440
000000f0: 1baa 54bf c211 f5be 6e9d 4e40 4417 6e3e
00000100: 9c91 b140 c8db ffbf 27b2 8dc0 afb0 6040
00000110: cd79 93c0 771d db3e fe55 1b3f d2e2 a140
00000120: a915 9fc0 85fa 9d40 d7c1 90c0 dd83 3ec0
00000130: ca07 ec40 597e b0c0 8510 1dc0 8c4c 75c0
00000140: 4821 e13f ddc5 00be 8922 b340 7766 9240
00000150: eaa8 77c0 d81c ba40 c4fd dd40 e274 82c0
00000160: e2d1 9f40 1c63 7dc0 ac04 ff40 0238 26c0
00000170: b01a 9b40 68d8 dc40 66f4 f73e a909 c9c0
00000180: aced af40 4731 b3c0 0e79 48c0 a7f4 0f3f
00000190: ecc3 ccbe b267 8bc0 1e4f e0c0 a65e 3240
000001a0: a117 ffc0 29aa 94c0 4a71 bf40 5f4c acc0
000001b0: deb6 7cbf a6e8 b840 3d64 1bbf 7669 a9c0
000001c0: 437d dc40 40e5 4e40 6a30 a840 6086 90c0
000001d0: 2416 d740 9a5a cec0 67b2 27c0 4360 41c0
000001e0: d91c 743f f118 d340 6e18 4840 b5aa b8c0
000001f0: 91ae c1c0 3add 923f 8b4b 7a40 5c5e 2b40
00000200: 3e6d 0641 ad68 c540 41eb dd3f 27d3 ae40
00000210: a773 3d3f 1e77 21c0 14fd 76c0 ae98 6ac0
00000220: 6906 8ec0 b21d 4dc0 81e9 c640 7da2 0340
00000230: d937 0941 3df5 a040 f8cf 43c0 b38c 9440
00000240: 3edc b5c0 5c44 7e40 3d14 b140 063f 2f3f
00000250: b55d fdc0 325a a6c0 aa3f 59c0 fa98 95c0
00000260: 655b 31bf 6331 89bf 8d4d c8c0 ce72 1640
00000270: f4e3 9f40 873e 92c0 2951 cf3f 92ad c540
00000280: c85c 9cc0 ddda 70c0 cae3 d6c0 71e8 00c1
00000290: d985 4dc0 2898 9440 7e31 3ac0 bcc1 be40
000002a0: d9e5 05c0 4ab7 8f40 aace 6e40 9dc5 b640
000002b0: 6b83 b640 de5f 8c40 aec2 6640 2c5d d0c0
000002c0: db55 d13e 828b 8dc0 5c72 b8c0 bd6a 88c0
000002d0: eb01 28be 3a2e 753d b4ae dbc0 52d8 b540
000002e0: 6f9c b840 399f df40 03af a140 7112 6040
000002f0: 91db c4c0 94d1 8cc0 9142 ac40 cd75 5fc0
00000300: e977 c9c0 bd3c e640 03d0 3d40 440f 9bbe
00000310: f6f1 da3e 1499 38c0 be78 bbc0 6143 0741
00000320: c4e6 a2c0 7b27 9940 3151 ac40 d671 bfc0
00000330: f43f 7fbf 2ff1 8a40 7a57 bdc0 cfda 2740
00000340: 892a dfc0 2d9e 75c0 9e6e ffbe dab7 bec0
00000350: e50d e340 bf84 ca3e bf8d f3be 4938 a940
00000360: 475b cc40 3b35 d63e 82b7 f940 18f0 073f
00000370: ae3f 7dc0 1218 cfc0 5144 9f40 070d dfc0
00000380: f5de 9bc0 a3f1 c3c0 0269 df40 30fc 0041
00000390: 8c51 1c3f b437 6ec0 b7eb 8abe 1011 0641
000003a0: c2ec a9c0 4f26 0c41 77bc 4bc0 dba3 cf40
000003b0: badb eec0 464a 8dc0 9a79 3dc0 dc1a 19c0
000003c0: a0cb 80c0 ca6d b040 8e92 3dc0 d4c6 be40
000003d0: df4a 9740 c445 d040 dcf7 8fbf b1f2 3a3f
000003e0: 4703 b1c0 f9d1 d2c0 648d 183f a6e8 a9bf
000003f0: 502f 98c0 b363 66c0 f813 83c0 bcca 7ec0
-3.3327682 5.118217 6.320982 -3.1054142 -2.0054693 -4.1171045 3.3207824 -3.453594
-3.760011 3.9468439 0.43324855 -1.5023818 -5.475123 5.628579 0.9472784 7.043111
7.1880116 4.9380927 -6.5833964 -2.842031 -4.7987356 6.40734 6.241595 2.8737419
-0.67212945 -6.561753 -1.5615717 4.185882 -5.090611 3.5587075 2.078473 2.629459
-0.32049975 -3.7428324 4.522688 -5.9276104 -3.9290311 -0.7498342 4.2709756 6.5181465
2.9609857 0.7278409 1.8829169 0.5066895 5.4288945 -6.374202 4.6911964 -7.9840717
0.5614457 3.8551548 -6.2040534 4.4999313 5.93953 -2.6186576 -3.9077618 -5.478907
5.416414 -7.7748084 5.287785 4.6303744 -0.8307206 -0.4786511 3.2283587 0.23251063
5.5490246 -1.9988947 -4.427997 3.510784 -4.6086183 0.42795917 0.6067809 5.058938
-4.971394 4.936831 -4.523662 -2.9767983 7.375951 -5.5154233 -2.4541333 -3.832797
1.7588282 -0.12575479 5.5979657 4.575008 -3.8696847 5.816021 6.9372272 -4.076768
4.9943705 -3.9591742 7.9693203 -2.5971684 4.8470078 6.901417 0.4842865 -6.282429
5.4977627 -5.5997653 -3.1323886 0.56232685 -0.39993227 -4.356408 -7.009658 2.787027
-7.9716344 -4.6457715 5.982579 -5.3843226 -0.98716533 5.7783995 -0.60699826 -5.2941236
6.8902907 3.2327423 5.25591 -4.516403 6.7214527 -6.4485598 -2.6202638 -3.0215003
0.9535652 6.5967946 3.126491 -5.7708383 -6.0525594 1.1473763 3.9108608 2.6776342
8.40167 6.169028 1.7337419 5.4632754 0.74004596 -2.5228953 -3.8591967 -3.6655688
-4.4382825 -3.2049375 6.216004 2.0567925 8.576135 5.0299363 -3.0595684 4.642175
-5.683135 3.9729223 5.5337205 0.6845554 -7.917689 -5.19851 -3.3945107 -4.674924
-0.6928008 -1.0718197 -6.2594666 2.3507571 4.9965763 -4.5701327 1.6196643 6.177438
-4.886326 -3.7633584 -6.7153063 -8.056748 -3.2112944 4.6435738 -2.9092708 5.961149
-2.0921538 4.491124 3.7313638 5.7116227 5.703542 4.3867025 3.6056323 -6.5113735
0.40885815 -4.42328 -5.76396 -4.2630296 -0.16406982 0.05985854 -6.865076 5.6826563
5.769096 6.9881864 5.0526137 3.5011256 -6.1518025 -4.4005833 5.383126 -3.491565
-6.2958875 7.1949143 2.965821 -0.30285084 0.42762727 -2.8843431 -5.858489 8.45395
-5.0906696 4.7860694 5.384911 -5.982646 -0.9970696 4.3419414 -5.9169283 2.62273
-6.9739423 -3.8377793 -0.49889082 -5.959943 7.095446 0.39554402 -0.4756908 5.2881207
6.3861423 0.41837487 7.803651 0.5310073 -3.9570117 -6.4716883 4.9770894 -6.9703403
-4.8709664 -6.1232467 6.9815683 8.061569 0.6106193 -3.7221498 -0.2713296 8.379166
-5.310151 8.759353 -3.183378 6.488752 -7.464322 -4.4153166 -2.960547 -2.3922644
-4.0248566 5.513402 -2.96207 5.961771 4.7278895 6.5085163 -1.1247516 0.7302657
-5.53165 -6.5881314 0.59590745 -1.3274124 -4.7557755 -3.5998352 -4.0961876 -3.981124

linear.3.bias f4 [64]
00000000: 967c 2c3e 3bff 9e3c 2f6a 9e3e 6f9e f93c
00000010: b364 983e d96c cc3d c34d 0dbe b7b9 8a3a
00000020: a6bd a23d fc8a 06bd 3eca bebd 00d7 36be
00000030: 999c 00be 9185 fbbd 51b2 2b3e 92e8 babd
00000040: 1589 023d 4f8e e73c cab3 143e 7dbe 18be
00000050: e1c0 8a3e 3e13 263f e070 0a3e c0ff aa3e
00000060: 436d 823e c8ad 98be 0eac 7fbe b61d 8fbe
00000070: 0815 7bbe b037 72bc a59b 23bd 8cf3 68bd
00000080: fef8 4c3e 0778 6cbe 10a1 adbe c2e0 c43d
00000090: ec23 f7bd 6fbf 603e dd7b 4f3f 99bd 8dbc
000000a0: 4fa8 933b ea5d 66be 2210 e83e 2bc6 f4bb
000000b0: 2400 3f3e 6ebf 9fbb 4a89 e8bd e0cb 363e
000000c0: f764 803f 9c50 ae3e 30e1 803e 34b5 733e
000000d0: 9fa0 a83e 4b16 47bc f94c 8f3d 7518 303e
000000e0: 1a16 34be b00a 653d df35 04be 4aa6 69be
000000f0: de84 94be 1018 873e 441d 26be 5cab 02be
0.16844401 0.019408813 0.30940387 0.030471055 0.29764327 0.099816985 -0.13799195 0.0010583912
0.07946329 -0.03284739 -0.093159184 -0.17855453 -0.12559737 -0.12281335 0.16767241 -0.091263905
0.031869013 0.0282661 0.14521709 -0.14916416 0.2710028 0.6487311 0.13519621 0.33398247
0.25473985 -0.29820085 -0.24967977 -0.27952355 -0.24519742 -0.014783785 -0.039943356 -0.05687289
0.20016858 -0.23092662 -0.33911943 0.09613182 -0.120673984 0.21948026 0.81048375 -0.017302321
0.004506148 -0.22496763 0.45324808 -0.0074699125 0.18652397 -0.004875115 -0.11354311 0.1785121
1.0030812 0.34045875 0.25171804 0.23799592 0.32935044 -0.012151311 0.06997103 0.1719683
-0.17586556 0.055918396 -0.12911175 -0.2281734 -0.2900762 0.26385546 -0.16222101 -0.12760681

reg.weight f4 [2, 128]
00000000: 1a0e 3140 da14 fdbf a1c6 a33f 5c78 f7bf
00000010: 76c9 8a40 a772 0940 f8dc 31bf e7d0 4a40
00000020: f71b b93f b421 2240 36b0 cd3f 964e 833d
00000030: 694f da3f 0a41 5740 f52a dfbe a206 80bf
00000040: d102 a33f 31da be3f 850d 1440 bc78 8a3f
00000050: 6bf0 2440 b1fc 0a40 50b0 3240 3e51 953f
00000060: a3ee e93f 1340 f83f 2470 283b 6df1 4940
00000070: 4f0c 5ebe 2927 17bf 946c 58bf 5081 8740
00000080: d534 4440 1e46 e43f f3e8 4d40 b4ed 343d
00000090: e24a b23f d47e 0040 b39b 4bbf 16b9 883f
000000a0: d67d 8e3f 481f e13f f87b a33d 7f5f ca3f
000000b0: 8f08 13bf d0f3 7ebf 2ba2 0540 6d05 0440
000000c0: bbe5 7040 8e46 b43f 9190 6ebf 42b7 a33f
000000d0: 2776 7b3d 1410 bf3f ac23 f43f f77b f6bf
000000e0: a299 d23f 0b38 993f fca4 7a3e 805d a73d
000000f0: 649a b13d c3a9 b23c f12a 4240 d6b0 e43f
00000100: dabd d041 c882 d541 d17c cd41 9ed5 d641
00000110: f57c 23c1 85c9 d541 dd30 d741 bb61 d541
00000120: e6a2 26c1 7ada d541 0b3e d641 700e d741
00000130: 832b d841 a83f d641 c47d 24c1 e296 d741
00000140: 843c d241 14f7 d541 74c3 25c1 e0ac d541
00000150: 4dad d541 3572 30c1 5dbc d441 9664 28c1
00000160: d776 23c1 bfb3 d641 c688 d641 ff52 d641
00000170: 358d d641 390a d541 bdbd d641 5180 d641
00000180: 18c6 d041 7afe d441 27fe d641 d730 d641
00000190: 2896 d641 09fb 25c1 8333 5841 75bc d541
000001a0: fc9e d541 9c70 d641 6320 d441 21a9 d641
000001b0: ef60 d441 320f d641 0e30 d641 ee52 d041
000001c0: 2a28 5f41 46ea d441 6248 23c1 6c7a 25c1
000001d0: aa63 27c1 2bc1 d541 fe22 d141 46e0 22c1
000001e0: 59df d641 9dc3 d641 d628 d641 27c8 d641
000001f0: 82b1 d641 0f85 27c1 cf06 d741 25ec d641
00000200: 933b 553a f51b 4fbb a82a f7bb 087e c63d
00000210: a8c3 993a 3ff4 39bb e18d c9bc 3319 cdba
00000220: 6720 0dba 96c8 a3b9 365c 893b 6716 3b3d
00000230: 95b1 89bb 536b 80ba 5715 c93b 8b16 ffba
00000240: e9c8 7c3b 06ea b2bb 4153 883a 853d 873c
00000250: e7ae 0539 f820 26bc b9a8 fd39 337b c2bb
00000260: 992a 3fbb 7e89 91ba 8706 013e ab1d 8dba
00000270: e9da 043f 2be6 58bb 9583 92bc 587f 84ba
00000280: e9f6 ae39 7a52 e1bc 27fe 4cbb 332d ea3c
00000290: e60e c43b aa1b 293b c8dc ca3c ab83 b1bc
000002a0: 0322 07bb 2ba6 5b3d 38ea 87bd 5282 9c3a
000002b0: 77b8 b53c 31a8 a0bb b8dd 91bb c499 163a
000002c0: 61d2 cc3a e982 3f3c 3553 ebba 7c3b 0b3b
000002d0: dff0 103e f06d 733c 73f2 6f39 8695 373b
000002e0: 0c1d 27bd 9727 103b d21b a6be 428d 10bc
000002f0: a961 a0bd 78cd 1cbe cf57 d83b 3fb7 97ba
00000300: 2c58 ee3b cf77 ab3b 9c2a 1cb9 2ae8 62bb
00000310: ecce e13b 3c55 b73a d8d0 9c3b 6446 0dbc
00000320: 0f20 89bc 4ed4 49ba 0d0f 50bc 6953 c23b
00000330: c873 863b 1bd3 293a 792b 14bc 745c a6ba
00000340: 689d d73b e4bc 8abc 5688 b73a 19f2 023b
00000350: d933 5f3b ed19 e03a 898e cbbb ab5d 22bc
00000360: 5a56 113c 9a7a 263b a614 eabb 7f2d 0abc
00000370: 6ecb ecba 3d34 00bc 3cc4 b3b9 54f7 573c
00000380: 8bcf 0f3c 99b2 44ba fcb9 84bb a9f3 04bc
00000390: 917c e43b 5786 a5bc 8e29 fdba 624e 573b
000003a0: 020f 753c ba4d 1a3c 5693 353b 7c50 8fbb
000003b0: 9ff9 063b 103a ecbb d0a0 b7bb fc68 4fbc
000003c0: 431e 6539 4748 6cbb 0c77 be3b a84f d63c
000003d0: 2a6f 9c3c 54cf 9c3b da81 e53b c86b dcbb
000003e0: fd8f a23c d833 ab3b c3cd 8ebc e977 d739
000003f0: b497 b3bb ebe4 0fbc 7dba 4fbb 8c52 ca3a
2.7664857 -1.9771988 1.2794992 -1.9333606 4.3370924 2.1476228 -0.69477797 3.1690004
1.4461659 2.533307 1.60694 0.064114735 1.7055484 3.3633447 -0.4358746 -1.0002024
1.2735234 1.4910337 2.3133252 1.0818095 2.577174 2.171673 2.7920113 1.1665418
1.8275951 1.9394554 0.0025701607 3.1553605 -0.21684383 -0.5904413 -0.8454068 4.234535
3.0657246 1.7833898 3.217343 0.044172004 1.3929102 2.007741 -0.79534453 1.0681484
1.1132152 1.7587671 0.079826295 1.5810393 -0.57434934 -0.9959078 2.088023 2.0628312
3.7640216 1.4084032 -0.9318934 1.2790301 0.061391976 1.4926782 1.9073386 -1.9256581
1.6453135 1.1970228 0.24476999 0.081721306 0.08672026 0.021809464 3.033871 1.7866466
26.092701 26.688858 25.685946 26.854305 -10.218007 26.723398 26.898859 26.67272
-10.41477 26.731678 26.780294 26.88205 27.021246 26.781082 -10.2807045 26.948673
26.279549 26.745644 -10.360218 26.709412 26.70962 -11.027883 26.591974 -10.524557
-10.216514 26.837767 26.816784 26.790525 26.818949 26.629992 26.842646 26.812654
26.096725 26.624256 26.874098 26.773848 26.823318 -10.373788 13.512576 26.71702
26.70263 26.804985 26.515814 26.832582 26.54733 26.75742 26.773464 26.040493
13.947306 26.614391 -10.205172 -10.342388 -10.461832 26.71932 26.142086 -10.179754
26.859056 26.845514 26.76994 26.84773 26.836674 -10.469985 26.878325 26.865305
0.00081341824 -0.0031602357 -0.007542927 0.09692007 0.0011731284 -0.0028374342 -0.024603786 -0.0015647769
-0.00053835515 -0.0003123923 0.0041919006 0.04567566 -0.0042020776 -0.000979761 0.006136577 -0.0019461674
0.00385719 -0.0054600267 0.0010400788 0.016508827 0.00012749025 -0.010139696 0.0004838163 -0.0059350966
-0.0029169677 -0.0011103598 0.12600146 -0.0010766288 0.5189653 -0.0033096175 -0.017885009 -0.0010108752
0.0003337183 -0.027505148 -0.0031279416 0.028586006 0.0059832213 0.0025803843 0.02476348 -0.02166923
-0.0020619638 0.053625267 -0.066364706 0.0011940694 0.022182686 -0.0049028625 -0.0044514798 0.0005744959
0.0015626663 0.011688926 -0.0017953875 0.0021245172 0.14154385 0.014857754 0.00022883136 0.0028012707
-0.040799186 0.0021996254 -0.324431 -0.008822741 -0.07831127 -0.15312755 0.0066022645 -0.0011574997
0.0072736945 0.005232788 -0.00014893193 -0.0034623244 0.006891122 0.0013987194 0.0047856383 -0.008622739
-0.01673892 -0.00076991774 -0.012698901 0.0059303534 0.0041031577 0.00064782955 -0.009043568 -0.0012692348
0.0065800436 -0.016935773 0.0014002423 0.0019980727 0.0034058003 0.001709757 -0.00621206 -0.0099100275
0.0088706855 0.0025402666 -0.0071435748 -0.008433699 -0.0018065998 -0.007824955 -0.00034287747 0.013181526
0.008777509 -0.000750342 -0.0040504914 -0.008114734 0.0069728573 -0.02020566 -0.0019314752 0.0032853116
0.014957191 0.0094179455 0.0027706227 -0.004373608 0.0020595563 -0.00720907 -0.005603887 -0.012659308
0.00021850415 -0.0036053823 0.0058125313 0.02616103 0.019095976 0.0047854576 0.007004005 -0.0067267157
0.01984405 0.005224686 -0.0174321 0.00041097336 -0.005480731 -0.008782606 -0.003169685 0.0015435978

reg.bias f4 [2]
00000000: b591 5d3e a184 de3e
0.21637614 0.43460563
