server/model2/value_model_minmax20.pt (torch, 255287 bytes, 12 tensors)

conv.0.weight f4 [4, 1, 3, 3]
00000000: 7c5d 7c3e d49b b5bd b53c 7f3f 9ea1 113f
00000010: 6ee3 813e 3792 0f3f 91c4 013f f445 30bf
00000020: 8556 4bbc 3404 94be 4344 643e bf37 71bd
00000030: 62d6 913e 20ab 803f 8060 45bd 789a 0c3f
00000040: 3249 07bf 1197 cb3c b8b5 5a3e b67e 033e
00000050: d623 02bf d24f c3be cb7f 0c3f 0ca7 993f
00000060: 906e 88bd bd27 0bbf ffa8 b13e dea7 3f3f
00000070: 5c8a 48bf d70f 3a3f 6bdb 863e 29cf fe3b
00000080: 7add 3c3f 265c 0a3d 97a0 2dbe abb1 05be
0.24645036 -0.088676125 0.99702007 0.56887233 0.25368828 0.5608248 0.5069056 -0.6885674
-0.012410765 -0.28909457 0.22291665 -0.058891054 0.28483874 1.0052223 -0.048187733 0.549232
-0.5284606 0.024852308 0.21358383 0.12841305 -0.5083593 -0.38146836 0.54882497 1.2004104
-0.06661713 -0.5435751 0.34699246 0.7486552 -0.7833612 0.7268042 0.26339278 0.0077761603
0.73775446 0.033779286 -0.16955791 -0.13056056

conv.0.bias f4 [4]
00000000: 090c 223f a33a 663d 0cc9 013e 0e4d 103f
0.63299614 0.056208264 0.1267435 0.56367576

conv.2.weight f4 [4, 4, 3, 3]
00000000: fa6d 363d deff 353f 19e6 7d3e 9356 643f
00000010: f07f 363e 1ec3 c33e f0bd 6f3e a779 703e
00000020: da8d d63d f08a 153f 2f63 383e 45ce d83e
00000030: ec71 9a3f d9ad 57bf 6a1f 103e b3f6 3ebe
00000040: f618 7c3e 7830 a1be 6301 af3e 6c1d f53e
00000050: 5147 883e 8c1f 263f 2c21 3abe 34fe cc3d
00000060: f785 be3d 8476 7cbe f825 243d fcf0 813e
00000070: 5bf7 e33e 86aa f23e ff85 0c3f 8607 343e
00000080: ee4c 483f 7ba7 943e af19 063f a6fb 9bbb
00000090: fd07 973e 2fea 363c 01e3 5bbf 63de ec3e
000000a0: 7add bb3d 9900 cfbe a958 dd3e 4dd5 123f
000000b0: 4526 23be c84f 96be f030 a93e 3abf 64bf
000000c0: 395a c93d ccad ec3e cba7 983e ef60 25be
000000d0: 338e 883c 811c b8be 2bac 363e 4db1 fcbd
000000e0: 076c 0dbe 0d7f 903e 2def 02bf 471c e6bf
000000f0: 2c8f 5c3c 4f6c acbe 2840 713e bcc1 e93e
00000100: b445 e4bd 1b25 00bf be15 9d3e b355 063f
00000110: 5461 b7bf 4148 a93e 38a3 583f 76ad 4abf
00000120: 1541 fb3e e23c 4c3d 56f1 553e a2b1 133f
00000130: b64f 163f d349 89bd bf41 1b3f 0bac 4f3e
00000140: ac3a 1e3f f451 3f3f f7b9 573e 2405 05bf
00000150: 52e3 943e bad9 8a3e fba0 f1be e344 89be
00000160: c088 70bc 78f7 863e c835 083f 40ee 023f
00000170: 02e8 a3bf 7b42 8e3e 4a5c b53d f7d5 7f3d
00000180: 09d0 193e 594b 68be 6ba3 b33d aba6 213f
00000190: 9b8c 293e fc69 16bf 2d81 c33e 33d9 e73e
000001a0: 703c 213f 06d1 0d3f 083a 983e c257 cc3e
000001b0: c39d ec3d 88bc 7f3f bb42 9b3d d402 c83e
000001c0: 4ed3 753e ba3a e33e 7a60 8f3e aa54 ea3e
000001d0: b774 933e 52c3 3c3e 440c e83e 4cca fe3e
000001e0: 4c46 bd3e e9de cc3d ed3a 37bd 69e8 5d3e
000001f0: aa87 05be c585 e23e 4072 143e c8a5 2e3f
00000200: ab0a 22bf fcf8 b03e 328f 493e dff0 54be
00000210: de77 3b3e 9459 f23b 5c7e 0d3e 82ec 433e
00000220: b59e 1d3e ea81 f83e 9b27 e83e c11f 8d3e
00000230: 7798 373f 34a5 493e 762d d53e a0e2 b63e
0.044538476 0.7109355 0.24794807 0.891946 0.17822242 0.382348 0.23412299 0.23483907
0.10476275 0.58415127 0.18006586 0.4234487 1.2066016 -0.84249645 0.14074484 -0.18648796
0.24618897 -0.3148229 0.34180745 0.4787401 0.2661691 0.64891887 -0.18176717 0.10009423
0.093028955 -0.24654585 0.040075272 0.2537917 0.44524655 0.47395724 0.5489196 0.17580995
0.78242385 0.29034027 0.5238294 -0.0047602234 0.29498282 0.011164232 -0.85893255 0.46263418
0.09173103 -0.40430143 0.43231705 0.5735672 -0.15932567 -0.29357743 0.3304515 -0.8935429
0.09831662 0.46226346 0.29815516 -0.16150258 0.016669368 -0.35959247 0.17839114 -0.12338505
-0.1381074 0.28221932 -0.51146203 -1.797738 0.013461869 -0.33676383 0.2355963 0.4565562
-0.11146107 -0.5005662 0.3068065 0.52474517 -1.4326577 0.33062938 0.8462405 -0.7917093
0.4907309 0.04986275 0.20892844 0.5769292 0.5871538 -0.06703534 0.60647196 0.20280473
0.61808276 0.74734426 0.21067034 -0.5196097 0.29079682 0.27119237 -0.4719313 -0.2681037
-0.014681041 0.2636068 0.53207064 0.5114479 -1.2805178 0.27785096 0.08855493 0.062459912
0.15020765 -0.22684993 0.08771404 0.6314494 0.16557543 -0.5875547 0.3818449 0.45282897
0.62982845 0.5539707 0.29731774 0.39910704 0.11553528 0.9989705 0.07581087 0.39064658
0.24006388 0.44380742 0.28003293 0.4576772 0.28799984 0.18433884 0.45321858 0.49763715
0.36967695 0.10003454 -0.04473393 0.21670689 -0.13040033 0.44242683 0.14496708 0.6822171
-0.6329753 0.3456496 0.19683531 -0.2079501 0.18307444 0.0073959325 0.13817734 0.1913319
0.15392573 0.48536617 0.45342717 0.2756329 0.7171702 0.19691926 0.41636246 0.35719776

conv.2.bias f4 [4]
00000000: 8fd2 983e c1b8 243d 871a 953e c1fc 793d
0.29848143 0.040215258 0.291218 0.06103206

conv.5.weight f4 [64, 36]
00000000: 6b4c 02bd 3de1 113d 4d74 023d ec83 6cbe
00000010: 3dc8 e83c 46e0 98bd 1f7e 1d3e 57f2 c9bd
00000020: 3005 edbd 1431 a43e aeac 26bf 6f15 003e
00000030: ab5c 013f e19a 32be de4c 9b3c d59f 83be
00000040: 679b 813d bf01 e9bb 320d dbbd 2654 18bd
00000050: d3f4 ce3d e3d3 91bd 7e0c 8e3d 8813 9bbb
00000060: 7811 b93d c0f1 59bd e503 f3bd 70c7 32be
00000070: cd6e 453d 62e2 3f3d 7267 afbd 1308 c83d
00000080: f900 573c 25c1 f3bc 0a9a bb3c dafd 333c
00000090: 49f8 e9bc 28e2 1bbe 5730 2ebe 31f8 993d
000000a0: 0eba 2b3e 03a8 bd3e 7331 28be 8265 23be
000000b0: cb45 0e3e 4cc9 34bd 5b7a f9be 5b7d 96be
000000c0: b12c 6a3d 2dbc 9a3e a86c d7bc 51a2 f23d
000000d0: 5496 003d 2aa8 78bf d383 96be 5690 18bd
000000e0: 272f df3d 87bc 173e ce5f df3d c355 0d3e
000000f0: 2e5d 1a3e 1a35 473e 0f2b 2dbf d0bd 8fbe
00000100: 0f81 d93d 9fc2 51bd e3f2 973e 37d5 cc3c
00000110: ea9e 01bf ed5d 6abd 41bf af3c cced 3bbf
00000120: b830 edbe c6e3 1e3e f917 0c3f 26bc 28bd
00000130: 4809 15be 978d 2d3c cabb df3c f6c3 1f3e
00000140: 385c a13e 97b0 36bf 1374 86be 64ad dc3d
00000150: cc1a 8dbc fda8 2d3f a5a7 0b3f 8ac8 e73e
00000160: 16c7 7a3e 9fc2 833d e7d1 2bbf 8d5b 2cbe
00000170: 1411 80bf 453d 3f3f c4a7 353e b938 f63e
00000180: 50fa 813f 408c 5abd 493f 813d e353 973f
00000190: bdb2 283e 5d8e 273e 493f 1a3f 5fa4 47bf
000001a0: f344 35bf 02b4 a63c 3d41 23bf fe80 45bd
000001b0: f087 883e e8e3 af3d bb23 14bf 49d4 f03d
000001c0: 6efa e0bc 08a9 c33a 2535 8abc 4002 c8bd
000001d0: f0e8 063e 4316 20be 4569 5d3e 8edd e23e
000001e0: 2880 59bd d5d8 e8bd c75b 27c0 b43f 4d3e
000001f0: 6a44 ba3d e090 093f 7c1a 283d 5f01 6cbe
00000200: 21a7 693e bed6 67be ea88 febd a068 e9bf
00000210: 07ad 08be f602 ae3d 707b 0640 0ee1 2fbe
00000220: 1ec4 1bbd 8e7d 10be 0794 f73d d9e5 50bd
00000230: c2a0 c5bc f38a 57bd 87a4 1d3d f341 313e
00000240: b978 d93d 651d d43e 6ee2 413c 0169 0bbe
00000250: 6d80 1c3d 287a cb3e bdfb 34bf dbea 92be
00000260: 9c8c ef3e 60ba 2abf 0783 833e e8ee b3bd
00000270: f849 e3bd b1fd fa3e d8f0 17bf 0c06 aa3e
00000280: 00ce fa3e d38a b6be 8b07 80be 8587 c5bd
00000290: 0f48 ab3e a89c 19be d2bf 143e 672e 58be
000002a0: 7518 a93e 99fc 363f c42e 5ebe cb07 143e
000002b0: dc16 e83e dd92 fa3e df1a 803e 3830 96be
000002c0: 5865 81bf 5df3 a23d c86b 1fbe c2f1 3fbf
000002d0: b3d6 c43e bdf7 703e d9da 063e 1c85 70be
000002e0: 4a14 c03e 3565 0bbb 6ffb b7be ded8 04be
000002f0: 283f 2c3f 8c04 e7bd bc32 4fbe 19cb 9cbf
00000300: 6f22 1dbe 2c26 ef3d d7c2 02bf 1c28 efbe
00000310: affd bebe 9c4d 98be eb4f b0bd 4045 113e
00000320: dbab 083f 6745 333e 1c50 033d 77d3 8e3d
00000330: 13cb cf3e d305 70be 540b bd3e f9af 01be
00000340: fdcd bf3d 16c8 e43e 2ddd 543d 8f8c b8bc
00000350: 1c67 f6be 4f96 fcbd 1604 1e3a e016 a43e
00000360: 5c6a 8d3d 8510 823e ec34 823e 3903 183e
00000370: 4e14 033f ce76 ee3e ce81 653e 8f4a 3e3e
00000380: ba06 723e e7a0 db3e a69b 91be 3e8e f23e
00000390: a93e d93d 2ca3 23bf 27a5 803f c019 503e
000003a0: bc02 183e 767b 4e3e 4b15 053f 548b 0b3f
000003b0: 6b73 a53e e74f 8d3e 0291 683e 6b05 5f3f
000003c0: fa4e 193d a3bd 853e b616 d1be 0997 e03e
000003d0: 9d95 323e 0ba3 6a3e 349e 223e 5ebf a23e
000003e0: 67ee 313f 8386 2a3e cc92 c03e 03d4 933e
000003f0: d4aa d63e 13b2 743e 028b 37be 0ecd 3b3d
-0.03181116 0.035615195 0.031849194 -0.23097199 0.028415794 -0.07464652 0.15380143 -0.09860676
-0.11573255 0.32068694 -0.6510724 0.12508176 0.50532025 -0.17441894 0.018957552 -0.2570788
0.06328469 -0.007110804 -0.10695876 -0.037189625 0.1010529 -0.07120492 0.069359764 -0.004732553
0.09036535 -0.053209066 -0.11865977 -0.17458892 0.04820137 0.046846755 -0.085646525 0.09767165
0.0131227905 -0.029755184 0.0229006 0.010985816 -0.028560774 -0.1522299 -0.17010628 0.07518042
0.16770193 0.37042245 -0.16425113 -0.15956691 0.13893811 -0.044137284 -0.48726162 -0.29392514
0.057171527 0.30221692 -0.026296929 0.11847366 0.031393364 -0.971316 -0.2939745 -0.037247024
0.108976655 0.14818011 0.10906945 0.13802247 0.15074608 0.1945385 -0.6764383 -0.28074503
0.10620319 -0.051210996 0.29677495 0.025004013 -0.5063311 -0.05721848 0.021453502 -0.73409724
-0.46326232 0.15516576 0.5472408 -0.041195057 -0.14554322 0.01059284 0.027311224 0.15602097
0.3151567 -0.71363205 -0.26260433 0.10775259 -0.017224692 0.6783598 0.5455268 0.45270187
0.24490008 0.064336054 -0.6711716 -0.16831799 -1.0005212 0.74702865 0.17739779 0.4809015
1.0154514 -0.05335641 0.06310899 1.1822475 0.16474433 0.16362901 0.60252815 -0.77985185
-0.70808333 0.020349506 -0.6377142 -0.04821872 0.26666212 0.085883915 -0.5786702 0.1175924
-0.027463164 0.0014927695 -0.016871044 -0.09766054 0.13174796 -0.15633492 0.21622188 0.44309658
-0.053100735 -0.113694824 -2.6149766 0.20043832 0.0909508 0.53736687 0.041040882 -0.23047398
0.22817661 -0.22640511 -0.12428458 -1.8235054 -0.13347255 0.084966585 2.101284 -0.17175695
-0.03802883 -0.14110395 0.12088781 -0.05100045 -0.024124507 -0.052622747 0.038486984 0.17310314
0.10618729 0.41428676 0.01183377 -0.13614275 0.038208414 0.39741635 -0.7069662 -0.28694806
0.46786964 -0.66690636 0.25685903 -0.08785802 -0.11098093 0.49021676 -0.59351873 0.33207738
0.4898529 -0.3565279 -0.25005755 -0.09644989 0.33453414 -0.15001166 0.14526299 -0.21111451
0.33026472 0.71479183 -0.21697527 0.14456098 0.4532994 0.48940173 0.250205 -0.29333663
-1.0109053 0.07956574 -0.15568459 -0.7497827 0.38445053 0.23532005 0.13169421 -0.23488277
0.3751548 -0.002127004 -0.35934016 -0.12973353 0.6728387 -0.11280164 -0.20234197 -1.224948
-0.15345167 0.116772026 -0.5107855 -0.4671029 -0.3730292 -0.2974671 -0.08608993 0.14186573
0.5338723 0.17506944 0.03205882 0.069739275 0.4058462 -0.23439722 0.36922705 -0.12664784
0.09365461 0.44683903 0.051968742 -0.022527961 -0.4812554 -0.123333566 0.00060278305 0.32048702
0.06905052 0.25403228 0.25431 0.1484498 0.5120286 0.46575016 0.22412798 0.1858313
0.23635378 0.42896196 -0.28439063 0.47374147 0.106076546 -0.63920856 1.00504 0.20322323
0.14844793 0.20164284 0.51985615 0.5450947 0.3231462 0.27600023 0.22711566 0.8711764
0.037428834 0.26121244 -0.4083764 0.4386523 0.17439885 0.22913758 0.15880662 0.31786627
0.695044 0.16652875 0.37611997 0.2887269 0.41927207 0.23896055 -0.17924121 0.045849852

conv.5.bias f4 [64]
00000000: 5108 c3bd 5448 81be 0ea1 31bf e57b 5abe
00000010: 58d5 c8bd 448c 77be b1c8 113f 2460 dc3d
00000020: 61f3 01bf 140b 6bbe fab2 12bf a1e4 54c0
00000030: 613b 0dbf 2d5c 30bf aa5a 523e 3a85 05bf
00000040: aa78 843c 5beb 28bf 948b 2bbf a411 21bc
00000050: 7079 50c0 e952 eebe 7dee e2be ea8d f0be
00000060: c42a 3bbf 9ee0 2fbf 7341 20bf 2de3 3ec0
00000070: d66b bfbe 2760 fabc 5122 823f df14 1fbf
00000080: eeff 29bf 5716 ccbd 33d6 1ebf 2bd8 54be
00000090: 6d8d debf 7ad9 49c0 1897 263f 2b25 12bd
000000a0: dd91 a9bc 884b e1bd 9736 1abe 6ed2 e2be
000000b0: d7f6 aa3e 7e2f 15bf ca25 32bf bcd5 ad3e
000000c0: 6485 16bf dfcb 2cbf a10e 57be 0176 c5be
000000d0: 4b25 19bf 3e8b aebe 1271 98bd 4afc f0be
000000e0: 676f 51be a46d 5cbd e70e 55bf 4e54 b3be
000000f0: 1c93 42bf b759 1ebf 7204 2abf 2145 1cbe
-0.095230706 -0.25250494 -0.69386375 -0.21336325 -0.09806317 -0.24174601 0.56946856 0.10760525
-0.5076199 -0.22953445 -0.57304347 -3.3264544 -0.5516873 -0.6889065 0.20542398 -0.5215641
0.016170818 -0.65984124 -0.67009854 -0.009830866 -3.257412 -0.4654763 -0.44322577 -0.46983272
-0.7311213 -0.68702114 -0.6259987 -2.9826157 -0.3738696 -0.030563427 1.0166723 -0.6214122
-0.6640614 -0.099651985 -0.6204559 -0.20785587 -1.738691 -3.1538987 0.650743 -0.035679977
-0.020699436 -0.110007346 -0.15059887 -0.4430117 0.3339145 -0.5827559 -0.6958891 0.3395213
-0.5879729 -0.6749858 -0.21001674 -0.38566592 -0.5982253 -0.34090608 -0.074434415 -0.4706748
-0.20452653 -0.0538155 -0.83225864 -0.35025257 -0.7600572 -0.61855644 -0.66413033 -0.15260746

linear.1.weight f4 [256, 169]
00000000: 0047 c13b 3ae0 203d 0a75 723d 1ebe 5d3d
00000010: a826 d1bc b62c b5bc 740c 013d 34d2 1d3d
00000020: c657 563d 4185 c9bd b87c 783c 706a 39bc
00000030: f0d2 033d b6df 463d 40e9 09bb f851 6fbc
00000040: 9095 ce3b 54ef 34bd c052 9abd 40b7 aabc
00000050: dd5c 973d 4ae0 0fbf 280c 993e f05f 4e3c
00000060: 9471 82bd 78bb 86bd ec2a 8bbc 18fd 1c3d
00000070: 4040 d03c 401e 32bb c4f8 f33c 802c 2bba
00000080: 2a2a 36bd 6276 72bd 6c63 adbe 6c69 1abf
00000090: 64ab a03c 10bd ab3c d471 2ebd 2eb0 7e3d
000000a0: 9ccb 323d dc49 64bd 154d be3d 4ec4 9f3e
000000b0: 4bcc 013f 5bf6 143f 9241 bb3d 7881 20bf
000000c0: dff9 893e c6b1 b2be 55a0 e13d 6a9b 863e
000000d0: 3e54 253d 9219 4d3d d8b2 04bc abab 503e
000000e0: 2561 b5be 8d82 533f e8c0 943e 6861 e43e
000000f0: 2591 cf3d bb40 0abf ea98 1cbf c377 03bd
00000100: d2d9 53bd a232 d3bc 96b6 41bd 25f9 1dbd
00000110: fad8 0bbb fa9a 80be 3417 fc3e 1574 213f
00000120: 087e 833f 63a1 c13e 9b4a 8c3f 849b a9bd
00000130: 8a1f 58bd 80c3 013d 6466 ed3c 60d0 12bd
00000140: 40fe e83c 6473 f73e 8c89 01be f34f 3cbe
00000150: bb3c 31be 7e33 acbe 89c9 1bbf b613 133f
00000160: 4656 213d 2edd 4f3d 54a2 08bd 8598 11bd
00000170: 7aa6 99bd 58af 2cbe cc21 cbbe ea79 80bd
00000180: 3783 a13e 5337 d33c fdc9 c53e 676d 37be
00000190: 248f 8bbe 0e6b 5d3d 40ab 72bd 50d6 8ebc
000001a0: 087e 3fbc c852 ac3c 5308 ce3c 59e5 123c
000001b0: c583 a4bc c3e6 44be 255e 81be abba eb3d
000001c0: 64a9 eb3e 611f 69bd 30e7 d83c bc3a 3f3d
000001d0: 2446 debc b15a 0ebe 7dd5 1bbe 124e 0fbf
000001e0: 7b31 513e 1a8c 573c 9a26 f63c b14b 1abe
000001f0: 26f0 9c3e 40d2 f23d feac 3d3d d652 6b3d
00000200: 8832 02bd e180 8b3d 6ecf 4c3d 767b debc
00000210: e72a 823d 04fb c43e 4682 a33e 95d0 90be
00000220: 4a28 18bd 7241 4d3d 183d 2d3c 8092 38bc
00000230: bb6d 00bd 0278 783d f77d 8d3d 6a5a 2dbd
00000240: 28ff 1c3d 2a5b 3c3d f82d 19bf 3c3b fa3d
00000250: ecf6 e53c 4011 8b3b a012 2b3c 782c 1fbc
00000260: 5471 f43c e663 793d 3695 493d 8a91 033d
00000270: 7497 79bd f89b 903c 4668 3cbd 8841 2b3c
00000280: bc3f 013d 5082 ebbb 9f01 92bd 769f 6a3d
00000290: 9964 49bd e827 b43c 0a4d 4b3d e47e 953c
000002a0: 70d6 1d3d bec3 6d3d 0f80 8ebd d661 8abd
000002b0: 3808 383c 28ba e93c 5d06 8ebd d884 5a3c
000002c0: 7b94 16bd 950b 8bbd 5cb4 4e3e e81c 3c3d
000002d0: 605f 17bb 0621 54bd d41d b6bc 50a8 22bc
000002e0: 1474 a0bc bed6 223d 323c 8ebc 9656 5bbd
000002f0: e6d1 3dbd bb58 803d 3325 4bbd 1cd0 a9bd
00000300: 5912 08bd aced 9a3c e66e 7bbd 1993 75bd
00000310: 7a28 6b3d 80b2 7e3a 6c7f c0bc 400b db3c
00000320: 1b86 1fbd 9062 eebb d4ac d4bd cc11 ed3d
00000330: bdd8 223d 2c26 933c 4029 da3c 8049 4f3b
00000340: a025 8d3b 205c 0f3d e894 8cbc 3352 00be
00000350: c3ee ea3e 0027 f83d 07bb 6f3d 366a 4cbe
00000360: 7de0 023f 8e09 71be a25f a93e 0c48 243e
00000370: 7dc7 e8bd b201 36bd 3cb1 dfbc cdf4 78bd
00000380: 6a23 88be c6e7 5b3e c0bb a83e fc05 3dbf
00000390: 560a 1a3f ca0e e2be 60d0 a7bc e5b3 183e
000003a0: 460b cebe 1e2a 2abd d658 5c3d 8ac4 f2bc
000003b0: b955 46bd e827 da3e c089 613d 41e3 1dbf
000003c0: 2039 4cbd ce46 5dbe 20ff 79be 0a58 67be
000003d0: 56cf 033f 3bad 27bd 9b37 8a3d 9e96 b1bc
000003e0: 3ef7 213d 76c3 473d 0c9a 403e fb6a 9dbe
000003f0: c07f 443e fda5 b33e c2af 5dbd f422 25be
0.0058983564 0.03927634 0.05919365 0.054136388 -0.025531128 -0.022116046 0.031506017 0.038530543
0.0523298 -0.09839869 0.015166454 -0.011316881 0.032183588 0.04855319 -0.002104357 -0.014606945
0.0063044503 -0.044173554 -0.075353146 -0.020839334 0.07390759 -0.5620161 0.29892087 0.0125961155
-0.063693196 -0.065787256 -0.01698824 0.038327307 0.025421262 -0.0027178675 0.029781707 -0.00065297633
-0.044473805 -0.05919493 -0.33864915 -0.6031711 0.019612975 0.020964175 -0.042589024 0.062179737
0.04365121 -0.0557345 0.09292046 0.31204456 0.5070235 0.5818841 0.09143366 -0.62697554
0.2694845 -0.34901255 0.11016909 0.26290447 0.040363543 0.050073214 -0.00809928 0.20377986
-0.35425678 0.8262108 0.29053426 0.44605565 0.10135106 -0.5400502 -0.6117083 -0.032096636
-0.0517214 -0.02578098 -0.04729327 -0.03856768 -0.0021339045 -0.25118238 0.49236453 0.6306775
1.0272837 0.3781844 1.0960268 -0.082816154 -0.052764453 0.031680584 0.028979488 -0.035843253
0.028441548 0.48330224 -0.12650126 -0.18389873 -0.17308323 -0.33633035 -0.60854393 0.5745195
0.039388917 0.050748043 -0.033357933 -0.035545845 -0.07502456 -0.16863763 -0.39674222 -0.06273253
0.3154542 0.025783217 0.38630667 -0.17912827 -0.27257645 0.054057173 -0.059245348 -0.017436177
-0.011687763 0.021035567 0.025150454 0.008965814 -0.020082364 -0.19228654 -0.2526714 0.115102135
0.46027672 -0.05691469 0.026477426 0.046686873 -0.027133055 -0.13901784 -0.15218158 -0.559785
0.20429032 0.013155961 0.030047704 -0.15067936 0.3065197 0.11856508 0.046307556 0.057452045
-0.03178647 0.06811691 0.050002508 -0.02715848 0.06355839 0.3847276 0.31935328 -0.28284135
-0.037147798 0.05011124 0.010573648 -0.011265397 -0.031354647 0.060661323 0.069087915 -0.042322554
0.038329273 0.04598538 -0.5983577 0.12218329 0.028071843 0.0042439997 0.010441452 -0.009715192
0.029839195 0.060886286 0.049214564 0.03212122 -0.060935453 0.017652497 -0.04599788 0.010452636
0.031554922 -0.0071871653 -0.071292154 0.05728098 -0.049168203 0.021991685 0.049634017 0.018248983
0.03853458 0.058048002 -0.06958019 -0.06756942 0.011232428 0.028531149 -0.069348074 0.0133373365
-0.036762696 -0.067893185 0.20185989 0.045926005 -0.002309762 -0.051789306 -0.02223102 -0.009927824
-0.0195866 0.039755575 -0.017362688 -0.05354937 -0.046342753 0.06266924 -0.049596023 -0.08291647
-0.033220623 0.018912159 -0.061385058 -0.059954736 0.05741165 0.00097159296 -0.02349826 0.026738763
-0.038946252 -0.007274933 -0.10384527 0.1157566 0.03975748 0.017962538 0.026630998 0.0031629503
0.0043074638 0.034999967 -0.017160848 -0.12531357 0.45885286 0.12116814 0.058527973 -0.19962391
0.5112379 -0.23538801 0.33080775 0.16043109 -0.11366174 -0.04443521 -0.027306192 -0.060780335
-0.2658952 0.21475133 0.32955742 -0.73837256 0.6017202 -0.44151908 -0.020485103 0.14912374
-0.40242976 -0.041544072 0.053795658 -0.029634733 -0.048421595 0.4260857 0.05506301 -0.61674887
-0.049859166 -0.21609041 -0.24413729 -0.22592178 0.51488245 -0.04093669 0.06748887 -0.021678265
0.03954243 0.04877039 0.18808764 -0.30745682 0.19189358 0.35087577 -0.054122694 -0.16126615

linear.1.bias f4 [256]
00000000: 7cde 52be eb04 e8bd eece a73d 2661 203e
00000010: 755b 79bd b7e4 2ebe 64bd 5d3e c907 40be
00000020: bf12 74be e121 c2bd ce94 0b3e 62ff 293e
00000030: 49d9 473e ed4d 00be ada6 073e c0ca 093c
00000040: cd45 4e3d d0f0 08be e1f9 95bd 26b5 58be
00000050: 3b27 45bd 0d2c 7cbe 5510 6bbe 6408 783d
00000060: 975d cebe 3ce7 38be 9f69 293e ffae bf3d
00000070: 233b 03be e958 0b3d 429e 92bd ae07 923e
00000080: 3657 1dbf f49f 22bd 7c04 c23d ab1c afbb
00000090: 5e0e bf3d 2439 703e eed6 08bc dcbc f2bd
000000a0: 6a2b 8c3d eea0 143f 92c3 39bd 37e9 a03e
000000b0: aa8a cbbc 2c7d 62be 97ec 293e 663c dbbe
000000c0: c99b 8d3e c245 ee3d 4460 ff3c a674 d63d
000000d0: 23d9 bc3d 2ad9 073e 4100 d23d ae39 9dbe
000000e0: 1513 f93b 876c ed3b d8ba f6bd 5217 8bbc
000000f0: 0f81 9ebe 5a5c 4abf 8391 6e3e 8835 ba3e
00000100: 6a77 81bd 05f9 f83b 44b5 c7bd 1624 7b3c
00000110: 1b7f 94bd 05b0 0b3f 7f58 163f 0d81 19be
00000120: f988 5f3d cd05 79be d2fe 81bc e1c5 86bd
00000130: 2a3e 41be 1150 5cbd b4b4 fa3c fa9f 4c3e
00000140: 56d4 f03d eb5f 033f 4d36 043e 9548 72be
00000150: 0ce8 86be 8bb8 a5be 6f0e 25be 5df6 de3c
00000160: faa8 e3be 7fce 64be 9bfa 83be c33d ad3a
00000170: 8fc8 4a3e ae8e fc3c 1897 2dbe ebd2 583e
00000180: 1e8a 503c c27f 663c 7fdd 8f3e 85bf 163e
00000190: f027 aa3e c3b7 8bbd f929 97be aa25 c3bd
000001a0: db41 20be af4e 90bd 75bc 73be 1dbf 1dbe
000001b0: 8a32 abbe ea80 23be eb3d 0ebf 6d44 06be
000001c0: 77dd f1bb f2c7 6fbd 7847 44bd 5609 3b3e
000001d0: f340 e2bc b23c 58bd 5483 0b3e b1e3 e4bd
000001e0: c810 583e 96fd d53c a741 583d 0323 9abc
000001f0: 023c 13be eb93 69be b7b1 483d 9157 bcbd
00000200: d3b2 03be cb03 f8bd 5be0 fb3d 581b 13bf
00000210: 1d79 f53e e95c 31bd 16be 43bd bf0b 75bd
00000220: a0f2 883d 9b60 3fbd c1ef d03d f013 853e
00000230: 37ae c6bd 02ef f1bb 9a0c cd3d 50cf 83be
00000240: 0c28 06be 09b3 d4bd 3e76 c8bd 2fe1 e53e
00000250: a29b 8dbe 1d39 593d 4c02 c33e 86a2 36be
00000260: 12f1 c7be 2c8c eebe 2927 94bc 1c1f 943d
00000270: 5a0e eabd 520f aebd 4246 d33d 002c ca3c
00000280: ed33 31be 6b4f 08be 48a6 6abe 020b c6be
00000290: d0e1 bc3c a1e8 883d 3e8f 7f3e e369 f7bc
000002a0: 4b7f 4d3d 105a 853b 30b1 0b3d cd9f 5dbe
000002b0: 3c4b 4d3e 0d1d cb3d 7f15 0fbe 6ec0 2fbd
000002c0: 344d 863e c671 803d fc68 bf3d 3451 cfbd
000002d0: 889d 80bf e4f1 9abd 7ed7 1b3e 302a 3a3c
000002e0: d986 03be 50c8 a9be 12b2 653d 99b6 c53d
000002f0: 5a50 ddbe 3aa5 3cbd db06 11be 5718 dcbe
00000300: 992b 7d3d ca91 2bbe 4c75 52be 4c18 d3be
00000310: 5f4d 063f aae8 c5bd 2312 d5be ebe6 12be
00000320: b295 4b3d eff8 5fbe c55d bfbd e879 95bd
00000330: 12be 9cbe f4a1 86bd 804f 21be 21c8 893e
00000340: 8e93 afbe 0f8a d33d 02ac ffbe 6d94 b6bc
00000350: bb23 76be c776 a83e 9824 0cbf 2772 71bd
00000360: 383a 393d b4c8 b93d e805 9cbe ac2c ca3e
00000370: cd21 563d 9818 7e3d 50ce abbd 057d a0be
00000380: 418f 4cbe 2578 14be b4fd be3a f9b5 92be
00000390: a1f8 303e 0e43 253e a3ab 1a3f 7666 c6bd
000003a0: 2ae1 6fbd 4bed edbd ff9c 3abe f233 90be
000003b0: 5945 c3be d335 afbe 61f5 98bd 98a7 813d
000003c0: 0c69 c6bd 237b d3bc 2c0c a93b 1f7a b8bb
000003d0: 0d55 073d 3e22 aabd e0fb 353d 6afa 8d3e
000003e0: b90d 87bd 9ff5 a3be b085 633e 9519 d0bd
000003f0: a479 5c3e 33b8 393e 8887 0f3d 517d 88be
-0.20592684 -0.11329063 0.081937656 0.15662059 -0.060878236 -0.17079435 0.21654278 -0.1875297
-0.23835276 -0.09479118 0.13630983 0.16601327 0.19516481 -0.12529726 0.13247176 0.008410156
0.050359536 -0.13373113 -0.07323051 -0.21162853 -0.048133116 -0.24626179 -0.22955449 0.060554877
-0.40305778 -0.18056959 0.16544197 0.0935955 -0.12815528 0.03402034 -0.071590915 0.28521484
-0.614612 -0.039703324 0.094735116 -0.0053439937 0.09328912 0.23459297 -0.0083520245 -0.11852428
0.06844218 0.5805806 -0.045352526 0.3142793 -0.024846394 -0.22118062 0.16594158 -0.42819518
0.27657917 0.11634399 0.031173833 0.10471468 0.09221103 0.13266435 0.10253955 -0.3070807
0.0076011517 0.0072456035 -0.12047356 -0.016978893 -0.3095784 -0.7904717 0.23297696 0.36368966
-0.063216045 0.007598045 -0.097513705 0.015328428 -0.07250806 0.5456546 0.58728784 -0.14990635
0.054573987 -0.24318619 -0.015868578 -0.06580711 -0.1887137 -0.053787295 0.030603744 0.19982901
0.1175925 0.51318234 0.12911339 -0.236605 -0.26348913 -0.32367358 -0.16118787 0.027217085
-0.44464856 -0.22344397 -0.25777134 0.0013217259 0.1980307 0.030829754 -0.16952169 0.21174209
0.012728242 0.014068546 0.28098676 0.14721496 0.33233595 -0.06822159 -0.2952421 -0.09528668
-0.15650122 -0.07046258 -0.2380236 -0.15404935 -0.33436996 -0.15967146 -0.5556323 -0.1311204
-0.007381137 -0.058540292 -0.04791972 0.1826528 -0.02761886 -0.05279226 0.13624316 -0.11176241
0.21100152 0.026121896 0.052796986 -0.018815523 -0.1437836 -0.22810332 0.048997607 -0.091963895
-0.12861185 -0.121100985 0.12298652 -0.574636 0.47943965 -0.043301497 -0.047788702 -0.059825655
0.06686902 -0.04672299 0.102019794 0.25991774 -0.097011976 -0.0073832283 0.10012169 -0.25744104
-0.13101214 -0.10385711 -0.09788178 0.44898364 -0.276578 0.053032983 0.3808769 -0.17835435
-0.3905111 -0.46591318 -0.01808508 0.07232496 -0.114285186 -0.08499016 0.10316135 0.024679184
-0.17304964 -0.13311546 -0.22914994 -0.38680273 0.023056895 0.066849954 0.24956986 -0.030201858
0.050170224 0.004069574 0.034104526 -0.2164299 0.20048231 0.0991765 -0.13973044 -0.042908125
0.26230776 0.062717006 0.09346196 -0.1012291 -1.0048075 -0.07565668 0.15218922 0.011362597
-0.12844409 -0.3316064 0.056078024 0.09653968 -0.43225366 -0.04605601 -0.14162771 -0.4298732
0.061809156 -0.16754833 -0.20552558 -0.41229475 0.5246181 -0.09663518 -0.416154 -0.143459
0.049703307 -0.21872304 -0.09344057 -0.072986424 -0.30613762 -0.06573859 -0.15752983 0.269105
-0.34292263 0.10329067 -0.4993592 -0.022287572 -0.24037068 0.3290312 -0.5474334 -0.058946755
0.045221537 0.09071484 -0.30473256 0.39487207 0.05227833 0.062035173 -0.0838896 -0.31345382
-0.19976522 -0.14498957 0.0014571459 -0.2865446 0.17282344 0.1613886 0.60418147 -0.096875116
-0.058564343 -0.11617526 -0.18223952 -0.2816463 -0.38138846 -0.34220752 -0.07468677 0.06330794
-0.09688005 -0.025815552 0.0051589217 -0.0056297923 0.033040095 -0.083073124 0.04442966 0.27730113
-0.06594414 -0.32023332 0.22218966 -0.101611294 0.21530777 0.18136673 0.035041362 -0.2665811

linear.3.weight f4 [64, 256]
00000000: 0acb d7be 5319 9f3f 9da7 643f 7552 36be
00000010: 8924 84be f0bb 54bf c6e2 133f fa4d f3be
00000020: 9370 6abe f7e2 9f3f 00cb 903e e96a a6be
00000030: 711f 8ebf 4914 813f 1568 1a3f c9a8 d13f
00000040: 0eb4 273e efcb 153f d777 40bf d24b b6be
00000050: 2e80 15bf 57b9 783f f642 a43f 8d1c f63e
00000060: ad23 b8be 3d2f 94be 0e56 99be cc84 a13f
00000070: 07ff 41bf ab6a df3e 8238 3b3f b78f 873e
00000080: 007e 1dbd ede4 12bf 4bac 853f d1c3 91bf
00000090: b39a 8cbf fe68 46be f172 cc3e 74c6 d13f
000000a0: f96f 393f 70e9 023f ae5a 673e b7c1 533e
000000b0: 9f72 bd3f 3a14 9dbf b2fb 363f d292 06bf
000000c0: c11c 673e a845 b73c 4109 83bf 9695 e43e
000000d0: e8f2 123f 0505 afbe 2c9f 5fbf 89aa 70bf
000000e0: 0e86 923f cccd 35bf d5d3 f93e 9163 bf3e
000000f0: e44d 07bf ed41 73be d98b 8abe d2c2 523d
00000100: e236 733f 88d7 2abd da86 a3bf 965e d03e
00000110: 2f57 523e a629 f03d de46 033f 09a3 773f
00000120: 342d a4bf 3671 8e3f bb14 8ebf d2ff 25bf
00000130: 217c 3a3f 10c7 83bf 0ae5 38bf abaa 6fbf
00000140: da4b 283e 0620 62bc e11b 2e3f 2579 233f
00000150: 7321 0abf 74f0 f73e 5247 013f 8f71 6dbf
00000160: ce7a 913f 0e95 84be 257a 7e3f 0d4b b5bd
00000170: 935c 923f 1214 833f e5c8 fe3c e45b eebf
00000180: ea48 663d ed40 8ebf 3b32 49bf 76c9 6a3d
00000190: 6899 89be f670 58bf 5867 3fbf 920f 583f
000001a0: ab29 e4be 0e25 2abf 1e9a 913f 766b 97bf
000001b0: 5cd0 36bf 75a2 7e3f 6837 b8be ba0c 4ebf
000001c0: ebbd d23f 346f b73e 1d42 b83e c6e9 65bf
000001d0: 2c4a 983f d660 a7bf 2ac8 a53d 61ea 5cbe
000001e0: 18c9 2a3f a791 3f3f 0b85 323f 9b9d 6abf
000001f0: 5586 80bf 2778 463f 1b39 3b3f 192e 673e
00000200: 02b6 0d3f 4cfc a13e 7df5 cd3e cb82 993e
00000210: ed13 073f f6a0 bb3e 16bf 45bf 7a3d 55bf
00000220: a881 7abf 1417 0bbf 5d29 993f 4fac 433f
00000230: 5c67 dc3f bf52 a13f 308f 56bf 184e 6a3f
00000240: 2a99 9fbf 3072 db3e c197 5c3f 9a90 d23e
00000250: 2f71 6fbf 9606 4dbf 0c1d ebbe d95c 1dbf
00000260: 6785 cbbe e576 51bf abcd aabf 48ac 173e
00000270: 8e0d 743f ab7c 89be fa1a 093f 84a0 c33e
00000280: 97e9 5bbf ee88 a3be 71c1 80bf fd15 9cbf
00000290: 6cd7 60bf 3683 c03e d32f 23bf 9548 913f
000002a0: 3978 ea3e 37ac b33e 802b 663f fd8b b83f
000002b0: 9692 253f 67e6 4b3e ef9a f43e 5de2 29bf
000002c0: 9a60 713d cf92 a3bf 3b0e c9bf d970 8abf
000002d0: 3f39 613d 823d 843d 1ad7 77bf 0f26 7b3f
000002e0: e419 d93f 3ccd 603f 1e25 943f 3b37 9a3f
000002f0: 734b 9fbe fb6d e7be bcb1 c03e 30e0 23bd
00000300: d750 98bf a593 803f 2257 223f 6ceb 88bd
00000310: 909b a23e bd50 68bf 504d 12be 1aa2 ff3f
00000320: 48dc 42bf 1cd8 9d3f b05c cf3f 7022 61bf
00000330: a6a9 2ebf dd17 663f 542f 47bf 785c 1f3e
00000340: 6164 e3bd 3f56 ffbe ed1b 52be c3bf c4bf
00000350: 557c 143f 3c57 373e 7336 68be b897 ec3f
00000360: 1929 a33f 468f d23c 0395 f13f b3cf 6d3e
00000370: a497 6fbf 431a e2bf 3542 a83f e598 29bf
00000380: 7a5f 40bf 8f8f 21bf 32b7 e03f d98b 8a3f
00000390: 151e c33e 0a55 85bf 50de b1be faf3 be3f
000003a0: 0edd 61bf d5c7 523f 6b33 81be 18bf 403f
000003b0: 937f f3be b4d3 1dbf 7f6e 34bf dce9 c5be
000003c0: 6e02 87bf ec65 ba3f 3860 98bd df0b ba3f
000003d0: 5157 1f3f 5b66 893f 6a52 45be e4aa 183f
000003e0: 2c9c 9cbf a45e 17be 6dd6 dc3e a5b7 07be
000003f0: 93cd 0ebf 993f 85bf dae1 63bf b2f4 f1be
-0.42147094 1.2429603 0.8931826 -0.17804892 -0.25809124 -0.8309927 0.57767904 -0.4752043
-0.22894506 1.2491139 0.28279877 -0.3250344 -1.1103345 1.0084316 0.60315067 1.6379634
0.16377279 0.585143 -0.7518286 -0.3560472 -0.5839871 0.97157806 1.2832935 0.48068658
-0.35964718 -0.2894229 -0.29948467 1.2618651 -0.75779766 0.4363607 0.731331 0.26476833
-0.03845024 -0.57380563 1.0443205 -1.1387883 -1.098471 -0.19375989 0.39931443 1.6388688
0.7243648 0.5113745 0.22593185 0.20679365 1.4800605 -1.2271798 0.71477807 -0.5256778
0.22569562 0.022372082 -1.0237199 0.44645375 0.57401896 -0.34183517 -0.8735225 -0.94010216
1.144716 -0.71017146 0.48794428 0.3738065 -0.52853227 -0.23755617 -0.2705982 0.051455326
0.9500562 -0.041709453 -1.2775528 0.40697163 0.2054107 0.11726694 0.5128001 0.96733147
-1.2826295 1.1128299 -1.1100076 -0.64843476 0.72845656 -1.0295124 -0.72224486 -0.93619794
0.16435185 -0.01380158 0.6801129 0.63856727 -0.5395729 0.4842564 0.5049945 -0.927514
1.1365602 -0.2589497 0.9940513 -0.088522054 1.1434501 1.02405 0.031101653 -1.8621793
0.05622188 -1.1113564 -0.7859227 0.057321034 -0.26874852 -0.84547365 -0.74767065 0.8439876
-0.4456304 -0.6646279 1.1375158 -1.182967 -0.7141168 0.9946664 -0.35979772 -0.8048817
1.6464208 0.3582703 0.3598794 -0.89809835 1.1897635 -1.3076427 0.08094819 -0.21573783
0.66713095 0.7483162 0.6973426 -0.91646737 -1.0040995 0.7752709 0.7313401 0.22576179
0.55355847 0.316378 0.40226355 0.299826 0.5276478 0.3664624 -0.772447 -0.8329693
-0.9785409 -0.5433209 1.1965748 0.764348 1.7219043 1.2603377 -0.83812237 0.9152541
-1.2468617 0.42860556 0.8616906 0.41125947 -0.9353208 -0.80088174 -0.45920599 -0.614698
-0.39750215 -0.81822044 -1.3344015 0.14811814 0.9533318 -0.26852927 0.5355679 0.382084
-0.85903305 -0.31940407 -1.0059034 -1.219421 -0.8782871 0.37600106 -0.6374485 1.1350275
0.45794848 0.35092327 0.89910126 1.4417721 0.646768 0.1991211 0.47774455 -0.6636103
0.058930017 -1.2779177 -1.5707468 -1.0815688 0.054986235 0.06457044 -0.96812594 0.9810495
1.6961026 0.8781316 1.1573827 1.2048105 -0.3111225 -0.45201096 0.376356 -0.040008724
-1.189967 1.0045058 0.63414204 -0.06685528 0.3175931 -0.90748197 -0.14287305 1.9971344
-0.7611737 1.2331576 1.6200161 -0.8794317 -0.6822761 0.8988016 -0.7780659 0.15562618
-0.1110313 -0.49870488 -0.20518465 -1.5371021 0.58002216 0.17904371 -0.2267702 1.8483801
1.2746917 0.025703084 1.88736 0.23223762 -0.9359076 -1.7664264 1.3145205 -0.66248924
-0.75145686 -0.6310968 1.7555907 1.0823928 0.38108888 -1.0416577 -0.34739923 1.4918206
-0.8822793 0.8233617 -0.2523454 0.75291586 -0.4755827 -0.6165116 -0.70481104 -0.38654983
-1.0547616 1.4562354 -0.07440227 1.4534873 0.6224261 1.0734361 -0.1926972 0.5963576
-1.223516 -0.14782196 0.43132344 -0.13253649 -0.5578243 -1.0410033 -0.890165 -0.47257

linear.3.bias f4 [64]
00000000: 0720 81bd 88a6 89be b8dd 04bd 09fc 8ebe
00000010: 32dc 07bc d08e 2bbe 51f3 d6be 7692 8bbe
00000020: a453 8bbe 0c69 a7be fef7 b1be 8a3c eebe
00000030: b2e3 dabe f94b d7be 15e7 1ebe c973 d2be
00000040: 680a 97be 8c16 80be e285 4cbe 3408 dbbe
00000050: 73b8 e6bc 7c4d 583e 6b58 12be c9ab 0bbd
00000060: 4278 80bd c622 15bf 2b5d 06bf 1bcd 10bf
00000070: 1d96 03bf b37c 96be 8ecf bcbe 9dc8 a2be
00000080: 473c 73bb 36c8 fdbe c143 18bf 437a 3bbe
00000090: d5f0 d0be 0fca ecbd 00ed a9be 49d4 92be
000000a0: 6d1f 88be 7d64 f8be c6a2 2e3e bef0 83be
000000b0: 9fb3 8bbd 91f9 8bbe a61c c6be aaa2 0fbd
000000c0: 1127 14be 4acf 1eb8 c42e 94bd 15d2 cbbd
000000d0: 89c5 dbbc e396 8fbe 79f6 52be ad0f 1dbe
000000e0: a702 debe 57aa 5dbe b7a9 cebe 74f0 f7be
000000f0: 50d9 0fbf fec5 b4bd c437 debe daa5 d5be
-0.06304937 -0.26884866 -0.03243801 -0.27926663 -0.008292245 -0.16753697 -0.4198251 -0.27260178
-0.2721225 -0.32697332 -0.34759516 -0.46530563 -0.42751843 -0.4205015 -0.15517838 -0.41103962
-0.29500127 -0.25017202 -0.19972947 -0.42779696 -0.028164124 0.21123308 -0.14291541 -0.034099374
-0.06272937 -0.58256185 -0.52485913 -0.56562966 -0.5140093 -0.29392013 -0.36877102 -0.3179368
-0.0037114786 -0.4956681 -0.59478384 -0.18308358 -0.4080874 -0.11561977 -0.3318863 -0.28677586
-0.26586476 -0.48514166 0.1705428 -0.2576961 -0.068213694 -0.27338842 -0.38693732 -0.035067238
-0.14468028 -3.786319e-05 -0.07235482 -0.09952179 -0.02682759 -0.28044805 -0.20601834 -0.15338011
-0.433614 -0.2164701 -0.40363857 -0.4842564 -0.5619097 -0.088268265 -0.4340192 -0.41728097

reg.weight f4 [2, 128]
00000000: f98c 8f3f e62f 14bf 05d0 2b3f 5bbf c5bf
00000010: e1bb 923e e5a0 033f fe1f 32bf 588f 673f
00000020: d321 953e 8b89 3e3f 662e 3f3f 964e 833d
00000030: 8163 893f 6143 563f 489b dfbe 7885 0fbf
00000040: 4c44 963e 1cc6 163f 8472 483f d134 8b3e
00000050: 8307 413f 4c00 373f f5d5 a53e 3d9a 8a3e
00000060: a253 453f d31d 043f 2470 283b 56b0 0e3f
00000070: 0b0c e7bd 02ef 1abf bdca 59bf 2cdf 493f
00000080: 81a2 f23e 2fdb 833f dabb b13f b4ed 343d
00000090: 556c f33e 1bc8 a83e 6856 50bf b0f2 853e
000000a0: 5f50 a03e b060 8a3f f87b a33d e59d 2a3e
000000b0: b7e7 13bf 6d4f 3bbf 327b 3c3f 8af1 6f3f
000000c0: 7a42 4c3f 38cd 233f 5b8a 2fbf 138e de3e
000000d0: 2776 7b3d 6f33 893f daa4 c83e f789 9bbf
000000e0: 2520 893f faf5 9c3e fca4 7a3e 805d a73d
000000f0: 649a b13d c3a9 b23c b957 543f 8100 6c3f
00000100: 2507 fe3f 96fd f73f 4982 db3f 6af0 eb3f
00000110: e750 9fbf 0133 df3f cd23 f13f 5dad e73f
00000120: 1462 9bbf b36d f33f d713 e83f 7651 e73f
00000130: 105c f43f 5348 e43f 5062 98bf cb20 f43f
00000140: d37c d53f d593 df3f 023a 9abf 43b0 e93f
00000150: 6207 e23f fc1e a6bf ed13 f83f 2611 9ebf
00000160: fef1 97bf 03d5 e63f 8383 e93f fbab e43f
00000170: 4143 e33f 7e72 d23f f3fb e83f 26a3 e23f
00000180: fc86 0040 aee0 e73f 9e39 ea3f 536b ec3f
00000190: a50b e03f 67e1 99bf f799 873f 1c2e db3f
000001a0: 1909 e13f fa56 ea3f 91a0 f13f 4638 ed3f
000001b0: 615f fd3f ab14 e93f 2eaf e13f 05a0 0440
000001c0: e427 833f adaa e83f e4ed 9bbf 0093 9abf
000001d0: df38 9ebf 90ac df3f 5137 f53f c4ff 96bf
000001e0: c8c6 e83f 0f6d e63f 0a65 e33f bd92 e73f
000001f0: 3ea9 e73f 009d 9dbf 44d5 e83f 2e8b e63f
00000200: dea1 e0bc c35e 833c ac0a 9aba 39f0 7fbd
00000210: 95b2 b3ba fd3b 0e3c 1eb6 c3bc b69c b03a
00000220: 916f 4fbb 3588 913b 1ad9 edbc 6716 3b3d
00000230: 5dcf 98bd 59ba 553c bac0 6e3b f602 a3bd
00000240: 2b92 91ba 3bbd 423d 58a3 c73c 2ee1 a8bb
00000250: c9f8 03bd 6694 903b fd60 13bc a3f5 5f3d
00000260: 7d25 453c 68ec 17bd 8706 013e 0109 a4bb
00000270: 21d5 dc3e ac1f cdbb 1409 9dbc f5f5 b13c
00000280: 4c73 c53d e34d 3e3d 7091 bd3c 332d ea3c
00000290: bbd8 67bc 9ce3 55bd 59a9 fe3c 2ef6 7f3c
000002a0: 049c 8c3c 51cb f73c 38ea 87bd eee4 f1bb
000002b0: 7169 e83c 85dc 9f3d 891b 43bd 5a99 8e3b
000002c0: 2cd7 04bd ca8d 033d 29fd 89bd 3a01 cbbc
000002d0: dff0 103e 1cfc 36bc 5734 7cbc f2a7 61ba
000002e0: b9b4 fabc 6362 cd3c d21b a6be 428d 10bc
000002f0: a961 a0bd 78cd 1cbe 96c5 a2bb 08bd e4bc
00000300: 2be0 373c b97e c93b 309c 473c 1b14 d2ba
00000310: 438a 103c 6d3b d03c 88c3 ba3b cdae b1bb
00000320: dbdc 8cbc 4212 78bb f59a 68bc 1769 b8bb
00000330: f07a 373a 950c 0cbc fd86 83bc 8a53 73bb
00000340: a093 653b b30b 59bc 17ca 07bc 0c2f 5c3b
00000350: 4b74 913c 7dcc d3ba cc23 233a 0e93 0dbc
00000360: 18e5 373c a2a8 34ba 16dd f039 7c8e 30bc
00000370: aa6b c0bb 597d d1ba 87ee 38bb 85be 283c
00000380: 73cd 953c 8960 443b 7d04 a23b 67fd 81bc
00000390: 51dc 9d3c f5c5 ddbc 7410 443c c8a7 33bb
000003a0: 454d 683c 2b27 d73a 846d 2ab9 f993 f7b9
000003b0: 78b9 2dbc 6964 eabb 4674 3fbc 6ab1 b0bc
000003c0: aef9 fcbd af53 45bc 2955 c23b ce25 073d
000003d0: 2418 bd3c 5423 353c b6bf 043c e2c5 a7ba
000003e0: 38c9 c63c a02f 823b af2a 61bc 7ed5 24bc
000003f0: 3203 2abc 50b9 02bc 595a d6bb 78da 08bc
1.1214896 -0.5788559 0.6711429 -1.5449022 0.28658965 0.5141738 -0.69580066 0.904531
0.29127368 0.74428624 0.74680173 0.064114735 1.0733491 0.8369656 -0.43673158 -0.5606303
0.2934898 0.5889604 0.78299737 0.27188733 0.75402087 0.7148483 0.323898 0.270708
0.7708074 0.5160801 0.0025701607 0.5573782 -0.11281594 -0.60520947 -0.8507498 0.7885616
0.47389606 1.0301265 1.3885453 0.044172004 0.47543588 0.32965168 -0.81381845 0.26161718
0.31311318 1.0810757 0.079826295 0.16661794 -0.57775444 -0.7316807 0.7362548 0.93727934
0.79788935 0.63985014 -0.6857049 0.4346777 0.061391976 1.0718821 0.39188272 -1.2151479
1.0712935 0.30656415 0.24476999 0.081721306 0.08672026 0.021809464 0.82946354 0.9218827
1.984593 1.9374263 1.7149135 1.8432744 -1.2446564 1.743744 1.883905 1.8099781
-1.2139306 1.9017853 1.8131055 1.8071735 1.9090595 1.7834572 -1.1905003 1.9072508
1.6678718 1.746699 -1.2048953 1.8256916 1.7658503 -1.2978206 1.9381081 -1.2348983
-1.1870725 1.8033756 1.8243259 1.7864984 1.7754899 1.644119 1.8201889 1.7706039
2.0082388 1.8115442 1.8298833 1.8470253 1.7503554 -1.2021912 1.0593861 1.7123446
1.7580901 1.8307793 1.8877126 1.8532798 1.9794732 1.8209432 1.7631586 2.0722668
1.0246549 1.8177086 -1.2181973 -1.2076111 -1.2361106 1.7474537 1.9157506 -1.1796803
1.8185663 1.8002032 1.776521 1.8091656 1.8098524 -1.2313538 1.8190084 1.8011224
-0.027420934 0.016036397 -0.0011752448 -0.062484954 -0.0013709838 0.0086812945 -0.023890551 0.0013474438
-0.0031652192 0.004441286 -0.029034186 0.04567566 -0.074614264 0.013044917 0.0036430792 -0.07959549
-0.0011106184 0.047543745 0.02436988 -0.0051537966 -0.032219682 0.0044122217 -0.008995292 0.054677617
0.012032864 -0.03709069 0.12600146 -0.005005956 0.43131354 -0.006259879 -0.019169368 0.021723727
0.09641132 0.046460997 0.023140639 0.028586006 -0.014150794 -0.05221902 0.03108661 0.015622659
0.017164238 0.030248316 -0.066364706 -0.007382027 0.02837059 0.07805733 -0.04763368 0.004351777
-0.032431766 0.032117642 -0.067377396 -0.024780858 0.14154385 -0.011168506 -0.015393338 -0.00086080946
-0.030603753 0.025071329 -0.324431 -0.008822741 -0.07831127 -0.15312755 -0.0049674017 -0.027922168
0.011222879 0.0061491397 0.012183234 -0.001602772 0.008822027 0.025418961 0.0056995787 -0.005422449
-0.017195156 -0.003785268 -0.014197101 -0.005627762 0.0006999215 -0.008547922 -0.016055578 -0.003712865
0.0035030618 -0.013247418 -0.008287928 0.0033597378 0.017755648 -0.0016158965 0.00062232907 -0.008641018
0.011224054 -0.00068915833 0.0004594109 -0.010776158 -0.0058722096 -0.0015982791 -0.0028218345 0.01029933
0.018286442 0.0029964766 0.0049443827 -0.015867902 0.019270094 -0.027071932 0.011966813 -0.0027413238
0.014178579 0.0016414871 -0.00016253261 -0.0004722176 -0.010603301 -0.007153083 -0.011685437 -0.021568973
-0.1235231 -0.0120438775 0.005930562 0.032995038 0.0230828 0.011055786 0.008102348 -0.0012800063
0.02426587 0.0039729625 -0.013743087 -0.010060666 -0.010376738 -0.007978752 -0.006541532 -0.008352868

reg.bias f4 [2]
00000000: c7f6 2d3d 2550 313c
0.042471673 0.010822331
