server/model2/value_model_minmax40.pt (torch, 255287 bytes, 12 tensors)

conv.0.weight f4 [4, 1, 3, 3]
0.77267236 -0.27563226 1.622515 0.80688053 0.5722734 0.67313385 0.74988186 -0.42880207
0.67227846 0.23788272 0.19915341 -0.2515693 0.05374067 1.7364439 0.019813206 0.94382095
-0.18969953 0.60867715 0.62981874 0.34087285 -0.31086048 0.017788311 0.5543965 1.8164545
-0.017018957 -0.31767952 0.40806156 1.0284958 -1.0780373 1.3621825 0.6630063 -0.035091467
1.1410007 0.24223416 0.21771002 -0.15584952
00000000: dbcd 453f ac1f 8dbe 92ae cf3f b98f 4e3f
00000010: 8280 123f 8052 2c3f 42f8 3f3f f28b dbbe
00000020: 711a 2c3f 8797 733e dfee 4b3e b1cd 80be
00000030: 2d1f 5c3d cb43 de3f 4e4f a23c 409e 713f
00000040: 9840 42be 44d2 1b3f cd3b 213f e386 ae3e
00000050: 1b29 9fbe cbb8 913c eeec 0d3f 9581 e83f
00000060: 576b 8bbc e4a6 a2be 72ed d03e c0a5 833f
00000070: 20fd 89bf ff5b ae3f c8ba 293f 12bc 0fbd
00000080: 500c 923f 3b0c 783e 60ef 5e3e 0497 1fbe

conv.0.bias f4 [4]
0.8458361 0.21949477 0.464474 0.7939768
00000000: b788 583f 3dc3 603e 89cf ed3e 1042 4b3f

conv.2.weight f4 [4, 4, 3, 3]
0.6407805 1.315065 0.7816653 1.2611399 0.5438698 0.95702815 0.26341695 0.74832886
0.5249412 1.0129424 0.64251715 0.7485825 1.6432909 -0.56573945 0.44132856 -0.08181369
0.58379704 -0.039986357 0.4985302 0.98427534 0.58397025 1.0503099 0.01669823 0.63379514
0.42796734 0.024918156 0.88956285 0.7642036 0.7776173 1.1208756 1.0107672 0.563446
1.1373098 0.58417016 0.9809373 0.54421324 0.43090263 -0.065308504 -1.0634714 0.60198843
0.51374125 -0.524501 0.64959705 0.761435 -0.295899 -0.38652262 0.4598422 -1.5152303
0.24732824 1.0171707 0.20077205 -0.116278484 -0.11661404 -0.47155863 0.14373092 0.0791132
-0.30144104 0.337824 -0.35886338 -2.2080414 -0.062333208 -0.16466367 0.3316467 0.60915923
0.14004287 -0.3946605 0.6524433 0.7937847 -1.9070549 0.59512 1.2974765 -0.97779125
1.068013 0.6091304 0.6691679 1.1206186 0.72435683 0.10148328 1.01878 0.60310876
1.0587486 1.555124 0.7778736 -0.0237817 0.8960332 0.52158266 -0.4553899 0.13473132
0.1627386 0.55088854 1.1535754 0.83705074 -1.067265 0.5541423 0.45508796 0.377047
0.45968387 -0.09861434 0.2367022 1.195304 0.42593673 -0.14849801 0.8596022 1.0260812
1.1094631 0.93020755 0.61071056 0.64128464 0.32466048 1.2483318 0.23482011 0.6152869
0.5452968 0.7145131 0.44536296 0.6727526 0.66234154 0.21140766 0.7796627 0.72399604
0.5948175 0.38174728 0.08143945 0.29947388 0.04846817 0.72578204 0.21109207 0.8892827
-0.49676207 0.6107258 0.4026282 0.2266844 0.30112112 0.1666391 0.26597646 0.33460626
0.32661003 0.73749185 0.6845403 0.52925026 1.1281309 0.28042313 0.5742035 0.67058456
00000000: 310a 243f 0d54 a83f 381b 483f 086d a13f
00000010: 0d3b 0b3f ccff 743f 96de 863e 7b92 3f3f
00000020: 8c62 063f 19a8 813f 017c 243f 1aa3 3f3f
00000030: 5b57 d23f 4dd4 10bf d1f5 e13e f08d a7bd
00000040: b973 153f bcc8 23bd 5a3f ff3e 78f9 7b3f
00000050: 137f 153f 8e70 863f baca 883c 6640 223f
00000060: 891e db3e 2921 cc3c 64ba 633f d9a2 433f
00000070: ed11 473f da78 8f3f d260 813f ff3d 103f
00000080: 5e93 913f 2d8c 153f b51e 7b3f 8f51 0b3f
00000090: 459f dc3e 77c0 85bd d51f 88bf ea1b 1a3f
000000a0: 8c84 033f b345 06bf fe4b 263f 67ed 423f
000000b0: 1380 97be 4be6 c5be 7070 eb3e 11f3 c1bf
000000c0: 9d43 7d3e a632 823f 3097 4d3e 6a23 eebd
000000d0: 58d3 eebd 2270 f1be 332e 133e 1a06 a23d
000000e0: 7b56 9abe 44f7 ac3e f1bc b7be 8d50 0dc0
000000f0: 1b51 7fbd 989d 28be 99cd a93e dcf1 1b3f
00000100: 6667 0f3e f110 cabe 8606 273f 7935 4b3f
00000110: 601a f4bf c959 183f b613 a63f 8750 7abf
00000120: a6b4 883f f8ef 1b3f 964e 2b3f 6e70 8f3f
00000130: 736f 393f 77d6 cf3d 6267 823f 5665 1a3f
00000140: 1385 873f 4e0e c73f b922 473f d7d1 c2bc
00000150: 6f62 653f 7186 053f dd28 e9be 02f7 093e
00000160: f3a4 263e 0807 0d3f 5ca8 933f f548 563f
00000170: 249c 88bf 45dc 0d3f 4a01 e93e 4e0c c13e
00000180: af5b eb3e 51f6 c9bd 1062 723e b9ff 983f
00000190: 6114 da3e dd0f 18be e40e 5c3f a156 833f
000001a0: e302 8e3f 1522 6e3f 8757 1c3f 3b2b 243f
000001b0: e639 a63e 56c9 9f3f af74 703e 7183 1d3f
000001c0: 9298 0b3f 55ea 363f 9d06 e43e 8439 2c3f
000001d0: 378f 293f 407b 583e fa97 473f ce57 393f
000001e0: f645 183f 6174 c33e bac9 a63d a454 993e
000001f0: 8f86 463d dacc 393f 8528 583e 08a8 633f
00000200: 9957 febe 8758 1c3f 4925 ce3e f51f 683e
00000210: 8c2c 9a3e 71a3 2a3e 112e 883e 8351 ab3e
00000220: 6e39 a73e 44cc 3c3f 083e 2f3f f27c 073f
00000230: 9866 903f 9f93 8f3e 00ff 123f 6eab 2b3f

conv.2.bias f4 [4]
0.7122238 0.21468496 0.5251911 0.2540146
00000000: 4d54 363f 60d6 5b3e ed72 063f 340e 823e

conv.5.weight f4 [64, 36]
-0.073246345 0.001736209 0.065126516 -0.33121812 -0.049526956 -0.05606469 0.13974759 -0.09741453
0.012347265 0.41895276 -1.0481554 0.21634713 0.6231439 -0.41932234 0.06270595 -0.5168294
0.06792049 -0.023403298 -0.16668007 -0.17329608 0.11326505 0.013723638 -0.2017377 0.02409264
0.104242496 -0.06932759 0.04713957 -0.24432625 -0.012217037 0.06411015 -0.08182425 -0.010042395
0.05337436 -0.029551748 0.047701895 0.09019017 -0.0780897 -0.22792688 -0.27018124 0.060251925
0.22065176 0.44253215 -0.2016527 -0.17204593 0.018939672 0.07891941 -0.35349894 -0.33705783
0.0036470843 0.34228125 -0.06267422 -0.0285016 0.23276061 -0.96837085 -0.31531987 -0.062847346
0.110532224 0.10668221 0.11302277 0.20020823 0.12838414 0.2072803 -0.7445688 -0.3053967
0.018793536 -0.10782663 0.2974489 0.054744996 -0.4333944 -0.09473599 0.02014238 -0.78333056
-0.48768136 0.08502955 0.5135842 -0.053988334 -0.10914911 -0.024298169 0.08469509 0.17882897
0.35151345 -0.75645345 0.3539831 -0.025636273 -0.19787337 0.4383459 0.40296632 0.33711103
0.18164872 0.013645685 -0.79612535 -0.25282854 -1.0785006 0.7175471 0.16196676 0.4325784
1.0842042 -0.0016485328 0.15461238 1.0949582 0.092449486 0.07558451 0.5822428 -0.7935886
-0.7759647 0.046706572 -0.58509356 -0.044486046 0.2721677 0.10554136 -0.5710966 0.11648527
-0.011552723 0.040596347 -0.028670102 -0.08996084 0.14775716 -0.14149843 0.21058209 0.44704264
-0.05187487 0.08927585 -2.587326 0.17133702 0.026852544 0.52954596 0.061932385 -0.2066005
0.23439081 -0.22819866 -0.09747956 -1.7910266 -0.16211267 0.09466988 2.1313968 -0.1518561
-0.027944544 -0.12990515 0.119839974 -0.0295091 0.011568472 -0.06837868 0.055928648 0.18437535
0.13420065 0.3213957 -0.07809818 -0.06343701 -0.02943913 0.25952402 -0.57034993 -0.26027143
0.36123788 -0.30201113 0.5719319 -0.058369573 -0.26223263 0.63595706 -0.68726695 0.44602928
0.81351876 -0.4688711 -0.25576007 -0.19459006 0.17237815 -0.030213635 0.19191921 -0.34372666
0.49497584 0.8311736 -0.4024979 0.15589832 0.30621615 0.37304452 0.38133016 -0.3363582
-1.1576946 0.2166065 -0.07192831 -0.89711946 0.32437018 0.15310074 0.10103997 -0.32726917
0.36418748 -0.031942397 -0.3361413 -0.16772862 0.7206073 -0.4446505 0.35681695 -1.2969056
-0.2521133 0.07938266 -0.5540172 -0.67677796 -0.4778216 -0.31083602 -0.26952022 0.013679213
0.47715655 0.21180473 -0.07527009 0.09095575 0.42873883 -0.23739937 0.45387286 -0.26995414
-0.01540996 0.3901387 0.023816796 -0.110403 -0.507355 -0.12505187 -0.00928817 0.37383008
0.35869417 0.6517835 0.60492176 0.4213185 0.8294329 0.84972525 0.40196544 0.40747076
0.4648343 0.68481696 -0.7766215 0.93293506 0.15536617 -0.7076067 1.430001 0.46938324
0.23638956 0.5327651 0.9250979 0.96801364 0.7267925 0.483627 0.56930476 1.2141215
0.16812496 0.427328 -0.22807464 0.8049422 0.5884922 0.6366905 0.39696246 0.6777519
1.0903804 0.34826666 0.55537117 0.5266873 0.40368524 0.20399763 -0.14924903 -0.039402343
00000000: 2e02 96bd 8291 e33a 0d61 853d 6c95 a9be
00000010: c7dc 4abd 17a4 65bd fe19 0f3e 4581 c7bd
00000020: 2f4c 4a3c fa80 d63e f529 86bf 1a8a 5d3e
00000030: 5c86 1f3f 6bb1 d6be fa6b 803d ee4e 04bf
00000040: e619 8b3d 46b8 bfbc 2eae 2abe 8774 31be
00000050: 82f7 e73d 1cd9 603c 5494 4ebe ee5d c53c
00000060: 177d d53d a0fb 8dbd 6c15 413d a930 7abe
00000070: f829 48bc 2f4c 833d 7993 a7bd dc88 24bc
00000080: 139f 5a3d 8216 f2bc 1063 433d a0b5 b83d
00000090: 7eed 9fbd aa65 69be 3255 8abe b9ca 763d
000000a0: 89f2 613e 9393 e23e 0c7e 4ebe cf2c 30be
000000b0: 5f27 9b3c 80a0 a13d d0fd b4be d892 acbe
000000c0: ec03 6f3b 7d3f af3e 575b 80bd 307c e9bc
000000d0: cc58 6e3e 27e7 77bf 9b71 a1be 1cb6 80bd
000000e0: b85e e23d 347c da3d 7b78 e73d 6303 4d3e
000000f0: 2277 033e 4941 543e 109c 3ebf f55c 9cbe
00000100: e7f4 993c 35d4 dcbd 394b 983e 4a3c 603d
00000110: dfe5 ddbe f104 c2bd a201 a53c 5a88 48bf
00000120: 5fb1 f9be f923 ae3d 417a 033f df22 5dbd
00000130: 9289 dfbd f40c c7bc 9f74 ad3d f11e 373e
00000140: 92f9 b33e efa6 41bf 463d b53e 2903 d2bc
00000150: 519f 4abe e06e e03e 9a51 ce3e d199 ac3e
00000160: 1f02 3a3e 2792 5f3c dfce 4bbf be72 81be
00000170: 4f0c 8abf 2bb1 373f 9dda 253e eb7a dd3e
00000180: 34c7 8a3f 9513 d8ba b552 1e3e 9727 8c3f
00000190: 2856 bd3d 0dcc 9a3d dd0d 153f 9f28 4bbf
000001a0: 9fa5 46bf 644f 3f3d b1c8 15bf 0037 36bd
000001b0: 9159 8b3e 1226 d83d 6333 12bf d48f ee3d
000001c0: a247 3dbc 5b48 263d 90dd eabc 643d b8bd
000001d0: a74d 173e f7e4 10be d5a2 573e c6e2 e43e
000001e0: be7a 54bd 42d6 b63d c096 25c0 f972 2f3e
000001f0: def9 db3c 5390 073f d0ac 7d3d 158f 53be
00000200: 2504 703e e9ac 69be 5da3 c7bd 5c40 e5bf
00000210: dd00 26be 48e2 c13d ce68 0840 2a80 1bbe
00000220: f5eb e4bc db05 05be a96e f53d 11bd f1bc
00000230: b089 3d3c 1f0a 8cbd 7015 653d e4cc 3c3e
00000240: e56b 093e fa8d a43e f0f1 9fbd 43eb 81bd
00000250: 552a f1bc 55e0 843e 7402 12bf 4c42 85be
00000260: 2cf4 b83e 34a1 9abe 216a 123f ef14 6fbd
00000270: 5b43 86be 15ce 223f baf0 2fbf f35d e43e
00000280: c442 503f df0f f0be fcf2 82be 9e42 47be
00000290: e683 303e 9682 f7bc 7886 443e f1fc afbe
000002a0: 796d fd3e cbc7 543f 3414 cebe cfa3 1f3e
000002b0: 5dc8 9c3e b1ff be3e b53d c33e 2437 acbe
000002c0: 562f 94bf 18ce 5d3e 264f 93bd 9fa9 65bf
000002d0: d913 a63e 71c6 1c3e 0bee ce3d d38f a7be
000002e0: c876 ba3e 08d6 02bd b61a acbe 0dc1 2bbe
000002f0: b879 383f 3ba9 e3be b6b0 b63e 0101 a6bf
00000300: ff14 81be 6093 a23d 12d4 0dbf 5241 2dbf
00000310: 08a5 f4be e625 9fbe 8efe 89be c71e 603c
00000320: dd4d f43e 57e3 583e 3427 9abd 0247 ba3d
00000330: a883 db3e d218 73be 0662 e83e 6e37 8abe
00000340: 0f7a 7cbc 42c0 c73e 711b c33c f81a e2bd
00000350: 04e2 01bf 990d 00be 692d 18bc a866 bf3e
00000360: c3a6 b73e 49db 263f 27dc 1a3f 0fb7 d73e
00000370: b755 543f 9887 593f 6ace cd3e 02a0 d03e
00000380: c3fe ed3e 2a50 2f3f abd0 46bf d5d4 6e3f
00000390: 4f18 1f3e b625 35bf 460a b73f 0053 f03e
000003a0: 1b10 723e 4b63 083f 37d3 6c3f becf 773f
000003b0: 130f 3a3f f59d f73e f5bd 113f 5568 9b3f
000003c0: f328 2c3e bcca da3e 668c 69be b110 4e3f
000003d0: 6da7 163f 26fe 223f aa3e cb3e 2681 2d3f
000003e0: 9691 8b3f 0250 b23e ce2c 0e3f fbd4 063f
000003f0: d5af ce3e c1e4 503e bdd4 18be 5a64 21bd

conv.5.bias f4 [64]
-0.07717624 -0.3082159 -0.7297671 -0.21215537 -0.046576813 -0.27712587 0.85878026 0.10681022
-0.54514337 -0.22586584 -0.60220057 -3.3264544 -0.59001267 -0.7328782 0.49475682 -0.3417838
0.025918417 -0.6777993 -0.69225097 0.010745136 -3.276874 -0.48131996 -0.44816744 -0.45765117
-0.73226213 -0.7389029 -0.6259987 -3.0968528 -0.38889033 0.25876084 1.3059366 -0.6723229
-0.53135675 -0.09054623 -0.66714555 -0.20785587 -1.7497468 -3.1997368 0.9399846 -0.016740259
-0.0027145399 -0.104743205 -0.15059887 -0.44150734 0.62325406 -0.23436901 -0.73526293 0.36220294
-0.64421517 -0.70785904 0.08309917 -0.39509475 -0.5982253 -0.35022613 -0.08774356 -0.28963748
-0.19408225 -0.04407913 -0.83225864 -0.35025257 -0.7600572 -0.61855644 -0.7029971 -0.15003975
00000000: 940e 9ebd 79ce 9dbe 04d2 3abf 423f 59be
00000010: 54c7 3ebd 71e3 8dbe 06d9 5b3f 51bf da3d
00000020: 848e 0bbf 6049 67be d129 1abf a1e4 54c0
00000030: 120b 17bf e89d 3bbf c450 fd3e 49fe aebe
00000040: dc52 d43c 4184 2dbf 5c37 31bf 5e0c 303c
00000050: 4eb8 51c0 926f f6be 3476 e5be 4151 eabe
00000060: 8875 3bbf be28 3dbf 7341 20bf d632 46c0
00000070: a21c c7be 4d7c 843e ee28 a73f 5b1d 2cbf
00000080: ff06 08bf 4d70 b9bd 0dca 2abf 2bd8 54be
00000090: b4f7 dfbf 7dc8 4cc0 d5a2 703f de22 89bc
000000a0: 6ce6 31bb 9b83 d6bd 9736 1abe 400d e2be
000000b0: 948d 1f3f 6efe 6fbe 313a 3cbf aa72 b93e
000000c0: 49eb 24bf 4036 35bf e62f aa3d dc49 cabe
000000d0: 4b25 19bf d750 b3be e5b2 b3bd 5d4b 94be
000000e0: 7fbd 46be 518c 34bd e70e 55bf 4e54 b3be
000000f0: 1c93 42bf b759 1ebf 9ef7 33bf 05a4 19be

linear.1.weight f4 [256, 169]
0.0058983564 0.03927634 0.05919365 0.054136388 -0.025531128 -0.022116046 0.031506017 0.038530543
0.0523298 0.113674775 0.015166454 -0.011316881 0.032183588 0.04855319 -0.002104357 -0.014606945
0.0063044503 -0.044173554 -0.075353146 -0.020839334 0.07390759 -0.6962543 0.16468184 0.0125961155
-0.063693196 -0.065787256 -0.01698824 0.038327307 0.025421262 -0.0027178675 0.029781707 -0.00065297633
-0.044473805 0.21624437 -0.6602237 -0.2853057 0.019612975 0.020964175 -0.042589024 0.062179737
0.04365121 -0.0557345 0.09292046 -0.04209852 0.28786644 0.67833054 0.051892884 -0.61325806
0.1404759 -0.5655227 0.27424175 0.4078814 0.040363543 0.050073214 -0.00809928 0.24008608
-0.011305274 0.89007986 0.9563801 0.42596602 -0.087946855 -0.3810441 -0.57274383 0.07425015
-0.0517214 -0.02578098 -0.04729327 -0.03856768 -0.76525337 -0.6585854 0.47288954 0.72188574
1.3596585 0.78606486 1.1126621 -0.11919903 -0.052764453 0.031680584 0.028979488 -0.035843253
0.028441548 0.52821314 -0.055544805 -0.16645125 -0.40069273 -0.4985395 -0.3657623 0.46865755
0.039388917 0.050748043 -0.033357933 -0.035545845 -0.07502456 -0.41434634 -0.1895705 0.2235737
0.5520524 0.09000842 0.6453107 -0.44726074 -0.3887564 0.054057173 -0.059245348 -0.017436177
-0.011687763 0.008160906 0.42348635 0.24037378 -0.29823074 -0.08447261 0.25257212 0.10154441
0.1345558 0.03821847 0.026477426 0.046686873 -0.027133055 -0.13264191 -0.19938357 -0.8621198
-0.20833836 0.13541056 -0.25887337 -0.1355631 0.3065197 0.11856508 0.046307556 0.057452045
-0.03178647 0.06811691 0.050002508 -0.02715848 0.06355839 0.6718434 0.14455357 -0.40015802
-0.037147798 0.05011124 0.010573648 -0.011265397 -0.031354647 0.060661323 0.069087915 -0.042322554
0.038329273 0.04598538 -0.68931806 0.69424236 0.028071843 0.0042439997 0.010441452 -0.009715192
0.029839195 0.060886286 0.049214564 0.03212122 -0.060935453 0.017652497 -0.04599788 0.010452636
0.031554922 -0.0071871653 -0.071292154 0.05728098 -0.049168203 0.021991685 0.049634017 0.018248983
0.03853458 0.058048002 -0.06958019 -0.06756942 0.011232428 0.028531149 -0.069348074 0.0133373365
-0.036762696 -0.067893185 0.309978 0.045926005 -0.002309762 -0.051789306 -0.02223102 -0.009927824
-0.0195866 0.039755575 -0.017362688 -0.05354937 -0.046342753 0.06266924 0.077333204 -0.17719935
-0.033220623 0.018912159 -0.061385058 -0.059954736 0.05741165 0.00097159296 -0.02349826 0.026738763
-0.038946252 -0.007274933 -0.7982736 0.38072306 0.08676017 0.017962538 0.026630998 0.0031629503
0.0043074638 0.034999967 -0.017160848 -0.12531357 0.98482317 0.5923225 0.0360858 -0.08820855
0.37364677 -0.45758745 0.33924103 0.114305235 0.028642755 -0.04443521 -0.027306192 -0.060780335
-0.6237696 0.1766887 0.5101386 -0.66992325 0.7767467 -0.54551613 0.14569367 0.2824135
-0.73862267 -0.041544072 0.053795658 -0.029634733 -0.048421595 0.43318027 -0.17763372 -0.6805731
0.16622 0.14329557 -0.22777665 -0.26357463 0.6333639 -0.04093669 0.06748887 -0.021678265
0.03954243 0.04877039 0.09679099 -0.09462658 0.086954355 0.38307807 -0.05944881 -0.12789458
00000000: 0047 c13b 3ae0 203d 0a75 723d 1ebe 5d3d
00000010: a826 d1bc b62c b5bc 740c 013d 34d2 1d3d
00000020: c657 563d 52ce e83d b87c 783c 706a 39bc
00000030: f0d2 033d b6df 463d 40e9 09bb f851 6fbc
00000040: 9095 ce3b 54ef 34bd c052 9abd 40b7 aabc
00000050: dd5c 973d b93d 32bf 5ba2 283e f05f 4e3c
00000060: 9471 82bd 78bb 86bd ec2a 8bbc 18fd 1c3d
00000070: 4040 d03c 401e 32bb c4f8 f33c 802c 2bba
00000080: 2a2a 36bd 2a6f 5d3e 6c04 29bf 9713 92be
00000090: 64ab a03c 10bd ab3c d471 2ebd 2eb0 7e3d
000000a0: 9ccb 323d dc49 64bd 154d be3d 7f6f 2cbd
000000b0: 3b63 933e 12a7 2d3f a28d 543d 7bfe 1cbf
000000c0: ead8 0f3e 18c6 10bf 6a69 8c3e d5d5 d03e
000000d0: 3e54 253d 9219 4d3d d8b2 04bc 20d9 753e
000000e0: c239 39bc 46dc 633f 54d5 743f 3818 da3e
000000f0: 7b1d b4bd 3618 c3be 579f 12bf 7610 983d
00000100: d2d9 53bd a232 d3bc 96b6 41bd 25f9 1dbd
00000110: a5e7 43bf 0e99 28bf 941e f23e 81cd 383f
00000120: 4a09 ae3f 8c3b 493f b66b 8e3f 9f1e f4bd
00000130: 8a1f 58bd 80c3 013d 6466 ed3c 60d0 12bd
00000140: 40fe e83c fa38 073f f382 63bd 3272 2abe
00000150: 9927 cdbe 9240 ffbe 3245 bbbe e2f3 ef3e
00000160: 4656 213d 2edd 4f3d 54a2 08bd 8598 11bd
00000170: 7aa6 99bd 3425 d4be c51e 42be 81f0 643e
00000180: 4e53 0d3f 5656 b83d 1533 253f 5cff e4be
00000190: 140b c7be 0e6b 5d3d 40ab 72bd 50d6 8ebc
000001a0: 087e 3fbc 52b5 053c 34d3 d83e 8b24 763e
000001b0: b3b1 98be faff acbd 2251 813e 84f6 cf3d
000001c0: ffc8 093e f88a 1c3d 30e7 d83c bc3a 3f3d
000001d0: 2446 debc 48d3 07be 352b 4cbe e2b3 5cbf
000001e0: a756 55be 11a9 0a3e 0d8b 84be 0ed1 0abe
000001f0: 26f0 9c3e 40d2 f23d feac 3d3d d652 6b3d
00000200: 8832 02bd e180 8b3d 6ecf 4c3d 767b debc
00000210: e72a 823d eefd 2b3f da05 143e 83e1 ccbe
00000220: 4a28 18bd 7241 4d3d 183d 2d3c 8092 38bc
00000230: bb6d 00bd 0278 783d f77d 8d3d 6a5a 2dbd
00000240: 28ff 1c3d 2a5b 3c3d 2677 30bf deb9 313f
00000250: ecf6 e53c 4011 8b3b a012 2b3c 782c 1fbc
00000260: 5471 f43c e663 793d 3695 493d 8a91 033d
00000270: 7497 79bd f89b 903c 4668 3cbd 8841 2b3c
00000280: bc3f 013d 5082 ebbb 9f01 92bd 769f 6a3d
00000290: 9964 49bd e827 b43c 0a4d 4b3d e47e 953c
000002a0: 70d6 1d3d bec3 6d3d 0f80 8ebd d661 8abd
000002b0: 3808 383c 28ba e93c 5d06 8ebd d884 5a3c
000002c0: 7b94 16bd 950b 8bbd 70b5 9e3e e81c 3c3d
000002d0: 605f 17bb 0621 54bd d41d b6bc 50a8 22bc
000002e0: 1474 a0bc bed6 223d 323c 8ebc 9656 5bbd
000002f0: e6d1 3dbd bb58 803d df60 9e3d bf73 35be
00000300: 5912 08bd aced 9a3c e66e 7bbd 1993 75bd
00000310: 7a28 6b3d 80b2 7e3a 6c7f c0bc 400b db3c
00000320: 1b86 1fbd 9062 eebb a95b 4cbf 22ee c23e
00000330: 51af b13d 2c26 933c 4029 da3c 8049 4f3b
00000340: a025 8d3b 205c 0f3d e894 8cbc 3352 00be
00000350: 5f1d 7c3f 73a2 173f b4ce 133d afa6 b4bd
00000360: a14e bf3e e748 eabe 00b1 ad3e dd18 ea3d
00000370: 36a4 ea3c b201 36bd 3cb1 dfbc cdf4 78bd
00000380: 5daf 1fbf e2ed 343e 7198 023f 1780 2bbf
00000390: dfd8 463f f2a6 0bbf b930 153e 8198 903e
000003a0: 6016 3dbf 1e2a 2abd d658 5c3d 8ac4 f2bc
000003b0: b955 46bd cec9 dd3e 9de5 35be 0a3a 2ebf
000003c0: 9335 2a3e 13bc 123e 483e 69be 41f3 86be
000003d0: 2324 223f 3bad 27bd 9b37 8a3d 9e96 b1bc
000003e0: 3ef7 213d 76c3 473d 5b3a c63d 95cb c1bd
000003f0: 2015 b23d cf22 c43e 9880 73bd ccf6 02be

linear.1.bias f4 [256]
-0.110989235 0.0036061485 0.034145612 0.19628401 -0.045702294 -0.15322356 0.24806845 -0.24337196
-0.20099224 -0.060693305 1.412504 0.25584313 0.29226837 -0.086267985 0.35459805 0.06470046
0.09479051 -0.21515138 -0.0910852 -0.20548138 -0.019555433 -0.21622597 -0.07782402 0.14793648
-0.6563021 -0.055288058 0.30639896 0.10154838 -0.16017133 0.08951359 -0.09544868 0.3861885
-0.8908442 0.012202918 0.1588014 0.017785124 0.09778627 0.25295705 0.12125646 -0.094263114
0.21249118 1.2828809 0.02516675 0.5183671 0.014645096 -0.1088979 0.1253983 -0.35089546
0.5543364 0.14595357 -0.025428075 0.2147276 0.093559794 0.07733909 0.14561722 -0.3173575
-0.046518404 0.09818583 -0.12853989 0.0089715235 -0.5200199 -1.3591497 0.28748202 1.3812989
0.05706143 0.028643131 -0.10716778 0.04566891 -0.04357452 0.8387483 1.8562917 -0.13690579
0.07889027 -0.18272208 -0.03817284 -0.092488006 -0.0340608 -0.04730448 0.09602706 0.27563232
0.11616498 0.77753526 0.14624108 -0.16733001 -0.1450418 -0.19494584 -0.03359043 -0.032583203
-0.36390784 -0.23713118 -0.37861013 -0.04219551 0.22367103 0.18594514 -0.03042678 0.13043985
0.049723662 0.073887855 0.24114294 0.28426042 0.5600469 -0.044076398 -0.14863053 -0.15484074
-0.06459674 -0.033793677 -0.24032359 -0.19376145 -0.57237333 -0.14099245 -0.8111694 -0.079273626
0.09219966 -0.004707179 -0.03286573 0.1662318 -0.10713358 0.020735996 0.20982714 -0.08369311
0.44843224 0.040299222 0.051802058 0.05007541 -0.17491888 -0.09365462 0.030420365 -0.077128686
-0.085432336 -0.14439453 0.12395606 -0.31777966 1.1171325 0.06765254 0.057939302 -0.026113806
0.08107796 -0.058621064 0.15014268 0.2877689 -0.14026417 0.023807846 0.14501932 -0.24079749
-0.080369934 -0.16685566 -0.043170072 0.8331162 -0.30847296 0.17745051 0.40114355 -0.17255591
-0.62537426 -0.67230517 0.119906016 0.13217603 -0.0008113256 6.768629e-05 0.12276741 0.071356535
-0.14755479 -0.07287858 -0.22378223 -0.38109002 0.073622905 0.10500287 0.31201488 0.06563614
0.048013467 -0.003707151 0.07252257 -0.16277815 0.22744067 0.17820798 -0.057359222 -0.06253343
0.6909863 0.123713255 0.11547323 -0.028643284 -1.503814 0.26050162 0.24058095 0.070868835
-0.09332622 -0.2963829 0.11181655 0.104761586 -0.3763792 -0.0884606 -0.12188002 -0.32936078
0.050398048 -0.1583888 -0.16750865 -1.5523009 1.827917 -0.07522812 -0.3702875 -0.11258692
0.06172181 -0.22547193 0.0063888356 -0.028912425 -0.51881033 -0.0043095383 -0.18646964 0.34356108
-0.19871794 0.14289719 -0.7675104 0.04848149 -0.19116129 0.60365874 -1.2648946 -0.026387502
0.020916339 0.26576144 -0.23770374 0.6475839 0.02405225 0.11535172 -0.01716911 -0.15587872
-0.27101383 -0.10962993 0.001232486 -0.3235297 0.42415655 0.1835182 1.0159984 -0.07718665
-0.067856655 0.08101139 -0.20490475 -0.2549935 -0.2718467 -0.31255788 -0.024557926 0.11503634
-0.17185605 0.0341856 0.09300773 0.032722197 0.032894548 -0.061754983 0.14202385 1.3255678
0.012989385 -0.31407684 0.4410636 -0.062254187 0.20913912 0.19013138 0.054169793 -0.19908619
00000000: 534e e3bd 2255 6c3b 45dc 0b3d adfe 483e
00000010: 5432 3bbd a3e6 1cbe a805 7e3e 8036 79be
00000020: e9d0 4dbe 8b99 78bd eecc b43f dffd 823e
00000030: 33a4 953e 45ad b0bd e08d b53e ad81 843d
00000040: 8721 c23d a550 5cbe e18a babd b669 52be
00000050: b732 a0bc 576a 5dbe 3362 9fbd a97c 173e
00000060: 6a03 28bf bb75 62bd 53e0 9c3e 99f8 cf3d
00000070: f403 24be e752 b73d 997a c3bd 80ba c53e
00000080: 5e0e 64bf bfee 473c d69c 223e 1cb2 913c
00000090: 2b44 c83d 9683 813e 4f55 f83d 050d c1bd
000000a0: 4a97 593e 7135 a43f 802a ce3c b5b3 043f
000000b0: fcf1 6f3c dd05 dfbd 6968 003e 92a8 b3be
000000c0: fee8 0d3f da74 153e 8a4e d0bc 8de1 5b3e
000000d0: 479c bf3d f563 9e3d ae1c 153e af7c a2be
000000e0: 158a 3ebd a715 c93d f69f 03be 4cfd 123c
000000f0: 0620 05bf 9ef8 adbf d830 933e 67ce b03f
00000100: 3fb9 693d 00a5 ea3c c87a dbbd 530f 3b3d
00000110: 327b 32bd 35b8 563f f79a ed3f 0831 0cbe
00000120: 3991 a13d 7f1b 3bbe 205b 1cbd 5a6a bdbd
00000130: 5683 0bbd 58c2 41bd d6a9 c43d ae1f 8d3e
00000140: e8e7 ed3d 8d0c 473f 39c0 153e 8f58 2bbe
00000150: d685 14be e29f 47be 1e96 09bd f775 05bd
00000160: 2152 babe 84d2 72be 30d9 c1be 33d5 2cbd
00000170: 050a 653e 6768 3e3e 9541 f9bc 0692 053e
00000180: 0aab 4b3d 8452 973d 2dee 763e 958a 913e
00000190: 3c5f 0f3f 7489 34bd 9a32 18be 928e 1ebe
000001a0: 4c4b 84bd 3d6b 0abd 6317 76be 6769 46be
000001b0: 0f87 12bf 5360 10be cca8 4fbf 365a a2bd
000001c0: 2dd3 bc3d ae3e 9abb 379e 06bd ab38 2a3e
000001d0: da68 dbbd 89de a93c eddc 563e 4b67 abbd
000001e0: e998 e53e cc10 253d 652e 543d e01b 4d3d
000001f0: ef1d 33be fecd bfbd 2134 f93c a5f5 9dbd
00000200: 26f7 aebd 29dc 13be addc fd3d 04b4 a2be
00000210: 33fe 8e3f 6a8d 8a3d c351 6d3d 9fec d5bc
00000220: 340c a63d a41c 70bd 01bf 193e 7256 933e
00000230: 69a1 0fbe ac08 c33c f27f 143e 9e93 76be
00000240: fe98 a4bd 36dc 2abe 1ad3 30bd 1a47 553f
00000250: 2bf0 9dbe 96b5 353e b062 cd3e 7fb2 30be
00000260: 8718 20bf 311c 2cbf 4991 f53d 2759 073e
00000270: 24af 54ba cdf2 8d38 7b6d fb3d 6023 923d
00000280: 9a18 17be 5d41 95bd 2b27 65be 3b1e c3be
00000290: 9bc7 963d bf0b d73d 6ac0 9f3e 3e6c 863d
000002a0: c5a9 443d acf3 72bb b786 943d 51af 26be
000002b0: 35e6 683e 277c 363e 81f1 6abd 8711 80bd
000002c0: 7ae4 303f 605d fd3d 3b7d ec3d 52a5 eabc
000002d0: fa7c c0bf 7860 853e da5a 763e ae23 913d
000002e0: d121 bfbd 80bf 97be 1300 e53d 3e8d d63d
000002f0: c6b4 c0be d52a b5bd 3b9c f9bd faa1 a8be
00000300: 2f6e 4e3d ac30 22be 6387 2bbe ccb1 c6bf
00000310: 2ff9 e93f 3311 9abd 5396 bdbe f993 e6bd
00000320: 02d0 7c3d 1de2 66be 7059 d13b c0d9 ecbc
00000330: c1d0 04bf 0737 8dbb e6f1 3ebe 3de7 af3e
00000340: b77c 4bbe a453 123e 907b 44bf 8794 463d
00000350: c9bf 43be 6189 1a3f 11e8 a1bf 9a2a d8bc
00000360: be58 ab3c e211 883e 9c68 73be 0fc8 253f
00000370: 3909 c53c 863d ec3d 3ca6 8cbc ac9e 1fbe
00000380: 53c2 8abe a885 e0bd 5e8b a13a afa5 a5be
00000390: 0c2b d93e 32ec 3b3e 3c0c 823f 0914 9ebd
000003a0: 6ef8 8abd 4de9 a53d 8dd2 51be 828e 82be
000003b0: 7e2f 8bbe 9607 a0be b42d c9bc 2c98 eb3d
000003c0: 08fb 2fbe 3306 0c3d d67a be3d b607 063d
000003d0: 6fbc 063d cbf2 7cbd b36e 113e 35ac a93f
000003e0: 6ed1 543c aece a0be 17d3 e13e 3ffe 7ebd
000003f0: 9128 563e cdb1 423e 25e1 5d3d 40dd 4bbe

linear.3.weight f4 [64, 256]
-1.3135358 2.055024 1.6285515 -0.701906 -0.71867 -1.3671695 1.103716 -0.90419054
-1.1511672 1.8974417 0.32603696 -0.4245266 -2.1200328 2.3620517 0.76075315 2.5438602
1.4836508 1.1212779 -2.0669303 -0.9085877 -1.3626353 2.1938317 2.6050136 0.9987863
-0.42397785 -1.2540666 -0.40643376 2.1632333 -1.0855519 0.9993364 0.84869546 0.8730363
-0.1284958 -1.5283288 1.7522861 -2.002636 -1.557218 -0.1887841 1.3964703 3.0546837
1.2910632 0.57300717 0.5175207 0.29910177 2.372424 -2.028518 1.2854133 -1.6991436
0.35079718 0.9656845 -1.5417346 1.3379894 1.5406871 -0.585169 -1.7031556 -1.7928785
2.237063 -2.2264504 1.2179757 1.123882 -0.5911435 -0.31427884 0.5895418 0.06357299
2.1735692 -0.2971292 -1.9838682 1.1295197 -0.94330335 0.22261563 0.5206222 1.6433359
-1.6533651 2.0067818 -1.7983806 -1.0559742 2.0431066 -2.088628 -1.3496722 -1.3391216
0.31138924 -0.09854482 1.9323455 1.2828809 -1.4247395 1.0294049 0.7571023 -1.5023569
1.818009 -1.2724221 1.8378353 -0.40705302 1.6771903 2.535536 0.12782396 -2.8880758
1.505972 -1.7409457 -0.99479836 0.1679627 -0.3186694 -1.638976 -2.3449285 1.0614165
-1.5246047 -1.3681676 2.0001075 -2.3359983 -0.785959 1.8109338 -0.41269553 -1.8290908
2.7971618 0.83031 1.1352856 -1.5409473 2.0726411 -2.2064786 -0.26303047 -0.84428006
0.7657631 2.0681033 0.9882491 -1.9079951 -2.1627057 0.9188394 1.4718194 0.16527697
2.244154 1.2835188 0.5435522 0.9674958 0.5924477 -0.33131802 -1.4377311 -1.3787229
-1.6235192 -1.1668625 2.206254 1.1240488 3.1818593 2.0313563 -1.2188504 1.551706
-2.6051042 0.8341657 1.9343493 0.4685709 -1.9320678 -1.9741266 -0.82436585 -1.890264
-0.45819217 -0.8944263 -2.6289656 0.9867372 2.1759636 -0.85672826 0.65094364 1.7694149
-1.8188162 -1.0508858 -1.7951947 -2.5229778 -1.2795238 1.1384864 -1.0020838 2.1667132
-0.046464417 0.86093587 1.4376501 2.3454785 1.4605372 0.9747254 1.0062611 -1.6602408
0.13967828 -2.0734239 -2.215519 -1.9024379 -0.034238704 -0.034155548 -2.4076455 1.847451
2.8521492 2.107076 1.9407909 1.8816154 -1.3172711 -1.2400384 1.506321 -0.69678915
-1.8156699 2.376527 1.0169425 -0.15082951 0.3088381 -1.1224772 -1.0661764 3.450769
-1.4868275 2.1768389 2.5293841 -2.1048048 -0.7591844 1.3651801 -1.5255258 0.7008626
-0.8611397 -1.136642 -0.30921838 -2.2769277 1.2586287 0.20061234 -0.3056591 2.8583221
2.6112494 0.16653956 3.380094 0.32076326 -1.2995112 -3.0394158 2.05821 -1.9108615
-1.6615955 -2.1092875 2.7085707 2.2609656 0.43698496 -1.5801274 -0.33495542 2.5079408
-1.4294684 2.6481626 -0.7666507 2.2179992 -1.7296807 -1.4211994 -1.5618442 -0.6145678
-1.5345914 2.4619613 -0.9133384 2.2745302 1.6511403 1.9841826 -0.26898694 0.55914843
-2.0664108 -1.4116738 0.3989587 -0.25559527 -1.349414 -1.5052782 -1.4685689 -1.0265163
00000000: f121 a8bf 8385 0340 6074 d03f 1db0 33bf
00000010: c2fa 37bf 69ff aebf 9146 8d3f 0879 67bf
00000020: 7259 93bf 5fdf f23f 51ee a63e 8d5b d9be
00000030: 9eae 07c0 db2b 1740 b8c0 423f 9bce 2240
00000040: 45e8 bd3f 0986 8f3f 9648 04c0 3499 68bf
00000050: d56a aebf bd67 0c40 8bb8 2640 75b0 7f3f
00000060: a013 d9be 4185 a0bf 1618 d0be 6a72 0a40
00000070: 5df3 8abf 83d4 7f3f 1b44 593f 4f7f 5f3f
00000080: 6794 03be 47a0 c3bf e94a e03f 302b 00c0
00000090: eb52 c7bf 9e50 41be 8abf b23f f07f 4340
000000a0: 8f41 a53f 99b0 123f 3d7c 043f de23 993e
000000b0: cbd5 1740 3dd3 01c0 6c88 a43f 8a7d d9bf
000000c0: b09b b33e 1937 773f 8f57 c5bf 3d43 ab3f
000000d0: 3c35 c53f a3cd 15bf 0101 dabf 0b7d e5bf
000000e0: 0a2c 0f40 2a7e 0ec0 a1e6 9b3f 5edb 8f3f
000000f0: 2e55 17bf 28e9 a0be 36ec 163f 8e32 823d
00000100: c21b 0b40 5221 98be 65ef fdbf 1a94 903f
00000110: 547c 71bf 5af5 633e 7f47 053f d558 d23f
00000120: 78a1 d3bf 1d6f 0040 5631 e6bf 2a2a 87bf
00000130: 42c2 0240 15ac 05c0 0fc2 acbf 5668 abbf
00000140: 696e 9f3e ded1 c9bd 1957 f73f 7135 a43f
00000150: dd5d b6bf 8ac3 833f 75d1 413f 3b4d c0bf
00000160: 85b4 e83f bade a2bf 303e eb3f 4169 d0be
00000170: 2cae d63f 3946 2240 49e4 023e 3cd6 38c0
00000180: b1c3 c03f 4fd7 debf 1bab 7ebf 6afe 2b3e
00000190: a328 a3be f7c9 d1bf 4f13 16c0 7fdc 873f
000001a0: 3f26 c3bf 1e20 afbf c301 0040 ff80 15c0
000001b0: 9c34 49bf aecc e73f d44c d3be a61f eabf
000001c0: b304 3340 328f 543f 0a51 913f c33d c5bf
000001d0: 27a6 0440 f236 0dc0 eeab 86be bd22 58bf
000001e0: 0d09 443f ce5b 0440 e5fd 7c3f 2f39 f4bf
000001f0: c569 0ac0 0f39 6b3f 9464 bc3f 5e3e 293e
00000200: 38a0 0f40 584a a43f 3d26 0b3f cead 773f
00000210: a7aa 173f 84a2 a9be 9307 b8bf fe79 b0bf
00000220: 7acf cfbf c05b 95bf 4433 0d40 d5e0 8f3f
00000230: 95a3 4b40 be01 0240 4a03 9cbf 4d9e c63f
00000240: 07ba 26c0 e28b 553f c298 f73f 86e8 ef3e
00000250: ff4d f7bf 2eb0 fcbf a409 53bf 2cf4 f1bf
00000260: 2a98 eabe 1ff9 64bf f940 28c0 cf9a 7c3f
00000270: fd42 0b40 8b52 5bbf 3ea4 263f 307c e23f
00000280: f8ce e8bf 6d83 86bf f1c8 e5bf 7878 21c0
00000290: 70c7 a3bf ecb9 913f 4844 80bf 6eab 0a40
000002a0: 7951 3ebd 4b66 5c3f eb04 b83f 521c 1640
000002b0: e2f2 ba3f 9b87 793f 2acd 803f c582 d4bf
000002c0: d307 0f3e fab2 04c0 10cb 0dc0 1683 f3bf
000002d0: e23d 0cbd b0e6 0bbd dd16 1ac0 4679 ec3f
000002e0: 9d89 3640 55da 0640 d66b f83f c6d8 f03f
000002f0: 579c a8bf 94b9 9ebf 20cf c03f c660 32bf
00000300: df67 e8bf 0519 1840 2c2b 823f 0d73 1abe
00000310: 0720 9e3e 55ad 8fbf 7878 88bf 66d9 5c40
00000320: 5d50 bebf 5451 0b40 6ee1 2140 1fb5 06c0
00000330: e959 42bf 39be ae3f 6e44 c3bf bb6b 333f
00000340: a773 5cbf 7c7d 91bf df51 9ebe 2fb9 11c0
00000350: bf1a a13f 526d 4d3e 597f 9cbe c0ee 3640
00000360: b61e 2740 5989 2a3e 7653 5840 153b a43e
00000370: 6256 a6bf ca85 42c0 b6b9 0340 1c97 f4bf
00000380: 29af d4bf 91fe 06c0 3959 2d40 a9b3 1040
00000390: 7ebc df3e 9d41 cabf 477f abbe 1a82 2040
000003a0: d2f8 b6bf 7f7b 2940 3843 44bf b3f3 0d40
000003b0: 2d66 ddbf dde9 b5bf 83ea c7bf 5154 1dbf
000003c0: 7e6d c4bf c690 1d40 8cd0 69bf e791 1140
000003d0: 9158 d33f b2f9 fd3f a8b8 89be 5a24 0f3f
000003e0: 1340 04c0 bab1 b4bf 5144 cc3e 62dd 82be
000003f0: 99b9 acbf f5ac c0bf 11fa bbbf e364 83bf

linear.3.bias f4 [64]
0.028719446 -0.13371895 0.06713082 -0.16585746 0.277012 -0.07040928 -0.30008516 -0.17118856
0.021138253 -0.18348475 -0.257749 -0.3636875 -0.30737945 -0.32014823 0.13379745 -0.2925323
-0.17013344 -0.14804848 0.090944886 -0.32665357 0.08898414 0.5222853 -0.014284589 0.25827187
0.22750485 -0.47609442 -0.4234384 -0.46029347 -0.41988197 -0.19167696 -0.2509111 -0.22715917
0.06908303 -0.39836442 -0.5065932 -0.06554554 -0.31383252 0.17236842 -0.619413 -0.1865369
-0.17128365 -0.39277938 0.23486629 -0.1644839 0.011252094 -0.17420398 -0.29650277 0.043425366
-0.43153897 0.1261053 0.21885623 0.19056216 0.26627544 -0.19052017 -0.08400601 0.13544358
-0.3498391 -0.12291718 -0.30641106 -0.39355218 -0.4669041 0.20242158 -0.32982352 -0.3134692
00000000: 0b45 eb3c 9fed 08be e27b 893d 8ad6 29be
00000010: 84d4 8d3e be32 90bd c3a4 99be 0e4c 2fbe
00000020: 212a ad3c 6de3 3bbe adf7 83be 3f35 babe
00000030: d760 9dbe 78ea a3be 3302 093e cbc6 95be
00000040: 7637 2ebe 059a 17be 5041 ba3d 233f a7be
00000050: 513d b63d 7db4 053f e909 6abc 363c 843e
00000060: 08f7 683e a6c2 f3be ebcc d8be 96ab ebbe
00000070: c5fa d6be f746 44be 6b77 80be 6a9c 68be
00000080: 677b 8d3d 6cf6 cbbe 18b0 01bf bd3c 86bd
00000090: a8ae a0be 5981 303e da91 1ebf 8703 3fbe
000000a0: fb64 2fbe 611a c9be ca80 703e 786e 28be
000000b0: b45a 383c 8762 32be 36cf 97be ccde 313d
000000c0: adf2 dcbe bf21 013e d91b 603e ba22 433e
000000d0: 4155 883e b817 43be 580b acbd b9b1 0a3e
000000e0: 1c1e b3be 01bc fbbd e9e1 9cbe ac7f c9be
000000f0: 0e0e efbe 9a47 4f3e a1de a8be 097f a0be

reg.weight f4 [2, 128]
1.7502965 -1.3172386 0.68294513 -1.9333606 1.0227407 0.6636066 -1.0540149 1.1625694
0.6019715 0.96080625 0.8472549 0.064114735 1.637108 1.2635417 -0.7844734 -1.0662873
0.47784126 0.71497434 1.0763742 0.42067003 0.9571014 0.96537584 0.64079314 0.34484577
1.0832427 0.6154982 0.0025701607 0.4578086 -0.21684383 -0.9573906 -1.2125396 1.2549977
0.9636627 1.7283034 1.5546722 0.044172004 0.64673156 0.6777414 -1.1740836 0.40197012
0.47485715 1.7545335 0.079826295 0.33202192 -0.9260068 -1.1863867 0.9197036 1.0768472
1.5368506 0.7214533 -1.2015692 0.51875335 0.061391976 1.3826123 0.5343095 -1.8982114
1.7665453 0.44889748 0.24476999 0.081721306 0.08672026 0.021809464 1.0954103 1.4894878
5.182127 5.295707 5.0030465 5.214765 -2.8766022 5.1080894 5.2628894 5.179219
-2.8886967 5.2954154 5.1579323 5.21049 5.3186083 5.15223 -2.8255818 5.2634306
5.0366297 5.093792 -2.8666022 5.1649256 5.1027303 -3.1039605 5.251684 -2.9238791
-2.8123286 5.1596937 5.188944 5.1592617 5.1137934 4.959612 5.200375 5.13155
5.1869545 5.152466 5.182899 5.249769 5.10512 -2.8597999 2.6367812 5.0689354
5.105375 5.1724763 5.1349225 5.181953 5.2190604 5.1565876 5.106142 5.279841
2.6234684 5.121154 -2.845752 -2.8550673 -2.9139466 5.07693 5.1970086 -2.8089345
5.1612372 5.1385 5.134943 5.1649976 5.1644006 -2.898862 5.1925745 5.1397486
-0.02288903 -0.022087824 -0.0073700217 0.09692007 0.006476124 0.0035403364 -0.024418315 -0.0080365045
0.009543219 -0.002145919 0.013173097 0.04567566 -0.01047999 -0.031651873 0.0051258686 0.0090892315
0.0063187242 -0.016005315 0.006206399 -0.00178799 -0.01222475 0.00452952 -0.003339384 -0.028564071
-0.011665561 0.0064646984 0.12600146 -0.009397432 0.5189653 -0.0049375547 -0.01824372 0.013886383
0.029655227 0.0015969544 -0.008138267 0.028586006 -0.019487973 0.0066888737 0.030190282 -0.012331147
0.027879452 0.0117143765 -0.066364706 0.001848212 0.024789322 -0.008511654 0.0019573462 0.018462364
-0.0076391436 0.005516173 -0.019178974 0.0054911645 0.14154385 -0.0033347174 0.0035321973 0.0009951582
0.025532532 0.0062946137 -0.324431 -0.008822741 -0.07831127 -0.15312755 0.082867965 0.0064476132
0.0075846547 0.004827897 0.0063724173 -0.008466551 0.0123327095 0.009852791 0.005526955 -0.0052286903
-0.020423388 -0.0023645652 -0.009965524 0.0018753848 -0.0019117286 -0.0051405504 -0.015196295 -0.0016033844
0.014671946 -0.023031635 -0.0029787722 0.0016460057 0.006849456 0.00045406353 -0.0019788595 -0.012220585
0.009000832 0.004760429 -0.0049383673 -0.006101636 -0.0045350958 -0.00905033 -0.008368678 0.012263225
0.012185002 0.0031104158 0.0003245258 -0.015477416 0.0132769905 -0.022883503 0.013610654 -0.0003502061
0.014186379 0.009912017 0.0050721155 8.272308e-05 -0.002432953 -0.0065179323 -0.0078122388 -0.017487481
-0.11116322 -0.018422218 0.00410741 0.03147664 0.02279698 0.007849305 0.009447847 -0.00080394855
0.023273494 0.003839316 -0.022792425 -0.00014273507 -0.007907282 -0.0068589193 0.0003445678 0.001536438
00000000: b709 e03f 469b a8bf 7ed5 2e3f 5c78 f7bf
00000010: 2be9 823f 1fe2 293f f6e9 86bf 13cf 943f
00000020: ce1a 1a3f 66f7 753f b2e5 583f 964e 833d
00000030: c18c d13f bcbb a13f 40d3 48bf 1a7c 88bf
00000040: 9ca7 f43e 8f08 373f a1c6 893f 1062 d73e
00000050: 9904 753f df22 773f 050b 243f a08f b03e
00000060: b2a7 8a3f 4a91 1d3f 2470 283b e465 ea3e
00000070: 4f0c 5ebe 8d17 75bf 7f34 9bbf c4a3 a03f
00000080: 99b2 763f 0c39 dd3f 80ff c63f b4ed 343d
00000090: 3390 253f 7680 2d3f 5f48 96bf 07cf cd3e
000000a0: 7a20 f33e 8e94 e03f f87b a33d c7fe a93e
000000b0: c80e 6dbf 85db 97bf b271 6b3f 21d6 893f
000000c0: 85b7 c43f 2ab1 383f 05cd 99bf 05cd 043f
000000d0: 2776 7b3d 71f9 b03f 82c8 083f 97f8 f2bf
000000e0: 281e e23f e4d5 e53e fca4 7a3e 805d a73d
000000f0: 649a b13d c3a9 b23c 6836 8c3f 89a7 be3f
00000100: fcd3 a540 6f76 a940 f518 a040 5bdf a640
00000110: 401a 38c0 7875 a340 9769 a840 29bc a540
00000120: 68e0 38c0 0b74 a940 c80d a540 56bc a640
00000130: 0a32 aa40 11df a440 55d6 34c0 066e a840
00000140: 122c a140 5800 a340 6976 37c0 1247 a540
00000150: 9149 a340 4aa7 46c0 cc0d a840 d620 3bc0
00000160: 31fd 33c0 361c a540 d40b a640 ac18 a540
00000170: 32a4 a340 24b5 9e40 7969 a640 a835 a440
00000180: 88fb a540 00e1 a440 4fda a540 1cfe a740
00000190: 255d a340 f606 37c0 06c1 2840 b834 a240
000001a0: 3b5f a340 ed84 a540 4951 a440 8fd2 a540
000001b0: 8b02 a740 c402 a540 8465 a340 75f4 a840
000001c0: e8e6 2740 7ee0 a340 cd20 36c0 6cb9 36c0
000001d0: 1a7e 3ac0 3676 a240 e54d a640 95c5 33c0
000001e0: db28 a540 986e a440 7451 a440 a947 a540
000001f0: c542 a540 f486 39c0 9229 a640 d278 a440
00000200: c681 bbbc 86f1 b4bc 3980 f1bb 087e c63d
00000210: aa35 d43b fd04 683b eb08 c8bc 8bab 03bc
00000220: 295b 1c3c 8ca2 0cbb f9d3 573c 6716 3b3d
00000230: 44b4 2bbc 65a5 01bd e7f6 a73b 00eb 143c
00000240: 4d0d cf3b 941d 83bc 0c5f cb3b fd5a eaba
00000250: 514a 48bc 5e6c 943b 91d9 5abb 33ff e9bc
00000260: e920 3fbc d2d5 d33b 8706 013e b0f7 19bc
00000270: e9da 043f 36cb a1bb db73 95bc b683 633c
00000280: 85ef f23c e650 d13a 5e56 05bc 332d ea3c
00000290: 3ea5 9fbc 572e db3b 9c51 f73c 9408 4abc
000002a0: 7363 e43c a8ed 3f3c 38ea 87bd b43f f23a
000002b0: fa12 cb3c 7774 0bbc d246 003b 623e 973c
000002c0: c851 fabb 03c1 b43b 391d 9dbc 3aef b33b
000002d0: dff0 103e 468b 5abb 707c 673b f86f 823a
000002e0: 9a29 d13c 0c43 ce3b d21b a6be 428d 10bc
000002f0: a961 a0bd 78cd 1cbe aeb6 a93d 8046 d33b
00000300: b288 f83b 5633 9e3b b6cf d03b 4ab7 0abc
00000310: 220f 4a3c 9a6d 213c 751b b53b 6f55 abbb
00000320: f34e a7bc d2f6 1abb 7046 23bc 79cf f53a
00000330: f892 faba 1072 a8bb e2f9 78bc a728 d2ba
00000340: 9a62 703c d7ac bcbc 8137 43bb c9be d73a
00000350: 6771 e03b 600f ee39 c1af 01bb d938 48bc
00000360: 3a78 133c 5ffd 9b3b 07d2 a1bb 3cf0 c7bb
00000370: 249b 94bb d647 14bc c81c 09bc b2eb 483c
00000380: 9aa3 473c 1ed8 4b3b 1e25 aa39 fd94 7dbc
00000390: bc87 593c 2f76 bbbc 38ff 5e3c de9b b7b9
000003a0: fc6d 683c 0366 223c fd33 a63b 9e7b ad38
000003b0: 2e72 1fbb 6194 d5bb cffd ffbb e841 8fbc
000003c0: 8ba9 e3bd 31ea 96bc 7497 863b a6ed 003d
000003d0: bbc0 ba3c 5f9a 003c 24cb 1a3c 13c0 52ba
000003e0: 0ea8 be3c 099d 7b3b 2eb7 babc 27ab 15b9
000003f0: 8b8d 01bc c9c0 e0bb 1ba7 b439 4e62 c93a

reg.bias f4 [2]
-0.24647547 0.1893479
00000000: 1164 7cbe 6ae4 413e
