server/model2/value_model_minmax70.pt (torch, 255287 bytes, 12 tensors)

conv.0.weight f4 [4, 1, 3, 3]
00000000: e0e3 973f 694c 763e 0249 e13f 2ed4 783f
00000010: f9db e13e 9d03 b83e d7fb 4a3f 7814 57bf
00000020: c578 5f3f 40f0 233f f011 aa3e 0904 003e
00000030: f51a 213e e977 fa3f e1f5 debe 44f7 af3f
00000040: 6d06 1dbf 3396 0f3f a706 9b3e fc87 853e
00000050: 111d 653e af22 8abe db65 4e3f 6a24 fb3f
00000060: 44b6 f03e 57ff 223e c4e3 423f e286 b33f
00000070: 49fe f4be f66b bb3f b3d4 933f 0d6e eb3e
00000080: b27f 613f e160 a0be 1265 0c3f f6ba 5fbf
1.1866417 0.24052586 1.7600405 0.9719876 0.44113138 0.35940257 0.7929053 -0.8401561
0.87293655 0.6403847 0.3321681 0.1250154 0.1573294 1.9567844 -0.43546966 1.3747334
-0.6133793 0.5608856 0.30278513 0.2608031 0.22374369 -0.26979586 0.8062417 1.9620488
0.47014058 0.15917717 0.7612879 1.4025538 -0.47850254 1.4642322 1.1549286 0.459824
0.8808547 -0.31323913 0.5484172 -0.87394655

conv.0.bias f4 [4]
00000000: 7076 663f f043 893e 9b0e 013f 99a4 573f
0.9002447 0.26809645 0.5041291 0.8423553

conv.2.weight f4 [4, 4, 3, 3]
00000000: b8ed 783f 6139 bf3f ef06 6b3f 3f4f bc3f
00000010: 5e11 0d3f 18e5 863f bb59 8d3e c565 593f
00000020: 7d0a 1d3f 7b8a c63f 52f0 323f 988e 953f
00000030: 0537 f03f 317e c7be a153 163f e183 25bd
00000040: 6c38 523f 8fea 193e 6279 e23e d51e 923f
00000050: 7946 423f 16e3 9d3f fb04 793e 344d 163f
00000060: 5cab f93e 4aa0 8b3d 659d 6f3f b8a5 993f
00000070: 586f 8f3f 01d8 a03f d01e 963f 274d 133f
00000080: 8695 a13f f0e2 143f 18c9 7f3f d8a9 0a3f
00000090: ae07 a83e 3d28 50bd e5d9 e2bf 12db 693f
000000a0: ce52 3d3f 14b6 56bf b5d0 373f 4499 773f
000000b0: cfa4 0fbf b686 04bf e858 2a3f 98f8 fbbf
000000c0: 440b 243e c3dd 983f d864 0bbe c83e 53be
000000d0: 9dd9 bebd e6c0 14bf a89d db3e 45a9 ce3d
000000e0: 172d 46be bc87 293f 4969 02bf b9dc 2fc0
000000f0: 3499 82bb 4a0a 8f3d 34e1 2f3e cb0e 353f
00000100: fe70 4e3e 767b 56bf 2ba1 633f 0499 683f
00000110: 422b 22c0 8e29 323f 8693 d73f e9d0 95bf
00000120: b8f3 833f f145 2d3f b3e2 2f3f db6f a03f
00000130: c90b 553f 7e7b 573e c559 823f b12e 173f
00000140: 8ff0 8d3f 4622 e13f e042 4d3f c3f5 833e
00000150: d9ce 9e3f b0dd 313f 8a49 b0be 79a4 833e
00000160: 4496 d33e 2245 383f e436 683f b800 5c3f
00000170: ccc7 88bf 6b0a 403f 120d 283f 28cf f73e
00000180: 064d b53e 23cb 9d3d 3ec2 873e 64d2 923f
00000190: 4ba1 2e3f 16b1 df3d 624f 863f 8c99 973f
000001a0: 1adf a23f 7323 653f bed7 203f 7a4f 103f
000001b0: 7040 c23e fffc 9e3f 0cbb 1c3e c94e 423f
000001c0: b1f2 223f 241f 3b3f 899e 093f f1a7 363f
000001d0: 16ff 363f cb6a e93e c41a 5b3f 07db 373f
000001e0: e1a7 653f 0b9f 273f c390 203e 00b6 e73e
000001f0: 57b0 2a3e 3bbe 5b3f c497 7d3e f87c 603f
00000200: ac1f 2bbf 3fb5 613f d4fd 1b3f 9eb3 883e
00000210: e63e 4a3e e419 643e f608 a53e 19b0 9c3e
00000220: bbd1 bc3e b7f8 333f e215 6b3f 174d 2b3f
00000230: 2af9 963f 3128 813e ab3b 203f 9629 2d3f
0.9723773 1.4939386 0.91807455 1.4711684 0.55104625 1.0538664 0.2760752 0.84920913
0.6134413 1.5511011 0.6989795 1.1684141 1.8766791 -0.38963464 0.5872136 -0.040408973
0.8211734 0.15030883 0.44233233 1.1415659 0.7588878 1.2334926 0.24318306 0.5871155
0.4876355 0.06817682 0.9359954 1.2003698 1.1205854 1.2565919 1.1728153 0.575396
1.2623756 0.5815878 0.9991622 0.5416541 0.3281836 -0.050819624 -1.7722746 0.913499
0.73954475 -0.8387158 0.71802837 0.9671824 -0.5611085 -0.5176805 0.6654191 -1.968524
0.16019922 1.1942676 -0.13612688 -0.20629418 -0.0931885 -0.5810684 0.4289372 0.10090879
-0.19353138 0.6622274 -0.509419 -2.7478468 -0.0039855484 0.06984384 0.17175752 0.707257
0.2016029 -0.83782136 0.889178 0.90858483 -2.5338902 0.6959466 1.6841896 -1.1704379
1.0308752 0.6768485 0.6870529 1.2534136 0.8322111 0.21043202 1.0183645 0.5905562
1.1089038 1.7588584 0.8018017 0.2577344 1.2406875 0.69478893 -0.34431106 0.2571142
0.4132558 0.7198049 0.90708756 0.85938597 -1.0685973 0.75015897 0.65644944 0.48400235
0.35410327 0.07704761 0.26515383 1.1470456 0.68214864 0.10922448 1.0492976 1.1843734
1.2724335 0.89507216 0.62829196 0.5637127 0.37939787 1.2420958 0.15305728 0.75901467
0.6365157 0.7309439 0.5375753 0.7135001 0.7148298 0.4558929 0.85587716 0.71818584
0.8970929 0.65477055 0.15680222 0.45256042 0.16668831 0.85837144 0.24764925 0.8769069
-0.668452 0.88167185 0.60934186 0.26699537 0.19750556 0.22275501 0.322334 0.30603102
0.36878762 0.70301384 0.91830266 0.66914505 1.1794789 0.25225976 0.62591046 0.6764158

conv.2.bias f4 [4]
00000000: 24bc 3f3f a548 903e ff65 113f d4ce 923e
0.74896455 0.28180423 0.5679626 0.28673422

conv.5.weight f4 [64, 36]
00000000: 0e9f f3bc 3d8c 423d 1993 fc3d 876d a3be
00000010: 3cc8 89bc 03f0 79bb 4ba4 0f3e 7ff0 cbbd
00000020: fece 503d e59f eb3e 0a65 57bf ffc9 893e
00000030: 9eee 313f 49ea 3abf 7b39 073e b08c d6be
00000040: 07a7 1e3c faa5 f7bb 3d76 fdbd 534f f3bd
00000050: 7a77 2f3e 15be ba3c 31a1 37be 08ed a73d
00000060: c41c d73d 8fed 91bd e81f 883d c36d 4cbe
00000070: 13f7 293d 86f8 f63d a045 9abd d351 9b3c
00000080: 54a4 e13d ac66 04bd 8ae7 243d c734 ef3d
00000090: 9b4f e3bd 1085 87be e84c 8bbe d799 f53d
000000a0: 9bcc 693e 23d8 ed3e 5f80 f6bd 39c2 b9bd
000000b0: 5fb2 dc3d 9885 1b3f 38ea 5abf d0d9 c5be
000000c0: b4d0 e93e 6825 3a3f f55c c9ba 1347 733e
000000d0: 8121 113f 1399 6abf eeb0 afbe 4d01 edbd
000000e0: 796d 9d3d 5153 483e bde4 2f3e 8f41 8a3e
000000f0: b658 523e 3ed6 8c3e 796a 2fbf 3319 b9be
00000100: 340f ebbc b127 fabd f4a3 c13e b841 9d3d
00000110: 6456 d4be 05ac 7abc e466 b13d e8f0 32bf
00000120: 7b43 debe 82c7 7c3e 5e41 243f 8f95 653c
00000130: 45a2 f33c b646 133e 1580 2c3e c9d6 ba3e
00000140: 9688 103f 76f4 1ebf 8894 3b3f e2e0 343e
00000150: 5d4c d8be 20d2 533e 449d 153f c858 cdbd
00000160: c903 45bd 2e7a 963e f38f 43bf cd13 12be
00000170: f5bb 62bf f3a8 453f b77d 863e ca2e 213f
00000180: 0579 973f 4330 323e 08c8 b13e 4bd8 903f
00000190: f518 5b3e a841 8a3e 61c4 263f 2f31 2dbf
000001a0: 5d26 12bf fb72 1c3e e4c9 c5be 826a 203e
000001b0: 9159 8b3e 1226 d83d 6333 12bf d48f ee3d
000001c0: a247 3dbc 5b48 263d 90dd eabc 643d b8bd
000001d0: a74d 173e f7e4 10be d5a2 573e c6e2 e43e
000001e0: be7a 54bd 42d6 b63d c096 25c0 f972 2f3e
000001f0: def9 db3c 5390 073f d0ac 7d3d 158f 53be
00000200: 2504 703e e9ac 69be 5da3 c7bd 5c40 e5bf
00000210: dd00 26be 48e2 c13d ce68 0840 2a80 1bbe
00000220: f5eb e4bc db05 05be a96e f53d 11bd f1bc
00000230: b089 3d3c 1f0a 8cbd 7015 653d e4cc 3c3e
00000240: d42c 973e d5f0 b43e 93a0 56be 17f1 ac3d
00000250: 1ffe a23d ffb6 fd3d 8a23 02bf 1b4b 3fbe
00000260: 7a9b 913c e75e 40bf 1ab5 7d3f 452b 82be
00000270: 7782 43bf 8faf 353f 86a2 81bf 496f c13e
00000280: 3c25 4c3f 0fb9 30bf 04ff b2bd dd82 12be
00000290: c55a a23d b961 4a3d 842a 943e 4936 04bf
000002a0: 92a4 183f 870a 623f e28e 32bf 56f9 be3e
000002b0: 2707 a43e d304 843e 4831 f73e ebad 6ebe
000002c0: 8e84 a8bf fcd8 993e eeb1 3fbd 6cde a2bf
000002d0: 3035 8e3e 3e12 cf3d da7f 5c3d afc4 b3be
000002e0: 3e45 ca3e aca2 aabd 3aa8 b2be 2e90 94bd
000002f0: a5b4 663f 5bbf 6fbe 5134 613f cb3e b9bf
00000300: a3c8 debe 949d 71be ef39 04bf e78b abbf
00000310: a000 95bf 9050 2e3c 0a94 b1be bf2f e6bc
00000320: 04f7 da3e 90d6 5e3e e062 2bbd 9e2f 133e
00000330: cb9e c63e 3fb8 33be 8ae5 1d3f 44cd b9be
00000340: edba 8dbd 1b80 a93e 093e e53c 7816 d0bd
00000350: 6fde 02bf df7d 14be 38c3 c43d 0bdc 163f
00000360: d610 f33e 27f7 3f3f 4cd5 353f f597 0a3f
00000370: d187 683f 8dab 6b3f 61be f93e 7930 c23e
00000380: c41d e13e b3de 6d3f 5d9b a2bf 6788 7c3f
00000390: 3f0f a43e 911f 13bf 10c9 ba3f dee6 783f
000003a0: cf05 f63e bcc7 db3e a7dd 883f d2a8 8a3f
000003b0: 0665 4d3f 87f8 173f 970e 263f f6ca 9d3f
000003c0: 6be6 743e fbba cc3e f0b5 73be 4095 703f
000003d0: 0cfb 353f 178e 333f ec38 ff3e a540 443f
000003e0: e18e 903f 59a7 cf3e c12b 023f 5328 023f
000003f0: 8a14 af3e 8684 513e 60bb 6bbe 94d3 a3bc
-0.02973893 0.047497023 0.12332744 -0.319195 -0.016819112 -0.0038137443 0.14027517 -0.0995798
0.050978653 0.46020427 -0.8413855 0.26911923 0.69504726 -0.7301374 0.13205521 -0.4190421
0.009683377 -0.0075576277 -0.12376068 -0.11880364 0.1713542 0.022795716 -0.17932583 0.08199507
0.105035335 -0.07125389 0.06646711 -0.19963746 0.041495394 0.12059121 -0.07532811 0.018959915
0.11017671 -0.032324478 0.040259875 0.11679988 -0.11099168 -0.26468706 -0.27207112 0.11992233
0.22831957 0.46453962 -0.120362036 -0.09070248 0.10776209 0.6075072 -0.8551364 -0.3864274
0.4566704 0.7271333 -0.0015362786 0.23757581 0.5669175 -0.9163982 -0.34314674 -0.11572514
0.07686896 0.19563033 0.171771 0.27003142 0.20541653 0.27507204 -0.6852184 -0.36152038
-0.028693773 -0.12214602 0.378204 0.076785505 -0.4147216 -0.015299802 0.08662203 -0.69898844
-0.4341086 0.24685481 0.6416224 0.014012708 0.029740462 0.14382443 0.16845734 0.36491993
0.56458414 -0.6209177 0.73273516 0.17663911 -0.4224576 0.20685625 0.58443093 -0.10026699
-0.048099313 0.2939009 -0.76391524 -0.14265366 -0.8856805 0.7721092 0.26267788 0.6296202
1.1833807 0.17401223 0.34722924 1.1316007 0.21396239 0.27003217 0.651434 -0.67653173
-0.5708979 0.15278237 -0.38630593 0.1566563 0.2721677 0.10554136 -0.5710966 0.11648527
-0.011552723 0.040596347 -0.028670102 -0.08996084 0.14775716 -0.14149843 0.21058209 0.44704264
-0.05187487 0.08927585 -2.587326 0.17133702 0.026852544 0.52954596 0.061932385 -0.2066005
0.23439081 -0.22819866 -0.09747956 -1.7910266 -0.16211267 0.09466988 2.1313968 -0.1518561
-0.027944544 -0.12990515 0.119839974 -0.0295091 0.011568472 -0.06837868 0.055928648 0.18437535
0.2952639 0.3533999 -0.20959692 0.08444422 0.07958626 0.12388419 -0.5083548 -0.18680994
0.017774332 -0.7514481 0.99104464 -0.25423637 -0.7637095 0.70971006 -1.0127723 0.37780216
0.79744315 -0.69032377 -0.087400466 -0.14307733 0.07927469 0.0494096 0.28938687 -0.5164533
0.59626114 0.88297313 -0.6974927 0.37299603 0.32036707 0.2578493 0.48279786 -0.23308532
-1.3165452 0.30048358 -0.046800546 -1.2724128 0.27774954 0.10110901 0.053832866 -0.35110995
0.39505953 -0.083318084 -0.34893972 -0.072540626 0.9011939 -0.2341284 0.87970454 -1.4472288
-0.4351245 -0.23595268 -0.516509 -1.340207 -1.1640816 0.010639325 -0.34683257 -0.028098939
0.42766583 0.21761537 -0.04184234 0.14373633 0.38793024 -0.17550753 0.61678374 -0.36289418
-0.06920419 0.3310555 0.027983682 -0.101605356 -0.51120657 -0.14501141 0.096075475 0.5892951
0.47473782 0.749865 0.7102859 0.5413812 0.9083224 0.9205864 0.4877806 0.37927607
0.43968022 0.9291794 -1.2703663 0.98645633 0.32042882 -0.5747004 1.459261 0.97227275
0.48051307 0.42925823 1.0692643 1.083277 0.80232275 0.593636 0.6486601 1.2327564
0.23916022 0.39986405 -0.23799872 0.9397774 0.7108619 0.70138687 0.49848115 0.7666114
1.1293603 0.40557364 0.50848013 0.5084278 0.34195358 0.2046071 -0.23020697 -0.01999835

conv.5.bias f4 [64]
00000000: 5ea7 21bd 972e 8bbe 9cd1 18bf 423f 59be
00000010: 8779 84bd 8623 8cbe 25c5 6a3f c42a 903d
00000020: 6650 ccbe 6192 23be a5e3 f8be a1e4 54c0
00000030: 11a9 1cbf ed04 25bf 288f 0d3f 411f 91be
00000040: f092 3e3d 3987 33bf 1e6a 34bf 4519 c83c
00000050: 189d 51c0 d2b5 bcbe 3dd6 dabe a888 9ebe
00000060: 9b90 2cbf 15a3 31bf 7341 20bf c877 40c0
00000070: a21c c7be 754f a23e 789f ae3f 8645 2cbf
00000080: 7143 d4be 800d d2bd 99a4 38bf 2bd8 54be
00000090: dbab e0bf 6178 4ac0 188f 7f3f 6c41 22bb
000000a0: be28 ddbc d325 d3bd 9736 1abe aee8 b6be
000000b0: fc75 2e3f 8e41 34be 70f8 1ebf 1cd3 a73e
000000c0: 0602 27bf 4f87 11bf 3cb8 103e 5772 8dbe
000000d0: 4b25 19bf 416c c4be e116 eabd 5da7 6cbe
000000e0: 9ab8 53be fe41 04bd e70e 55bf 4e54 b3be
000000f0: 1c93 42bf b759 1ebf 34b0 11bf a82a 22be
-0.039466254 -0.27183983 -0.5969484 -0.21215537 -0.06468492 -0.27370852 0.9170707 0.07039407
-0.3990509 -0.15973808 -0.4861118 -3.3264544 -0.61195475 -0.6446064 0.55296564 -0.28344157
0.04652685 -0.7012821 -0.7047442 0.024426112 -3.2752132 -0.36857468 -0.42741576 -0.30963635
-0.6740815 -0.6938947 -0.6259987 -3.0073109 -0.38889033 0.31701246 1.3642416 -0.67293584
-0.41457704 -0.10256481 -0.72126156 -0.20785587 -1.7552446 -3.1635973 0.9982772 -0.0024758233
-0.026996966 -0.10309949 -0.15059887 -0.35724396 0.6814878 -0.17603132 -0.62097836 0.3277825
-0.6523746 -0.5684709 0.1413278 -0.27626297 -0.5982253 -0.3836384 -0.11430145 -0.23110719
-0.20675889 -0.032289498 -0.83225864 -0.35025257 -0.7600572 -0.61855644 -0.5690949 -0.15836585

linear.1.weight f4 [256, 169]
00000000: 0047 c13b 3ae0 203d 0a75 723d 1ebe 5d3d
00000010: a826 d1bc b62c b5bc 740c 013d 34d2 1d3d
00000020: c657 563d 15d2 04bd b87c 783c 706a 39bc
00000030: f0d2 033d b6df 463d 40e9 09bb f851 6fbc
00000040: 9095 ce3b 54ef 34bd c052 9abd 40b7 aabc
00000050: dd5c 973d 9ecf 8a3c f310 88be f05f 4e3c
00000060: 9471 82bd 78bb 86bd ec2a 8bbc 18fd 1c3d
00000070: 4040 d03c 401e 32bb c4f8 f33c 802c 2bba
00000080: 2a2a 36bd 7dea 473e ced5 62bf b0f7 813e
00000090: 64ab a03c 10bd ab3c d471 2ebd 2eb0 7e3d
000000a0: 9ccb 323d dc49 64bd 86ac 3f3e ec9a ccbe
000000b0: 2a67 b83e 1a29 193f 6097 1f3d a8d6 74bf
000000c0: cdb5 b3bd 63fb 0e3d 6e6b aebe c7cf e23e
000000d0: 3e54 253d 9219 4d3d d8b2 04bc 6377 ca3e
000000e0: 4c85 18be 3528 3f3f 376c 603f 4de8 3cbc
000000f0: 3649 7dbe 968c afbe 5a82 fdbe 878f e1be
00000100: d2d9 53bd a232 d3bc 96b6 41bd 25f9 1dbd
00000110: 39c9 c9bf eff3 3abf bdea 383f 5e64 5e3f
00000120: c994 ae3f 76bd 3d3f b5a7 9c3f b077 aa3e
00000130: 8a1f 58bd 80c3 013d 6466 ed3c 60d0 12bd
00000140: 40fe e83c 9188 2d3f c22e 91be b174 4e3e
00000150: 05e8 eebe 342c c1be ac43 35bf 4972 5d3f
00000160: 4656 213d 2edd 4f3d 54a2 08bd 8598 11bd
00000170: 7aa6 99bd 6a7f ea3d 9958 98be cecb bb3d
00000180: 449b 833f 5cad 923e 9d00 a03e f09b 0d3e
00000190: 2927 99bf 0e6b 5d3d 40ab 72bd 50d6 8ebc
000001a0: 087e 3fbc e8ef c1bd 363e 453f eade 243f
000001b0: 7312 4abf 9565 2c3f 0d61 363f e1be d13e
000001c0: ddc6 9cbe 3dac 0cbf 30e7 d83c bc3a 3f3d
000001d0: 2446 debc 5b85 c63e 3c5f 0bbf f1d0 3cbf
000001e0: dfb0 89bf 7ba2 16be cf83 f3be 7018 b2be
000001f0: b100 c4be ed54 21be feac 3d3d d652 6b3d
00000200: 8832 02bd e180 8b3d 6ecf 4c3d 767b debc
00000210: e72a 823d 9ed9 a93e 8971 0b3f a1fa ecbe
00000220: 4a28 18bd 7241 4d3d 183d 2d3c 8092 38bc
00000230: bb6d 00bd 0278 783d f77d 8d3d 6a5a 2dbd
00000240: 28ff 1c3d 2a5b 3c3d eaac 30bf db8a c73f
00000250: ecf6 e53c 4011 8b3b a012 2b3c 782c 1fbc
00000260: 5471 f43c e663 793d 3695 493d 8a91 033d
00000270: 7497 79bd f89b 903c 4668 3cbd 8841 2b3c
00000280: bc3f 013d 5082 ebbb 9f01 92bd 769f 6a3d
00000290: 9964 49bd e827 b43c 0a4d 4b3d e47e 953c
000002a0: 70d6 1d3d bec3 6d3d 0f80 8ebd d661 8abd
000002b0: 3808 383c 28ba e93c 5d06 8ebd d884 5a3c
000002c0: 7b94 16bd 950b 8bbd 2875 5cbe e81c 3c3d
000002d0: 605f 17bb 0621 54bd d41d b6bc 50a8 22bc
000002e0: 1474 a0bc bed6 223d 323c 8ebc 9656 5bbd
000002f0: e6d1 3dbd bb58 803d 8a9e 3a3f 5491 073f
00000300: 5912 08bd aced 9a3c e66e 7bbd 1993 75bd
00000310: 7a28 6b3d 80b2 7e3a 6c7f c0bc 400b db3c
00000320: 1b86 1fbd 9062 eebb 41e2 2bbf cc55 503f
00000330: 353b a0be 2c26 933c 4029 da3c 8049 4f3b
00000340: a025 8d3b 205c 0f3d e894 8cbc 2590 dfbe
00000350: 18ff da3e 91d1 cb3e 68d0 05bd 7a23 33be
00000360: 73cb 383e 0823 37be c662 fc3e 531e 92bd
00000370: 9d2a 503e b201 36bd 3cb1 dfbc cdf4 78bd
00000380: ac31 57bf f47a ea3e f8d7 903e bc55 42bf
00000390: e2dd 2c3f 20a5 7abe 6a3b 863e a8f6 023f
000003a0: 937b a4bf 1e2a 2abd d658 5c3d 8ac4 f2bc
000003b0: b955 46bd 1074 243f 2173 c5be 0ac8 17bf
000003c0: 6eec 6e3e a523 1b3f 60dc 203f a72a 3cbf
000003d0: e69a 803f 3bad 27bd 9b37 8a3d 9e96 b1bc
000003e0: 3ef7 213d 76c3 473d 67aa 503f 8eee 013e
000003f0: 0693 ecbd f5d6 b9bd d6b3 903e 3cff 673e
0.0058983564 0.03927634 0.05919365 0.054136388 -0.025531128 -0.022116046 0.031506017 0.038530543
0.0523298 -0.032426912 0.015166454 -0.011316881 0.032183588 0.04855319 -0.002104357 -0.014606945
0.0063044503 -0.044173554 -0.075353146 -0.020839334 0.07390759 0.016944703 -0.2657543 0.0125961155
-0.063693196 -0.065787256 -0.01698824 0.038327307 0.025421262 -0.0027178675 0.029781707 -0.00065297633
-0.044473805 0.19523044 -0.8860749 0.25384283 0.019612975 0.020964175 -0.042589024 0.062179737
0.04365121 -0.0557345 0.18718156 -0.39961946 0.36016208 0.5982834 0.03896272 -0.9564004
-0.0877491 0.03490771 -0.34066337 0.44299147 0.040363543 0.050073214 -0.00809928 0.3954421
-0.14894599 0.74670726 0.8766512 -0.011529994 -0.24734959 -0.34286946 -0.49513513 -0.44054815
-0.0517214 -0.02578098 -0.04729327 -0.03856768 -1.5764533 -0.73028463 0.7223318 0.868719
1.3639156 0.7411722 1.223868 0.3329444 -0.052764453 0.031680584 0.028979488 -0.035843253
0.028441548 0.6778651 -0.28355986 0.20161702 -0.46661392 -0.37729037 -0.70806384 0.8650251
0.039388917 0.050748043 -0.033357933 -0.035545845 -0.07502456 0.114500836 -0.29755095 0.09169732
1.0281758 0.28647888 0.31250468 0.13829017 -1.1965076 0.054057173 -0.059245348 -0.017436177
-0.011687763 -0.094695866 0.7704805 0.6440264 -0.789344 0.673425 0.7124184 0.40965942
-0.3062047 -0.54950315 0.026477426 0.046686873 -0.027133055 0.38773617 -0.5444219 -0.7375632
-1.0757102 -0.14710419 -0.475615 -0.3478427 -0.38281778 -0.15755053 0.046307556 0.057452045
-0.03178647 0.06811691 0.050002508 -0.02715848 0.06355839 0.3317384 0.54470116 -0.46284965
-0.037147798 0.05011124 0.010573648 -0.011265397 -0.031354647 0.060661323 0.069087915 -0.042322554
0.038329273 0.04598538 -0.69013846 1.558925 0.028071843 0.0042439997 0.010441452 -0.009715192
0.029839195 0.060886286 0.049214564 0.03212122 -0.060935453 0.017652497 -0.04599788 0.010452636
0.031554922 -0.0071871653 -0.071292154 0.05728098 -0.049168203 0.021991685 0.049634017 0.018248983
0.03853458 0.058048002 -0.06958019 -0.06756942 0.011232428 0.028531149 -0.069348074 0.0133373365
-0.036762696 -0.067893185 -0.21529067 0.045926005 -0.002309762 -0.051789306 -0.02223102 -0.009927824
-0.0195866 0.039755575 -0.017362688 -0.05354937 -0.046342753 0.06266924 0.7289816 0.5295613
-0.033220623 0.018912159 -0.061385058 -0.059954736 0.05741165 0.00097159296 -0.02349826 0.026738763
-0.038946252 -0.007274933 -0.6714211 0.81380916 -0.3129517 0.017962538 0.026630998 0.0031629503
0.0043074638 0.034999967 -0.017160848 -0.4366466 0.42772746 0.39808324 -0.032669455 -0.17494002
0.1804636 -0.17884457 0.49294108 -0.0713469 0.20328756 -0.04443521 -0.027306192 -0.060780335
-0.8406017 0.4579693 0.2828977 -0.7591207 0.67526066 -0.24477053 0.26217204 0.5115762
-1.2850212 -0.041544072 0.053795658 -0.029634733 -0.048421595 0.642396 -0.385644 -0.5928961
0.23332378 0.60601264 0.62836266 -0.7350258 1.0047271 -0.04093669 0.06748887 -0.021678265
0.03954243 0.04877039 0.81510013 0.12688658 -0.1155148 -0.09074203 0.28262204 0.22655958

linear.1.bias f4 [256]
00000000: f64d aebd 54fd 293e e3a0 533d 2a56 f13d
00000010: 267c 9bbc 274b 06be dd4d b83e 27b7 95be
00000020: 68f5 5cbe 8a2e 64bc 1ea6 e53f cfb8 703e
00000030: 54ed 933e b22c 21be 53ee e43e 7796 cb3d
00000040: 73c0 8c3d 5279 1cbe 5a43 a63c 1bc9 44be
00000050: 53ec 22be 42c5 2abe d230 c83d 5027 183e
00000060: 9de1 46bf fa2c 183c dcd1 9c3e 7c28 c53d
00000070: cf36 12be fe93 f43d fcb9 45bd 75de e53e
00000080: e0ed 82bf c5b3 0a3c e033 933e 0c33 d73d
00000090: a141 1e3e 8b99 903e 132b 093e bdd5 19bd
000000a0: 834a 983e 3b0b d03f c044 a63b d297 1d3f
000000b0: dbb2 cf3d 4fef 09be 3a81 383e ca8a 5dbe
000000c0: b254 2c3f a71d 823e ea45 923d 5336 8a3e
000000d0: 5806 7a3e 8ab2 a53d 4057 323e c279 b3bd
000000e0: 2407 41bd 8693 a23c fd62 25be e4bc e93d
000000f0: 34d6 1ebf cdfa d3bf e18a 9c3e c91b 713f
00000100: 1985 723d 139a d6bb 4a24 8c3d 0219 23bb
00000110: f39e 833b 40c4 763f 8bac e23f 7a97 f3bd
00000120: 7455 d23d 7f9f 03be 2614 493d 767a 04bd
00000130: 2943 4c3d 3d88 75bd fca6 3c3e 58d1 693e
00000140: 0a0d 113e 4a0d 5a3f 80ae 4d3e 5871 5fbe
00000150: 3423 19be 605c e43c 0396 bb3d cc8d 233d
00000160: cc68 7bbe 0dc6 01be 5ac2 a4be dd9a fabd
00000170: 0477 8e3e 4d41 943d 4036 e63d 4a0f 673e
00000180: 9b4f 1a3e 4af2 6d3d 3f62 803e ca43 a33e
00000190: 3c44 123f 131e 553b 040b babd 86f3 29be
000001a0: e0ea 93bd 8205 0bbe 91dc 52be 9a57 b7be
000001b0: 585b 2dbf ceb4 c1bc 98fa 71bf 9261 29bc
000001c0: c519 7e3e 3a9d 4d3d b3d9 1dbc d68a 263e
000001d0: c911 21bd 0129 cebd 9e5a 973e 450a d2bc
000001e0: f389 023f 5ec4 193d 6f44 c03d c3b5 c63c
000001f0: 199e dfbd 6d3b e6bd a407 1c3e e2a2 8cbd
00000200: 990e a6be 9603 a7bd 8f19 873d 0d7e 3abe
00000210: 6b2d b33f 1148 243e 3ad1 c03c 53f2 a03d
00000220: 1583 ea3d 1608 e73b 69e6 ea3d 2ca0 783e
00000230: 2d91 12be bc84 d03c f687 113e b061 19be
00000240: a0e2 0abe 5ec7 07be 9001 033c 46d3 813f
00000250: 0561 70be f9d3 393e 5f4b 9d3e 4ea6 22be
00000260: 22cb 3dbf 05cf 42bf 835d 883e 4035 c63e
00000270: 64aa fabc f67b b13b 5f0c 103e 8daf a43d
00000280: 2925 15be 7cae a3bd 4f96 6abe 485b acbe
00000290: 9194 cc3d 0b4f 403d d5dd d13e 738f 543e
000002a0: 0fd8 7c3c acd0 08bd 1027 a03d 4282 01be
000002b0: 0170 c53e cb1c a43e b15b 61bd 3a82 24be
000002c0: 361e 5e3f b30b 873e 71c2 7d3c 9c99 0d3e
000002d0: 48fe ddbf 45dd 963e eae6 803e cd68 0e3e
000002e0: 04e9 09be 8cb9 87be 3098 823b d794 183e
000002f0: 4106 b6be 3cdd 04bd 22b6 e5bd af3d 9bbe
00000300: 045a b83c 3756 08be 0713 aebd 127b 0dc0
00000310: 1db7 2140 5e5f 443c d059 98be 7415 1cbd
00000320: 3be7 703d 59f0 dabd c5ce 6d3d 51b2 883d
00000330: 428e 1fbf 43f3 2dbd 7cb6 3ebe 7a03 103f
00000340: 98ce 36bd 4745 4a3e 8c24 64bf 31d5 923d
00000350: c558 61bd d16e 3f3f 9dfe debf 5c5e 2abc
00000360: 6b75 a43d cc68 ba3e 516e 85be 722e 423f
00000370: 86fa bc3d 3871 553e 721c babb 1768 613c
00000380: e788 3bbe 618d 76bd 38ee 813d 9f74 dcbe
00000390: 6e3f 083f c856 953e 841b 873f f596 d0bd
000003a0: 8418 78bd 50a1 813e bff1 28be a194 d6bd
000003b0: 5af6 e5bd 249a 8bbe 57ac 97bc 5386 c33d
000003c0: 0bc6 dbbc 001e 0c3e 94e7 533e cdb3 0e3d
000003d0: d2d0 863d 1b34 8aba 8a37 9e3d 137f 753f
000003e0: f6fd ad3c bea7 36be 2c61 143f dd03 25be
000003f0: a12f 7e3e 68b0 783e 8c84 da3d 0fef 71be
-0.085109636 0.16600543 0.051667105 0.117840126 -0.018980097 -0.13114606 0.35996905 -0.29241297
-0.2157799 -0.013927111 1.794132 0.23507999 0.28892004 -0.15739706 0.44713077 0.09940808
0.06872644 -0.15280655 0.020295788 -0.1921734 -0.15910463 -0.1667681 0.09774937 0.14858747
-0.7768801 0.009288067 0.3062886 0.096268624 -0.1427872 0.1194229 -0.04827307 0.44896284
-1.0228844 0.008465712 0.28750515 0.10507783 0.15454723 0.28242144 0.13395338 -0.037557352
0.29744348 1.6253427 0.0050741136 0.61559784 0.10141536 -0.13470195 0.18018046 -0.21634975
0.67316735 0.25413248 0.07142241 0.2699457 0.24416482 0.08090694 0.17416096 -0.08763458
-0.04712595 0.019845735 -0.16151042 0.11412981 -0.620456 -1.6560913 0.30574706 0.9418302
0.059208963 -0.006549129 0.06842859 -0.0024886732 0.004016751 0.96393204 1.7708906 -0.11894126
0.10270205 -0.12853812 0.04909148 -0.03234335 0.049868736 -0.05994438 0.18423074 0.22833765
0.1416513 0.8517653 0.20086098 -0.21820581 -0.14954835 0.02787608 0.09159472 0.03993015
-0.24551696 -0.12673207 -0.32179528 -0.12236569 0.27825177 0.07239018 0.11240816 0.22564426
0.1506943 0.058092393 0.25074956 0.31887656 0.5713537 0.0032519146 -0.09084132 -0.16596803
-0.07222533 -0.1357632 -0.20591952 -0.35809022 -0.67717505 -0.023645785 -0.94523 -0.010338204
0.24814518 0.05019877 -0.009634423 0.16263899 -0.039323602 -0.100664146 0.29561323 -0.025639663
0.50991744 0.037540786 0.09388053 0.024256593 -0.109188266 -0.11241803 0.1523729 -0.06867005
-0.32433012 -0.08154981 0.06596672 -0.18212147 1.3998235 0.16043116 0.023537267 0.0785872
0.11450783 0.0070505245 0.114697285 0.2427985 -0.14313193 0.025453918 0.14212021 -0.14978671
-0.13563013 -0.13259646 0.007995978 1.01426 -0.2347451 0.18147267 0.30721566 -0.15883753
-0.7413808 -0.76097137 0.26633844 0.38712502 -0.030598827 0.0054163886 0.14067219 0.08041296
-0.14564957 -0.07992265 -0.229089 -0.33663392 0.09989274 0.04695038 0.40989557 0.20757847
0.015432372 -0.03340213 0.078199506 -0.12647346 0.38562015 0.32053217 -0.055019084 -0.16065302
0.8676485 0.26376113 0.015488253 0.13828129 -1.7343225 0.2946569 0.25176173 0.13907166
-0.13467795 -0.2650875 0.0039854273 0.14900528 -0.35551646 -0.032437548 -0.1121638 -0.30320498
0.02250386 -0.13314138 -0.08499723 -2.2106366 2.5268013 0.011985628 -0.29756021 -0.038106397
0.05881427 -0.10690374 0.05805852 0.06674636 -0.62326443 -0.04246832 -0.186243 0.56255305
-0.044630617 0.1975299 -0.89118266 0.07169569 -0.055016298 0.7477847 -1.7421452 -0.010398474
0.08030208 0.3640808 -0.26060727 0.7585212 0.09227471 0.20843971 -0.0056796605 0.013757727
-0.18313943 -0.060193423 0.06344265 -0.43057725 0.53221786 0.2916777 1.0555272 -0.10185043
-0.060570255 0.25318384 -0.16498469 -0.104775675 -0.112286285 -0.27266037 -0.018514795 0.09547105
-0.026827833 0.13683319 0.20693809 0.03483944 0.06582798 -0.0010544093 0.07725437 0.95897025
0.021239262 -0.17837426 0.5796077 -0.16114755 0.24822856 0.24286044 0.106698126 -0.2362635

linear.3.weight f4 [64, 256]
00000000: a100 02c0 00c1 5c40 eee1 6340 75c9 c0bf
00000010: 1970 a0bf 21b6 25c0 e6b4 2040 73de e9bf
00000020: 66bf ebbf 3179 3540 82a2 ad3e 58df 48bf
00000030: 4b3b 57c0 7bcf 5940 be45 4b3f a9ac 9340
00000040: dd2c 6340 bbdb 1940 7ded 7bc0 cf8f fabf
00000050: 3495 37c0 9186 7c40 1250 9040 9aaf de3f
00000060: 5d1a f5be d206 69c0 9506 55bf 545a 3940
00000070: d981 2cc0 3d9c 0740 12bc 9f3f 3afe d53f
00000080: 6440 20be 65d5 15c0 5520 4640 8bd2 6ec0
00000090: 6e3f 1cc0 15ce a0be 8e00 3540 a3af 8a40
000000a0: 2ae3 f73f 2305 1d3f 5245 663f 0a53 b43e
000000b0: 64dc 6340 9a3a 7fc0 afde 3640 6e9d 8ac0
000000c0: 32b2 cc3e ddde 1240 217e 63c0 14b0 0b40
000000d0: 9956 7e40 92a1 9bbf e873 22c0 6364 6cc0
000000e0: 3cf0 5440 485e 97c0 d8f7 4140 d172 2d40
000000f0: 24d5 23bf 0a84 b2be 90a8 9f3f ac38 ab3d
00000100: 6221 5540 a576 acbf d59a 63c0 fdc2 0140
00000110: f8e4 24c0 088c 8f3e df97 073f 9686 5940
00000120: 073a 43c0 84c9 5940 3676 47c0 e748 f5bf
00000130: 357f 9a40 dca9 7bc0 9c26 ebbf d005 09c0
00000140: 066e 693f 959c aebd 9061 5240 bcd0 1a40
00000150: 2a7d 2ac0 a95b 4d40 ebf6 7140 8043 39c0
00000160: 0e94 5440 11f6 12c0 d77d ac40 8ce3 94bf
00000170: 412a 5440 94ed 9440 a013 163e 884f 93c0
00000180: 1522 5040 5a69 5cc0 bfe1 fcbf f9d7 8d3e
00000190: 07b6 89be ec89 42c0 d3a7 91c0 7d64 d13f
000001a0: 5465 89c0 79c8 18c0 51e0 7b40 e879 6cc0
000001b0: c3cb 52bf da4b 7140 690e e5be 8200 60c0
000001c0: 49b8 9c40 0e29 dc3f c097 5a40 b3ff 40c0
000001d0: 167b 9240 37b0 67c0 14d3 95bf 2998 f3bf
000001e0: b414 4f3f 520b 6340 2e0b e53f e653 60c0
000001f0: 557c 71c0 b080 743f 5d88 2b40 cf13 193e
00000200: 8636 a640 9c1c 6c40 4ea2 5a3f 8231 1740
00000210: fa6f 203f 3764 92bf 21f2 2cc0 0870 11c0
00000220: 6f40 42c0 72eb f0bf 27a0 5f40 6d66 cd3f
00000230: 3c75 cb40 0e98 5e40 cc2a eabf aec4 3a40
00000240: 089b 77c0 80f4 1f40 d12f 7b40 12ba 0b3f
00000250: bb9d 9dc0 02dc 6dc0 67b4 dfbf 0f57 46c0
00000260: 147d fcbe 2ae5 6ebf 2341 88c0 efc7 b53f
00000270: e93d 6e40 311b 08c0 bf27 583f ad11 6240
00000280: 904a 4bc0 d28b 13c0 5f42 8dc0 a9ee 9fc0
00000290: 60e1 f7bf fba5 1240 78fe e6bf 22a9 6840
000002a0: 8553 36bf bf03 0940 b98f 1c40 4455 8640
000002b0: e247 6d40 66e1 2b40 a63c f13f 2f8b 52c0
000002c0: c4ee 673e 77f7 34c0 0ebc 6cc0 2a58 41c0
000002d0: 2d19 6ebd a371 793d 15eb 85c0 58c0 6f40
000002e0: e370 7b40 f329 9040 79aa 3a40 7154 3840
000002f0: 7565 4dc0 6aee 22c0 066c 4240 4cb8 cabf
00000300: cd62 69c0 0177 8e40 e620 bc3f 2ecd 37be
00000310: 6e48 a93e 5830 f7bf 5ef9 64c0 b2d4 b240
00000320: 26e7 39c0 6516 5140 a342 6340 f34f 77c0
00000330: cbc1 4dbf 0483 2540 976a 42c0 b2b9 d53f
00000340: 9b0c 78c0 af21 1cc0 c561 adbe f7cc 7ac0
00000350: c236 9440 6c1f 6a3e aeb1 adbe 5f39 6340
00000360: 9b8b 8f40 a251 513e 6d4d bd40 4afb c03e
00000370: 5ef8 1ac0 a2a5 8dc0 29b1 4840 6148 89c0
00000380: 6d0f 45c0 4588 83c0 8853 9340 3e5c ac40
00000390: e1b8 f53e bb04 18c0 9818 a0be 18c7 9940
000003a0: 6a38 54c0 6f12 9b40 e98a fabf 71f1 8740
000003b0: ae91 88c0 de82 32c0 4b56 08c0 a40d 8ebf
000003c0: 8816 30c0 0093 7a40 482a d5bf f7cc 6c40
000003d0: fd11 4b40 0bcd 6640 4c42 e0be 92c4 183f
000003e0: c3c9 60c0 8deb 60c0 6ff0 de3e 7abe e6be
000003f0: 5530 2cc0 5852 1bc0 469f 45c0 40f1 1dc0
-2.0312884 3.4492798 3.5606647 -1.506148 -1.253421 -2.5892413 2.5110412 -1.8271011
-1.8417785 2.835522 0.33913046 -0.78465796 -3.362994 3.4032886 0.79403293 4.6148267
3.5496132 2.4040363 -3.9363701 -1.9575137 -2.8684816 3.9457133 4.509774 1.7397339
-0.47871676 -3.6410413 -0.8321317 2.8961382 -2.6954253 2.118911 1.247927 1.6718209
-0.15649563 -2.3411496 3.0957234 -3.7316005 -2.4413714 -0.31407228 2.8281589 4.33394
1.93662 0.61335963 0.89949524 0.35219604 3.5603266 -3.9879518 2.8573415 -4.3317175
0.39979702 2.2948525 -3.5545733 2.182622 3.9740355 -1.2158682 -2.5383244 -3.693627
3.3271627 -4.730259 3.0307522 2.7101328 -0.639971 -0.34866363 1.2473316 0.08360419
3.3301625 -1.3473707 -3.5563252 2.0275261 -2.5764751 0.28036523 0.5296611 3.3988395
-3.0504167 3.4029245 -3.11659 -1.9162873 4.828028 -3.9322424 -1.8371158 -2.1409798
0.9118351 -0.085259594 3.2872047 2.4189901 -2.6638894 3.2087195 3.7806957 -2.8947449
3.3215365 -2.2962687 5.3903613 -1.1631942 3.315079 4.654001 0.14655924 -4.6034584
3.2520802 -3.4439301 -1.9756392 0.27703837 -0.26896688 -3.039668 -4.5517364 1.6358792
-4.293619 -2.3872359 3.9355662 -3.6949406 -0.82342166 3.7702546 -0.44737557 -3.500031
4.8974957 1.7200029 3.415512 -3.0156066 4.577525 -3.6201303 -1.1705041 -1.903081
0.80890965 3.547566 1.7894037 -3.5051208 -3.7732136 0.9550886 2.680198 0.14948963
5.1941557 3.6892462 0.8540391 2.3623967 0.6267086 -1.1436833 -2.7022784 -2.2724628
-3.0351827 -1.8821852 3.49415 1.6046883 6.358061 3.4780307 -1.829431 2.9182544
-3.8688374 2.499298 3.9247935 0.54580796 -4.925504 -3.7165532 -1.747693 -3.0990636
-0.49314177 -0.93318427 -4.2579513 1.420164 3.7225287 -2.1266596 0.8443565 3.5323288
-3.176426 -2.305409 -4.414352 -4.9978833 -1.9365654 2.2913806 -1.8046408 3.635323
-0.7122119 2.1408536 2.4462721 4.1979084 3.7075124 2.6856322 1.8846633 -3.289745
0.22649676 -2.827604 -3.698978 -3.021006 -0.05812948 0.060899388 -4.1849465 3.7461147
3.928765 4.5051208 2.9166548 2.880154 -3.2093174 -2.5458016 3.0378432 -1.5837493
-3.6466553 4.452027 1.469754 -0.17949364 0.33063072 -1.9311628 -3.5777202 5.588464
-2.9047332 3.2669919 3.5509422 -3.8642547 -0.8037383 2.5861216 -3.0377557 1.6697295
-3.8757694 -2.439556 -0.33863655 -3.91876 4.6316843 0.22863549 -0.3392462 3.5503767
4.4857917 0.20441297 5.9157014 0.37691718 -2.4214091 -4.426469 3.135813 -4.2900853
-3.0790665 -4.1103845 4.6039467 5.38626 0.47992614 -2.3752887 -0.31268764 4.8055534
-3.3159432 4.846 -1.9573642 4.248223 -4.267783 -2.7892375 -2.130267 -1.1097913
-2.7513752 3.9152222 -1.6653528 3.70001 3.172973 3.6062648 -0.4380058 0.5967494
-3.5123146 -3.5143769 0.4354281 -0.45067197 -2.69045 -2.4269009 -3.0878463 -2.4678497

linear.3.bias f4 [64]
00000000: 0f39 453d 3673 efbd 9408 f73d d543 fabd
00000010: 38e6 ac3e 93e7 0fbd 781a 8dbe e006 04be
00000020: 6191 aa3d 9ac1 1fbe 1805 6ebe 8154 a3be
00000030: 2d0a 8cbe 7d86 89be d3e4 453e 8b98 7dbe
00000040: 6889 d2bd cd03 f0bd 16b6 1b3e 2326 95be
00000050: dfd7 013e 3f79 163f f05f 263c 259c a43e
00000060: 56d9 923e 8d69 e0be 3d39 c7be 7cbd d6be
00000070: dc01 c5be a42b 25be 3558 44be c176 4bbe
00000080: 370a 9a3d 49fd bdbe ccdd f3be c7ad 04bd
00000090: 7505 86be 72a5 6d3e a53b 49bf e8b2 21be
000000a0: 9c5e 05be 6bc4 b8be 5290 983e 3b14 0fbe
000000b0: 4bfb 443d 2fb2 13be 8a8e 84be a492 8e3d
000000c0: 0db9 17bf 5c5e 3c3e dd61 8f3e 6069 803e
000000d0: 9594 a83e 2110 25be 0a2f 13bd b06a 483e
000000e0: ae44 a3be 1a77 b6bd e246 86be 32b1 b9be
000000f0: ae98 debe 1588 873e 658a 97be 0c3a 8fbe
0.04815012 -0.116918966 0.12062183 -0.12219969 0.33769393 -0.035132956 -0.27559257 -0.12893248
0.0832851 -0.15601197 -0.2324413 -0.3190041 -0.27351514 -0.2686042 0.19325571 -0.24765222
-0.102801144 -0.11719475 0.15206179 -0.29130659 0.12680005 0.58778757 0.010154709 0.3215038
0.2868144 -0.4383053 -0.38910857 -0.4194144 -0.3847798 -0.16129929 -0.19174273 -0.1986952
0.075214796 -0.37107304 -0.47630155 -0.03239229 -0.26176038 0.23207644 -0.78606635 -0.15790904
-0.13024372 -0.36087355 0.29797608 -0.13972561 0.048091214 -0.1442344 -0.2589 0.06961563
-0.5926674 0.1839537 0.2800435 0.25080395 0.3292586 -0.16119434 -0.03593353 0.19571948
-0.31888336 -0.089094356 -0.26225954 -0.36268002 -0.4347586 0.2647101 -0.29597774 -0.27973974

reg.weight f4 [2, 128]
00000000: bd42 fd3f d359 06c0 eee9 4c3f 5c78 f7bf
00000010: ffad 2440 bfec c93f bccc 91bf 71d6 c33f
00000020: 18e0 693f f510 e93f cb84 8b3f 964e 833d
00000030: 736f d93f 640f 2840 e991 5ebf 97cb 96bf
00000040: bf66 473f c419 793f 775c a93f 214b 163f
00000050: 71f0 d03f 8322 d33f fa85 d53f 12d1 2d3f
00000060: daaa a53f 07eb b13f 2470 283b 2c05 bf3f
00000070: 4f0c 5ebe 11d4 85bf 52f8 a5bf 609b 2440
00000080: 84d0 1040 1a9c dd3f 71be ed3f b4ed 343d
00000090: cb6a 603f e7a2 a43f 532e a1bf 9594 123f
000000a0: 682d 203f 0738 e23f f87b a33d be7c 8b3f
000000b0: 897b 81bf be33 a3bf 61bb cc3f 48ee ab3f
000000c0: 0189 3d40 8489 6b3f b97c a5bf c59f 483f
000000d0: 2776 7b3d 388d b83f eaca 1b3f ebff 00c0
000000e0: e54c da3f 5daa 323f fca4 7a3e 805d a73d
000000f0: 649a b13d c3a9 b23c 9fe4 1e40 ef3d b93f
00000100: 6e2c 4e41 26af 5541 af9e 4d41 7003 5641
00000110: a9be 93c0 6785 5441 9161 5641 93a1 5441
00000120: 8328 95c0 715f 5541 7b66 5441 fd80 5641
00000130: 52e5 5741 f95d 5541 2e1d 92c0 c03b 5741
00000140: c94f 5041 2b4b 5441 d206 94c0 fd63 5441
00000150: 2074 5441 bf6a 9fc0 3404 5441 4adb 96c0
00000160: b09c 91c0 ed16 5541 37f1 5441 79ee 5441
00000170: 21da 5441 7edc 5241 8119 5641 def0 5441
00000180: c88f 4e41 e4d9 5341 6de8 5541 200b 5641
00000190: e436 5541 0e2c 94c0 de57 8a40 e4f2 5341
000001a0: 3444 5441 3f20 5541 002d 5241 de77 5541
000001b0: 6400 5241 53fa 5441 3965 5441 e5b0 4e41
000001c0: 087f 8a40 e4b9 5241 f988 92c0 4d75 93c0
000001d0: 6e36 96c0 41ec 5341 d5c9 4f41 d692 91c0
000001e0: fe4c 5541 2047 5541 d6fc 5441 a242 5541
000001f0: 4b5b 5541 078b 95c0 714a 5641 b54b 5541
00000200: 7a22 60ba ed92 bc3a 6ed1 c0bb 087e c63d
00000210: 55c0 153b 7682 c6b9 dd89 c7bc d261 fa3a
00000220: 5cd6 78bb 132f 3e3b f680 d63a 6716 3b3d
00000230: b518 93bc 898a 30ba 89ed fb3b ce31 8d3b
00000240: 2ea2 7e39 692d 91bb 627c 9dbb 0598 663c
00000250: ec6a 8a3b 05f9 23bc 6e51 2d3b 8f7a 6bbb
00000260: a787 ecbb 88f9 3b3b 8706 013e 2a2f 02bb
00000270: e9da 043f 6e74 9fbb 87e2 89bc 94bb 4f3b
00000280: c2c5 53bb b7e6 69bd ec41 b9b9 332d ea3c
00000290: 6e8a c63b 2ede 3b39 fbe3 e63c 69d2 b5bc
000002a0: 1c87 b23b 539d 823c 38ea 87bd db94 313b
000002b0: 2a62 c73c 5668 b4bb 1b94 65bb 5bf1 9ebb
000002c0: ba59 79ba 5bd1 433c 09f7 57bc 6bce 2f3b
000002d0: dff0 103e 3b59 173c c806 b63b 326b 25bb
000002e0: f55d abb8 60a7 7e38 d21b a6be 428d 10bc
000002f0: a961 a0bd 78cd 1cbe 1a77 ea3b 6933 5dbc
00000300: e714 cd3b 8dc1 843b 6caa da3a 4055 a9bb
00000310: 2a54 463c 6712 be3b ef23 ec3b 9649 00bc
00000320: f74b 9ebc 5ce2 7fba 1921 3fbc 3edb 063b
00000330: 6eb4 1b3b 9b26 9bbb bf40 4ebc 7813 64bb
00000340: 6daa 353c 7758 9bbc 101a 77b8 a6a2 9d3b
00000350: dfe4 333c cc99 2dba 3f14 8cbb dd38 51bc
00000360: 4146 323c 6df6 a33b d0fa 07bc c74f d7bb
00000370: 7d37 39bb 65fd 35bc e0c1 fcbb 952b 3c3c
00000380: 9f5e 143c d845 843b d93c f8ba d013 21bc
00000390: 5c7f 213c 8284 b1bc 3cb0 5c3d ca94 2f3b
000003a0: 5e35 8b3c ff4b 133c bd3c ae3b 1cf9 8abb
000003b0: ab8d a43a 74e9 bebb 8c89 f8bb dd95 86bc
000003c0: d878 91bd 0238 f6bb e015 af3b 4068 f63c
000003d0: 157a b13c 134e c93b c35b 0b3c e84a 6eba
000003e0: e0fb bd3c fa44 ad3b a21b bebc d615 273b
000003f0: 9cec c2bb 72c8 dabb 6816 caba bc41 e83a
1.9785992 -2.0992324 0.8004445 -1.9333606 2.5731199 1.5775374 -1.1390605 1.5299817
0.91357565 1.82083 1.08999 0.064114735 1.6987137 2.6259394 -0.8694139 -1.1780881
0.77891153 0.9730494 1.3231343 0.5870839 1.6323377 1.6494907 1.6681511 0.6789714
1.2942765 1.389985 0.0025701607 1.4923453 -0.21684383 -1.0455343 -1.2966406 2.5719833
2.2627268 1.7313263 1.8573743 0.044172004 0.87662953 1.2862214 -1.2592262 0.5725797
0.62569284 1.7673348 0.079826295 1.0897443 -1.0115825 -1.2750165 1.5994684 1.3432093
2.961487 0.9200671 -1.2928687 0.7836879 0.061391976 1.4418097 0.608565 -2.01562
1.7054716 0.69791204 0.24476999 0.081721306 0.08672026 0.021809464 2.482704 1.4472026
12.885847 13.355261 12.851241 13.375839 -4.617024 13.282569 13.39882 13.289447
-4.6611953 13.335801 13.27502 13.406491 13.493486 13.335443 -4.566062 13.452087
13.019479 13.268352 -4.6258326 13.274411 13.278351 -4.9817805 13.251026 -4.7142687
-4.550377 13.318097 13.30889 13.308221 13.303254 13.178831 13.381227 13.308805
12.910103 13.240696 13.369245 13.377716 13.325901 -4.630378 4.323226 13.246799
13.266651 13.320373 13.135986 13.341764 13.125095 13.311114 13.274713 12.918187
4.3280067 13.170383 -4.5792203 -4.608069 -4.6941442 13.245179 12.986775 -4.5491743
13.331297 13.3298645 13.311728 13.328768 13.334788 -4.673221 13.393174 13.330983
-0.0008550059 0.0014387049 -0.005884341 0.09692007 0.0022850235 -0.00037862704 -0.02435773 0.0019102639
-0.0037969565 0.0029019758 0.0016365338 0.04567566 -0.017956117 -0.00067345105 0.0076882285 0.0043089157
0.00024283744 -0.004430462 -0.0048060874 0.01407433 0.004224172 -0.010008101 0.002644624 -0.0035931205
-0.0072183195 0.0028682668 0.12600146 -0.0019864538 0.5189653 -0.0048661744 -0.01683165 0.0031697499
-0.0032313918 -0.057104792 -0.00035335065 0.028586006 0.0060589826 0.00017916478 0.028184881 -0.022195058
0.005448235 0.015944159 -0.066364706 0.0027096781 0.0243388 -0.005505602 -0.0035030905 -0.004850549
-0.00095119665 0.01195177 -0.013181456 0.0026825916 0.14154385 0.009237583 0.0055550076 -0.0025240895
-8.171416e-05 6.07142e-05 -0.324431 -0.008822741 -0.07831127 -0.15312755 0.0071553113 -0.013501027
0.0062585953 0.0040513934 0.001668287 -0.0051676333 0.012105027 0.0058005336 0.007206432 -0.007830044
-0.019323332 -0.0009761208 -0.011665606 0.0020577456 0.0023758668 -0.0047348267 -0.012588679 -0.0034801643
0.011087996 -0.018963082 -5.891366e-05 0.004810649 0.01097986 -0.0006622344 -0.0042748745 -0.012769905
0.010881008 0.0050037415 -0.008299544 -0.0065707895 -0.0028261833 -0.011107777 -0.0077135414 0.011485
0.009055763 0.0040366463 -0.0018939032 -0.009831384 0.009857025 -0.02166963 0.053879008 0.0026791566
0.01699322 0.008990287 0.005317299 -0.004241122 0.0012554427 -0.0058261696 -0.0075847562 -0.016428882
-0.07103127 -0.007514001 0.005343184 0.030079007 0.021664659 0.0061433404 0.008505764 -0.00090901414
0.023191392 0.0052877637 -0.023206536 0.0025495193 -0.005948616 -0.006676727 -0.0015418055 0.0017719786

reg.bias f4 [2]
00000000: 6326 9cbe a1cb 9a3e
-0.30498037 0.30233482
