server/model2/value_model_minmax90.pt (torch, 255287 bytes, 12 tensors)

conv.0.weight f4 [4, 1, 3, 3]
00000000: c528 b23f 8dac 983e 535e 0940 b07a a03f
00000010: aee5 3d3f 9797 7f3e ea62 873f dc0f 80bf
00000020: de01 773f 52bc 743f 296b 823f dac6 173f
00000030: 4206 3c3f 3e82 f93f 2e33 d8be 3322 0540
00000040: a1d3 aabf 72f3 e63e c4e2 063f e039 d03e
00000050: cddd 1b3f e194 883e d2bc 473f 2a33 2a40
00000060: 0f78 3f3f cd70 9d3e d509 823f 9dba de3f
00000070: 7672 4fbf daf2 e53f 21c5 c33f 66a7 933f
00000080: 9a7f 6f3f c6db 28bf 21cc 8f3f 7271 0cbf
1.3918692 0.29819146 2.146382 1.2537441 0.7417859 0.2496017 1.0577061 -1.000484
0.96487224 0.95599854 1.0188953 0.592878 0.7344705 1.9492872 -0.42226547 2.0802124
-1.3345834 0.4510761 0.52689767 0.40669155 0.60885316 0.26676086 0.7802249 2.6593728
0.7479257 0.30750123 1.015925 1.74007 -0.8103403 1.7964737 1.5294534 1.1535461
0.9355408 -0.6596035 1.123417 -0.54860604

conv.0.bias f4 [4]
00000000: 420c 5f3f f4b7 813e 9cea f93e f913 4b3f
0.8712808 0.25335658 0.48811805 0.7932735

conv.2.weight f4 [4, 4, 3, 3]
00000000: b869 883f aa2f d93f eaf2 6f3f 7352 cf3f
00000010: 30ab 573f 72ec 993f 494f ec3e 100e 8e3f
00000020: 64f6 5d3f b7be dc3f 5d2c 573f abb0 bc3f
00000030: 7a3c 0b40 cef4 29be 969e 823f de82 253e
00000040: aa20 8f3f 81c6 8c3e 4032 c23e 9a07 b63f
00000050: f43e 593f a86f be3f 663c 1c3f 1d42 3a3f
00000060: 7475 463f a19e 253e b041 883f f07f b83f
00000070: f3cb b73f 1b34 973f 69ee ba3f 9b77 613f
00000080: 4771 a13f 93ef 643f c7aa 8b3f cdd4 393f
00000090: 20b8 5a3e 3372 e2be fadd 08c0 7e81 963f
000000a0: 07ef 4a3f 9424 8bbf 4961 6a3f e7b8 4a3f
000000b0: 07b9 f8be 315e 36bf 1d04 533f 1bbe 02c0
000000c0: 7aeb cebd 9ce5 a53f f779 1abf 547d f4be
000000d0: 5109 75bd 18d1 b2be 321f 513f 2e63 a43e
000000e0: 8ba9 963e 44f7 383f 53d4 00bf c44d 44c0
000000f0: 3bfd 0f3e 2773 8fbd 934f bc3e dc31 633f
00000100: 7e87 7f3d 7515 7bbf 85c9 3e3f 0efd 933f
00000110: 7844 47c0 4117 923f a722 ce3f dd22 c7bf
00000120: 1ef8 ad3f 4359 753f d053 a73e c393 963f
00000130: 33b6 6e3f e93b c93d 8ae6 823f cc89 143f
00000140: ce32 9d3f 8932 0740 e08a 8f3f bf02 1e3e
00000150: 25f0 b63f 27de 473f fb14 38bf 1307 0c3e
00000160: fe7f b73e 3154 673f 0fda 6e3f 65aa 8b3f
00000170: 155e a8bf 4e90 313f c912 f03e 5b57 ae3e
00000180: d54e 883e 15a3 9b3c 2241 fd3d 4412 c93f
00000190: 335c 983f 49f9 cf3c 5860 9b3f a931 963f
000001a0: c098 c33f 9760 583f 2d4d 433f 1ee9 e23e
000001b0: 17ba 0c3f 703f c93f 021d 4a3e 68f1 8c3f
000001c0: 965c 783f 7278 223f 2f46 383f f3d9 593f
000001d0: 3b1c 5a3f 3287 1e3f 17da af3f a51c 8a3f
000001e0: 147c 8f3f 9027 923f 8d07 953d cd3a 2a3f
000001f0: 9d7c 013f 3c8d 823f f73f d03e ead3 d13f
00000200: 3649 68bf e5fe b63f c4ca 3e3f a7d7 7f3e
00000210: c8aa 9a3e a3dd b53e cd59 a73e e1ca 213f
00000220: 8d32 463f 9ae5 473f 5f8f ae3f dccb 833f
00000230: a67e 9b3f 1011 b83e 4455 4b3f 4143 2c3f
1.0657263 1.6967671 0.9373003 1.6197037 0.84245586 1.2025282 0.4615424 1.1098042
0.8670409 1.7245702 0.8405207 1.4741415 2.1755662 -0.16597292 1.0204647 0.16163203
1.1181843 0.27495196 0.37928963 1.422107 0.84861684 1.4877825 0.6102966 0.7275713
0.7752297 0.16173793 1.0645046 1.4414043 1.4359115 1.1812776 1.4604007 0.8807313
1.2612695 0.8942806 1.0911492 0.72590333 0.213593 -0.44227752 -2.1385484 1.1758268
0.79270977 -1.0870538 0.91554695 0.7918839 -0.48578665 -0.71237475 0.8242815 -2.042853
-0.10103507 1.2960696 -0.60342354 -0.47751868 -0.059823338 -0.3492515 0.81688225 0.32106918
0.29426226 0.722523 -0.5032398 -3.0672464 0.14061444 -0.070043854 0.3677946 0.88747954
0.062385075 -0.98079616 0.74526244 1.1561601 -3.113554 1.1413347 1.6104325 -1.5557514
1.3591344 0.9583933 0.3268113 1.1763843 0.93246764 0.0982588 1.0226605 0.5802276
1.2281129 2.1124594 1.1214256 0.15430735 1.4292036 0.7807335 -0.71907014 0.13674574
0.35839838 0.9036284 0.9330148 1.0911375 -1.3153712 0.69360816 0.46889332 0.34051022
0.26622644 0.018998662 0.12365939 1.5708699 1.1903137 0.025387423 1.2138777 1.1733905
1.5280991 0.84522384 0.76289636 0.4431848 0.5497145 1.5722485 0.19737628 1.1011171
0.97016275 0.63465035 0.7198209 0.8509819 0.85199326 0.6192504 1.3738431 1.0789992
1.1209741 1.1418324 0.07276831 0.6649597 0.5058077 1.0199351 0.406738 1.6392796
-0.9073671 1.4296538 0.74528146 0.24984609 0.3020842 0.35520658 0.326857 0.63200194
0.77420884 0.7808472 1.3637503 1.0296588 1.2148025 0.35950518 0.7942698 0.6729012

conv.2.bias f4 [4]
00000000: 6f66 5a3f dca1 493e 306f 073f 6dd6 b73e
0.8531255 0.1969065 0.52904034 0.3590578

conv.5.weight f4 [64, 36]
00000000: 4980 92bd 802a 9d3d 1bfd 833e 182b eebe
00000010: 689c 5f3d a039 403e 335b 64bb bdbc 39be
00000020: cd56 893e 4c51 5f3f c044 0bbf 595e 073f
00000030: bc0c 6c3f 8ddd 87bf 3c12 d23e cfc1 30bf
00000040: f81d bbbe d6bb cc3d d55a 4ebe bdcf c9bd
00000050: fab6 883e 58ba 08be cf9d 39be ac58 bc3e
00000060: 0f71 f8bd f12b ecbd 7dbe 8e3e 3893 8ebe
00000070: 5ec5 653d 21a3 813e baed 5ebe b8e1 2e3c
00000080: dbcd c23e 6e37 69be 2cfb 4f3c 3d9e 9e3e
00000090: 3de9 2cbe 682a 7fbe a9b6 95be 429d da3d
000000a0: 028e 533e caed fe3e 0934 eabd 8830 1dbd
000000b0: 0183 7f3e ed59 313f 3354 9bbf 8a15 cbbe
000000c0: 8c6d 803e 7d1d e03e fa75 383c 29e3 d73e
000000d0: 0d94 1a3f c8a4 51bf 2b5b debe c49c 0dbe
000000e0: 598c 953d fe7c b83d 9bcd 133e b4a4 9e3e
000000f0: 4c99 1e3e a6fa 923e 082f 06bf e190 f1be
00000100: da9a 90bd 61e6 09be eb88 993e 3531 6f3d
00000110: 9362 c8be 9699 2bbd e331 3d3e 96be 0ebf
00000120: 87c8 b1bc 9558 1d3f 7f65 793f 281d a33e
00000130: 9321 d83e 3021 e83e c82f dd3e 3256 2c3f
00000140: b5a7 5b3f f15e 13bf 15f8 af3f 5efb f83e
00000150: 0eaf cebe 52d2 1f3f 37d6 623f f1d4 8ebe
00000160: ec6c 273d 3b4b 013f 3f4f ccbe 2595 7c3e
00000170: 408a 16bf 7f86 8c3f b3c8 1f3f 198e 7c3f
00000180: e9d9 b93f be5e 0c3f af18 233f 7831 c43f
00000190: 110f 173f 3804 183f ec2b 793f 1de5 afbe
000001a0: eeef 69be 1fec d63e f4aa 27bd b630 df3e
000001b0: e0be 863e 74b9 c53d fb80 14bf 9e22 dc3d
000001c0: 465a a8bc d26d 013d bf49 1abd 32ab cabd
000001d0: ff16 0e3e d1f5 19be 5b86 543e 4848 e03e
000001e0: 50b8 2fbd 246b a43d 0e2a 26c0 34a8 383e
000001f0: 9d5a 923c f742 053f 1dd9 583d ffc4 5cbe
00000200: c7cd 663e 4be3 72be cc10 dabd 2c67 e6bf
00000210: 5537 2fbe b874 af3d 64d5 0740 b4b4 24be
00000220: 6a4d 17bd 043c 0ebe ef01 e33d 25b9 1dbd
00000230: 0d97 283b 0f77 9ebd d33a 403d a396 333e
00000240: 4fe0 033f de17 9c3e f8e1 d3be 27ef 953e
00000250: 7853 493e f021 05be 91da b9be 1128 d0bc
00000260: 45be febd b6ac 6ebf 380b c43f 3ab2 16bf
00000270: a894 6cbf f2e5 9f3f 09a2 99bf 62ac 383e
00000280: 1afb 5e3f 23e8 61bf 113f e73d 37ef f0bd
00000290: 1750 03be 4d3e 8c3e 5cba e83e 7763 59bf
000002a0: 7326 4a3f f8ed 8c3f ddb3 62bf 678b 213f
000002b0: 354a a33e de7d 2f3d cee9 363f 5485 d1bd
000002c0: 0765 cfbf e8ef f73e cdb3 eb3d e1f9 b6bf
000002d0: 8144 de3e 4924 6c3e 748c 443e c994 83be
000002e0: c001 0d3f 26a4 d03c 2b79 84be b649 0f3d
000002f0: 1b0c 873f 9c1d aebc c1f0 bf3f e250 acbf
00000300: 6f6e 0cbf c7ea 9c3e 69a4 b2be 7899 f1bf
00000310: a6b4 97bf 37f2 303d a21e 78be dd51 243e
00000320: bc06 043f 0863 e03e b722 3a3d 816c b83e
00000330: 3e3f ed3e 962b 80bc 7b44 473f ac41 6abe
00000340: 5c4b c23d c14a e23e cd45 463e d34b f6bc
00000350: c836 b4be e310 afbd c9d2 813e 25c9 3c3f
00000360: d11b 7b3d 91d2 c23e bdb1 c03e 0753 723e
00000370: edd6 033f dff7 1b3f c530 673e 4219 933d
00000380: 642e 153e 750a 623f fe85 f4bf bee9 2c3f
00000390: 2394 9d3e 7f34 7dbf 64f7 933f 4d7e 933f
000003a0: a69e c93e 7e0f 5f3e c40d 343f b724 313f
000003b0: 1ade 003f 278a 893e 14b0 923e 26d6 5f3f
000003c0: 8c13 e4bc 5c96 dd3c 512a 07bf af9b 093f
000003d0: ae6c aa3e b7ae c03e e63d 353e 599c dd3e
000003e0: 3ff9 483f 6fa5 0f3e 871d 283e 8e7c 6a3e
000003f0: dc5f d93e f5d5 f13d ae16 c3be a85b ce3d
-0.07153375 0.07674122 0.25779042 -0.46517253 0.05459252 0.18771982 -0.0034844398 -0.18138404
0.26824036 0.87233424 -0.5440178 0.5287834 0.9220693 -1.0614487 0.41029537 -0.6904573
-0.36546302 0.09996764 -0.20151837 -0.09854076 0.267021 -0.13352334 -0.18126605 0.367864
-0.12130939 -0.11531819 0.27879706 -0.27846694 0.056096427 0.2531977 -0.21770373 0.010673933
0.3804768 -0.22775051 0.012694161 0.309801 -0.16885848 -0.2491852 -0.2924092 0.10674526
0.2065964 0.49790794 -0.11435706 -0.03837636 0.24952318 0.6927784 -1.213507 -0.3966487
0.25083578 0.43772498 0.011258597 0.42165497 0.6038216 -0.8189206 -0.4342893 -0.13829333
0.0730216 0.09008215 0.14433901 0.30985034 0.15488166 0.28706855 -0.52415514 -0.47180846
-0.070607856 -0.13466789 0.29987273 0.058396537 -0.39137706 -0.041894518 0.18476062 -0.5575956
-0.021702064 0.6146329 0.97420496 0.31858182 0.42213115 0.4533782 0.43200517 0.67319024
0.85802776 -0.57566744 1.3747584 0.48629278 -0.4036793 0.624303 0.88608116 -0.27896836
0.04087536 0.5050542 -0.3990421 0.24666269 -0.588047 1.0978545 0.6241562 0.98654324
1.4519626 0.54832065 0.6370954 1.5327597 0.59007365 0.5938144 0.97332644 -0.34354487
-0.22845432 0.4197702 -0.040934518 0.4359185 0.263175 0.09654513 -0.5800931 0.1074879
-0.020550858 0.031598873 -0.037667986 -0.09895934 0.1387596 -0.15035178 0.20754378 0.43805146
-0.042900383 0.08028248 -2.5963168 0.18032914 0.017865473 0.52055305 0.05294143 -0.21559523
0.22539435 -0.23719518 -0.10647735 -1.8000236 -0.17110951 0.08567184 2.1223993 -0.16084558
-0.036939062 -0.13890082 0.11084353 -0.038506646 0.00257248 -0.077375524 0.0469311 0.17537932
0.5151414 0.3048696 -0.41383338 0.2928402 0.19660747 -0.13001227 -0.36299565 -0.02540973
-0.12438635 -0.93232286 1.5315924 -0.588657 -0.9241433 1.2492049 -1.2002574 0.18034509
0.871019 -0.8824484 0.11291326 -0.117643766 -0.1282352 0.27391282 0.4545468 -0.84917396
0.7896492 1.1010122 -0.885557 0.63103336 0.31892553 0.042844646 0.7145051 -0.102305084
-1.6202706 0.4842522 0.11508904 -1.4295007 0.4341164 0.23060717 0.19194204 -0.25699452
0.55080795 0.025468897 -0.25873694 0.034982406 1.0550569 -0.021254353 1.4995347 -1.3462183
-0.5485601 0.3064787 -0.3489106 -1.887496 -1.1852005 0.043199744 -0.24230435 0.16046853
0.51572776 0.43825555 0.045443263 0.36020282 0.46337312 -0.015645783 0.7783887 -0.22876614
0.0948703 0.44197658 0.19362564 -0.030065453 -0.35198045 -0.08548143 0.2535613 0.7374442
0.061305825 0.38051274 0.37635604 0.23664485 0.51499826 0.60925096 0.22577198 0.07182552
0.14568478 0.88297206 -1.9103391 0.6754416 0.30777082 -0.9890823 1.1559873 1.1522919
0.39378852 0.21783254 0.70333505 0.6919665 0.503389 0.26863214 0.28649962 0.8743614
-0.027841352 0.027049236 -0.52798945 0.5375318 0.3328604 0.37633297 0.17699394 0.43283346
0.7850532 0.14027952 0.16417514 0.22899076 0.42455947 0.11808387 -0.3810324 0.10076076

conv.5.bias f4 [64]
00000000: a472 4f3d a387 9abe 190e 6bbe 5948 62be
00000010: 4716 10bd 7d7b d4bd 34b7 0c3f 484e aa3d
00000020: c363 fdbc e21f b9bd b370 f2bd a1e4 54c0
00000030: e75d 20bf 3d24 12bf 301b 3e3e 8de9 0fbf
00000040: a8ee d33e 7645 b7be 7b07 27bf 968d c83e
00000050: 14ad 50c0 f530 48bc 31b9 97be 0e99 6d3d
00000060: 1bdd 9cbe 8743 fabe 7341 20bf 386e 3ac0
00000070: a21c c7be 9465 4ebd 312f 7f3f 9be3 16bf
00000080: c441 9cbe aa93 d7bd ab08 28bf 2bd8 54be
00000090: 9262 b2bf 20f5 3fc0 e97e 213f dac4 ba3e
000000a0: 4ca8 903e 08ff efbd 9736 1abe 7cbf 0ebd
000000b0: 33d0 a03e 9928 08bf 16a2 81be 414f b23e
000000c0: a0f5 febe 1eb6 4dbe 9e6b 67be 90ef ba3d
000000d0: 4b25 19bf b07f cdbe 7191 02be b043 d5be
000000e0: 5852 5abe 6387 ab3e e70e 55bf 4e54 b3be
000000f0: 1c93 42bf b759 1ebf fe03 4ebe b637 34be
0.05064644 -0.30181608 -0.22954597 -0.22097911 -0.035177495 -0.10375116 0.54967046 0.08315712
-0.03093136 -0.09039284 -0.11837902 -3.3264544 -0.62643284 -0.57086545 0.18565059 -0.56215745
0.41393018 -0.35795182 -0.6524579 0.39170521 -3.2605639 -0.0122187035 -0.29633477 0.058007292
-0.3063744 -0.48879644 -0.6259987 -2.9129772 -0.38889033 -0.05038984 0.99681383 -0.5894105
-0.30518925 -0.105262116 -0.65638226 -0.20785587 -1.3936331 -2.9993362 0.63084275 0.3647831
0.282534 -0.11718565 -0.15059887 -0.034850582 0.31408843 -0.5318695 -0.25318974 0.3482609
-0.49796772 -0.20089003 -0.22599646 0.09127724 -0.5982253 -0.4013648 -0.12750794 -0.41653204
-0.21320474 0.3350173 -0.83225864 -0.35025257 -0.7600572 -0.61855644 -0.2011871 -0.17599377

linear.1.weight f4 [256, 169]
00000000: 0047 c13b 3ae0 203d 0a75 723d 1ebe 5d3d
00000010: a826 d1bc b62c b5bc 740c 013d 34d2 1d3d
00000020: c657 563d ecd0 fe3d b87c 783c 706a 39bc
00000030: f0d2 033d b6df 463d 40e9 09bb f851 6fbc
00000040: 9095 ce3b 54ef 34bd c052 9abd 40b7 aabc
00000050: dd5c 973d b7ea 923e b17d 8e3e f05f 4e3c
00000060: 9471 82bd 78bb 86bd ec2a 8bbc 18fd 1c3d
00000070: 4040 d03c 401e 32bb c4f8 f33c 802c 2bba
00000080: 2a2a 36bd 2a3d c43d 4a7f 82bf 7ab0 0d3e
00000090: 64ab a03c 10bd ab3c d471 2ebd 2eb0 7e3d
000000a0: 9ccb 323d dc49 64bd 1c1e 163e c4f8 b1be
000000b0: 714f 233e 637e 083f 4bac 3f3d ab81 4bbf
000000c0: cc4c cd3d 66a0 27be fd2c f5be bbb2 923e
000000d0: 3e54 253d 9219 4d3d d8b2 04bc 211b 633f
000000e0: dc1a 69be 97e0 893f c8a5 163f 895c 19bb
000000f0: f8cd a1be 5cac bbbe 7123 a6be 70fc b6be
00000100: d2d9 53bd a232 d3bc 96b6 41bd 25f9 1dbd
00000110: e47a 1fc0 71b3 23bf e09c 9e3f f249 5e3f
00000120: c516 cb3f aba1 883f bad3 553f 1413 d73e
00000130: 8a1f 58bd 80c3 013d 6466 ed3c 60d0 12bd
00000140: 40fe e83c 3c50 123f cd6e 00be 64d9 793e
00000150: 015e 2fbf 7096 0dbf 3f0d 42bf a83c 2e3f
00000160: 4656 213d 2edd 4f3d 54a2 08bd 8598 11bd
00000170: 7aa6 99bd c0ba ca3e fe91 23bf e80b cb3e
00000180: 7908 a33f f252 123f 1100 803e 5415 d5bb
00000190: 66f8 a7bf 0e6b 5d3d 40ab 72bd 50d6 8ebc
000001a0: 087e 3fbc 49ac 2dbe 9cd4 813f 0a14 5c3f
000001b0: 66d3 11bf 9e8f 313f 027f b43e 9093 0d3f
000001c0: 86b0 9e3e a3b3 a6bd 30e7 d83c bc3a 3f3d
000001d0: 2446 debc 3bd7 c83e d05b 6fbf 11b1 15bf
000001e0: d6fa 81bf fae6 2a3c f512 42bf 0c11 0fbe
000001f0: da71 c5be 933e 30bf feac 3d3d d652 6b3d
00000200: 8832 02bd e180 8b3d 6ecf 4c3d 767b debc
00000210: e72a 823d 88bf e53e e181 513f 7129 12bf
00000220: 4a28 18bd 7241 4d3d 183d 2d3c 8092 38bc
00000230: bb6d 00bd 0278 783d f77d 8d3d 6a5a 2dbd
00000240: 28ff 1c3d 2a5b 3c3d f277 ecbd d395 1340
00000250: ecf6 e53c 4011 8b3b a012 2b3c 782c 1fbc
00000260: 5471 f43c e663 793d 3695 493d 8a91 033d
00000270: 7497 79bd f89b 903c 4668 3cbd 8841 2b3c
00000280: bc3f 013d 5082 ebbb 9f01 92bd 769f 6a3d
00000290: 9964 49bd e827 b43c 0a4d 4b3d e47e 953c
000002a0: 70d6 1d3d bec3 6d3d 0f80 8ebd d661 8abd
000002b0: 3808 383c 28ba e93c 5d06 8ebd d884 5a3c
000002c0: 7b94 16bd 950b 8bbd e847 3b3e e81c 3c3d
000002d0: 605f 17bb 0621 54bd d41d b6bc 50a8 22bc
000002e0: 1474 a0bc bed6 223d 323c 8ebc 9656 5bbd
000002f0: e6d1 3dbd bb58 803d eb78 5a3f f3b8 913f
00000300: 5912 08bd aced 9a3c e66e 7bbd 1993 75bd
00000310: 7a28 6b3d 80b2 7e3a 6c7f c0bc 400b db3c
00000320: 1b86 1fbd 9062 eebb 0767 b3bf f267 8b3f
00000330: 0eb0 83bf 2c26 933c 4029 da3c 8049 4f3b
00000340: a025 8d3b 205c 0f3d e894 8cbc 7b5a 05be
00000350: 464f d53e 7511 dfbe e074 fdbd 6089 4e3e
00000360: e793 9f3e b68f 50bd 20bf 273f bbec f1be
00000370: 6eae f03e b201 36bd 3cb1 dfbc cdf4 78bd
00000380: ab28 91bf 9f56 eb3e 2443 a7bd aee2 a0bf
00000390: 385b e93e dcc6 2abf 8c0a e53e 1282 2f3f
000003a0: 3516 bebf 1e2a 2abd d658 5c3d 8ac4 f2bc
000003b0: b955 46bd 0cef 803d 8672 a0be 9982 0fbf
000003c0: 6ee1 d43e 37ca 0b3f 472b 5f3f b65c 56bf
000003d0: e4a8 823f 3bad 27bd 9b37 8a3d 9e96 b1bc
000003e0: 3ef7 213d 76c3 473d 293a a13f a633 d03e
000003f0: 57d4 1fbf 6b39 2bbd 0466 2c3d e896 573f
0.0058983564 0.03927634 0.05919365 0.054136388 -0.025531128 -0.022116046 0.031506017 0.038530543
0.0523298 0.124421924 0.015166454 -0.011316881 0.032183588 0.04855319 -0.002104357 -0.014606945
0.0063044503 -0.044173554 -0.075353146 -0.020839334 0.07390759 0.28694698 0.2783027 0.0125961155
-0.063693196 -0.065787256 -0.01698824 0.038327307 0.025421262 -0.0027178675 0.029781707 -0.00065297633
-0.044473805 0.095819786 -1.0195096 0.13836852 0.019612975 0.020964175 -0.042589024 0.062179737
0.04365121 -0.0557345 0.14659923 -0.34760106 0.15948273 0.5331785 0.04679517 -0.7949473
0.100244135 -0.16369781 -0.47885886 0.28651986 0.040363543 0.050073214 -0.00809928 0.8871327
-0.22764152 1.0771664 0.5884671 -0.0023401103 -0.31602454 -0.36654937 -0.32448915 -0.3573947
-0.0517214 -0.02578098 -0.04729327 -0.03856768 -2.4918756 -0.6394568 1.2391624 0.8683158
1.5866324 1.0674337 0.83526194 0.42006743 -0.052764453 0.031680584 0.028979488 -0.035843253
0.028441548 0.5715368 -0.12542267 0.24399334 -0.68502814 -0.55307674 -0.7580146 0.68061304
0.039388917 0.050748043 -0.033357933 -0.035545845 -0.07502456 0.39595604 -0.6389464 0.3965752
1.2736961 0.57157815 0.2500005 -0.0065027867 -1.312268 0.054057173 -0.059245348 -0.017436177
-0.011687763 -0.16960253 1.0143008 0.8596808 -0.56963193 0.6935977 0.3525315 0.5530329
0.30994052 -0.08139732 0.026477426 0.046686873 -0.027133055 0.39226708 -0.9349947 -0.58473307
-1.0154674 0.010431046 -0.75810176 -0.13971347 -0.38563424 -0.6884548 0.046307556 0.057452045
-0.03178647 0.06811691 0.050002508 -0.02715848 0.06355839 0.4487269 0.81838804 -0.57094485
-0.037147798 0.05011124 0.010573648 -0.011265397 -0.031354647 0.060661323 0.069087915 -0.042322554
0.038329273 0.04598538 -0.11546315 2.3060195 0.028071843 0.0042439997 0.010441452 -0.009715192
0.029839195 0.060886286 0.049214564 0.03212122 -0.060935453 0.017652497 -0.04599788 0.010452636
0.031554922 -0.0071871653 -0.071292154 0.05728098 -0.049168203 0.021991685 0.049634017 0.018248983
0.03853458 0.058048002 -0.06958019 -0.06756942 0.011232428 0.028531149 -0.069348074 0.0133373365
-0.036762696 -0.067893185 0.18289149 0.045926005 -0.002309762 -0.051789306 -0.02223102 -0.009927824
-0.0195866 0.039755575 -0.017362688 -0.05354937 -0.046342753 0.06266924 0.85340756 1.1384567
-0.033220623 0.018912159 -0.061385058 -0.059954736 0.05741165 0.00097159296 -0.02349826 0.026738763
-0.038946252 -0.007274933 -1.4015816 1.0891097 -1.0288103 0.017962538 0.026630998 0.0031629503
0.0043074638 0.034999967 -0.017160848 -0.13022797 0.41662043 -0.43568006 -0.12375808 0.20169592
0.31167528 -0.050918303 0.6552601 -0.47250924 0.4700808 -0.04443521 -0.027306192 -0.060780335
-1.1340536 0.45964524 -0.08167103 -1.2569177 0.45577407 -0.66709685 0.4473461 0.68557847
-1.4850527 -0.041544072 0.053795658 -0.029634733 -0.048421595 0.062955946 -0.31337374 -0.5605865
0.4157824 0.5460543 0.8717541 -0.83735216 1.0207791 -0.04093669 0.06748887 -0.021678265
0.03954243 0.04877039 1.2595874 0.40664405 -0.6243338 -0.041802805 0.042089477 0.8421464

linear.1.bias f4 [256]
00000000: 2ab3 12bd dffc 4f3e 0c28 033e 8f87 e93d
00000010: f7e1 933d f61b 3bbe acae d13e 5628 92be
00000020: 4481 51be b6d0 87bb 5d17 e23f 1575 323e
00000030: a928 9f3e 79a9 ecbd 5e8b 073f 26ff ac3d
00000040: 83a9 233d 6401 25bc bf59 53bb 3304 7abe
00000050: fa7a e6bd 7626 85bd ebba 013e 68a2 643e
00000060: 97a0 5bbf 99f7 dcbb 029f 8f3e d92b f83d
00000070: d3e8 5ebe d4cd 253e 7238 393c c017 003f
00000080: e720 8ebf c80a e33b 85d2 c53e 3330 373d
00000090: 34ba 563e fb44 473e 8fd1 173e d3a5 2a3d
000000a0: 8560 903e 1631 d83f 4a60 bc3d 114b 313f
000000b0: c151 223e 45b8 11be 438b 603e 157e 52be
000000c0: ed24 403f 8562 913e 28be e83c b0a3 933e
000000d0: 3426 933e 1b28 ff3d 962e 923e 0383 f3bc
000000e0: 0274 12bd bc7f 543d c09c 8abd 1cf7 043e
000000f0: d989 34bf fe65 ddbf 7ce9 bf3e c263 1e3f
00000100: 936e bf3d 29f3 953d c2f1 843d 812f 86bd
00000110: d319 503d c092 853f efcf d33f 7ccc 30be
00000120: b838 813d aad6 2cbe eab6 1ebc 9ae6 6fbc
00000130: 24c5 253c e102 263d 331d 373e d4fa 563e
00000140: 716a 3f3e 846f 483f 52d9 a13e 2382 29be
00000150: 5329 c2bd b10f 3e3d fd7c 063e 6b3b 4e3d
00000160: cc66 44be d4a9 55bd 8a81 85be 9d60 02be
00000170: c5ef 763e e9ec 0a3e 1482 333e e57e af3e
00000180: 8da8 3f3e f845 e93d cfe0 813e cb40 623e
00000190: be83 b63e 1a7a 1ebd c2b0 0fbd e910 41be
000001a0: 2968 e8bd b382 d1bd 21ea 64be 0d83 b1be
000001b0: 6faa 40bf 167c 403d 6648 84bf 8b85 77bd
000001c0: 2aaa 623e 2169 c23d 681f ca3d 0184 1b3e
000001d0: d492 233c 3570 d2bd 75ce 9c3e 57ca 893c
000001e0: f208 163f 93f0 2f3d bddc f83d e3ff 553d
000001f0: c497 f7bd 71e0 fcbd fcb6 7b3e 9257 3a3e
00000200: 2cd8 cabe 6613 aabd c234 8e3d ae19 57bd
00000210: c273 ba3f 0575 9f3e 5c35 a7bc 033b 033e
00000220: 0076 913d 46da 103d f566 5a3e 4fe3 7f3e
00000230: 3246 adbd 0f9a af3d e88a 2c3e 1e73 8cbd
00000240: 3ce1 1bbe c6f5 cabd f554 a53d d96f 8b3f
00000250: 4f17 46be 2788 3f3e 94b9 883e b830 d0bd
00000260: a1b1 52bf dbcf 59bf 5127 923e e080 ce3e
00000270: 4ea2 9c3d 23de 63bd 846d 3a3e 2ad7 db3d
00000280: 6448 eabd 594d f93b ae2e 1fbe 9d65 c8be
00000290: 74d5 0f3e 392b 193d d5cb c53e c3dd 823e
000002a0: 576a 123d 5a7a 92bd a815 f13d 1600 9cbd
000002b0: dfe5 ed3e 9fd7 a73e d7fc 4d3d 228a a8bd
000002c0: 0b41 723f a546 be3e ad21 2abd 78af bc3d
000002d0: 9b09 e9bf 4a89 503e 881f 993e b984 3a3e
000002e0: 5463 14be 9b10 40be 4ea4 4f3d 1792 4c3e
000002f0: 93a4 a3be 9080 db3b 30ad 1fbe 5f0c c2be
00000300: 1d0b b73d 9a0a 20be 8f47 803d 0e82 0fc0
00000310: 9650 2240 139c ad3c 0ad4 94be 2329 f7ba
00000320: d40f cd3c cfc9 6f3d 4cd3 e73d 1ba8 003e
00000330: c1c3 34bf 3658 403c 2d3e bebd aeda 2b3f
00000340: 2b93 85bd d6fd 573e 4608 79bf e39f a13d
00000350: 9276 5cbd 9bad 543f 6905 e8bf fd10 e03c
00000360: 969e 193e e79b da3e c0df 94be 1573 573f
00000370: 1e07 cc3d 703e 9b3e ef5a 94bc 0f53 e33c
00000380: af48 0ebe 4cc0 bebd e625 a23d 3cfc ddbe
00000390: 25b5 1c3f c612 973e 2f84 5f3f 4a1e 623d
000003a0: 77e2 cabd 50d4 c33e c748 c5bd 10dc 39bd
000003b0: ed8b 3ebe 8edb 54be 195a 613d 773f 4c3d
000003c0: 5ba0 35bd 8132 673e 2d8c 553e d15d 923d
000003d0: 1805 093e 80a2 a03c 9c85 863d 6add 543f
000003e0: 7891 8b3c a22f f0bd 44e4 273f aae5 3bbe
000003f0: 4d92 853e 99be 9b3e 10a4 553e fd62 3fbe
-0.035815395 0.20311306 0.12808245 0.11402809 0.07220834 -0.18272385 0.40953577 -0.285464
-0.20459467 -0.0041447533 1.766338 0.17427476 0.3108571 -0.11555762 0.5294703 0.08447103
0.03995658 -0.010071132 -0.0032249538 -0.24415664 -0.11253925 -0.065014765 0.1266896 0.22327578
-0.85791916 -0.006743383 0.28051 0.12117738 -0.21768503 0.16191798 0.0113049615 0.5003624
-1.1103791 0.0069287755 0.38637176 0.0447237 0.20969468 0.19459908 0.14826034 0.04166205
0.2819864 1.688998 0.09198053 0.6925517 0.15851499 -0.1423045 0.21928124 -0.20555909
0.75056344 0.28395477 0.028410986 0.2883582 0.28740084 0.124588214 0.28551167 -0.029725557
-0.035755165 0.05187963 -0.06768179 0.1298489 -0.7052284 -1.729675 0.37482822 0.6187097
0.09347262 0.0732177 0.06491424 -0.065520294 0.050805878 1.043541 1.6547831 -0.17265505
0.06309646 -0.16878763 -0.009687165 -0.014642382 0.010117803 0.04053009 0.17882232 0.20994121
0.18692948 0.7829516 0.31611115 -0.1655355 -0.09480538 0.046401683 0.13133617 0.050349634
-0.19179839 -0.052163914 -0.26075393 -0.12732168 0.24114902 0.13566937 0.1753009 0.342765
0.18716641 0.113902986 0.25366828 0.22095029 0.35647386 -0.038690664 -0.03508068 -0.18854107
-0.11347992 -0.10230007 -0.22354938 -0.34670296 -0.7526006 0.046993338 -1.0334594 -0.06043009
0.22135225 0.09492708 0.098692715 0.15187074 0.009983737 -0.10275308 0.30626264 0.016820116
0.586074 0.04295404 0.121514775 0.052245986 -0.12089494 -0.12347496 0.24581522 0.18197468
-0.3961805 -0.08304481 0.069436565 -0.052514724 1.4566576 0.31143966 -0.020411186 0.1281548
0.07102585 0.03536441 0.21328337 0.24989055 -0.08460654 0.08574306 0.16849864 -0.06857894
-0.15222639 -0.09910159 0.08072845 1.0893508 -0.19344829 0.18704282 0.26704085 -0.10165542
-0.8230229 -0.8508279 0.2854562 0.403327 0.07648145 -0.055631768 0.1820584 0.10734399
-0.11439589 0.0076080975 -0.1554515 -0.39140025 0.1404627 0.037394736 0.38632074 0.25559816
0.035745945 -0.07152243 0.11771709 -0.07617204 0.4646444 0.32781693 0.050289955 -0.08229472
0.946305 0.37163273 -0.041536022 0.092131555 -1.8206056 0.20364872 0.2990687 0.18214692
-0.14491016 -0.18756334 0.050693803 0.19977604 -0.31961498 0.0066986755 -0.1559341 -0.37900063
0.089376666 -0.15629044 0.06263649 -2.242313 2.5361686 0.021192586 -0.29068023 -0.0018856864
0.025031962 0.05854207 0.113195986 0.12564127 -0.70611197 0.011739781 -0.09289203 0.67130554
-0.06522211 0.21092924 -0.9727825 0.07891824 -0.053824015 0.830774 -1.8126651 0.02735185
0.15001902 0.4269707 -0.29076958 0.84159976 0.09962295 0.30321074 -0.018109767 0.027749566
-0.13894914 -0.093140215 0.07917385 -0.43356502 0.61213905 0.2950651 0.8731107 0.055204667
-0.09906476 0.3824792 -0.09633022 -0.045375884 -0.18608065 -0.20786878 0.055017564 0.049865212
-0.04434238 0.2257786 0.20854254 0.071468 0.1338085 0.019608736 0.06568453 0.8315035
0.017037138 -0.11727835 0.6558268 -0.18349329 0.2608818 0.30418852 0.20863366 -0.18690105

linear.3.weight f4 [64, 256]
00000000: 85d7 31c0 6f39 9840 2899 aa40 a408 1fc0
00000010: 341e eebf 04b4 68c0 46a4 3b40 dc78 3ac0
00000020: f298 49c0 2660 6f40 b2aa c83e fbfe 9bbf
00000030: 32e1 96c0 aeeb 9840 5a15 613f c5c2 c940
00000040: 0a94 b440 5f72 7540 565a b6c0 516d 1cc0
00000050: 5307 84c0 2920 af40 431d b240 4fb6 1d40
00000060: d35a 19bf 55b6 b3c0 f3fa a6bf 066e 6c40
00000070: 367d 8bc0 66bd 3940 1d2a e63f cb99 0b40
00000080: 7100 82be e852 53c0 7eca 8240 a498 a1c0
00000090: 71dc 58c0 7506 09bf 3887 7240 9a38 ac40
000000a0: fbbd 2840 8e0c 2d3f beb3 c43f 9de1 df3e
000000b0: bd8b 9840 c569 b1c0 8877 8540 0341 d6c0
000000c0: 57fc fe3e 8393 4f40 7d20 a6c0 5a03 7640
000000d0: d982 a540 e6a4 fcbf 15ab 64c0 a835 a2c0
000000e0: 0cb2 8a40 0141 d5c0 f25f 8b40 dfbb 7c40
000000f0: afae 3fbf 21ec d6be 7055 2e40 aa90 f93d
00000100: a209 9840 7935 e0bf 867f 83c0 032e 3d40
00000110: 761f 7dc0 dd15 be3e acce 0f3f 79ae 8d40
00000120: e56e 88c0 b1ae 8f40 a455 7fc0 261d 25c0
00000130: f57a c940 0dca 9dc0 871f 0ec0 284f 56c0
00000140: eefd b53f 98dc e5bd 914a 9840 5a63 7b40
00000150: c01c 58c0 7953 9f40 f6fd c140 ad6c 62c0
00000160: 67f1 8d40 9641 5bc0 db4e e040 48c4 02c0
00000170: ac41 8740 41c9 c640 d704 b33e b897 b9c0
00000180: b6c3 9740 a57d 9dc0 30ff 30c0 0bce d83e
00000190: d322 b6be d850 7cc0 8e10 cac0 2723 1840
000001a0: 1cf0 d8c0 05ce 70c0 73ea b240 4814 9ac0
000001b0: 25ce 6abf 62a6 a440 483d 0bbf a2de 95c0
000001c0: 3426 c540 8a3f 2640 0d80 9840 fb32 7ec0
000001d0: 38be bd40 4222 b4c0 03a4 02c0 6a92 25c0
000001e0: 4fde 653f 84ca a940 7be3 2a40 76bc 9bc0
000001f0: 1c53 a6c0 0300 8a3f eb74 5a40 9551 b13f
00000200: 35df eb40 6dcd a740 70b1 b23f 2447 8940
00000210: 59f8 2f3f 1501 f2bf f539 5bc0 873e 4bc0
00000220: 4642 7fc0 6ff8 33c0 336b b840 4d9e ed3f
00000230: c07a f340 e118 9040 e553 33c0 61a4 8440
00000240: 21b7 94c0 9140 6540 83cb a740 11cf 1f3f
00000250: a6d8 e0c0 e0ac 9cc0 8a1b 34c0 2cc6 82c0
00000260: cafa 1dbf e309 81bf 5e90 b1c0 f4d6 f93f
00000270: fc05 9540 740b 68c0 10bc aa3f d401 ae40
00000280: a03e 89c0 fbd1 4ec0 b0dd c4c0 e255 dac0
00000290: 8d24 29c0 db0f 7740 7756 25c0 c096 a640
000002a0: 6198 c5bf 61e9 6540 d3fc 4740 36f4 a940
000002b0: 5155 aa40 db41 6d40 21f6 3940 79e9 a8c0
000002c0: 4447 a93e 7032 6dc0 93dc a4c0 9210 71c0
000002d0: 89e7 ebbd 0b25 063d 3855 bfc0 5a53 9e40
000002e0: 40dc a640 ab0a c240 2dac 8840 22d5 5040
000002f0: 5e7a acc0 f3f7 6fc0 8f90 9040 37ad 30c0
00000300: 3ade acc0 9a87 ca40 abfa 2840 0183 7ebe
00000310: 5667 c43e d3a1 27c0 2b9d 9ec0 a016 f840
00000320: 2092 89c0 d951 8840 74c2 9740 1318 a5c0
00000330: 3669 6cbf b598 6940 19ca 96c0 1b9b 1240
00000340: 127b c1c0 64ea 5ac0 606e ddbe 09b5 a8c0
00000350: aac3 ca40 8e4b aa3e a588 d3be e69d 9140
00000360: be87 b340 b963 ae3e bda8 e340 92e3 f63e
00000370: 7e2d 5dc0 b834 b2c0 5eef 8240 f142 c0c0
00000380: 0c82 88c0 756b aec0 ff8f c640 ba06 e940
00000390: 732c 0f3f 05fa 55c0 070a a4be 154b e540
000003a0: 7198 92c0 5cf7 f940 f38f 28c0 7c4f b440
000003b0: 8b89 c8c0 ef22 7bc0 b32c 27c0 f98f f1bf
000003c0: f2b5 65c0 6647 9e40 606b 21c0 0101 ae40
000003d0: c1f6 8340 6be8 ae40 a9cf 52bf d627 273f
000003e0: eb8d 9ac0 c4d8 b0c0 10d1 083f b684 83bf
000003f0: 8ae4 7fc0 5966 54c0 4115 69c0 4552 6ec0
-2.7787793 4.757011 5.331196 -2.4849024 -1.8602967 -3.6359873 2.9319015 -2.9136267
-3.14996 3.7402434 0.3919273 -1.2187189 -4.7149897 4.7787695 0.87923205 6.3050256
5.643071 3.8351057 -5.6985273 -2.4441721 -4.125894 5.472676 5.566072 2.4642522
-0.5990421 -5.6160073 -1.3045334 3.6942153 -4.3590345 2.902185 1.7981602 2.1812618
-0.25390962 -3.3019352 4.0872183 -5.049883 -3.3884547 -0.5352548 3.789503 5.3819094
2.6365955 0.6759728 1.5367353 0.43726817 4.767058 -5.5441613 4.170841 -6.695436
0.49801895 3.2433784 -5.191466 3.8439546 5.1722226 -1.9737823 -3.572942 -5.06905
4.334234 -6.664185 4.355462 3.9489667 -0.7487592 -0.41977027 2.7239647 0.121857956
4.751176 -1.7516319 -4.109317 2.9559333 -3.9550452 0.37126055 0.5617473 4.427548
-4.263537 4.4900746 -3.989602 -2.579904 6.2962594 -4.9309144 -2.2206743 -3.3485813
1.4218118 -0.112237155 4.7591023 3.927939 -3.3767548 4.9789395 6.062251 -3.537883
4.435718 -3.425878 7.009626 -2.04323 4.2267666 6.212067 0.3496463 -5.7997704
4.7426405 -4.9215875 -2.7655754 0.42344698 -0.35573444 -3.9424343 -6.314521 2.3771455
-6.77931 -3.7625744 5.5911193 -4.8149757 -0.917208 5.1453104 -0.5439038 -4.683427
6.1609135 2.597628 4.765631 -3.9718616 5.92947 -5.629182 -2.0412605 -2.5870614
0.8979234 5.305971 2.6701343 -4.8667555 -5.197645 1.0781254 3.413386 1.3853022
7.370997 5.2438264 1.39604 4.289934 0.68738323 -1.890658 -3.4254124 -3.1756914
-3.98842 -2.8120382 5.763086 1.8563935 7.608734 4.503037 -2.8019955 4.145066
-4.6473546 3.5820658 5.2435927 0.62425333 -7.0264463 -4.896103 -2.8141809 -4.086691
-0.617108 -1.0081142 -5.548873 1.9518723 4.6569805 -3.625699 1.3338642 5.437723
-4.2888947 -3.2315662 -6.1520615 -6.8229837 -2.642856 3.8603427 -2.5834024 5.205902
-1.5437127 3.5923693 3.1248062 5.311061 5.3229146 3.7071445 2.9056475 -5.2785
0.33062184 -3.7062035 -5.1519256 -3.7666364 -0.11518771 0.03275017 -5.9791527 4.9476748
5.214386 6.0638022 4.2710176 3.2630086 -5.3899374 -3.7495086 4.5176463 -2.7605722
-5.4021273 6.329053 2.6402996 -0.24854662 0.3836009 -2.619252 -4.9566855 7.752762
-4.2990875 4.259991 4.742487 -5.1591887 -0.9234804 3.6499455 -4.71217 2.290717
-6.046273 -3.420556 -0.43248272 -5.272099 6.336385 0.3326077 -0.4131519 4.5505247
5.61032 0.34060457 7.114348 0.48220497 -3.4559016 -5.5689354 4.0917196 -6.0081716
-4.265875 -5.4506173 6.2050776 7.282071 0.559272 -3.343385 -0.320389 7.1654153
-4.5811086 7.811445 -2.633786 5.6347027 -6.26679 -3.9240072 -2.6121032 -1.8872062
-3.58923 4.9462156 -2.5221786 5.4376225 4.1238713 5.4658713 -0.82348114 0.6529516
-4.829824 -5.5264606 0.53444004 -1.0274875 -3.998324 -3.3187468 -3.6419222 -3.7237713

linear.3.bias f4 [64]
00000000: d4e5 ed3d d514 1bbd 6970 763e 0565 e9bc
00000010: bd9a 6d3e 8730 433d b35a 4bbe f260 52bd
00000020: af27 493c 970f c1bd de00 1bbe 6059 71be
00000030: 95f1 44be c538 37be 96a2 cd3d b203 1dbe
00000040: b054 93bc 7a91 fbbc e02a 9e3d c02e 56be
00000050: 2310 5f3e 5c33 113f 5d01 a53d 2920 853e
00000060: 4ecb 413e 6d0e b6be 4a46 9dbe 1b08 acbe
00000070: e62a 9bbe 0ffc 8cbd 71a7 c5bd 75cc ecbd
00000080: 86b0 193e c0f6 8fbe 86be cabe b3e7 313d
00000090: cd5f 3cbe 1980 1e3e 36c9 423f a055 8fbd
000000a0: 0a23 42bd 94d5 91be ee59 c93e 2ad1 82bd
000000b0: 4cbc ff3d 47c4 6dbd d78b 33be 69ac 043e
000000c0: 7721 6d3f 8ac7 8e3e 131d 3b3e 2b26 2f3e
000000d0: e511 863e 65e6 98bd 0db1 923c 9e93 cd3d
000000e0: bc15 72be 803b 3ebb b0c0 3cbe 975f 93be
000000f0: e34e b2be 9a8c 483e 0329 5dbe e1e6 3fbe
0.11616102 -0.037861664 0.24066319 -0.028490553 0.23203559 0.0476537 -0.19858818 -0.051361986
0.012277528 -0.09426802 -0.1513705 -0.2356925 -0.19232781 -0.1789275 0.100407764 -0.15333441
-0.017984718 -0.030709017 0.077230215 -0.20916271 0.217835 0.56718993 0.08056901 0.260011
0.18925211 -0.3555788 -0.3071769 -0.33599934 -0.30306166 -0.06884014 -0.096510775 -0.115624346
0.15008745 -0.28117943 -0.39598483 0.043433856 -0.1839592 0.15478553 0.76088274 -0.069987535
-0.047396697 -0.2848326 0.39326423 -0.06387551 0.12487087 -0.058048513 -0.17533813 0.12956394
0.9262919 0.2788661 0.1827281 0.17104404 0.26185527 -0.07465819 0.01790669 0.10037921
-0.23641104 -0.0029027164 -0.1843288 -0.28783867 -0.3482581 0.19584885 -0.21597676 -0.18740417

reg.weight f4 [2, 128]
00000000: c11b 2940 d4a9 fabf 6d6e 923f 5c78 f7bf
00000010: bfa3 7340 af5b 0240 2082 50bf f049 2740
00000020: 1605 a73f 7d56 1940 f6f4 bb3f 964e 833d
00000030: 694f da3f b701 4d40 65f9 0bbf 09ee 83bf
00000040: 3d85 913f 9ed5 ac3f 62f8 0440 c8eb 713f
00000050: b7c4 1440 637b 0240 0a56 2840 7943 843f
00000060: a24c d73f 7d2d ea3f 2470 283b 17c4 2740
00000070: 4f0c 5ebe 8091 39bf b91e 78bf f677 7c40
00000080: b3e0 3a40 1e46 e43f f8d1 3340 b4ed 343d
00000090: 242d a03f 5e51 ef3f c0af 6dbf ac8f 6e3f
000000a0: 5399 793f 8660 e53f f87b a33d ec12 ba3f
000000b0: 131b 30bf dcd4 76bf bdd9 fa3f 21ad ef3f
000000c0: 5603 6640 9e3f a33f cb7a 78bf 5246 923f
000000d0: 2776 7b3d 1410 bf3f 0bb3 c83f 5a9d eebf
000000e0: a299 d23f 7b8c 873f fca4 7a3e 805d a73d
000000f0: 649a b13d c3a9 b23c 7c09 3940 3c95 e23f
00000100: a76a a841 c8fc ac41 2ad6 a641 950e ae41
00000110: d0b0 f9c0 9410 ad41 353d ae41 cbac ac41
00000120: 30ad fec0 d116 ad41 8b64 ad41 cf4c ae41
00000130: 5f24 af41 d190 ad41 e264 fac0 3cb9 ae41
00000140: b5eb a941 5b0b ad41 e723 fdc0 45dc ac41
00000150: 42e9 ac41 1fb4 07c1 5522 ac41 cead 00c1
00000160: 6de5 f8c0 c3b5 ad41 c1ac ad41 ba73 ad41
00000170: 4aa0 ad41 6953 ac41 2a0d ae41 8ca6 ad41
00000180: 8a75 a841 d662 ac41 2c24 ae41 a584 ad41
00000190: 5da0 ad41 514d fdc0 1505 0e41 8dde ac41
000001a0: 60de ac41 c192 ad41 5661 ab41 0ece ad41
000001b0: 3b86 ab41 4b53 ad41 a348 ad41 121e a841
000001c0: 99af 1641 ff12 ac41 4b47 f9c0 4757 fcc0
000001d0: 9ff9 ffc0 dce7 ac41 ddb9 a841 885a f8c0
000001e0: 13e1 ad41 95d7 ad41 b66e ad41 c1cf ad41
000001f0: 5bcf ad41 b4c1 ffc0 3832 ae41 5dfa ad41
00000200: 3d94 9f3a 4a16 d43a 1289 02bc 087e c63d
00000210: ed1a acb9 1040 8d3a 2ae0 cdbc 0e72 d8ba
00000220: ed5e 7fba 4809 28bb e3e1 863b 6716 3b3d
00000230: 5c81 3eba d4cf 8dbb 3e17 dc3b fb97 5b3b
00000240: f620 793b 653c c8bb af6d e73a 9395 883c
00000250: 026b 7c3a 9d97 25bc 489b bc3b 3167 d9bb
00000260: e807 83bb 95e8 253b 8706 013e c1f9 69ba
00000270: e9da 043f 9f35 0dbb a706 97bc 95ed 10bb
00000280: 6226 ccb9 7a52 e1bc 9764 533a 332d ea3c
00000290: eb3f ce3b 2313 c4ba 31b3 d63c e5b8 b1bc
000002a0: a190 3dbb 41bb 593d 38ea 87bd d037 083b
000002b0: 25dd be3c e3f7 edbb 1659 5cbb c646 2eba
000002c0: d12e d23a 63a4 2f3c 131b 74bc 190e b43a
000002d0: dff0 103e f06d 733c 1151 c3ba 5877 343b
000002e0: 0c1d 27bd 34ac fc3a d21b a6be 428d 10bc
000002f0: a961 a0bd 78cd 1cbe 7ec7 d43b cefc 6bbb
00000300: 98a6 d53b ddc3 893b 4ad7 a3ba 5a8b 8abb
00000310: 136a 023c 3c1c 2f3b 9209 bf3b c77c 14bc
00000320: b262 98bc e926 4bba 84bb 4ebc 2dc7 9a3b
00000330: f248 7b3b 8156 10bb adc8 28bc 7217 bbba
00000340: add9 003c 6602 8cbc 9b7d 133a 576f 1a3b
00000350: 14d4 b83b 249d f83a e4e0 d8bb 14b1 3dbc
00000360: c890 143c e9a1 6a3b 8030 f4bb 6db1 d4bb
00000370: 0951 bcba 9848 18bc 247a 83bb 6401 5a3c
00000380: 644a 013c 85d4 963a b7de 69bb f62a 10bc
00000390: a162 0a3c 6a95 a3bc 45e2 ab3a be24 633b
000003a0: 8147 833c 6378 223c 8eaf 9b3b 1156 6ebb
000003b0: f3f7 543b fe13 e5bb 05cb bbbb d304 5ebc
000003c0: d046 1aba 871e 70bb 9199 983b 0095 e23c
000003d0: 071c a33c e433 ad3b 5d4f d43b ca01 8dbb
000003e0: 89f2 ab3c 8e3a bf3b 81cc 97bc 3fa4 f33a
000003f0: d5d2 c5bb 9ac5 f7bb 0f41 07bb 4bdc 063b
2.642319 -1.9583077 1.1439949 -1.9333606 3.8068693 2.036846 -0.81448555 2.6138878
1.3048427 2.3959038 1.4684131 0.064114735 1.7055484 3.2032297 -0.5467742 -1.0307018
1.1368786 1.3502691 2.07766 0.945004 2.3245065 2.038781 2.6302514 1.0333091
1.6820261 1.8295132 0.0025701607 2.6213434 -0.21684383 -0.7248764 -0.9692188 3.9448218
2.9199646 1.7833898 2.8096905 0.044172004 1.2513776 1.8696706 -0.928463 0.93187976
0.9749958 1.7920082 0.079826295 1.4537024 -0.6879131 -0.9641855 1.9597698 1.872471
3.5939536 1.275379 -0.9706237 1.142771 0.061391976 1.4926782 1.567964 -1.864177
1.6453135 1.0589746 0.24476999 0.081721306 0.08672026 0.021809464 2.8912039 1.7701793
21.052076 21.623428 20.854572 21.75712 -7.8028336 21.633095 21.779886 21.584372
-7.958641 21.63614 21.674093 21.787504 21.89276 21.695711 -7.824815 21.840446
21.240091 21.630545 -7.9106326 21.607553 21.613895 -8.481475 21.516764 -8.042433
-7.778006 21.71375 21.709352 21.681507 21.703266 21.540728 21.756428 21.706322
21.057392 21.54826 21.767662 21.689768 21.703302 -7.915688 8.876241 21.608667
21.608582 21.696657 21.422527 21.725613 21.440542 21.66567 21.660467 21.014683
9.4178705 21.509275 -7.7899528 -7.885654 -7.9992213 21.613213 21.090754 -7.761051
21.7349 21.730265 21.679058 21.726442 21.726248 -7.9923954 21.77452 21.747248
0.0012174916 0.0016180959 -0.00796725 0.09692007 -0.00032826458 0.0010776538 -0.025131304 -0.0016513483
-0.0009741623 -0.0025640298 0.0041162833 0.04567566 -0.0007267201 -0.0043277536 0.006716638 0.0033507335
0.003801403 -0.006110715 0.001765659 0.016672885 0.00096289825 -0.010106948 0.0057558157 -0.006634616
-0.003998745 0.0025315632 0.12600146 -0.0008925461 0.5189653 -0.0021546853 -0.01843579 -0.0022114266
-0.0003893851 -0.027505148 0.0008064 0.028586006 0.0062942407 -0.0014959316 0.026208492 -0.02169461
-0.0028925317 0.053157095 -0.066364706 0.002078522 0.02329881 -0.0072622164 -0.0033622435 -0.00066481193
0.0016035681 0.010720345 -0.014899033 0.0013737112 0.14154385 0.014857754 -0.0014901479 0.0027536955
-0.040799186 0.0019277395 -0.324431 -0.008822741 -0.07831127 -0.15312755 0.006493508 -0.0036008838
0.0065201037 0.004204257 -0.0012500074 -0.004228038 0.00795986 0.002671971 0.0058299983 -0.009062952
-0.01860175 -0.00077496335 -0.012617949 0.0047234506 0.003834304 -0.0022024217 -0.010301751 -0.0014273955
0.007864398 -0.017090987 0.00056263217 0.00235649 0.005640516 0.001896773 -0.006618606 -0.011577863
0.009067722 0.0035802072 -0.0074520707 -0.0064908774 -0.0014367412 -0.009294651 -0.004012363 0.013305996
0.007891271 0.0011507428 -0.0035685727 -0.008799305 0.0084463665 -0.019968707 0.0013113698 0.0034659351
0.016025307 0.009916398 0.0047511524 -0.0036367218 0.0032496422 -0.0069909086 -0.005730989 -0.013550955
-0.00058851857 -0.003663929 0.0046569784 0.02765894 0.019910825 0.005285727 0.0064791874 -0.004303192
0.020989673 0.0058358377 -0.018530132 0.0018588378 -0.006037096 -0.0075613977 -0.0020638143 0.0020578082

reg.bias f4 [2]
00000000: 7a89 803d 210f d43e
0.062762216 0.41417792
