server/model2/value_model_minmax2_noexplore40.pt (torch, 255505 bytes, 12 tensors)

conv.0.weight f4 [4, 1, 3, 3]
1.6823586 1.9503087 3.203679 2.5388627 1.2213478 0.79539937 2.1721907 -0.159775
1.5318053 0.5818494 0.5789772 2.5324748 1.9083097 3.301433 0.16700064 2.68903
0.13373984 1.6041484 -0.23044017 1.1134096 1.1133485 1.3194137 3.1860552 4.0929637
1.8842465 1.4318157 2.0351799 2.876833 1.4002818 2.789096 2.51079 2.2617745
1.620956 -0.64825624 2.1580284 -0.25428814
00000000: 8757 d73f b7a3 f93f 1409 4d40 ba7c 2240
00000010: 2055 9c3f 4b9f 4b3f 2c05 0b40 0f9c 23be
00000020: 3212 c43f 15f4 143f da37 143f 1114 2240
00000030: 7e43 f43f ae4a 5340 3702 2b3e 1119 2c40
00000040: 19f3 083e bc54 cd3f 82f8 6bbe 3584 8e3f
00000050: 3482 8e3f 8ce2 a83f 54e8 4b40 8ff9 8240
00000060: fd2e f13f bd45 b73f 6340 0240 081e 3840
00000070: 6f3c b33f 8d80 3240 c9b0 2040 eac0 1040
00000080: 7c7b cf3f 1ff4 25bf 231d 0a40 0e32 82be

conv.0.bias f4 [4]
1.6655825 1.060501 1.3620108 1.6372353
00000000: cf31 d53f 7fbe 873f 5f56 ae3f ed90 d13f

conv.2.weight f4 [4, 4, 3, 3]
1.5946927 2.6216419 1.8591022 2.3514628 1.8175625 1.8412974 1.3034308 2.085609
1.1620303 2.0983245 1.9257361 2.3253562 2.816034 0.8408916 1.8954941 0.924817
1.9512467 0.42005593 1.2225676 3.0284104 1.785842 2.3664458 1.863445 1.3766757
1.9232757 1.1003871 1.5938635 2.234903 2.253751 2.0281055 2.1290374 1.9007983
2.0231242 1.6050688 1.7349828 1.0248713 0.6341259 -0.8481774 -4.585601 1.4971893
1.3194132 -1.0791708 1.9499468 0.9589784 -1.0756701 -0.61774933 1.3045377 -3.6313124
0.9583862 1.666091 -1.3843219 -0.5500291 -0.054288585 -0.9329442 0.9297624 1.0344783
-0.42927352 1.5723467 0.3609642 -4.4686723 1.0302935 -0.20463628 1.4071013 1.0146391
-0.28406072 -1.8049022 1.5626924 2.1886973 -3.9632292 2.5477133 1.6472973 -2.435309
2.4666655 2.5256264 1.1291847 1.9338694 1.7290686 1.0130078 1.1445419 0.90575933
1.7114422 2.9998648 2.5439022 0.8818604 1.9422095 1.7243744 0.35874006 0.31419027
0.5762374 1.4128913 2.263307 2.764895 -0.5738605 1.3352841 1.651756 1.1772535
0.49087045 0.33046353 0.7966227 2.7341568 2.6137211 0.9628925 1.9707943 2.183108
2.5982342 0.83920807 0.618559 1.0406259 1.3611658 2.772128 0.8747974 2.1773827
2.011661 1.2514164 1.6571214 1.9038152 1.1673839 1.2242811 2.6933277 1.8654966
2.051947 2.5231206 0.7429835 1.4907769 1.5541935 1.1569308 1.4859319 3.3161333
-0.19405526 2.7455108 2.251484 0.900429 1.3517556 1.3447487 0.8405958 1.7356197
1.933254 1.3230919 2.3898234 2.3145738 2.0516398 1.1734725 1.5004029 1.1829525
00000000: e41e cc3f fbc8 2740 10f7 ed3f 5e7e 1640
00000010: e3a5 e83f a2af eb3f d2d6 a63f 9e7a 0540
00000020: 69bd 943f f34a 0640 857e f63f a3d2 1440
00000030: e739 3440 ac44 573f 8d9f f23f cfc0 6c3f
00000040: 74c2 f93f 9211 d73e 187d 9c3f 7ad1 4140
00000050: 7896 e43f d973 1740 5e85 ee3f e936 b03f
00000060: e62d f63f 7cd9 8c3f b803 cc3f a708 0f40
00000070: 753d 1040 7bcc 0140 2642 0840 5c4d f33f
00000080: de7a 0140 e572 cd3f eb13 de3f fc2e 833f
00000090: 1356 223f 2722 59bf 3ebd 92c0 e6a3 bf3f
000000a0: 88e2 a83f 4522 8abf db97 f93f 9c7f 753f
000000b0: 8faf 89bf d224 1ebf 17fb a63f 6c67 68c0
000000c0: cc58 753f 7842 d53f 7631 b1bf b5ce 0cbf
000000d0: b55d 5ebd 6ed5 6ebf e904 6e3f c969 843f
000000e0: bdc9 dbbe a842 c93f 4dd0 b83e 5dff 8ec0
000000f0: a8e0 833f 2c8c 51be e51b b43f b2df 813f
00000100: 6870 91be 0907 e7bf 4e06 c83f 9e13 0c40
00000110: 8ca5 7dc0 bc0d 2340 a3da d23f 1adc 1bc0
00000120: d9dd 1d40 dda3 2140 2089 903f 0889 f73f
00000130: 1f52 dd3f 3daa 813f 5980 923f d8df 673f
00000140: 8a10 db3f c9fd 3f40 4bcf 2240 9ac1 613f
00000150: 529a f83f 4db8 dc3f c7ac b73e 8cdd a03e
00000160: 4b84 133f 9fd9 b43f 06da 1040 0af4 3040
00000170: 86e8 12bf 97ea aa3f be6c d33f 3eb0 963f
00000180: 5f53 fb3e 8432 a93e 77ef 4b3f 6dfc 2e40
00000190: 3547 2740 1f80 763f fd42 fc3f 0bb8 0b40
000001a0: 7849 2640 57d6 563f e259 1e3f 3b33 853f
000001b0: ae3a ae3f 8c6a 3140 b9f2 5f3f 3d5a 0b40
000001c0: 0ebf 0040 6a2e a03f 8e1c d43f 37b0 f33f
000001d0: d66c 953f 3eb5 9c3f 7b5f 2c40 98c8 ee3f
000001e0: 1a53 0340 cf7a 2140 2b34 3e3f c7d1 be3f
000001f0: d0ef c63f 4f16 943f 0433 be3f 873b 5440
00000200: 6cb6 46be 73b6 2f40 5018 1040 8482 663f
00000210: 5406 ad3f ba20 ac3f 4931 573f c928 de3f
00000220: de74 f73f 135b a93f def2 1840 fa21 1440
00000230: 114e 0340 5934 963f 340d c03f fd6a 973f

conv.2.bias f4 [4]
1.6848054 1.0055166 1.3756309 1.2765802
00000000: b4a7 d73f c5b4 803f ac14 b03f fb66 a33f

conv.5.weight f4 [64, 36]
-0.24028735 -0.028355563 0.6148017 -0.718023 0.1700528 0.6352691 -0.23969938 -0.27418885
0.55924517 3.0489194 0.8024653 1.160932 1.4484504 -1.2332973 0.8431983 -1.8485959
-2.65293 0.23479044 -0.45255235 -0.16340166 0.47620606 -0.13549191 -0.29814732 0.98142564
-0.4009007 -0.12469753 0.7053446 -0.4443989 -0.0950645 0.62445295 -0.36093998 -0.018579202
1.0005376 -0.60422 -0.10029503 0.68681747 0.05596672 -0.32567805 -0.5265826 0.15524502
0.13631493 0.5711912 -0.15369466 -0.05141526 0.7477043 0.9965402 -4.0830216 -0.53190476
-0.13445121 0.45669678 0.06542657 0.46709827 0.65219045 -0.3068175 -0.1311588 -0.2008885
-0.19874872 0.010779687 0.20120925 0.34139562 0.031728152 0.12182141 0.092521206 -0.16762815
-0.10934362 -0.44116643 0.25932798 -0.070814006 -0.3430479 -0.16856986 0.17675667 -0.024089664
0.8347915 1.3136672 1.861965 1.2295738 1.3394749 1.2208023 1.2171458 1.5534992
1.2623101 0.38268593 3.168113 1.4983466 -0.7105469 2.6860454 1.5729686 -1.2052057
0.7093304 0.94729877 0.31886956 0.9088971 0.22502692 2.1618714 1.3481494 1.8857428
2.3088238 1.6136904 1.0908116 2.3788679 1.2224694 1.5503348 1.9318507 0.5392534
0.66582686 1.1959049 0.8760241 0.8580923 0.263175 0.09654513 -0.5800931 0.1074879
-0.020550858 0.031598873 -0.037667986 -0.09895934 0.1387596 -0.15035178 0.20754378 0.43805146
-0.042900383 0.08028248 -2.5963168 0.18032914 0.017865473 0.52055305 0.05294143 -0.21559523
0.22539435 -0.23719518 -0.10647735 -1.8000236 -0.17110951 0.08567184 2.1223993 -0.16084558
-0.036939062 -0.13890082 0.11084353 -0.038506646 0.00257248 -0.077375524 0.0469311 0.17537932
0.77104825 0.27184552 -0.556535 0.7670251 0.20515966 -0.69391847 -0.016789647 0.18450609
-1.3544284 -2.850759 2.6214519 -0.6894043 -0.83858865 3.9947264 -1.7924601 0.33575258
2.6513054 -1.7233074 0.2565631 -0.18328825 -0.18479936 0.7146284 0.4630479 -1.4916716
1.2831616 1.4987229 -2.304025 0.8395247 0.2682163 -0.009631403 1.1669147 0.062745854
-2.3264773 0.96262795 0.40157622 -2.8230577 1.2913758 0.93036914 1.0803078 0.65461785
1.4687002 0.79334337 0.5266765 0.9154816 1.4592687 0.9373731 3.2920284 -0.3337526
-0.85672665 2.3684833 0.3384261 -2.8132236 -0.5164463 0.48557106 0.47635463 0.8234871
1.3294336 1.5028375 0.7700292 1.2599318 1.3205745 1.0499423 1.232036 0.6182009
0.72803354 1.3991258 1.1527544 0.85331804 0.5428176 0.6909739 1.1706218 1.1595149
-0.23798618 0.12536564 -0.151825 -0.03466648 0.14377488 0.19458146 0.12561008 -0.14013396
0.13790305 0.15042555 -2.9516087 -0.037168045 0.22960904 -2.3341324 0.7918639 1.8252478
0.4173699 0.17867233 0.5354001 0.46038115 0.061422385 -0.12499207 0.09651764 0.3096334
-0.22292787 -0.334098 -0.59681946 0.24473387 0.14984751 -0.23001009 -0.1266056 0.12521009
0.22373416 0.029285856 -0.04588574 0.1872546 0.4605435 0.18215254 -0.47115567 0.5404245
00000000: e30d 76be ed49 e8bc a563 1d3f 5bd0 37bf
00000010: 5222 2e3e ffa0 223f c173 75be 7b62 8cbe
00000020: b12a 0f3f 7f21 4340 5e6e 4d3f 6b99 943f
00000030: d366 b93f b0dc 9dbf d8db 573f ca9e ecbf
00000040: 9bc9 29c0 e86c 703e f1b4 e7be c452 27be
00000050: 48d1 f33e 64be 0abe c4a6 98be b63e 7b3f
00000060: db42 cdbe 6b61 ffbd 7791 343f 4188 e3be
00000070: 2db1 c2bd 26dc 1f3f 20cd b8be 6933 98bc
00000080: 9e11 803f 29ae 1abf 7b67 cdbd 45d3 2f3f
00000090: 5c3d 653d 46bf a6be 1ece 06bf 8df8 1e3e
000000a0: 2496 0b3e 9639 123f 2262 1dbe cf98 52bd
000000b0: 8d69 3f3f 421d 7f3f 1da8 82c0 e92a 08bf
000000c0: 94ad 09be 29d4 e93e 5efe 853d 8127 ef3e
000000d0: f4f5 263f 2f17 9dbe 7e4e 06be b7b5 4dbe
000000e0: c984 4bbe 499d 303c cc09 4e3e 68cb ae3e
000000f0: 61f5 013d 817d f93d c27b bd3d b7a6 2bbe
00000100: 8cef dfbd 91e0 e1be a3c6 843e ef06 91bd
00000110: f9a3 afbe 949d 2cbe b3ff 343e b057 c5bc
00000120: e5b4 553f 3f26 a83f de54 ee3f ad62 9d3f
00000130: ea73 ab3f 4043 9c3f 6fcb 9b3f 10d9 c63f
00000140: 6193 a13f 69ef c33e 5dc2 4a40 d2c9 bf3f
00000150: 67e6 35bf 2be8 2b40 0957 c93f 2e44 9abf
00000160: ad96 353f 2c82 723f df42 a33e 7bad 683f
00000170: 756d 663e 1a5c 0a40 2990 ac3f 0560 f13f
00000180: c5c3 1340 688d ce3f b79f 8b3f 5f3f 1840
00000190: e179 9c3f 5f71 c63f e246 f73f 830c 0a3f
000001a0: a173 2a3f 6913 993f 1e43 603f f0ab 5b3f
000001b0: e0be 863e 74b9 c53d fb80 14bf 9e22 dc3d
000001c0: 465a a8bc d26d 013d bf49 1abd 32ab cabd
000001d0: ff16 0e3e d1f5 19be 5b86 543e 4848 e03e
000001e0: 50b8 2fbd 246b a43d 0e2a 26c0 34a8 383e
000001f0: 9d5a 923c f742 053f 1dd9 583d ffc4 5cbe
00000200: c7cd 663e 4be3 72be cc10 dabd 2c67 e6bf
00000210: 5537 2fbe b874 af3d 64d5 0740 b4b4 24be
00000220: 6a4d 17bd 043c 0ebe ef01 e33d 25b9 1dbd
00000230: 0d97 283b 0f77 9ebd d33a 403d a396 333e
00000240: 6b63 453f 562f 8b3e 1479 0ebf c25b 443f
00000250: 6015 523e a4a4 31bf 718a 89bc 2aef 3c3e
00000260: e95d adbf d672 36c0 dec5 2740 cd7c 30bf
00000270: bfad 56bf 99a9 7f40 556f e5bf c3e7 ab3e
00000280: fdae 2940 5695 dcbf 3d5c 833e eaaf 3bbe
00000290: 0b3c 3dbe e3f1 363f 9d14 ed3e 18ef bebf
000002a0: a43e a43f 27d6 bf3f 2575 13c0 17eb 563f
000002b0: a653 893e 08cd 1dbc 765d 953f e680 803d
000002c0: 01e5 14c0 c96e 763f 669b cd3e faac 34c0
000002d0: cd4b a53f ac2c 6e3f 8747 8a3f 0995 273f
000002e0: 5efe bb3f 8d18 4b3f 45d4 063f 015d 6a3f
000002f0: 51c9 ba3f aff7 6f3f 98b0 5240 9fe1 aabe
00000300: 7052 5bbf 3b95 1740 3046 ad3e db0b 34c0
00000310: d335 04bf c59c f83e c1e4 f33e 0dd0 523f
00000320: e12a aa3f fb5c c03f a220 453f 7245 a13f
00000330: 9608 a93f 8264 863f 5bb3 9d3f 6a42 1e3f
00000340: 6860 3a3f 8e16 b33f 758d 933f 0d73 5a3f
00000350: 18f6 0a3f aae3 303f efd6 953f fc6a 943f
00000360: a6b2 73be da5f 003e 0378 1bbe 70fe 0dbd
00000370: b939 133e 5d40 473e ee9f 003e 477f 0fbe
00000380: 7536 0d3e 2809 1a3e 28e7 3cc0 853d 18bd
00000390: a21e 6b3e 6d62 15c0 98b7 4a3f b8a1 e93f
000003a0: 82b1 d53e e1f5 363e fb0f 093f 14b7 eb3e
000003b0: 0a96 7b3d d8fb ffbd 0aab c53d 4588 9e3e
000003c0: 3447 64be e50e abbe 29c9 18bf 849b 7a3e
000003d0: a071 193e c487 6bbe e6a4 01be 1337 003e
000003e0: 911a 653e e4e8 ef3c b0f2 3bbd abbf 3f3e
000003f0: 5ccc eb3e 3286 3a3e 513b f1be 4359 0a3f

conv.5.bias f4 [64]
0.26244116 -0.282084 0.6501764 -0.22097911 -0.03999162 0.7763966 0.18873987 0.07904097
0.84907407 0.68844134 0.76161295 -3.3264544 -0.6286995 0.17814663 -0.18453102 -0.6410382
1.2937367 0.5220314 -0.29101288 1.2713574 -2.9278274 0.8679918 -0.11433515 0.9377018
0.57372886 0.39138034 -0.6259987 -2.732149 -0.38889033 -0.43906686 0.6432806 -0.27890515
-0.14523214 -0.105262116 0.111062266 -0.20785587 -0.51375085 -2.1191666 0.27924666 1.2444255
1.1621953 -0.116513915 -0.15059887 0.8451184 -0.0438183 -0.6328556 0.6269579 1.1144474
-0.26174647 0.67895997 -0.3021654 0.9710352 -0.5982253 -0.4013648 -0.12723047 -0.4640382
-0.21320474 1.2147685 -0.83225864 -0.35025257 -0.7600572 -0.61855644 0.6791769 -0.07775617
00000000: b05e 863e 506d 90be f671 263f 5948 62be
00000010: 41ce 23bd edc1 463f 0645 413e 3be0 a13d
00000020: eb5c 593f b13d 303f 11f9 423f a1e4 54c0
00000030: 73f2 20bf 126c 363e b3f5 3cbe 141b 24bf
00000040: 2a99 a53f daa3 053f a4ff 94be d7bb a23f
00000050: 8661 3bc0 b634 5e3f 8c28 eabd 3a0d 703f
00000060: e5df 123f 0163 c83e 7341 20bf 87db 2ec0
00000070: a21c c7be 5fcd e0be 0aae 243f a8cc 8ebe
00000080: bcb7 14be aa93 d7bd 9d74 e33d 2bd8 54be
00000090: 2d85 03bf 6da0 07c0 6bf9 8e3e 5649 9f3f
000000a0: d1c2 943f d99e eebd 9736 1abe ae59 583f
000000b0: d17a 33bd d302 22bf 5080 203f 36a6 8e3f
000000c0: a203 86be 52d0 2d3f 6cb5 9abe c395 783f
000000d0: 4b25 19bf b07f cdbe b448 02be 6a96 edbe
000000e0: 5852 5abe 897d 9b3f e70e 55bf 4e54 b3be
000000f0: 1c93 42bf b759 1ebf 8ade 2d3f a03e 9fbd

linear.1.weight f4 [256, 169]
0.0058983564 0.03927634 0.05919365 0.054136388 -0.025531128 -0.022116046 0.031506017 0.038530543
0.0523298 1.3856767 0.015166454 -0.011316881 0.032183588 0.04855319 -0.002104357 -0.014606945
0.0063044503 -0.044173554 -0.075353146 -0.020839334 0.07390759 -1.4596273 -0.13205588 0.0125961155
-0.063693196 -0.065787256 -0.01698824 0.038327307 0.025421262 -0.0027178675 0.029781707 -0.00065297633
-0.044473805 0.7530403 -0.5187274 -1.0521754 0.019612975 0.020964175 -0.042589024 0.062179737
0.04365121 -0.0557345 -0.7001463 -0.8658627 0.15349434 0.36609903 -0.47309208 -0.80857503
0.11361612 -0.10005569 -0.40447304 -0.10731208 0.040363543 0.050073214 -0.00809928 2.171068
0.18168731 1.9070636 0.12817113 -0.19323882 -0.26366824 -0.57638353 0.25105968 -0.5209677
-0.0517214 -0.02578098 -0.04729327 -0.03856768 -4.129864 -0.9954198 2.6933074 1.28618
1.5235966 2.1160245 0.6818015 -0.08585002 -0.052764453 0.031680584 0.028979488 -0.035843253
0.028441548 -0.037813954 -0.741587 0.21466604 -1.0414644 -0.3310776 -1.4262758 0.25321367
0.039388917 0.050748043 -0.033357933 -0.035545845 -0.07502456 0.39515358 -0.63859767 0.006288832
1.9198298 0.6917199 0.031077243 -1.419144 -1.2313269 0.054057173 -0.059245348 -0.017436177
-0.011687763 0.23560898 0.3992663 2.008286 -0.30565798 0.7814774 1.3725315 1.1582572
0.66666484 -0.49201575 0.026477426 0.046686873 -0.027133055 1.4365466 -1.5015118 0.11503924
-1.8624107 -0.21107015 -0.6512669 -0.44646513 -1.1225401 0.090215065 0.046307556 0.057452045
-0.03178647 0.06811691 0.050002508 -0.02715848 0.06355839 0.31952044 1.907122 1.129548
-0.037147798 0.05011124 0.010573648 -0.011265397 -0.031354647 0.060661323 0.069087915 -0.042322554
0.038329273 0.04598538 -0.037846413 4.357502 0.028071843 0.0042439997 0.010441452 -0.009715192
0.029839195 0.060886286 0.049214564 0.03212122 -0.060935453 0.017652497 -0.04599788 0.010452636
0.031554922 -0.0071871653 -0.071292154 0.05728098 -0.049168203 0.021991685 0.049634017 0.018248983
0.03853458 0.058048002 -0.06958019 -0.06756942 0.011232428 0.028531149 -0.069348074 0.0133373365
-0.036762696 -0.067893185 1.0295012 0.045926005 -0.002309762 -0.051789306 -0.02223102 -0.009927824
-0.0195866 0.039755575 -0.017362688 -0.05354937 -0.046342753 0.06266924 1.105 1.547441
-0.033220623 0.018912159 -0.061385058 -0.059954736 0.05741165 0.00097159296 -0.02349826 0.026738763
-0.038946252 -0.007274933 -2.1043975 1.4759293 -0.69708574 0.017962538 0.026630998 0.0031629503
0.0043074638 0.034999967 -0.017160848 0.2930287 0.0073685735 -0.92591876 0.121028 -0.2696382
0.7426497 0.23630069 0.94738597 -1.0978872 0.87905675 -0.04443521 -0.027306192 -0.060780335
-0.4228246 -0.28434938 -0.19928189 -2.0680175 0.950606 -0.81719416 1.3912916 0.11348526
-1.6719756 -0.041544072 0.053795658 -0.029634733 -0.048421595 -0.84036237 -0.13376425 -0.9466493
0.69578713 0.65404594 1.1232283 -0.5977762 1.9395171 -0.04093669 0.06748887 -0.021678265
0.03954243 0.04877039 1.0359523 1.2510839 -0.7327366 1.0420707 0.19499479 2.4051862
00000000: 0047 c13b 3ae0 203d 0a75 723d 1ebe 5d3d
00000010: a826 d1bc b62c b5bc 740c 013d 34d2 1d3d
00000020: c657 563d db5d b13f b87c 783c 706a 39bc
00000030: f0d2 033d b6df 463d 40e9 09bb f851 6fbc
00000040: 9095 ce3b 54ef 34bd c052 9abd 40b7 aabc
00000050: dd5c 973d 11d5 babf a839 07be f05f 4e3c
00000060: 9471 82bd 78bb 86bd ec2a 8bbc 18fd 1c3d
00000070: 4040 d03c 401e 32bb c4f8 f33c 802c 2bba
00000080: 2a2a 36bd 40c7 403f 52cb 04bf afad 86bf
00000090: 64ab a03c 10bd ab3c d471 2ebd 2eb0 7e3d
000000a0: 9ccb 323d dc49 64bd ca3c 33bf 2ea9 5dbf
000000b0: 9f2d 1d3e 5571 bb3e 2039 f2be c6fe 4ebf
000000c0: 91af e83d ffe9 ccbd 1717 cfbe 70c6 dbbd
000000d0: 3e54 253d 9219 4d3d d8b2 04bc c7f2 0a40
000000e0: 3d0c 3a3e a91a f43f 4b3f 033e 66e0 45be
000000f0: 86ff 86be df8d 13bf e58a 803e 245e 05bf
00000100: d2d9 53bd a232 d3bc 96b6 41bd 25f9 1dbd
00000110: d927 84c0 d5d3 7ebf 265f 2c40 8ca1 a43f
00000120: 3705 c33f f26c 0740 8b8a 2e3f 23d2 afbd
00000130: 8a1f 58bd 80c3 013d 6466 ed3c 60d0 12bd
00000140: 40fe e83c cee2 1abd a5d8 3dbf 6ad1 5b3e
00000150: b54e 85bf 0183 a9be 3590 b6bf 39a5 813e
00000160: 4656 213d 2edd 4f3d 54a2 08bd 8598 11bd
00000170: 7aa6 99bd 9251 ca3e 237b 23bf 8c12 ce3b
00000180: fcbc f53f 8e14 313f b495 fe3c 83a6 b5bf
00000190: 1f9c 9dbf 0e6b 5d3d 40ab 72bd 50d6 8ebc
000001a0: 087e 3fbc 7b43 713e a26c cc3e c287 0040
000001b0: 347f 9cbe e70e 483f 1daf af3f c641 943f
000001c0: 8caa 2a3f 7de9 fbbe 30e7 d83c bc3a 3f3d
000001d0: 2446 debc c2e0 b73f 8a31 c0bf b199 eb3d
000001e0: 7963 eebf c622 58be 6db9 26bf 1497 e4be
000001f0: 65af 8fbf adc2 b83d feac 3d3d d652 6b3d
00000200: 8832 02bd e180 8b3d 6ecf 4c3d 767b debc
00000210: e72a 823d 2f98 a33e 931c f43f 0795 903f
00000220: 4a28 18bd 7241 4d3d 183d 2d3c 8092 38bc
00000230: bb6d 00bd 0278 783d f77d 8d3d 6a5a 2dbd
00000240: 28ff 1c3d 2a5b 3c3d d704 1bbd a870 8b40
00000250: ecf6 e53c 4011 8b3b a012 2b3c 782c 1fbc
00000260: 5471 f43c e663 793d 3695 493d 8a91 033d
00000270: 7497 79bd f89b 903c 4668 3cbd 8841 2b3c
00000280: bc3f 013d 5082 ebbb 9f01 92bd 769f 6a3d
00000290: 9964 49bd e827 b43c 0a4d 4b3d e47e 953c
000002a0: 70d6 1d3d bec3 6d3d 0f80 8ebd d661 8abd
000002b0: 3808 383c 28ba e93c 5d06 8ebd d884 5a3c
000002c0: 7b94 16bd 950b 8bbd b2c6 833f e81c 3c3d
000002d0: 605f 17bb 0621 54bd d41d b6bc 50a8 22bc
000002e0: 1474 a0bc bed6 223d 323c 8ebc 9656 5bbd
000002f0: e6d1 3dbd bb58 803d a470 8d3f 8c12 c63f
00000300: 5912 08bd aced 9a3c e66e 7bbd 1993 75bd
00000310: 7a28 6b3d 80b2 7e3a 6c7f c0bc 400b db3c
00000320: 1b86 1fbd 9062 eebb 73ae 06c0 40eb bc3f
00000330: 3674 32bf 2c26 933c 4029 da3c 8049 4f3b
00000340: a025 8d3b 205c 0f3d e894 8cbc dc07 963e
00000350: 1374 f13b 0309 6dbf 87dd f73d 050e 8abe
00000360: 4a1e 3e3f cff8 713e e387 723f 9187 8cbf
00000370: dd09 613f b201 36bd 3cb1 dfbc cdf4 78bd
00000380: 777c d8be 3e96 91be 8d10 4cbe 665a 04c0
00000390: ea5a 733f a333 51bf d815 b23f f66a e83d
000003a0: 4c03 d6bf 1e2a 2abd d658 5c3d 8ac4 f2bc
000003b0: b955 46bd fd21 57bf 7ff9 08be 9c57 72bf
000003c0: 1b1f 323f 8e6f 273f f2c5 8f3f dc07 19bf
000003d0: 1942 f83f 3bad 27bd 9b37 8a3d 9e96 b1bc
000003e0: 3ef7 213d 76c3 473d 169a 843f 8423 a03f
000003f0: a094 3bbf 9362 853f b7ac 473e 92ee 1940

linear.1.bias f4 [256]
0.08447826 0.44643342 0.4575179 0.09802052 0.17461608 -0.17014611 0.7324876 -0.21418709
-0.19488212 0.19217448 2.719567 0.022527298 0.3317883 0.3088733 1.1995105 0.1368117
0.12424936 0.4264187 0.0800268 -0.22945078 -0.24454193 0.21307875 0.14581703 0.37680653
-1.5471742 -0.063500956 0.19946481 0.6027289 -0.38392714 0.47853 0.40856883 0.6450067
-1.8144354 -0.039483797 0.7075869 -0.08180088 0.13351525 0.20767164 0.27303186 0.21228187
0.57055247 2.4617503 0.32362217 1.3710988 0.43770704 -0.24983875 0.55655116 -0.33915854
1.4523633 0.1951642 0.21645135 0.6112638 0.5267899 0.17861547 0.3160096 0.09410322
0.14747994 -0.014164044 0.19109562 0.46491548 -1.3814039 -2.4726617 0.6412937 1.4345933
0.5023052 0.14023207 -0.04558956 0.23070116 0.19398339 1.7471443 2.786301 -0.0716423
0.13961433 0.12785983 0.024325863 -0.018668236 0.30015883 0.011060637 0.04262016 -0.02322029
0.4057605 2.4002814 0.56086314 0.083301015 -0.00078381377 0.4760943 0.4572073 -0.076213725
0.017272947 -0.10635312 0.13431509 -0.05415348 0.55797684 0.3165043 0.8384719 0.15802222
0.39802667 0.36008963 0.16138354 0.33704793 0.46366033 -0.045701843 0.016131679 -0.06028979
-0.17912306 0.06359916 -0.09636704 -0.25960335 -1.4483658 0.16948044 -1.728014 -0.07317666
0.29341677 0.22684872 0.4185684 0.20228602 0.19384566 -0.31619856 0.27322066 0.04035057
1.275294 0.17017804 0.39131054 -0.13535464 -0.028493032 0.082849726 0.33695453 0.43945312
-0.44484672 0.10604708 0.078136414 0.44300544 2.2437298 0.17823721 -0.12893012 0.12584774
-0.025513751 0.03547572 0.34867594 0.45865896 0.13305175 0.18980671 0.047778487 0.23982675
-0.09572167 0.3128106 0.41537246 1.7942221 -0.16556509 0.21557292 0.083581656 0.08690059
-1.5130883 -1.5445932 0.13572566 0.71977127 0.31635442 -0.120569274 0.4108246 0.56977725
-0.028042298 0.20726286 -0.28591332 -0.38278997 0.21198958 0.33421123 0.17742391 0.41004246
0.049987197 0.28945166 0.36045992 0.058392085 0.7337401 0.6223806 0.13933739 0.06581925
1.650471 0.4047617 -0.20492701 -0.07486886 -2.5906928 2.18667 0.11598031 0.32612
0.0025176948 -0.1291276 0.5591932 0.56905997 -0.31753945 -0.019416248 0.0027749166 -0.39996606
-0.029347803 -0.0076436214 0.26113394 -3.0691624 3.4575913 -0.107433826 -0.24798048 0.049260084
0.07793213 0.26060417 0.2607858 0.09749747 -1.3817949 0.15287185 0.0010090338 0.8848399
0.13734181 0.055259317 -1.670719 0.07922448 0.18735619 1.558151 -2.567904 0.4664765
0.48424503 1.0450702 0.033673838 1.5301132 0.01548223 0.5361047 0.15120934 -0.0069738114
-0.02021024 -0.050056797 0.33573124 -0.3125033 1.3194615 0.26464263 3.1837432 0.3383544
-0.143516 0.5759544 0.037920993 0.23857403 -0.2833152 -0.19246623 -0.0792976 0.16391456
0.037376456 0.35568994 0.19017634 0.40863425 0.3007169 0.14850974 0.04843168 1.787311
-0.06786003 -0.1990232 1.3721302 -0.19916242 0.25977284 0.12773216 0.10828659 -0.034963008
00000000: f002 ad3d ec92 e43e c93f ea3e fbbe c83d
00000010: 8fce 323e c83a 2ebe 4f84 3b3f dc53 5bbe
00000020: 2e8f 47be 63c9 443e 630d 2e40 2b8b b83c
00000030: 28e0 a93e a424 9e3e 8f89 993f 5e18 0c3e
00000040: 7376 fe3d 8d53 da3e 17e5 a33d 25f5 6abe
00000050: 3369 7abe 5131 5a3e 0f51 153e c9ec c03e
00000060: ce09 c6bf ca0c 82bd 8140 4c3e 714c 1a3f
00000070: 1992 c4be e201 f53e ef2f d13e 291f 253f
00000080: 6b3f e8bf c3b9 21bd 6a24 353f 3887 a7bd
00000090: 39b8 083e e0a7 543e d5ca 8b3e 6b60 593e
000000a0: ba0f 123f 518d 1d40 ceb1 a53e 2a80 af3f
000000b0: 231b e03e bbd5 7fbe 237a 0e3f 30a6 adbe
000000c0: 0ae7 b93f 20d9 473e 6ca5 5d3e c97b 1c3f
000000d0: b4db 063f f9e6 363e 03cc a13e 30b9 c03d
000000e0: fb04 173e 4e10 68bc 92ae 433e 6709 ee3e
000000f0: d8d1 b0bf 1740 1ec0 d32b 243f c1a0 b73f
00000100: 1397 003f ff98 0f3e 1ebc 3abd ed3c 6c3e
00000110: 95a3 463e 6da2 df3f c152 3240 33b9 92bd
00000120: 0ff7 0e3e b0ed 023e 0847 c73c 21ee 98bc
00000130: 6bae 993e ad37 353c 7a92 2e3d 7a38 bebc
00000140: d7bf cf3e 369e 1940 ba94 0f3f b999 aa3d
00000150: da78 4dba a2c2 f33e 1317 ea3e f115 9cbd
00000160: ff7f 8d3c aacf d9bd e589 093e 0ad0 5dbd
00000170: 92d7 0e3f da0c a23e 18a6 563f 94d0 213e
00000180: 27ca cb3e ab5d b83e ba41 253e 8c91 ac3e
00000190: e364 ed3e db31 3bbd 9526 843c 6df2 76bd
000001a0: 096c 37be 4740 823d 155c c5bd bbea 84be
000001b0: 0d64 b9bf 488c 2d3e 902f ddbf a5dd 95bd
000001c0: b93a 963e 084b 683e 994e d63e 1124 4f3e
000001d0: 7a7f 463e c7e4 a1be 94e3 8b3e a446 253d
000001e0: d53c a33f 2743 2e3e db59 c83e 689a 0abe
000001f0: 386a e9bc 1ead a93d 4e85 ac3e 0000 e13e
00000200: f3c2 e3be 362f d93d fc05 a03d 9cd1 e23e
00000210: 4599 0f40 d183 363e 4206 04be 3bde 003e
00000220: 3702 d1bc fd4e 113d a785 b23e 59d5 ea3e
00000230: b83e 083e b15c 423e 60b3 433d 2595 753e
00000240: b909 c4bd b628 a03e b3ab d43e 12a9 e53f
00000250: e589 29be 26bf 5c3e dc2c ab3d f0f8 b13d
00000260: e1ac c1bf 3bb5 c5bf abfb 0a3e ee42 383f
00000270: 35f9 a13e 06ed f6bd 9a57 d23e ecdc 113f
00000280: f6b8 e5bc b73c 543e 3b63 92be 0cfd c3be
00000290: cc13 593e bc1d ab3e 9dae 353e 16f1 d13e
000002a0: 60bf 4c3d 0233 943e 348e b83e 8a2c 6f3d
000002b0: 64d6 3b3f 5654 1f3f 76ae 0e3e 3ecc 863d
000002c0: a242 d33f ed3c cf3e 63d8 51be d854 99bd
000002d0: e9cd 25c0 67f2 0b40 1687 ed3d 33f9 a63e
000002e0: e9ff 243b 073a 04be 4927 0f3f eaad 113f
000002f0: 8894 a2be d30e 9fbc 60db 353b 5ac8 ccbe
00000300: ce6a f0bc 5877 fabb 59b3 853e 286d 44c0
00000310: 2d49 5d40 4406 dcbd 98ee 7dbe f1c4 493d
00000320: e19a 9f3d e96d 853e b785 853e c1ac c73d
00000330: a8de b0bf 708a 1c3e 8e41 843a de84 623f
00000340: 55a3 0c3e 9857 623d 1fda d5bf 7240 a23d
00000350: 4dda 3f3e 7e71 c73f 8a58 24c0 02d6 ee3e
00000360: f7ee f73e dcc4 853f 94ed 093d c0da c33f
00000370: 2ea9 7d3c 283e 093f 9fd6 1a3e 9284 e4bb
00000380: f28f a5bc 5b08 4dbd f7e4 ab3e 6f00 a0be
00000390: 1de4 a83f 3d7f 873e 73c2 4b40 ca3c ad3e
000003a0: dcf5 12be bf71 133f 0b53 1b3d c04c 743e
000003b0: b10e 91be de15 45be c866 a2bd 38d9 273e
000003c0: 0e18 193d fe1c b63e 96bd 423e 8238 d13e
000003d0: 91f7 993e f012 183e 4c60 463d 9bc6 e43f
000003e0: 33fa 8abd bdcc 4bbe f6a1 af3f 3cf1 4bbe
000003f0: f200 853e 38cc 023e 5cc5 dd3d 5f35 0fbd

linear.3.weight f4 [64, 256]
-5.6836057 7.785484 10.306187 -5.895574 -3.0742307 -6.915868 5.4500165 -6.3420954
-6.44335 7.335973 0.9310106 -3.1184912 -9.042907 10.139349 1.5558816 11.161548
12.705642 9.529119 -9.892567 -5.6715484 -7.7167635 10.626452 10.178969 5.2797627
-1.2896519 -10.836742 -3.3589752 7.462787 -7.972665 5.865209 3.6605802 5.3212204
-0.94594306 -6.739698 7.2564306 -9.622832 -6.6920457 -1.9900286 7.305576 10.478129
5.22699 1.2901267 3.2338107 1.183634 9.118631 -10.36109 8.140168 -12.569878
1.1347841 6.4950104 -11.2235365 7.7053056 10.545514 -5.3516836 -6.974064 -8.889671
9.846854 -11.864022 9.98348 8.384174 -1.5146748 -1.0776473 6.1678114 1.1358706
9.034839 -3.621764 -6.9660635 5.8629394 -8.116043 1.0121053 1.1683602 8.738955
-8.53719 8.60857 -8.125927 -5.406784 12.740966 -8.195666 -3.7607572 -6.492949
3.5146153 0.3246756 8.503842 8.50383 -5.2985997 9.962261 14.117181 -7.300373
6.921528 -7.1785607 13.390585 -4.7367535 8.456588 11.012934 1.0456139 -9.403993
10.133397 -9.053155 -6.194847 2.0097504 -0.36007342 -7.926975 -11.563773 4.4532404
-12.71206 -7.905635 9.006297 -9.878996 -1.6227707 9.237541 -1.2459862 -8.377641
11.910481 5.6679463 8.179142 -8.417801 10.992979 -9.396935 -5.7699184 -5.6078706
1.530243 11.217428 5.3841906 -9.430452 -9.013397 1.9514247 7.29212 8.91345
13.851844 9.843121 4.56306 10.12411 1.3108696 -4.060357 -5.7863264 -5.7948775
-7.6878257 -5.3842974 10.352276 3.9691184 12.762126 8.494967 -5.33165 8.054439
-9.824192 6.878972 9.039312 1.2753317 -12.899707 -8.341931 -6.231409 -7.6797085
-1.3392062 -1.671192 -10.504158 4.4769454 8.13842 -8.641392 3.1732764 10.535151
-7.228217 -6.649687 -10.183576 -13.071222 -6.362472 9.205632 -4.7371316 9.737301
-5.0682 8.257709 6.658374 8.731123 8.387639 7.8168616 7.4848175 -12.134469
1.0019107 -7.415265 -9.621829 -6.764023 -0.6592037 0.5330494 -11.224592 7.849663
8.989011 13.404449 9.176412 6.6228995 -8.232919 -8.218609 9.163761 -6.7764506
-11.255063 11.697665 4.7170634 -0.8214892 0.9617131 -4.3295135 -9.912392 12.119327
-8.095072 8.779937 8.12444 -8.800909 -1.6573318 7.4904366 -11.673517 4.794857
-10.939576 -5.756533 -1.1051149 -9.485301 11.397384 0.9532835 -1.032466 8.81601
10.725189 1.0153979 11.966034 1.0777793 -5.795571 -9.405105 9.455451 -10.681813
-7.537595 -9.75161 11.250287 12.309742 1.1592011 -7.054575 0.3605229 14.125815
-8.534982 13.334345 -6.6552753 11.403406 -12.185981 -7.1982255 -4.762402 -4.6871667
-6.4201612 8.813315 -4.855019 9.168052 7.7835875 10.27652 -2.4835646 1.4557357
-8.687504 -10.903714 1.2746062 -3.6170304 -8.624995 -6.603459 -5.4964514 -6.728562
00000000: 19e0 b5c0 af22 f940 24e6 2441 8ba8 bcc0
00000010: 32c0 44c0 ca4e ddc0 8966 ae40 72f2 cac0
00000020: ec2f cec0 4ac0 ea40 b656 6e3f 5c95 47c0
00000030: bfaf 10c1 c63a 2241 2127 c73f b395 3241
00000040: 4f4a 4b41 4577 1841 f447 1ec1 537d b5c0
00000050: baef f6c0 f305 2a41 0fdd 2241 d1f3 a840
00000060: 5013 a5bf 4c63 2dc1 73f9 56c0 27cf ee40
00000070: 1220 ffc0 cbaf bb40 f246 6a40 7047 aa40
00000080: 5329 72bf 9bab d7c0 ae34 e840 1ff7 19c1
00000090: 3d25 d6c0 42b9 febf 47c7 e940 6ba6 2741
000000a0: 8143 a740 df22 a53f c1f6 4e40 5281 973f
000000b0: eae5 1141 06c7 25c1 213e 0241 381e 49c1
000000c0: 9b40 913f 20d7 cf40 9b93 33c1 dd91 f640
000000d0: 6dba 2841 fe40 abc0 882b dfc0 183c 0ec1
000000e0: b78c 1d41 09d3 3dc1 56bc 1f41 9425 0641
000000f0: dde0 c1bf 59f0 89bf b65e c540 3564 913f
00000100: b38e 1041 fbca 67c0 fee9 dec0 339d bb40
00000110: 50db 01c1 ab8c 813f d48c 953f c2d2 0b41
00000120: 5598 08c1 b4bc 0941 cc03 02c1 6004 adc0
00000130: ffda 4b41 7321 03c1 3fb0 70c0 3dc6 cfc0
00000140: 75ef 6040 e13b a63e bd0f 0841 b00f 0841
00000150: 218e a9c0 6c65 1f41 f9df 6141 a89c e9c0
00000160: 287d dd40 c5b6 e5c0 d63f 5641 7c93 97c0
00000170: 2f4e 0741 fa34 3041 add6 853f c176 16c1
00000180: 6522 2241 b9d9 10c1 303c c6c0 c09f 0040
00000190: 8b5b b8be c7a9 fdc0 3705 39c1 f280 8e40
000001a0: 9964 4bc1 f6fa fcc0 cb19 1041 5e10 1ec1
000001b0: f3b6 cfbf f8cc 1341 7a7c 9fbf d10a 06c1
000001c0: 5591 3e41 d15f b540 c4dd 0241 50af 06c1
000001d0: 3ee3 2f41 d959 16c1 2ca3 b8c0 ad73 b3c0
000001e0: 01df c33f 967a 3341 4a4b ac40 22e3 16c1
000001f0: e036 10c1 49c8 f93f 0c59 e940 7e9d 0e41
00000200: 27a1 5d41 6c7d 1d41 9604 9240 5bfc 2141
00000210: 93ca a73f 72ee 81c0 9629 b9c0 a36f b9c0
00000220: ab02 f6c0 2a4c acc0 eca2 2541 0906 7e40
00000230: ab31 4c41 63eb 0741 e09c aac0 fbde 0041
00000240: e42f 1dc1 8a20 dc40 06a1 1041 123e a33f
00000250: 3365 4ec1 8d78 05c1 b467 c7c0 2cc0 f5c0
00000260: 1c6b abbf 9fe9 d5bf 0811 28c1 2343 8f40
00000270: f836 0241 2443 0ac1 f616 4b40 fa8f 2841
00000280: 8e4d e7c0 3cca d4c0 edef 22c1 ba23 51c1
00000290: 5f99 cbc0 454a 1341 9596 97c0 fccb 1b41
000002a0: b22e a2c0 931f 0441 6611 d540 aeb2 0b41
000002b0: c533 0641 bb23 fa40 a083 ef40 c926 42c1
000002c0: 9c3e 803f da49 edc0 03f3 19c1 e072 d8c0
000002d0: 93c1 28bf ed75 083f ee97 33c1 7030 fb40
000002e0: fdd2 0f41 a078 5641 95d2 1241 cbee d340
000002f0: 09ba 03c1 6c7f 03c1 c49e 1241 afd8 d8c0
00000300: bd14 34c1 a329 3b41 2ff2 9640 1e4d 52bf
00000310: d432 763f 608b 8ac0 2899 1ec1 c3e8 4141
00000320: 6a85 01c1 9f7a 0c41 b5fd 0141 86d0 0cc1
00000330: 7323 d4bf a8b1 ef40 bac6 3ac1 786f 9940
00000340: 8108 2fc1 8535 b8c0 6874 8dbf cbc3 17c1
00000350: af5b 3641 630a 743f d927 84bf 610e 0d41
00000360: 609a 2b41 8ff8 813f e074 3f41 acf4 893f
00000370: 5175 b9c0 4f7b 16c1 8749 1741 b5e8 2ac1
00000380: fa33 f1c0 9806 1cc1 2d01 3441 b4f4 4441
00000390: b460 943f 14bf e1c0 7596 b83e 5703 6241
000003a0: 498f 08c1 7a59 5541 04f8 d4c0 5a74 3641
000003b0: c7f9 42c1 dd57 e6c0 9965 98c0 45fd 95c0
000003c0: f671 cdc0 5703 0d41 515c 9bc0 57b0 1241
000003d0: 2613 f940 a06c 2441 b9f2 1ec0 8c55 ba3f
000003e0: 0400 0bc1 9d75 2ec1 4c26 a33f 6d7d 67c0
000003f0: fbff 09c1 894f d3c0 eee2 afc0 6150 d7c0

linear.3.bias f4 [64]
0.6795941 0.5157538 0.88032454 0.5369418 0.54182875 0.5866055 0.3660573 0.49890944
0.34354314 0.46703237 0.4058717 0.32216707 0.3874101 0.37358433 0.42984936 0.41371197
0.51381946 0.5254354 0.41128212 0.35515007 0.7615485 0.93791986 0.63400066 0.6137942
0.5109277 0.20085636 0.24689256 0.22759677 0.2640007 0.48682022 0.45651317 0.44723395
0.7144581 0.2646876 0.16543776 0.6015501 0.3897678 0.48045653 1.3957865 0.47672546
0.5053662 0.27822682 0.98258233 0.49232805 0.69448483 0.49342152 0.3933278 0.6876927
1.6608846 0.8576551 0.50266355 0.4992716 0.59384394 0.48929995 0.5610516 0.41655347
0.32400104 0.54818356 0.37725258 0.27551347 0.21597853 0.53529334 0.34178546 0.37713942
00000000: e1f9 2d3f 7108 043f f35c 613f 0575 093f
00000010: 4ab5 0a3f c72b 163f dd6b bb3e 0f71 ff3e
00000020: e3e4 af3e de1e ef3e 6ace cf3e 15f3 a43e
00000030: 9e5a c63e 7246 bf3e 3715 dc3e 0ed2 d33e
00000040: ac89 033f ef82 063f 9293 d23e 3bd6 b53e
00000050: d8f4 423f 841b 703f de4d 223f 9e21 1d3f
00000060: 28cc 023f 4aad 4d3e 67d1 7c3e 210f 693e
00000070: 1a2b 873e 8040 f93e 18bc e93e d9fb e43e
00000080: bae6 363f 2285 873e 8468 293e 30ff 193f
00000090: a58f c73e 66fe f53e 22a9 b23f 5c15 f43e
000000a0: ae5f 013f bf73 8e3e 848a 7b3f 6c12 fc3e
000000b0: c2c9 313f bfa1 fc3e 4362 c93e a10c 303f
000000c0: de97 d43f 498f 5b3f 8fae 003f 87a0 ff3e
000000d0: 2806 183f 8685 fa3e 14a1 0f3f 7f46 d53e
000000e0: 77e3 a53e c255 0c3f 4027 c13e 1a10 8d3e
000000f0: 7a29 5d3e fc08 093f 81fe ae3e 6b18 c13e

reg.weight f4 [2, 128]
4.250418 -3.4360874 2.0618193 -1.9333606 6.9931026 2.9539273 -0.51709163 6.306691
2.2338457 3.4537628 2.4011447 0.064114735 1.7055484 4.146112 -0.28795975 -1.708117
2.0674202 2.3020782 3.7429388 1.8744841 3.9681916 2.9404054 4.7455664 1.9533588
2.6377537 2.722407 0.0025701607 5.2247195 -0.21684383 -0.29804915 -0.7126168 5.8313985
4.830766 1.7833898 4.173196 0.044172004 2.2009618 2.8514175 -0.6628982 1.8609864
1.9238963 1.749639 0.079826295 2.340281 -0.44792485 -1.2137271 2.8511236 3.0426438
4.893795 2.1981807 -1.5713083 2.0792325 0.061391976 1.4926782 4.2826953 -2.3606627
1.6453135 1.9933786 0.24476999 0.081721306 0.08672026 0.021809464 3.8214335 5.9088554
49.283283 50.069336 48.21023 50.26199 -23.843115 50.11977 50.350224 50.08845
-24.11066 50.1537 50.189747 50.290703 50.485 50.14018 -23.972456 50.374496
49.616188 50.19203 -24.052746 50.145813 50.143726 -24.913431 49.985912 -24.230038
-23.856083 50.301636 50.25283 50.239563 50.260532 50.004658 50.20931 50.201855
49.308537 50.028522 50.30584 50.179073 50.2712 -24.100584 35.274334 50.159702
50.137726 50.226334 49.89337 50.252567 49.91782 50.177353 50.1966 49.221855
34.994946 50.04624 -23.825804 -24.009485 -24.151634 50.13949 49.44355 -23.771973
50.321278 50.29509 50.178738 50.309486 50.273262 -24.224483 50.320015 50.31608
0.0033436345 -0.0020343636 -0.005947854 0.09692007 0.001001054 -0.0026262798 -0.0067022666 -0.00057085865
-0.0021407998 -0.00096205453 0.0058925934 0.04567566 -0.0042020776 -0.00081192236 -0.005041558 0.000498845
0.0040057306 -0.005797591 -0.00044515458 0.01671275 0.00071076804 -0.009274637 0.0036030354 -0.0046783485
-0.0020237851 -0.0012653171 0.12600146 0.0009370977 0.5189653 0.0006954977 -0.0023562158 -0.0009257046
-0.00306301 -0.027505148 -0.001685704 0.028586006 0.0037475468 0.005556883 0.00019111348 -0.021813584
0.00031712052 0.10433254 -0.066364706 0.0018667744 0.010888142 0.0036195607 -0.0041573523 0.00038522173
0.0022624119 0.01036819 -0.0031473974 0.0016776695 0.14154385 0.014857754 -0.0029011546 0.002807127
-0.040799186 0.0026611679 -0.324431 -0.008822741 -0.07831127 -0.15312755 0.0060339062 -0.0012321231
0.008480181 0.0041780556 -0.006664342 -0.001059796 0.0018334924 -0.0014436499 0.0045929067 -0.010402116
-0.013189089 -0.0018707662 -0.013129405 0.0068487925 0.0058600884 0.0048402944 -0.009276213 0.00029508123
0.0021762794 -0.01229785 0.0054111658 0.00039485443 -0.0014963086 0.004825542 -0.00650994 -0.007426515
0.006525735 0.0048334757 -0.0042464514 -0.009995122 -0.0018212758 -0.00877137 0.0073694275 0.010953724
0.011696743 -0.0017846753 -0.0032612097 -0.008282156 0.004963664 -0.017612288 0.0025922384 0.0068571405
0.015135379 0.010359674 0.0001599278 -0.009821954 -0.001195812 -0.005004127 -0.0034012196 -0.008362628
-0.002182319 -0.008210858 0.00645687 0.022856299 0.019386524 0.005945618 0.0077969525 -0.015281364
0.018307643 0.0046558855 -0.016729292 0.0006775873 -0.0031579204 -0.0081045125 -0.0019341173 0.0028779972
00000000: 6d03 8840 dbe8 5bc0 d9f4 0340 5c78 f7bf
00000010: 7fc7 df40 250d 3d40 1e60 04bf 6ad0 c940
00000020: 54f7 0e40 730a 5d40 5bac 1940 964e 833d
00000030: 694f da3f f3ac 8440 766f 93be 94a3 dabf
00000040: 9d50 0440 4055 1340 4f8c 6f40 18ef ef3f
00000050: daf6 7d40 9a2f 3c40 aedb 9740 a907 fa3f
00000060: f5d0 2840 eb3b 2e40 2470 283b e730 a740
00000070: 4f0c 5ebe e699 98be 0e6e 36bf d19a ba40
00000080: a395 9a40 1e46 e43f d28a 8540 b4ed 343d
00000090: 8fdc 0c40 a07d 3640 b2b3 29bf cd34 ee3f
000000a0: 3c42 f63f 2cf4 df3f f87b a33d 2ac7 1540
000000b0: 6856 e5be 695b 9bbf cf78 3640 adba 4240
000000c0: f899 9c40 feae 0c40 a120 c9bf 2512 0540
000000d0: 2776 7b3d 1410 bf3f d70b 8940 1915 17c0
000000e0: a299 d23f 0827 ff3f fca4 7a3e 805d a73d
000000f0: 649a b13d c3a9 b23c 5e92 7440 5815 bd40
00000100: 1522 4542 0047 4842 47d7 4042 470c 4942
00000110: b3be bec1 a57a 4842 a166 4942 935a 4842
00000120: a2e2 c0c1 649d 4842 4dc2 4842 ae29 4942
00000130: a4f0 4942 8b8f 4842 97c7 bfc1 7c7f 4942
00000140: fa76 4642 a4c4 4842 066c c0c1 5095 4842
00000150: 2d93 4842 b54e c7c1 93f1 4742 1ed7 c1c1
00000160: 42d9 bec1 e034 4942 e602 4942 50f5 4842
00000170: c90a 4942 c504 4842 55d6 4842 b3ce 4842
00000180: f13b 4542 351d 4842 2e39 4942 5fb7 4842
00000190: b515 4942 ffcd c0c1 eb18 0d42 89a3 4842
000001a0: 088d 4842 c4e7 4842 d092 4742 a102 4942
000001b0: d9ab 4742 9cb5 4842 52c9 4842 2ee3 4442
000001c0: d3fa 0b42 5a2f 4842 3f9b bec1 6d13 c0c1
000001d0: 8c36 c1c1 d68e 4842 32c6 4542 002d bec1
000001e0: fd48 4942 2c2e 4942 07b7 4842 ea3c 4942
000001f0: d217 4942 becb c1c1 b247 4942 aa43 4942
00000200: e120 5b3b f552 05bb 37e6 c2bb 087e c63d
00000210: cc35 833a aa1d 2cbb b09e dbbb ada5 15ba
00000220: a94c 0cbb 6332 7cba a816 c13b 6716 3b3d
00000230: 95b1 89bb 30d7 54ba a733 a5bb ecc4 023a
00000240: 8142 833b b8f9 bdbb a363 e9b9 2de9 883c
00000250: d652 3a3a a6f4 17bc e720 6c3b d54c 99bb
00000260: 7ba1 04bb ffd8 a5ba 8706 013e 90a7 753a
00000270: e9da 043f 1052 363a be6a 1abb fcaa 72ba
00000280: c8bc 48bb 7a52 e1bc d7f2 dcba 332d ea3c
00000290: 6799 753b 8316 b63b a265 4839 67b2 b2bc
000002a0: 3243 a639 4cac d53d 38ea 87bd 8eae f43a
000002b0: 2d64 323c 2736 6d3b 663a 88bb 96f7 c939
000002c0: f944 143b 57df 293c 9144 4ebb 3fe5 db3a
000002d0: dff0 103e f06d 733c 4c21 3ebb c7f7 373b
000002e0: 0c1d 27bd fd66 2e3b d21b a6be 428d 10bc
000002f0: a961 a0bd 78cd 1cbe 13b8 c53b 317f a1ba
00000300: 75f0 0a3c 12e8 883b 8d60 dabb dae8 8aba
00000310: cc51 f03a da38 bdba 1880 963b a36d 2abc
00000320: 0c17 58bc 7f34 f5ba b71c 57bc d66b e03b
00000330: fc05 c03b 559b 9e3b 42fb 17bc 22b5 9a39
00000340: e99f 0e3b ec7c 49bc 2650 b13b 7704 cf39
00000350: c91f c4ba 951f 9e3b 5651 d5bb 205a f3bb
00000360: d5d5 d53b 2262 9e3b d125 8bbb 95c2 23bc
00000370: e0b7 eeba cbb5 0fbc 3d7b f13b 4077 333c
00000380: b2a3 3f3c c4eb e9ba 05ba 55bb e1b1 07bc
00000390: 3ba6 a23b a547 90bc 8be2 293b ddb1 e03b
000003a0: 61fa 773c 9fbb 293c 4bb2 2739 43ec 20bc
000003b0: cbbc 9cba a9f9 a3bb ffe6 5ebb 6703 09bc
000003c0: 3d05 0fbb d686 06bc 2794 d33b 223d bb3c
000003d0: 7dd0 9e3c 75d3 c23b 947d ff3b b05e 7abc
000003e0: e9f9 953c 6690 983b de0b 89bc 1da0 313a
000003f0: 1df5 4ebb cac8 04bc 3582 fdba c89c 3c3b

reg.bias f4 [2]
0.9434577 0.48298785
00000000: 7286 713f 2f4a f73e
