server/model2/value_model_minmax2_noexplore30.pt (torch, 255505 bytes, 12 tensors)

conv.0.weight f4 [4, 1, 3, 3]
1.5244699 1.5749748 2.8509436 2.3636985 0.9420657 0.59098566 1.9795376 -0.9046143
1.344928 0.42093283 0.46950784 2.0515227 1.6180048 2.9798331 0.01825137 2.4751604
-0.5518687 1.2939357 -0.48147228 0.95106226 1.1053591 0.86553675 2.6343064 3.6803646
1.6433113 0.99128354 1.8582188 2.6889892 0.86154544 2.5873792 2.1550324 1.7072859
1.4183661 -0.63963574 1.8338957 -0.4514148
00000000: d421 c33f c698 c93f dc75 3640 d646 1740
00000010: 382b 713f d64a 173f 7d61 fd3f ce94 67bf
00000020: 9a26 ac3f 8284 d73e 5563 f03e 264c 0340
00000030: c81a cf3f 96b5 3e40 e683 953c 0769 1e40
00000040: 4447 0dbf af9f a53f 8983 f6be d178 733f
00000050: 687c 8d3f d193 5d3f 7a98 2840 188b 6b40
00000060: 0658 d23f c2c4 7d3f 1dda ed3f 6618 2c40
00000070: 3e8e 5c3f 9f97 2540 0dec 0940 5888 da3f
00000080: 058d b53f 2bbf 23bf 18bd ea3f d71f e7be

conv.0.bias f4 [4]
1.3992013 0.79227465 1.1062709 1.3778933
00000000: 0719 b33f 83d2 4a3f 499a 8d3f cf5e b03f

conv.2.weight f4 [4, 4, 3, 3]
1.3269608 2.3206122 1.576693 2.1594293 1.5263699 1.5912666 1.0584899 1.8046646
0.94101894 1.8668483 1.5553555 1.9785047 2.6751428 0.519983 1.5961732 0.6364362
1.696435 0.17846917 0.93779063 2.5609608 1.4745347 2.1554284 1.4725834 1.0631838
1.6423705 0.83045995 1.3571773 1.9060992 1.8799227 1.7136285 1.9446527 1.5582715
1.7133257 1.3791054 1.4972414 0.75558186 0.71075183 -1.0807152 -4.313412 1.2980806
1.1471784 -1.3396397 1.8236777 0.8868278 -0.96550316 -0.81232077 0.77136666 -3.2250664
0.6628476 1.6010647 -1.1989746 -0.55088747 -0.14452155 -0.81146 0.7677875 0.5979796
-0.45083332 1.346149 0.15680775 -4.024453 0.9036496 -0.2230808 1.1628886 0.96485716
-0.40466678 -1.7874746 1.0587713 1.9152765 -4.093735 2.3628986 1.6030085 -2.3466237
2.1737254 2.1411371 0.87364674 1.7249455 1.492764 0.7281155 1.0945574 0.77067685
1.5340331 2.7520738 2.1354356 0.5886413 1.7780974 1.4826932 0.022990791 0.20890643
0.44562677 1.2435124 1.9341943 2.2970457 -0.8550258 1.1541971 1.3378828 0.8900853
0.41844097 0.17683414 0.5652028 2.3499029 2.2455125 0.62892145 1.7879579 1.8316146
2.2993882 0.81831 0.57345873 0.8208381 1.1122633 2.4615476 0.5923573 1.9388129
1.7117442 1.0346717 1.3604484 1.6075758 0.98756 1.0416951 2.286169 1.530413
1.8324727 2.1814737 0.49036974 1.182218 1.2892755 0.9788543 1.1682036 2.866301
-0.52106875 2.4530265 1.8591671 0.6501609 1.0599612 1.0734729 0.6498156 1.369945
1.5580506 1.0256888 2.1399643 1.9610115 1.7940476 0.90750366 1.2305651 0.96559805
00000000: dad9 a93f e984 1440 14d1 c93f 1734 0a40
00000010: 1760 c33f a0ae cb3f 997c 873f 40ff e63f
00000020: 9ee6 703f e3f4 ee3f e415 c73f a43f fd3f
00000030: 8a35 2b40 9b1d 053f 674f cc3f 7ced 223f
00000040: c824 d93f 9fc0 363e 0c13 703f c8e6 2340
00000050: 8ebd bc3f 8af2 0940 9d7d bc3f 6816 883f
00000060: 3239 d23f 0699 543f fcb7 ad3f 0ffb f33f
00000070: 4fa1 f03f 2e58 db3f 61ea f83f 7175 c73f
00000080: 424e db3f 8786 b03f 9ba5 bf3f d06d 413f
00000090: d5f3 353f e054 8abf 7907 8ac0 8127 a63f
000000a0: bed6 923f 5079 abbf 456e e93f 2607 633f
000000b0: 372b 77bf 41f4 4fbf 4978 453f 7d67 4ec0
000000c0: 61b0 293f b0ef cc3f 0078 99bf f606 0dbf
000000d0: 75fd 13be d8bb 4fbf b98d 443f 3115 193f
000000e0: a0d3 e6be 9c4e ac3f 3692 203e 52c8 80c0
000000f0: 9555 673f 4b6f 64be 89d9 943f e100 773f
00000100: 7c30 cfbe f8cb e4bf d185 873f c827 f53f
00000110: e1ff 82c0 bb39 1740 622f cd3f 152f 16c0
00000120: 511e 0b40 6408 0940 50a7 5f3f 04cb dc3f
00000130: e412 bf3f c765 3a3f 751a 8c3f 144b 453f
00000140: 325b c43f fa21 3040 faaa 0840 32b1 163f
00000150: b298 e33f e4c8 bd3f 2f57 bc3c 91eb 553e
00000160: 3129 e43e 6a2b 9f3f ae93 f73f cc02 1340
00000170: f9e2 5abf bbbc 933f be3f ab3f a1dc 633f
00000180: e53d d63e 0214 353e 21b1 103f cf64 1640
00000190: 7ab6 0f40 ff00 213f cedb e43f 5972 ea3f
000001a0: 2d29 1340 c47c 513f 31ce 123f 7222 523f
000001b0: a55e 8e3f ff89 1d40 baa4 173f 052b f83f
000001c0: 6f1a db3f 1f70 843f 2c23 ae3f 0bc5 cd3f
000001d0: bbd0 7c3f 4456 853f 9850 1240 93e4 c33f
000001e0: 778e ea3f 449d 0b40 be11 fb3e eb52 973f
000001f0: fb06 a53f 3296 7a3f b287 953f 7a71 3740
00000200: c364 05bf 63fe 1c40 30f9 ed3f f270 263f
00000210: cfac 873f 8f67 893f 515a 263f 5c5a af3f
00000220: 346e c73f c549 833f 2df5 0840 6d02 fb3f
00000230: 5aa3 e53f 2952 683f 2883 9d3f 6f31 773f

conv.2.bias f4 [4]
1.423211 0.77470756 1.1142286 1.0081116
00000000: c72b b63f 3c53 463f 0b9f 8e3f cd09 813f

conv.5.weight f4 [64, 36]
-0.20531455 -0.09438043 0.38927835 -0.6539425 0.07229821 0.38007066 -0.14191826 -0.21385019
0.45252016 2.4667003 0.954295 0.8524616 1.3463316 -0.6936035 0.55143243 -1.5851709
-2.167507 0.15430653 -0.40781328 -0.25686806 0.2780576 -0.105392724 -0.36031488 0.70752424
-0.30345556 -0.10426672 0.57478815 -0.4170137 -0.15859844 0.38393795 -0.30949375 -0.11021727
0.7193462 -0.48524258 -0.028779723 0.59410876 0.02865131 -0.32857573 -0.49732977 0.13508117
0.13307239 0.5651492 -0.16184697 -0.017831178 0.69665384 1.0221035 -3.3474102 -0.5102411
-0.13148132 0.3542973 0.059566528 0.39028433 0.5011015 -0.31231105 -0.15449093 -0.186568
-0.15900388 -0.010737817 0.19995739 0.32162184 0.023712976 0.17219654 0.038693875 -0.19913134
-0.10802316 -0.41141734 0.23615168 -0.05074815 -0.35536417 -0.1735663 0.21148956 -0.08473265
0.60247314 1.0599542 1.5386792 1.0113773 1.0212526 0.8855458 1.0604564 1.3290145
1.0159335 -0.16669016 2.9650116 1.141145 -0.5415456 2.6409717 1.2287476 -0.91203165
0.6229802 0.70376754 0.10113218 0.64945936 -0.07927191 1.9198165 1.0635781 1.5349963
2.1540577 1.354472 0.8285884 2.134274 0.96921 1.212496 1.7185005 0.21406108
0.31362042 1.056248 0.6502979 0.6254684 0.263175 0.09654513 -0.5800931 0.1074879
-0.020550858 0.031598873 -0.037667986 -0.09895934 0.1387596 -0.15035178 0.20754378 0.43805146
-0.042900383 0.08028248 -2.5963168 0.18032914 0.017865473 0.52055305 0.05294143 -0.21559523
0.22539435 -0.23719518 -0.10647735 -1.8000236 -0.17110951 0.08567184 2.1223993 -0.16084558
-0.036939062 -0.13890082 0.11084353 -0.038506646 0.00257248 -0.077375524 0.0469311 0.17537932
0.737641 0.3028054 -0.45608768 0.7280361 0.21192488 -0.49696103 -0.01621801 0.18297642
-1.1193467 -2.4850533 2.516409 -0.5293616 -0.8131048 3.5790544 -1.5435375 0.3348638
2.4251812 -1.5926999 0.23638019 -0.14420357 -0.08317404 0.6818448 0.49376678 -1.2949101
1.2732083 1.4712923 -2.078841 0.80562544 0.28467408 0.09666179 1.1350322 0.055141967
-2.1155849 0.9531439 0.39190045 -2.589537 1.0591471 0.67665124 0.7570511 0.436507
1.1505629 0.45815805 0.37009287 0.6911178 1.2130045 0.3882185 3.088991 -0.6908757
-0.687932 2.3234837 -0.0057127564 -2.5201447 -0.60262316 0.24212874 0.25869507 0.5640642
1.0251706 1.2608786 0.48554817 0.9092248 1.1659149 0.7908341 0.96991634 0.37368536
0.4747703 1.0613021 0.9394817 0.52821755 0.19066313 0.5514193 0.94504637 0.9269853
-0.2509086 0.17916872 0.007343894 -0.09042273 0.22659202 0.370551 -0.005508189 -0.20545685
0.22089313 0.5001918 -3.123059 0.18189278 0.30137348 -2.5817416 0.99854034 1.6295428
0.21459445 0.25572294 0.50927556 0.5271639 0.19712344 -0.16930255 0.14893416 0.5068374
-0.34157842 -0.3767923 -0.50027233 0.24478427 0.19944333 -0.050593704 -0.18841004 0.20373443
0.4275111 -0.102740936 -0.12462273 0.26483768 0.44833574 0.17511855 -0.44562835 0.4472503
00000000: fa3d 52be 874a c1bd 7e4f c73e c768 27bf
00000010: 1511 943d 9f98 c23e 0553 11be 8bfb 5abe
00000020: b9b0 e73e 6bde 1d40 ad4c 743f ec3a 5a3f
00000030: 9854 ac3f 0090 31bf ad2a 0d3f e1e6 cabf
00000040: 6fb8 0ac0 8802 1e3e e7cc d0be 3684 83be
00000050: 915d 8e3e 24d8 d7bd 317b b8be 4f20 353f
00000060: 875e 9bbe ca89 d5bd 5125 133f d282 d5be
00000070: a167 22be 8493 c43e f775 9ebe 98b9 e1bd
00000080: 1327 383f b771 f8be 74c3 ebbc 8317 183f
00000090: 27b6 ea3c 143b a8be 02a2 febe b852 0a3e
000000a0: 2144 083e 9ead 103f 36bb 25be b112 92bc
000000b0: e857 323f 4ad4 823f f83b 56c0 299f 02bf
000000c0: 0aa3 06be 7566 b53e 08fc 733d 59d3 c73e
000000d0: 3048 003f 3ce7 9fbe df32 1ebe af0b 3fbe
000000e0: ead1 22be abed 2fbc a1c1 4c3e 9eab a43e
000000f0: b741 c23c 4a54 303e 787d 1e3d 16e9 4bbe
00000100: 3f3b ddbd 4ba5 d2be bfd1 713e 4bdd 4fbd
00000110: 4bf2 b5be 5dbb 31be b890 583e 5088 adbd
00000120: ae3b 1a3f 94ac 873f 71f3 c43f d074 813f
00000130: 68b8 823f 21b3 623f 09bd 873f 261d aa3f
00000140: 1c0a 823f d3b0 2abe c0c2 3d40 0a11 923f
00000150: bca2 0abf ae05 2940 9a47 9d3f e87a 69bf
00000160: a17b 1f3f 1c2a 343f 631e cf3d f842 263f
00000170: 5059 a2bd 8cbc f53f 5423 883f c27a c43f
00000180: 15dc 0940 575f ad3f 5f1e 543f f297 0840
00000190: 261e 783f 1233 9b3f d3f7 db3f d432 5b3e
000001a0: db92 a03e 2233 873f ec79 263f b21e 203f
000001b0: e0be 863e 74b9 c53d fb80 14bf 9e22 dc3d
000001c0: 465a a8bc d26d 013d bf49 1abd 32ab cabd
000001d0: ff16 0e3e d1f5 19be 5b86 543e 4848 e03e
000001e0: 50b8 2fbd 246b a43d 0e2a 26c0 34a8 383e
000001f0: 9d5a 923c f742 053f 1dd9 583d ffc4 5cbe
00000200: c7cd 663e 4be3 72be cc10 dabd 2c67 e6bf
00000210: 5537 2fbe b874 af3d 64d5 0740 b4b4 24be
00000220: 6a4d 17bd 043c 0ebe ef01 e33d 25b9 1dbd
00000230: 0d97 283b 0f77 9ebd d33a 403d a396 333e
00000240: 0ad6 3c3f 4f09 9b3e 5384 e9be 9360 3a3f
00000250: d602 593e ad71 febe a2db 84bc 2c5e 3b3e
00000260: c146 8fbf 1d0b 1fc0 d80c 2140 3e84 07bf
00000270: a327 50bf 3a0f 6540 a392 c5bf 4573 ab3e
00000280: 2b36 1b40 97dd cbbf a60d 723e 1aaa 13be
00000290: 2757 aabd 618d 2e3f 00cf fc3e 9dbf a5bf
000002a0: 7df8 a23f 4e53 bc3f bb0b 05c0 783d 4e3f
000002b0: cdc0 913e 9ef6 c53d bc48 913f 8bdc 613d
000002c0: be65 07c0 3d01 743f 2da7 c83e f9ba 25c0
000002d0: 2292 873f 0439 2d3f 1ace 413f d87d df3e
000002e0: a545 933f b193 ea3e d07c bd3e 19ed 303f
000002f0: bb43 9b3f 93c4 c63e 07b2 4540 3bdd 30bf
00000300: 501c 30bf f5b3 1440 1332 bbbb 0d4a 21c0
00000310: 8345 1abf 99f0 773e ae73 843e 8366 103f
00000320: ca38 833f 7864 a13f c599 f83e f5c2 683f
00000330: b33c 953f 1b74 4a3f 704c 783f b053 bf3e
00000340: 1815 f33e bfd8 873f df81 703f 4439 073f
00000350: 323d 433e d129 0d3f 8fee 713f e94e 6d3f
00000360: 1877 80be 0178 373e 0ca5 f03b 8d2f b9bd
00000370: bd07 683e dcb8 bd3e 0a7e b4bb 4863 52be
00000380: cf31 623e 920c 003f 33e0 47c0 1a42 3a3e
00000390: a04d 9a3e 413b 25c0 57a0 7f3f dc94 d03f
000003a0: a6be 5b3e 1eee 823e e25f 023f 37f4 063f
000003b0: bada 493e a65d 2dbe 3282 183e 19c0 013f
000003c0: 5ee3 aebe ecea c0be d911 00bf baa8 7a3e
000003d0: df3a 4c3e 583b 4fbd 90ee 40be c29f 503e
000003e0: bce2 da3e d769 d2bd 343a ffbd ce98 873e
000003f0: 438c e53e 4752 333e 6629 e4be fefd e43e

conv.5.bias f4 [64]
0.16358308 -0.28628236 0.38601968 -0.22097911 0.030878607 0.51232666 0.23333457 0.08950237
0.58489764 0.42439756 0.49748138 -3.3264544 -0.6286995 -0.08588027 -0.14461279 -0.6313671
1.0295626 0.25789133 -0.5267169 1.007137 -3.1678672 0.60390204 -0.17846128 0.673503
0.30963248 0.12725559 -0.6259987 -2.8041623 -0.38889033 -0.4021688 0.6915762 -0.4603253
-0.20586173 -0.105262116 -0.15291525 -0.20785587 -0.7778938 -2.3832452 0.30527094 0.9802047
0.8979918 -0.116513915 -0.15059887 0.58096135 -0.012154493 -0.5811336 0.36287245 0.8504456
-0.4474141 0.41480583 -0.30782977 0.70686257 -0.5982253 -0.4013648 -0.098093286 -0.42882743
-0.21320474 0.95058125 -0.83225864 -0.35025257 -0.7600572 -0.61855644 0.4151686 -0.12452133
00000000: 5382 273e 9a93 92be 5fa4 c53e 5948 62be
00000010: 22f5 fc3c d727 033f 42ef 6e3e 054d b73d
00000020: dabb 153f a34a d93e e1b5 fe3e a1e4 54c0
00000030: 73f2 20bf ffe1 afbd 6015 14be 46a1 21bf
00000040: b5c8 833f 550a 843e ebd6 06bf dde9 803f
00000050: 56be 4ac0 5399 1a3f 8ebe 36be b16a 2c3f
00000060: 2688 9e3e 4a4f 023e 7341 20bf 6577 33c0
00000070: a21c c7be 12e9 cdbe 230b 313f c2af ebbe
00000080: 6bcd 52be aa93 d7bd d195 1cbe 2bd8 54be
00000090: 0c24 47bf 1787 18c0 794c 9c3e b2ee 7a3f
000000a0: cae2 653f d99e eebd 9736 1abe e2b9 143f
000000b0: a323 47bc 2cc5 14bf 6bca b93e ceb6 593f
000000c0: 7613 e5be 6e61 d43e dd9b 9dbe f2f4 343f
000000d0: 4b25 19bf b07f cdbe 22e5 c8bd 458f dbbe
000000e0: 5852 5abe 4b59 733f e70e 55bf 4e54 b3be
000000f0: 1c93 42bf b759 1ebf fb90 d43e 0a05 ffbd

linear.1.weight f4 [256, 169]
0.0058983564 0.03927634 0.05919365 0.054136388 -0.025531128 -0.022116046 0.031506017 0.038530543
0.0523298 1.1622367 0.015166454 -0.011316881 0.032183588 0.04855319 -0.002104357 -0.014606945
0.0063044503 -0.044173554 -0.075353146 -0.020839334 0.07390759 -1.1767195 -0.23456724 0.0125961155
-0.063693196 -0.065787256 -0.01698824 0.038327307 0.025421262 -0.0027178675 0.029781707 -0.00065297633
-0.044473805 0.6335805 -0.577599 -0.81693065 0.019612975 0.020964175 -0.042589024 0.062179737
0.04365121 -0.0557345 -0.90279555 -0.759956 0.47321782 0.52682316 -0.34991714 -0.61203027
0.03903637 -0.037977155 -0.4410403 0.19295783 0.040363543 0.050073214 -0.00809928 1.8100933
0.18405452 1.7670465 0.116542466 -0.045885134 -0.37170845 -0.5790574 0.21521932 -0.43804622
-0.0517214 -0.02578098 -0.04729327 -0.03856768 -3.8204587 -0.9768719 2.3491564 1.3406149
1.6830193 1.8537307 0.9332239 0.07343795 -0.052764453 0.031680584 0.028979488 -0.035843253
0.028441548 -0.06352379 -0.47012043 0.43099406 -1.0713797 -0.5116377 -1.3476073 -0.0028360474
0.039388917 0.050748043 -0.033357933 -0.035545845 -0.07502456 0.34346002 -0.68158716 0.0110328
1.6656686 0.58527136 0.28511122 -1.2232056 -1.170462 0.054057173 -0.059245348 -0.017436177
-0.011687763 0.11941176 0.6576169 1.7934492 -0.43296382 0.8317646 1.3729999 1.1112518
0.46666545 -0.20041303 0.026477426 0.046686873 -0.027133055 1.1888599 -1.2950774 -0.20663735
-1.8139334 -0.44857296 -0.5160467 -0.38811946 -1.0142457 0.009707583 0.046307556 0.057452045
-0.03178647 0.06811691 0.050002508 -0.02715848 0.06355839 0.41536233 1.8127024 0.8889401
-0.037147798 0.05011124 0.010573648 -0.011265397 -0.031354647 0.060661323 0.069087915 -0.042322554
0.038329273 0.04598538 0.19127285 3.856358 0.028071843 0.0042439997 0.010441452 -0.009715192
0.029839195 0.060886286 0.049214564 0.03212122 -0.060935453 0.017652497 -0.04599788 0.010452636
0.031554922 -0.0071871653 -0.071292154 0.05728098 -0.049168203 0.021991685 0.049634017 0.018248983
0.03853458 0.058048002 -0.06958019 -0.06756942 0.011232428 0.028531149 -0.069348074 0.0133373365
-0.036762696 -0.067893185 1.1207256 0.045926005 -0.002309762 -0.051789306 -0.02223102 -0.009927824
-0.0195866 0.039755575 -0.017362688 -0.05354937 -0.046342753 0.06266924 1.1916358 1.845411
-0.033220623 0.018912159 -0.061385058 -0.059954736 0.05741165 0.00097159296 -0.02349826 0.026738763
-0.038946252 -0.007274933 -1.96695 1.5439159 -0.6849219 0.017962538 0.026630998 0.0031629503
0.0043074638 0.034999967 -0.017160848 0.47838697 0.29109496 -0.8183671 -0.05584454 -0.017896732
0.6628586 0.13805388 0.89396244 -1.0645356 0.437853 -0.04443521 -0.027306192 -0.060780335
-0.5556044 -0.22309837 -0.07012097 -1.9027522 0.7547635 -1.0649189 1.1606895 0.37559426
-1.4673874 -0.041544072 0.053795658 -0.029634733 -0.048421595 -0.613198 -0.240209 -1.0273649
0.69922405 0.44773057 1.1091349 -0.6939002 1.6581571 -0.04093669 0.06748887 -0.021678265
0.03954243 0.04877039 1.1603351 1.0224547 -0.7385573 0.8487699 0.2500756 2.109655
00000000: 0047 c13b 3ae0 203d 0a75 723d 1ebe 5d3d
00000010: a826 d1bc b62c b5bc 740c 013d 34d2 1d3d
00000020: c657 563d 2cc4 943f b87c 783c 706a 39bc
00000030: f0d2 033d b6df 463d 40e9 09bb f851 6fbc
00000040: 9095 ce3b 54ef 34bd c052 9abd 40b7 aabc
00000050: dd5c 973d bf9e 96bf 6532 70be f05f 4e3c
00000060: 9471 82bd 78bb 86bd ec2a 8bbc 18fd 1c3d
00000070: 4040 d03c 401e 32bb c4f8 f33c 802c 2bba
00000080: 2a2a 36bd 5532 223f 87dd 13bf 5e22 51bf
00000090: 64ab a03c 10bd ab3c d471 2ebd 2eb0 7e3d
000000a0: 9ccb 323d dc49 64bd 9c1d 67bf 7a8c 42bf
000000b0: 9b49 f23e e2dd 063f 5728 b3be 04ae 1cbf
000000c0: 9ae4 1f3d ef8d 1bbd 09d0 e1be bd96 453e
000000d0: 3e54 253d 9219 4d3d d8b2 04bc 23b1 e73f
000000e0: ca78 3c3e 942e e23f d1ad ee3d 0df2 3bbd
000000f0: 9250 bebe 1b3d 14bf 7462 5c3e 9847 e0be
00000100: d2d9 53bd a232 d3bc 96b6 41bd 25f9 1dbd
00000110: 6582 74c0 4714 7abf 9458 1640 4599 ab3f
00000120: 2d6d d73f 0c47 ed3f c3e7 6e3f a366 963d
00000130: 8a1f 58bd 80c3 013d 6466 ed3c 60d0 12bd
00000140: 40fe e83c c318 82bd a0b3 f0be 41ab dc3e
00000150: f822 89bf b0fa 02bf 657e acbf fbdc 39bb
00000160: 4656 213d 2edd 4f3d 54a2 08bd 8598 11bd
00000170: 7aa6 99bd fed9 af3e 7f7c 2ebf ebc2 343c
00000180: a134 d53f 58d4 153f 19fa 913e 0092 9cbf
00000190: b3d1 95bf 0e6b 5d3d 40ab 72bd 50d6 8ebc
000001a0: 087e 3fbc 278e f43d 9559 283f be8f e53f
000001b0: 6fad ddbe 86ee 543f 76be af3f 803d 8e3f
000001c0: c6ee ee3e 1339 4dbe 30e7 d83c bc3a 3f3d
000001d0: 2446 debc 902c 983f 19c5 a5bf be98 53be
000001e0: f82e e8bf 5bab e5be a31b 04bf 98b7 c6be
000001f0: ced2 81bf 8e0c 1f3c feac 3d3d d652 6b3d
00000200: 8832 02bd e180 8b3d 6ecf 4c3d 767b debc
00000210: e72a 823d 5faa d43e a206 e83f 9491 633f
00000220: 4a28 18bd 7241 4d3d 183d 2d3c 8092 38bc
00000230: bb6d 00bd 0278 783d f77d 8d3d 6a5a 2dbd
00000240: 28ff 1c3d 2a5b 3c3d 08dd 433e 92ce 7640
00000250: ecf6 e53c 4011 8b3b a012 2b3c 782c 1fbc
00000260: 5471 f43c e663 793d 3695 493d 8a91 033d
00000270: 7497 79bd f89b 903c 4668 3cbd 8841 2b3c
00000280: bc3f 013d 5082 ebbb 9f01 92bd 769f 6a3d
00000290: 9964 49bd e827 b43c 0a4d 4b3d e47e 953c
000002a0: 70d6 1d3d bec3 6d3d 0f80 8ebd d661 8abd
000002b0: 3808 383c 28ba e93c 5d06 8ebd d884 5a3c
000002c0: 7b94 16bd 950b 8bbd f073 8f3f e81c 3c3d
000002d0: 605f 17bb 0621 54bd d41d b6bc 50a8 22bc
000002e0: 1474 a0bc bed6 223d 323c 8ebc 9656 5bbd
000002f0: e6d1 3dbd bb58 803d 8687 983f 6d36 ec3f
00000300: 5912 08bd aced 9a3c e66e 7bbd 1993 75bd
00000310: 7a28 6b3d 80b2 7e3a 6c7f c0bc 400b db3c
00000320: 1b86 1fbd 9062 eebb 05c5 fbbf 099f c53f
00000330: 0b57 2fbf 2c26 933c 4029 da3c 8049 4f3b
00000340: a025 8d3b 205c 0f3d e894 8cbc 23ef f43e
00000350: 660a 953e 8280 51bf 3fbd 64bd 2b9c 92bc
00000360: 1ab1 293f ff5d 0d3e b9da 643f b442 88bf
00000370: 452e e03e b201 36bd 3cb1 dfbc cdf4 78bd
00000380: 173c 0ebf e673 64be 959b 8fbd 628d f3bf
00000390: 2e38 413f 434f 88bf 7991 943f e44d c03e
000003a0: 5ad3 bbbf 1e2a 2abd d658 5c3d 8ac4 f2bc
000003b0: b955 46bd 8bfa 1cbf 59f9 75be b180 83bf
000003c0: 5900 333f f13c e53e 22f8 8d3f 72a3 31bf
000003d0: 7e3e d43f 3bad 27bd 9b37 8a3d 9e96 b1bc
000003e0: 3ef7 213d 76c3 473d dc85 943f ccdf 823f
000003f0: 1712 3dbf fc48 593f e909 803e 9604 0740

linear.1.bias f4 [256]
0.09800902 0.372962 0.36013442 0.07381815 0.17636065 -0.17209211 0.6843602 -0.24867718
-0.17996073 0.12822172 2.4731212 0.054904394 0.29232866 0.23579039 1.0013567 0.10671983
0.08109112 0.33006015 0.011224374 -0.22478583 -0.2067421 0.1501448 0.09558951 0.3659632
-1.3441455 -0.11944736 0.22705837 0.4888661 -0.3327699 0.4456814 0.31137052 0.6377006
-1.6098462 -0.036677327 0.634968 -0.08895809 0.18028776 0.18134801 0.23035224 0.17919013
0.5081775 2.24506 0.29655957 1.175366 0.37237126 -0.23452789 0.53432053 -0.25341973
1.2442718 0.22575788 0.13854112 0.4914305 0.4732358 0.16007571 0.26675728 0.0017572122
0.08745103 -0.056527387 0.20056976 0.38675085 -1.18135 -2.2616825 0.4952394 1.3142898
0.36390498 0.1836491 -0.010813495 0.14477757 0.18954873 1.5407977 2.510723 -0.12274826
0.08073447 0.011587493 0.0042280448 -0.047156803 0.16308294 0.023585498 0.08183169 0.044770572
0.35878825 1.5806555 0.54337245 0.021797104 -0.019115685 0.358642 0.39225197 -0.061056297
-0.020231903 -0.09747828 0.08738546 -0.07401485 0.4736808 0.32144803 0.6188412 0.25120056
0.3970164 0.2614621 0.15401997 0.30693468 0.43088812 -0.12279749 -0.048906166 -0.04664824
-0.16663854 0.013815225 -0.14154911 -0.29838353 -1.2429533 0.1354856 -1.52567 -0.09682892
0.25605583 0.17954056 0.32172644 0.1565067 0.18973309 -0.28141612 0.29598486 0.050379828
1.0730819 0.08751631 0.34866104 -0.10113993 -0.06995483 0.033201493 0.30010724 0.33795643
-0.3624544 0.08398482 0.09788637 0.29313955 2.0215595 0.21987967 -0.07905367 0.11750766
0.012296525 0.024420073 0.28442618 0.42014065 0.11586506 0.22515534 0.08149079 0.17581093
-0.16462253 0.1926521 0.3496064 1.5895262 -0.2003152 0.21930107 0.11616112 0.06164645
-1.3102643 -1.3366711 0.12894487 0.6473436 0.29015985 -0.111695886 0.3750812 0.42047945
-0.09601035 0.154968 -0.3262365 -0.3662496 0.14209348 0.20975043 0.26897568 0.4054571
0.06999465 0.21601225 0.3164493 0.038457703 0.6550068 0.54205716 0.16590084 -0.018198833
1.4435823 0.3837578 -0.174735 -0.043042313 -2.3701456 1.194011 0.116790555 0.3194067
-0.0008283736 -0.10844456 0.39968798 0.48624596 -0.31237748 -0.06306501 -0.0093321465 -0.42905325
-0.007582726 -0.03626609 0.2112198 -2.842222 3.2195315 -0.09000538 -0.37878147 0.048071425
0.005302051 0.23725711 0.20877236 0.09130667 -1.1818142 0.12036132 -0.0526727 0.80632734
0.06409177 0.07204449 -1.4659212 0.07524756 0.13382703 1.3452573 -2.3553004 0.32949457
0.4219546 0.8489913 -0.01454734 1.3266383 0.066148266 0.4138915 0.14897624 -0.06685582
-0.06369251 -0.031061513 0.32005143 -0.3244021 1.1106585 0.27371362 2.7169957 0.30369085
-0.13588706 0.5401511 -0.057106923 0.16488379 -0.2568932 -0.19206089 -0.055629235 0.14193492
-0.07177192 0.29492062 0.19864315 0.32711682 0.29748553 0.049189553 0.03433547 1.5372636
-0.04280173 -0.15609398 1.164385 -0.21953124 0.24831794 0.1567177 0.11548045 -0.085916564
00000000: f4b8 c83d e0f4 be3e 8a63 b83e f82d 973d
00000010: e397 343e ea38 30be 3b32 2f3f 3ba5 7ebe
00000020: a047 38be 8e4c 033e 9e47 1e40 6ee3 603d
00000030: 1aac 953e 0973 713e 752c 803f ed8f da3d
00000040: 1a13 a63d a5fd a83e 70e6 373c 422e 66be
00000050: 33b4 53be 8fbf 193e 6fc4 c33d 875f bb3e
00000060: f60c acbf d1a0 f4bd fd81 683e a84c fa3e
00000070: d160 aabe 5a30 e43e f56b 9f3e 5940 233f
00000080: 710f cebf f73a 16bd 438d 223f a92f b6bd
00000090: 5b9d 383e 4bb3 393e 75e1 6b3e 9e7d 373e
000000a0: ec17 023f 10af 0f40 a8d6 973e 6572 963f
000000b0: 72a7 be3e 1428 70be 3bc9 083f 3bc0 81be
000000c0: 4c44 9f3f 132d 673e b9dd 0d3e c79c fb3e
000000d0: f64b f23e e3ea 233e 6994 883e 4252 e63a
000000e0: 8719 b33d 4389 67bd 2962 4d3e 3504 c63e
000000f0: 7a36 97bf 68bf 10c0 0590 fd3e a63a a83f
00000100: c151 ba3e 820e 3c3e 162b 31bc 9240 143e
00000110: 1019 423e dc38 c53f b0af 2040 7163 fbbd
00000120: 1d58 a53d 78d9 3d3c 698b 8a3b 7e27 41bd
00000130: 37ff 263e 6036 c13c 6097 a73d 5961 373d
00000140: 18b3 b73e eb52 ca3f 751a 0b3f d78f b23c
00000150: 7f98 9cbc ed9f b73e 40d5 c83e 2b16 7abd
00000160: 60bd a5bc b1a2 c7bd 26f7 b23d 1995 97bd
00000170: 4a86 f23e d694 a43e 606c 1e3f 5c9d 803e
00000180: bc45 cb3e 5cde 853e 69b7 1d3e 8b26 9d3e
00000190: 5e9d dc3e 407d fbbd d551 48bd 3a12 3fbd
000001a0: 4ba3 2abe 4159 623c 40f2 10be bac5 98be
000001b0: 1819 9fbf bdbc 0a3e 2849 c3bf 3e4e c6bd
000001c0: c019 833e 7bd9 373e 54b9 a43e 4b43 203e
000001d0: 6449 423e c615 90be 548b 973e 145b 4e3d
000001e0: bf5a 893f c03b b33d b383 b23e 7422 cfbd
000001f0: 7a44 8fbd 4afe 073d a8a7 993e a008 ad3e
00000200: a093 b9be 3c00 ac3d a678 c83d 6316 963e
00000210: 3b61 0140 2328 613e e4e6 a1bd dba7 f03d
00000220: 5d77 493c 9b0c c83c 4fa0 913e ad1c d73e
00000230: a94a ed3d 1f8f 663e a5e4 a63d c807 343e
00000240: cf92 28be 9846 453e 9cff b23e 9875 cb3f
00000250: 6e1f 4dbe 7690 603e e2e5 ed3d fd80 7c3d
00000260: beb6 a7bf 0a18 abbf 200a 043e 4fb8 253f
00000270: d58f 943e d0c0 e4bd a50a c03e 1549 d73e
00000280: 13a1 c4bd eeaf 1e3e 7808 a7be 1185 bbbe
00000290: f480 113e d1c8 563e 2eb7 893e 1398 cf3e
000002a0: 5b59 8f3d 5132 5d3e a505 a23e d385 1d3d
000002b0: 87ae 273f 42c4 0a3f e9e1 293e b815 95bc
000002c0: 4ec7 b83f e77b c43e bbed 32be 234d 30bd
000002d0: 77b0 17c0 5ad5 983f e32f ef3d 4689 a33e
000002e0: 3627 59ba 2e18 debd e7a3 cc3e 3bf5 f83e
000002f0: f1ef 9fbe 3a28 81bd dce5 18bc deac dbbe
00000300: 8478 f8bb c08b 14bd 014a 583e f7e6 35c0
00000310: ce0c 4e40 be54 b8bd a5ef c1be 8be6 443d
00000320: d4bc ad3b 87f3 723e 6cc8 553e fefe ba3d
00000330: b045 97bf ff7f f63d 54bf 57bd 786b 4e3f
00000340: 8c42 833d 108c 933d 4ea3 bbbf 651b 9a3d
00000350: f409 093e 6431 ac3f 3ebd 16c0 83b3 a83e
00000360: 6f0a d83e 7e57 593f f757 6ebc 49cf a93f
00000370: be78 873d 96e9 d33e 3a8d 183e b4eb 88bd
00000380: 3871 82bd b774 febc c8dd a33e 0818 a6be
00000390: 0f2a 8e3f 3124 8c3e 42e3 2d40 5e7d 9b3e
000003a0: fa25 0bbe 5847 0a3f f3e8 69bd 4cd7 283e
000003b0: 8187 83be 9cab 44be 7bdb 63bd 6357 113e
000003c0: 28fd 92bd d6ff 963e 1c69 4b3e db7b a73e
000003d0: 0650 983e fc7a 493d 5aa3 0c3d 0ec5 c43f
000003e0: de50 2fbd 1ad7 1fbe 910a 953f cccc 60be
000003f0: 0f47 7e3e 9b7a 203e 0481 ec3d 06f5 afbd

linear.3.weight f4 [64, 256]
-5.2175555 7.0471973 9.278637 -5.3697186 -2.7234943 -6.3721833 4.8643875 -5.5938177
-5.6729383 6.409593 0.74836165 -2.7943842 -8.090302 8.830481 1.3374596 10.086996
11.337967 8.188252 -8.621135 -4.6043878 -7.105953 9.726123 9.224374 4.5501027
-1.0710562 -9.666959 -2.8081715 6.532447 -7.1615067 5.180121 3.1670313 4.6265917
-0.7239717 -6.096129 6.4926906 -8.532039 -6.1264496 -1.6003857 6.5389233 9.593433
4.557095 1.0882068 2.7667847 0.9421372 7.936306 -9.233316 7.1161566 -11.743061
0.9347319 5.9095106 -10.194287 6.976593 9.527419 -4.752265 -5.8460636 -7.812296
8.674578 -10.997619 8.795702 7.2371182 -1.2805727 -0.8633978 5.191018 0.8528235
8.140711 -3.338859 -6.066956 5.1047735 -7.3319974 0.8036 0.9700448 7.774198
-7.557192 7.6657944 -7.0599947 -4.61396 11.4594 -7.4078555 -3.3717606 -5.7883663
2.9500759 0.14069843 7.938994 7.253143 -4.9690123 8.798929 12.262453 -6.244491
6.2568564 -6.7217937 11.840223 -4.1242433 7.3904066 9.646069 0.85061914 -8.762488
8.901723 -8.168523 -5.338848 1.3875184 -0.35494167 -6.920974 -10.3693905 4.0443068
-11.481115 -7.1230736 8.01994 -9.040156 -1.3992465 8.282093 -1.0182719 -7.4497766
10.385175 5.0333405 7.3496437 -7.285785 9.74446 -8.58511 -4.8802686 -4.7783203
1.328002 10.157354 4.9528704 -8.432351 -8.435766 1.7104303 6.3304334 7.1026897
12.281406 9.029847 3.712798 8.838263 1.0985675 -3.8206563 -5.168118 -5.1003346
-6.672036 -4.6854277 9.067012 3.3962765 11.740572 7.452324 -4.702143 7.034593
-8.676056 5.943563 8.018504 1.061603 -11.373963 -7.1147456 -5.3681316 -7.1952596
-1.1137247 -1.473085 -9.603108 3.7520456 7.1942673 -7.9802 2.7865305 9.137952
-6.594126 -5.8084636 -9.392477 -12.023181 -5.3632803 8.027686 -4.1246924 8.690574
-4.084664 7.3452935 6.0330186 8.002076 7.527321 7.0265408 6.420238 -10.766924
0.797749 -6.5769653 -8.55878 -6.174963 -0.47757122 0.3395362 -9.805873 7.4361396
8.168183 11.577362 8.137895 5.8358874 -7.68156 -7.1160736 8.212284 -5.739311
-9.978764 10.387171 4.03977 -0.6310836 0.77043545 -3.8301005 -8.947039 11.038215
-7.275541 7.2767153 7.4104743 -8.105616 -1.4289119 6.592907 -10.2035475 4.066106
-9.864604 -5.2844124 -0.8953619 -8.550374 10.311476 0.752124 -0.82528085 7.842739
9.408841 0.7863983 10.837165 0.8770514 -5.513335 -8.849645 8.430126 -9.658979
-6.798657 -8.761129 10.082887 11.039612 0.95994693 -5.9868336 0.13814521 12.775521
-7.8618464 12.232611 -5.424551 10.131203 -11.27094 -6.5728383 -4.017491 -4.1275153
-5.7584877 7.8445616 -4.498799 8.157355 6.778755 9.298993 -2.0964968 1.2169704
-7.352597 -9.818842 1.0407823 -2.883435 -7.5648065 -5.5697236 -5.1319337 -5.9557867
00000000: 37f6 a6c0 a482 e140 4c75 1441 bcd4 abc0
00000010: bb4d 2ec0 ede8 cbc0 10a9 9b40 8e00 b3c0
00000020: b688 b5c0 631b cd40 a194 3f3f 31d7 32c0
00000030: e171 01c1 a649 0d41 e031 ab3f 5664 2141
00000040: 5068 3541 1503 0341 2bf0 09c1 2557 93c0
00000050: f863 e3c0 339e 1b41 0997 1341 719a 9140
00000060: 5f18 89bf ddab 1ac1 15b9 33c0 ce09 d140
00000070: 102b e5c0 8dc3 a540 a4b0 4a40 0a0d 9440
00000080: 3656 39bf 7d13 c3c0 1fc4 cf40 3b83 08c1
00000090: e00b c4c0 70d9 ccbf dc3e d140 b47e 1941
000000a0: b9d3 9140 5c4a 8b3f 0013 3140 e72f 713f
000000b0: 38f6 fd40 aabb 13c1 8eb7 e340 94e3 3bc1
000000c0: 974a 6f3f b61a bd40 cd1b 23c1 4040 df40
000000d0: 4f70 1841 8e12 98c0 f412 bbc0 54fe f9c0
000000e0: 12cb 0a41 3ff6 2fc1 32bb 0c41 7996 e740
000000f0: cee9 a3bf a307 5dbf d21c a640 a452 5a3f
00000100: 5a40 0241 deaf 55c0 8124 c2c0 4e5a a340
00000110: b99f eac0 bbb8 4d3f db54 783f 3bc6 f840
00000120: 84d4 f1c0 304e f540 7aeb e1c0 8fa5 93c0
00000130: b459 3741 270d edc0 edca 57c0 4c3a b9c0
00000140: 0bce 3c40 4013 103e 3d0c fe40 bf19 e840
00000150: 2602 9fc0 6ac8 0c41 0233 4441 dfd2 c7c0
00000160: 2b38 c840 ef18 d7c0 8e71 3d41 cdf9 83c0
00000170: 367e ec40 4c56 1a41 2dc2 593f 2733 0cc1
00000180: 756d 0e41 45b2 02c1 d8d7 aac0 349a b13f
00000190: eaba b5be 9e78 ddc0 06e9 25c1 f66a 8140
000001a0: a6b2 37c1 38f0 e3c0 ad51 0041 7ba4 10c1
000001b0: 821a b3bf 7483 0441 bc56 82bf 9264 eec0
000001c0: ad29 2641 2011 a140 4830 eb40 2725 e9c0
000001d0: 4fe9 1b41 9c5c 09c1 292b 9cc0 00e8 98c0
000001e0: f8fb a93f 8684 2241 ea7d 9e40 e9ea 06c1
000001f0: e6f8 06c1 61ef da3f e992 ca40 3c49 e340
00000200: a480 4441 417a 1041 7c9e 6d40 8669 0d41
00000210: dc9d 8c3f a285 74c0 3961 a5c0 f135 a3c0
00000220: 5281 d5c0 06ef 95c0 7b12 1141 985c 5940
00000230: 62d9 3b41 7079 ee40 f577 96c0 631b e140
00000240: 20d1 0ac1 ab31 be40 cb4b 0041 9be2 873f
00000250: c1fb 35c1 ffab e3c0 bcc7 abc0 913f e6c0
00000260: 888e 8ebf 0d8e bcbf 55a6 19c1 8421 7040
00000270: 7037 e640 cc5d ffc0 8456 3240 0d35 1241
00000280: 1503 d3c0 efde b9c0 9647 16c1 f35e 40c1
00000290: fe9f abc0 6771 0041 7bfd 83c0 970c 0b41
000002a0: 91b5 82c0 a50c eb40 7d0e c140 8108 0041
000002b0: d0df f040 6cd9 e040 9772 cd40 5245 2cc1
000002c0: 4739 4c3f 8076 d2c0 c3f0 08c1 4c99 c5c0
000002d0: 3784 f4be b0d7 ad3e dbe4 1cc1 dbf4 ed40
000002e0: e1b0 0241 e03c 3941 d134 0241 97bf ba40
000002f0: 57cf f5c0 e0b6 e3c0 8465 0341 70a8 b7c0
00000300: 04a9 1fc1 da31 2641 cc45 8140 b28e 21bf
00000310: 423b 453f 5e20 75c0 1227 0fc1 879c 3041
00000320: 3bd1 e8c0 dada e840 9b22 ed40 9ab0 01c1
00000330: 96e6 b6bf 18f9 d240 bb41 23c1 8a1d 8240
00000340: 6bd5 1dc1 e819 a9c0 7036 65bf 55ce 08c1
00000350: cefb 2441 338b 403f 9b45 53bf b8f7 fa40
00000360: 9d8a 1641 6651 493f 0765 2d41 7186 603f
00000370: 3e6d b0c0 2598 0dc1 cce1 0641 2e8b 1ac1
00000380: 998e d9c0 962d 0cc1 8153 2141 40a2 3041
00000390: 15bf 753f 2494 bfc0 f075 0d3e 8968 4c41
000003a0: 3f94 fbc0 c6b8 4341 ec95 adc0 6819 2241
000003b0: c555 34c1 b154 d2c0 498f 80c0 9b14 84c0
000003c0: 8845 b8c0 a606 fb40 29f6 8fc0 8784 0241
000003d0: 90eb d840 adc8 1441 012d 06c0 b0c5 9b3f
000003e0: 7a48 ebc0 fa19 1dc1 5b38 853f 338a 38c0
000003f0: e512 f2c0 2d3b b2c0 cd38 a4c0 ce95 bec0

linear.3.bias f4 [64]
0.50472534 0.34789062 0.68398416 0.36971188 0.4282648 0.41811353 0.20280999 0.3333253
0.2232672 0.2961906 0.23915642 0.15680455 0.21915945 0.21067645 0.31393656 0.24662748
0.34657428 0.3571866 0.2945021 0.1873955 0.5983471 0.8070218 0.4662623 0.48855403
0.39539674 0.03489614 0.08244674 0.060689457 0.09522976 0.32065022 0.29282176 0.27879903
0.5363372 0.09728685 -0.0020415746 0.4259414 0.22383232 0.3623392 1.2202063 0.30931953
0.33643317 0.11182557 0.80631244 0.3245105 0.5207983 0.32597136 0.22814816 0.5100038
1.4731905 0.69376725 0.38104796 0.38330787 0.47367036 0.32128152 0.38941494 0.30256987
0.1578258 0.38435933 0.21088326 0.10854823 0.044609398 0.4103435 0.17708528 0.21165822
00000000: ae35 013f b81e b23e 9619 2f3f e04a bd3e
00000010: 8645 db3e fa12 d63e 6cad 4f3e 9da9 aa3e
00000020: 28a0 643e 4ba6 973e 6ce5 743e 5f91 203e
00000030: 566b 603e 91bb 573e 4bbc a03e ea8b 7c3e
00000040: 2f72 b13e 29e1 b63e fbc8 963e 9be4 3f3e
00000050: 472d 193f fb98 4e3f efb9 ee3e c123 fa3e
00000060: 7171 ca3e 41ef 0e3d d6d9 a83d 8295 783d
00000070: d207 c33d 442c a43e bcec 953e bfbe 8e3e
00000080: 654d 093f 543e c73d f0cb 05bb fe14 da3e
00000090: 4d34 653e 8684 b93e b82f 9c3f 215f 9e3e
000000a0: f840 ac3e ce04 e53d 7e6a 4e3f 3e26 a63e
000000b0: 0a53 053f b8e5 a63e ac9f 693e 9c8f 023f
000000c0: 8291 bc3f bb9a 313f b818 c33e ee40 c43e
000000d0: ec84 f23e 037f a43e 6561 c73e 70ea 9a3e
000000e0: 169d 213e bfca c43e c8f1 573e 894e de3d
000000f0: 58b8 363d 8b18 d23e d855 353e efbc 583e

reg.weight f4 [2, 128]
3.589876 -2.791019 1.7930263 -1.9333606 6.4171953 2.6717746 -0.82340556 5.6240945
1.9482054 3.1495178 2.120127 0.064114735 1.7055484 3.8324244 -0.57015574 -1.6152065
1.7941675 2.0241144 3.34852 1.601663 3.592094 2.6524544 4.02604 1.6776141
2.3572261 2.4284437 0.0025701607 4.8595676 -0.21684383 -0.6091539 -1.0069661 5.3457904
4.113883 1.7833898 3.8797576 0.044172004 1.9264237 2.560034 -0.9087849 1.588044
1.6494865 1.749639 0.079826295 2.0590634 -0.7172536 -1.4182949 2.5714707 2.7775192
4.419286 1.9208205 -1.6232198 1.8036197 0.061391976 1.4926782 3.7499187 -2.304448
1.6453135 1.7204252 0.24476999 0.081721306 0.08672026 0.021809464 3.5352073 4.7949405
43.901276 44.66066 42.934155 44.852787 -20.106253 44.715977 44.933468 44.677128
-20.370838 44.7423 44.784378 44.87947 45.068645 44.73819 -20.22868 44.962513
44.222393 44.77849 -20.310722 44.729946 44.734165 -21.134338 44.57772 -20.4882
-20.125343 44.883408 44.837753 44.82541 44.847214 44.607727 44.807224 44.79317
43.92278 44.62087 44.894333 44.769238 44.855656 -20.35316 30.124756 44.744633
44.72792 44.81713 44.47799 44.844593 44.502533 44.767002 44.784546 43.840893
30.006884 44.63589 -20.10034 -20.274008 -20.416214 44.73065 44.056835 -20.04792
44.90191 44.878387 44.769737 44.890617 44.86198 -20.477385 44.90494 44.90414
-0.00193555 -0.0030121189 -0.0055226916 0.09692007 0.002835593 -0.0023531392 -0.012267016 -0.003994538
-0.0006098099 -0.000852087 0.0058992626 0.04567566 -0.0042020776 -0.0015162522 0.0016281498 0.0037473934
0.004178502 -0.0060253846 -0.0003208645 0.01706072 -0.0007415445 -0.009683921 0.0040322295 -0.004519682
-0.002456438 -0.0018486404 0.12600146 3.9558116e-05 0.5189653 -0.00017682253 -0.005341706 -0.002278189
-9.293594e-05 -0.027505148 -0.0012088153 0.028586006 0.003697315 0.004421128 0.0050386097 -0.021477733
8.622985e-05 0.10433254 -0.066364706 0.002091482 0.014379282 -0.0005815569 -0.004331264 -0.00016664997
0.0024615682 0.011301809 -0.0006617966 0.0021508574 0.14154385 0.014857754 -0.00059399183 -0.0040182816
-0.040799186 0.0026489631 -0.324431 -0.008822741 -0.07831127 -0.15312755 0.005995943 0.0025452476
0.008588543 0.003724714 0.00059916876 -0.0006234289 0.0039907373 -0.0013565818 0.0039044272 -0.010943523
-0.012708965 -0.001160689 -0.013352611 0.007703018 0.0058135022 0.005442514 -0.0079936255 -0.0023219178
0.0030208821 -0.011868221 0.0058873487 0.00050803955 0.00027459426 0.0018314131 -0.0077043897 -0.009144084
0.008000059 0.0040552705 -0.005323078 -0.008756009 -0.0017053848 -0.0072229034 0.0053729746 0.011235367
0.011358215 -0.0017297642 -0.0035904383 -0.0068817823 0.0047064144 -0.018512264 -0.00084677164 0.008038542
0.015015864 0.009987725 -0.0010698879 -0.007798903 -0.0042783883 -0.005133024 -0.0039036882 -0.008743036
-2.1553662e-05 -0.008527241 0.008997455 0.022575717 0.018883655 0.0054140408 0.00690843 -0.013310008
0.018642517 0.0051672007 -0.016332306 0.0010457039 -0.0032006348 -0.008627395 -0.0026456306 0.0030612429
00000000: 87c0 6540 0ea0 32c0 e381 e53f 5c78 f7bf
00000010: aa59 cd40 5bfe 2a40 b5ca 52bf 95f8 b340
00000020: cb5e f93f b391 4940 29b0 0740 964e 833d
00000030: 694f da3f 7146 7540 baf5 11bf 16bf cebf
00000040: 48a7 e53f 178b 0140 274e 5640 4b03 cd3f
00000050: dee4 6540 d0c1 2940 52d5 8040 0fbc d63f
00000060: cbdc 1640 9f6b 1b40 2470 283b 9481 9b40
00000070: 4f0c 5ebe 83f1 1bbf 44e4 80bf b710 ab40
00000080: eea4 8340 1e46 e43f f34d 7840 b4ed 343d
00000090: 0d95 f63f 99d7 2340 21a6 68bf 0745 cb3f
000000a0: 6022 d33f 2cf4 df3f f87b a33d b2c7 0340
000000b0: ef9d 37bf b08a b5bf fa92 2440 e0c2 3140
000000c0: ca6a 8d40 72dd f53f abc5 cfbf 03dd e63f
000000d0: 2776 7b3d 1410 bf3f abfe 6f40 137c 13c0
000000e0: a299 d23f e536 dc3f fca4 7a3e 805d a73d
000000f0: 649a b13d c3a9 b23c d640 6240 2770 9940
00000100: e89a 2f42 84a4 3242 93bc 2b42 4169 3342
00000110: 9bd9 a0c1 29dd 3242 dfbb 3342 61b5 3242
00000120: 7af7 a2c1 1df8 3242 3423 3342 9484 3342
00000130: 4b46 3442 e8f3 3242 56d4 a1c1 9dd9 3342
00000140: bbe3 3042 2c1d 3342 5c7c a2c1 77eb 3242
00000150: c9ef 3242 2013 a9c1 964f 3242 d5e7 a3c1
00000160: b400 a1c1 9c88 3342 dc59 3342 384d 3342
00000170: 8c63 3342 506e 3242 993a 3342 352c 3342
00000180: edb0 2f42 c57b 3242 cc93 3342 b313 3342
00000190: 316c 3342 46d3 a2c1 80ff f041 81fa 3242
000001a0: 64e9 3242 be44 3342 76e9 3142 dd60 3342
000001b0: 9802 3242 6911 3342 6023 3342 135d 2f42
000001c0: 190e f041 278b 3242 7fcd a0c1 2b31 a2c1
000001d0: 6854 a3c1 30ec 3242 333a 3042 2462 a0c1
000001e0: 8e9b 3342 7883 3342 3614 3342 fe8f 3342
000001f0: ab72 3342 afd1 a3c1 a99e 3342 d79d 3342
00000200: 48b2 fdba f866 45bb b2f7 b4bb 087e c63d
00000210: 5bd5 393b 2037 1abb 98fb 48bc 9de4 82bb
00000220: a6db 1fba 975e 5fba 9a4e c13b 6716 3b3d
00000230: 95b1 89bb fbbc c6ba a467 d53a d496 753b
00000240: d1eb 883b 9770 c5bb b439 a8b9 ecc2 8b3c
00000250: 3664 42ba 4fa9 1ebc cb20 843b d719 94bb
00000260: 31fc 20bb 144e f2ba 8706 013e 34eb 2538
00000270: e9da 043f 7069 39b9 7a09 afbb ab4d 15bb
00000280: 9ae6 c2b8 7a52 e1bc 1c71 9eba 332d ea3c
00000290: a74e 723b 1cdf 903b ec1a a53b 12f2 afbc
000002a0: 4cd6 b438 4cac d53d 38ea 87bd 3f11 093b
000002b0: 1497 6b3c 9f73 18ba 47ed 8dbb c3be 2eb9
000002c0: 4352 213b 392b 393c 6b7c 2dba 66f5 0c3b
000002d0: dff0 103e f06d 733c 1eb6 1bba caab 83bb
000002e0: 0c1d 27bd 3a9a 2d3b d21b a6be 428d 10bc
000002f0: a961 a0bd 78cd 1cbe 9e79 c43b 2bce 263b
00000300: f6b6 0c3c 551a 743b 8911 1d3a 9b6d 23ba
00000310: bbc4 823b 55cf b1ba 6be1 7f3b 764c 33bc
00000320: 4339 50bc 4322 98ba e9c4 5abc 9969 fc3b
00000330: 317f be3b 1e57 b23b b2f7 02bc 512b 18bb
00000340: fef9 453b ed72 42bc a9ea c03b f52d 053a
00000350: 6bf7 8f39 070c f03a 1b75 fcbb 11d1 15bc
00000360: ae12 033c 13e2 843b 376d aebb 5d75 0fbc
00000370: 3887 dfba 1bae ecbb c70f b03b 8b14 383c
00000380: ce17 3a3c 41b9 e2ba 8f4d 6bbb 9380 e1bb
00000390: 4438 9a3b 08a7 97bc e2f9 5dba 17b4 033c
000003a0: 1905 763c 8ea3 233c 7b3b 8cba f18d ffbb
000003b0: b931 8cbb ed32 a8bb 05d5 7fbb f33e 0fbc
000003c0: 23ce b4b7 d7b5 0bbc 106a 133c b6f0 b83c
000003d0: e5b1 9a3c 4468 b13b 1c60 e23b 3812 5abc
000003e0: 31b8 983c 9f51 a93b 54cb 85bc 0010 893a
000003f0: bec1 51bb eb59 0dbc 5162 2dbb 229f 483b

reg.bias f4 [2]
0.67968506 0.4970284
00000000: d7ff 2d3f 827a fe3e
