server/model2/value_model_minmax30.pt (torch, 255287 bytes, 12 tensors)

conv.0.weight f4 [4, 1, 3, 3]
00000000: b871 d33e f982 d8be afea 923f 4655 1a3f
00000010: 0ea9 7b3e c0f6 e63e 4a85 ca3e cb84 20bf
00000020: 1bea 873e 4fbd f2bd 6878 8a3e a5cf 9bbe
00000030: 9bfa 90be f94c a63f 6035 63be 2026 263f
00000040: 7d6e 08bf e72f 863e acd8 b33e 8091 123e
00000050: 70ad 9dbe e9c9 4bbe a08a 113e cbd5 c13f
00000060: e76a 2bbe a739 12bf 1106 7a3e a37c 463f
00000070: 5ac5 7ebf d198 5e3f aaa7 bb3e 4175 61be
00000080: 7787 4b3f d228 deb9 edc2 06be 8bfa 19be
0.41297698 -0.42287424 1.147787 0.60286367 0.24576208 0.4511013 0.39554816 -0.62702626
0.26545796 -0.11852514 0.27044988 -0.30431858 -0.28316197 1.299224 -0.2218833 0.64901924
-0.5329359 0.26208422 0.35126245 0.14313316 -0.30796385 -0.19901241 0.14213037 1.514337
-0.16739999 -0.5711922 0.24416377 0.7753393 -0.99519885 0.8695193 0.36651355 -0.22017385
0.7950358 -0.00042373553 -0.13160296 -0.15036981

conv.0.bias f4 [4]
00000000: 1470 043f 29d6 a1bd 0df3 bb3d 05a1 f23e
0.5173352 -0.07902176 0.09177218 0.47388473

conv.2.weight f4 [4, 4, 3, 3]
00000000: c86c 6f3e e4e7 6b3f aa3f 923e eebd 833f
00000010: 5d26 423e 4e25 dd3e ea09 023e 3dea ab3e
00000020: cb62 8f3d bed3 503f a9ef d83e 7d9e aa3e
00000030: d465 b43f 7a16 3ebf 24b1 4f3e 77c1 85be
00000040: 7ba8 9f3e f299 aebe 6c42 d03e ff9d 163f
00000050: 3fbd 1e3e f455 613f 17f2 86be a270 a33d
00000060: c45b 073e bad6 40be b3cb c23e a301 d13e
00000070: 9c73 c03e 6498 2d3f b174 403f 85a7 823e
00000080: ae00 393f 34ed b63e 0085 1d3f 3d86 213d
00000090: f551 bf3e c0c0 cfbd c661 32bf 89fa e83e
000000a0: 739c 5a3e 088a 9cbe 5881 d03e 5a4d 053f
000000b0: 4494 f4bd a8ca bcbe 2391 9c3e 03ec 88bf
000000c0: 58a6 85bd bf3d 4a3f e0dd ca3e c3ae 72be
000000d0: bf30 e7bc 15ba cdbe d718 083e ae81 b6bd
000000e0: 56ac 8abb 4e9b a93d 2dae e2be df29 f6bf
000000f0: 83c4 46be a276 8dbe 9d7a dd3e 7742 0e3f
00000100: c613 2bbd 4715 81be 0cc3 f73e 3007 183f
00000110: 4671 bfbf edc0 d93e 8472 6b3f 2e30 48bf
00000120: 5fdd 2e3f 67f2 893e 449b 953e ec3b 343f
00000130: e5b9 e73e 43f0 90be c267 143f 7e61 883e
00000140: bf26 153f bccb 8c3f 3f5e be3e 19d5 fbbe
00000150: 8328 063f 1fe7 eb3d 553f 2ebf f81a 4cbe
00000160: c0a4 0dbd d179 553e 4fb7 363f f485 063f
00000170: aa5c adbf 3eae 4d3e 5cc0 d63d 4ddf cbbd
00000180: f373 db3d 3ecb a7be 0e5a 5ebd c0c4 553f
00000190: b49f c43d 74cc fbbe e66f e83e c284 1d3f
000001a0: 9b29 2a3f 4c79 093f b660 8f3e 0338 8b3e
000001b0: 142b 973d aaa5 823f 0548 89bc adae d03e
000001c0: 8e15 873e b339 c33e b74b 8c3e fbfd d33e
000001d0: 19c6 8b3e 50a2 073e 77ae 0c3f c713 d13e
000001e0: a91e d73e 2481 1d3e 32a7 41be 39e8 d53d
000001f0: ad41 37be 9947 d43e b3f5 883d 8a2e 273f
00000200: e80b 49bf fd1d e83e 4017 d63d 36d4 5abe
00000210: 5b95 9d3d 4a9c ebbc 2c01 7739 7096 d43d
00000220: b1b1 073e cad6 e83e 03fc f63e 634a 963e
00000230: 5fa9 423f b699 183e 4eec be3e efe6 a03e
0.2338134 0.9215071 0.28564197 1.0292337 0.18959947 0.43192524 0.12699094 0.33577147
0.07001265 0.8157309 0.42370346 0.33324042 1.4093575 -0.74253047 0.20282418 -0.26124164
0.31183228 -0.34101826 0.40675676 0.5883483 0.15501879 0.8802178 -0.26356575 0.079804674
0.132186 -0.18831912 0.38046035 0.4082156 0.37588203 0.67810655 0.75178057 0.25518432
0.7226666 0.35727847 0.61531067 0.03943466 0.37367216 -0.10144186 -0.6968044 0.45503643
0.21348743 -0.3057406 0.4072368 0.52071154 -0.11942342 -0.36873364 0.3057948 -1.0697025
-0.06525868 0.7900047 0.39622402 -0.23699479 -0.028221486 -0.40181032 0.13290726 -0.08911453
-0.00423197 0.08281575 -0.4427351 -1.9231528 -0.19410901 -0.27629572 0.4325761 0.5557017
-0.041766904 -0.25211546 0.48390996 0.5938597 -1.4956443 0.42530003 0.9197161 -0.78198516
0.68306535 0.2694275 0.2922002 0.70403934 0.45259014 -0.28308305 0.5797082 0.2663688
0.58262247 1.0999675 0.3718128 -0.49186018 0.52405566 0.11518692 -0.68065387 -0.19932163
-0.034580946 0.2084725 0.71373457 0.52548146 -1.3543904 0.20086 0.104859084 -0.099547006
0.10715475 -0.3277225 -0.0542851 0.8350334 0.096007735 -0.49179423 0.45397872 0.615307
0.66469735 0.5370071 0.28003472 0.2719117 0.073812634 1.0206807 -0.016757974 0.40758267
0.26383632 0.3812996 0.27401516 0.4140471 0.27299574 0.13245511 0.5495371 0.408354
0.4201558 0.15381294 -0.18911436 0.104446836 -0.17896147 0.41460875 0.066874884 0.6530539
-0.7853379 0.4533538 0.10453653 -0.21370015 0.07694503 -0.028761048 0.00023556192 0.10380256
0.13251378 0.4547637 0.48239145 0.29353628 0.7603969 0.14902386 0.3728966 0.31426188

conv.2.bias f4 [4]
00000000: 6fa8 8f3e 864d 853b 9d65 493e 2266 ab3c
0.28058192 0.0040680794 0.19667669 0.020922724

conv.5.weight f4 [64, 36]
00000000: dc46 e6bc 57e1 883c 2a35 5b3d 143a 9dbe
00000010: a3cf 15bd 2f17 46bd 7541 083e 17b7 fcbd
00000020: 2024 58bd 4c46 dd3e 5654 49bf a5be 5f3e
00000030: 34e3 1d3f 2a9c 85be 2590 dc3d dc6c b1be
00000040: d1a3 b33d abc6 ff3c e1d6 08be 6b97 d8bd
00000050: fa05 003e 76b3 f63b 597e f9bd 646b 673d
00000060: 7c51 b63d 7800 12bd 5606 d7bc 2e76 4fbe
00000070: bd8f 0a3c 45fe aa3d e5c3 a5bd 79b7 263c
00000080: 3a67 943d b13d 21bd 58d1 fcb9 dd3e 7f3d
00000090: 2cbf 9abd b0d2 60be 1fde 6fbe c932 3b3d
000000a0: b574 423e 97d7 d83e e673 34be ffd2 0ebe
000000b0: a322 043e 5027 efbb 80bb f1be 5e86 a6be
000000c0: 4a2b f7bc d201 9f3e 4a7f 08bd 0939 383d
000000d0: 1369 f83d 428f 76bf fa9c adbe df9b 8dbd
000000e0: 0e3f d83d b0c9 063e e63c b53d 0eef 283e
000000f0: 9d67 163e ff70 623e dabc 2dbf 238a aabe
00000100: 973c 5f3d f885 b7bd 1fbc 913e 9cde 1d3d
00000110: 533d e9be 974b 7fbd 18ce 5a3d 57c0 3abf
00000120: e3da e2be 3e9d 173e 0e00 1a3f cfd2 98bd
00000130: 85d9 f3bd ef88 b03d 3965 1c3d ed3e 263e
00000140: 4416 f13e 213e 28bf e40a 073e 9999 033e
00000150: b776 543d 1d04 c33e 9125 183f b116 e43e
00000160: 76c2 6a3d 644d 103e 0cdd 34bf 6919 32be
00000170: 0cf3 77bf adf5 3f3f 0988 123e edd3 093f
00000180: 820c 863f bd09 7abd 3af4 6e3e 2338 933f
00000190: bf2d 2d3e b536 493e a403 133f 58ea 46bf
000001a0: 66ca 23bf 7372 b73b 95bf 21bf 094e ba3d
000001b0: 083a 833e 7ab1 9e3d 5e25 16bf 87c6 d73d
000001c0: 0877 12bd 2be9 9fbb 1529 eebc 4b04 debd
000001d0: 4529 fb3d b342 2bbe 6172 503e 4d09 de3e
000001e0: 8845 32bd 3c01 6dbd 92d7 27c0 c81a 563e
000001f0: 0f37 923d ede6 063f de8f 013d 4f28 75be
00000200: c2a5 603e 8a6e 73be 31c8 06be d170 eabf
00000210: aa8e 18be 10c7 9a3d 7dfb 0540 ba87 39be
00000220: 2b69 41bd 4d14 19be 351a e13d e43e 71bd
00000230: b6a5 00bd 0e66 84bd 9750 ee3c 3c5b 273e
00000240: 6c4b 1c3e 4f54 bf3e c97a 7abd c9b5 96bd
00000250: 53f5 9a3c 18c4 a53e 0c8a 2bbf 483d a1be
00000260: b3ca e93e 6cc3 dbbe defa 353f 08f4 b6bd
00000270: a72c 92be 9421 1b3f f874 22bf c6c7 933e
00000280: 7628 083f 2460 d1be 4a2f 69be c527 e7bd
00000290: 6c42 633e 0a7c a0bd 2974 4b3e 087c 99be
000002a0: c2de b93e 4e1c 3b3f 2fcd 92be 72bd 2c3e
000002b0: e175 c13e 04b2 c93e 315f a53e e6e4 97be
000002c0: c3f6 8abf ded3 d83d a6b5 1ebe 10d6 4abf
000002d0: 9562 cf3e 85c7 743e 105d 3c3e 467d 97be
000002e0: ee31 ca3e 6dd2 793d 86d7 babe 7eb3 02be
000002f0: 17c8 5b3f 18ef 5abe 4566 8c3e 9c47 9dbf
00000300: 0c2d d3bd 133d fc3a ca90 e7be c51b 18bf
00000310: fb26 10bf ee97 41be 855f 04be 1892 003e
00000320: c6a1 143f 83d0 403e 8e65 06bb 72c2 1d3e
00000330: 90d8 d03e 5622 70be 7651 103f 0d45 19be
00000340: 0f04 be3d 1546 f93e bfa1 e43c b4b7 0bbd
00000350: 9660 cfbe d502 16be 792d 6e3c 912b 013f
00000360: 0e25 073d f590 833e b2d1 5b3e 32ec 323e
00000370: ec6e fa3e a2b9 d63e baed 593e 4f81 283e
00000380: 87b8 583d 5f4a ce3e c02f 49bf c904 003f
00000390: 0d10 953d 0069 04bf 1068 793f 2605 923e
000003a0: 99b3 953e 17b7 d23d a562 0a3f c19b 0e3f
000003b0: 7d93 9a3e 1909 833e b59c 823e ca29 503f
000003c0: 733a 703c 7270 763e c444 16bf 631c e83e
000003d0: 5b27 323e 83cb 553e 7d44 303e f96e a33e
000003e0: 8e4b 243f e0fb 303e a302 ae3e 2f1e e93d
000003f0: cfad de3e 7481 813e f3a1 fdbd e3c2 4ebd
-0.02810996 0.016709013 0.053517498 -0.30708373 -0.03657497 -0.048361953 0.1330622 -0.12339609
-0.052768826 0.43217695 -0.7864431 0.21850069 0.6167481 -0.26095706 0.10769681 -0.34653366
0.0877148 0.031222662 -0.1336322 -0.10575756 0.1250228 0.0075287176 -0.12182302 0.0564989
0.08902261 -0.03564498 -0.026248138 -0.20259926 0.008457121 0.08349279 -0.080940045 0.010175579
0.072462514 -0.039365474 -0.0004822116 0.06231581 -0.075559944 -0.21955371 -0.23424576 0.04570273
0.18989833 0.42351982 -0.17622337 -0.13947676 0.12903838 -0.0072983876 -0.47213364 -0.3252439
-0.030172009 0.31056076 -0.033324517 0.044976268 0.12129416 -0.96312344 -0.33908826 -0.06914496
0.10558902 0.13162875 0.08849506 0.16497442 0.14687963 0.22113417 -0.6786629 -0.33308515
0.054501142 -0.089610994 0.28463838 0.038542375 -0.455546 -0.062327947 0.053419203 -0.7294974
-0.44307622 0.14806077 0.60156333 -0.074620835 -0.11906723 0.08619868 0.03818247 0.16234942
0.470873 -0.657198 0.13187748 0.12851562 0.051871028 0.38089076 0.5943232 0.44548562
0.05731436 0.14092022 -0.7064979 -0.17392506 -0.96855235 0.74984246 0.14309706 0.53839
1.0472567 -0.061044443 0.23335353 1.1501507 0.16911982 0.19649775 0.5742743 -0.7770133
-0.6398071 0.00559836 -0.63182956 0.09096915 0.25630212 0.07748695 -0.5865077 0.10535913
-0.03575805 -0.0048800907 -0.029072324 -0.108406626 0.12263731 -0.16724662 0.20356132 0.4336647
-0.04352334 -0.057862505 -2.6225324 0.20908654 0.07139408 0.52696115 0.031631343 -0.23941158
0.21938232 -0.23772636 -0.13162304 -1.8315679 -0.14898172 0.075574994 2.0934746 -0.18118182
-0.047219437 -0.1494915 0.10991327 -0.058897868 -0.031408034 -0.06464778 0.029091163 0.16343397
0.15263146 0.3736901 -0.061152253 -0.073588915 0.018915808 0.3237617 -0.6700752 -0.31492066
0.4566246 -0.42922533 0.7108592 -0.08933264 -0.28549692 0.6059811 -0.6345973 0.28863353
0.5318674 -0.40893662 -0.22771946 -0.11286882 0.22193307 -0.078361586 0.1986853 -0.2997744
0.36302763 0.73090065 -0.28672168 0.16869143 0.37785247 0.39393628 0.32299188 -0.29666823
-1.0856556 0.105872855 -0.15498981 -0.79232883 0.405049 0.23904236 0.18394876 -0.29587764
0.39491218 0.060991693 -0.36492556 -0.12763783 0.8585219 -0.2138027 0.27421775 -1.2287478
-0.103113264 0.0019244276 -0.45227653 -0.5941737 -0.5630948 -0.18905613 -0.12927063 0.1255573
0.58059347 0.18829541 -0.0020507309 0.15406206 0.40790224 -0.23450598 0.563743 -0.14967747
0.09278118 0.4868628 0.027909158 -0.03411074 -0.40503377 -0.14649518 0.014537209 0.504571
0.032994322 0.2569653 0.21466711 0.17472914 0.48912752 0.41938502 0.21282092 0.16455577
0.052910354 0.40291116 -0.78588486 0.500073 0.07278452 -0.5172272 0.9742441 0.28519553
0.29238585 0.10288828 0.5405677 0.5570641 0.3019065 0.25592878 0.25510183 0.81313765
0.014662373 0.24066332 -0.5869868 0.45334157 0.17397825 0.20878415 0.17213626 0.31920603
0.6417779 0.17283583 0.33986387 0.1138271 0.4349198 0.25294077 -0.12384405 -0.050478827

conv.5.bias f4 [64]
00000000: 0bfb 4cbd 3429 93be 10d0 27bf 74be 65be
00000010: f60d 9dbd 640b 4abe e6a3 043f b959 e13d
00000020: 74b8 f2be 9e50 2cbe f123 11bf a1e4 54c0
00000030: c7a2 0cbf 2b5d 34bf c85b 1d3e 9845 06bf
00000040: 2653 9c3d 0c33 1dbf 7ada 2dbf ff61 5b3d
00000050: 2741 4fc0 6824 debe 2fa1 c9be 9765 d0be
00000060: fa2e 37bf 2827 28bf 7341 20bf 05f4 3cc0
00000070: 38e3 bcbe 94ee a7bd 8528 773f ba02 21bf
00000080: ba70 13bf a52b 74bd 8743 1dbf 2bd8 54be
00000090: 905d d8bf 646d 48c0 ab79 193f 2ac3 d63c
000000a0: b956 1d3d b6bd 8bbd 9736 1abe 1580 bebe
000000b0: 0d9b 903e 648c 17bf c0dc 2bbf 2979 b63e
000000c0: a0f4 1cbf 7b4e 1dbf 875d 7bbe 11ed 9ebe
000000d0: 4b25 19bf 3a1e a7be 677d babc 0988 f4be
000000e0: 9f44 2abe 5a2d ed3b e70e 55bf 4e54 b3be
000000f0: 1c93 42bf b759 1ebf 1ef1 27bf 87df f3bd
-0.0500441 -0.28742373 -0.65551853 -0.22435933 -0.076686785 -0.19730908 0.5181259 0.11003441
-0.47406352 -0.16827628 -0.5669547 -3.3264544 -0.5493588 -0.70454663 0.15367043 -0.5244994
0.07633047 -0.61406016 -0.67911494 0.053560253 -3.2383516 -0.4338715 -0.39380786 -0.40702507
-0.71556056 -0.6568475 -0.6259987 -2.9523938 -0.36892104 -0.08199802 0.965462 -0.62894785
-0.5759388 -0.059611935 -0.61431164 -0.20785587 -1.6903553 -3.1316767 0.59951276 0.026216108
0.038412783 -0.06823294 -0.15059887 -0.37207094 0.28243294 -0.59198594 -0.6713371 0.35639313
-0.6131077 -0.61447877 -0.24547397 -0.31040242 -0.5982253 -0.3264025 -0.022764875 -0.47760037
-0.1662774 0.0072380723 -0.83225864 -0.35025257 -0.7600572 -0.61855644 -0.6560229 -0.11907869

linear.1.weight f4 [256, 169]
00000000: 0047 c13b 3ae0 203d 0a75 723d 1ebe 5d3d
00000010: a826 d1bc b62c b5bc 740c 013d 34d2 1d3d
00000020: c657 563d 475a aabd b87c 783c 706a 39bc
00000030: f0d2 033d b6df 463d 40e9 09bb f851 6fbc
00000040: 9095 ce3b 54ef 34bd c052 9abd 40b7 aabc
00000050: dd5c 973d 34e2 0bbf 9cb0 903e f05f 4e3c
00000060: 9471 82bd 78bb 86bd ec2a 8bbc 18fd 1c3d
00000070: 4040 d03c 401e 32bb c4f8 f33c 802c 2bba
00000080: 2a2a 36bd a934 a93d a998 f2be a9c1 febe
00000090: 64ab a03c 10bd ab3c d471 2ebd 2eb0 7e3d
000000a0: 9ccb 323d dc49 64bd 154d be3d 877b ff3d
000000b0: 79e0 f23e d4e0 363f bbba 123e 8d88 05bf
000000c0: 48c4 383e b56a 0cbf 2f62 3c3e 5a67 a03e
000000d0: 3e54 253d 9219 4d3d d8b2 04bc f071 223e
000000e0: 52d4 0ebe 220a 413f bb26 2c3f a698 943e
000000f0: a26c 19bc 4b59 fbbe a462 3dbf c5d8 b4bb
00000100: d2d9 53bd a232 d3bc 96b6 41bd 25f9 1dbd
00000110: 64fc acbe 2782 e7be 731a 003f 5e4f 073f
00000120: dc5a 9d3f ce09 f03e dc9c 893f 7833 61be
00000130: 8a1f 58bd 80c3 013d 6466 ed3c 60d0 12bd
00000140: 40fe e83c f996 0e3f 60a0 bbbd 40fe 99be
00000150: cb4a 91be 20b6 c5be dbd6 efbe 766f e43e
00000160: 4656 213d 2edd 4f3d 54a2 08bd 8598 11bd
00000170: 7aa6 99bd d62b 78be 781c 94be 2ec4 4f3e
00000180: d257 063f d4c9 d93d 7fb8 053f 6b6d 97be
00000190: cc5c 6dbe 0e6b 5d3d 40ab 72bd 50d6 8ebc
000001a0: 087e 3fbc d3ec 223e 69b8 9c3e 484a 243e
000001b0: ca6d bfbd e4d0 75be bfad a43d 6eea 1abd
000001c0: ed3c 013f 1725 37bd 30e7 d83c bc3a 3f3d
000001d0: 2446 debc 74d2 d8bd d392 d8bd 7f6e 53bf
000001e0: 9350 8c3d 8b03 c33d ad80 7fbe 3ebb 44be
000001f0: 26f0 9c3e 40d2 f23d feac 3d3d d652 6b3d
00000200: 8832 02bd e180 8b3d 6ecf 4c3d 767b debc
00000210: e72a 823d 98a9 0a3f 9721 833e d15c 99be
00000220: 4a28 18bd 7241 4d3d 183d 2d3c 8092 38bc
00000230: bb6d 00bd 0278 783d f77d 8d3d 6a5a 2dbd
00000240: 28ff 1c3d 2a5b 3c3d bf86 4abf a954 ad3e
00000250: ecf6 e53c 4011 8b3b a012 2b3c 782c 1fbc
00000260: 5471 f43c e663 793d 3695 493d 8a91 033d
00000270: 7497 79bd f89b 903c 4668 3cbd 8841 2b3c
00000280: bc3f 013d 5082 ebbb 9f01 92bd 769f 6a3d
00000290: 9964 49bd e827 b43c 0a4d 4b3d e47e 953c
000002a0: 70d6 1d3d bec3 6d3d 0f80 8ebd d661 8abd
000002b0: 3808 383c 28ba e93c 5d06 8ebd d884 5a3c
000002c0: 7b94 16bd 950b 8bbd b346 bc3e e81c 3c3d
000002d0: 605f 17bb 0621 54bd d41d b6bc 50a8 22bc
000002e0: 1474 a0bc bed6 223d 323c 8ebc 9656 5bbd
000002f0: e6d1 3dbd bb58 803d 6c50 0fbd 74fa 7fbe
00000300: 5912 08bd aced 9a3c e66e 7bbd 1993 75bd
00000310: 7a28 6b3d 80b2 7e3a 6c7f c0bc 400b db3c
00000320: 1b86 1fbd 9062 eebb cc69 10bf 91d2 b83e
00000330: dca8 1c3e 2c26 933c 4029 da3c 8049 4f3b
00000340: a025 8d3b 205c 0f3d e894 8cbc 3352 00be
00000350: 1894 373f 50c7 ea3e f964 fa3c 3f6f bdbd
00000360: 7fd5 0e3f e770 9abe 3467 a63e f0bb 653d
00000370: 0f72 a83d b201 36bd 3cb1 dfbc cdf4 78bd
00000380: 2c7e f4be 8365 163e 4657 8a3e 1c7c 0fbf
00000390: d422 253f 76cb a6be 8e71 b23d 9649 983e
000003a0: 1e0e 0dbf 1e2a 2abd d658 5c3d 8ac4 f2bc
000003b0: b955 46bd 736d d63e 906b a7bc de42 43bf
000003c0: 0ec5 ba3d 12b0 2f3d cb88 b8be 174e 15be
000003d0: 01c0 143f 3bad 27bd 9b37 8a3d 9e96 b1bc
000003e0: 3ef7 213d 76c3 473d 48ca 1a3e 470d 2ebe
000003f0: b2fa 583d a813 ed3e 9d9e 14bd 3e68 32be
0.0058983564 0.03927634 0.05919365 0.054136388 -0.025531128 -0.022116046 0.031506017 0.038530543
0.0523298 -0.08318 0.015166454 -0.011316881 0.032183588 0.04855319 -0.002104357 -0.014606945
0.0063044503 -0.044173554 -0.075353146 -0.020839334 0.07390759 -0.54642034 0.28259742 0.0125961155
-0.063693196 -0.065787256 -0.01698824 0.038327307 0.025421262 -0.0027178675 0.029781707 -0.00065297633
-0.044473805 0.08261997 -0.47382095 -0.49757126 0.019612975 0.020964175 -0.042589024 0.062179737
0.04365121 -0.0557345 0.09292046 0.12474733 0.47436884 0.7143681 0.14329045 -0.52161485
0.18043625 -0.5485032 0.18396829 0.3132885 0.040363543 0.050073214 -0.00809928 0.15863776
-0.13948181 0.75406086 0.672466 0.29022712 -0.009364279 -0.49091563 -0.7397864 -0.005519005
-0.0517214 -0.02578098 -0.04729327 -0.03856768 -0.3378631 -0.45216486 0.5004036 0.5285548
1.2293353 0.4688248 1.0750995 -0.2199229 -0.052764453 0.031680584 0.028979488 -0.035843253
0.028441548 0.55699116 -0.091614485 -0.3007679 -0.28377375 -0.38615513 -0.4684361 0.44616288
0.039388917 0.050748043 -0.033357933 -0.035545845 -0.07502456 -0.24235472 -0.2892797 0.2028968
0.52477753 0.10634199 0.52234644 -0.29575667 -0.2317993 0.054057173 -0.059245348 -0.017436177
-0.011687763 0.15910654 0.30609444 0.16043961 -0.093471125 -0.24005467 0.08040952 -0.037821226
0.5048359 -0.044713106 0.026477426 0.046686873 -0.027133055 -0.10587016 -0.105748795 -0.8259048
0.06851306 0.0952216 -0.2495143 -0.19212052 0.3065197 0.11856508 0.046307556 0.057452045
-0.03178647 0.06811691 0.050002508 -0.02715848 0.06355839 0.5416503 0.25611565 -0.29953626
-0.037147798 0.05011124 0.010573648 -0.011265397 -0.031354647 0.060661323 0.069087915 -0.042322554
0.038329273 0.04598538 -0.79111856 0.33853653 0.028071843 0.0042439997 0.010441452 -0.009715192
0.029839195 0.060886286 0.049214564 0.03212122 -0.060935453 0.017652497 -0.04599788 0.010452636
0.031554922 -0.0071871653 -0.071292154 0.05728098 -0.049168203 0.021991685 0.049634017 0.018248983
0.03853458 0.058048002 -0.06958019 -0.06756942 0.011232428 0.028531149 -0.069348074 0.0133373365
-0.036762696 -0.067893185 0.3677269 0.045926005 -0.002309762 -0.051789306 -0.02223102 -0.009927824
-0.0195866 0.039755575 -0.017362688 -0.05354937 -0.046342753 0.06266924 -0.034988806 -0.24997884
-0.033220623 0.018912159 -0.061385058 -0.059954736 0.05741165 0.00097159296 -0.02349826 0.026738763
-0.038946252 -0.007274933 -0.56411433 0.3609815 0.1529879 0.017962538 0.026630998 0.0031629503
0.0043074638 0.034999967 -0.017160848 -0.12531357 0.7171035 0.45855188 0.030565726 -0.09249734
0.5579452 -0.30164263 0.32500613 0.056087434 0.0822488 -0.04443521 -0.027306192 -0.060780335
-0.47752512 0.14687161 0.2701971 -0.5604875 0.6450627 -0.32577103 0.08713065 0.29743642
-0.55099666 -0.041544072 0.053795658 -0.029634733 -0.048421595 0.41880378 -0.020437032 -0.76273906
0.091196164 0.042892523 -0.36041865 -0.1458057 0.58105475 -0.04093669 0.06748887 -0.021678265
0.03954243 0.04877039 0.15116227 -0.16997252 0.052973457 0.4630406 -0.036284078 -0.17422578

linear.1.bias f4 [256]
00000000: ce4d 29be bf5b a1bc 7a39 8a3d 2be6 533e
00000010: eb50 cdbd a8be 2dbe 6e3e 7d3e 1d88 57be
00000020: d5ed 69be 0058 43bd c818 553e aede 3f3e
00000030: e48c 7a3e 22b3 c3bd 7867 803e 00b7 863c
00000040: 0025 823d 7d1c 1fbe 72da 93bd f4a1 81be
00000050: 61f5 5fbd 5687 59be a060 e4bd 9532 113e
00000060: 436e 06bf 241a e0bd f835 403e cac9 fd3d
00000070: ccba 39be 81a5 013d a97d a0bd 2c5b ac3e
00000080: 670c 3bbf 142d 6ebc 23a0 f63d aba7 803c
00000090: 9ed3 d43d aebf 1b3e c64f 703d 3b98 d3bd
000000a0: d3fc 4a3e 9a1c 4a3f 9c46 d63a 198d cd3e
000000b0: 4db9 063d cd4c 23be 2d4c fe3d 3a49 dbbe
000000c0: 6606 cc3e e358 273e 4f04 993b 6901 2c3e
000000d0: 8029 943d 5130 813d 0880 e73d 4050 a7be
000000e0: b5b6 d1bb 7b3d 6b3d 7f95 f8bd 509a 243d
000000f0: d61c d9be 9c2c 7dbf 0971 853e 5266 fc3e
00000100: 5cc0 403c 4f75 afbc 3513 d6bd 920d 953d
00000110: 4d50 71bd d2ef 2b3f ed60 353f bee3 e0bd
00000120: 08a1 ab3d 891d 5abe 6958 01bd 253b acbd
00000130: 47f1 f4bd 1bfc cebd ec30 883d 2532 5b3e
00000140: a747 023e 8b92 093f e5fb 3b3e bdfb 4ebe
00000150: 4279 7dbe 6927 80be 74a6 6fbd 50ed 943c
00000160: e83a c5be 5604 90be efc7 9abe 6dce 9bbd
00000170: 7a67 403e da7a 0c3e 4e9e 76be 8c55 3e3e
00000180: 4762 b13d 2b1e 953d d5f8 763e 6870 5c3e
00000190: 5a9f a03e bbb8 63bd 66d5 49be 177b 09be
000001a0: e5a4 cebd 25f0 b1bd 8638 71be 269f 2dbe
000001b0: d929 e8be b0ac 08be 4e7d 2bbf 95db 13be
000001c0: d2b8 9c3d 3f26 edbc d32d 11bb 438e 2b3e
000001d0: 3c6f 66bd e021 b0bd 575f 2a3e 732c ecbd
000001e0: 1ed5 9d3e 58f0 ab3c fc59 853d 7e79 2ebc
000001f0: d20a 51be 43de 31be fad5 603d 5600 c6bb
00000200: 4598 68bd 0777 e7bd ed47 f93d 50ba b9be
00000210: bd98 303f 2002 a7bc 9515 50bc dc2c 25bd
00000220: f39b 943d 0640 a1bd dc1e 083e ef1b 823e
00000230: a66f cebd f8aa 093d c7d0 003e ba54 5cbe
00000240: 8d1b 1dbe 63e2 c4bd c92d 8cbd db84 173f
00000250: 3b59 8fbe 7888 123e 6c7e c73e 5f33 80be
00000260: bb57 01bf 031f 15bf 6828 353d 6439 823d
00000270: 997e 2fbd d3f7 c6bd 8b5a e03d f867 203d
00000280: a0ed 38be ebe9 e9bd 99b1 59be b3fc ccbe
00000290: c29b b33d 3e04 da3d a26f 783e d9a8 363d
000002a0: 776a 133d 7ad2 683c fe3a 973d 15e8 3ebe
000002b0: 0f7a 7b3e 0ee4 1b3e 1851 84bd f1a8 8bbd
000002c0: 9e83 e33e cbb9 cd3d 8314 fe3d 0c36 b1bd
000002d0: 471a 97bf ccfa 94bc 946e 4e3e 969e 1d3d
000002e0: 03de 2ebd 48b2 7fbe ddb6 f53d a4b5 d43d
000002f0: 75ec eabe bdb3 32bd accf 10be 09ba d6be
00000300: cb13 623d d31f 25be 7515 0ebe 3c83 07bf
00000310: 36ab 3c3f c913 ddbd 4ede d2be 5c6c 23be
00000320: 3b4d 0b3d 444f 75be 976a 0f3c 8ed9 a9bd
00000330: 5ee2 d7be 5ec2 b2bc b164 36be d24f 9a3e
00000340: 2895 81be eb48 d13d 767d 1ebf 619e 2e3b
00000350: e786 70be cc6c df3e 55dd 3dbf abbd 2f3b
00000360: d088 903d 25e2 1a3e 069f 95be 0256 023f
00000370: 4932 483c 05ba cb3d 49d8 59bd 900f 61be
00000380: 88a4 82be d0dc 25be de6f 043d 2feb 97be
00000390: ed97 933e 8e78 633e eae4 243f dfd1 e9bd
000003a0: 3482 83bd 3347 483c ceb0 74be 81e1 89be
000003b0: 6dac b7be 4a22 bbbe 2d0b 81bd 9d94 c53d
000003c0: c142 21be aa97 ba3c 4e61 463d ea64 1b3d
000003d0: de08 a63d 35d9 dcbb ffad f8bc 8335 d63e
000003e0: 05d8 51bd f89b b7be 1828 973e 9b96 33be
000003f0: 5329 503e 232d 273e 6609 d23c 47cd 84be
-0.16533586 -0.019697068 0.06749244 0.20693271 -0.100251995 -0.16967261 0.24730846 -0.21048017
-0.22844632 -0.047691345 0.20810235 0.1873729 0.24467808 -0.09555651 0.2507894 0.016444683
0.063547134 -0.15538211 -0.072193995 -0.25318873 -0.05467737 -0.21243033 -0.11151242 0.14179452
-0.52511996 -0.10942486 0.18770587 0.12392004 -0.18137664 0.031651977 -0.07836468 0.3366331
-0.730658 -0.014537115 0.120422624 0.01570495 0.10391925 0.15209839 0.058669828 -0.1033177
0.19823007 0.7894989 0.0016347948 0.4014671 0.03289156 -0.15947266 0.12416873 -0.42829305
0.39848632 0.16342501 0.004669703 0.16797413 0.07234478 0.06308044 0.11303717 -0.32678413
-0.006399954 0.05743168 -0.12137889 0.040186226 -0.42404813 -0.98896194 0.260628 0.49296814
0.011764612 -0.021418242 -0.10452882 0.07277979 -0.05891447 0.6716281 0.7085102 -0.109809384
0.08380324 -0.2130033 -0.031578455 -0.084097184 -0.119600825 -0.10106679 0.06649956 0.21405847
0.12722646 0.5373923 0.18357809 -0.20213218 -0.24753287 -0.25030068 -0.05850835 0.018179566
-0.38521504 -0.28128308 -0.30230662 -0.07607732 0.18789473 0.13718739 -0.24083826 0.18587321
0.08661323 0.07281145 0.2411836 0.21527255 0.31371576 -0.055596095 -0.19710311 -0.13425861
-0.10090045 -0.08688382 -0.23556718 -0.16955242 -0.45344427 -0.13347125 -0.66988075 -0.14439233
0.07652439 -0.028948901 -0.0022152558 0.16753487 -0.056258425 -0.08600211 0.16637932 -0.115319155
0.30826658 0.020988628 0.06511304 -0.010649083 -0.20414284 -0.17369942 0.054891564 -0.0060425205
-0.05678584 -0.113019995 0.12171922 -0.36274958 0.6898306 -0.020386755 -0.012700458 -0.040325984
0.072563075 -0.078735396 0.13293022 0.25411937 -0.10079889 0.033610314 0.12579642 -0.21516696
-0.15342541 -0.09613492 -0.0684467 0.59187096 -0.27997765 0.14309871 0.3896364 -0.25039193
-0.5052449 -0.58250445 0.044227988 0.06358603 -0.042845342 -0.097152375 0.1095477 0.039161652
-0.18059397 -0.114215694 -0.21259154 -0.40036544 0.08769943 0.106453404 0.24261335 0.04459462
0.035990205 0.014210338 0.07384299 -0.1864322 0.2455828 0.15223715 -0.0646078 -0.068193324
0.44436353 0.10045203 0.12406256 -0.08652887 -1.1804894 -0.018185996 0.2015937 0.038481317
-0.042692196 -0.24970353 0.11997769 0.10386208 -0.45883527 -0.043628443 -0.1414172 -0.4193881
0.055194657 -0.16125421 -0.13875373 -0.5293462 0.7369875 -0.10794789 -0.4118523 -0.15959305
0.0340092 -0.23956019 0.00875344 -0.082934484 -0.42164892 -0.021821197 -0.17811848 0.30139023
-0.2530911 0.10218986 -0.6191019 0.0026644694 -0.23488961 0.43637693 -0.7416585 0.0026815932
0.07057345 0.1512533 -0.29222888 0.5091249 0.01221902 0.0994759 -0.05318478 -0.21978593
-0.25516152 -0.16197515 0.032333247 -0.29671618 0.28826848 0.22213957 0.64411795 -0.11416983
-0.06421319 0.0122240065 -0.2389557 -0.26929858 -0.35873738 -0.36549598 -0.0630096 0.09647486
-0.15748121 0.022777397 0.04843264 0.037938036 0.0810716 -0.0067397603 -0.030356405 0.418377
-0.051231403 -0.35861182 0.29522777 -0.1753792 0.20328264 0.16325812 0.025639247 -0.25937864

linear.3.weight f4 [64, 256]
00000000: 325c 4cbf d5b3 d03f 7d49 a13f 594e cfbe
00000010: 89a3 c0be 5797 83bf 2649 4d3f 703b 1dbf
00000020: a723 11bf 1fa2 d53f 1f55 ad3e 20dc adbe
00000030: aa5c dcbf 096a d13f 0a1d 443f f36e 0140
00000040: ded9 5c3f b034 843f 1d1a a4bf 18d1 15bf
00000050: 746c 59bf 29b6 d63f 54c9 e73f 678c 563f
00000060: 5cdd f4be bb82 22bf cc95 85be 54a3 e83f
00000070: f42c 66bf 7119 403f f8b3 433f d310 133f
00000080: 7a39 38be 96ea 87bf 0e0e b43f 3cb6 cebf
00000090: 4479 acbf a716 16be 47bc 6c3f 2e5d 1440
000000a0: 7acd 8e3f 507a 193f 7e16 ee3e 3781 ac3e
000000b0: 230f f83f 17d1 d2bf 015c 873f d5d0 89bf
000000c0: e738 ba3e 6f23 0f3f b598 97bf cb31 753f
000000d0: c506 783f b519 babe f6fb 9dbf 91dd adbf
000000e0: 6b93 e83f 206e a7bf 66fc 5f3f 3ad0 593f
000000f0: 1d3c 2abf b816 b7be 3832 753e 0122 f53d
00000100: 5099 d73f 1d96 2bbe ca95 dfbf 15cf 5c3f
00000110: 9fe2 fcbe 81d8 723e 82ac 093f cd31 b13f
00000120: 1217 bebf 2b85 d33f 6b57 acbf ccaf 5bbf
00000130: 604d 9e3f 854b b0bf 9ac7 80bf 94de 8bbf
00000140: 7017 803e 09b4 35bd ea30 a63f 63ff 813f
00000150: 426b 5abf 496b 183f 484c c23e 03cf 8cbf
00000160: dd3c c53f 0d97 2dbf 34f9 de3f b72b 50bd
00000170: cff1 b43f 6c65 db3f 5519 b93d be8c 14c0
00000180: 1a04 703f 5f57 d2bf fc57 5ebf 9617 4a3e
00000190: 2d9c 87be 7c9b a5bf c0a8 c2bf a26b 833f
000001a0: 579a 68bf 3182 84bf 358b d03f e914 e5bf
000001b0: cd85 53bf 4fe6 b83f 053a f8be 78a0 a5bf
000001c0: 7184 1d40 388b 243f 52c7 6c3f 4581 a1bf
000001d0: edb2 d93f a724 d7bf f11f a1bd c719 cbbe
000001e0: 68ba 413f c4e9 b63f 1883 5d3f c43a aabf
000001f0: c67b bebf 2d39 5d3f 5bf5 8a3f f274 a63d
00000200: 9db3 bf3f 472d 223f 85f6 043f 6020 043f
00000210: adbd 1d3f 98a4 0e3e a55b 94bf 5c79 97bf
00000220: 436d 9abf ef46 44bf 6c64 f13f 164d 5e3f
00000230: d073 1040 50df e33f 41cc 85bf b91b b03f
00000240: dc5a d1bf 8133 3c3f 8927 bb3f 6e29 013f
00000250: 8164 c0bf d061 bcbf b9ab 21bf 7dfd 98bf
00000260: 6d7b 06bf ba13 70bf e81c 01c0 2d82 2f3f
00000270: 15f0 bf3f 31e0 09bf 317a 283f 9a47 7b3f
00000280: 9960 b5bf 8fb5 28bf 75d8 bbbf f44e e9bf
00000290: ad5e 86bf 048d 4a3f c692 44bf a23d d73f
000002a0: 6e0a 7f3e ccae 173f c36a a13f 9bfb db3f
000002b0: 599b 923f 74d0 1e3f e4a2 423f e3c6 7ebf
000002c0: fde1 2e3e 9663 ddbf 2821 f3bf 27a8 d1bf
000002d0: f0ae 71bd 8227 553d 2298 d3bf faa5 b83f
000002e0: 4cfb 2540 9442 b73f 9256 d13f 5311 d03f
000002f0: f5db 50bf 29bd 5ebf f7ee 813f 6aee adbe
00000300: 6836 bbbf 66d6 e73f 9b61 7f3f 6ca5 3fbe
00000310: 413d b53e e0e5 7dbf 4d93 0abf 8d11 2d40
00000320: 5c45 94bf 56de ed3f 4b06 0840 68d7 c9bf
00000330: 004e 52bf 884c 8e3f ceea 8dbf 1959 fd3e
00000340: 1ecd d5be 2747 6dbf eb7a b3be 52bc ecbf
00000350: 25f5 103f 196f 8a3e ee9d b7be 64f9 1c40
00000360: e609 0240 4e96 1d3e a09f 1f40 0139 aa3e
00000370: b52b 81bf 8130 19c0 60c2 dd3f 8466 aabf
00000380: b0d5 83bf 1db8 9fbf 5e9f 1040 3aa5 c43f
00000390: 19f7 ee3e 0c5c b2bf a893 96be 7902 0540
000003a0: bf31 86bf 1eb1 ca3f 9197 01bf 75d1 ac3f
000003b0: 477f 88bf 253d 8dbf 0bd4 95bf 1c73 0ebf
000003c0: 916a 9bbf bec9 0a40 98a4 0fbf d0e1 0740
000003d0: 8fc0 9d3f 129b cf3f 1a90 3abe 517c 1b3f
000003e0: 46db dbbf e933 e4be 311f f43e 9201 b9bd
000003f0: 2b76 7ebf 860e 9fbf 4907 97bf b39f 2fbf
-0.7982818 1.630488 1.2600552 -0.40489462 -0.37624767 -1.028056 0.8018974 -0.6141882
-0.56695026 1.66901 0.33854005 -0.33957005 -1.7215779 1.6360484 0.7660681 2.0223968
0.8626994 1.0328579 -1.2820469 -0.58522177 -0.8493111 1.6774341 1.8108315 0.83807987
-0.47825134 -0.6348073 -0.26090848 1.8174844 -0.89912343 0.7503882 0.76446486 0.57447547
-0.17990676 -1.0618465 1.4066789 -1.6149364 -1.3474507 -0.14657079 0.9247479 2.3181872
1.1156456 0.5995226 0.46501535 0.33692333 1.9379619 -1.6470059 1.0574952 -1.0766855
0.36371538 0.5591344 -1.1843477 0.95779103 0.9688533 -0.36347738 -1.2342517 -1.3583242
1.8169988 -1.3080482 0.87494504 0.85083354 -0.66497976 -0.3575952 0.23944938 0.11969376
1.6843662 -0.16756482 -1.7467587 0.8625348 -0.49391648 0.23715402 0.5377885 1.3843323
-1.485079 1.6525015 -1.3464178 -0.8581512 1.2367363 -1.3773047 -1.0060914 -1.09273
0.2501788 -0.044361148 1.2983677 1.0156063 -0.8531991 0.59538704 0.37948823 -1.1000675
1.5409199 -0.6780861 1.7419801 -0.05082294 1.4136294 1.7140326 0.09038035 -2.3210902
0.9375626 -1.6432914 -0.86853004 0.1973556 -0.2648634 -1.2938075 -1.5207748 1.0267222
-0.90860504 -1.0352231 1.6292483 -1.7897006 -0.8262604 1.4445285 -0.48481765 -1.2939596
2.4612086 0.6427493 0.9249164 -1.2617575 1.7007729 -1.680806 -0.078674205 -0.39668104
0.7567506 1.429009 0.8652816 -1.3299184 -1.4881523 0.8641537 1.0856127 0.08127774
1.4976689 0.6335034 0.5193866 0.516119 0.6161755 0.13929975 -1.1590468 -1.1833911
-1.2064594 -0.76670736 1.8858771 0.86836374 2.2570686 1.7802525 -1.0452958 1.375846
-1.6355853 0.7351609 1.462144 0.5045384 -1.5030671 -1.471735 -0.6315265 -1.1952358
-0.5253208 -0.937801 -2.0173893 0.6855801 1.4995142 -0.53857714 0.6581145 0.9815613
-1.4170104 -0.65902036 -1.4675432 -1.822722 -1.0497643 0.7912142 -0.7678646 1.6815684
0.24906322 0.59251094 1.2610706 1.7186159 1.1453658 0.62036824 0.760298 -0.9952223
0.17078395 -1.7296016 -1.8994493 -1.6379441 -0.059004724 0.05203963 -1.6530802 1.4425652
2.593463 1.4317193 1.6354544 1.6255287 -0.8158563 -0.87007385 1.0151051 -0.33970958
-1.4625978 1.8112304 0.9975831 -0.18715447 0.35398296 -0.99178886 -0.54131013 2.7041962
-1.1583667 1.8583477 2.125384 -1.5768862 -0.8215027 1.1117105 -1.1087282 0.4948204
-0.41758054 -0.92686695 -0.35054716 -1.8494971 0.5662406 0.27037886 -0.35862678 2.4527216
2.0318542 0.15389368 2.4941177 0.33246616 -1.0091463 -2.3935854 1.7324944 -1.3312535
-1.0299587 -1.2478062 2.259727 1.5362923 0.46672896 -1.393434 -0.29409528 2.078276
-1.0483931 1.5835302 -0.50621897 1.3501421 -1.0663842 -1.1034285 -1.1705335 -0.5564439
-1.2141896 2.1685634 -0.56110525 2.1231575 1.2324389 1.6219199 -0.18219033 0.60736567
-1.7176292 -0.44570854 0.47680047 -0.09033503 -0.9939906 -1.2426307 -1.1799098 -0.68603057

linear.3.bias f4 [64]
00000000: 88c4 883d 77a0 0cbe 60d7 8c3d 12fd 3fbe
00000010: 0ee0 6cbd 6f1a b4bd 0c98 9cbe b7b7 4bbe
00000020: 1792 a3be 1571 47be f5ac 8abe ffed cabe
00000030: 9ab3 a7be 10f2 afbe 749c 51be 94cb 9abe
00000040: 4121 53be c40b 24be 957c 7ebe 2860 aabe
00000050: 136a 8e3d 7147 303e 20b6 71bb f8e2 a9bd
00000060: 7cc1 e4bd 4682 f9be d8cf dbbe 4ffc f4be
00000070: 898e e0be fc02 56be 064d 8fbe e008 77be
00000080: fc2e ef3d a0ea cebe 20a6 04bf a2ca 9ebd
00000090: f422 acbe c631 29be 1706 8cbe d3a2 4bbe
000000a0: eb11 3bbe c18b cdbe 98a0 883e e009 22be
000000b0: cfe5 6a3d 0644 39be a58f a3be a0d6 b03d
000000c0: 3248 b7bd 7952 f63d c392 f7bd 7310 18be
000000d0: 9cac 99bd 4413 44be cd61 98bd 027b 4fbe
000000e0: b7e6 b8be 77eb 01be 3bcb a8be 027e cabe
000000f0: 3a47 f6be 99dc 0bbe c399 b2be e2a7 a8be
0.0667811 -0.13733087 0.06877017 -0.18748882 -0.057830863 -0.08794104 -0.30584753 -0.198943
-0.31947395 -0.19476731 -0.2708508 -0.39634702 -0.32754213 -0.34364367 -0.20469838 -0.30233443
-0.20618154 -0.16020113 -0.24852212 -0.33276486 0.06953826 0.17214753 -0.0036882237 -0.08295244
-0.11169717 -0.48732203 -0.4293201 -0.47848746 -0.43858746 -0.20899576 -0.27988452 -0.2412448
0.116788834 -0.4041338 -0.51815987 -0.07753493 -0.33620417 -0.16522893 -0.27348396 -0.19886331
-0.18268554 -0.40145686 0.26685023 -0.1582408 0.05734807 -0.18092355 -0.3194553 0.086346865
-0.08949317 0.12027449 -0.120885395 -0.14850025 -0.07503626 -0.19147974 -0.07440529 -0.20261768
-0.3611352 -0.12687479 -0.32967553 -0.3954926 -0.48101217 -0.1365837 -0.34882936 -0.32940584

reg.weight f4 [2, 128]
00000000: 70f5 c33f 07c3 63bf 7031 2c3f 26e3 e0bf
00000010: 8c05 0c3f 9922 623f e42f 2dbf 7033 6f3f
00000020: 4af0 353f f3d6 8b3f 9dcb 803f 964e 833d
00000030: 03aa c23f 66b4 9c3f 8dbd d3be 297a 4fbf
00000040: 51eb d93e b79b 3d3f 12a1 973f 7894 bf3e
00000050: 6bd2 823f 8d81 8a3f 66a2 2d3f 3d2e d33e
00000060: 3a55 873f 86e3 4b3f 2470 283b afe9 373f
00000070: 6403 31be 3793 17bf a9c1 56bf 0103 9a3f
00000080: 930c 3f3f d1ff c03f e4ac c33f b4ed 343d
00000090: 17cc 203f 2a96 293f c077 4fbf 74bf c03e
000000a0: 2edc e33e 16f8 c43f f87b a33d 1474 e33e
000000b0: 2ef2 0dbf fa37 41bf 0498 853f 56ca 7b3f
000000c0: fed6 8b3f a138 403f b78a 67bf 3eab 0e3f
000000d0: 2776 7b3d 343b aa3f 6ce7 db3e 97ea b7bf
000000e0: a853 c53f 99d5 d33e fca4 7a3e 805d a73d
000000f0: 649a b13d c3a9 b23c c380 8b3f 2f22 b13f
00000100: 242d 6240 62ca 6340 35b4 5240 bbff 5d40
00000110: 3a0f e3bf bd6a 5640 ff48 6140 3b28 5b40
00000120: dafa e1bf 4e96 6240 d4db 5a40 e311 5c40
00000130: 7f12 6440 a772 5940 155e dcbf 43b1 6140
00000140: 02a8 5140 d91c 5640 aadd dfbf f822 5b40
00000150: b377 5740 faf1 f5bf cf1c 6240 9e79 e5bf
00000160: 2e6c dbbf 2793 5a40 6f53 5c40 0af7 5940
00000170: 58f1 5740 4d8d 4d40 c517 5d40 d624 5840
00000180: 9239 6340 8d6f 5a40 d51b 5c40 6cd9 5e40
00000190: 3695 5640 c927 dfbf 86ec c73f 19d4 5340
000001a0: 3fc1 5640 b18b 5b40 ebfd 5c40 8eee 5c40
000001b0: 9243 6240 c391 5a40 5f39 5740 67a0 6740
000001c0: b2fd c43f 46f1 5940 5c8a dfbf f16f dfbf
000001d0: 3dd2 e4bf d5ab 5540 85e8 5f40 877d dabf
000001e0: 8fd9 5a40 79ef 5840 e8dc 5840 824a 5a40
000001f0: 15dd 5a40 98bc e3bf aebd 5b40 dcaa 5940
00000200: f820 07bc 990c e2ba 0482 2fbd fc35 d7bc
00000210: 74c3 a23c fb2f 83b9 9303 e4bc 5bb8 ccbb
00000220: 203f 833c 87aa 5ebc 0e02 493b 6716 3b3d
00000230: 1512 23bc 1608 3fbc 020c bb3a 886c 17bb
00000240: fd2e 903a 2a7d 183d 8627 b8bc 3b6a bbba
00000250: aec4 a6bc a588 083d ba46 88bc 4cb6 2e3c
00000260: 47dd 86bc 4241 a4bc 8706 013e 7993 873b
00000270: 9021 fc3e 57d7 20bb 73f0 bcbc 0300 b03c
00000280: 8e1c 2d3e 9ed5 80bc b5a5 2a3c 332d ea3c
00000290: b964 a8bc fb6e fcbb 7b37 fa3c 87c5 5a3c
000002a0: 0627 bb3c 7e46 0e3c 38ea 87bd aa1f 2dbc
000002b0: 24ff c83c 114c 283d 1a22 23bd 1393 3eba
000002c0: 1d8a c7bc 438a f43c 6358 a1bc 5ae0 333c
000002d0: dff0 103e 2d5b d73b 24c3 ebba f55a c43c
000002e0: 6bdd 823b 2e87 ba3c d21b a6be 428d 10bc
000002f0: a961 a0bd 78cd 1cbe 3f10 8fbc 34a4 db3c
00000300: 918a 0c3c 001c fd3b 5ecc 513c c16e 13bc
00000310: 1f3a 473c 361c 773c 75ba 993b e6ae 96bb
00000320: e3d6 a3bc ed9d 6bb9 f500 49bc 970d 143a
00000330: a7c2 89ba ff0a acbb ef20 8ebc 580b 1abb
00000340: 84da da3b 6491 94bc 25a2 babb fdf2 80b9
00000350: f106 d83b 1364 833a 9f3a 0fb8 3bc5 37bc
00000360: 5629 173c ba88 07ba 7301 18bc 50e1 11bc
00000370: d794 a1bb 42bc c3bb d8f7 e3bb ed97 803c
00000380: ec52 623c 9c98 aa3a 4c87 bc39 bcd4 6bbc
00000390: 98cf 913c 9d65 c8bc b347 3b3c 1fdd 8b3a
000003a0: cbd3 7f3c e7e6 103c bbe0 a53a 8091 513b
000003b0: 56e8 01bc ced3 d7bb 1136 2bbc 27ad 93bc
000003c0: f1df efbd 7b5a 8abc 77ad 613b 9821 063d
000003d0: 2ac7 c13c 9753 2b3c a198 243c 2e8b 79b9
000003e0: 1795 ba3c 3e20 bf3b e588 a6bc f648 14bb
000003f0: 6364 debb dd71 d9bb b9b6 87bb 4d2b 14b9
1.5309277 -0.88969463 0.67262936 -1.756932 0.54695964 0.8833404 -0.676512 0.9343786
0.71069777 1.0924972 1.0062138 0.064114735 1.5208133 1.2242553 -0.41355553 -0.81045777
0.42562345 0.74065727 1.184603 0.3741796 1.0220464 1.0820786 0.67825925 0.41246215
1.0572884 0.7964405 0.0025701607 0.7184095 -0.1728645 -0.5920901 -0.8388925 1.2032167
0.7462856 1.5078069 1.5287137 0.044172004 0.62811416 0.6624476 -0.810421 0.37646067
0.4450392 1.538821 0.079826295 0.44424498 -0.5544766 -0.7547604 1.0437016 0.98355615
1.0924985 0.7508641 -0.9044604 0.55730045 0.061391976 1.3299317 0.42949998 -1.4368466
1.5416155 0.413739 0.24476999 0.081721306 0.08672026 0.021809464 1.089867 1.3838557
3.5340052 3.5592275 3.292249 3.4687335 -1.7739022 3.3502648 3.5200803 3.4243305
-1.7654679 3.5404239 3.4196672 3.4385917 3.563629 3.3976228 -1.7216212 3.5264442
3.2758794 3.3455107 -1.7489522 3.4240093 3.3666809 -1.921447 3.5330083 -1.792774
-1.7142389 3.4152315 3.4425924 3.405703 3.3741055 3.2117493 3.4545758 3.3772483
3.5503888 3.4130585 3.4391987 3.4820204 3.352857 -1.7434016 1.5619056 3.3098204
3.3555448 3.430401 3.452998 3.4520602 3.5353742 3.4151466 3.3628767 3.6191652
1.5389922 3.4053512 -1.7464099 -1.7456037 -1.787666 3.3386128 3.4985669 -1.7069558
3.4195287 3.3896163 3.388483 3.4107976 3.4197438 -1.7791929 3.4334521 3.4010534
-0.008247606 -0.0017246186 -0.042848602 -0.026270859 0.01986859 -0.00025022015 -0.027833736 -0.006247563
0.016021311 -0.013590462 0.003067139 0.04567566 -0.009953042 -0.011659643 0.0014270546 -0.002310546
0.0011000332 0.03722874 -0.022479784 -0.0014298627 -0.020357456 0.03333344 -0.016635288 0.01066358
-0.016462935 -0.020050649 0.12600146 0.004137453 0.49244356 -0.0024542415 -0.023063874 0.02148438
0.16905424 -0.01572686 0.010415484 0.028586006 -0.02055584 -0.0077036596 0.030544033 0.013352758
0.022845756 0.008683799 -0.066364706 -0.010566631 0.024535723 0.041088168 -0.039827444 -0.00072698406
-0.02435785 0.029851085 -0.019695466 0.010978783 0.14154385 0.0065721483 -0.0017987234 0.023969153
0.0039936802 0.022769537 -0.324431 -0.008822741 -0.07831127 -0.15312755 -0.017463801 0.026811697
0.008577959 0.007724285 0.012805073 -0.008998574 0.012159853 0.01508241 0.004691417 -0.0045984862
-0.019999927 -0.00022470178 -0.012268295 0.0005647777 -0.0010510281 -0.0052503343 -0.017349688 -0.0023505297
0.006678881 -0.018135734 -0.0056955987 -0.00024595103 0.0065926244 0.0010024331 -3.4148452e-05 -0.011216457
0.009226164 -0.0005170215 -0.009277689 -0.008903816 -0.004931073 -0.00597337 -0.0069570355 0.015697444
0.013813715 0.0013015452 0.00035958958 -0.014393982 0.017799184 -0.024462515 0.011430669 0.0010670758
0.01561446 0.008844114 0.0012655476 0.0031977594 -0.007928928 -0.0065865284 -0.010449902 -0.018026901
-0.11712635 -0.016888848 0.0034435668 0.03274688 0.02365454 0.010456941 0.010046155 -0.00023798339
0.02277617 0.005832701 -0.020328948 -0.0022626496 -0.0067868694 -0.006635888 -0.0041416553 -0.0001413051

reg.bias f4 [2]
00000000: 6db0 be3d bde1 ca3d
0.09310994 0.099063374
