server/model2/value_model_minmax2_noexplore10.pt (torch, 255505 bytes, 12 tensors)

conv.0.weight f4 [4, 1, 3, 3]
00000000: afe8 ae3f f3e6 323f 7c89 1f40 4e2b eb3f
00000010: 2cef 063f 7fa8 da3e a66f c83f b225 86bf
00000020: 309d 893f 04a8 3e3f 9c3c 523f 1e50 8f3f
00000030: e20a 7e3f 16b1 1240 4fd6 76ba f1d3 1140
00000040: 72d9 b5bf 39bc 5b3f 1513 25be a683 3c3f
00000050: 50d3 5b3f 443e 1e3f a306 c43f 36ea 4040
00000060: c543 9a3f 7d26 403f d070 be3f 292f 0940
00000070: 064b a63a d66e 0940 c3e5 f63f 92b5 6e3f
00000080: 49c9 953f b2a3 09bf 920d ad3f 8f04 40be
1.3664759 0.6988365 2.4927664 1.837259 0.527087 0.42706677 1.5659072 -1.0480254
1.0751095 0.7447512 0.8212373 1.1196325 0.99235356 2.2920585 -0.000941609 2.2785609
-1.4206984 0.8583408 -0.1612056 0.7363838 0.8586931 0.6181376 1.5314525 3.014295
1.2051932 0.7505873 1.4878178 2.1435034 0.0012687154 2.14739 1.9288868 0.93245804
1.1702052 -0.53765404 1.3519766 -0.18751739

conv.0.bias f4 [4]
00000000: 2c08 8b3f 17b4 f33e f5de 463f 33dc 863f
1.0861869 0.47598335 0.77683955 1.053595

conv.2.weight f4 [4, 4, 3, 3]
00000000: 1ef3 8b3f 31a3 f43f 31d3 983f d92d f23f
00000010: be85 963f 72c2 ac3f dbe4 3e3f 6c9f bf3f
00000020: 28c2 643f eff3 cb3f 4d1e 8b3f 09fc c83f
00000030: d856 1a40 2a77 f73d e6cc a83f 8ef9 943e
00000040: cebe b73f ac03 123e 6a7c 103f 9d0f eb3f
00000050: 7f4e 873f 91a5 eb3f f677 753f 2dd3 493f
00000060: 3b84 9b3f dddb ec3e 3dfd 913f cb0c c93f
00000070: aaff c13f e412 b33f 5bd9 d73f bec5 973f
00000080: 8648 af3f c12e 903f 824b a83f 5284 2a3f
00000090: e4e3 a03e 41fd 33bf d1fb 3ec0 eabf 973f
000000a0: e88a 5e3f 6bd5 9bbf f7dc aa3f 1999 463f
000000b0: 38b0 0ebf 3db3 3cbf bdcd 483f 497a 11c0
000000c0: 2149 e0bd 2d8c af3f abaa 21bf 0323 29bf
000000d0: e4bf 8abe ff97 6abe fe17 6f3f cdca e73e
000000e0: 223e 1e3d c0f6 193f 56d8 bebe 5d69 50c0
000000f0: 1a3f 093f d84b 14be fa4a 653f 6838 513f
00000100: b961 fcbd b364 a1bf 129c 163f 07d6 c83f
00000110: 9516 6ac0 4733 d83f a286 c53f 948a e1bf
00000120: e778 de3f 8b33 ba3f 1d60 1c3f 6ad4 b23f
00000130: 54d3 943f deeb d13e 47a3 823f 044a 2f3f
00000140: 0752 a13f 6edf 1640 34af c23f 79a1 b53e
00000150: 4fbc b43f 53a6 873f 9e0b c8be 0ef1 e23d
00000160: 42f2 e93e c684 7e3f 14f4 b13f 42f5 ca3f
00000170: 3a83 87bf e4ae 493f e1a0 463f 1d4d f73e
00000180: 01b6 b53e 0bb6 ec3d 7e38 a03d b84a ec3f
00000190: 86ef d43f 6e3e 923e 5d5a bb3f d02d b03f
000001a0: b97f f63f 59df 513f 570e 2a3f 5fc7 fd3e
000001b0: 8a82 4a3f d0f9 ee3f aca6 933e 7a89 c63f
000001c0: 7f2a ab3f 3ef3 493f 3514 843f 3348 9d3f
000001d0: 8579 613f 3ab2 393f efc2 d63f 8396 8f3f
000001e0: 4780 b73f 2b48 d23f 5669 7b3e 8e7f 623f
000001f0: 0e6b 703f f6d2 6f3f 8560 363f a1db 0740
00000200: 805f 52bf 3ecd fc3f 7100 973f 4a8c af3e
00000210: 40e8 2c3f 546d 313f c8d6 cd3e f451 6c3f
00000220: 3b9a 7f3f 0ae4 433f ca94 e63f 7868 bd3f
00000230: a31c b43f f01b 253f 75f9 793f 8511 453f
1.0933568 1.9112302 1.193945 1.8920242 1.1759565 1.349684 0.74567956 1.4970527
0.8935876 1.5933818 1.0868622 1.5701915 2.4115505 0.120832756 1.318753 0.29096645
1.4355104 0.14259213 0.5643984 1.836414 1.057083 1.8409902 0.9588617 0.78837854
1.2149729 0.46261492 1.1405407 1.5707029 1.5156147 1.399014 1.6863207 1.1857221
1.3694007 1.1264268 1.3148043 0.66608155 0.31423867 -0.7030831 -2.9841197 1.1855443
0.86930704 -1.2174505 1.3348683 0.7757736 -0.5573764 -0.73710996 0.7843893 -2.2730887
-0.10951448 1.3714653 -0.63151044 -0.6606905 -0.27099526 -0.22909544 0.93395984 0.45271912
0.038633473 0.60142136 -0.37274426 -3.2564309 0.5361191 -0.14482057 0.8956753 0.81726694
-0.123233266 -1.2608856 0.58831894 1.5690316 -3.6576283 1.6890649 1.5431712 -1.7620416
1.7380646 1.454698 0.6108416 1.3971074 1.1626992 0.41000265 1.0206078 0.68472314
1.2603158 2.357387 1.5209718 0.35474756 1.4119967 1.0597633 -0.39071363 0.11081134
0.4569264 0.99421346 1.3902612 1.5856097 -1.0586922 0.78782487 0.7758923 0.4830102
0.3549042 0.115581594 0.07823275 1.8460302 1.6635597 0.28563255 1.4636952 1.3763981
1.9257728 0.81981426 0.6642813 0.4956617 0.79105437 1.8669987 0.28838098 1.5510705
1.3372344 0.78886783 1.0318667 1.2287658 0.8807605 0.7253758 1.6778239 1.1217808
1.4336022 1.6428274 0.24551901 0.88475883 0.9391335 0.93681276 0.7124103 2.12278
-0.8217697 1.9750135 1.179701 0.3428672 0.67541885 0.69307446 0.40202928 0.9231255
0.9984471 0.76519835 1.8014157 1.4797506 1.4071239 0.64495754 0.97646266 0.7697986

conv.2.bias f4 [4]
00000000: 067f 8d3f 4f9c fa3e a9fa 493f 56b1 293f
1.105439 0.4894738 0.788981 0.6628622

conv.5.weight f4 [64, 36]
00000000: 8d96 02be 5e3d 623b a918 953e 55b7 fbbe
00000010: a29f 133d beb6 7f3e eb9f 693c b7ef 6ebe
00000020: 568c 743e c44c af3f 09ed da3d 14d3 283f
00000030: acc7 8c3f 5dcf 7abf 67c7 cc3e 772e 33bf
00000040: 0adc 94bf d2b1 b7bc 0c07 9dbe a2a6 3bbe
00000050: 9a2a 7d3e 6c38 b9bd a991 b1be 0c0a 003f
00000060: d8ad ddbd 559a 13be 3e4f 8f3e a532 b4be
00000070: ad86 56bd bebf 943e 8771 57be 9411 cfbd
00000080: 94a0 0b3f 61c4 83be 2d72 4cbd 8681 a43e
00000090: 40a3 c9bd 1f71 babe f823 d2be e05d f53d
000000a0: 222e 343e cc8f 0e3f 3a66 2bbe 4e78 12bd
000000b0: 7786 083f d33e b63f 0420 0ac0 bf73 cfbe
000000c0: 8cb1 b8bd 27da a13e 9113 1f3e ec32 b73e
000000d0: 3ed4 e43e 5491 0abf 3fcb 92be 7e4d 66be
000000e0: fda6 68bd 341a 5d3d 67c8 3b3e 193e a43e
000000f0: 7efe 1c3d 9922 673e 1729 13be 8046 a3be
00000100: 27d1 20be 8c3f 94be 0b42 903e 6870 ab3c
00000110: bd2b bcbe 3cfb 12be f784 2f3e 4caf 87be
00000120: 1535 893e 7368 5e3f 5d72 9e3f 442f 183f
00000130: b79a 293f 3d86 263f d473 373f 9a69 673f
00000140: d4f7 503f ad1f 4fbf 5860 1040 455c 433f
00000150: d95a 17bf 8225 a53f b8b3 803f 7de7 a9be
00000160: 4e80 573e 5764 ea3e 5186 33be 878d f33e
00000170: 7b1a b4be 304e b53f 280c 423f f18a a03f
00000180: 4bd2 e23f 187a 573f f62b 193f b2ff e43f
00000190: 6f09 4f3f 6d77 633f 06f6 a03f b93c 20be
000001a0: 5a38 693d 32ef 343f 6cbc 543e 0568 d03e
000001b0: e0be 863e 74b9 c53d fb80 14bf 9e22 dc3d
000001c0: 465a a8bc d26d 013d bf49 1abd 32ab cabd
000001d0: ff16 0e3e d1f5 19be 5b86 543e 4848 e03e
000001e0: 50b8 2fbd 246b a43d 0e2a 26c0 34a8 383e
000001f0: 9d5a 923c f742 053f 1dd9 583d ffc4 5cbe
00000200: c7cd 663e 4be3 72be cc10 dabd 2c67 e6bf
00000210: 5537 2fbe b874 af3d 64d5 0740 b4b4 24be
00000220: 6a4d 17bd 043c 0ebe ef01 e33d 25b9 1dbd
00000230: 0d97 283b 0f77 9ebd d33a 403d a396 333e
00000240: 4386 273f e58a a53e b2b3 e7be 75a7 f63e
00000250: 71fd 333e ba87 83be dd5a 48be 49cd 6f3d
00000260: 6c2c 17bf b224 ebbf f3b1 0b40 d87f 21bf
00000270: 2c8a 82bf 6e10 f43f 7517 a5bf 7894 413e
00000280: ee8b a83f 61cf 9fbf b3a7 3e3e 8e69 eabd
00000290: 6c6d 00be 43d1 e23e 3f29 f43e 9876 84bf
000002a0: 2706 843f 1d13 a03f 0835 b9bf 675d 3a3f
000002b0: 48bd 9e3e 4c08 733d 6313 633f 83da 38bd
000002c0: b3a3 e7bf 37a0 363f b728 6c3e d40d fcbf
000002d0: b163 393f 2955 f83e 515d e93e 8ab4 9c3c
000002e0: 809a 4a3f fb0a 643e 3db9 d33c 4708 883e
000002f0: adae 813f 135f 82be 5050 1840 56dd 88bf
00000300: c5bc 3cbf 0bf8 783f b7d0 6abe 6a57 f8bf
00000310: e9fd 81bf fb3d 87bb 6342 95bc a598 c73e
00000320: b791 403f e0cc 413f dadc 373e 92c9 203f
00000330: 6b91 483f cf2d 8e3e fb4c 3d3f f6f6 e43c
00000340: 86b0 a03e 70a5 3c3f 58bf f43e 4e0a 213e
00000350: 8204 88bd 5b5d 4e3e fe8c 003f 0857 353f
00000360: 4f0a 6dbe 0a29 fd3d 9a49 e23d 3b50 2dbd
00000370: 441b 8b3e ab1f d23e 0cea 76bd 2e50 24be
00000380: f110 403e 654d 8e3f 6269 32c0 ff4e cb3e
00000390: cb93 003f 4875 d4bf dd77 843f 3780 9a3f
000003a0: 1bf3 5f3e f379 873e e701 f43e 2b89 eb3e
000003b0: 4472 873e f999 59bd 2237 193e 4fbd 1a3f
000003c0: 4fdf b2be 3a43 89be 876d fabe ab3a 8e3e
000003d0: 23fc e33d a830 a23d 41fd e1bd 666b 783e
000003e0: 6ed2 fe3e d8af 17be f71a b0bd 6e40 843e
000003f0: 9ba7 ea3e b3f6 4b3e a38f d2be c35d 2b3e
-0.12752743 0.003452144 0.29120377 -0.4916331 0.03604091 0.24972054 0.014259319 -0.23333631
0.23881659 1.3695302 0.10689742 0.6594708 1.0998435 -0.9797266 0.39995882 -0.69992775
-1.162965 -0.022423659 -0.3066944 -0.18325284 0.24723282 -0.09043965 -0.34681442 0.5001533
-0.10824174 -0.14414342 0.27990144 -0.3519489 -0.05237453 0.29052538 -0.21039401 -0.10110775
0.545419 -0.25735763 -0.049913574 0.3213007 -0.098455906 -0.3641443 -0.41043067 0.11980796
0.17595723 0.55688167 -0.16738215 -0.035759263 0.5333018 1.4237922 -2.158204 -0.40517995
-0.090182394 0.3161175 0.15534808 0.35781038 0.44693178 -0.54128003 -0.2867069 -0.22490498
-0.056799877 0.053980067 0.18338166 0.32078627 0.03832864 0.22571792 -0.14371143 -0.31889725
-0.15704785 -0.28954732 0.28175387 0.020927623 -0.3675212 -0.14353651 0.17140566 -0.26500928
0.2679831 0.86878127 1.2378651 0.5944712 0.662517 0.6504858 0.71661115 0.9039551
0.81628156 -0.8090771 2.2558804 0.7631267 -0.59123 1.2902071 1.0054846 -0.33184424
0.21045038 0.45779678 -0.17531706 0.47568914 -0.35176453 1.4164486 0.757998 1.2542402
1.7720426 0.84170675 0.59832704 1.7890532 0.8087377 0.88854104 1.257508 -0.15648164
0.056938507 0.70677483 0.20775002 0.4070436 0.263175 0.09654513 -0.5800931 0.1074879
-0.020550858 0.031598873 -0.037667986 -0.09895934 0.1387596 -0.15035178 0.20754378 0.43805146
-0.042900383 0.08028248 -2.5963168 0.18032914 0.017865473 0.52055305 0.05294143 -0.21559523
0.22539435 -0.23719518 -0.10647735 -1.8000236 -0.17110951 0.08567184 2.1223993 -0.16084558
-0.036939062 -0.13890082 0.11084353 -0.038506646 0.00257248 -0.077375524 0.0469311 0.17537932
0.6543924 0.3233253 -0.45254284 0.48174635 0.17577149 -0.2568949 -0.19565912 0.058545385
-0.5905216 -1.8370574 2.1827362 -0.630857 -1.0198417 1.9067514 -1.2897784 0.18904293
1.3167703 -1.2485162 0.1861866 -0.11445914 -0.12541741 0.4430028 0.47687718 -1.0348692
1.0314378 1.2505833 -1.4469309 0.7279877 0.31003785 0.059334084 0.88701457 -0.045130264
-1.8096832 0.7133822 0.23062406 -1.969172 0.7241774 0.48502472 0.45579007 0.019129056
0.79142 0.22269814 0.025845164 0.26568815 1.0131432 -0.2546316 2.379902 -1.0692546
-0.7372554 0.97253484 -0.22931181 -1.9401677 -1.0155612 -0.0041272617 -0.018220132 0.38983646
0.75222343 0.7570324 0.17955342 0.6280757 0.7834689 0.27769324 0.7394559 0.027949791
0.31384677 0.7368994 0.47802234 0.15726587 -0.06641485 0.201528 0.50215137 0.70835924
-0.23148464 0.12361343 0.11049195 -0.04231284 0.2716924 0.41039786 -0.0602818 -0.16046211
0.18756463 1.1117369 -2.787682 0.39708707 0.50225514 -1.6598291 1.0349079 1.2070378
0.21870081 0.26460227 0.476577 0.46003088 0.26454365 -0.053125355 0.14962438 0.6044511
-0.34935996 -0.26809102 -0.48911688 0.27779135 0.11132076 0.07919437 -0.110346325 0.24259719
0.4976992 -0.14813173 -0.08598893 0.25830406 0.45830998 0.19918327 -0.4112521 0.16734986

conv.5.bias f4 [64]
00000000: c227 fa3d e83a 99be 24ca 4d3d 5948 62be
00000010: d6d8 cd3a 395a 343e a64b 893e c165 1b3d
00000020: 63fe 7e3e 2a4d b43d 2964 253e a1e4 54c0
00000030: 73f2 20bf 6e32 d8be cedb c2bd 045a 20bf
00000040: 389a 313f 5bdf 9fbd c023 20bf 74e6 2b3f
00000050: 0255 51c0 9117 893e 6793 65be b6f5 ac3e
00000060: 42a1 d8bc 6eda 55be 7341 20bf befd 35c0
00000070: a21c c7be c82f a9be 4f1f 373f fd17 05bf
00000080: 90d6 7cbe aa93 d7bd 298e fabe 2bd8 54be
00000090: d690 8ebf 9b0a 2ec0 479b b33e f901 253f
000000a0: 3af2 0f3f f297 eebd 9736 1abe 6cec 7a3e
000000b0: 87ab 083d d9ac 15bf 760e db3c 659a 033f
000000c0: a152 fabe 97ad a13d 9cfe a2be c4fd bd3e
000000d0: 4b25 19bf b07f cdbe 4828 dcbd 0dcc e6be
000000e0: 5852 5abe 7765 1d3f e70e 55bf 4e54 b3be
000000f0: 1c93 42bf b759 1ebf 216e a13d 13f8 29be
0.122146145 -0.29927754 0.050241604 -0.22097911 0.0015704881 0.17612542 0.26815528 0.037938837
0.24901728 0.088037804 0.1615149 -3.3264544 -0.6286995 -0.42225975 -0.09514581 -0.6263735
0.69375944 -0.078062735 -0.6255455 0.6714852 -3.2708135 0.26775792 -0.22419511 0.33781213
-0.026444081 -0.20884106 -0.6259987 -2.8436122 -0.38889033 -0.33044267 0.7153215 -0.5198973
-0.24691224 -0.105262116 -0.48936585 -0.20785587 -1.113795 -2.7193973 0.35079405 0.64456135
0.56228983 -0.11650075 -0.15059887 0.2450425 0.033366706 -0.5846687 0.026740294 0.5140746
-0.48891166 0.07894438 -0.31834877 0.3710767 -0.5982253 -0.4013648 -0.107498705 -0.45077553
-0.21320474 0.6148295 -0.83225864 -0.35025257 -0.7600572 -0.61855644 0.078823335 -0.16598539

linear.1.weight f4 [256, 169]
00000000: 0047 c13b 3ae0 203d 0a75 723d 1ebe 5d3d
00000010: a826 d1bc b62c b5bc 740c 013d 34d2 1d3d
00000020: c657 563d fc6c 483f b87c 783c 706a 39bc
00000030: f0d2 033d b6df 463d 40e9 09bb f851 6fbc
00000040: 9095 ce3b 54ef 34bd c052 9abd 40b7 aabc
00000050: dd5c 973d 5c65 0cbf 22fb c83d f05f 4e3c
00000060: 9471 82bd 78bb 86bd ec2a 8bbc 18fd 1c3d
00000070: 4040 d03c 401e 32bb c4f8 f33c 802c 2bba
00000080: 2a2a 36bd 70d2 ef3e 8416 febe 1d20 09be
00000090: 64ab a03c 10bd ab3c d471 2ebd 2eb0 7e3d
000000a0: 9ccb 323d dc49 64bd 8d17 fbbe 89f1 97be
000000b0: 351c 033f ea56 353f 791d 82be 8b64 5cbf
000000c0: 6b32 ad3d 9626 3fbe 50d1 e3be 532b eb3e
000000d0: 3e54 253d 9219 4d3d d8b2 04bc 287d c73f
000000e0: 6347 51bd 1bc7 c53f 20c1 d23e b226 033d
000000f0: 1cde bfbe 8b54 9bbe dda7 cebc cda5 d4be
00000100: d2d9 53bd a232 d3bc 96b6 41bd 25f9 1dbd
00000110: f6d0 38c0 1a82 50bf 44fd d73f 6bd5 863f
00000120: c085 c53f ef07 b33f 385f 603f 97b2 a13e
00000130: 8a1f 58bd 80c3 013d 6466 ed3c 60d0 12bd
00000140: 40fe e83c 0736 703e 1123 c0be 5b06 903e
00000150: 4b73 4bbf f896 24bf b761 6fbf a66a 4e3e
00000160: 4656 213d 2edd 4f3d 54a2 08bd 8598 11bd
00000170: 7aa6 99bd fe06 bf3e 9045 24bf 1877 b83e
00000180: effc d03f 95f3 113f 13d5 793e 086c 2fbf
00000190: 0915 81bf 0e6b 5d3d 40ab 72bd 50d6 8ebc
000001a0: 087e 3fbc a4b1 82bd 8a94 503f 23b8 993f
000001b0: 25a1 9dbe 2bf2 4e3f b5f5 1d3f 8fa4 6b3f
000001c0: c012 a83e 3118 1a3e 30e7 d83c bc3a 3f3d
000001d0: 2446 debc fe96 143f 6cb9 92bf 992d edbe
000001e0: e413 b6bf 3beb 2bbc 7c7c 67bf a068 c3be
000001f0: a579 42bf b946 e5be feac 3d3d d652 6b3d
00000200: 8832 02bd e180 8b3d 6ecf 4c3d 767b debc
00000210: e72a 823d ec19 ef3e 0e99 ad3f c7b0 b53e
00000220: 4a28 18bd 7241 4d3d 183d 2d3c 8092 38bc
00000230: bb6d 00bd 0278 783d f77d 8d3d 6a5a 2dbd
00000240: 28ff 1c3d 2a5b 3c3d 3912 2b3d 3d60 3540
00000250: ecf6 e53c 4011 8b3b a012 2b3c 782c 1fbc
00000260: 5471 f43c e663 793d 3695 493d 8a91 033d
00000270: 7497 79bd f89b 903c 4668 3cbd 8841 2b3c
00000280: bc3f 013d 5082 ebbb 9f01 92bd 769f 6a3d
00000290: 9964 49bd e827 b43c 0a4d 4b3d e47e 953c
000002a0: 70d6 1d3d bec3 6d3d 0f80 8ebd d661 8abd
000002b0: 3808 383c 28ba e93c 5d06 8ebd d884 5a3c
000002c0: 7b94 16bd 950b 8bbd 6bb3 493f e81c 3c3d
000002d0: 605f 17bb 0621 54bd d41d b6bc 50a8 22bc
000002e0: 1474 a0bc bed6 223d 323c 8ebc 9656 5bbd
000002f0: e6d1 3dbd bb58 803d 364c aa3f 4e53 c53f
00000300: 5912 08bd aced 9a3c e66e 7bbd 1993 75bd
00000310: 7a28 6b3d 80b2 7e3a 6c7f c0bc 400b db3c
00000320: 1b86 1fbd 9062 eebb 9cad f4bf ee08 b53f
00000330: 1c40 abbf 2c26 933c 4029 da3c 8049 4f3b
00000340: a025 8d3b 205c 0f3d e894 8cbc 8875 f93e
00000350: 8966 b13e ed5a 71bf 64c4 7dbe eb86 943e
00000360: 72ff ad3e 1ec0 8fbb 85a5 453f 02a6 77bf
00000370: a975 ce3e b201 36bd 3cb1 dfbc cdf4 78bd
00000380: b099 9bbf d207 ec3e bfb5 c93d e5e9 d3bf
00000390: 4c26 343f 6ae5 87bf 6371 303f 36d9 1a3f
000003a0: 6855 acbf 1e2a 2abd d658 5c3d 8ac4 f2bc
000003b0: b955 46bd bc2c c5be c4b3 afbe e9c4 13bf
000003c0: 41ce 1f3f 8448 213f 2eb7 4a3f 0b99 00bf
000003d0: 5402 983f 3bad 27bd 9b37 8a3d 9e96 b1bc
000003e0: 3ef7 213d 76c3 473d 22a9 ab3f f2e7 3f3f
000003f0: 6663 4dbf 9f1b 973e 7b5c 5a3e ea79 a03f
0.0058983564 0.03927634 0.05919365 0.054136388 -0.025531128 -0.022116046 0.031506017 0.038530543
0.0523298 0.78291297 0.015166454 -0.011316881 0.032183588 0.04855319 -0.002104357 -0.014606945
0.0063044503 -0.044173554 -0.075353146 -0.020839334 0.07390759 -0.5484216 0.09813525 0.0125961155
-0.063693196 -0.065787256 -0.01698824 0.038327307 0.025421262 -0.0027178675 0.029781707 -0.00065297633
-0.044473805 0.4684024 -0.49626553 -0.13391156 0.019612975 0.020964175 -0.042589024 0.062179737
0.04365121 -0.0557345 -0.49041405 -0.29676464 0.51214916 0.70835745 -0.2541311 -0.86090916
0.08456882 -0.18667063 -0.4449563 0.4593149 0.040363543 0.050073214 -0.00809928 1.558507
-0.05109347 1.5451387 0.41162968 0.032019325 -0.37474144 -0.3033794 -0.025226528 -0.41532746
-0.0517214 -0.02578098 -0.04729327 -0.03856768 -2.887754 -0.8144852 1.6874166 1.053388
1.5431442 1.3986796 0.8764529 0.31581566 -0.052764453 0.031680584 0.028979488 -0.035843253
0.028441548 0.2345811 -0.37526754 0.2812985 -0.794728 -0.6429286 -0.93508476 0.2015787
0.039388917 0.050748043 -0.033357933 -0.035545845 -0.07502456 0.37310022 -0.64168644 0.3602836
1.6327189 0.570123 0.24397688 -0.6852422 -1.0084544 0.054057173 -0.059245348 -0.017436177
-0.011687763 -0.063815385 0.8147665 1.2009319 -0.30787006 0.8083827 0.61703044 0.9204797
0.32826805 0.15048291 0.026477426 0.046686873 -0.027133055 0.58042896 -1.1462836 -0.4632385
-1.422482 -0.010493095 -0.90424323 -0.3816576 -0.75966865 -0.4478052 0.046307556 0.057452045
-0.03178647 0.06811691 0.050002508 -0.02715848 0.06355839 0.46699464 1.3562334 0.35486433
-0.037147798 0.05011124 0.010573648 -0.011265397 -0.031354647 0.060661323 0.069087915 -0.042322554
0.038329273 0.04598538 0.041765425 2.833999 0.028071843 0.0042439997 0.010441452 -0.009715192
0.029839195 0.060886286 0.049214564 0.03212122 -0.060935453 0.017652497 -0.04599788 0.010452636
0.031554922 -0.0071871653 -0.071292154 0.05728098 -0.049168203 0.021991685 0.049634017 0.018248983
0.03853458 0.058048002 -0.06958019 -0.06756942 0.011232428 0.028531149 -0.069348074 0.0133373365
-0.036762696 -0.067893185 0.78789395 0.045926005 -0.002309762 -0.051789306 -0.02223102 -0.009927824
-0.0195866 0.039755575 -0.017362688 -0.05354937 -0.046342753 0.06266924 1.3304508 1.5416048
-0.033220623 0.018912159 -0.061385058 -0.059954736 0.05741165 0.00097159296 -0.02349826 0.026738763
-0.038946252 -0.007274933 -1.9115481 1.414335 -1.337894 0.017962538 0.026630998 0.0031629503
0.0043074638 0.034999967 -0.017160848 0.48722482 0.3464854 -0.94279367 -0.24781948 0.29009184
0.33983952 -0.004386916 0.7720569 -0.9673768 0.40324143 -0.04443521 -0.027306192 -0.060780335
-1.2156277 0.46099716 0.098491184 -1.6555754 0.70370936 -1.0616887 0.68923014 0.6048769
-1.3463564 -0.041544072 0.053795658 -0.029634733 -0.048421595 -0.38510692 -0.34316838 -0.57722336
0.62424093 0.63001275 0.7918576 -0.50233525 1.187571 -0.04093669 0.06748887 -0.021678265
0.03954243 0.04877039 1.341099 0.74963295 -0.80229795 0.2951326 0.21324341 1.2537205

linear.1.bias f4 [256]
00000000: 5f25 63bc c861 8d3e 6428 453e c40d 7f3d
00000010: 72af 173e e80f 3bbe 1184 0d3f 03e5 8dbe
00000020: 0933 64be 3663 053d bc3f 0740 acce e23d
00000030: 544a 983e fcc9 993c 55ca 3a3f c16e 763d
00000040: 4bc8 833d 6c86 103e fe9a e4bc be91 4ebe
00000050: 7d7f 08be 9a92 353c e8e7 233e 47db a13e
00000060: bf6b 88bf 47d1 aabd c160 7c3e 3663 6a3e
00000070: 030e 86be 8da4 a73e 5a98 fe3d 79cb 033f
00000080: 45c8 a9bf 4a71 a9bc 73de fa3e 83ad fbbb
00000090: b7b8 6e3e 45f4 123e 9a4f 4a3e 517c 8f3d
000000a0: 4ddc b83e c166 f83f 2b6b 603e 2fae 673f
000000b0: 9885 963e 1c7d 34be f8e9 b03e 1c9a 51be
000000c0: cb3d 763f 22c7 7d3e 3a0f 023d 501f a83e
000000d0: 0413 ad3e b476 1c3e 4bf1 6b3e 3662 dbbc
000000e0: bb92 e4ba 823e c6bc 025e 783d 8d04 3f3e
000000f0: d75c 68bf a49d fbbf b0a8 cf3e 2d99 8e3f
00000100: 559e 383e 04db 173e 757a 4a3d 2852 86bc
00000110: a842 193e f1f5 a03f 53df 0540 7dac 19be
00000120: eacd c83c eea1 f0bd 0259 073c 6304 17bd
00000130: 1b8c 0f3d e426 6b3d 82b7 fc3d 0ae3 0f3e
00000140: c478 8b3e 756a 6d3f 8424 cb3e f351 21be
00000150: fee5 80bc 8c62 643e 2576 763e e490 ae3c
00000160: a9b2 04be 993d 86bd 99f6 fbbd e11c e6bd
00000170: 2127 b13e fea6 563e 49b9 a93e d292 9f3e
00000180: 99e6 a73e 3e02 603e 7126 543e def4 9a3e
00000190: 026a d33e 947a 9abd c1fa d2bd 9fa1 0cbe
000001a0: e383 ebbd 32d1 7bbd 4554 64be d848 a5be
000001b0: d15b 76bf f899 cd3d 7a6b 9fbf ea64 91bd
000001c0: c55d 7c3e 2c0b df3d 5a53 3b3e cfe4 423e
000001d0: 2346 b53d c07a f2bd 1518 9f3e d8ab 153d
000001e0: dab0 4b3f 90b0 3e3d d159 693e 95b8 ad3c
000001f0: c37d 98bd 32b7 d1bd 18e7 9d3e dd7d 903e
00000200: 5f02 d0be 318f 01bd ba80 ee3d 4155 d53d
00000210: 8eef da3f 0556 a23e 6032 3cbd be0f 243e
00000220: a335 293d a938 7d3d 4e47 5d3e e5c2 a13e
00000230: 6a4c 013c f9ca 283e 37f9 233e a284 623c
00000240: 07da b9bd d291 363d ffe9 253e d82e a73f
00000250: 1236 2bbe 6c6a 2b3e a556 5a3e 8469 ddbb
00000260: 7507 84bf 5e33 87bf 6eba 4f3e c42a 043f
00000270: 1dc1 143e 5231 97bd 521b 8d3e 7f5e 183e
00000280: a3b6 85bd b59a e73d a784 52be b598 babe
00000290: 18d8 333e 3771 a63d 947c a73e 9533 b73e
000002a0: b63f 9c3d 2d7c 6a3d f544 4a3e cd36 3abc
000002b0: 0cf6 013f 9e60 df3e f3c6 df3d 31f3 f5bd
000002c0: 8f88 943f 1413 b73e 2245 aebd 6a9e 583d
000002d0: 1025 04c0 c050 203f df9a 503e 0c2f 583e
000002e0: 9976 33bd 0411 0dbe 20a1 193e 085b 9f3e
000002f0: 5528 abbe 1d6b 30bd dc75 1fbe 7eb7 c3be
00000300: 1426 a93d f8f5 04be ff00 393e 484d 21c0
00000310: 4993 3740 aaa6 03bd 35a5 afbe ec82 d93c
00000320: 02be 6e3b f0c5 493e a67e ef3d 7e4a fa3d
00000330: 6970 68bf 203d 3c3d 0bc1 3bbc 57f5 453f
00000340: 6d75 67bc b8dd 2b3e f4a0 97bf 4d2f a33d
00000350: f34f f93c f3db 863f 088e 03c0 7452 e53d
00000360: 8634 833e 6cff 183f ae13 4ebe 811d 863f
00000370: 8704 c83d 2705 a23e 2698 d13c cb1e 923c
00000380: ac5f d2bd 0c87 3abc c7e0 593e 37b2 ccbe
00000390: dd6e 533f 65e4 8e3e 515e f03f f04e 4f3e
000003a0: 19e4 cfbd 1ff0 d63e b145 d3bd 5121 a43c
000003b0: c3be 4bbe 3dc5 5ebe 4ae7 993c c838 db3d
000003c0: 4f9e ecbd 1eea 953e 95c1 4c3e 12aa 443e
000003d0: d1dd 603e 5378 d13d ea16 b73d f83f 983f
000003e0: deb5 5c3c f5ef 06be 7265 603f 28c1 5ebe
000003f0: a54c 873e bd49 803e 9024 383e 56a8 2dbe
-0.01386389 0.27613664 0.19253689 0.062268987 0.14813021 -0.18267787 0.5527964 -0.27713785
-0.22285093 0.032565318 2.113265 0.11074576 0.29744208 0.018773071 0.72964984 0.060164217
0.06434687 0.14113778 -0.027905937 -0.20172784 -0.13329883 0.011082316 0.16006434 0.31612608
-1.0657881 -0.08340698 0.24646284 0.22889408 -0.26182565 0.3274273 0.124314025 0.5148235
-1.3264242 -0.020683903 0.4899784 -0.0076805963 0.2331265 0.14350994 0.19756928 0.07006133
0.36105576 1.9406358 0.21915881 0.9050016 0.293988 -0.1762585 0.34553504 -0.20468944
0.9618804 0.24782994 0.031752802 0.3283639 0.3380357 0.15279657 0.23041265 -0.026780229
-0.0017438749 -0.024199728 0.060636528 0.1865408 -0.9076666 -1.9657483 0.40558386 1.1140496
0.18029149 0.14829642 0.04943319 -0.016396597 0.14966834 1.2575055 2.0917556 -0.15007205
0.02451225 -0.11749636 0.008260967 -0.036869418 0.035045724 0.057410136 0.12339689 0.14051452
0.27240574 0.92740566 0.39676297 -0.15753917 -0.015734669 0.22303218 0.24068506 0.021309324
-0.12958778 -0.065547176 -0.12302894 -0.11235977 0.34600165 0.2096214 0.33149174 0.31166703
0.3279312 0.21875855 0.20717789 0.30264944 0.41291815 -0.07542911 -0.10301734 -0.13733529
-0.11499765 -0.0614788 -0.22297771 -0.32282138 -0.9623385 0.10039133 -1.2454674 -0.07099326
0.24645145 0.10890803 0.18293515 0.19032596 0.08851268 -0.11839819 0.3107306 0.036540836
0.7956673 0.046555102 0.22788168 0.02120618 -0.07445862 -0.1024002 0.30840373 0.28221026
-0.4062681 -0.0316307 0.116456464 0.104166515 1.7104356 0.31706253 -0.04594648 0.1602163
0.041310918 0.061821613 0.21609232 0.31594005 0.007891754 0.16483678 0.16013037 0.013825567
-0.090747885 0.04457266 0.16202544 1.306117 -0.16719845 0.16739815 0.21322115 -0.006756963
-1.0314776 -1.0562551 0.20285961 0.51627755 0.14526792 -0.07382454 0.27559906 0.14879797
-0.06528976 0.11308805 -0.20558415 -0.3644463 0.17562902 0.08127063 0.32712233 0.3578154
0.076293394 0.05724733 0.19752868 -0.011365605 0.5076606 0.436284 0.109266184 -0.12009276
1.1604174 0.35756743 -0.0850928 0.05288545 -2.064762 0.62623215 0.20371579 0.21111697
-0.043814275 -0.13776022 0.1500287 0.3112414 -0.33429208 -0.0430709 -0.15572304 -0.3822593
0.08259216 -0.12984455 0.18066786 -2.5203419 2.8683646 -0.032141365 -0.3430573 0.026551686
0.0036429171 0.19704413 0.11694078 0.122212395 -0.90796524 0.04595673 -0.011459599 0.77327484
-0.014127118 0.16783798 -1.1845994 0.07968006 0.03043363 1.0535873 -2.055544 0.11197367
0.2562601 0.5976474 -0.20124695 1.0477754 0.097664885 0.31644556 0.025585245 0.017836949
-0.10272154 -0.011384737 0.21277152 -0.39979717 0.8259104 0.27908626 1.8778783 0.20244956
-0.10150928 0.41980073 -0.10316027 0.020035418 -0.19896989 -0.21754928 0.018787045 0.107041895
-0.115536325 0.2928018 0.1999572 0.19205502 0.21959616 0.10228028 0.089399174 1.1894522
0.013471095 -0.13177474 0.87654793 -0.21753371 0.26425663 0.25056258 0.17982697 -0.16958746

linear.3.weight f4 [64, 256]
00000000: 77e7 72c0 de85 b440 100c ec40 dbd7 7bc0
00000010: 643f 0bc0 f6f1 97c0 e4d0 7340 c840 80c0
00000020: 4a79 8ac0 5669 8f40 7d45 073f 50ea e9bf
00000030: 1bb8 c9c0 b96c d940 3c03 893f 9198 fd40
00000040: 67cf 0a41 01d8 bf40 b782 e8c0 25a5 53c0
00000050: c725 b3c0 9970 f440 7d84 e340 ef29 5840
00000060: 63f7 4abf aab6 f0c0 86d9 edbf 3f14 9940
00000070: ead6 b6c0 d845 8340 d338 1a40 6022 5240
00000080: 61ce e3be 910b 8dc0 cea6 a440 0f60 d9c0
00000090: e88f 94c0 3f46 81bf 0c61 9f40 8dce f140
000000a0: 4970 5740 e042 573f 1f21 0c40 2d15 253f
000000b0: 978b c540 8c25 e9c0 fd0b aa40 447c 15c1
000000c0: 95f4 2e3f b5a3 9440 760b f1c0 323f ad40
000000d0: 9f61 e340 a182 5ac0 748f 87c0 8846 c1c0
000000e0: 02b1 ce40 a2d5 0cc1 17ec cb40 bc0d b140
000000f0: 306b 79bf fa30 1abf 85b7 7240 4180 e93e
00000100: 5410 cd40 93db 17c0 41c5 9bc0 d836 8140
00000110: 6f97 aec0 062d 0a3f b78d 373f 98d5 bc40
00000120: e104 bdc0 4f51 c240 570a a7c0 4d52 60c0
00000130: fa33 0a41 b462 c2c0 cf0a 29c0 30d8 91c0
00000140: 93c4 0d40 f796 32bd ffa5 ce40 030c a740
00000150: 7475 87c0 f9ef d840 f857 0641 0387 9bc0
00000160: fc94 ac40 3498 9cc0 8eb5 1441 7cd7 3dc0
00000170: bfdf b340 6296 f740 0ad9 193f 4d73 e2c0
00000180: 8d3a d340 9917 ccc0 1a17 75c0 235d 473f
00000190: fd17 babe e9d5 a1c0 5371 01c1 7671 5040
000001a0: 00d7 12c1 09d9 b0c0 19f7 ce40 72ff d6c0
000001b0: 6209 8fbf e7c0 d240 997a 3bbf f5df c0c0
000001c0: 932a ff40 7c2b 7240 4732 bc40 15a3 a8c0
000001d0: de03 f240 26a4 e7c0 74b9 54c0 490a 65c0
000001e0: 1bc3 883f 0b9d fa40 834c 7040 89b1 d3c0
000001f0: cadd dac0 f812 a73f f75b 9140 18a1 8340
00000200: 0097 1a41 7089 e840 fc9d 1340 89ba d440
00000210: 024b 5a3f d39a 42c0 7fa1 86c0 0c48 84c0
00000220: 56e7 a0c0 4242 68c0 c94e e440 a30a 1d40
00000230: e87f 1d41 0add b540 b6d2 63c0 2d61 aa40
00000240: 6137 d7c0 2036 8f40 092f c340 80b0 4c3f
00000250: c0e4 10c1 16ed aec0 6a66 83c0 5d5a aac0
00000260: 2ba2 52bf 192e 99bf 6885 dcc0 287d 2f40
00000270: ed6d b540 d181 b5c0 b577 0140 0c5f df40
00000280: 8b87 aec0 c58b 89c0 9e55 f2c0 6ee3 15c1
00000290: aff9 75c0 8846 b540 b286 54c0 766d da40
000002a0: 8e1e 28c0 812b ae40 2d7c 8f40 be17 d040
000002b0: 12f6 c740 38c6 a940 2607 8d40 b0ac 01c1
000002c0: c820 093f 3824 a7c0 24c1 cec0 5a8d 99c0
000002d0: c1a8 87be b7a0 293e bf3c fdc0 166a c940
000002e0: 9802 d140 8601 0541 5501 c340 8073 8240
000002f0: d966 dbc0 32d1 a6c0 1d44 cd40 3ec3 87c0
00000300: b23b ebc0 9e53 0241 f1ad 4f40 5dc2 d0be
00000310: 5168 083f 2304 43c0 eb1f dfc0 965d 1341
00000320: 2368 b9c0 3678 a940 6f92 c140 fb59 dcc0
00000330: 45d8 90bf f1b8 a440 f687 e6c0 5268 4240
00000340: 3f29 00c1 a195 88c0 fca3 1fbf 6735 dac0
00000350: c85c 0041 fbce 023f eeed 15bf 56b2 bf40
00000360: 36c0 e740 6dba 073f 39aa 0a41 09b3 213f
00000370: 4fe6 92c0 d70a edc0 0610 c440 c073 fdc0
00000380: 2b3c b0c0 136c dbc0 dcf0 fb40 5fc9 0f41
00000390: 3014 363f c182 8ac0 9e89 ecbd 3998 1d41
000003a0: 450e cac0 4e42 1d41 0981 76c0 f80b f240
000003b0: 7111 0cc1 7a70 a7c0 6a7e 4ec0 eda0 38c0
000003c0: 740e 8dc0 0e02 ca40 c78c 5cc0 991e d340
000003d0: f384 ac40 ca5d ee40 b4e4 b5bf 9ea1 623f
000003e0: 61d2 bcc0 0c6a f6c0 f063 3c3f aa07 d9bf
000003f0: c5cd b1c0 9ad5 82c0 e584 90c0 c059 8fc0
-3.7953775 5.641341 7.3764725 -3.9350498 -2.175744 -4.7482862 3.8096247 -4.007908
-4.327306 4.4816084 0.52840406 -1.8274632 -6.303724 6.794522 1.0704112 7.924874
8.675635 5.9951177 -7.2659564 -3.3069546 -5.5983615 7.638745 7.109923 3.3775594
-0.7928373 -7.522298 -1.8582008 4.7837214 -5.7137346 4.102276 2.4097183 3.283348
-0.44493392 -4.407662 5.145362 -6.792976 -4.6425667 -1.0099562 4.9805965 7.5564637
3.3662283 0.8408642 2.1895216 0.64485437 6.17329 -7.2858334 5.3139634 -9.342838
0.6834195 4.644984 -7.532649 5.4139643 7.1056666 -3.414223 -4.2362614 -6.03986
6.4591074 -8.802156 6.3725696 5.5329266 -0.9742918 -0.6023098 3.7924511 0.45605662
6.408243 -2.3727767 -4.867829 4.037945 -5.4559855 0.5397495 0.71700615 5.9010735
-5.9068456 6.0724254 -5.220012 -3.5050232 8.63769 -6.0745487 -2.6412847 -4.55764
2.215123 -0.043601003 6.457763 5.2202163 -4.2330875 6.7792935 8.396477 -4.860231
5.3931866 -4.8935795 9.294325 -2.9662771 5.6210628 7.7371073 0.600968 -7.076575
6.6008973 -6.3778806 -3.829535 0.7787649 -0.36346427 -5.057362 -8.090167 3.256925
-9.17749 -5.5264935 6.4676633 -6.7186823 -1.1174738 6.5860476 -0.73233944 -6.0273385
7.973947 3.783904 5.8811374 -5.2699075 7.562972 -7.2387877 -3.3238192 -3.5787528
1.0684541 7.8316703 3.75467 -6.615422 -6.839574 1.3052664 4.542476 4.113415
9.661865 7.266777 2.3065176 6.6477704 0.852707 -3.0406997 -4.207214 -4.133795
-5.0282393 -3.629044 7.1346173 2.4537742 9.843727 5.6832323 -3.5597358 5.3243623
-6.72551 4.475357 6.0994916 0.7995682 -9.055847 -5.466441 -4.1062517 -5.3235307
-0.822787 -1.1967193 -6.891285 2.742014 5.6696687 -5.6720967 2.0229313 6.9803524
-5.454046 -4.2983117 -7.5729513 -9.368025 -3.8433645 5.66486 -3.3207211 6.825862
-2.626865 5.4428105 4.483908 6.502898 6.248788 5.3054466 4.4071226 -8.10466
0.53565645 -5.223171 -6.4610767 -4.798505 -0.26495937 0.16565214 -7.9136653 6.2942
6.5315666 8.312872 6.0939126 4.076599 -6.8563046 -5.2130365 6.4145646 -4.2425833
-7.351037 8.145414 3.2449915 -0.40773287 0.53284174 -3.0471275 -6.972646 9.210348
-5.793962 5.295924 6.049125 -6.885984 -1.1316 5.147576 -7.204097 3.0376172
-8.01007 -4.2682652 -0.62359595 -6.819019 8.022652 0.5109708 -0.58566177 5.9905195
7.2422132 0.5301884 8.666558 0.6316381 -4.590614 -7.407573 6.126956 -7.9203796
-5.5073447 -6.8569427 7.873152 8.986663 0.71124554 -4.328461 -0.11549686 9.849664
-6.314242 9.828688 -3.8516257 7.563961 -8.754258 -5.23248 -3.2264657 -2.8848221
-4.4080143 6.312751 -3.4460924 6.597485 5.391229 7.448949 -1.421042 0.8852786
-5.900681 -7.700445 0.7358999 -1.6955464 -5.5563684 -4.0885744 -4.5162225 -4.479706

linear.3.bias f4 [64]
00000000: 031c 8c3e 6969 f33d f0e4 da3e 5cfd 0f3e
00000010: c7db bf3e cc92 463e 72b9 fcbc 6485 d63d
00000020: ff5f 293e 6e3c 823d a459 0b3c c08c 99bd
00000030: b60b 8fbc 2b8e 96bc 6783 833e b984 513c
00000040: 5526 023e 9762 033e ef19 6d3e 5e9f 30bd
00000050: ba55 be3e e630 3f3f bc84 703e 1b52 dd3e
00000060: 839e ad3e 796d 47be bb93 14be 7923 35be
00000070: 63ee 0dbe 839b b53d fcba 843d ade8 463d
00000080: e5a1 9b3e d235 07be 52ca 70be 5d99 473e
00000090: 989a 41bc 0cd3 9a3e 086d 6d3f c984 ab3d
000000a0: 7dd4 d83d f259 fbbd 2c5f 113f 5825 ba3d
000000b0: edb6 933e 9a8b c53d c593 e0bb e7e0 8e3e
000000c0: aba2 8f3f 7852 e83e b9b2 a53e e87e a73e
000000d0: 1dd0 d53e 53a8 b83d 9e52 263e dda8 7f3e
000000e0: 5680 90bd 2da4 203e e159 c1bc abeb febd
000000f0: 7cd0 3ebe 905e b33e 4e7b 61bd 8ec4 8fbc
0.2736512 0.1188534 0.4275279 0.14061493 0.37472364 0.19391936 -0.030850146 0.10474661
0.16540526 0.06359182 0.008505259 -0.07497549 -0.017461639 -0.018378338 0.2568619 0.012787991
0.12709935 0.12830578 0.23154424 -0.043120734 0.3717478 0.7468399 0.23488134 0.43226704
0.33909997 -0.19475354 -0.1450948 -0.17689313 -0.13860469 0.08867552 0.06480977 0.04856174
0.30396953 -0.13204125 -0.23514679 0.19492097 -0.011816643 0.3023914 0.92744493 0.08374936
0.10587404 -0.12273015 0.56785846 0.09089154 0.288505 0.096457675 -0.006853553 0.27905962
1.1221517 0.4537542 0.32362917 0.3271401 0.4176034 0.0901648 0.16242453 0.2496676
-0.07055728 0.15687628 -0.023602428 -0.12447294 -0.18634218 0.35033083 -0.055049233 -0.01754978

reg.weight f4 [2, 128]
00000000: b4f6 3540 66ee 08c0 bce2 b33f 5c78 f7bf
00000010: d0f1 9c40 3843 1140 0b79 2cbf 2297 7340
00000020: fb8f c83f ef79 2b40 4793 dd3f 964e 833d
00000030: 694f da3f 5d53 5d40 6b85 d2be 6744 97bf
00000040: 5569 b33f f97d cf3f 5c7e 2240 6dcc 9a3f
00000050: 000f 3440 793e 1240 3334 3c40 702c a53f
00000060: 6386 fa3f e12a 0340 2470 283b 00d4 7240
00000070: 4f0c 5ebe 84ca 06bf 3a26 53bf c6d6 8d40
00000080: dcc2 4e40 1e46 e43f 8fde 5940 b4ed 343d
00000090: b319 c33f f502 0940 363a 40bf aaff 983f
000000a0: 8547 9f3f 2cf4 df3f f87b a33d 3513 d93f
000000b0: b96e 0dbf 51c5 91bf 7306 0d40 4245 1040
000000c0: 4262 7640 4514 c43f f5a4 92bf 8c32 b43f
000000d0: 2776 7b3d 1410 bf3f 2704 1640 3392 04c0
000000e0: a299 d23f 37a6 a93f fca4 7a3e 805d a73d
000000f0: 649a b13d c3a9 b23c 75e6 4940 3274 1940
00000100: 5da3 0042 823e 0342 8055 fc41 a1f5 0342
00000110: 855b 56c1 f96e 0342 e82f 0442 da3a 0342
00000120: c4fb 59c1 c97a 0342 c1ac 0342 c20c 0442
00000130: 8bb4 0442 079a 0342 70d8 57c1 3b5c 0442
00000140: 3697 0142 7797 0342 4b21 59c1 1b69 0342
00000150: ed6e 0342 54e3 64c1 fbdf 0242 9be3 5bc1
00000160: bb7f 56c1 16f8 0342 98d4 0342 1fc2 0342
00000170: 60e1 0342 7307 0342 9ada 0342 eec1 0342
00000180: 74b1 0042 8804 0342 3111 0442 a798 0342
00000190: a6e3 0342 1f6d 59c1 d390 9941 a773 0342
000001a0: 8566 0342 67c7 0342 f28a 0242 23e6 0342
000001b0: ddad 0242 2b95 0342 36a6 0342 4e6e 0042
000001c0: 0094 9b41 6f11 0342 8f13 56c1 95cb 58c1
000001d0: ccbf 5ac1 1a76 0342 a8fd 0042 4da2 55c1
000001e0: 7e0c 0442 6cfa 0342 ce9c 0342 7e00 0442
000001f0: a0ef 0342 2b39 5bc1 a818 0442 a911 0442
00000200: 8e73 ea38 bc6e 0dbb e0ce c4bb 087e c63d
00000210: c723 e93a fc60 9dba e028 b6bc 1706 b7bb
00000220: d4aa adb9 cd5c d7ba 9f0d a73b 6716 3b3d
00000230: 95b1 89bb c4c6 71ba 0ff0 b93b cfa4 80bb
00000240: 8254 863b 34e7 bcbb fdca 89bb de38 8a3c
00000250: 055f 2b3b d02c 24bc a74a 9b3b 83e7 b8bb
00000260: 7c43 1dbb 81bf 0cbb 8706 013e 70fe 483b
00000270: e9da 043f ccd7 f9bb 5818 4fbc 883e 92bb
00000280: adb3 a93a 7a52 e1bc 5b99 343b 332d ea3c
00000290: 68a4 a13b 68e6 353b 536e c33c 777f aebc
000002a0: f2aa 60ba 4cac d53d 38ea 87bd 7954 dc3a
000002b0: 5813 a43c 00d5 f3bb dbb6 89bb bea8 273b
000002c0: bfe5 7e3b 3bd2 3e3c f0fe 8437 d4a7 e33a
000002d0: dff0 103e f06d 733c 97e2 0d3b 7ef9 3e3b
000002e0: 0c1d 27bd 88b3 373b d21b a6be 428d 10bc
000002f0: a961 a0bd 78cd 1cbe 36d3 e83b ea63 113c
00000300: a3cd 053c 954f 8e3b 2430 58ba 502b b4ba
00000310: 6719 9d3b 41b1 bbba cdd8 8c3b a585 07bc
00000320: 25f3 77bc d58e 8db9 606c 4bbc d390 f63b
00000330: 0ff1 ad3b bf1d 833b 43bb 16bc a98f 4abb
00000340: f2df 063c 1830 81bc 94cb 643b 4a64 123b
00000350: 1b40 a53a 403f 4bba bc22 ddbb af78 23bc
00000360: a424 153c f914 3a3b e163 dbbb e49f 2abc
00000370: 712e 0ebb 777b b9bb a1ea 7c3b 844e 543c
00000380: fca4 263c a4c4 90ba d087 60bb 7545 01bc
00000390: 08fe c73b 73df a9bc 4f9e dbbb b9be 8c3b
000003a0: ab7b 773c dfde 093c d9da 9d3a c652 aabb
000003b0: ab28 7eba 57ec efbb bcb7 bbbb 4516 4dbc
000003c0: dd1b 033b ba31 92bb 8898 cb3b 0568 be3c
000003d0: 78ac 913c a57b aa3b 9957 b83b dd54 28bc
000003e0: 9269 9f3c 331c 903b a472 88bc 0468 5e3a
000003f0: 447a 77bb 6c94 12bc f500 84bb f9f0 113b
2.8431826 -2.1395507 1.4053569 -1.9333606 4.904518 2.2697277 -0.67372197 3.8060994
1.5668939 2.6793172 1.731057 0.064114735 1.7055484 3.458213 -0.41117415 -1.181775
1.401652 1.6210319 2.5389624 1.2093636 2.8134155 2.285063 2.940686 1.2904186
1.9572262 2.0494921 0.0025701607 3.7941895 -0.21684383 -0.52652764 -0.82480204 4.4324675
3.2306433 1.7833898 3.404209 0.044172004 1.5242218 2.1408055 -0.7508882 1.1953022
1.2443701 1.749639 0.079826295 1.6958987 -0.55247074 -1.1388341 2.2035186 2.2542272
3.8497472 1.5318686 -1.1456591 1.4077926 0.061391976 1.4926782 2.3440034 -2.0714233
1.6453135 1.325385 0.24476999 0.081721306 0.08672026 0.021809464 3.154691 2.397717
32.159534 32.811043 31.541748 32.989872 -13.397344 32.85837 33.046783 32.807472
-13.623966 32.869907 32.918705 33.01246 33.17631 32.900417 -13.490341 33.09007
32.397667 32.897915 -13.570628 32.852642 32.858326 -14.3055 32.71873 -13.743068
-13.406184 32.99227 32.95761 32.93957 32.970093 32.757275 32.963478 32.939384
32.173294 32.754425 33.01679 32.899075 32.972313 -13.589141 19.195715 32.86294
32.850117 32.94473 32.63569 32.974743 32.66979 32.89567 32.912315 32.10772
19.447266 32.767025 -13.379775 -13.549703 -13.671825 32.865334 32.24771 -13.352124
33.0122 32.994553 32.90313 33.00048 32.98401 -13.701457 33.02408 33.017246
0.00011179513 -0.0021580895 -0.0060061067 0.09692007 0.0017787152 -0.0012007053 -0.022236288 -0.0055854428
-0.00033124408 -0.0016430855 0.0050980593 0.04567566 -0.0042020776 -0.0009223039 0.005674369 -0.0039258967
0.0040994296 -0.0057648662 -0.0042051063 0.01687282 0.0026149165 -0.01002045 0.004739124 -0.0056428327
-0.0023996523 -0.002147645 0.12600146 0.0030669235 0.5189653 -0.007624602 -0.012640081 -0.0044630207
0.0012947224 -0.027505148 0.0027557227 0.028586006 0.004932929 0.002775574 0.023856318 -0.021301014
-0.0008570395 0.10433254 -0.066364706 0.0016809843 0.020028755 -0.007441163 -0.0042027063 0.0025582756
0.0038894264 0.011646803 1.585434e-05 0.0017368742 0.14154385 0.014857754 0.002164995 0.0029140408
-0.040799186 0.0028030593 -0.324431 -0.008822741 -0.07831127 -0.15312755 0.0071052564 0.008873919
0.008166703 0.004342983 -0.00082469196 -0.0013745818 0.004794288 -0.0014319794 0.0042983056 -0.008271609
-0.015133654 -0.00027000034 -0.012415975 0.0075245886 0.0053082774 0.0040013487 -0.00919992 -0.0030908382
0.008232104 -0.015770003 0.003491138 0.002233761 0.0012607606 -0.00077532604 -0.0067485254 -0.009977504
0.009102974 0.0028393848 -0.006695256 -0.010414097 -0.0021695162 -0.00566047 0.0038591998 0.012958173
0.010171171 -0.0011044932 -0.0034260638 -0.007890095 0.006103281 -0.020736432 -0.0067022215 0.004295197
0.015105168 0.008414953 0.0012043371 -0.0051978556 -0.0009695391 -0.007321875 -0.00572869 -0.0125175165
0.0020005621 -0.0044614943 0.0062132515 0.02324296 0.017782435 0.005202728 0.005625677 -0.010274139
0.01945952 0.004397893 -0.016656227 0.00084841275 -0.0037762085 -0.008946519 -0.0040284344 0.0022268875

reg.bias f4 [2]
00000000: 8388 af3e 8bfa eb3e
0.34283838 0.46089587
