server/model2/value_model_minmax60.pt (torch, 255287 bytes, 12 tensors)

conv.0.weight f4 [4, 1, 3, 3]
1.2540855 0.12640424 1.9684361 1.139174 0.5913102 0.7521299 0.97202265 -0.71981275
0.8995105 0.7785615 0.32797673 0.025660684 0.07762475 2.1739864 -0.00850046 1.2144722
-0.32342455 0.87978107 0.738621 0.3831598 0.00839746 -0.22488622 1.0256107 2.0123515
0.48998943 0.07809557 0.9192932 1.3843625 -0.51310426 1.7510709 1.1018028 0.39250103
1.1853741 0.20099571 0.5356417 -0.65253764
00000000: e085 a03f 1d70 013e b7f5 fb3f 74d0 913f
00000010: 1b60 173f 968b 403f 7ad6 783f a645 38bf
00000020: 5246 663f ce4f 473f 91ec a73e 5b36 d23c
00000030: baf9 9e3d 9822 0b40 8345 0bbc d373 9b3f
00000040: e797 a5be 5539 613f 4416 3d3f 852d c43e
00000050: 8095 093c 9348 66be 3647 833f 5eca 0040
00000060: e5df fa3e 92f0 9f3d cd56 6b3f ca32 b13f
00000070: cd5a 03bf 1723 e03f e007 8d3f e5f5 c83e
00000080: 57ba 973f d2d1 4d3e d01f 093f b50c 27bf

conv.0.bias f4 [4]
1.0513693 0.42427006 0.67280406 0.9948126
00000000: 4593 863f ed39 d93e e33c 2c3f 0aac 7e3f

conv.2.weight f4 [4, 4, 3, 3]
1.1409948 1.7000121 1.1561953 1.6146132 0.7732841 1.2344192 0.37867546 1.0114498
0.78860736 1.5508668 0.9699609 1.3267069 1.9377624 -0.28045815 0.68813 0.049302407
0.88055617 0.30888456 0.7592467 1.3472629 0.93087256 1.2946842 0.3189824 0.778641
0.5306216 0.24421373 1.1766099 1.1696235 1.2543772 1.5040505 1.3281432 0.82735014
1.4541159 0.6524639 1.1709784 0.73046273 0.35373086 0.019290216 -1.6591907 0.8306078
0.78977233 -0.98633426 0.7378207 0.96604484 -0.59904957 -0.4230499 0.646407 -2.0324082
0.24992447 1.2112497 -0.13013601 -0.18432473 -0.21586539 -0.5450609 0.21740638 0.19356301
-0.5134939 0.58480835 -0.41903767 -2.7474496 -0.0698684 0.07189696 0.1922145 0.6563234
0.25553894 -0.79799116 0.86003584 1.0151275 -2.5781908 0.67195123 1.7227447 -1.0969092
1.2898692 0.8006037 0.9685413 1.4823961 1.0782695 0.4582236 1.2116663 0.8736315
1.3448614 1.96988 1.08411 0.46005633 1.3665012 0.9011083 -0.14518106 0.39431876
0.5337001 0.8236179 1.2642714 1.047073 -0.75008225 0.90005475 0.86203206 0.64583087
0.52485913 0.2067492 0.44535866 1.2244438 0.602362 0.31050807 1.233491 1.4137232
1.493664 1.0697516 0.8634269 0.8084067 0.49129692 1.3683774 0.32277167 0.85137355
0.78854525 0.9173364 0.633525 0.9061684 0.89860535 0.47598702 0.93194604 0.88892066
0.92848307 0.74342626 0.3126133 0.5468313 0.26270226 0.98841274 0.3274583 0.98149157
-0.45607823 0.87894857 0.7214079 0.39943755 0.32625255 0.3335782 0.48061085 0.4070317
0.4563883 0.882068 0.95504856 0.7886202 1.3580819 0.34796625 0.78184587 0.8532077
00000000: 1e0c 923f ff99 d93f 35fe 933f a5ab ce3f
00000010: f2f5 453f 7301 9e3f c0e1 c13e 3077 813f
00000020: 2ce2 493f ce82 c63f 5c4f 783f 88d1 a93f
00000030: 9908 f83f 3698 8fbe 4a29 303f 52f1 493d
00000040: 216c 613f 1e26 9e3e fe5d 423f 1c73 ac3f
00000050: aa4d 6e3f 36b8 a53f a951 a33e 0455 473f
00000060: d1d6 073f 2a13 7a3e 279b 963f 39b6 953f
00000070: 6f8f a03f ba84 c03f 9900 aa3f 38cd 533f
00000080: 7820 ba3f e007 273f 9fe2 953f 9bff 3a3f
00000090: 361c b53e 8406 9e3c 5c60 d4bf b6a2 543f
000000a0: 852e 4a3f 6780 7cbf d1e1 3c3f b74e 773f
000000b0: 505b 19bf ff99 d8be ee7a 253f fa12 02c0
000000c0: 33ec 7f3e 3b0a 9b3f 6042 05be 9fbf 3cbe
000000d0: d10b 5dbe 1c89 0bbf c79f 5e3e 6235 463e
000000e0: 5674 03bf 00b6 153f 1b8c d6be 37d6 2fc0
000000f0: 2a17 8fbd b73e 933d e1d3 443e cf04 283f
00000100: 00d6 823e 2649 4cbf 4f2b 5c3f b3ef 813f
00000110: 1401 25c0 ff04 2c3f e682 dc3f 8567 8cbf
00000120: 6f1a a53f 5df4 4c3f 53f2 773f 28bf bd3f
00000130: bc04 8a3f 499c ea3e e217 9b3f 50a6 5f3f
00000140: 6b24 ac3f 0725 fc3f 1ec4 8a3f 818c eb3e
00000150: 83e9 ae3f 09af 663f 58aa 14be 26e4 c93e
00000160: 92a0 083f 9fd8 523f a5d3 a13f 7d06 863f
00000170: 6405 40bf fd69 663f 22ae 5c3f 2c55 253f
00000180: 2b5d 063f 10b6 533e 0d06 e43e 93ba 9c3f
00000190: 6534 1a3f eafa 9e3e 08e3 9d3f e2f4 b43f
000001a0: 6230 bf3f 9fed 883f 8c09 5d3f bef3 4e3f
000001b0: 458b fb3e fe26 af3f 5442 a53e 9ef3 593f
000001c0: 1ade 493f 8fd6 6a3f b22e 223f a7fa 673f
000001d0: 000b 663f 92b4 f33e 0494 6e3f 4e90 633f
000001e0: 11b1 6d3f 2f51 3e3f da0e a03e 23fd 0b3f
000001f0: e980 863e 9e08 7d3f 9da8 a73e 0843 7b3f
00000200: 1683 e9be c602 613f 30ae 383f 1483 cc3e
00000210: 930a a73e c3ca aa3e a012 f63e 7566 d03e
00000220: baab e93e 35cf 613f 107e 743f 03e3 493f
00000230: a1d5 ad3f a228 b23e 0d27 483f d26b 5a3f

conv.2.bias f4 [4]
0.98051864 0.38007414 0.72885174 0.41669655
00000000: 4503 7b3f 1499 c23e 0796 3a3f 4059 d53e

conv.5.weight f4 [64, 36]
-0.07571523 -0.0033481154 0.06061281 -0.3358464 -0.054700445 -0.059606623 0.13798346 -0.10426068
0.009554567 0.41596684 -1.0725964 0.21391778 0.62549275 -0.5103559 0.06047671 -0.51158845
0.075189486 -0.025241176 -0.16913563 -0.1768419 0.10896764 0.010657692 -0.20808944 0.020222718
0.103792936 -0.07518213 0.04609968 -0.24680538 -0.017075986 0.0600493 -0.086276434 -0.015855584
0.049577642 -0.03157503 0.040021848 0.08822884 -0.12495085 -0.23021363 -0.23651521 0.07951714
0.2138312 0.5190164 -0.15568078 -0.1423647 0.06699778 0.3590453 -0.76041526 -0.2786075
0.3352266 0.45619005 0.06559379 0.1744241 0.435327 -0.8794998 -0.3631175 -0.086359456
0.14218864 0.16165644 0.14517091 0.3056902 0.18450633 0.23876981 -0.757565 -0.37392116
0.006758437 -0.056872863 0.34392393 0.05867586 -0.34607396 -0.043419503 0.044552457 -0.73333174
-0.5679556 0.061648622 0.45820683 -0.05128827 -0.11364558 -0.054554164 0.12765978 0.28431407
0.41484967 -0.5511286 0.40527502 -0.041664835 -0.23499465 0.41659325 0.37483972 -0.06550831
0.0011330335 0.12574063 -0.8899428 -0.32308832 -1.095562 0.723696 0.13730511 0.42046437
1.1526835 0.09942575 0.22099608 1.0004702 0.028911473 0.061261244 0.59840125 -0.8160342
-0.7845984 0.11916226 -0.47090733 0.024802033 0.2721677 0.10554136 -0.5710966 0.11648527
-0.011552723 0.040596347 -0.028670102 -0.08996084 0.14775716 -0.14149843 0.21058209 0.44704264
-0.05187487 0.08927585 -2.587326 0.17133702 0.026852544 0.52954596 0.061932385 -0.2066005
0.23439081 -0.22819866 -0.09747956 -1.7910266 -0.16211267 0.09466988 2.1313968 -0.1518561
-0.027944544 -0.12990515 0.119839974 -0.0295091 0.011568472 -0.06837868 0.055928648 0.18437535
0.22899024 0.3326344 -0.16605814 0.0008481863 -0.0061550443 0.14975946 -0.5722382 -0.24895172
0.07130768 -0.4355737 0.9079462 -0.17054579 -0.58908546 0.5774753 -0.93076074 0.45186752
0.83818907 -0.6645833 -0.15497136 -0.17726153 0.10609083 -0.021949453 0.21152559 -0.46739975
0.52951354 0.8315136 -0.64424 0.29706326 0.29400647 0.29211983 0.4090499 -0.316619
-1.2892604 0.23870836 -0.0876794 -1.2000918 0.22620696 0.06987296 0.018552192 -0.34569353
0.3858852 -0.09103804 -0.30135494 -0.05182829 0.8463408 -0.28788596 0.42722917 -1.4607757
-0.32817137 -0.2873865 -0.58866626 -1.0919927 -1.0236106 -0.0775406 -0.3919144 -0.07117163
0.38880047 0.23242953 -0.059260838 0.090884544 0.4642691 -0.15238835 0.5793905 -0.4082987
-0.10421842 0.29577166 0.03741042 -0.10089319 -0.53781146 -0.072092615 0.101317205 0.5388676
0.61691433 0.9428109 0.8988729 0.6115229 1.0606899 1.1260185 0.53207093 0.46475568
0.5963174 0.8403208 -0.9231052 1.2089615 0.1291013 -0.7961939 1.6746323 0.9399491
0.434171 0.604648 1.2037568 1.2730733 1.0172182 0.64583313 0.7843707 1.4502673
0.27288216 0.4791396 -0.10476426 1.0796632 0.90452707 0.91515744 0.5558655 0.91592085
1.350463 0.44247094 0.59815717 0.64622027 0.33354568 0.18873388 -0.21598303 0.00917625
00000000: 9610 9bbd 0e6c 5bbb 2345 783d 0ff4 abbe
00000010: 930d 60bd 1326 74bd 894b 0d3e a086 d5bd
00000020: c28a 1c3c 9bf9 d43e d74a 89bf 430d 5b3e
00000030: 4b20 203f afa6 02bf 6db6 773d 76f7 02bf
00000040: f2fc 993d 95c6 cebc e431 2dbe 0b16 35be
00000050: 6d2a df3d 9a9d 2e3c 6615 55be 1daa a53c
00000060: 6491 d43d 17f9 99bd 05d3 3c3d 8dba 7cbe
00000070: f0e2 8bbc 41f6 753d b3b1 b0bd 92e3 81bc
00000080: ed11 4b3d d254 01bd f3ed 233d 52b1 b43d
00000090: 3be6 ffbd 1fbd 6bbe 0b31 72be e2d9 a23d
000000a0: 91f6 5a3e 42de 043f c86a 1fbe 0dc8 11be
000000b0: 2236 893d c9d4 b73e 93aa 42bf a4a5 8ebe
000000c0: d2a2 ab3e be91 e93e 0956 863d 3b9c 323e
000000d0: 2ee3 de3e e626 61bf 89ea b9be 3add b0bd
000000e0: e699 113e 4489 253e afa7 143e 6d83 9c3e
000000f0: 3aef 3c3e 1380 743e c8ef 41bf 9872 bfbe
00000100: e175 dd3b 85f3 68bd cc16 b03e 1956 703d
00000110: 9b30 b1be a6d8 31bd a37c 363d a1bb 3bbf
00000120: 8a65 11bf 4483 7c3d 169a ea3e a613 52bd
00000130: 04bf e8bd 3074 5fbd 3fb9 023e 9d91 913e
00000140: 2d67 d43e c416 0dbf 3580 cf3e bfa8 2abd
00000150: 70a2 70be b64b d53e feea bf3e 3929 86bd
00000160: 4c82 943a 27c2 003e 4bd3 63bf d56b a5be
00000170: 603b 8cbf 2444 393f b699 0c3e 1b47 d73e
00000180: 228b 933f ba9f cb3d cc4c 623e 680f 803f
00000190: c1d7 ec3c 12ed 7a3d d330 193f 9ee7 50bf
000001a0: 71db 48bf 580b f43d c41a f1be a22d cb3c
000001b0: 9159 8b3e 1226 d83d 6333 12bf d48f ee3d
000001c0: a247 3dbc 5b48 263d 90dd eabc 643d b8bd
000001d0: a74d 173e f7e4 10be d5a2 573e c6e2 e43e
000001e0: be7a 54bd 42d6 b63d c096 25c0 f972 2f3e
000001f0: def9 db3c 5390 073f d0ac 7d3d 158f 53be
00000200: 2504 703e e9ac 69be 5da3 c7bd 5c40 e5bf
00000210: dd00 26be 48e2 c13d ce68 0840 2a80 1bbe
00000220: f5eb e4bc db05 05be a96e f53d 11bd f1bc
00000230: b089 3d3c 1f0a 8cbd 7015 653d e4cc 3c3e
00000240: 6b7c 6a3e 0e4f aa3e 250b 2abe d258 5e3a
00000250: 41b0 c9bb 8b5a 193e 347e 12bf 33ed 7ebe
00000260: c309 923d 8403 dfbe 2a6f 683f 8ea3 2ebe
00000270: 4ece 16bf 6cd5 133f 5646 6ebf 2e5b e73e
00000280: 8f93 563f 2222 2abf d0b0 1ebe 0c84 35be
00000290: 2646 d93d 57cf b3bc 2a9a 583e 054f efbe
000002a0: 338e 073f 13de 543f eaec 24bf ad18 983e
000002b0: 0488 963e bb90 953e fd6e d13e e31b a2be
000002c0: 7c06 a5bf f76f 743e 4291 b3bd 9c9c 99bf
000002d0: cca2 673e 8e19 8f3d c4fa 973c befe b0be
000002e0: bf92 c53e 2772 babd 324b 9abe e749 54bd
000002f0: caa9 583f ca65 93be c8bd da3e b3fa babf
00000300: 1406 a8be 5324 93be d5b2 16bf 6bc6 8bbf
00000310: ac05 83bf 9bcd 9ebd 01a9 c8be 6ec2 91bd
00000320: db10 c73e 0202 6e3e 7ebb 72bd ad21 ba3d
00000330: aeb4 ed3e b10b 1cbe f052 143f 870c d1be
00000340: 7870 d5bd 626f 973e ab3b 193d 17a1 cebd
00000350: 03ae 09bf 4ba5 93bd 657f cf3d 3af3 093f
00000360: 19ee 1d3f 0e5c 713f 891c 663f c48c 1c3f
00000370: b0c4 873f 6021 903f cd35 083f 75f4 ed3e
00000380: 42a8 183f 441f 573f 9f50 6cbf 40bf 9a3f
00000390: 2233 043e 5dd3 4bbf 5a5a d63f 81a0 703f
000003a0: a94b de3e 36ca 1a3f b414 9a3f 11f4 a23f
000003b0: 3534 823f 5255 253f 85cc 483f 5ca2 b93f
000003c0: 36b7 8b3e c951 f53e a58e d6bd 6732 8a3f
000003d0: 168f 673f c247 6a3f 344d 0e3f ca79 6a3f
000003e0: f9db ac3f 8d8b e23e d420 193f b16e 253f
000003f0: 80c6 aa3e 7443 413e a82a 5dbe fb57 163c

conv.5.bias f4 [64]
-0.080303505 -0.26531836 -0.7358028 -0.21215537 -0.10393469 -0.2939532 1.0614178 0.08985269
-0.54661375 -0.19039921 -0.588976 -3.3264544 -0.61195475 -0.7149491 0.6973413 -0.13910502
-0.009802473 -0.7100767 -0.69546324 -0.024629321 -3.3008044 -0.45921952 -0.4406014 -0.44201472
-0.7371778 -0.73779 -0.6259987 -3.0408878 -0.38889033 0.46135986 1.5085816 -0.65973926
-0.4647568 -0.098812826 -0.68822604 -0.20785587 -1.7753583 -3.1833868 1.1426183 -0.049565338
-0.01747274 -0.10603738 -0.15059887 -0.41531682 0.8258622 -0.031663503 -0.736334 0.32368484
-0.6413273 -0.70946336 0.2857071 -0.38728684 -0.5982253 -0.38513863 -0.11483958 -0.08677455
-0.20103501 -0.08143152 -0.83225864 -0.35025257 -0.7600572 -0.61855644 -0.6762973 -0.16108003
00000000: 2a76 a4bd cfd7 87be 935d 3cbf 423f 59be
00000010: b6db d4bd 0981 96be 8adc 873f b004 b83d
00000020: e1ee 0bbf 03f8 42be 22c7 16bf a1e4 54c0
00000030: 11a9 1cbf e706 37bf f684 323f 8c71 0ebe
00000040: 8d9a 20bc 96c7 35bf e109 32bf 6ec3 c9bc
00000050: 6140 53c0 d21e ebbe 8296 e1be c14f e2be
00000060: afb7 3cbf cedf 3cbf 7341 20bf e89d 42c0
00000070: a21c c7be 5c37 ec3e 3419 c13f ace4 28bf
00000080: 9af4 edbe 615e cabd 952f 30bf 2bd8 54be
00000090: f13e e3bf 9cbc 4bc0 5141 923f 0605 4bbd
000000a0: fe22 8fbc 202a d9bd 9736 1abe 68a4 d4be
000000b0: b56b 533f 97b1 01bd 6380 3cbf 05ba a53e
000000c0: 072e 24bf 649f 35bf 3348 923e 764a c6be
000000d0: 4b25 19bf e430 c5be 0431 ebbd dbb6 b1bd
000000e0: 1fdc 4dbe 92c5 a6bd e70e 55bf 4e54 b3be
000000f0: 1c93 42bf b759 1ebf d221 2dbf 2af2 24be

linear.1.weight f4 [256, 169]
0.0058983564 0.03927634 0.05919365 0.054136388 -0.025531128 -0.022116046 0.031506017 0.038530543
0.0523298 0.20310763 0.015166454 -0.011316881 0.032183588 0.04855319 -0.002104357 -0.014606945
0.0063044503 -0.044173554 -0.075353146 -0.020839334 0.07390759 -0.40165064 -0.08481639 0.0125961155
-0.063693196 -0.065787256 -0.01698824 0.038327307 0.025421262 -0.0027178675 0.029781707 -0.00065297633
-0.044473805 0.40232646 -0.9804331 -0.090475135 0.019612975 0.020964175 -0.042589024 0.062179737
0.04365121 -0.0557345 0.09740635 -0.15213872 0.20280592 0.7060895 0.14445986 -0.7747436
-0.24868038 -0.12666418 -0.14722335 0.5508881 0.040363543 0.050073214 -0.00809928 0.3502512
0.0784668 0.7861966 1.0301175 0.2103059 -0.19056702 -0.37813947 -0.5117739 -0.26094216
-0.0517214 -0.02578098 -0.04729327 -0.03856768 -1.4163752 -0.7497224 0.51259685 0.842175
1.3418318 0.7467744 1.2955705 0.3064158 -0.052764453 0.031680584 0.028979488 -0.035843253
0.028441548 0.6919132 -0.37132427 0.09399987 -0.4168767 -0.41279694 -0.5987711 0.6203443
0.039388917 0.050748043 -0.033357933 -0.035545845 -0.07502456 -0.1573404 -0.259683 -0.04136818
0.8791194 0.107094064 0.40173468 0.099962585 -0.719804 0.054057173 -0.059245348 -0.017436177
-0.011687763 -0.18946318 0.5414038 0.50376517 -0.9520977 0.61273336 0.64787996 0.43352944
-0.49742496 -0.5259684 0.026477426 0.046686873 -0.027133055 0.21235678 -0.35353205 -0.6719315
-0.70990056 -0.07115204 -0.49893945 -0.19550408 -0.1528668 -0.07914431 0.046307556 0.057452045
-0.03178647 0.06811691 0.050002508 -0.02715848 0.06355839 0.35635272 0.47984076 -0.21771872
-0.037147798 0.05011124 0.010573648 -0.011265397 -0.031354647 0.060661323 0.069087915 -0.042322554
0.038329273 0.04598538 -0.6933168 1.2128077 0.028071843 0.0042439997 0.010441452 -0.009715192
0.029839195 0.060886286 0.049214564 0.03212122 -0.060935453 0.017652497 -0.04599788 0.010452636
0.031554922 -0.0071871653 -0.071292154 0.05728098 -0.049168203 0.021991685 0.049634017 0.018248983
0.03853458 0.058048002 -0.06958019 -0.06756942 0.011232428 0.028531149 -0.069348074 0.0133373365
-0.036762696 -0.067893185 0.04101501 0.045926005 -0.002309762 -0.051789306 -0.02223102 -0.009927824
-0.0195866 0.039755575 -0.017362688 -0.05354937 -0.046342753 0.06266924 0.5429896 0.31391904
-0.033220623 0.018912159 -0.061385058 -0.059954736 0.05741165 0.00097159296 -0.02349826 0.026738763
-0.038946252 -0.007274933 -0.47451183 0.70953393 -0.04809279 0.017962538 0.026630998 0.0031629503
0.0043074638 0.034999967 -0.017160848 -0.23956743 0.5194382 0.6855615 -0.13486801 -0.29711714
0.06707567 -0.3157006 0.46785057 0.10878799 0.0476791 -0.04443521 -0.027306192 -0.060780335
-0.78863454 0.3197373 0.42048675 -0.64862543 0.59580016 -0.43319446 0.09766888 0.4886468
-1.0915405 -0.041544072 0.053795658 -0.029634733 -0.048421595 0.7592489 -0.31048727 -0.60690266
0.1458489 0.600078 0.41477507 -0.49441937 0.8400368 -0.04093669 0.06748887 -0.021678265
0.03954243 0.04877039 0.5039577 0.11281825 -0.09143316 0.07049075 0.31096756 0.14270282
00000000: 0047 c13b 3ae0 203d 0a75 723d 1ebe 5d3d
00000010: a826 d1bc b62c b5bc 740c 013d 34d2 1d3d
00000020: c657 563d 72fb 4f3e b87c 783c 706a 39bc
00000030: f0d2 033d b6df 463d 40e9 09bb f851 6fbc
00000040: 9095 ce3b 54ef 34bd c052 9abd 40b7 aabc
00000050: dd5c 973d 27a5 cdbe 37b4 adbd f05f 4e3c
00000060: 9471 82bd 78bb 86bd ec2a 8bbc 18fd 1c3d
00000070: 4040 d03c 401e 32bb c4f8 f33c 802c 2bba
00000080: 2a2a 36bd bcfd cd3e aafd 7abf 074b b9bd
00000090: 64ab a03c 10bd ab3c d471 2ebd 2eb0 7e3d
000000a0: 9ccb 323d dc49 64bd fb7c c73d 41ca 1bbe
000000b0: 5bac 4f3e 48c2 343f 49ed 133e 9955 46bf
000000c0: 12a6 7ebe 41b4 01be b8c1 16be 0107 0d3f
000000d0: 3e54 253d 9219 4d3d d8b2 04bc 2054 b33e
000000e0: 34b3 a03d 2e44 493f e4da 833f 6e5a 573e
000000f0: 0024 43be 7f9b c1be 9d03 03bf 369a 85be
00000100: d2d9 53bd a232 d3bc 96b6 41bd 25f9 1dbd
00000110: c84b b5bf cfed 3fbf 8c39 033f c898 573f
00000120: 25c1 ab3f 9b2c 3f3f 41d5 a53f 88e2 9c3e
00000130: 8a1f 58bd 80c3 013d 6466 ed3c 60d0 12bd
00000140: 40fe e83c 3921 313f 371e bebe 0183 c03d
00000150: dd70 d5be 1f5a d3be 1049 19bf e2ce 1e3f
00000160: 4656 213d 2edd 4f3d 54a2 08bd 8598 11bd
00000170: 7aa6 99bd d81d 21be 2cf5 84be ae71 29bd
00000180: f80d 613f 2254 db3d 2bb0 cd3e 2fb9 cc3d
00000190: 1345 38bf 0e6b 5d3d 40ab 72bd 50d6 8ebc
000001a0: 087e 3fbc a302 42be 7099 0a3f c1f6 003f
000001b0: adbc 73bf 18dc 1c3f 76db 253f 92f7 dd3e
000001c0: 7cae febe dda5 06bf 30e7 d83c bc3a 3f3d
000001d0: 2446 debc 0e74 593e 2702 b5be b403 2cbf
000001e0: 0bbc 35bf 29b8 91bd fe74 ffbe 3932 48be
000001f0: 1d89 1cbe 6916 a2bd feac 3d3d d652 6b3d
00000200: 8832 02bd e180 8b3d 6ecf 4c3d 767b debc
00000210: e72a 823d dd73 b63e b0ad f53e a8f1 5ebe
00000220: 4a28 18bd 7241 4d3d 183d 2d3c 8092 38bc
00000230: bb6d 00bd 0278 783d f77d 8d3d 6a5a 2dbd
00000240: 28ff 1c3d 2a5b 3c3d 367d 31bf 483d 9b3f
00000250: ecf6 e53c 4011 8b3b a012 2b3c 782c 1fbc
00000260: 5471 f43c e663 793d 3695 493d 8a91 033d
00000270: 7497 79bd f89b 903c 4668 3cbd 8841 2b3c
00000280: bc3f 013d 5082 ebbb 9f01 92bd 769f 6a3d
00000290: 9964 49bd e827 b43c 0a4d 4b3d e47e 953c
000002a0: 70d6 1d3d bec3 6d3d 0f80 8ebd d661 8abd
000002b0: 3808 383c 28ba e93c 5d06 8ebd d884 5a3c
000002c0: 7b94 16bd 950b 8bbd 5bff 273d e81c 3c3d
000002d0: 605f 17bb 0621 54bd d41d b6bc 50a8 22bc
000002e0: 1474 a0bc bed6 223d 323c 8ebc 9656 5bbd
000002f0: e6d1 3dbd bb58 803d 5e01 0b3f ffb9 a03e
00000300: 5912 08bd aced 9a3c e66e 7bbd 1993 75bd
00000310: 7a28 6b3d 80b2 7e3a 6c7f c0bc 400b db3c
00000320: 1b86 1fbd 9062 eebb 37f3 f2be 04a4 353f
00000330: f2fc 44bd 2c26 933c 4029 da3c 8049 4f3b
00000340: a025 8d3b 205c 0f3d e894 8cbc 2a51 75be
00000350: e7f9 043f f580 2f3f d71a 0abe bd1f 98be
00000360: f85e 893d 82a3 a1be 1c8a ef3e 3dcc de3d
00000370: 294b 433d b201 36bd 3cb1 dfbc cdf4 78bd
00000380: f4e3 49bf 9bb4 a33e 0a4a d73e 510c 26bf
00000390: 5c86 183f aacb ddbe 9f06 c83d ea2f fa3e
000003a0: 99b7 8bbf 1e2a 2abd d658 5c3d 8ac4 f2bc
000003b0: b955 46bd 235e 423f 30f8 9ebe f95d 1bbf
000003c0: 6a59 153e b69e 193f 665d d43e 8924 fdbe
000003d0: a70c 573f 3bad 27bd 9b37 8a3d 9e96 b1bc
000003e0: 3ef7 213d 76c3 473d 5f03 013f 410d e73d
000003f0: 4f41 bbbd 745d 903d 2437 9f3e b020 123e

linear.1.bias f4 [256]
-0.11577428 0.13783373 0.022023892 0.1590705 -0.022442393 -0.12686045 0.25560817 -0.28433043
-0.18659745 -0.01669694 2.4467168 0.25889602 0.25591075 -0.11359571 0.4993661 0.1317523
0.075485244 -0.16869572 -0.00939089 -0.1759595 -0.15243284 -0.22928753 0.0958278 0.14055936
-0.8344586 0.0024705708 0.31270963 0.09643938 -0.1746651 0.12775242 -0.07716218 0.44693625
-1.0908924 0.01773317 0.24598251 0.076141626 0.10281084 0.30363256 0.13608433 -0.04227055
0.30999774 1.7648214 0.030846 0.6784602 0.10013798 -0.113923945 0.19422513 -0.19446057
0.73596036 0.24845193 -0.004785602 0.27080232 0.21675785 0.04897598 0.16710573 -0.17944038
-0.05456172 0.014741381 -0.15275988 0.09216011 -0.669537 -1.7779018 0.302883 1.8951254
0.10875675 -0.02452361 -0.01275718 -0.0043753586 -0.008046213 1.02664 2.721963 -0.12295051
0.10727784 -0.13758898 0.030893046 -0.08017005 0.039436907 -0.10656295 0.13725652 0.20744574
0.098140106 0.9630119 0.12540945 -0.17380117 -0.12574986 -0.019713705 0.06529008 -0.03701186
-0.3118363 -0.15125039 -0.36203456 -0.111581974 0.2736628 0.11460648 0.16853145 0.18691194
0.16890308 0.038797457 0.2194747 0.4183042 0.719428 -0.0031689995 -0.12435008 -0.16845761
-0.07861422 -0.07778005 -0.24003555 -0.33289048 -0.73117054 -0.039603606 -1.0125494 -0.019043166
0.1616921 0.015444146 -0.005580147 0.13586321 -0.081290126 -0.08721392 0.29402626 -0.06806193
0.5762752 0.066017725 0.09341918 0.0040381714 -0.18112151 -0.077340774 0.1265063 -0.10864817
-0.21843882 -0.10957136 0.11256252 -0.15975428 1.5260339 0.15589997 0.047042575 0.051522575
0.13061042 -0.06631648 0.14232916 0.25793728 -0.12650144 0.037685048 0.113854796 -0.16236238
-0.1632631 -0.12968385 -0.001980591 1.0919918 -0.2718376 0.1912095 0.3055955 -0.1627985
-0.80040705 -0.8068991 0.21382628 0.317005 -0.04092172 0.006200376 0.13135228 0.14248192
-0.15297323 -0.044439588 -0.247728 -0.37749675 0.07064106 0.07578995 0.3715831 0.16103949
-0.0050481088 -0.029919736 0.08569555 -0.109024554 0.32650974 0.29631975 -0.05627184 -0.15217142
0.9374882 0.20007996 0.0049608536 0.084218495 -1.8455313 0.4587639 0.2308948 0.117244
-0.1274982 -0.24260092 0.06241149 0.12885745 -0.3605507 -0.035254296 -0.09880721 -0.30639207
0.027546639 -0.060435023 -0.1215934 -2.4744787 2.9016464 -0.020052686 -0.33067358 -0.022593968
0.056634873 -0.14883164 0.034513976 0.035652064 -0.67334414 -0.016398432 -0.19229339 0.506789
-0.067608304 0.14915672 -0.95632684 0.029764257 -0.047123335 0.82851154 -1.9078883 0.0018012553
0.07769838 0.41988114 -0.26610723 0.81542796 0.04548936 0.17690912 0.035762895 -0.04177063
-0.2372524 -0.045647465 0.05121497 -0.36615363 0.59198916 0.19302909 1.3329824 -0.08235666
-0.061995782 0.19979654 -0.17316106 -0.21374457 -0.13867956 -0.26512784 -0.04967186 0.07792304
-0.07763924 0.11703598 0.15406527 0.07550647 0.03681844 0.02323554 0.20746735 1.9653605
0.013007386 -0.24158856 0.65382814 -0.08857419 0.23920321 0.20444189 0.08105287 -0.24933963
00000000: 111b edbd 4924 0d3e 736b b43c 61e3 223e
00000010: 1cd9 b7bc b5e7 01be 13df 823e c293 91be
00000020: 6713 3fbe 05c8 88bc 0297 1c40 058e 843e
00000030: bc06 833e dea4 e8bd eaac ff3e 13ea 063e
00000040: 0298 9a3d 92be 2cbe 3fdc 19bc ba2e 34be
00000050: 5b17 1cbe 5aca 6abe 5e41 c43d cbee 0f3e
00000060: 149f 55bf 4de9 213b 7a1b a03e 0282 c53d
00000070: 68db 32be 88d1 023e 3407 9ebd d4d4 e43e
00000080: 5da2 8bbf 2745 913c d7e2 7b3e 24f0 9b3d
00000090: 7d8e d23d ba75 9b3e b159 0b3e e223 2dbd
000000a0: 06b8 9e3e abe5 e13f c0b0 fc3c 91af 2d3f
000000b0: 2415 cd3d f550 e9bd f4e2 463e ac20 47be
000000c0: e667 3c3f 2f6a 7e3e 8ad0 9cbb 9aa6 8a3e
000000d0: c5f5 5d3e 0a9b 483d c41d 2b3e 38bf 37be
000000e0: 1c7c 5fbd d585 713c 166d 1cbe 71be bc3d
000000f0: c766 2bbf 4992 e3bf 7b13 9b3e 7893 f23f
00000100: dcbb de3d bde5 c8bc 7e03 51bc 2b5f 8fbb
00000110: 43d4 03bc f168 833f a434 2e40 7acd fbbd
00000120: 7cb4 db3d 20e4 0cbe 6a13 fd3c 3230 a4bd
00000130: 9888 213d ad3d dabd f98c 0c3e a86c 543e
00000140: aefd c83d f387 763f 566b 003e eff8 31be
00000150: 92c4 00be a37e a1bc ceb6 853d c099 17bd
00000160: 02a9 9fbe 62e1 1abe 985c b9be 1785 e4bd
00000170: 881d 8c3e cdb6 ea3d 8293 2c3e d865 3f3e
00000180: eef4 2c3e 15ea 1e3d fabd 603e f82b d63e
00000190: 6f2c 383f fdae 4fbb 41ab febd 2780 2cbe
000001a0: 7e00 a1bd 264b 9fbd e1cb 75be 9f70 aabe
000001b0: fe2d 3bbf 6437 22bd 389b 81bf 6a00 9cbc
000001c0: 9d92 253e 7109 7d3c aad9 b6bb ba1f 0b3e
000001d0: 707b a6bd 369d b2bd 9c8a 963e 0e64 8bbd
000001e0: c686 133f 4d34 873d 8e52 bf3d a352 843b
000001f0: eb77 39be d764 9ebd de8a 013e ef82 debd
00000200: 6dae 5fbe f366 e0bd 2e87 e63d a096 23be
00000210: 1455 c33f 3ea4 1f3e b7af 403d 5609 533d
00000220: bdbe 053e efd0 87bd bcbe 113e 5b10 843e
00000230: 9889 01be a35b 1a3d b42c e93d 5342 26be
00000240: 712e 27be d8cb 04be cecc 01bb 63c6 8b3f
00000250: 4c2e 8bbe 6ccc 433e 0377 9c3e a6b4 26be
00000260: 7ae7 4cbf f090 4ebf 47f5 5a3e 7b4e a23e
00000270: 899d 27bd 862c cb3b 3681 063e c8e6 113e
00000280: 04a5 1cbe 4906 36bd 69ac 7dbe 4147 c1be
00000290: 43ac 903d c337 9b3d 2440 be3e 89e7 243e
000002a0: 9b6a a5bb 3c1a f5bc 2681 af3d 4448 dfbd
000002b0: 492c a73e 39b7 973e 4d7d 66bd d3d2 1bbe
000002c0: 3aff 6f3f c3e1 4c3e a88e a23b bf7a ac3d
000002d0: 5f3a ecbf 1ae3 ea3e b06f 6c3e 9f1d f03d
000002e0: e38e 02be 606c 78be 31a3 7f3d 35f3 033e
000002f0: 1a9a b8be cf66 10bd 6f5b cabd 6cdf 9cbe
00000300: 7da9 e13c b78a 77bd f605 f9bd dc5d 1ec0
00000310: 93b4 3940 8845 a4bc 0c4e a9be fc16 b9bc
00000320: f8f9 673d 5267 18be 875e 0d3d e607 123d
00000330: 4860 2cbf 0156 86bc 8fe8 44be edbc 013f
00000340: 3976 8abd 8abc 183e d6d1 74bf 2cd4 f33c
00000350: 6604 41bd 5519 543f af35 f4bf 1918 ec3a
00000360: 5420 9f3d a9fa d63e 353f 88be e3bf 503f
00000370: 0d53 3a3d aa27 353e 1d7c 123d ae17 2bbd
00000380: 4bf2 72be d6f8 3abd cac6 513d 7d78 bbbe
00000390: 9a8c 173f 6ba9 453e 2b9f aa3f 9caa a8bd
000003a0: 4aef 7dbd 7797 4c3e 2251 31be dbdf 5abe
000003b0: 0402 0ebe d6be 87be b874 4bbd 1d96 9f3d
000003c0: 5201 9fbd 8fb0 ef3d 49c3 1d3e 23a3 9a3d
000003d0: efce 163d 7658 be3c 5272 543e ef90 fb3f
000003e0: ee1c 553c fe62 77be 4861 273f 6366 b5bd
000003f0: b0f1 743e 3759 513e 0cff a53d e352 7fbe

linear.3.weight f4 [64, 256]
-1.7598352 2.903403 2.8233132 -1.1377674 -1.0503192 -2.1560543 2.0738518 -1.600079
-1.5319811 2.6897385 0.34675387 -0.6480954 -2.8180442 2.787298 0.8095014 3.8401096
2.952335 2.070876 -3.3039796 -1.680364 -2.4656959 3.4930463 3.8538594 1.4236213
-0.48305023 -2.8625476 -0.6716592 2.6386352 -2.0128593 1.8279439 1.1111133 1.4225534
-0.1771333 -2.142273 2.7014148 -3.0721111 -1.953325 -0.23337454 2.5113187 4.1504674
1.6944705 0.6136097 0.7425162 0.34295717 3.0728543 -3.396054 2.3545835 -3.448768
0.40335244 1.7838118 -2.7049046 1.6919245 3.0915651 -1.0230169 -2.1746306 -3.091237
2.9883142 -3.6322742 2.3137653 2.1289663 -0.64674294 -0.3569216 0.9774908 0.09145619
2.8838067 -0.82582814 -3.0988944 1.634886 -2.0296028 0.28947228 0.53949565 2.8403156
-2.6241035 2.9781418 -2.7609231 -1.5648708 4.0581675 -3.1163008 -1.6355374 -1.7792859
0.69809407 -0.079475276 2.696163 2.0085528 -2.250192 2.6812649 2.507905 -2.569658
2.633176 -1.8807014 3.9571805 -0.91214484 2.6043212 4.0642757 0.14384118 -4.116192
2.6843927 -2.834614 -1.3908348 0.25471085 -0.28865638 -2.509187 -3.9120517 1.4399985
-3.251632 -2.073052 3.2079895 -3.1479497 -0.831459 3.0231807 -0.4574319 -2.748591
4.1201706 1.3832227 2.8279555 -2.3728204 3.5420322 -2.900231 -0.7409898 -1.4557424
0.8249818 3.0976198 1.4855299 -3.0729113 -3.327544 0.9513214 2.4840374 0.14939126
3.924697 2.8711104 0.74984133 1.9389855 0.62761766 -0.6826732 -2.345353 -1.9076263
-2.5413923 -1.4653571 2.9785058 1.5155867 5.5318766 2.8760152 -1.4976639 2.4481153
-3.5802455 1.9296297 3.3290284 0.5462694 -4.0515695 -3.0213323 -1.2385061 -2.7453325
-0.49878672 -0.94445896 -3.9042058 1.2317029 3.2924786 -1.56856 0.7825464 3.0812352
-2.5793552 -1.9136251 -3.3079977 -3.9539504 -1.7553893 1.7875673 -1.4414546 3.1845303
-0.4709858 1.6321986 2.1093469 3.4421866 2.9001434 2.2626388 1.5596858 -2.7179143
0.21685442 -2.3738234 -3.1981072 -2.663733 -0.07773123 0.02243968 -3.5337079 2.994401
3.3653278 3.7454343 2.427955 2.5086372 -2.4742646 -2.0372589 2.5826976 -1.2147721
-2.9714904 3.7605073 1.1713047 -0.18880239 0.34241378 -1.6213492 -2.855238 4.785247
-2.2432652 2.8579159 3.074003 -3.0153363 -0.80416745 1.9758105 -2.2925117 1.4268633
-2.7029943 -1.8171259 -0.34991956 -3.2429233 3.3818097 0.23626234 -0.343018 3.2894673
3.908771 0.20533629 5.025385 0.38459736 -1.9904666 -4.0292916 2.7703745 -3.5618894
-2.6958447 -3.469235 3.7761161 4.1389914 0.49619812 -2.0970824 -0.30276603 4.0249205
-2.6177711 3.8457396 -1.5110059 3.6762772 -3.4372516 -2.2764316 -1.8560553 -0.90008163
-2.3225791 3.447818 -1.5417305 2.9141347 2.7283988 3.0010428 -0.3151604 0.5988973
-3.162261 -2.7633326 0.45072037 -0.28242302 -2.1849523 -2.2311363 -2.6911254 -1.9997644
00000000: 4842 e1bf 5bd1 3940 2ab1 3440 5da2 91bf
00000010: dc70 86bf cbfc 09c0 fdb9 0440 64cf ccbf
00000020: f517 c4bf ad24 2c40 b989 b13e 95e9 25bf
00000030: d65a 34c0 1763 3240 7c3b 4f3f 5bc4 7540
00000040: 0ef3 3c40 3b89 0440 6774 53c0 2b16 d7bf
00000050: f6cd 1dc0 128e 5f40 a2a5 7640 3939 b63f
00000060: 5c52 f7be fb33 37c0 dbf1 2bbf 66df 2840
00000070: b0d2 00c0 11fa e93f f638 8e3f 3b16 b63f
00000080: 6f62 35be 001b 09c0 fbe3 2c40 789d 44c0
00000090: 8e06 fabf bcf9 6ebe 72b9 2040 a1d0 8440
000000a0: 69e4 d83f 8615 1d3f 8b15 3e3f 1598 af3e
000000b0: a5a9 4440 f358 59c0 7fb1 1640 9db8 5cc0
000000c0: 3684 ce3e f253 e43f 281d 2dc0 fb90 d83f
000000d0: 34dc 4540 38f2 82bf 262d 0bc0 d4d6 45c0
000000e0: 8a40 3f40 2e77 68c0 bb14 1440 fc40 0840
000000f0: f290 25bf 6ebe b6be d63c 7a3f 624d bb3d
00000100: 4a90 3840 7969 53bf 4954 46c0 f243 d13f
00000110: 03e5 01c0 b635 943e 631c 0a3f bbc7 3540
00000120: 50f1 27c0 e099 3e40 f7b2 30c0 b04d c8bf
00000130: 82dc 8140 7971 47c0 4a59 d1bf a4bf e3bf
00000140: 4bb6 323f efc3 a2bd ef8d 2c40 218c 0040
00000150: 2503 10c0 d899 2b40 8481 2040 4775 24c0
00000160: f585 2840 d3ba f0bf 7242 7d40 5382 69bf
00000170: 33ad 2640 8c0e 8240 1a4b 133e d8b7 83c0
00000180: 17cd 2b40 516a 35c0 e006 b2bf 7669 823e
00000190: c5ca 93be 8596 20c0 0e5f 7ac0 df51 b83f
000001a0: bd1a 50c0 e2ac 04c0 b34f 4d40 0278 49c0
000001b0: 7fda 54bf cb7b 4140 8434 eabe eae8 2fc0
000001c0: 70d8 8340 710d b13f 39fd 3440 4adc 17c0
000001d0: a8b0 6240 629d 39c0 82b1 3dbf c455 babf
000001e0: 0232 533f 673f 4640 d825 be3f 94aa 44c0
000001f0: 7bf6 54c0 cd89 733f 78fa 1e40 06fa 183e
00000200: 3c2e 7b40 46c0 3740 9af5 3f3f ad30 f83f
00000210: 8dab 203f acc3 2ebf 431a 16c0 192d f4bf
00000220: 2ca6 22c0 d290 bbbf d79f 3e40 bffe c13f
00000230: 2205 b140 a210 3840 73b3 bfbf ecad 1c40
00000240: be22 65c0 1bfe f63f cd0e 5540 50d8 0b3f
00000250: 75a6 81c0 825d 41c0 5e87 9ebf 87b3 2fc0
00000260: f960 ffbe 10c8 71bf 82de 79c0 71a8 9d3f
00000270: f8b7 5240 93c6 c8bf f654 483f f532 4540
00000280: 2814 25c0 abf1 f4bf 3cb6 53c0 860d 7dc0
00000290: 99b0 e0bf 01cf e43f 9681 b8bf 58cf 4b40
000002a0: 0d25 f1be e2eb d03f 8aff 0640 c94c 5c40
000002b0: f39b 3940 13cf 1040 c9a3 c73f 4ff2 2dc0
000002c0: 160f 5e3e b9ec 17c0 caad 4cc0 9a7a 2ac0
000002d0: 8d31 9fbd 6bd3 b73c 4528 62c0 44a4 3f40
000002e0: 8861 5740 32b5 6f40 9d63 1b40 838d 2040
000002f0: 5a5a 1ec0 7362 02c0 eb4a 2540 a77d 9bbf
00000300: e62c 3ec0 27ac 7040 50ed 953f 6a55 41be
00000310: dc50 af3e 5f88 cfbf 38bc 36c0 be20 9940
00000320: a891 0fc0 18e8 3640 77bc 4440 45fb 40c0
00000330: ebdd 4dbf 5ce7 fc3f 83b8 12c0 75a3 b63f
00000340: dcfd 2cc0 9597 e8bf a828 b3be 0e8c 4fc0
00000350: 926f 5840 c1ee 713e 0ea0 afbe a286 5240
00000360: 4e29 7a40 ad43 523e f4cf a040 f2e9 c43e
00000370: 9cc7 febf f5ef 80c0 d14d 3140 fff5 63c0
00000380: b888 2cc0 f207 5ec0 e3ab 7140 9e72 8440
00000390: ae0d fe3e 9936 06c0 2604 9bbe 26cc 8040
000003a0: 9089 27c0 9920 7640 a468 c1bf 2048 6b40
000003b0: eefb 5bc0 0eb1 11c0 3893 edbf c06b 66bf
000003c0: 23a5 14c0 0da9 5c40 6d57 c5bf 2f81 3a40
000003d0: 169e 2e40 1611 4040 b45c a1be 5551 193f
000003e0: 7c62 4ac0 71da 30c0 d2c4 e63e c099 90be
000003f0: 42d6 0bc0 f0ca 0ec0 663b 2cc0 48f8 ffbf

linear.3.bias f4 [64]
0.06280353 -0.10476749 0.1307819 -0.11044769 0.47970983 -0.028087467 -0.2632192 -0.122386225
0.22383617 -0.14795001 -0.21469365 -0.3067946 -0.26658294 -0.2591312 0.3364905 -0.24459612
-0.095235735 -0.111393794 0.29364035 -0.2794332 0.13477759 0.7249935 0.017534107 0.46096864
0.430196 -0.43099177 -0.37528652 -0.4104277 -0.37724262 -0.15050715 -0.18639371 -0.17923775
0.089684196 -0.36011347 -0.4681209 -0.021015959 -0.25594154 0.3750644 -0.82210195 -0.14510933
-0.12631269 -0.34883267 0.30105996 -0.1338686 0.06220668 -0.13346842 -0.24657798 0.073053345
-0.63423 0.19869606 0.4215498 0.39325497 0.46897313 -0.15379204 -0.03861828 0.338134
-0.30989385 -0.080978744 -0.25050765 -0.35454628 -0.4279544 0.40511775 -0.28194794 -0.26971656
00000000: 239f 803d 5690 d6bd b1eb 053e 6632 e2bd
00000010: 879c f53e b017 e6bc abc4 86be a1a5 fabd
00000020: 4f35 653e 3580 17be a7d8 5bbe 2f14 9dbe
00000030: 8f7d 88be d8ac 84be 7c48 ac3e 6877 7abe
00000040: f40a c3bd 6e22 e4bd 0758 963e de11 8fbe
00000050: 2303 0a3e 2d99 393f b0a3 8f3c 1504 ec3e
00000060: a642 dc3e f4aa dcbe 8e25 c0be 9423 d2be
00000070: f225 c1be 8c1e 1abe fedd 3ebe 1a8a 37be
00000080: 59ac b73d cb60 b8be 8bad efbe a929 acbc
00000090: c50a 83be 7108 c03e 4675 52bf 8a97 14be
000000a0: 1d58 01be 329a b2be 8824 9a3e da14 09be
000000b0: 6fcc 7e3d f2ab 08be f07e 7cbe fe9c 953d
000000c0: e65c 22bf fb76 4b3e 60d5 d73e b758 c93e
000000d0: 3f1d f03e a97b 1dbe 342e 1ebd e61f ad3e
000000e0: 68aa 9ebe 2fd8 a5bd 8a42 80be 1787 b5be
000000f0: d71c dbbe 986b cf3e 7b5b 90be 4a18 8abe

reg.weight f4 [2, 128]
1.8495919 -2.0104222 0.7846789 -1.9333606 1.9432521 1.3613535 -1.2962457 1.4985123
0.58867943 1.5758576 0.9661255 0.064114735 1.6987137 2.225287 -1.0232354 -1.326687
0.7850627 0.978084 1.2115672 0.61178595 1.3866187 1.336892 1.2174265 0.57217646
1.2396643 1.1452925 0.0025701607 0.94323224 -0.21684383 -1.1994103 -1.4554236 1.983298
1.8626821 1.7312572 1.5703082 0.044172004 0.9173422 1.0618117 -1.4156137 0.592216
0.6509011 1.7853796 0.079826295 0.8076278 -1.1649586 -1.4345523 1.4261973 1.3276794
2.4898725 0.865183 -1.4407687 0.7220904 0.061391976 1.4506332 0.6939642 -2.1714816
1.7200497 0.7202988 0.24476999 0.081721306 0.08672026 0.021809464 2.091848 1.4938574
9.752227 10.133604 9.724114 10.076167 -4.1264086 9.99169 10.102111 10.062403
-4.150518 10.126097 9.997301 10.1058445 10.184298 10.046633 -4.068615 10.117423
9.791819 9.977052 -4.119443 10.017487 9.983921 -4.4204597 10.041066 -4.192735
-4.0570445 10.022858 10.028752 10.024738 9.992773 9.867269 10.073452 10.00907
9.7850275 10.006416 10.063818 10.129089 10.018413 -4.1219745 3.8654835 9.962224
9.988212 10.023356 9.899692 10.034709 9.888419 10.02452 9.970447 9.832121
3.8595488 9.887178 -4.0885754 -4.106365 -4.1808305 9.937881 9.867469 -4.056213
10.022993 10.019896 10.0051985 10.0328045 10.03474 -4.1597967 10.080112 10.017402
0.009047885 -0.0054254187 0.006223839 0.09692007 -0.01008923 0.0057929764 -0.024100928 -0.010102664
0.013969178 -0.00897865 0.0056732157 0.04567566 -0.017956117 -0.0028184673 0.0073131816 0.0065081646
-0.00035908824 0.0036248025 -0.0063014505 0.02218999 0.0020238415 0.009507976 0.00064083585 -0.020523217
0.0028456114 0.006451491 0.12600146 -0.005087295 0.5189653 -0.0060002566 -0.016697258 -6.264965e-05
-0.0029406736 -0.006594456 -0.0033377646 0.028586006 -0.01899019 0.015896557 0.028979434 -0.01568653
0.007010074 0.04056412 -0.066364706 0.0051908926 0.024628984 -0.006465535 -0.018502776 0.007880124
0.0028909142 0.007757416 -0.012548482 0.00192601 0.14154385 -0.009227366 0.002902598 -0.0054556527
0.007834938 0.004343503 -0.324431 -0.008822741 -0.07831127 -0.15312755 -0.0021907229 0.05019968
0.0073577133 0.0018882544 0.012652098 -0.001912767 0.012061052 0.009402545 0.0033970932 -0.0044774055
-0.019297222 -0.0024159444 -0.01013687 -0.0008422543 0.0020780794 -0.001038108 -0.013531438 -0.0074145366
0.013917579 -0.018341947 -0.0009910027 0.0044001983 0.016183 -0.0019801918 -0.00424099 -0.012727323
0.011168204 0.0032023445 -0.00985825 -0.009800891 -0.0025203724 -0.009676084 -0.0068697366 0.010521272
0.010530097 0.0032220916 -0.003001888 -0.009814239 0.012743837 -0.022602338 0.012505234 0.0015414516
0.020451609 0.006323486 0.016555233 -0.005669536 -0.0027700837 -0.0071927914 -0.009099662 -0.019192105
-0.115760595 -0.004237694 0.005256898 0.030469416 0.021499313 0.0068964874 0.009196985 -0.0013736747
0.023553738 0.006192326 -0.026540866 -0.0004332044 -0.005468391 -0.007046046 -0.0030841478 0.0024906993
00000000: 6dbf ec3f c2aa 00c0 b7e0 483f 5c78 f7bf
00000010: 7cbc f83f d540 ae3f 61eb a5bf 40cf bf3f
00000020: b2b3 163f b4b5 c93f 0054 773f 964e 833d
00000030: 736f d93f 1a6b 0e40 61f9 82bf e1d0 a9bf
00000040: def9 483f b763 7a3f a214 9b3f 019e 1c3f
00000050: b97c b13f 471f ab3f a2d4 9b3f 287a 123f
00000060: 52ad 9e3f f298 923f 2470 283b ab77 713f
00000070: 4f0c 5ebe 4786 99bf 524b babf b5dc fd3f
00000080: 5e6c ee3f d699 dd3f dcff c83f b4ed 343d
00000090: f0d6 6a3f 72e9 873f d432 b5bf 789b 173f
000000a0: 74a1 263f 5287 e43f f87b a33d b2c0 4e3f
000000b0: 5d1d 95bf 699f b7bf a28d b63f 66f1 a93f
000000c0: 125a 1f40 a27c 5d3f 1c6b b8bf ebda 383f
000000d0: 2776 7b3d 59ae b93f a3a7 313f 8ef9 0ac0
000000e0: 972a dc3f 8165 383f fca4 7a3e 805d a73d
000000f0: 649a b13d c3a9 b23c d6e0 0540 b836 bf3f
00000100: 1f09 1c41 3e23 2241 f995 1b41 fb37 2141
00000110: 8a0b 84c0 f6dd 1f41 3fa2 2141 9aff 2041
00000120: 0bd1 84c0 7e04 2241 f2f4 1f41 8ab1 2141
00000130: e2f2 2241 02bf 2041 1832 82c0 f7e0 2141
00000140: 4aab 1c41 01a2 1f41 7ad2 83c0 a047 2041
00000150: 24be 1f41 6874 8dc0 35a8 2041 e32a 86c0
00000160: 4fd3 81c0 a05d 2041 c575 2041 5465 2041
00000170: 66e2 1f41 55e0 1d41 dc2c 2141 2725 2041
00000180: 798f 1c41 481a 2041 6605 2141 c010 2241
00000190: 6b4b 2041 37e7 83c0 1564 7740 4565 1f41
000001a0: b7cf 1f41 ab5f 2041 2365 1e41 2b8e 2041
000001b0: f736 1e41 6f64 2041 f386 1f41 5e50 1d41
000001c0: d902 7740 e231 1e41 9cd5 82c0 5867 83c0
000001d0: 5dc9 85c0 9001 1f41 27e1 1d41 7fcc 81c0
000001e0: 2e5e 2041 7e51 2041 4b15 2041 5e86 2041
000001f0: 4c8e 2041 0e1d 85c0 2448 2141 4747 2041
00000200: 953d 143c b6c7 b1bb 58f1 cb3b 087e c63d
00000210: 4c4d 25bc 02d3 bd3b 4f6f c5bc a585 25bc
00000220: fbde 643c 301b 13bc 62e6 b93b 6716 3b3d
00000230: b518 93bc 09b6 38bb 6aa3 ef3b 7142 d53b
00000240: 0244 bcb9 188e 6d3b 667c cebb c8c7 b53c
00000250: 6da2 043b 57c7 1b3c c4fd 273a 4e20 a8bc
00000260: 707d 3a3b 0767 d33b 8706 013e 53b3 a6bb
00000270: e9da 043f cd9d c4bb b0c8 88bc c662 83b8
00000280: 51b8 40bb 4e16 d8bb 66be 5abb 332d ea3c
00000290: 5191 9bbc 7f39 823c 4766 ed3c 0a81 80bc
000002a0: c3b4 e53b 9026 263d 38ea 87bd 5d18 aa3b
000002b0: b9c2 c93c d7dc d3bb 2293 97bc a31b 013c
000002c0: 7e75 3d3b ec31 fe3b 2698 4dbc 2c72 fc3a
000002d0: dff0 103e 612e 17bc 8339 3e3b 55c5 b2bb
000002e0: 1d5e 003c f253 8e3b d21b a6be 428d 10bc
000002f0: a961 a0bd 78cd 1cbe 3b92 0fbb 2e9e 4d3d
00000300: f918 f13b 4e7f f73a bf4a 4f3c cfb5 faba
00000310: b89b 453c 220d 1a3c c4a1 5e3b 33b7 92bb
00000320: 3515 9ebc d254 1ebb 1d15 26bc bbca 5cba
00000330: 6330 083b 2011 88ba f7b2 5dbc a4f5 f2bb
00000340: 8f06 643c da41 96bc 88e4 81ba 8a2f 903b
00000350: 3692 843c 1bc6 01bb 01f8 8abb 4386 50bc
00000360: d8fa 363c 6dde 513b 7f84 21bc eb93 20bc
00000370: d52c 25bb 7088 1ebc 871b e1bb 6a61 2c3c
00000380: 6e86 2c3c ba29 533b 53bb 44bb e7cb 20bc
00000390: 87cb 503c 8a28 b9bc c1e2 4c3c 880a ca3a
000003a0: 228a a73c 3f35 cf3b d79e 873c 84c7 b9bb
000003b0: 4b8a 35bb 82b1 ebbb c016 15bc c338 9dbc
000003c0: e413 edbd 5bdc 8abb 0e42 ac3b ff9a f93c
000003d0: 541f b03c eefb e13b f3ae 163c e00c b4ba
000003e0: c5f3 c03c ffe8 ca3b 3b6c d9bc b61f e3b9
000003f0: 3030 b3bb 85e2 e6bb 6a1f 4abb 003b 233b

reg.bias f4 [2]
-0.44931415 0.2696082
00000000: 810c e6be 160a 8a3e
