server/models/value_model_minmax80.pt (torch, 255287 bytes, 12 tensors)

conv.0.weight f4 [4, 1, 3, 3]
-0.09083855 -0.0808545 0.08022765 0.021764949 -0.03885386 -0.011854911 0.031274706 -0.42657283
-0.006444411 -0.12093085 -0.13114484 -0.11277244 0.11341721 0.25995114 -0.23243114 0.039062764
-0.471841 0.12365652 -0.07489209 0.1448816 -0.45906463 -0.019226737 0.30016288 0.4789203
0.135808 -0.43102053 -0.20643927 -0.0009185583 -0.67274743 0.007103358 -0.012290458 -0.002901349
0.21965246 -0.020135092 -0.22574121 -0.26663896
00000000: 9009 babd 0b97 a5bd 654e a43d 684c b23c
00000010: 3a25 1fbd 1a3b 42bc e819 003d c167 dabe
00000020: a32b d3bb 98aa f7bd d54a 06be 3df5 e6bd
00000030: 4847 e83d 5118 853e 6e02 6ebe 4700 203d
00000040: 2595 f1be a13f fd3d 0661 99bd d85b 143e
00000050: 850a ebbe 6481 9dbc f3ae 993e 0b35 f53e
00000060: 4111 0b3e b9ae dcbe d164 53be 67cb 70ba
00000070: 2d39 2cbf 49c3 e83b eb5d 49bc 8f24 3ebb
00000080: 93ec 603e 59f2 a4bc b428 67be e784 88be

conv.0.bias f4 [4]
0.13489822 -0.08622956 -0.0568547 0.1578206
00000000: c222 0a3e 2099 b0bd 79e0 68bd b99b 213e

conv.2.weight f4 [4, 4, 3, 3]
-0.30022553 0.27490336 -0.03228724 0.01660862 0.004312792 0.054442406 -0.114515774 -0.0032477658
-0.19856273 -0.019202951 -0.031885415 0.07316324 0.06518054 -0.39212617 0.11470803 -0.15462485
-0.057889737 -0.1786405 0.015995422 -0.07459582 -0.09123562 -0.023992332 -0.03279482 -0.23397925
0.08822692 -0.27111125 0.1630702 -0.11495604 0.1965477 0.07074451 0.076355204 -0.16744319
0.23263264 -0.009934894 0.10088413 -0.10076026 0.06596478 0.1273717 -0.27450484 0.00992246
-0.0010504189 -0.019542597 0.15147382 0.34232378 -0.07860602 -0.05164037 0.034497492 -0.548852
-0.03454041 -0.089741975 0.17018643 -0.21578676 -0.07942217 -0.1244113 0.0071414956 0.024647513
0.21778262 0.019041415 -0.22989951 -1.2060529 0.0100645935 -0.48216534 0.3102449 0.0362314
-0.05981872 0.1064181 -0.006330104 0.2051932 -0.71818995 0.1863643 0.5459135 -0.21770787
0.005957609 -0.111038625 -0.07216073 0.048423667 -0.042315092 -0.10330935 0.15238251 -0.128078
0.34238243 0.027152315 0.015597565 -0.25882715 -0.09755594 -0.1788667 -0.36046112 -0.20373575
-0.27229914 -0.2640024 -0.005889094 -0.07949259 -0.850227 -0.01664646 -0.25031206 2.4779976e-05
0.038719468 -0.09577758 0.018426301 -0.03887508 0.07076627 -0.42281318 0.07088256 0.050133437
0.27692434 0.21436411 -0.07816772 0.13151342 -0.034604255 0.086946465 -0.12187947 0.07614537
-0.1446206 0.0019081347 -0.03936679 0.15303314 0.09931687 0.010284833 -0.12905207 0.06837129
-0.001124583 -0.17116456 -0.07763855 0.11717617 -0.27163953 0.00055130234 0.056463566 0.22357492
-0.49928316 -0.04432669 0.1448372 -0.18299504 0.106737636 -0.21094592 -0.16514237 0.027441626
-0.18198924 0.16108854 -0.0034709221 -0.08261741 0.22608507 0.06585197 0.015082548 0.0670177
00000000: 29b7 99be 22c0 8c3e a03f 04bd cd0e 883c
00000010: 5252 8d3b 00ff 5e3d 3f87 eabd 78d8 54bb
00000020: 0754 4bbe 824f 9dbc 489a 02bd 9cd6 953d
00000030: 607d 853d c3c4 c8be 0bec ea3d fa55 1ebe
00000040: ca1d 6dbd 89ed 36be d508 833c b1c5 98bd
00000050: bed9 babd 918b c4bc dc53 06bd 4298 6fbe
00000060: 51b0 b43d 18cf 8abe e0fb 263e 136e ebbd
00000070: cd43 493e 7fe2 903d 1e60 9c3d 3a76 2bbe
00000080: 4037 6e3e f7c5 22bc 579c ce3d 655b cebd
00000090: 8b18 873d ba6d 023e e68b 8cbe d091 223c
000000a0: 36ae 89ba cc17 a0bc f41b 1b3e 1045 af3e
000000b0: 31fc a0bd da84 53bd 3e4d 0d3d 9181 0cbf
000000c0: 3f7a 0dbd a4ca b7bd 5a45 2e3e 34f7 5cbe
000000d0: 17a8 a2bd 5acb febd 3503 ea3b 95e9 c93c
000000e0: 6802 5f3e befc 9b3c c76a 6bbe f15f 9abf
000000f0: f7e5 243c 60de f6be 6bd8 9e3e 6067 143d
00000100: 7904 75bd bcf1 d93d c36c cfbb 2b1e 523e
00000110: 4cdb 37bf 48d6 3e3e fdc0 0b3f d0ee 5ebe
00000120: 0c38 c33b 3868 e3bd 01c9 93bd e557 463d
00000130: 9752 2dbd da93 d3bd 290a 1c3e e126 03be
00000140: c04c af3e 886e de3c ee8c 7f3c fe84 84be
00000150: 69cb c7bd d528 37be 5c8e b8be 1ba0 50be
00000160: cb6a 8bbe 532b 87be 4df9 c0bb 03cd a2bd
00000170: 7aa8 59bf 285e 88bc e728 80be 98de cf37
00000180: 4e98 1e3d 0927 c4bd c1f2 963c 7a3b 1fbd
00000190: e8ed 903d f87a d8be e02a 913d b858 4d3d
000001a0: 07c9 8d3e 4482 5b3e 6616 a0bd 74ab 063e
000001b0: 31bd 0dbd fd10 b23d f29b f9bd 1bf2 9b3d
000001c0: 6c17 14be 601a fa3a 123f 21bd b8b4 1c3e
000001d0: a566 cb3d b781 283c 3a26 04be 3f06 8c3d
000001e0: be66 93ba c345 2fbe f600 9fbd 0ffa ef3d
000001f0: 5614 8bbe 4685 103a 5746 673d d3f0 643e
00000200: 0ba2 ffbe e78f 35bd 3450 143e 0d63 3bbe
00000210: 4399 da3d 3502 58be 151b 29be 43cd e03c
00000220: 635b 3abe 65f4 243e 6978 63bb 5133 a9bd
00000230: d882 673e 66dd 863d cb1c 773c 9340 893d

conv.2.bias f4 [4]
-0.098827064 -0.18393035 -0.19759491 -0.09880059
00000000: d865 cabd 3d58 3cbe 5256 4abe f757 cabd

conv.5.weight f4 [64, 36]
-0.11747669 -0.043416783 -0.06873085 -0.08604308 -0.023783132 -0.02058346 -0.10086185 -0.023513123
-0.06074341 0.0011451425 -0.027476154 -0.004275228 0.029067311 0.006725352 0.030209675 0.012077259
-0.014570099 0.10799175 0.027496845 -0.060537472 0.061696794 0.010366669 0.021806058 -0.069782354
-0.03022947 -0.05138067 -0.0008766351 -0.14395934 -0.0018331517 -0.0142574385 0.025978332 -0.010136458
0.0060892086 0.03857011 -0.0006054027 -0.0084576635 0.0148730315 -0.072435245 0.0026019684 -0.086289585
0.08875793 0.12582232 0.07510577 0.023053825 -0.14797169 0.088428825 -0.28837776 -0.19496042
-0.052583355 0.02347477 0.33059165 -0.14178012 0.14025979 -0.57287097 -0.13363618 0.07789946
-0.12134629 -0.14750837 -0.10983646 0.33390656 -0.07744672 -0.0022497901 -0.44942823 -0.17681007
-0.080535516 -0.2587601 0.023161493 -0.122332454 -0.3506909 -0.01552102 0.04526916 -0.42759535
0.0579762 0.39016205 0.28560007 -0.12466723 -0.073631056 -0.5704636 -0.3309227 -0.1460004
0.23997489 -0.48334402 -0.58734375 0.31965628 0.17045446 0.19448008 0.28874335 0.48203868
0.60556114 0.31084216 -0.47446787 0.04591855 -0.20124334 0.24005331 0.3229345 0.14488181
0.7209139 0.23112735 -0.24544142 -0.15611562 0.2522775 -0.18937813 0.14521703 -0.5459571
-0.76624674 -0.04465008 -0.36997905 -0.56914586 0.09676533 0.15575828 -0.6686314 -0.037701137
-0.01926693 0.17440973 0.10664445 -0.13241318 0.20641764 0.0012098678 -0.00637336 0.4473782
0.067490585 0.046234753 -2.3219512 0.030820768 0.027811693 0.40144947 -0.021292118 -0.3016948
0.25961846 -0.18303841 0.031447913 -1.400161 -0.08140994 -0.075433746 1.7841325 -0.10117557
-0.031661294 -0.2018221 0.09775519 0.067211196 0.051701356 -0.071633965 -0.0031321226 0.20415439
-0.06906951 -0.015432886 0.12234613 -0.12801161 0.3123704 -0.09142183 -0.4220062 -0.3416641
0.23712774 -0.42356893 -0.28256443 0.050105337 0.07153103 -0.11465177 -0.3575532 0.32252958
0.07033043 -0.48215374 -0.3755297 -0.10613432 0.21721669 -0.19538715 0.11312717 0.12830874
0.21137615 0.2737728 -0.20116127 -0.29048327 0.57245743 0.35094166 0.093719795 -0.18007518
-0.85127467 -0.03034729 -0.18852647 -0.5527132 0.37945876 -0.2383297 0.20496836 -0.13981003
0.010609156 0.06348279 -0.0007896745 0.031251572 0.2639692 -0.06549575 -0.432962 -0.9247049
0.030261252 -0.013759575 -0.36331227 -0.1641677 -0.070282735 -0.47396618 -0.12824933 0.06411515
-0.008984336 -0.12109349 0.032148708 0.23195164 0.02202768 -0.01224757 -0.05866317 -0.22542062
0.18556713 0.31016007 -0.09399603 -0.07391183 -0.5706397 0.015053245 0.013234103 -0.119890355
-0.10466441 -0.07559158 0.07727758 -0.0819851 0.10390259 0.0960114 -0.023140743 0.020403313
-0.09874791 0.005341431 -0.0055549354 0.021485317 0.023477444 0.011890192 0.530071 0.04676179
0.010565546 -0.1042521 0.11712182 0.25379646 -0.07139763 0.16034694 -0.006335133 0.34082946
-0.046529464 0.14189559 -0.41349447 0.2174625 -0.000109355 -0.039472558 0.06185267 0.06119251
0.23210144 0.009718243 0.09622626 0.0033459929 0.32686886 -0.04804818 -0.028400848 -0.066634424
00000000: 9e97 f0bd ccd5 31bd c3c2 8cbd 5b37 b0bd
00000010: d8d4 c2bc a59e a8bc a890 cebd 989e c0bc
00000020: 15ce 78bd 9b18 963a ac15 e1bc 3617 8cbb
00000030: 921e ee3c 5760 dc3b 487a f73c b2df 453c
00000040: 6db7 6ebc c72a dd3d 1041 e13c 24f6 77bd
00000050: c7b5 7c3d f6d8 293c 9ea2 b23c 0dea 8ebd
00000060: cba3 f7bc 8a74 52bd fccd 65ba 146a 13be
00000070: 5d46 f0ba 0898 69bc 83d0 d43c 6313 26bc
00000080: fc87 c73b b1fb 1d3d e3b3 1eba 0392 0abc
00000090: 04ae 733c ee58 94bd c985 2a3b 98b8 b0bd
000000a0: b8c6 b53d 91d7 003e 0ed1 993d 60db bc3c
000000b0: e485 17be 2c1a b53d 40a6 93be b4a3 47be
000000c0: a561 57bd 294e c03c 4f43 a93e cf2e 11be
000000d0: 43a0 0f3e aca7 12bf ecd7 08be c189 9f3d
000000e0: 6784 f8bd 6f0c 17be f0f1 e0bd cdf5 aa3e
000000f0: 639c 9ebd 3771 13bb 751b e6be b30d 35be
00000100: ceef a4bd 347c 84be 2cbd bd3c 7089 fabd
00000110: c28d b3be e04b 7ebc 286c 393d c7ed dabe
00000120: 7478 6d3d 52c3 c73e 2c3a 923e 8851 ffbd
00000130: e1cb 96bd e709 12bf b36e a9be 2181 15be
00000140: fabb 753e de78 f7be 295c 16bf fda9 a33e
00000150: 9d8b 2e3e c925 473e 2bd6 933e c6cd f63e
00000160: 0e06 1b3f b426 9f3e 74ed f2be 1715 3c3d
00000170: bc12 4ebe 89d0 753e ac57 a53e e65b 143e
00000180: d08d 383f a6ac 6c3e ff54 7bbe c6dc 1fbe
00000190: 842a 813e 57ec 41be c6b3 143e d8c3 0bbf
000001a0: bf28 44bf 01e3 36bd e56d bdbe 8bb3 11bf
000001b0: e72c c63d 197f 1f3e 6d2b 2bbf 826c 1abd
000001c0: aed5 9dbc 7798 323e 6868 da3d 5297 07be
000001d0: 255f 533e 6d94 9e3a 9ed7 d0bb c10e e53e
000001e0: 8138 8a3d a760 3d3d d99a 14c0 d67b fc3c
000001f0: 59d5 e33c c98a cd3e cf6c aebc be77 9abe
00000200: b6ec 843e 6c6e 3bbe 87cf 003d 7a38 b3bf
00000210: 41ba a6bd 027d 9abd 745e e43f 2335 cfbd
00000220: 46af 01bd 74aa 4ebe e033 c83d 06a6 893d
00000230: cdc4 533d d4b4 92bd 4c44 4dbb d90d 513e
00000240: 5174 8dbd 37da 7cbc 9c90 fa3d 7a15 03be
00000250: 03ef 9f3e 5e3b bbbd 3211 d8be 99ee aebe
00000260: 9dd1 723e 07de d8be 49ac 90be 413b 4d3d
00000270: dc7e 923d 8cce eabd 3711 b7be 9922 a53e
00000280: 6709 903d dbdc f6be 6e45 c0be f35c d9bd
00000290: 0d6e 5e3e 9213 48be 38af e73d 5e63 033e
000002a0: fd72 583e f32b 8c3e 38fd 4dbe 39ba 94be
000002b0: 928c 123f a0ae b33e 2af0 bf3d a165 38be
000002c0: 23ed 59bf e19a f8bc 150d 41be 9d7e 0dbf
000002d0: 6b48 c23e b30c 74be 3ae3 513e 5c2a 0fbe
000002e0: 07d2 2d3c 4403 823d 2902 4fba a601 003d
000002f0: f926 873e a322 86bd 32ad ddbe 76b9 6cbf
00000300: 72e6 f73c d76f 61bc 1104 babe 941b 28be
00000310: 65f0 8fbd b2ab f2be cb53 03be ce4e 833d
00000320: 0933 13bc ddff f7bd 5dae 033d bb84 6d3e
00000330: 6573 b43c 08aa 48bc cb48 70bd aad4 66be
00000340: 4f05 3e3e 4dcd 9e3e fe80 c0bd 165f 97bd
00000350: 7215 12bf e3a1 763c dad3 583c 1389 f5bd
00000360: 4b5a d6bd c2cf 9abd b543 9e3d cee7 a7bd
00000370: e2ca d43d a0a1 c43d a891 bdbc d924 a73c
00000380: 583c cabd 2c07 af3b 2d06 b6bb fa01 b03c
00000390: c553 c03c 14cf 423c bcb2 073f 4a89 3f3d
000003a0: 1d1b 2d3c 2082 d5bd 91dd ef3d 9cf1 813e
000003b0: ec38 92bd fd31 243e f396 cfbb 3381 ae3e
000003c0: ae95 3ebd 144d 113e 8cb5 d3be 7dae 5e3e
000003d0: 8555 e5b8 faad 21bd 3a59 7d3d ffa4 7a3d
000003e0: 00ac 6d3e 4439 1f3c 4612 c53d 7248 5b3b
000003f0: 5b5b a73e 2bce 44bd e5a8 e8bc a177 88bd

conv.5.bias f4 [64]
-0.081127815 0.004047904 -0.52535784 -0.2130908 -0.21135968 -0.27361554 0.22767839 0.026319217
-0.4735604 -0.26109084 -0.6253287 -2.8111792 -0.43456665 -0.6981208 -0.053840872 -0.5051973
-0.04329392 -0.6825349 -0.6383062 -0.11910965 -2.6642616 -0.43338642 -0.4173084 -0.4883708
-0.68698794 -0.6957344 -0.36708483 -3.0137448 -0.34964573 -0.33696347 0.3515524 -0.57417923
-0.59699726 -0.11730434 -0.56505245 -0.13959432 -0.7723964 -1.6253004 0.22800459 -0.072619446
-0.07575072 -0.057470337 0.00032347906 -0.45478672 0.16779949 -0.4592474 -0.6774826 0.23243946
-0.4820187 -0.68726414 -0.056325372 -0.38685593 -0.40721875 -0.42745668 -0.28069022 -0.4347993
-0.42144638 -0.09945478 -0.77069175 -0.4282343 -0.72650284 -0.6417922 -0.70144624 -0.45313978
00000000: 5726 a6bd 48a4 843b da7d 06bf 7a34 5abe
00000010: ac6e 58be 5617 8cbe 8624 693e 669b d73c
00000020: 8276 f2be b3ad 85be 8b15 20bf 5cea 33c0
00000030: 857f debe 0bb8 32bf 3f88 5cbd 9c54 01bf
00000040: f754 31bd 9bba 2ebf 0968 23bf c3ef f3bd
00000050: 4383 2ac0 d3e4 ddbe 72a9 d5be bd0b fabe
00000060: 71de 2fbf a61b 32bf 8bf2 bbbe 32e1 40c0
00000070: c404 b3be 7a86 acbe adfe b33e 69fd 12bf
00000080: d0d4 18bf 423d f0bd 47a7 10bf d0f1 0ebe
00000090: c5bb 45bf d809 d0bf 097a 693e 81b9 94bd
000000a0: 3223 9bbd 0466 6bbd a098 a939 ced9 e8be
000000b0: a1d3 2b3e 7a22 ebbe 806f 2dbf 9c04 6e3e
000000c0: 28cb f6be 8bf0 2fbf 6fb5 66bd fb11 c6be
000000d0: fa7e d0be 9adb dabe a1b6 8fbe 049e debe
000000e0: d2c7 d7be f3ae cbbd 0e4c 45bf 8741 dbbe
000000f0: 17fc 39bf 7e4c 24bf fb91 33bf f001 e8be

linear.1.weight f4 [256, 169]
0.0058983564 0.03927634 0.05919365 0.054136388 -0.025531128 -0.022116046 0.031506017 0.038530543
0.0523298 0.049607404 0.015166454 -0.011316881 0.032183588 0.04855319 -0.002104357 -0.014606945
0.0063044503 -0.044173554 -0.075353146 -0.020839334 0.07390759 -0.11140308 0.05444176 0.0125961155
-0.063693196 -0.065787256 -0.01698824 0.038327307 0.025421262 -0.0027178675 0.029781707 -0.00065297633
-0.044473805 -0.09989988 0.013758858 -0.25895733 0.019612975 0.020964175 -0.042589024 0.062179737
0.04365121 -0.0557345 -0.05980307 0.111103885 0.29737943 0.2696138 0.1266805 -0.63545597
0.24449635 -0.53281695 0.05082868 -0.0793812 0.040363543 0.050073214 -0.00809928 0.28575253
-0.23513475 0.4852417 0.016878538 0.0060422826 0.112316 -0.36513218 -0.32522365 0.025494488
-0.0517214 -0.02578098 -0.04729327 -0.03856768 -0.25696623 0.10313845 0.4819849 0.42228767
0.33760023 0.22641636 0.54705524 0.07191667 -0.052764453 0.031680584 0.028979488 -0.035843253
0.028441548 0.19500214 0.11337034 -0.36826473 -0.46040672 0.063723855 -0.51992035 0.39705724
0.039388917 0.050748043 -0.033357933 -0.035545845 -0.07502456 -0.18837257 0.12611285 -0.08365017
0.104775906 -0.18567927 0.3279254 0.19513816 -0.07198955 0.054057173 -0.059245348 -0.017436177
-0.011687763 0.033206314 0.13393308 -0.07609049 -0.33905268 0.06828302 -0.21495064 -0.093404196
0.2597079 -0.15066338 0.026477426 0.046686873 -0.027133055 -0.06816748 -0.18638948 -0.041559063
-0.0022930382 -0.10300103 0.4031972 0.19147384 0.2584146 0.0047456753 0.046307556 0.057452045
-0.03178647 0.06811691 0.050002508 -0.02715848 0.06355839 0.48355547 -0.020120375 -0.16860728
-0.037147798 0.05011124 0.010573648 -0.011265397 -0.031354647 0.060661323 0.069087915 -0.042322554
0.038329273 0.04598538 -0.015783273 -0.020886 0.028071843 0.0042439997 0.010441452 -0.009715192
0.029839195 0.060886286 0.049214564 0.03212122 -0.060935453 0.017652497 -0.04599788 0.010452636
0.031554922 -0.0071871653 -0.071292154 0.05728098 -0.049168203 0.021991685 0.049634017 0.018248983
0.03853458 0.058048002 -0.06958019 -0.06756942 0.011232428 0.028531149 -0.069348074 0.0133373365
-0.036762696 -0.067893185 -0.049987867 0.045926005 -0.002309762 -0.051789306 -0.02223102 -0.009927824
-0.0195866 0.039755575 -0.017362688 -0.05354937 -0.046342753 0.06266924 0.21664864 -0.17298104
-0.033220623 0.018912159 -0.061385058 -0.059954736 0.05741165 0.00097159296 -0.02349826 0.026738763
-0.038946252 -0.007274933 -0.3450132 0.08470478 0.18460242 0.017962538 0.026630998 0.0031629503
0.0043074638 0.034999967 -0.017160848 -0.02816546 0.06643986 0.24270062 0.10698933 -0.024302686
0.2138935 -0.055570956 0.008269781 -0.012857581 -0.16718405 -0.04443521 -0.027306192 -0.060780335
-0.13738291 -0.17350195 0.23537944 -0.6181025 0.42560235 -0.058976635 0.20010085 0.013276301
-0.07846773 -0.041544072 0.053795658 -0.029634733 -0.048421595 0.15523607 0.0507484 -0.1498821
-0.02118883 -0.1809985 -0.18522835 -0.16644579 0.19292036 -0.04093669 0.06748887 -0.021678265
0.03954243 0.04877039 0.06855255 -0.38129172 0.111795 0.17657454 -0.047516834 0.1471246
00000000: 0047 c13b 3ae0 203d 0a75 723d 1ebe 5d3d
00000010: a826 d1bc b62c b5bc 740c 013d 34d2 1d3d
00000020: c657 563d 2231 4b3d b87c 783c 706a 39bc
00000030: f0d2 033d b6df 463d 40e9 09bb f851 6fbc
00000040: 9095 ce3b 54ef 34bd c052 9abd 40b7 aabc
00000050: dd5c 973d 4c27 e4bd 53fe 5e3d f05f 4e3c
00000060: 9471 82bd 78bb 86bd ec2a 8bbc 18fd 1c3d
00000070: 4040 d03c 401e 32bb c4f8 f33c 802c 2bba
00000080: 2a2a 36bd 4f98 ccbd d56c 613c 0e96 84be
00000090: 64ab a03c 10bd ab3c d471 2ebd 2eb0 7e3d
000000a0: 9ccb 323d dc49 64bd 10f4 74bd 6f8a e33d
000000b0: 1e42 983e d20a 8a3e 88b8 013e 3ead 22bf
000000c0: 405d 7a3e b166 08bf bc31 503d 9c92 a2bd
000000d0: 3e54 253d 9219 4d3d d8b2 04bc 284e 923e
000000e0: 2ac7 70be 9a71 f83e dc44 8a3c 57fe c53b
000000f0: ee05 e63d 9bf2 babe b783 a6be d1d9 d03c
00000100: d2d9 53bd a232 d3bc 96b6 41bd 25f9 1dbd
00000110: 1491 83be 403a d33d bac6 f63e 1736 d83e
00000120: f0d9 ac3e b1d9 673e d00b 0c3f 0c49 933d
00000130: 8a1f 58bd 80c3 013d 6466 ed3c 60d0 12bd
00000140: 40fe e83c a4ae 473e b52e e83d 328d bcbe
00000150: 6eba ebbe a781 823d 8019 05bf 164b cb3e
00000160: 4656 213d 2edd 4f3d 54a2 08bd 8598 11bd
00000170: 7aa6 99bd bde4 40be ba23 013e c850 abbd
00000180: c094 d63d b522 3ebe d7e5 a73e 4cd2 473e
00000190: 426f 93bd 0e6b 5d3d 40ab 72bd 50d6 8ebc
000001a0: 087e 3fbc 5803 083d c125 093e 55d5 9bbd
000001b0: 5098 adbe f8d7 8b3d 051c 5cbe b34a bfbd
000001c0: 6ff8 843e 8047 1abe 30e7 d83c bc3a 3f3d
000001d0: 2446 debc 649b 8bbd e2dc 3ebe d639 2abd
000001e0: cc46 16bb 34f2 d2bd dd6f ce3e b811 443e
000001f0: eb4e 843e 9c81 9b3b feac 3d3d d652 6b3d
00000200: 8832 02bd e180 8b3d 6ecf 4c3d 767b debc
00000210: e72a 823d 9594 f73e 7cd3 a4bc 63a7 2cbe
00000220: 4a28 18bd 7241 4d3d 183d 2d3c 8092 38bc
00000230: bb6d 00bd 0278 783d f77d 8d3d 6a5a 2dbd
00000240: 28ff 1c3d 2a5b 3c3d ec4b 81bc 1e19 abbc
00000250: ecf6 e53c 4011 8b3b a012 2b3c 782c 1fbc
00000260: 5471 f43c e663 793d 3695 493d 8a91 033d
00000270: 7497 79bd f89b 903c 4668 3cbd 8841 2b3c
00000280: bc3f 013d 5082 ebbb 9f01 92bd 769f 6a3d
00000290: 9964 49bd e827 b43c 0a4d 4b3d e47e 953c
000002a0: 70d6 1d3d bec3 6d3d 0f80 8ebd d661 8abd
000002b0: 3808 383c 28ba e93c 5d06 8ebd d884 5a3c
000002c0: 7b94 16bd 950b 8bbd 14c0 4cbd e81c 3c3d
000002d0: 605f 17bb 0621 54bd d41d b6bc 50a8 22bc
000002e0: 1474 a0bc bed6 223d 323c 8ebc 9656 5bbd
000002f0: e6d1 3dbd bb58 803d 24d9 5d3e f121 31be
00000300: 5912 08bd aced 9a3c e66e 7bbd 1993 75bd
00000310: 7a28 6b3d 80b2 7e3a 6c7f c0bc 400b db3c
00000320: 1b86 1fbd 9062 eebb 92a5 b0be b379 ad3d
00000330: 6b08 3d3e 2c26 933c 4029 da3c 8049 4f3b
00000340: a025 8d3b 205c 0f3d e894 8cbc 40bb e6bc
00000350: 9f11 883d 8386 783e 391d db3d 6d16 c7bc
00000360: e606 5b3e 5f9e 63bd fa7d 073c 9aa8 52bc
00000370: 4c32 2bbe b201 36bd 3cb1 dfbc cdf4 78bd
00000380: 1bae 0cbe 7faa 31be 4f07 713e f73b 1ebf
00000390: 8de8 d93e 7c91 71bd 3de7 4c3e d884 593c
000003a0: b0b3 a0bd 1e2a 2abd d658 5c3d 8ac4 f2bc
000003b0: b955 46bd 34f6 1e3e 8edd 4f3d b17a 19be
000003c0: 3294 adbc ac57 39be 80ac 3dbe c470 2abe
000003d0: ea8c 453e 3bad 27bd 9b37 8a3d 9e96 b1bc
000003e0: 3ef7 213d 76c3 473d 4865 8c3d ab38 c3be
000003f0: c7f4 e43d f5cf 343e 03a1 42bd d5a7 163e

linear.1.bias f4 [256]
-0.13612752 -0.20797606 -0.008463216 -0.061174363 0.084954426 -0.23052494 0.04778697 -0.061208706
-0.1564005 -0.09807895 -0.08851614 -0.1262338 0.05458938 -0.15037136 -0.14054331 -0.17855488
-0.08853944 -0.124255106 -0.09047443 -0.17509887 0.03447696 -0.14622703 -0.29682675 0.00030682914
0.013086885 0.045418832 0.0037127093 0.07082502 -0.21216029 -0.12782997 -0.2764219 -0.073588505
-0.060668975 0.0073424494 -0.21415278 -0.06312133 -0.069191724 -0.118328504 -0.16868864 -0.2212395
-0.07131013 -0.29128027 -0.12841539 -0.04869812 -0.18497312 -0.23477337 -0.039010186 -0.039169405
-0.064708695 0.072663255 -0.0668427 -0.054142676 0.028696328 -0.19732761 -0.0379694 -0.12038246
-0.008591572 -0.02557196 -0.24489667 0.011666598 0.060931746 -0.052245066 -0.07552225 -0.04732521
-0.093105935 -0.101188995 -0.21235928 -0.074595325 -0.1727103 -0.124114394 -0.08727069 -0.2366919
-0.15779833 -0.20255919 -0.030540176 -0.19772115 -0.122847386 -0.037130766 -0.11961527 0.105672345
-0.08534727 -0.035832264 -0.0027109282 -0.17895783 -0.21118674 -0.2261389 -0.08229577 -0.17911741
-0.33559787 -0.10856916 -0.1694614 0.1390661 0.16126391 -0.08346703 0.012870189 0.12635595
-0.09725556 -0.094282426 0.14509857 -0.15739337 -0.17570394 -0.08712822 -0.16507234 -0.2645424
-0.008581228 -0.030284002 -0.24491352 -0.15376997 0.09247051 -0.11090024 -0.0445138 -0.074536175
-0.09581012 -0.16276826 -0.069360204 0.07620143 -0.17152464 0.02276864 0.06594251 -0.1515529
-0.06549196 -0.08366938 -0.09060416 -0.023924869 -0.09297319 -0.20168336 -0.1034831 -0.13970731
-0.17390567 -0.061137043 -0.21286929 -0.044943083 -0.27537256 -0.2974173 -0.14192042 -0.09819005
-0.07260567 -0.1071929 -0.048724882 -0.16419302 -0.086782895 -0.11689111 -0.084043875 -0.2866019
-0.15163061 -0.053895816 -0.15918618 -0.11143434 -0.12581307 -0.10073436 0.18601254 -0.13894035
-0.0046060504 -0.08493698 -0.04486775 -0.07460168 -0.21793453 -0.11495911 -0.048047785 -0.034626216
-0.11129039 -0.028063992 -0.14282921 -0.23783 -0.065150164 -0.13956323 0.22778136 -0.032244094
-0.07870119 -0.17261852 -0.1581018 -0.21428365 -0.03189441 -0.080146596 -0.17869699 -0.033953037
-0.05984371 0.036216848 -0.1841561 -0.10708054 -0.024996798 -0.23535609 0.074952126 -0.19548325
-0.21713673 -0.33227065 0.12337893 -0.15801322 -0.31097394 -0.19483763 -0.21389657 -0.20006275
-0.081832066 -0.24704947 -0.13930999 -0.029943896 -0.11353548 -0.19456348 -0.20659876 -0.2593266
-0.17300875 -0.3057251 -0.20946237 0.012736094 0.05880688 -0.12548396 -0.17347783 -0.00019587856
-0.14651999 0.0453495 0.012547475 -0.10228741 -0.19460057 0.014475664 -0.1202579 -0.17854598
-0.021904794 -0.11275052 -0.15759249 -0.038718976 -0.11018597 -0.06098999 -0.21569486 -0.22568591
-0.17129299 -0.053973705 -0.020326069 -0.17290455 -0.10076747 0.09746146 0.055162206 -0.09866771
-0.14782482 -0.0839721 -0.16884539 -0.1410986 -0.05230173 -0.24437906 -0.091746785 -0.10286367
-0.2329419 -0.14912702 -0.16627711 -0.093600646 -0.074949935 -0.018348388 0.030337358 -0.26156205
-0.046106312 -0.122811764 -0.027341804 -0.2245167 0.05931245 0.030408753 -0.16879866 -0.24702428
00000000: 0365 0bbe adf7 54be 4da9 0abc f891 7abd
00000010: 96fc ad3d bb0e 6cbe 45bc 433d fbb5 7abd
00000020: 7427 20be 9edd c8bd f347 b5bd 6f43 01be
00000030: 1d99 5f3d f3fa 19be 96ea 0fbe 17d7 36be
00000040: 2a54 b5bd 7679 febd a84a b9bd 1e4d 33be
00000050: b637 0d3d 8abc 15be adf9 97be e9dd a039
00000060: 606a 563c 1909 3a3d ed50 733b b50c 913d
00000070: 8c40 59be dce5 02be 2c87 8dbe 92b5 96bd
00000080: 0880 78bd ee98 f03b de4a 5bbe c245 81bd
00000090: 64b4 8dbd 3756 f2bd b7bc 2cbe 9c8c 62be
000000a0: 0c0b 92bd b022 95be 537f 03be ae77 47bd
000000b0: 9869 3dbe 6e68 70be 25c9 1fbd 1970 20bd
000000c0: fe85 84bd 79d0 943d d3e4 88bd b6c4 5dbd
000000d0: 9014 eb3c 4010 4abe cd85 1bbd 148b f6bd
000000e0: aac3 0cbc 497c d1bc 31c6 7abe 4225 3f3c
000000f0: 9193 793d ecfe 55bd 69ab 9abd 14d8 41bd
00000100: 53ae bebd 2d3c cfbd b674 59be 6fc5 98bd
00000110: f8da 30be b02f febd faba b2bd 5d5f 72be
00000120: e395 21be ad6b 4fbe 642f fabc 6a77 4abe
00000130: 6997 fbbd 6e16 18bd daf8 f4bd be6a d83d
00000140: 8dca aebd dac4 12bd d4a9 31bb b940 37be
00000150: 5641 58be f590 67be af8a a8bd 8e6a 37be
00000160: 7cd3 abbe 8259 debd 4a87 2dbe 5867 0e3e
00000170: 5e22 253e c3f0 aabd 7cdd 523c 7463 013e
00000180: ec2d c7bd 2517 c1bd b894 143e ba2b 21be
00000190: bceb 33be 4870 b2bd b908 29be 1a72 87be
000001a0: 4798 0cbc 2816 f8bc 9cca 7abe e075 1dbe
000001b0: 2e61 bd3d aa1f e3bd 1a54 36bd 6ca6 98bd
000001c0: 1938 c4bd b9ac 26be b90c 8ebd 7f0f 9c3d
000001d0: 28a4 2fbe 4d85 ba3c de0c 873d af30 1bbe
000001e0: a620 86bd da5a abbd ad8e b9bd 16fe c3bc
000001f0: ba68 bebd 1586 4ebe f3ee d3bd 6f0f 0fbe
00000200: 5414 32be d66a 7abd 68fa 59be 3d16 38bd
00000210: a2fd 8cbe 1547 98be 9653 11be dd17 c9bd
00000220: 48b2 94bd f387 dbbd be93 47bd 3722 28be
00000230: 3bbb b1bd 9b64 efbd 321f acbd 7cbd 92be
00000240: 0e45 1bbe dcc1 5cbd b401 23be b037 e4bd
00000250: 24d5 00be d14d cebd 127a 3e3e 6146 0ebe
00000260: 5aee 96bb 70f3 adbd 3fc7 37bd c4c8 98bd
00000270: 3b2a 5fbe af6f ebbd c1cd 44bd 38d4 0dbd
00000280: 37ec e3bd 75e6 e5bc d241 12be b589 73be
00000290: 736d 85bd aae9 0ebe 843f 693e 6212 04bd
000002a0: 172e a1bd e9c2 30be 70e5 21be 2c6d 5bbe
000002b0: b6a3 02bd e623 a4bd 58fc 36be 5712 0bbd
000002c0: ae1e 75bd 1e58 143d 6b93 3cbe 0b4d dbbd
000002d0: 16c6 ccbc 3001 71be 8080 993d c32c 48be
000002e0: 1759 5ebe 611f aabe 18ae fc3d 38ce 21be
000002f0: fa37 9fbe 8483 47be b407 5bbe 40dd 4cbe
00000300: 9297 a7bd 89fa 7cbe 47a7 0ebe e74c f5bc
00000310: 4a85 e8bd a63b 47be a08e 53be 75c6 84be
00000320: 3529 31be 0088 9cbe 4e7d 56be 0dab 503c
00000330: 7cdf 703d de7e 00be 2ca4 31be c064 4db9
00000340: 5609 16be 66c0 393d ed93 4d3c 107c d1bd
00000350: 5f45 47be 562b 6d3c c649 f6bd c2d4 36be
00000360: af71 b3bc bfe9 e6bd ed5f 21be ca97 1ebd
00000370: 2fa9 e1bd a4d0 79bd 1ddf 5cbe 351a 67be
00000380: 6e67 2fbe 8813 5dbd db82 a6bc e40d 31be
00000390: 2d5f cebd e099 c73d c4f1 613d 4c12 cabd
000003a0: 645f 17be 90f9 abbd cee5 2cbe 277c 10be
000003b0: 573a 56bd 813e 7abe bde5 bbbd 30aa d2bd
000003c0: 5288 6ebe c1b4 18be 8c44 2abe b2b1 bfbd
000003d0: 5a7f 99bd 5c4f 96bc 0d86 f83c 76eb 85be
000003e0: f9d9 3cbd bc84 fbbd ebfb dfbc b5e7 65be
000003f0: 9df1 723d c71b f93c 8ed9 2cbe eff3 7cbe

linear.3.weight f4 [64, 256]
-0.2388947 0.6130938 0.1493899 -0.19023342 -0.19278881 -0.21838447 0.00042041347 0.05109478
-0.099577986 0.35716498 0.12455196 -0.21299839 -0.19033875 -0.17332298 0.24221437 0.7239716
-0.41163254 0.17351088 0.29215115 -0.11394859 -0.34755355 0.31584954 0.38436386 -0.11162623
-0.34385768 0.18530312 -0.09625829 0.31179523 -0.33053142 0.07071914 0.30382204 -0.25389746
0.20012495 -0.099908434 0.28228027 -0.25577506 -0.44650334 -0.122531295 -0.46612462 0.5503878
0.20939392 0.35601187 -0.0089492975 -0.16488516 0.522554 -0.50794744 0.29153463 0.17341712
-0.1584034 -0.4478448 -0.13538918 -0.004986868 -0.15592128 -0.19860545 -0.12715392 -0.061302174
0.088672996 -0.01236074 -0.2546217 -0.19561608 -0.23784666 -0.019675475 -0.24881233 -0.19713062
0.32500643 0.25990605 -0.6050114 -0.09698526 0.46109852 -0.22994094 0.6218974 0.17465831
-0.26793912 0.26618004 -0.24818948 -0.26022446 0.49082646 -0.42467278 -0.3439247 0.027555043
-0.19933851 -0.16178265 -0.3350256 -0.3388368 -0.22172217 0.4817254 0.56853646 -0.5601715
0.28487754 0.2484186 -0.33404097 -0.015516873 0.3423562 0.34350902 -0.046588734 -0.08066774
-0.42749807 -0.3314454 -0.1484764 -0.22816676 -0.27225745 -0.4115409 -0.26530358 0.30068934
0.05170929 -0.19066152 0.5080808 -0.3215259 -0.3439834 0.21943283 -0.036668345 -0.28214565
0.5039144 -0.15476486 -0.21499535 -0.092303365 0.29626602 -0.4663976 0.2688627 0.04657532
0.2329779 0.15128979 0.10368217 -0.2792379 -0.43329835 0.19596389 0.18523961 0.22224835
-0.5663054 -0.323189 0.22423063 0.33012164 0.3097539 0.8000469 -0.26229402 -0.26594073
-0.11230601 -0.166352 0.20172985 0.41814056 0.36177966 0.17836705 -0.31347966 -0.16081138
-0.7356257 -0.057845313 0.22145225 0.14499338 -0.5143013 -0.41894192 -0.13587667 -0.23512335
-0.15967081 -0.24429733 -0.23893066 -0.1528696 0.31945372 0.087246396 0.036777616 -0.35906288
-0.15685423 0.0029136192 -0.35250294 -0.44358096 -0.32755238 -0.23193051 -0.09759317 0.34785137
0.45512015 -0.24458025 0.4226556 0.3681922 0.32605582 -0.09624684 0.016389113 0.08132051
-0.12060639 0.046764012 -0.55520386 -0.31544337 0.19221741 -0.019974718 -0.11999534 0.23892006
0.5514024 0.5941685 0.11347674 0.43333 0.6876364 0.29211226 -0.078285106 0.16655031
-0.2517842 0.27107036 0.20718741 -0.063440986 0.59943557 -0.13098013 0.45123744 0.7445887
-0.3998172 0.7154602 0.553107 -0.15616307 -0.23264451 0.4435562 -0.39875168 -0.17934708
0.15711439 -0.11748867 0.1892546 -0.4415333 0.43906924 -0.14622438 -0.062552206 1.0059586
0.04001331 -0.17644349 0.55007994 -0.13169116 -0.62174374 -0.3920628 0.41509476 -0.14189357
-0.40134755 -0.17268033 0.19503024 0.48219654 -0.036045212 -0.2604157 -0.08869675 0.11963298
-0.41877916 0.39908442 -0.23590924 0.1772052 -0.033701837 0.10949431 -0.13312946 0.23029993
-0.5135741 0.42339054 0.53628093 0.3423899 0.31652623 0.6036415 -0.32231906 0.4518273
-0.21470517 0.24720149 0.04877773 -0.15184633 -0.124716096 -0.04685454 -0.53542876 -0.20731434
00000000: d0a0 74be b7f3 1c3f aaf9 183e 8dcc 42be
00000010: 6e6a 45be 2ea0 5fbe f16a dc39 c348 513d
00000020: 8bef cbbd 54de b63e 1915 ff3d 401c 5abe
00000030: 29e8 42be 947b 31be 0b07 783e 3456 393f
00000040: 80c1 d2be d6ac 313e d694 953e e15d e9bd
00000050: 8af2 b1be 08b7 a13e 57cb c43e 4b9c e4bd
00000060: 1d0e b0be 1ac0 3d3e 1123 c5bd a0a3 9f3e
00000070: 6a3b a9be 32d5 903d 908e 9b3e d9fe 81be
00000080: 8eed 4c3e cb9c ccbd 0a87 903e f3f4 82be
00000090: 169c e4be b0f1 fabd e3a7 eebe 37e6 0c3f
000000a0: 5c6b 563e 3047 b63e 13a0 12bc a8d7 28be
000000b0: 19c6 053f d808 02bf 0744 953e 4294 313e
000000c0: 8034 22be ea4b e5be 76a3 0abe e168 a3bb
000000d0: d4a9 1fbe 3a5f 4bbe a334 02be fd17 7bbd
000000e0: 309a b53d b484 4abc c75d 82be 954f 48be
000000f0: 138e 73be 762e a1bc a9c8 7ebe 9cdc 49be
00000100: 3e67 a63e 6812 853e 07e2 1abf 35a0 c6bd
00000110: 1b15 ec3e a375 6bbe ab34 1f3f a1d9 323e
00000120: 512f 89be c048 883e 6225 7ebe 243c 85be
00000130: 9b4d fb3e b66e d9be e616 b0be 1dbb e13c
00000140: 651f 4cbe 5aaa 25be 7a88 abbe 047c adbe
00000150: 230b 63be b6a4 f63e 9b8b 113f 6667 0fbf
00000160: 78db 913e 7261 7e3e 6b07 abbe 7c3a 7ebc
00000170: 5049 af3e 6ae0 af3e d4d3 3ebd 2135 a5bd
00000180: 07e1 dabe 36b3 a9be 330a 18be 8ca4 69be
00000190: 5465 8bbe 7db5 d2be dfd5 87be f4f3 993e
000001a0: 1fcd 533d c63c 43be 9511 023f 0b9f a4be
000001b0: 981e b0be 00b3 603e 8c31 16bd 6575 90be
000001c0: 8900 013f ae7a 1ebe be27 5cbe 8c09 bdbd
000001d0: 2eb0 973e abcb eebe 5fa8 893e c3c5 3e3d
000001e0: c291 6e3e b6eb 1a3e 5157 d43d 45f8 8ebe
000001f0: 48d9 ddbe c2aa 483e 74af 3d3e 1295 633e
00000200: 64f9 10bf 0779 a5be b79c 653e b405 a93e
00000210: 1098 9e3e e0cf 4c3f 674b 86be 6229 88be
00000220: b200 e6bd 2e58 2abe 4592 4e3e 8516 d63e
00000230: 2f3b b93e daa5 363e 6880 a0be bdab 24be
00000240: f751 3cbf 35ef 6cbd 61c4 623e 2579 143e
00000250: 40a9 03bf 8e7f d6be 4123 0bbe 2dc4 70be
00000260: bf80 23be 1429 7abe 3daa 74be d989 1cbe
00000270: 708f a33e 3dae b23d 20a4 163d 17d7 b7be
00000280: 659e 20be 6bf2 3e3b 447b b4be 0b1d e3be
00000290: f2b4 a7be 317f 6dbe eede c7bd 9319 b23e
000002a0: 8205 e93e 3f73 7abe 5166 d83e b083 bc3e
000002b0: caf0 a63e 101d c5bd 7642 863c 5e8b a63d
000002c0: 7c00 f7bd 9f8b 3f3d d721 0ebf cb81 a1be
000002d0: a4d4 443e 05a2 a3bc 1ec0 f5bd 76a7 743e
000002e0: b528 0d3f 6d1b 183f 7e66 e83d 6edd dd3e
000002f0: f008 303f bd8f 953e f153 a0bd 2a8c 2a3e
00000300: dce9 80be bcc9 8a3e f028 543e 59ed 81bd
00000310: 9c74 193f a81f 06be 9808 e73e 5d9d 3e3f
00000320: d7b4 ccbe 6628 373f 6c98 0d3f 36e9 1fbe
00000330: 5d3a 6ebe cc19 e33e 2e29 ccbe c3a6 37be
00000340: 98e2 203e e69d f0bd f5cb 413e a710 e2be
00000350: afcd e03e d8bb 15be 5f1b 80bd 40c3 803f
00000360: ffe4 233d 9aad 34be 0ad2 0c3f 0cda 06be
00000370: 992a 1fbf 75bc c8be 4d87 d43e 8c4c 11be
00000380: 6d7d cdbe 1dd3 30be 02b6 473e 77e2 f63e
00000390: 25a4 13bd 3555 85be a4a6 b5bd 2302 f53d
000003a0: 396a d6be cb54 cc3e 3192 71be 4875 353e
000003b0: f00a 0abd 8e3e e03d 1753 08be bfd3 6b3e
000003c0: 9879 03bf a5c6 d83e b549 093f bb4d af3e
000003d0: ba0f a23e 4088 1a3f 0107 a5be e855 e73e
000003e0: acdb 5bbe 6322 7d3e 28cb 473d 9b7d 1bbe
000003f0: 276b ffbd 8cea 3fbd dc11 09bf 364a 54be

linear.3.bias f4 [64]
-0.22510716 -0.3683844 -0.21250203 -0.28981617 -0.21543546 -0.051482182 -0.3350489 -0.21494778
-0.48302045 -0.31078264 -0.38625768 -0.41537553 -0.39251933 -0.49868575 -0.3733145 -0.37268615
-0.35771933 -0.2893093 -0.43449107 -0.38609245 0.100931324 -0.039641205 -0.18471886 -0.3899943
-0.35577443 -0.52538013 -0.5461504 -0.56530637 -0.577867 -0.33914295 -0.3305241 -0.37855488
-0.21442628 -0.4256141 -0.5379799 -0.2211798 -0.4160162 -0.25323316 -0.05949597 -0.21032245
-0.21861356 -0.44090882 -0.04103715 -0.26125783 -0.14407867 -0.3281077 -0.38178545 -0.22850962
-0.025964819 -0.1593324 -0.330676 -0.45266142 -0.3439397 -0.2864419 -0.2226077 -0.45760998
-0.404384 -0.18713403 -0.4778164 -0.41401544 -0.5309956 -0.34638992 -0.42837405 -0.3881434
00000000: 7e82 66be e19c bcbe 229a 59be c962 94be
00000010: 1d9b 5cbe fbde 52bd 888b abbe 451b 5cbe
00000020: 754e f7be e71e 9fbe 91c3 c5be 1aac d4be
00000030: 4bf8 c8be bd53 ffbe 1423 bfbe b8d0 bebe
00000040: fd26 b7be 5920 94be 9d75 debe e9ad c5be
00000050: 15b5 ce3d d15e 22bd f126 3dbe 55ad c7be
00000060: 1128 b6be 507f 06bf 83d0 0bbf ebb7 10bf
00000070: 17ef 13bf 25a4 adbe 743a a9be f2d1 c1be
00000080: 9092 5bbe 17ea d9be 0db9 09bf f57c 62be
00000090: 1300 d5be c7a7 81be 0cb2 73bd c55e 57be
000000a0: 3cdc 5fbe cdbe e1be 9216 28bd 96c3 85be
000000b0: 5c89 13be bcfd a7be 6279 c3be 6dfe 69be
000000c0: 2cb4 d4bc 0828 23be 5d4e a9be 3dc3 e7be
000000d0: dd18 b0be 83a8 92be 46f3 63be db4b eabe
000000e0: 6b0b cfbe 10a0 3fbe 5aa4 f4be d5f9 d3be
000000f0: 54ef 07bf 055a b1be d853 dbbe bbba c6be

reg.weight f4 [2, 128]
-0.0005443094 -0.15674013 0.12313901 -0.8770321 0.011866564 0.09240776 -0.25263497 0.25821424
0.017896365 0.03312772 0.010337249 0.0073909583 -0.0046637994 0.01361295 0.0047527025 3.083737e-05
0.0014336924 -0.0021918165 0.0049937237 -0.00021436755 0.0061513055 -0.007395752 0.0005729799 -0.010568792
-0.0010748731 0.00571605 -0.079914 0.04677314 -0.010503674 -0.03811398 -0.34946442 -0.002141027
-0.00092381984 0.0017840611 0.0062307413 0.00044350457 0.00042884948 0.006656288 -0.26629588 0.0054803104
0.0005411641 -0.0025593862 0.00017585186 -0.0028055115 -0.19920512 -0.016615763 0.0013007513 0.26375833
-0.00048561709 0.039057527 -0.19780038 -0.0868222 -0.011577988 -0.016414924 0.052873768 -0.055377454
0.0014841305 2.2939639e-07 0.027175944 0.018597322 0.04523749 0.01248974 0.001013481 -0.001298648
0.068522766 0.0059011257 -0.02305713 -0.0068170815 -0.03632359 -0.020764489 -0.012025355 0.0057459217
-0.004856173 0.0066588884 -0.0072358167 -0.009355934 0.00014737181 0.012635633 -0.0064463853 0.0061578224
0.002129336 -0.012350015 0.0039889887 0.001994276 0.018763429 -0.04819001 0.004608281 -0.05285085
-0.0054731094 -0.01299667 0.010616446 -0.0030177748 -0.016998963 -0.014527295 -0.004614176 0.01032448
0.10047523 -0.014617279 0.017576639 0.004890496 0.004569622 -0.023641737 -0.022513913 -0.0440201
0.003221035 0.023722973 0.14109655 0.018728344 0.11037994 0.008366376 -0.0005174276 0.10344564
-0.0040835612 0.0005048639 0.010444853 -0.0024603885 -0.0020116477 -0.00374793 0.031539466 -0.000112152426
-0.016337996 0.006678653 -0.010000934 -0.0008842134 -0.01376502 -0.011740587 0.009387435 -0.016877512
-0.0024897975 -0.0014376721 -0.003425088 0.001014654 0.008446926 0.00032955175 0.0003699984 -0.004639669
-0.0055720387 -0.00014737574 -0.0024672486 -0.0020962455 0.0020414214 -0.0057003153 -0.013617521 -0.007277849
-0.008575836 -0.004711143 -0.003684349 -0.0024844082 -0.0073217014 -0.0061862413 -0.0029757782 -0.007543564
-0.003358588 -0.005528816 0.00052199815 -0.023826325 -0.0051492187 -0.0017853398 2.6786729e-05 -0.0014210232
-0.008281188 0.01025869 -0.007843044 0.0052074064 -0.006831061 -0.018862024 0.0063281376 -0.009875134
-0.012706837 -0.002899298 0.0035369643 0.0016848324 0.0026276284 -0.0024173926 -0.006600962 -0.0021939983
-0.001424022 -0.0037671085 -0.0026679942 0.0007188348 0.008027167 0.0008150297 -0.0037493021 0.0007370105
-0.003968602 -0.004895935 -0.0027741352 -0.0040106913 -0.007085209 0.00040967064 -0.009539133 -0.0018952205
-0.010046125 -0.019508852 0.13802065 0.0022196383 -0.013486697 0.0039612073 -0.014837582 -0.006903651
-0.017211061 -0.013161846 -0.0014740936 -0.015270865 -0.0006940018 -0.018709922 -0.0059286566 -7.432327e-05
0.07914496 -0.014980082 0.0074011814 -0.005454628 -0.0067940075 -0.0040063662 0.0010441532 -0.0005619971
-0.023111403 -0.006386369 0.0050148433 0.013739442 -0.006320824 0.01637772 -0.0013600225 0.0029847715
0.0034698849 -0.018923119 0.00289188 -0.017527688 0.0045426865 -0.008305493 -0.00080603414 -0.0038035032
-0.0051312214 -0.0021384377 -0.003122989 0.008763584 -0.0036857706 -0.001743766 -0.019043498 -0.03358271
-0.12649116 -0.115339294 0.0011875182 -0.017055664 -0.022687968 -0.012245437 -0.013612116 -0.032902524
-0.0028443153 -0.0076229656 -0.012930568 0.003233465 -0.0030168875 -0.0030254484 0.0043959636 0.0073215994
00000000: fcaf 0eba 7c80 20be 4e30 fc3d 2d85 60bf
00000010: fa6b 423c 4840 bd3d 5f59 81be a834 843e
00000020: 669b 923c efb0 073d 915d 293c da2f f23b
00000030: c9d2 98bb da08 5f3c 8fbc 9b3b 6057 0138
00000040: bcea bb3a 94a4 0fbb 64a2 a33b dac7 60b9
00000050: e490 c93b 1058 f2bb 0834 163a ba28 2dbc
00000060: c2e2 8cba b44d bb3b f4a9 a3bd 3195 3f3d
00000070: 9a17 2cbc 681d 1cbd 00ed b2be 7950 0cbb
00000080: 802c 72ba 28d7 e93a 3f2b cc3b 2d86 e839
00000090: 34d7 e039 fe1c da3b ef57 88be 2d94 b33b
000000a0: e8dc 0d3a 60bb 27bb e064 3839 acdc 37bb
000000b0: 6dfc 4bbe c81d 88bc f97d aa3a 550b 873e
000000c0: 6c9a feb9 c9fa 1f3d 2f8c 4abe d6cf b1bd
000000d0: 9ab1 3dbc 9778 86bc 2a92 583d 78d3 62bd
000000e0: 2887 c23a 0050 7634 16a0 de3c 6959 983c
000000f0: f24a 393d c4a1 4c3c c8d6 843a 6537 aaba
00000100: aa55 8c3d 3b5e c13b 4ee2 bcbc d361 dfbb
00000110: 0bc8 14bd 4a1a aabc ff05 45bc 4948 bc3b
00000120: 8820 9fbb ce32 da3b 6e1a edbb a249 19bc
00000130: d287 1a39 b005 4f3c 333c d3bb 8fc7 c93b
00000140: 548c 0b3b b857 4abc 10b6 823b 66b2 023b
00000150: c3b5 993c e362 45bd 1001 973b 227a 58bd
00000160: c557 b3bb fcef 54bc 9af0 2d3c dcc5 45bb
00000170: 6941 8bbc e403 6ebc 8432 97bb 0228 293c
00000180: f5c5 cd3d 507d 6fbc e2fc 8f3c 7440 a03b
00000190: c5bc 953b 51ac c1bc 196f b8bc 6c4e 34bd
000001a0: 0018 533b ae56 c23c 9d7b 103e 2f6c 993c
000001b0: e10e e23d 2013 093c faa3 07ba 4fdb d33d
000001c0: 65cf 85bb d858 043a e420 2b3c 783e 21bb
000001d0: d9d5 03bb d59f 75bb 872f 013d 6033 ebb8
000001e0: 43d7 85bc 9ad8 da3b f5da 23bc 8fca 67ba
000001f0: ae86 61bc 975b 40bc c2cd 193c b542 8abc
00000200: df2b 23bb 4570 bcba 7177 60bb 23fe 843a
00000210: fa64 0a3c b0c7 ac39 58fc c139 5d08 98bb
00000220: a695 b6bb e088 1ab9 90b1 21bb 2a61 09bb
00000230: 5ec9 053b b6c9 babb 061c 5fbc 067b eebb
00000240: aa81 0cbc ef5f 9abb 1e75 71bb 74d1 22bb
00000250: e2ea efbb f4b5 cabb 4605 43bb 0030 f7bb
00000260: c21b 5cbb 122b b5bb b4d6 083a 6d2f c3bc
00000270: c7ba a8bb 1002 eaba 10b4 e037 a041 baba
00000280: d2ad 07bc 1114 283c 1c80 00bc e4a2 aa3b
00000290: 18d7 dfbb 8884 9abc 445c cf3b 50cb 21bc
000002a0: 5630 50bc 2602 3ebb 6acc 673b 98d5 dc3a
000002b0: 4a34 2c3b 1e6d 1ebb e24c d8bb 2fc9 0fbb
000002c0: 40a6 baba 98e1 76bb 84d9 2ebb 3070 3c3a
000002d0: 6184 033c b8a7 553a dab6 75bb f033 413a
000002e0: 0c0b 82bb 146e a0bb 44ce 35bb 1e6c 83bb
000002f0: 0a2b e8bb 10c9 d639 064a 1cbc 0c69 f8ba
00000300: 8198 24bc 07d1 9fbc 4955 0d3e 5a77 113b
00000310: 4ff7 5cbc 04cd 813b 5419 73bc 0638 e2bb
00000320: 36fe 8cbc c9a4 57bc 6036 c1ba a632 7abc
00000330: aced 35ba 8d45 99bc 2d45 c2bb 00de 9bb8
00000340: c116 a23d 056f 75bc 9c85 f23b bcbc b2bb
00000350: 44a0 debb d647 83bb f8db 883a fd52 13ba
00000360: 2054 bdbc bf44 d1bb 8e53 a43b 661b 613c
00000370: ea1e cfbb 912a 863c c842 b2ba 289c 433b
00000380: 0267 633b a804 9bbc b285 3d3b 3a96 8fbc
00000390: d1da 943b c313 08bc 094c 53ba 3244 79bb
000003a0: ce23 a8bb 0825 0cbb 10ab 4cbb 2395 0f3c
000003b0: f88c 71bb 148f e4ba 1c01 9cbc 068e 09bd
000003c0: e686 01be 0237 ecbd 80a6 9b3a 52b8 8bbc
000003d0: 1edc b9bc 16a1 48bc 5a05 5fbc ccc4 06bd
000003e0: b167 3abb 12ca f9bb bcda 53bc 8ae8 533b
000003f0: f9b6 45bb 9a46 46bb 040c 903b 07ea ef3b

reg.bias f4 [2]
0.09222873 0.00063952804
00000000: 6be2 bc3d 00a6 273a
