server/models/value_model_minmax100.pt (torch, 255301 bytes, 12 tensors)

conv.0.weight f4 [4, 1, 3, 3]
00000000: 7e8d 57bd 2202 64bd 73a6 903d 609f 98bc
00000010: d918 c8bc 2c9e 32bc 3a79 bf3c 6484 dabe
00000020: a46d 25bd a098 73bd 9127 02be a07d b2bc
00000030: 20ca d03d bca8 0c3e 0d18 43be 02ab ee3c
00000040: 9cb5 f7be c40b ee3d 164c a7bc 4f3a a33d
00000050: 3a4f e6be 848e 23bc 06d3 983e 03ed 003f
00000060: 2247 da3d 5dc1 d3be c74c 62be 7415 c9bb
00000070: 3573 40bf 208c e6bb b8bc 08bc ecd4 3d3d
00000080: 4087 493e 92da 76bc 1036 37be 49e2 43be
-0.05262517 -0.055666097 0.07062998 -0.018630683 -0.02442591 -0.010901969 0.023373235 -0.4267913
-0.040387765 -0.059471726 -0.12710406 -0.021788418 0.10194802 0.13736242 -0.19052143 0.029134277
-0.48380744 0.11623338 -0.020422023 0.07970106 -0.4498232 -0.009982709 0.29848498 0.5036165
0.10658099 -0.41358462 -0.220996 -0.0061365906 -0.7517579 -0.007035747 -0.008345775 0.046345636
0.196805 -0.01506676 -0.17891717 -0.1912929

conv.0.bias f4 [4]
00000000: 67ef 6f3e 0618 873c 4c52 31bd 7982 c93d
0.23431168 0.016490947 -0.043291375 0.09839339

conv.2.weight f4 [4, 4, 3, 3]
00000000: 8c4d cbbe eb7c 843e b42c 58be 42eb 793e
00000010: ab73 03be 05a0 dabc ee76 e9bc 41f8 6b3c
00000020: 902a f4bd 32de fcbd 9724 b5bd 6160 a23d
00000030: 7538 783e 92a5 4dbf df59 b43d 1e15 37be
00000040: cca2 a1bb e616 e5bd 99d3 a23d e066 1cbc
00000050: ebd8 26bd 2d5c 843d 4d76 09be 4a36 0dbe
00000060: 177e 613d dd31 96be de73 bb3d aadf e7bd
00000070: e236 6c3e ba8a c63d 096c d7bd e355 5abe
00000080: 21e2 a33e e4b3 9fbc 9a2b b93e b45a afbd
00000090: 315f 003e aff9 9c3d a084 74be a2a6 b63d
000000a0: 929e 48be 7b18 94bd 806e 583e a0b9 b03e
000000b0: 23d7 d4bc 9e49 45bd 4e22 963d 9c92 ebbe
000000c0: 0e6e d6ba 0737 61bd bfde 823e 53a8 37be
000000d0: 16c1 483d 261a 33be e406 243c 806a 27b9
000000e0: e740 193e 0a5e 383d e795 73be dadd c0bf
000000f0: d223 8ebc 627c acbe 11a3 a63e 6231 093d
00000100: 6f76 5abd 78e8 973d bcfb 473b ba61 443e
00000110: 4ab0 45bf ed3a f63d 1050 fa3e dcea cfbe
00000120: e25f e9bb 7cf1 84bd 2d97 f23d 00bd cbbc
00000130: f350 823d ba0f ddbd 71ba 8e3e fbdb d33c
00000140: 31be a03e a26c 223d 74bb fbba ab7c c6be
00000150: 96ff c9bd ce53 c5bd 6302 e9be 8e05 77bd
00000160: bf40 1dbe 0183 2fbe c2ee 7a3c 4633 8b3c
00000170: c6f5 62bf 9394 b0bc 55db 4ebe b227 0ebb
00000180: e5d9 eebc fa6f 32be 3808 19bc 1e71 e0bc
00000190: 2bce 243d c4ff e6be 20d4 ba3b 556d 613d
000001a0: 8356 c63e cca4 ee3d c7d9 bd3d ef74 f33d
000001b0: 5be8 a5bd fdd8 123f 859e 81be 193c 933d
000001c0: 8474 febd 744d df3d f993 36bd 9cbe cb3d
000001d0: fccd 843d f7d5 3dbd 0b67 fbbd 2460 073e
000001e0: 0df6 223e 3c49 3dbe 76cc 5fbe ee1c 3e3e
000001f0: b51a 94be 8808 9a3d cacd 0d3c 7d97 143e
00000200: fd88 19bf d0b4 6abd 40db 143e 5c39 84be
00000210: 2ebb ca3d 299a 43be 2e74 babd d061 e13d
00000220: bb3d ddbd 333e e83d 3ef2 f23c ec13 b1bd
00000230: b4c6 a63e ed6c 4f3b 9370 a53d ba0c 2f3c
-0.397076 0.25876555 -0.21110803 0.2440615 -0.12837093 -0.026687631 -0.028499093 0.01440245
-0.11922181 -0.12347068 -0.088448696 0.07928539 0.24240287 -0.80330765 0.08806204 -0.1787915
-0.004932737 -0.11186008 0.07950515 -0.009546012 -0.040734213 0.06462894 -0.13424034 -0.13790241
0.05505189 -0.29334918 0.09152959 -0.113219574 0.23067811 0.09694429 -0.10518653 -0.21321826
0.3200846 -0.019494958 0.36166078 -0.08562222 0.12536313 0.07664811 -0.23878717 0.089185014
-0.1959174 -0.07231232 0.21135902 0.3451662 -0.025981491 -0.04816591 0.07330762 -0.46010292
-0.0016359703 -0.05498412 0.25560567 -0.17935304 0.049012266 -0.17490444 0.0100114085 -0.00015966035
0.14966165 0.045011558 -0.23787652 -1.5067704 -0.017351065 -0.33688647 0.32546285 0.03349436
-0.053335603 0.07417387 0.0030515036 0.19177905 -0.7722212 0.12022958 0.48889208 -0.4060887
-0.007122026 -0.06491372 0.11845241 -0.024870396 0.06363096 -0.10794015 0.27876619 0.02586173
0.31395105 0.03965438 -0.0019205646 -0.3876699 -0.09863202 -0.09635125 -0.45509633 -0.06030803
-0.1535673 -0.17139818 0.015315713 0.016992223 -0.8865627 -0.02155522 -0.20200856 -0.002169114
-0.029156635 -0.17425528 -0.009340338 -0.027397688 0.04023568 -0.4511701 0.005701557 0.055035908
0.38737878 0.11652526 0.09270053 0.11887538 -0.08100959 0.5736235 -0.25316253 0.07189197
-0.12424567 0.10903445 -0.04457471 0.09948465 0.06484601 -0.04634663 -0.12275513 0.13220268
0.15914173 -0.18484968 -0.2185534 0.18565723 -0.28926626 0.075211585 0.008655021 0.14510913
-0.5997465 -0.057301342 0.14536762 -0.25825012 0.09898983 -0.19101776 -0.09104191 0.110049844
-0.1080279 0.113399886 0.029656526 -0.08646378 0.32573473 0.0031650618 0.080781125 0.010684187

conv.2.bias f4 [4]
00000000: 1242 b9bc aed6 78bd b773 f1bd e292 3dbe
-0.022614513 -0.06075161 -0.11789649 -0.18513063

conv.5.weight f4 [64, 36]
00000000: 68af b43c 9f91 283d 1466 fdbb 1318 c2bc
00000010: d9c7 90bc c0a8 15bd 98a6 c83d 08ea 8f3b
00000020: 80a4 3cbd 6843 cdbc 2274 393c 65f4 2d3c
00000030: 170b 2dbc 9f46 6cbc c808 d23c 45dd 3abd
00000040: 2acf 24bc a7b1 943d e43e 37bd 6699 92bc
00000050: 5a70 463b 4fe9 ccbc 807d bbbb 15a2 13bd
00000060: fa94 8a3c 58fb 7d3c 492e 89bc 088e 86bd
00000070: ad71 f73b fcae db3b 2eef a03c ced6 c73c
00000080: a94c c3bb 8e0f 57bc 1349 f93c df4c 813d
00000090: 70a6 b6bd f130 40be 4187 54be e89d 31bd
000000a0: d002 333e a1b9 b13e b0cc 14be 363e 67be
000000b0: 7e6b 053e 1479 12bd 0efc fdbe 131b a3be
000000c0: e0c1 5c3c 88a9 753b 073e 19bd 64dd 3bbe
000000d0: dc99 5dbd a62f 84bf 36b5 afbe e0e0 82bc
000000e0: 880f b8bc 1f59 323c c28c 8f3c b3e6 ff3d
000000f0: 6729 4c3c 2c22 de3d a351 38bf b967 bdbe
00000100: 82b7 0a3d da5f b6bd b732 303e 1ee6 03bd
00000110: 5382 03bf 170e 13be de6d b7bb 1316 3bbf
00000120: 35e8 1bbf 279c 3d3d b336 0c3f 2a24 48be
00000130: 6556 fcbd 7e8f a9bd f232 93bc 54a9 d93c
00000140: ebbe 483e 1406 2ebf ff82 01bf 2652 7f3e
00000150: 8603 473d 557e 8d3e 7b26 2b3f d3a1 fb3e
00000160: 0a13 2d3e 323d a2bb 75ac 2bbf b010 22be
00000170: 5cab 50bf 334d ff3e 6494 bb3e 862c 223f
00000180: 7975 693f 2b93 32be 37c7 dcbd bc48 933f
00000190: 1dcc 413e 94c4 cc3d d097 e23e 8f59 36bf
000001a0: 285a 27bf 43f7 6ebd 9988 33bf 8be0 1fbe
000001b0: 5cda 913e 1dad 1b3e ed7c 14bf ca1c c13d
000001c0: f2be 44bc d816 973c b085 ac3c 14d2 ddbd
000001d0: 1fb3 193e 2ce9 ef3c 7844 773c 322a e53e
000001e0: 1239 103d c1e6 473d c358 27c0 e235 9e3d
000001f0: 089b 653d 67f4 033f 690a 683d fcd6 32be
00000200: e65a 5f3e 8b8e 62be 34f0 43bc 76e4 e5bf
00000210: 04f9 85bc ccab 943d 7a3f 0340 fbf9 42be
00000220: 02f9 8cbc d740 18be b787 bb3d da0d 4e3d
00000230: b937 c6bc 3a53 4bbd fec7 813c b8c3 443e
00000240: 2c9d 0f3d 10a5 ad3e 47e5 563d 3981 4abe
00000250: 890a 533e e1b0 ca3e e6f1 29bf b01a abbe
00000260: f662 e53e 52bc d9be 29cd 46be e4a8 f23d
00000270: bbc0 323e 9930 d8bd 9620 f9be ea82 073f
00000280: 59a2 bd3e a0ff a8be e803 39be fe85 bbbd
00000290: 3977 e53e 7448 31be 8582 b03e 76ed 9ebd
000002a0: 496d 893e 5ef4 203f 4900 83be 643a 8c3d
000002b0: 4355 1d3f 8934 eb3e 90cf 7d3e 0ea0 f5bd
000002c0: d1f0 6bbf c150 553d da58 18be b14e 36bf
000002d0: 6456 9c3e 17f4 c53d a1ab 3d3e 0b05 77be
000002e0: aafd cf3e 2b83 b63c d29d c2be 97cc 1bbe
000002f0: 5d0b 073f 5924 48bd 8b5e b5be 7d9b 8cbf
00000300: 96ce 7cbc 8fa3 0bbe f2b0 ebbe 5ef7 5fbe
00000310: 9bed cbbe 2bc7 babe c3aa bcbd b134 b73d
00000320: ab27 183f c4a5 d23d 883c 2abd 186c 8c3d
00000330: 90fd ef3d 5f28 a6be bae5 603e d317 07be
00000340: 4c8b d43d adc7 d13e 3e7a 54bd 48a4 a9bd
00000350: 6201 ddbe 601c 1bbe d267 1e3d 5a3f 553e
00000360: 2db9 0dbe c0a1 583c 00e5 b3bd 15ce fcbc
00000370: 4544 9c3d ec55 063e 4c7b a1bd 59c1 053c
00000380: ad21 073d 1c32 473b 2b23 d9bd 21b8 18bd
00000390: d591 8f3d 46a8 81bc 604b 003f 5743 5c3c
000003a0: 39e0 0b3c 5aac 42bd b469 383e f93e 6b3e
000003b0: 2ec7 81bc d24e 5f3e 080d 08be 3885 c03e
000003c0: 1f54 6b3c 802a bc3d d5ad 02bf 517c 483e
000003d0: 4269 f1bd 7ade a7bd 1aff 5b3d 933e 20bd
000003e0: 9924 763e aaa6 30bd 1f20 bc3d 7077 f33c
000003f0: 3718 c43e fbef 1d3e 7488 21be 2467 373d
0.022056296 0.0411545 -0.007733116 -0.02369312 -0.01767342 -0.036537886 0.097974 0.0043919124
-0.046055317 -0.025056556 0.011319192 0.01061735 -0.010561726 -0.014421134 0.025638953 -0.045621175
-0.010059157 0.07260447 -0.04473771 -0.017895412 0.003027937 -0.025013594 -0.005721748 -0.036043245
0.01691674 0.01550182 -0.016745703 -0.06570059 0.007551393 0.0067042094 0.0196453 0.024394419
-0.0059600663 -0.013126267 0.030430352 0.0631349 -0.08918464 -0.1876867 -0.2075472 -0.04336348
0.17481542 0.34711936 -0.14531207 -0.22582325 0.13029286 -0.03576 -0.49606365 -0.31856593
0.013473958 0.0037485082 -0.03741267 -0.18346173 -0.05410181 -1.0327041 -0.3431794 -0.01597637
-0.022468343 0.010885506 0.017523173 0.12495174 0.012461043 0.108463615 -0.7199957 -0.36993197
0.033866413 -0.08905001 0.17206846 -0.03220188 -0.51370734 -0.14360844 -0.005597814 -0.7308056
-0.60901195 0.046291497 0.54770964 -0.19545045 -0.12321166 -0.08279322 -0.017968629 0.02657
0.1960408 -0.67978024 -0.5059051 0.24933681 0.048587345 0.27635446 0.6685559 0.491469
0.16901794 -0.0049511427 -0.67060024 -0.15826678 -0.81511474 0.49863586 0.3663665 0.6334919
0.91194874 -0.17438953 -0.10780185 1.1506572 0.1892552 0.09998432 0.4425645 -0.71230406
-0.6537194 -0.058341276 -0.70130306 -0.15613 0.28486907 0.15202756 -0.5800312 0.09429319
-0.012008416 0.01844351 0.02105984 -0.10831085 0.15009736 0.02928599 0.015092008 0.44758755
0.035210676 0.04880405 -2.6147926 0.07725121 0.056056052 0.51544803 0.056650553 -0.17464823
0.21812019 -0.22124688 -0.011959124 -1.7960346 -0.016354091 0.0725933 2.0507493 -0.19040672
-0.01720858 -0.14868484 0.09156745 0.05030618 -0.024196493 -0.049639918 0.015842434 0.19215286
0.035062 0.33914995 0.05246475 -0.19775857 0.20609488 0.39588073 -0.6638473 -0.33418798
0.44802064 -0.4252649 -0.194142 0.118486196 0.17456333 -0.10556144 -0.48657674 0.52934134
0.37037924 -0.33007526 -0.18067896 -0.09156416 0.44817522 -0.17312795 0.34474578 -0.07760136
0.2684119 0.62872875 -0.25586155 0.06847075 0.61458224 0.4593852 0.2478621 -0.11993419
-0.9216433 0.052078966 -0.14877644 -0.71213824 0.3053466 0.09665697 0.18522502 -0.24123017
0.40623218 0.022279343 -0.38011032 -0.15214764 0.52751714 -0.04886279 -0.35423693 -1.0984951
-0.015430113 -0.13636611 -0.46033436 -0.21871707 -0.39829716 -0.36480078 -0.09212258 0.08945597
0.5943553 0.102855235 -0.041561633 0.06856555 0.11718285 -0.32452676 0.21962634 -0.13192682
0.10378131 0.40972653 -0.05187439 -0.08283287 -0.43165118 -0.15147543 0.03867323 0.20824948
-0.1384017 0.013222158 -0.08783913 -0.030859986 0.07630209 0.13118714 -0.07884845 0.008163773
0.0329911 0.0030394858 -0.10602411 -0.037284974 0.07010237 -0.01582731 0.50115013 0.013443789
0.008537346 -0.04752765 0.18009073 0.22973241 -0.015842047 0.21807411 -0.13286221 0.37601638
0.014363318 0.09187794 -0.51046497 0.19578673 -0.117876545 -0.08196731 0.05371008 -0.039122175
0.24037398 -0.043127693 0.09185814 0.029720038 0.38299724 0.15423577 -0.15774709 0.044776097

conv.5.bias f4 [64]
00000000: fbfd 8cbd ab15 96be d7a5 45bf 0fc4 45be
00000010: 54b6 04be 48d2 96be a22d b33e c8e4 933d
00000020: 245e 1abf 249f 81be 6ea8 2cbf 94f8 55c0
00000030: 8e18 02bf 9d9a 43bf 6b4a 90bd cd79 02bf
00000040: c1db 23bd 399e 40bf 3644 3abf c1dc 59bd
00000050: 7464 56c0 2a61 0fbf 4499 f2be 8736 0fbf
00000060: fe7e 4bbf a06d 42bf 300d 04bf ef21 45c0
00000070: 0cd6 b4be 12da cabe a093 4f3f bc99 38bf
00000080: 17c2 36bf c3ee bcbd d6b8 2bbf c998 d7bd
00000090: 9c46 e6bf 68a6 4fc0 771b c53e bbd2 a6bd
000000a0: a446 8cbd 1803 b2bd 3673 82bd 97b0 02bf
000000b0: fca0 483d 571f 23bf 6db6 44bf 4f45 8c3e
000000c0: 02fa 24bf 77e3 4abf 5df2 9abe 0b92 f1be
000000d0: a695 17bf c1f7 d0be 3233 4abe f808 0fbf
000000e0: 6c9c 46be a82b c9bd 27d8 4abf 60f0 adbe
000000f0: 995f 34bf 845b 22bf b5b6 43bf 2917 15be
-0.068843804 -0.29313406 -0.77206177 -0.19313072 -0.12960178 -0.29457307 0.34995753 0.07221371
-0.602999 -0.25316727 -0.67444503 -3.343297 -0.5081872 -0.76407796 -0.07045444 -0.50967103
-0.040004496 -0.7524143 -0.7276033 -0.053189043 -3.3498812 -0.56007636 -0.47382557 -0.5594258
-0.7949065 -0.75948524 -0.5158262 -3.0801961 -0.35319555 -0.396195 0.8108463 -0.7210958
-0.7138991 -0.09225228 -0.6707891 -0.10527188 -1.7990298 -3.2445316 0.38497517 -0.081456624
-0.06849411 -0.08691996 -0.06369631 -0.51050705 0.04898165 -0.63719696 -0.7684086 0.27396628
-0.6444398 -0.79253334 -0.30263034 -0.47181734 -0.5921272 -0.4081402 -0.19746092 -0.5587306
-0.19395608 -0.0982278 -0.7923607 -0.33972454 -0.7045837 -0.6342089 -0.76450664 -0.14559616

linear.1.weight f4 [256, 169]
00000000: 0047 c13b 3ae0 203d 0a75 723d 1ebe 5d3d
00000010: a826 d1bc b62c b5bc 740c 013d 34d2 1d3d
00000020: c657 563d 2231 4b3d b87c 783c 706a 39bc
00000030: f0d2 033d b6df 463d 40e9 09bb f851 6fbc
00000040: 9095 ce3b 54ef 34bd c052 9abd 40b7 aabc
00000050: dd5c 973d 2bbb abbe 0e91 9a3d f05f 4e3c
00000060: 9471 82bd 78bb 86bd ec2a 8bbc 18fd 1c3d
00000070: 4040 d03c 401e 32bb c4f8 f33c 802c 2bba
00000080: 2a2a 36bd be37 8b3e 64ec 4abe 4d5c b3be
00000090: 64ab a03c 10bd ab3c d471 2ebd 2eb0 7e3d
000000a0: 9ccb 323d dc49 64bd 154d be3d 729e cf3e
000000b0: 6b4d ea3e a864 e73e de39 e13d 9cd1 29bf
000000c0: cfcf b93e 3114 32bf 5cd9 093e 70a3 49bd
000000d0: 3e54 253d 9219 4d3d d8b2 04bc a9ec c13e
000000e0: 8e07 c5be 7b3b ef3e 5c4d 423e 756c 2c3d
000000f0: c4c8 793e bfda b6be 4564 acbe 32ea c63c
00000100: d2d9 53bd a232 d3bc 96b6 41bd 25f9 1dbd
00000110: c92a 51be 1bab 3c3d 4046 a93e b6de bb3e
00000120: a0b9 083f ea3b 123e 04ba 373f 3765 a6bd
00000130: 8a1f 58bd 80c3 013d 6466 ed3c 60d0 12bd
00000140: 40fe e83c 6e5b 9d3e bf24 303c 28fc 73be
00000150: acfa 5bbe 1fdb 873d d6bc 18bf 966c 133f
00000160: 4656 213d 2edd 4f3d 54a2 08bd 8598 11bd
00000170: 7aa6 99bd 6f98 a3be 36e3 673d 0172 74bd
00000180: 0464 a53e 454e 383d cbbb cd3e 0817 233e
00000190: fa72 94be 0e6b 5d3d 40ab 72bd 50d6 8ebc
000001a0: 087e 3fbc 5abc 2abd 621f a03d af6c 12be
000001b0: 4f6f 3bbe c3d4 0bbe 21e7 2dbe 78e8 0b3e
000001c0: ac7a c53e f07b 48bd 30e7 d83c bc3a 3f3d
000001d0: 2446 debc 97aa fbbd 3ce7 5fbe 5e23 9dbd
000001e0: 7437 823d 1aa2 053e 0fcb 5c3e 8446 91bd
000001f0: 26f0 9c3e 40d2 f23d feac 3d3d d652 6b3d
00000200: 8832 02bd e180 8b3d 6ecf 4c3d 767b debc
00000210: e72a 823d 49c0 093e 9c2d 5a3a 3489 57be
00000220: 4a28 18bd 7241 4d3d 183d 2d3c 8092 38bc
00000230: bb6d 00bd 0278 783d f77d 8d3d 6a5a 2dbd
00000240: 28ff 1c3d 2a5b 3c3d be71 09be 964f aabc
00000250: ecf6 e53c 4011 8b3b a012 2b3c 782c 1fbc
00000260: 5471 f43c e663 793d 3695 493d 8a91 033d
00000270: 7497 79bd f89b 903c 4668 3cbd 8841 2b3c
00000280: bc3f 013d 5082 ebbb 9f01 92bd 769f 6a3d
00000290: 9964 49bd e827 b43c 0a4d 4b3d e47e 953c
000002a0: 70d6 1d3d bec3 6d3d 0f80 8ebd d661 8abd
000002b0: 3808 383c 28ba e93c 5d06 8ebd d884 5a3c
000002c0: 7b94 16bd 950b 8bbd 14c0 4cbd e81c 3c3d
000002d0: 605f 17bb 0621 54bd d41d b6bc 50a8 22bc
000002e0: 1474 a0bc bed6 223d 323c 8ebc 9656 5bbd
000002f0: e6d1 3dbd bb58 803d 6a72 0f3e fa38 41be
00000300: 5912 08bd aced 9a3c e66e 7bbd 1993 75bd
00000310: 7a28 6b3d 80b2 7e3a 6c7f c0bc 400b db3c
00000320: 1b86 1fbd 9062 eebb 78cd f5be f64d 8b3d
00000330: ad69 c73d 2c26 933c 4029 da3c 8049 4f3b
00000340: a025 8d3b 205c 0f3d e894 8cbc 3352 00be
00000350: 2b6c cb3e efc8 953e c3da 833d 1975 97be
00000360: 2925 b53e 6128 363d 8ac3 a33d 4376 033d
00000370: 5166 03be b201 36bd 3cb1 dfbc cdf4 78bd
00000380: 864b 0cbe 578d 6abe 6706 9d3e fff5 1dbf
00000390: 3386 d83e a128 30be 8598 733e c332 523d
000003a0: 297e b4bd 1e2a 2abd d658 5c3d 8ac4 f2bc
000003b0: b955 46bd 7155 243e aacf 0b3e 4ce7 6dbe
000003c0: 0fb0 473d 4820 aebe a7e7 abbe bbdd d7be
000003d0: 2f90 8b3e 3bad 27bd 9b37 8a3d 9e96 b1bc
000003e0: 3ef7 213d 76c3 473d c319 9f3e 9e26 7cbe
000003f0: a9be ad3d 3fac 103e 6706 38be 9d4e 23bc
0.0058983564 0.03927634 0.05919365 0.054136388 -0.025531128 -0.022116046 0.031506017 0.038530543
0.0523298 0.049607404 0.015166454 -0.011316881 0.032183588 0.04855319 -0.002104357 -0.014606945
0.0063044503 -0.044173554 -0.075353146 -0.020839334 0.07390759 -0.33541235 0.07547198 0.0125961155
-0.063693196 -0.065787256 -0.01698824 0.038327307 0.025421262 -0.0027178675 0.029781707 -0.00065297633
-0.044473805 0.27190965 -0.19816738 -0.35031357 0.019612975 0.020964175 -0.042589024 0.062179737
0.04365121 -0.0557345 0.09292046 0.40550572 0.4576219 0.45193982 0.109973654 -0.66335464
0.36291358 -0.6956206 0.13461822 -0.04922813 0.040363543 0.050073214 -0.00809928 0.3787587
-0.38482326 0.46725067 0.18974823 0.04209562 0.24392992 -0.35713765 -0.3367025 0.024281595
-0.0517214 -0.02578098 -0.04729327 -0.03856768 -0.20426477 0.046061616 0.3306141 0.36693352
0.5340824 0.14280668 0.7176821 -0.08124774 -0.052764453 0.031680584 0.028979488 -0.035843253
0.028441548 0.30733818 0.010750948 -0.23826659 -0.21482342 0.06633591 -0.5966314 0.57587564
0.039388917 0.050748043 -0.033357933 -0.035545845 -0.07502456 -0.31952235 0.05661317 -0.059679035
0.32302868 0.04499652 0.40182337 0.15926754 -0.2899397 0.054057173 -0.059245348 -0.017436177
-0.011687763 -0.041683532 0.07818486 -0.14299272 -0.1830418 -0.13655381 -0.169827 0.13662899
0.38570154 -0.04894632 0.026477426 0.046686873 -0.027133055 -0.12288397 -0.21865553 -0.076727614
0.06358233 0.13050118 0.21561836 -0.07093528 0.3065197 0.11856508 0.046307556 0.057452045
-0.03178647 0.06811691 0.050002508 -0.02715848 0.06355839 0.13452257 0.00083228364 -0.21048433
-0.037147798 0.05011124 0.010573648 -0.011265397 -0.031354647 0.060661323 0.069087915 -0.042322554
0.038329273 0.04598538 -0.13422295 -0.020789903 0.028071843 0.0042439997 0.010441452 -0.009715192
0.029839195 0.060886286 0.049214564 0.03212122 -0.060935453 0.017652497 -0.04599788 0.010452636
0.031554922 -0.0071871653 -0.071292154 0.05728098 -0.049168203 0.021991685 0.049634017 0.018248983
0.03853458 0.058048002 -0.06958019 -0.06756942 0.011232428 0.028531149 -0.069348074 0.0133373365
-0.036762696 -0.067893185 -0.049987867 0.045926005 -0.002309762 -0.051789306 -0.02223102 -0.009927824
-0.0195866 0.039755575 -0.017362688 -0.05354937 -0.046342753 0.06266924 0.14008489 -0.18869391
-0.033220623 0.018912159 -0.061385058 -0.059954736 0.05741165 0.00097159296 -0.02349826 0.026738763
-0.038946252 -0.007274933 -0.48008323 0.06801979 0.09736953 0.017962538 0.026630998 0.0031629503
0.0043074638 0.034999967 -0.017160848 -0.12531357 0.39730963 0.29254863 0.0643821 -0.29581526
0.35379913 0.044472102 0.079962805 0.032095205 -0.12832 -0.04443521 -0.027306192 -0.060780335
-0.13700685 -0.2290548 0.30668947 -0.61703485 0.42289886 -0.17202999 0.2378865 0.05131794
-0.08813126 -0.041544072 0.053795658 -0.029634733 -0.048421595 0.16048218 0.13653436 -0.23232764
0.048751887 -0.34009004 -0.33575174 -0.42161354 0.2725844 -0.04093669 0.06748887 -0.021678265
0.03954243 0.04877039 0.31074342 -0.24624106 0.08483631 0.14128207 -0.17971192 -0.009967473

linear.1.bias f4 [256]
00000000: 0998 33be 162b 3cbe 57ad 06be 5a1e 9dbd
00000010: 871d f73d 1da0 8dbe 476e 5b3d 9bcf 01be
00000020: 4349 72be 51bd 8cbe 501f 3bbe 3903 d4bd
00000030: 919e d93d 9e15 5fbe 4ef7 97be 2026 73be
00000040: 423d 18be a1c4 44be e656 0ebe 172c 76be
00000050: 86b7 163e a22b 59be cd73 afbe a3b5 5bbd
00000060: fdda 173c 9c99 753d 7555 0c3d cd8b eebb
00000070: 3f18 54be b65d 04be 9794 02bf 0f3e afbd
00000080: 6317 e6bd bfe0 cabd 89c8 8bbe 962b e23b
00000090: 1507 57bc 40c7 2fbe 5aec 32be 134f 9abe
000000a0: 9cb2 eebd 68cb edbe 8139 3ebe af15 b5bd
000000b0: 00f3 8fbe 903a 77be 491f 49bd f264 0abe
000000c0: 71c3 97be 83dc 363d a310 95bd 53a7 ccbd
000000d0: daff b93c b8c2 3abe 9209 94bd 6b90 adbe
000000e0: 973a 5abd aef6 d5bc 9ee0 5abe cc35 0e3d
000000f0: ea2c 333d f267 1bbe 7077 adbd 17ba dcbd
00000100: b842 11be a934 febd 454e 70be 9adf 2bbe
00000110: d7cd 3bbe 34b5 a2bd 2a50 39be 21cf 97be
00000120: 6a4b 1abe 600a 8bbe bb0e 40bd d8fe 7dbe
00000130: de7d 0dbe 1a19 bbbd b51c edbd be24 193d
00000140: da5c 04be 45c1 babb 7ae3 50bd 44c8 54be
00000150: 28d7 71be e1fa 79be 9e30 0abe 971a 1cbe
00000160: ce58 10bf a81a 1ebe 5394 5fbe 7e28 193e
00000170: 0396 3f3d db6d 8cbd 90e9 7b3d d602 893d
00000180: ada2 d8bd 61ce 38be e07a 413e 72b5 54be
00000190: d634 4dbe 40b8 93bd b521 25be 9bae d8be
000001a0: c00e f5bb a40e 46bd 99d8 97be 7b57 6fbe
000001b0: 38c8 ad3d a98f 25be 6505 2bbe 4dc5 c9bd
000001c0: d1c5 ccbd 3ead 47be 6084 03be c657 943d
000001d0: 3907 48be 87da 31bd 56b5 033d 0c53 47be
000001e0: ea52 1abe 3604 2abe d2b0 3bbe 266c 29bd
000001f0: 18bf d0bd 9a4f 1abf 4e60 c0bd 1869 a9be
00000200: 8cbc 4dbe 2e86 3bbe 444e 32be b87f 70bd
00000210: c485 dabe f4c0 84be 1474 48be a2f9 21be
00000220: 2f7e d4bd 8e0d 10be 1b3b d0bd 4960 5bbe
00000230: 7001 e1bd a570 2ebe e1e5 30bc ecfc 9fbe
00000240: 4d39 5ebe c3db 30be b9ad 5ebe e108 23be
00000250: 0a5e 45be 3dd0 52bd 89d1 603e 1f75 3fbe
00000260: c31a 82bc eea3 9bbd da6d e0bc 3c7a 96bd
00000270: 5b72 6cbe 0fcf 19be 02ce 04be 56e8 5ebd
00000280: 7cc0 fdbd 06d8 7ebd 4ad7 44be 2313 9ebe
00000290: 69ed aabd 2c4d 2abe 650b 5d3e 1935 68bd
000002a0: 563b 47bd 7590 23be d986 2ebe 9f68 b7be
000002b0: 2202 eebd aad8 0bbd ab35 89be 0577 5dbd
000002c0: 702c aabd 2aa3 9cbd a0fe 1abe 04ea 2abe
000002d0: 1e74 5dbd a878 9cbe ee3f 743d 8f3b 44be
000002e0: 3e60 b5be 0643 c3be 4327 373d 7eee 3fbe
000002f0: bd6a ccbe dc5c 70be da98 95be f6a3 9ebe
00000300: 8498 2abd 804c 82be 7171 25be 7438 afbd
00000310: f3fb 45be 534d 7dbe e2bb 93be f413 c1be
00000320: 1c85 2dbe 452c e5be 6a5f b6be 1458 89bd
00000330: 1788 443d f126 8dbe 9342 6dbe aec5 81bc
00000340: dc32 2bbe eddf 693d 7735 adbb 157b 32be
00000350: 5eaf 4cbe a68e a7bd c00a 77be 8021 7ebe
00000360: 38b0 e3bd 9a6a 32be 3c54 8fbe 8980 66bd
00000370: 9e20 36be 5ac5 8cbd 371e afbe 5857 81be
00000380: 56dc 5ebe af44 f3bd 7730 c9bd b331 acbe
00000390: 0894 4dbe 9cbe b83c 5143 1cbd cfa8 25be
000003a0: 7c74 42be a5c0 54be f27e 7bbe 7536 85be
000003b0: c968 07be 42e0 7fbe 2afb 77be 6631 aabd
000003c0: 52fe 8abe 1a7b 17be 2faf 5abe 31af eabd
000003d0: 44ce d6bd 6233 e8bd 0abe 973c 3ce5 a6be
000003e0: cfaf b8bd 069d 31be 5877 a4bd 273e 9ebe
000003f0: d23e 8e3d 97cc ad3c cb04 2abe a620 9abe
-0.17538466 -0.18375811 -0.13152061 -0.07671805 0.12066179 -0.2766122 0.053571966 -0.12676851
-0.2366076 -0.27488187 -0.18273664 -0.10352177 0.10625947 -0.2178559 -0.29680866 -0.23745012
-0.14867118 -0.19215633 -0.13900337 -0.24040256 0.14718446 -0.21208051 -0.34268036 -0.05364002
0.0092685195 0.059960946 0.034261186 -0.007279849 -0.20712374 -0.12926373 -0.5100798 -0.085567586
-0.112349294 -0.09906148 -0.27301434 0.0069021685 -0.013124247 -0.17165852 -0.17472973 -0.30138454
-0.11655161 -0.4644425 -0.18576623 -0.088420264 -0.28115082 -0.24143434 -0.0491021 -0.1351507
-0.29641297 0.04464389 -0.07278564 -0.09992852 0.022705007 -0.18238342 -0.07228388 -0.33899245
-0.053278532 -0.026118603 -0.21374747 0.034719273 0.043744005 -0.1517637 -0.084700465 -0.10777681
-0.14185607 -0.12412388 -0.23467357 -0.16784516 -0.1834024 -0.07944718 -0.18096986 -0.29650214
-0.1506783 -0.27156353 -0.046889048 -0.24804246 -0.13817546 -0.09135647 -0.11577741 0.037388556
-0.12926045 -0.005699309 -0.05099819 -0.2077952 -0.23617232 -0.24412109 -0.13495108 -0.15244518
-0.56385505 -0.15439856 -0.21833925 0.14956853 0.04677392 -0.06856891 0.06150204 0.06689994
-0.10577903 -0.18047477 0.1889453 -0.20772341 -0.20039687 -0.07212877 -0.1612614 -0.42320713
-0.007478565 -0.048353806 -0.29657438 -0.23373215 0.08485454 -0.16168083 -0.16701277 -0.09852085
-0.09998668 -0.1949968 -0.12843466 0.07243304 -0.19534005 -0.043421295 0.032155357 -0.19465274
-0.15070692 -0.16603169 -0.1832917 -0.041362904 -0.10192698 -0.6027771 -0.09393369 -0.33087993
-0.20091456 -0.18312904 -0.17412668 -0.058715552 -0.4268018 -0.25928462 -0.1957553 -0.15817884
-0.1037563 -0.1406767 -0.101675235 -0.21423449 -0.10986602 -0.17035158 -0.010796995 -0.31247652
-0.21701546 -0.17271332 -0.21745957 -0.15921356 -0.19274154 -0.051468123 0.21954931 -0.18697022
-0.015881902 -0.075996265 -0.027396131 -0.07347533 -0.23090498 -0.15020393 -0.1296921 -0.05442079
-0.12390229 -0.062217735 -0.19222751 -0.30873975 -0.08346064 -0.16631001 0.21586378 -0.056691263
-0.04864057 -0.15973075 -0.17043628 -0.35822007 -0.116215006 -0.034142174 -0.26798758 -0.054068584
-0.08309257 -0.076483086 -0.15136194 -0.16690832 -0.054065816 -0.30560803 0.05963128 -0.19163345
-0.3542499 -0.38137072 0.044715177 -0.18743321 -0.39925185 -0.23472923 -0.2921818 -0.30984467
-0.041649356 -0.2544899 -0.16156556 -0.085556895 -0.19334392 -0.24736528 -0.2885428 -0.37710536
-0.16945308 -0.44760337 -0.3561967 -0.06706253 0.047981348 -0.27568772 -0.23169927 -0.015841331
-0.1671862 0.057098318 -0.0052859145 -0.17429765 -0.19988772 -0.08181505 -0.24125195 -0.24817467
-0.111175954 -0.17423478 -0.27993953 -0.056274924 -0.1778588 -0.06873579 -0.3420274 -0.2526195
-0.21763739 -0.11878335 -0.09823697 -0.33631667 -0.20076 0.022551827 -0.038150135 -0.16177677
-0.18989748 -0.20776613 -0.24560145 -0.2601811 -0.13223566 -0.24987891 -0.24216905 -0.08310203
-0.27147156 -0.14793053 -0.2135589 -0.11459196 -0.10488561 -0.113379255 0.018523235 -0.32596767
-0.09017908 -0.17345056 -0.080305755 -0.30906793 0.06945576 0.02121572 -0.16603391 -0.30103034

linear.3.weight f4 [64, 256]
00000000: fdca 2bbe fdfa 1d3f 0b86 353e 2885 5e3b
00000010: 7e4e 74be d3f4 3abe 8c77 fe3d 8413 57bd
00000020: e5ed 00be 297e 233f c62a 663e 4bce 66bd
00000030: 110b 8bbe e79f 08be 46a9 d03e 0f3b 883f
00000040: fcb5 f6be b182 f03d f2fc a93e f5ec 81be
00000050: b3ec 7cbe 9b11 e53e de91 c73e 475a 973c
00000060: 5594 aebd 9a73 7b3d 2eaf 31be bf91 053f
00000070: 1294 95be 22cc 37bc 97db bf3e ef8f 7dbe
00000080: d7b3 653e e9be 9abd 55b9 af3e 44fe 06bf
00000090: ec97 adbe efae 853b cdb5 e4be 221c 0f3f
000000a0: c0e5 2a3d c851 913e 209a a1bd cacc 0abe
000000b0: a9f7 3d3f 319a abbe d2b0 963e 058a d93d
000000c0: ea4b 75bd 0178 f4be 4e8a 5cbe 3bda ac3d
000000d0: 3a66 80bc b2fa 10be f78b 96be 350d b53d
000000e0: 41b1 7c3e 67fb b73d 21c1 43be b8b1 0dbe
000000f0: 54aa 61be 1cd7 26bd bad1 40bf b7a4 3cbd
00000100: bcc9 0a3f 327e ff3d 55b2 05bf c33d 21be
00000110: 5a42 0d3f a77c 2ebe 47a1 f53e 3568 703e
00000120: b044 e0be 9099 783e 79d7 e6be e22d 5bbe
00000130: 1e1e 0c3f 3ab3 94be 43b8 8ebe d9ff e3be
00000140: ed07 7cbe b7da 063c 896a 97be 10f6 71be
00000150: a33e 50be 84a7 143f 7141 393f 6a59 ecbe
00000160: 98d9 eb3e 5896 f13d d854 eabd f2d4 bbbd
00000170: 762c fd3e a0b9 b73e 498e 07be c73a 47bf
00000180: 8bc1 07bf 94a6 a3be d1ea 3bbe 6d2b 14be
00000190: 0c3f 5cbe 1e7e 47be c1c3 05be d62e e53e
000001a0: d0b1 403e 88b9 48be c7d5 1e3f e65c 06bf
000001b0: 6c78 dbbe cfa8 d93e 895a b4bd ba9e 84be
000001c0: 9b6c 3a3f dc7d b1bd e9bf 7bbe 48d4 85be
000001d0: 2019 bf3e 0d0e a0be d7ac 243f be6c 693e
000001e0: 7fdf c23e c837 903e 917b 823e 26f1 00bf
000001f0: f935 aebe 7672 c23e 56ef 8c3e 81ae a73e
00000200: be31 6dbe 3de4 90be 4b98 483e 2007 c23e
00000210: 68bf d53e 48c6 8e3f d10b 27be d0fb 7abe
00000220: 116a 6bbe e8e4 24be 7ab2 d93e 13d3 023f
00000230: 940b 113f f640 483f a108 6bbe f3b9 e3bd
00000240: 8136 20bf 4bca ad3d 6706 993e ab90 123e
00000250: 3e17 f8be 5f52 76be db1f f5bd 7d7a a7be
00000260: 0b01 d4bd 44f6 fdbe ea19 63be a8b0 82be
00000270: bb04 d73e 72e3 643e 4c0f 2c3e 4bfc 07bf
00000280: 5afc 76be 9f9c 57bd 24c4 91be 4b54 02bf
00000290: 5aaa 7fbe 1459 41be 10c9 2abe 2d8f f43e
000002a0: 4069 093f 9d93 11be 032d d33e 0b70 283f
000002b0: 4e55 ea3e e2d5 3bbd 7ec3 033e 19eb ff3d
000002c0: 871d 11be 55f3 d9be 5833 32bf bff5 94be
000002d0: e0b9 293e 0570 b13d e61b 35be f917 683e
000002e0: 20e6 183f 9616 363f c863 463e d740 e03e
000002f0: f61d 143f 3090 2c3e c67b f8bd b41a 643e
00000300: 22e4 aabe 9fbc aa3e 6088 283e 478d a93d
00000310: 0ba9 bc3e e722 45be 9145 f73e 6e68 893f
00000320: 10a1 51be cef4 193f c1dc 433f 7285 88be
00000330: cddc bcbe 7df0 143f 97e6 aebe 9ebd 45be
00000340: 26b6 843e a3a7 32bd 040c 9a3d 7cea 36bf
00000350: 8766 1d3f eb12 e6bd 4823 4abd 4eb2 883f
00000360: 57c8 0d3f 1ac3 61be a56c 403f cd64 48bd
00000370: 0ffd e5be 8eae 0dbf dab4 0d3f 0354 18be
00000380: 2dc7 c7be b6df e1bd b4e9 1e3f ad46 f13e
00000390: 9714 523d fc96 efbe 1fb0 89be 6c84 6d3e
000003a0: f99a c4be a4b9 403f ae49 3fbe d3a0 bc3e
000003b0: 30ab ddb9 6d39 053e 493f c6bd 3c0e d13e
000003c0: bd2e fbbe 5d2d 183f 92f5 113f eb68 e53e
000003d0: d6cb 623e 2241 333f a04f 87be 18bb 003f
000003e0: 3327 86be 3639 a83e 666e cd3d 99d1 e2bd
000003f0: 1273 2ebe 63b7 9ebd a190 84be 02e9 72be
-0.16776653 0.617111 0.17726915 0.003395388 -0.23858067 -0.18257456 0.124251455 -0.052508846
-0.1259075 0.6386438 0.22477254 -0.05634908 -0.2715688 -0.13342248 0.40754145 1.0643023
-0.48185718 0.117436774 0.33200794 -0.25376096 -0.24699669 0.44739994 0.38978475 0.018475665
-0.08524386 0.061389543 -0.17351982 0.52175516 -0.2921453 -0.011218103 0.3747222 -0.24761938
0.22431885 -0.075559445 0.34321085 -0.5273173 -0.3390497 0.0040796916 -0.44669953 0.559023
0.041723013 0.28382707 -0.07890725 -0.13554683 0.74206024 -0.33516076 0.29431778 0.10622028
-0.05988685 -0.47747806 -0.21537134 0.08440062 -0.015673745 -0.14158133 -0.2940366 0.0884041
0.24676992 0.08983498 -0.19116642 -0.13837326 -0.22037631 -0.040732488 -0.7532002 -0.04605552
0.5421407 0.12475242 -0.5222524 -0.15746216 0.5517937 -0.17039739 0.47974607 0.23477252
-0.43802404 0.2427733 -0.45086268 -0.21404222 0.54733455 -0.2904299 -0.27874956 -0.44531134
-0.24612398 0.008230857 -0.29573467 -0.23629022 -0.20336394 0.5806811 0.7236548 -0.46161968
0.46064448 0.11796254 -0.11441964 -0.091714755 0.49447984 0.35883808 -0.13237871 -0.7782406
-0.530297 -0.31963027 -0.18351294 -0.1446969 -0.21508425 -0.19481704 -0.13062955 0.44762295
0.1881783 -0.19602025 0.6204495 -0.524855 -0.42865312 0.42511603 -0.08806331 -0.2590235
0.7282197 -0.08666584 -0.24584927 -0.2613852 0.37323856 -0.3126072 0.6432623 0.22795388
0.3806114 0.28167558 0.254849 -0.50367963 -0.34025553 0.37977952 0.2752635 0.32750323
-0.23163506 -0.28299132 0.19589345 0.3789606 0.41747594 1.1154261 -0.16313101 -0.24510121
-0.2298968 -0.16102946 0.4251898 0.51103324 0.5665829 0.7822412 -0.2295251 -0.111194514
-0.62583166 0.0848585 0.29887697 0.14312999 -0.48455232 -0.2405486 -0.119689666 -0.3271064
-0.103517614 -0.49601948 -0.22177854 -0.25525403 0.41995797 0.22352389 0.1680271 -0.53119344
-0.24119702 -0.0526396 -0.28469956 -0.5090987 -0.24967328 -0.18881637 -0.16678262 0.47765484
0.53676224 -0.14216466 0.4124528 0.65795964 0.45768207 -0.04585827 0.12867543 0.12496013
-0.1417142 -0.4256846 -0.69609594 -0.2909374 0.16574812 0.08663944 -0.17686424 0.22665395
0.5972614 0.71128213 0.19374001 0.4379947 0.57858217 0.16851878 -0.12132983 0.22275811
-0.33377177 0.3334703 0.16458273 0.082789 0.3684772 -0.19251595 0.48295262 1.0734994
-0.20471597 0.6013917 0.7650872 -0.2666431 -0.36887208 0.58179456 -0.341603 -0.19310614
0.25920218 -0.043616902 0.07521823 -0.71451545 0.6148457 -0.11234077 -0.049350053 1.0679414
0.5538382 -0.22047082 0.7516578 -0.048924256 -0.4491963 -0.55344474 0.5535408 -0.14875798
-0.39019147 -0.110289976 0.6207535 0.47124234 0.051289167 -0.4679488 -0.26892182 0.23195046
-0.38399485 0.75283265 -0.1868045 0.3684145 -0.0004227995 0.13010187 -0.096800394 0.40831172
-0.49059096 0.5944422 0.57015336 0.4480661 0.2214807 0.7002126 -0.26427937 0.5028548
-0.26201782 0.32856148 0.100308225 -0.11075134 -0.17036083 -0.07749822 -0.25891593 -0.23721698

linear.3.bias f4 [64]
00000000: 6d0a 6bbe 71c6 cbbe 7c46 b0be 7797 d2be
00000010: 9357 b9be 717d 92be 836c 03bf 92b9 d7be
00000020: 04ec 24bf b384 e4be f3cb f6be d66e 12bf
00000030: 4e78 0ebf a067 18bf 89d4 02bf 7ddc 05bf
00000040: 9227 0bbf 04fe c1be 0e4f 11bf 31ea 11bf
00000050: d762 33be 7aaa 5ebe 514f 97be b035 01bf
00000060: 48a2 e0be 4ea4 34bf cc0c 24bf b28e 30bf
00000070: fe3a 24bf c270 e8be 8ee0 f2be e5fa edbe
00000080: 815d 5bbe 564f 21bf e890 37bf c6de 9bbe
00000090: d000 11bf 3095 ebbe 2a1e 02be 392a d3be
000000a0: b02c d3be 6080 1bbf bdbf 82bd f84a bfbe
000000b0: 46a2 85be 9b89 cdbe fe0f 09bf 5027 67be
000000c0: f923 be3d 4f75 7abe e575 d7be b853 e8be
000000d0: 80b4 cebe b8ae e0be 0b9c b0be dfc1 fbbe
000000e0: daed 08bf 76d7 a9be 0353 10bf 5f5f 1cbf
000000f0: 278b 30bf 065e e2be 5228 15bf aa17 06bf
-0.22953196 -0.39799836 -0.34428775 -0.41131184 -0.36199626 -0.2861133 -0.5133745 -0.42133766
-0.6442263 -0.4463249 -0.48202476 -0.5720037 -0.5565232 -0.5953312 -0.5110555 -0.52289563
-0.54357255 -0.3788911 -0.5676125 -0.5699797 -0.17518173 -0.21744719 -0.295527 -0.50472546
-0.4387381 -0.7056321 -0.64082026 -0.68967736 -0.64152515 -0.45398527 -0.47436947 -0.4648048
-0.21422388 -0.6301168 -0.71705484 -0.304434 -0.56641865 -0.4601226 -0.12706819 -0.4124315
-0.4124503 -0.6074276 -0.063842274 -0.37361884 -0.26100367 -0.40144047 -0.5354003 -0.2257359
0.09284205 -0.24458812 -0.42082134 -0.45376372 -0.40372086 -0.438833 -0.3449405 -0.4917135
-0.5348793 -0.33172196 -0.56376666 -0.61083025 -0.6896233 -0.4421236 -0.5826465 -0.5237986

reg.weight f4 [2, 128]
00000000: fc03 82ba 2a66 3fbd 92de a43e 3804 a8bf
00000010: 8c03 253c 03b6 be3d 8147 80be e4f4 943e
00000020: 3091 5a3d f774 843d 8d00 033c 77f2 383d
00000030: 6cf8 c0bb ba9b 443c bfaf 17bc 0618 56bd
00000040: d8ef 5bbb 32a1 2e3c 5adc 293c 2286 bd3b
00000050: 5d91 8f3d 4b8c d73b 2c63 333c 3072 3b3b
00000060: b06c 153c 366f 0dbd 0fbe ccbd 69e5 983e
00000070: 80da 00bd 94ca c4bd ed2e c7be 5ee5 c03b
00000080: 6037 d539 d801 cc3b e2fc c03b a261 2c3c
00000090: ea4c 783c bad8 9b3c 977f 8fbe cb6f 433c
000000a0: 07e2 2e3c faf3 423b a6f4 d9ba ba48 a43c
000000b0: f881 fbbd e971 d2bc babc 963b b302 a73e
000000c0: eb21 36bc de06 083e 64e4 99bd aec2 07bd
000000d0: 9148 b83b 9830 aebc e626 913d bcad 47be
000000e0: 2fef 5a3c f51e 983b c2d2 3b3c 9e98 c03d
000000f0: 4948 ce3c e07a a63c 15ad 593c 6e45 553c
00000100: 18fe 643d 20fb c83c f180 313d 8404 79bc
00000110: 3b8d abbd c801 28bc 58f8 54bb 1372 70bc
00000120: 3e5c 03bd 8ea4 b2bc e760 ddbb 1211 37bc
00000130: 9e7d babc b604 b4bc 3e3d d0bc 6c55 073b
00000140: 1cbe f7bb be7b 0bbb 929a 0cbd 843e fdbb
00000150: 088a 32bc 7721 a5bd bc19 583c 4dbf eabc
00000160: 66ea efbc 24b2 58bb 9e05 173c 2097 f1bb
00000170: 606d 40b9 6406 1fbc 1c9f 3cbc 0060 a4bc
00000180: 619b b13d 7471 06bc 8069 67b8 3ace d03c
00000190: 95c2 8e3b 3d88 0abd d896 17bc e1dc 69bc
000001a0: bf20 81bc c017 ab3b 38f4 dc3d c0ba 573c
000001b0: 3689 7e3d 900a 3fbb d439 a2bb 6646 143e
000001c0: 1a65 073c d170 4dbb 4f47 75bd 710b 0dbd
000001d0: d6f5 24bd 8453 b7bc 4829 913c e045 eabc
000001e0: d05a 26bc e84a 33bb d6d3 7e3b d887 39bc
000001f0: 03db 21bc b889 0cbd 490c 7c3c be1e fcbb
00000200: 6a87 a73a 7553 3e3b 004a be37 c063 853a
00000210: c78c ff3b bc4b 5e3b 8b6c 8aba 1a02 a63a
00000220: 7004 25ba 5d59 513b 0392 9c3a 057b 523c
00000230: aa3a 55ba b4db cd3a d8b1 153b 90f2 4fb8
00000240: ab52 37b9 149a e43a 64f4 6a3b 4479 0a3b
00000250: c14c 903c 3246 233a fc4c 853b 347e 7e3b
00000260: 4c8d ed3a e40c 3cbb 66f5 043b cc8f c13b
00000270: 8345 be3a c722 7a3b c510 0d39 c178 ad3a
00000280: 9c71 b2bb 6429 f2ba 36c2 15bb e027 39b9
00000290: ada4 9e3b fda0 bb3c da8e 3f3a 5414 ad3a
000002a0: f66c ac3b 1efc 493b 4d47 0d3b 4eaf a33b
000002b0: e233 c13a 6496 45bb d850 573b 739b 0ebb
000002c0: 1983 303a 44c4 383a 2821 5bba cea2 5ebb
000002d0: 8630 37bb 0012 bcb8 1687 92b9 c24c 80b9
000002e0: 45c5 fbba d90c f13a f00c abba 8057 11b9
000002f0: ee39 283b 974e 833a 1c7a a03a 46c9 823b
00000300: 27f7 8eba b0f9 863a 5b5b 153e b0ce 2eba
00000310: 4fbe 2dbc e063 6eb8 62c5 4a3b eec8 dbba
00000320: ac48 583b 81e6 b4bb 38ab 6fbb c92e debb
00000330: 6f34 d6ba ff3a ebbb 054a cfbb de7f 4fbc
00000340: bf82 e73d 5706 edbb 04de 953a 63d2 8d3a
00000350: 2c16 123b b242 9ebb ab40 3ebc 09c0 9737
00000360: a34e 03bc e51c 6e3a 3f73 223c 1d1a 09bc
00000370: 4abc b239 e78a 1abb 10dd e3bb 5b86 a73b
00000380: dc3e f1ba e1d0 fe3a 38d9 8abb 5b92 06bc
00000390: 5e7c 8f3a 5fb3 83bc ba3b c2bb 1609 f7ba
000003a0: 2c14 18bb cb5a 89ba 654f 7c3b eedf aabb
000003b0: 5a08 f6ba b6ce 48bc f50f 0cbb fb61 f7bc
000003c0: d68e 10be 4fd1 cfbd aa36 fcbb e15f 3cbb
000003d0: 1349 ddbb cfe6 8bbb ea33 d4bb 3772 ddba
000003e0: edb2 013c 2826 7d3b 2f79 813b 1636 21bc
000003f0: 673e c6bb ac17 56ba 7359 74bb f481 f9ba
-0.00099194 -0.04672829 0.32201058 -1.3126287 0.010071646 0.0931206 -0.25054553 0.29093087
0.053361118 0.06467622 0.007995737 0.045153107 -0.005888989 0.012000019 -0.00925821 -0.052269004
-0.0033559706 0.010658549 0.010367477 0.005783812 0.07010148 0.0065780035 0.010948937 0.0028601997
0.009120151 -0.034529887 -0.09997188 0.29862526 -0.031458378 -0.09608951 -0.3890299 0.0058867177
0.00040667783 0.0062258057 0.005889521 0.010521324 0.0151550565 0.019024242 -0.2802703 0.011928509
0.010674006 0.0029747472 -0.0016628697 0.02005421 -0.12280649 -0.025689082 0.0046001347 0.32619247
-0.011116485 0.1328387 -0.07514265 -0.033144645 0.005623885 -0.021263406 0.070874974 -0.19499868
0.01336269 0.0046423622 0.011463823 0.094041094 0.025180953 0.020322263 0.013285895 0.013017042
0.055906385 0.024533808 0.04333586 -0.0151988305 -0.08376547 -0.010254331 -0.0032496657 -0.014675635
-0.03207039 -0.021806981 -0.0067559364 -0.0111735035 -0.022764977 -0.021974903 -0.025419828 0.002065028
-0.0075605046 -0.0021283473 -0.034327097 -0.0077283997 -0.010897167 -0.080630235 0.013189729 -0.028655672
-0.029286575 -0.0033065164 0.009217648 -0.007372752 -0.00018351292 -0.0097061135 -0.011512544 -0.020065308
0.08672214 -0.00820576 -5.5172946e-05 0.025488961 0.004356692 -0.033821333 -0.009252273 -0.014273853
-0.015762685 0.005221337 0.107887685 0.013167083 0.062142573 -0.0029150583 -0.0049507413 0.1447998
0.008263851 -0.0031347761 -0.05988246 -0.03443474 -0.04027351 -0.02237869 0.01771988 -0.028597772
-0.010153487 -0.002735788 0.0038883588 -0.011323892 -0.009878877 -0.034311026 0.015383788 -0.0076940944
0.0012781445 0.0029041443 2.2684224e-05 0.0010176823 0.0077987644 0.0033919653 -0.0010560913 0.0012665421
-0.0006294912 0.0031944134 0.001194537 0.012846713 -0.0008134047 0.0015705735 0.00228416 -4.957855e-05
-0.00017483036 0.0017440938 0.0035851235 0.002112941 0.017614724 0.00062284165 0.004068015 0.0038832547
0.0018123775 -0.0028694207 0.002028787 0.0059070345 0.0014516566 0.0038167702 0.00013453055 0.001323484
-0.005445672 -0.001847547 -0.0022851354 -0.0001765783 0.004841408 0.022903914 0.00073073583 0.0013204911
0.0052620126 0.003082044 0.002155739 0.004995263 0.0014740194 -0.0030149454 0.0032854583 -0.0021760135
0.0006733402 0.0007048289 -0.00083591277 -0.003397155 -0.0027952506 -8.967891e-05 -0.00027947937 -0.00024471252
-0.0019208571 0.001839067 -0.001305012 -0.00013860874 0.0025669294 0.0010017928 0.0012243423 0.003991279
-0.0010907397 0.0010297801 0.1458563 -0.0006668372 -0.010604455 -5.6836638e-05 0.0030940403 -0.0016768256
0.00330023 -0.0055206423 -0.003657056 -0.0067804796 -0.0016342531 -0.0071786637 -0.0063259625 -0.012664763
0.11304235 -0.007233422 0.0011433964 0.0010820146 0.0022291047 -0.004829728 -0.011612098 1.8090026e-05
-0.008014354 0.0009083285 0.009915172 -0.008368042 0.00034091092 -0.0023581327 -0.006953843 0.005112452
-0.0018405574 0.0019440913 -0.0042373203 -0.008213605 0.0010947098 -0.016076742 -0.00592753 -0.0018847312
-0.0023205383 -0.0010479329 0.0038499471 -0.005214683 -0.00187708 -0.012256315 -0.0021371816 -0.030198088
-0.14116988 -0.10147344 -0.007696946 -0.0028743672 -0.006753096 -0.004269458 -0.006475915 -0.0016895001
0.007916194 0.003862748 0.003951214 -0.009839555 -0.0060499194 -0.00081669795 -0.0037284761 -0.0019035921

reg.bias f4 [2]
00000000: 7624 783e 8ac4 ebba
0.24232659 -0.001798765
