server/models/value_model_minmax40.pt (torch, 255287 bytes, 12 tensors)

conv.0.weight f4 [4, 1, 3, 3]
00000000: 0d3c a4be 40d3 4bbe f33f 333e 65a0 d8bd
00000010: d7e8 90bd 2c03 c53d 150a b03d 5338 88be
00000020: b66a 323e 2d88 02bd ad92 55bd 1b4f 2bbe
00000030: b082 213d 0551 4f3e 0f53 86be fc03 823e
00000040: 5b26 39be d2bb 61bc 4dcb 82be 5741 803e
00000050: dd48 bdbe f3ae 303e 1137 923e 1232 a83e
00000060: c1bc ae3d 23a4 aabe 0523 04bd 5be1 6dbe
00000070: b0d3 98be 5165 f23d 450b 33bd 77f8 68bd
00000080: 9534 653e 1d87 f0bc f507 a5be 2060 cfbd
-0.32077065 -0.19904804 0.17504863 -0.10577468 -0.07075661 0.096197456 0.08595673 -0.26605472
0.1742352 -0.03186815 -0.052141834 -0.16729395 0.039431274 0.2024575 -0.26235244 0.25393665
-0.18081038 -0.01377769 -0.2554573 0.2504985 -0.36969653 0.17254238 0.28557637 0.328507
0.08532096 -0.3332835 -0.03225996 -0.23230498 -0.29849005 0.11835731 -0.04371192 -0.05687758
0.2238334 -0.029361302 -0.32232633 -0.10125756

conv.0.bias f4 [4]
00000000: 6de7 6c3e 2f85 23be f317 d3bd 7e33 003e
0.23135157 -0.15968774 -0.10307302 0.12519643

conv.2.weight f4 [4, 4, 3, 3]
00000000: 3f15 6bbe cc5a 313d 1e8e 063d 083b 0fbe
00000010: eb4a bbbc aa74 7cbb cad7 95bd 08ee 213d
00000020: a283 dfbd c34f 55bd cb80 123d 3f37 f7bc
00000030: d3d8 873d a6f5 3bbe 4057 54bd 121a 823b
00000040: 1964 96bd e484 1bbe ed1c 533e 05e9 d33c
00000050: 1206 cb3b 35b4 1a3d 8b14 07bd 9253 05be
00000060: c239 c23d df79 f33c c42f 573e 5412 643d
00000070: f716 913e 7a5f e23d 4e81 fc3d 2bb4 bdbe
00000080: aeb9 d9bd 26ed bfbb 4b33 903d 06a6 12be
00000090: d5b6 32be 5d77 283e 87cb 1dbd f108 cd3c
000000a0: 5a81 9f3d fc25 553c 3cc3 183d b775 4f3e
000000b0: 2b3b 5abd c185 9cbd b5f1 3a3d d0d2 77be
000000c0: 9376 773c ee8f c5bd a6ca 283d 9ef0 f03c
000000d0: bef6 67bd 2498 163c e919 023d ca6e 403d
000000e0: 499c ee3d 83ec 153e d156 13be fe76 e4be
000000f0: 6937 1fbd 7314 c0be 7cc5 793e 5253 64bc
00000100: 70ac 23be 061c 11be a4e8 15bd 6f6e 603e
00000110: 7773 abbe b586 79bd 7ca3 c93e 3c44 38bd
00000120: ed66 ee3c 5e8e cb3c 36af 9dbd 784c 043d
00000130: 90a8 fdbc 0768 273e 547d 463d 22d5 31be
00000140: 4515 943e 1e25 393d 7c35 a93b 1b63 ddbd
00000150: 8af8 333d 2c88 8abe 852a 3abe 2137 1abe
00000160: 4511 32bd 2c44 00be 92cd 43bc f135 5ebe
00000170: 3160 d9be 520c 853d 1044 c3bd 3626 9cbd
00000180: 3f2b cd3d c40c 25be bba5 80bd 24e9 30be
00000190: e637 28bd eeed bebd 3456 43be afd0 b13d
000001a0: c8bc cc3d b27b 393e 2684 d8bd 4587 d53d
000001b0: c531 523d 8093 ad3c 1765 aabb 2fcc 0a3e
000001c0: 3c10 313e 40c8 0c3e 182b f73b 64c7 a43d
000001d0: e5e8 913e 320c 153c 9367 113e 5528 d3bd
000001e0: a30b bd3c 0818 1abe 756b babd a67b 603d
000001f0: 377b 1abe ca10 fa3d 2524 ad3e 3231 973e
00000200: 231d 83be d118 5bbc f4cf e3bd a5d3 223d
00000210: 2026 373e 8749 96be dae8 a4be 8330 6d3e
00000220: 34de 68be 48e6 e73d ac02 36bd 7229 183e
00000230: f152 003e 58dd c8bd 77e8 813d 610b cd3d
-0.22957323 0.04329948 0.032850377 -0.13987362 -0.022862872 -0.0038521686 -0.07316549 0.039533645
-0.10913779 -0.05207802 0.035767358 -0.03017771 0.06633153 -0.18355426 -0.05184102 0.003970393
-0.07343311 -0.15187413 0.20616503 0.025867948 0.006195792 0.037769515 -0.032978576 -0.13020161
0.09483673 0.029721199 0.21014315 0.05568154 0.28337833 0.11053367 0.123293504 -0.3705152
-0.10631119 -0.0058571277 0.07041033 -0.14321145 -0.17452557 0.16451783 -0.038524177 0.025028678
0.07788344 0.013009544 0.037295565 0.20259748 -0.053279083 -0.07642699 0.045640666 -0.24201512
0.015103954 -0.09646593 0.041208886 0.02941161 -0.056631796 0.009191547 0.03176299 0.046980657
0.11650903 0.14641003 -0.14388587 -0.44622034 -0.038871203 -0.37515602 0.2439174 -0.013935881
-0.15983748 -0.14170846 -0.036598817 0.21917127 -0.3348653 -0.060919482 0.3938254 -0.04498695
0.029101813 0.02484816 -0.076994345 0.03229949 -0.030964166 0.16348277 0.048459366 -0.1736646
0.28922477 0.045201413 0.0051638465 -0.108099185 0.043938197 -0.27057016 -0.18180282 -0.15060093
-0.0434735 -0.12526006 -0.011950867 -0.21700265 -0.424562 0.064964905 -0.09534466 -0.07624476
0.10018014 -0.16118151 -0.062816106 -0.17276436 -0.041068934 -0.09322725 -0.19075853 0.08682381
0.09996945 0.18113592 -0.1057208 0.10426191 0.051316995 0.021188498 -0.005200039 0.13554452
0.17291349 0.13748264 0.007542979 0.08045843 0.28497997 0.009097146 0.14199667 -0.10310427
0.023076838 -0.1504823 -0.09102527 0.05480542 -0.15086065 0.122102335 0.3381664 0.2952972
-0.25608167 -0.013372616 -0.11123648 0.03975262 0.17885637 -0.29352972 -0.32208902 0.23163037
-0.22741014 0.113232195 -0.04443614 0.1485956 0.1253164 -0.09807843 0.06343167 0.10011936

conv.2.bias f4 [4]
00000000: ec00 85bd e7a5 4ebe d072 17be e8b2 dabc
-0.064943165 -0.20180474 -0.14789891 -0.026696637

conv.5.weight f4 [64, 36]
00000000: 15a8 9abe 5775 99bd 2da0 6abd 312c bcbd
00000010: 8f64 8dbc d4f8 263e e487 4abd f8c4 d93b
00000020: 8503 0bbe e063 943d 9184 e13c 0ab8 1abe
00000030: 3f69 d33d 47ac b93d 1772 83bd 14eb 713d
00000040: b3b8 943d 666b 31bd 374f 5c3d e104 513d
00000050: 9844 973d 13cc 29be a0fb 0c3d 2260 2f3c
00000060: fcd7 b4ba e732 b93c bba8 8fbd 2e6b 44be
00000070: 79d0 083d 40ad 8fba 4a08 483d d2f5 f5bc
00000080: 14bc 6dbc 9c45 91bc f280 89bd ec36 2b3d
00000090: f7d1 213e a381 c8bc f322 503e 927e 82bd
000000a0: bb66 2e3d 7e4d 79bd d17f 353d a35a 003e
000000b0: 3336 71be 47b2 8b3d 3df1 73be aa3f f3bc
000000c0: 0a5b bdbd 1e90 5e3d c60a 8a3e da9d f2bd
000000d0: ee1b 853e e83f a4be 65ab 21be 8780 2c3e
000000e0: 04dd 77be a627 8c3d e9e5 32bc 8f57 8a3e
000000f0: f3ee 8fbd 26b7 eabb 3817 85be b0ba c5bd
00000100: 2c5c b13d 276b eabd 8b72 0a3d fece b3bd
00000110: 2f51 bdbe d0a2 a53d 2274 013d 74fb 08bf
00000120: aeb1 6a3e 03ec 823d 7655 0abd 5ab7 92bd
00000130: b1f6 a63d b882 15be 8621 733d d802 3dbc
00000140: 7061 8bbd c984 6a3c 9125 4bbe 57d4 953e
00000150: 667b a33d 290a 683e 96bc 34be d89f 9f3d
00000160: 49ad 483e 80be 31b9 0ce6 a3bd 8a9e 21be
00000170: 8c02 46bc f01c 443d a8d0 953e 5ca0 4dbe
00000180: 0106 883e a362 723e 8e4a 88bc 204e 4cbc
00000190: a856 483d bd78 a7be 116a eebd 597d c0bd
000001a0: ed3f 76be 457c 0e3e 75e7 3abd 9a72 efbe
000001b0: 2a71 afbc 8b9e 693d bc01 b1be 104e 4bbd
000001c0: 85bc 03be 292a 9d3e 4228 5e3c ce0f 11be
000001d0: 8cf6 1d3e 7b67 d33c 7619 893c 230e 843d
000001e0: 3e03 b93d 548c b9bd 7f04 39bf d06e 3f3e
000001f0: a8ec e1bc 4755 833e a1a4 3a3d fc98 86be
00000200: bbf7 fe3e fec6 7dbe cdd9 09be 475a b4be
00000210: 2062 15be 447c 9fbe 5fc8 3e3f 77ce 25be
00000220: 8982 79be 7ac8 c4be 85c5 073e e0d1 49be
00000230: 29ed 143e 9c52 78be 9087 d7bc be2f 2d3e
00000240: 3162 8f3e bb24 8a3d 5a26 f5bd 19a0 39be
00000250: 69d7 88bc 4efb d3bd a0b3 ecbd 96b9 99bd
00000260: 442c b4bd 66ab 92bc 6e48 84bc 83c9 e03d
00000270: 5983 0c3c 070c 0ebd 31ec 89be 18dc 2d3e
00000280: 2f4f 04be 7e9d 30bd 282b a5bc 76d5 97bd
00000290: 3a7e d4bc 8298 1cbd 9af3 4b3e 43cd dcbd
000002a0: 163a 8dbd c3c1 ec3d c65b 04bd eace 5bbe
000002b0: 1f1e 84bd 8b70 76be 1527 613d 41aa 133d
000002c0: ee30 89be 6204 093e 846b d2bd 9fb3 43be
000002d0: fd44 5d3e 160e fc3d db66 003a 3084 5ebd
000002e0: 4423 bbbd ad82 bbbc 7187 e43b 633d 1b3e
000002f0: eeed 16be 4db6 27be 15e1 28be d95b 18be
00000300: eeb1 30bd f265 413d 9323 29be c18a d83d
00000310: 0967 213d 9ee4 ddbd bcd0 b4bd 5729 96be
00000320: 86fe 45bd bfb1 89be 69a0 123d 55a4 973d
00000330: 7654 7b3d 9195 5a3d ffa9 56bd b26c 3ebe
00000340: f7bf 193d 2cab aabd c70f 30bd a3da 773b
00000350: 9c01 c7bd adc5 97bd eadd bc3b 4e08 c23c
00000360: 3849 b039 8ccd d7bc d4b0 363e 58c8 21be
00000370: f000 393e b614 583d 1b89 85bd 1d1b 34bd
00000380: 2757 17be 06c4 233c 5d6e 543c 39ac c13d
00000390: 20bc 60ba 5884 073e d353 b23e 4721 d13d
000003a0: 5171 b53d 8d4c a7bd a36b 46bd b4fc 1d3e
000003b0: fd16 1fbe ca9a 2e3e adc6 553e af2f 5f3e
000003c0: 5d00 9cbd 159c ec3d 50e4 24be fdbb 893d
000003d0: 7595 883d 7af6 063d 9498 733d 529a 023e
000003e0: 3bc5 683d 207c 44bd 944f 64ba 11e8 4fbe
000003f0: d1b6 ad3e e370 283d 10d6 333d c5c8 16bd
-0.3020636 -0.07493084 -0.05728166 -0.09188116 -0.017259864 0.16305858 -0.049446 0.006645795
-0.13575561 0.07245612 0.027529033 -0.15109268 0.103228085 0.090660624 -0.06418245 0.05906208
0.07261791 -0.043315314 0.053786483 0.051030044 0.0738613 -0.16581754 0.034419656 0.010704072
-0.0013797279 0.02260728 -0.07014605 -0.19181511 0.03340194 -0.0010961667 0.04883603 -0.030024443
-0.014510173 -0.017733388 -0.067140475 0.041800424 0.15802751 -0.024475878 0.20325832 -0.063717976
0.04257844 -0.060864918 0.04431135 0.12534575 -0.23555832 0.06821113 -0.23822494 -0.029693443
-0.0924588 0.05433666 0.26961344 -0.11846514 0.2599787 -0.32080007 -0.15788038 0.16845904
-0.24205405 0.068435 -0.010919073 0.27019927 -0.07027998 -0.0071629463 -0.25994277 -0.096547484
0.086601585 -0.11446219 0.033800643 -0.08779715 -0.36976 0.08087695 0.031604894 -0.53508687
0.22919342 0.06392672 -0.03377291 -0.07163878 0.081525214 -0.14600646 0.059358142 -0.0115363225
-0.06805694 0.014313885 -0.19838549 0.29263565 0.07982521 0.22660126 -0.17650065 0.0779416
0.19597353 -0.00016951002 -0.08002862 -0.15783134 -0.012085568 0.04787916 0.29260755 -0.20080703
0.2656708 0.2367044 -0.016637113 -0.012469798 0.048910767 -0.32709303 -0.11641324 -0.09398908
-0.24047823 0.13914593 -0.04563089 -0.46767122 -0.021416266 0.057035964 -0.34571636 -0.049634993
-0.12864883 0.30696228 0.013559403 -0.14166185 0.15426081 0.02580618 0.016735774 0.06448009
0.090338215 -0.090599686 -0.72272485 0.18694615 -0.027578667 0.25651 0.04556716 -0.26288593
0.49798378 -0.24782941 -0.1346199 -0.35225126 -0.14588213 -0.31149495 0.7452449 -0.16192041
-0.24366201 -0.384342 0.13258941 -0.19708967 0.14543594 -0.24250263 -0.026309758 0.16912743
0.28004602 0.06745287 -0.119702056 -0.18127479 -0.016704278 -0.10350667 -0.11557698 -0.07506101
-0.087975055 -0.017903995 -0.016147818 0.10975935 0.008576238 -0.03467944 -0.26938012 0.1697849
-0.12920831 -0.043118946 -0.02016218 -0.07413761 -0.025939096 -0.03823138 0.19917145 -0.10781338
-0.06895845 0.115603946 -0.032314084 -0.2146565 -0.06451058 -0.24066369 0.054968912 0.03605104
-0.26795143 0.13380578 -0.10274413 -0.19111489 0.21608348 0.12307374 0.0004898139 -0.054325283
-0.09137586 -0.02288946 0.0069741537 0.15160136 -0.147392 -0.16378136 -0.16492112 -0.14878787
-0.043138437 0.047216363 -0.16517477 0.1057334 0.039404903 -0.10834621 -0.088288754 -0.29328415
-0.048338436 -0.26893422 0.03579751 0.07404391 0.061359845 0.053365294 -0.052408215 -0.18596151
0.037536588 -0.0833343 -0.042983796 0.0037819527 -0.09717104 -0.074107505 0.005763759 0.0236856
0.00033623888 -0.02634313 0.17840892 -0.15799081 0.18066764 0.052754126 -0.065202914 -0.04397117
-0.1477934 0.009995466 0.012965766 0.09456677 -0.00085729547 0.13234079 0.34829578 0.10211425
0.08859504 -0.08168898 -0.048442494 0.1542843 -0.15536113 0.17051235 0.2087657 0.21795534
-0.07617257 0.11553208 -0.1610272 0.06725309 0.06669132 0.032949902 0.05947168 0.12754181
0.05682872 -0.047969937 -0.0008709368 -0.2030337 0.3392854 0.041123282 0.043905318 -0.036812562

conv.5.bias f4 [64]
00000000: 8671 52be 785b b83a f2a7 2dbe 2a5b ffbd
00000010: 2bf8 d63d cdf3 22be 41d9 a7bb ff9a d2bd
00000020: f1e4 72be 0698 eebd 7ee5 13be fe22 23be
00000030: 6de3 383c 71c9 47be 2a8b eabd 08c7 aabd
00000040: 585f 35be 075b a7be 111f 04be c324 edbd
00000050: b73d 8bbe 5ef8 093d 31fe 19be 4b87 c0bd
00000060: 6022 4fbe 35b2 96be aa66 1bbe 1892 c4be
00000070: ebd1 203d 7225 9dbd f624 aa3c bc6b e7bd
00000080: 3b86 3bbe 3616 34be 7719 24bd c179 e1bd
00000090: 45ac 6fbe f40d 3bbc 60b1 4d3d ca0d 4fbe
000000a0: 2721 30bd 2995 edbd 4093 85bd 19ca 43be
000000b0: b630 df3d a231 12be ea0a 0cbe c5d8 cd3d
000000c0: 4ed9 c0bd 614c 78be b042 febd 961c 39be
000000d0: 8dca 933d 6a17 7cbd e4fd 89bc 3223 30be
000000e0: fc50 a3bb 1ab6 3dbe 5865 8fbe 3a04 9cbd
000000f0: 4d1c 74be c443 28be d9be 56be c997 8abe
-0.20551118 0.0014065346 -0.16958597 -0.1246856 0.10496553 -0.15913315 -0.005122334 -0.102834694
-0.23720147 -0.1165009 -0.14443013 -0.15931317 0.011284691 -0.19510438 -0.11452325 -0.083387434
-0.17712152 -0.32686636 -0.12902476 -0.11579277 -0.27195522 0.033684127 -0.15038373 -0.09400805
-0.20227957 -0.29432836 -0.15175882 -0.3839271 0.039262693 -0.07673158 0.020769577 -0.112998456
-0.18312924 -0.17586598 -0.040063348 -0.11009551 -0.2340556 -0.011416901 0.050217986 -0.20220104
-0.043000367 -0.11600716 -0.06522226 -0.19120063 0.10897963 -0.14276746 -0.13676038 0.10051111
-0.094164476 -0.24247886 -0.124150634 -0.18077311 0.07216368 -0.061545767 -0.016844697 -0.17200926
-0.0049840193 -0.18526497 -0.28007007 -0.07617994 -0.23838921 -0.164321 -0.2097124 -0.27068928

linear.1.weight f4 [256, 169]
00000000: 0047 c13b 3ae0 203d 0a75 723d 1ebe 5d3d
00000010: a826 d1bc b62c b5bc 740c 013d 34d2 1d3d
00000020: c657 563d 2231 4b3d b87c 783c 706a 39bc
00000030: f0d2 033d b6df 463d 40e9 09bb f851 6fbc
00000040: 9095 ce3b 54ef 34bd c052 9abd 40b7 aabc
00000050: dd5c 973d 3250 12bd f668 68bd f05f 4e3c
00000060: 9471 82bd 78bb 86bd ec2a 8bbc 18fd 1c3d
00000070: 4040 d03c 401e 32bb c4f8 f33c 802c 2bba
00000080: 2a2a 36bd f924 5dbe ce46 653d 80fa 823e
00000090: 64ab a03c 10bd ab3c d471 2ebd 2eb0 7e3d
000000a0: 9ccb 323d dc49 64bd 10f4 74bd 31d6 1b3e
000000b0: ca5d c43d 5400 4c3e 9138 103e 2347 84be
000000c0: 613e ad3d cf00 3abe 1dbd 7ebd ecbd 4cbd
000000d0: 3e54 253d 9219 4d3d d8b2 04bc d2d1 babd
000000e0: 4cf5 dabd cb01 513e 126d a73d 59fb 2b3e
000000f0: 5ba8 2e3e 461a 0ebe 7fdc c0be 2984 e03c
00000100: d2d9 53bd a232 d3bc 96b6 41bd 25f9 1dbd
00000110: 4010 1fbe 3d8e 88bd 86c8 a43e 98ff 313e
00000120: 95f3 c33d cf4e 0ebe 54d1 8b3e fd57 d5bc
00000130: 8a1f 58bd 80c3 013d 6466 ed3c 60d0 12bd
00000140: 40fe e83c 48ea 7cbd 2f23 e23d e299 f33d
00000150: d304 26be 9f8c 14be 2076 64be e1fe 1e3d
00000160: 4656 213d 2edd 4f3d 54a2 08bd 8598 11bd
00000170: 7aa6 99bd f6d4 88bc 28dd ce3d e0d3 c13d
00000180: b246 d53b 8866 2f3e 7619 edbc 0c8e 613b
00000190: da60 5f3b 0e6b 5d3d 40ab 72bd 50d6 8ebc
000001a0: 087e 3fbc be48 f43c c000 cd3d 5c1b b7bd
000001b0: af85 7ebe 1673 29bd 6f79 25be 671d eebd
000001c0: 14d4 ec3d 986c 183c 30e7 d83c bc3a 3f3d
000001d0: 2446 debc e873 68bd 3f35 06be 7e88 38bd
000001e0: 8e57 b4bd 455e dcbd 492c 0fbc e73f 0f3e
000001f0: 3c1b b43d d0bb e6bc feac 3d3d d652 6b3d
00000200: 8832 02bd e180 8b3d 6ecf 4c3d 767b debc
00000210: e72a 823d f4fc 6b3c 87e4 363e 29fd 263e
00000220: 4a28 18bd 7241 4d3d 183d 2d3c 8092 38bc
00000230: bb6d 00bd 0278 783d f77d 8d3d 6a5a 2dbd
00000240: 28ff 1c3d 2a5b 3c3d ec4b 81bc 1e19 abbc
00000250: ecf6 e53c 4011 8b3b a012 2b3c 782c 1fbc
00000260: 5471 f43c e663 793d 3695 493d 8a91 033d
00000270: 7497 79bd f89b 903c 4668 3cbd 8841 2b3c
00000280: bc3f 013d 5082 ebbb 9f01 92bd 769f 6a3d
00000290: 9964 49bd e827 b43c 0a4d 4b3d e47e 953c
000002a0: 70d6 1d3d bec3 6d3d 0f80 8ebd d661 8abd
000002b0: 3808 383c 28ba e93c 5d06 8ebd d884 5a3c
000002c0: 7b94 16bd 950b 8bbd 14c0 4cbd e81c 3c3d
000002d0: 605f 17bb 0621 54bd d41d b6bc 50a8 22bc
000002e0: 1474 a0bc bed6 223d 323c 8ebc 9656 5bbd
000002f0: e6d1 3dbd bb58 803d 8124 8b3d ba05 8ebd
00000300: 5912 08bd aced 9a3c e66e 7bbd 1993 75bd
00000310: 7a28 6b3d 80b2 7e3a 6c7f c0bc 400b db3c
00000320: 1b86 1fbd 9062 eebb cba4 c9bd eff2 6a3d
00000330: d679 a33d 2c26 933c 4029 da3c 8049 4f3b
00000340: a025 8d3b 205c 0f3d e894 8cbc 40bb e6bc
00000350: 3629 c73d cce6 58bd b865 163e 3461 15ba
00000360: 33ac a33d 237b 19bc 10b4 d3bc 49b2 88bd
00000370: 4ee5 e1bb b201 36bd 3cb1 dfbc cdf4 78bd
00000380: 3124 24be 210d c1bd 688d 333e 8801 dc3c
00000390: bf9b ef3d 8bda 45bd 7c4e 0e3c 363f d73c
000003a0: b383 173d 1e2a 2abd d658 5c3d 8ac4 f2bc
000003b0: b955 46bd 2de3 4b3e 5073 5c3d 2ada 36be
000003c0: 126f adbd 67f6 033d 25ef 12be ae9b b3bd
000003d0: bf6f d03c 3bad 27bd 9b37 8a3d 9e96 b1bc
000003e0: 3ef7 213d 76c3 473d e339 463c 1c12 1cbe
000003f0: 1bb4 783d 89df a93c ac02 fc3b c0eb 6cbd
0.0058983564 0.03927634 0.05919365 0.054136388 -0.025531128 -0.022116046 0.031506017 0.038530543
0.0523298 0.049607404 0.015166454 -0.011316881 0.032183588 0.04855319 -0.002104357 -0.014606945
0.0063044503 -0.044173554 -0.075353146 -0.020839334 0.07390759 -0.03572101 -0.056740724 0.0125961155
-0.063693196 -0.065787256 -0.01698824 0.038327307 0.025421262 -0.0027178675 0.029781707 -0.00065297633
-0.044473805 -0.21596135 0.055975728 0.2558174 0.019612975 0.020964175 -0.042589024 0.062179737
0.04365121 -0.0557345 -0.05980307 0.15218426 0.09588201 0.19922 0.14084078 -0.25835523
0.084591635 -0.18164371 -0.06219207 -0.04998581 0.040363543 0.050073214 -0.00809928 -0.09122051
-0.10691318 0.2041084 0.081751004 0.167951 0.1705641 -0.1387721 -0.37668225 0.027406769
-0.0517214 -0.02578098 -0.04729327 -0.03856768 -0.15533543 -0.06667755 0.32184237 0.17382658
0.09567944 -0.1389725 0.27308142 -0.026042933 -0.052764453 0.031680584 0.028979488 -0.035843253
0.028441548 -0.061746866 0.11041867 0.11894585 -0.16212778 -0.14506768 -0.22310686 0.03881729
0.039388917 0.050748043 -0.033357933 -0.035545845 -0.07502456 -0.01670311 0.10100776 0.0946424
0.0065086717 0.17128956 -0.028942805 0.0034416942 0.0034084828 0.054057173 -0.059245348 -0.017436177
-0.011687763 0.029819842 0.10009909 -0.08940765 -0.24855684 -0.04136952 -0.16159604 -0.11626702
0.11563888 0.0093032345 0.026477426 0.046686873 -0.027133055 -0.05675116 -0.1310625 -0.045052044
-0.08805762 -0.10760168 -0.008738586 0.1398922 0.08794257 -0.028165728 0.046307556 0.057452045
-0.03178647 0.06811691 0.050002508 -0.02715848 0.06355839 0.01440357 0.17860614 0.1630751
-0.037147798 0.05011124 0.010573648 -0.011265397 -0.031354647 0.060661323 0.069087915 -0.042322554
0.038329273 0.04598538 -0.015783273 -0.020886 0.028071843 0.0042439997 0.010441452 -0.009715192
0.029839195 0.060886286 0.049214564 0.03212122 -0.060935453 0.017652497 -0.04599788 0.010452636
0.031554922 -0.0071871653 -0.071292154 0.05728098 -0.049168203 0.021991685 0.049634017 0.018248983
0.03853458 0.058048002 -0.06958019 -0.06756942 0.011232428 0.028531149 -0.069348074 0.0133373365
-0.036762696 -0.067893185 -0.049987867 0.045926005 -0.002309762 -0.051789306 -0.02223102 -0.009927824
-0.0195866 0.039755575 -0.017362688 -0.05354937 -0.046342753 0.06266924 0.06794072 -0.06934686
-0.033220623 0.018912159 -0.061385058 -0.059954736 0.05741165 0.00097159296 -0.02349826 0.026738763
-0.038946252 -0.007274933 -0.09845885 0.057360586 0.07982223 0.017962538 0.026630998 0.0031629503
0.0043074638 0.034999967 -0.017160848 -0.02816546 0.09724657 -0.05295448 0.1468724 -0.00056983833
0.07991829 -0.009367737 -0.025842696 -0.0667463 -0.0068937903 -0.04443521 -0.027306192 -0.060780335
-0.16029431 -0.09426332 0.17534411 0.026856199 0.11699628 -0.048304122 0.008685704 0.026275259
0.036990833 -0.041544072 0.053795658 -0.029634733 -0.048421595 0.1991088 0.053820908 -0.1785666
-0.084684506 0.03221741 -0.14349039 -0.08769928 0.02544391 -0.04093669 0.06748887 -0.021678265
0.03954243 0.04877039 0.012098762 -0.15241283 0.060718637 0.020736473 0.007690748 -0.057842016

linear.1.bias f4 [256]
00000000: 37ef d9bd 520d 27bd e8b8 9b3d 4e33 06bd
00000010: 93a1 95bc 4b25 d3bd 479d 583d db0f 55bd
00000020: e13b bebd 155b dbbc 6211 0b3d 8787 1bbd
00000030: d3e4 6b3d 049f 41bd b523 a93a 18c6 e2bd
00000040: 6c3a 87bd 5646 09bd 460d 73bd c631 7fbd
00000050: 584a d03c 07f9 82bd c7bb fdbd 517e 0dbc
00000060: 9e6a 1b3c 54f8 fb3b 8298 1e3b 15fe 133e
00000070: d202 dbbd b0f2 8ebd b8fa bfbd 41aa a3bd
00000080: 4b12 a0bd e8e7 703d bf8c e5bd b0e5 1c3b
00000090: c6e3 ce3c 7783 efbd d4da 96bd bfad e8bd
000000a0: 1654 9c3c 098c ccba da40 e9bd ecca 973c
000000b0: 5d94 eebd df5d cabd 6607 bd3c 1cae 4dbd
000000c0: 8d3a f7bb 5e1c 9b3d 501f 03be 1435 4e3b
000000d0: 5b75 17bb 826b 37bd 5c0d 9abd 1d07 77bd
000000e0: 9279 1b3d b2f8 c2ba a0e1 fdbd 28f5 083d
000000f0: 3f45 5d3d 0c7a 8dbd 3b45 bebc fecb e83c
00000100: 70e6 0d39 0bbf 04bd af68 d6bd 17e0 e1ba
00000110: 23ca 83bd 5b5c 05be 3ad4 03bd 97f9 87bd
00000120: 96dd 20bd 8258 09be b33c 63bd 0560 aabd
00000130: b910 44bd 2b72 6b3b 241f 39bd 048b 063e
00000140: cbbf cabc 2727 d0bc be16 72bd 7313 6fbc
00000150: 83fe 9dbd 91cd a83b ca12 713c 79d2 a8bc
00000160: 6ac0 debd 311a 7dbd 1867 80bd 2145 2b3d
00000170: 80f7 f93d 90a6 d83b 65e2 92bc ba96 da3d
00000180: e49e 3f3d 0c22 e2bc 06b0 b53d ea6c e3bc
00000190: a408 31bd 59dc c33a d592 babd 9b66 883c
000001a0: ce16 04bd d99a e83b da15 03be 7d34 febb
000001b0: 3843 c23d 6c2f 48bd e344 92bd 00c8 16bd
000001c0: af13 85bd 6901 babd df7a 2bbc db4d ad3d
000001d0: 3f3e debc 3cac 03bd 2994 e83d f1a5 f9bd
000001e0: f144 c23d 92f3 fcbc ddc7 8fbd ff5f 3bbd
000001f0: 7111 2dbc 05e3 8f3d c39e 57bd 26cf 123c
00000200: a3ce 25bd e2ab f6bb c2da 0fbe 68b4 d8bb
00000210: e2f2 f9bd 8c36 38be f049 b9bd 196b dd3c
00000220: 275a 85bd b3ef 13bd b0db f53c 19a6 fbbd
00000230: 435c cdbc 94a4 e73c 2fb8 bcbd 2bd7 12be
00000240: cbd4 60bc d7ed 3cbd d9ab 92bd 02e9 903b
00000250: 35a7 5fbd 577e c2bd 367d 903d fc30 e8bd
00000260: 9a6a 8fbc a760 85bd 420a f23c 4456 f7bc
00000270: bc8d cdbd 8204 abbc 42b8 42bd e625 56bd
00000280: d212 d4bc 314c 393b b5f1 63bd ca6e 26be
00000290: 0b63 ba3c 5734 d5bd 1d0e f53d 200f 40bd
000002a0: b5b3 41bd 7f70 04be c1b8 853c 22cd a8bd
000002b0: 95c5 c03c 58b7 39bd d870 b5bc 5700 63bd
000002c0: b64f 67bc 7c05 ed3d d501 f7bd 282d 3b3c
000002d0: 4ca6 753c ae7c efbd 82af 4f3d 44a5 c0bd
000002e0: 505e c4bd 931c 0cbe 0084 f53d 4bdc 9fbc
000002f0: 5ba8 3fbe 77a7 b7bd dd2e 01be 8bb4 fdbd
00000300: e0db a0bc c694 99bd 0883 66bd 3016 953c
00000310: 1e2d 26bd 9b5e eebd f503 b1bd 37e1 bebd
00000320: aa40 a2bd 2601 1ebe a226 c6bd 475f 043d
00000330: 0ddf 2a3d 6dc0 a1bd ff7d 96bd 4526 423d
00000340: ad0b a4bd 2877 9f3c f483 b7bc 5d9e 29bd
00000350: 29e5 29be 1ecb 4e3d d2dd f2bd 3b07 f2bc
00000360: 5e89 863b d8f0 3bbd ac2d bb3a 166e 13bc
00000370: eceb 86bd faeb 8ebc 213b 0dbe 02ee 2fbe
00000380: 6a49 10bd c4ae 18bc 20cb df3d 3cd0 17bd
00000390: fece edbc 581f cfba 308e bf3d c6ca 04bd
000003a0: 9102 61bd 0275 9fbb 12e4 39bd 3a00 523b
000003b0: 513d 553c 428e 6abd a73d f03c ca86 94bd
000003c0: 78f8 b8bd cc1e 24bd a230 9dbd 02ae e2bc
000003d0: 65ab 14bd e2af 4b3d 0275 3d3d e3c5 67bd
000003e0: 6f7a 21be 29be f4bc ca75 44bc 3107 7cbd
000003f0: 7950 f63c 0683 4f3c 1e05 93bd 437e 0dbe
-0.1064133 -0.040784188 0.076036274 -0.03276377 -0.018265521 -0.103098474 0.052884366 -0.052017074
-0.09288765 -0.02677683 0.033952124 -0.037971046 0.05759127 -0.04727079 0.0012904318 -0.1107294
-0.0660294 -0.033514343 -0.05933883 -0.062303327 0.025426075 -0.063951544 -0.12389331 -0.008636073
0.009485869 0.007689515 0.0024199788 0.14452393 -0.10693897 -0.06979883 -0.09373993 -0.07991458
-0.07815989 0.058814913 -0.11208486 0.0023940615 0.025255095 -0.11694997 -0.07365957 -0.113612644
0.019083064 -0.0015605699 -0.113893226 0.018529378 -0.11649392 -0.09881186 0.023074817 -0.05021487
-0.0075448216 0.0757377 -0.12804914 0.0031464742 -0.002311072 -0.04478026 -0.07522079 -0.060309518
0.037957735 -0.0014875142 -0.1239655 0.033436924 0.054021116 -0.06908044 -0.023226371 0.028417584
0.00013532653 -0.032408755 -0.104691856 -0.0017232922 -0.06435039 -0.13023512 -0.032184817 -0.06639402
-0.03927382 -0.1341267 -0.05547781 -0.083190955 -0.04786751 0.0035926204 -0.045195714 0.13138968
-0.024749657 -0.025409294 -0.05910372 -0.014592039 -0.0771456 0.0051514586 0.014713952 -0.020608174
-0.10876544 -0.061792556 -0.062696636 0.041813973 0.1220541 0.0066116527 -0.017930219 0.1067328
0.04678239 -0.027604125 0.088714644 -0.027761895 -0.04322113 0.0014942988 -0.09110037 0.016650489
-0.03224831 0.0070985374 -0.12801304 -0.007757722 0.09485477 -0.04887335 -0.07142045 -0.03681183
-0.06497895 -0.090823 -0.0104663065 0.084621154 -0.02712929 -0.032146677 0.11356384 -0.12189854
0.09485806 -0.030877862 -0.07020543 -0.045745846 -0.01056324 0.070257224 -0.05264164 0.008960521
-0.040480267 -0.0075278142 -0.14048293 -0.006613303 -0.12204529 -0.17989558 -0.090473056 0.027028607
-0.06511336 -0.036117267 0.030011982 -0.1228754 -0.025068408 0.02827672 -0.09214818 -0.14339893
-0.013722609 -0.04612526 -0.071616836 0.004422308 -0.05460282 -0.09496754 0.07055132 -0.11337468
-0.017506886 -0.065125756 0.029545907 -0.030192502 -0.10036799 -0.020876173 -0.047539003 -0.052282237
-0.02588788 0.0028274173 -0.05565043 -0.162532 0.022752305 -0.10410374 0.119655825 -0.046889424
-0.047290523 -0.12933539 0.01632345 -0.08242251 0.023531714 -0.045340866 -0.022148535 -0.055420246
-0.014118126 0.11573312 -0.12060896 0.01142434 0.014993262 -0.11693703 0.050704487 -0.09406522
-0.09588301 -0.13682775 0.119880676 -0.019514224 -0.18716566 -0.08967488 -0.12615533 -0.123879515
-0.019636095 -0.074990794 -0.056277305 0.018199056 -0.04057037 -0.11639138 -0.08643333 -0.093203
-0.0792249 -0.15430126 -0.096753374 0.032317426 0.041716624 -0.078980304 -0.073482506 0.047399778
-0.080100395 0.019465998 -0.022401787 -0.041410793 -0.16591324 0.050486676 -0.11858715 -0.029544463
0.004105731 -0.045883983 0.0014280579 -0.0089984145 -0.06587967 -0.017446507 -0.13792087 -0.17180637
-0.035226263 -0.009319011 0.10927415 -0.037063822 -0.029029366 -0.0015802188 0.09353292 -0.032419942
-0.05493409 -0.0048662433 -0.04538352 0.0032043592 0.013015107 -0.057264574 0.029326273 -0.072522715
-0.09031767 -0.040068433 -0.076752916 -0.027670864 -0.036296267 0.04972828 0.046254165 -0.056585204
-0.15769361 -0.029875832 -0.011990974 -0.061530296 0.03006767 0.012665516 -0.071787104 -0.13817696

linear.3.weight f4 [64, 256]
00000000: 597b f5bc e1f4 d33d 8774 b5bb 7d37 56bd
00000010: 4cfc eabd bafc 09be 1be3 70bd b91f 693d
00000020: 539e 3ebd 2601 fdbc 140b ddbd 7111 20be
00000030: 1618 09be 7f63 45be 762d c0bc fc6d 793e
00000040: 4f70 4bbe f9e9 99bc 3b3d 093e 0e30 19be
00000050: 67fa bbbd 3b64 8c3d 1f6d 743e 930f 3b3d
00000060: 6fe9 88be 504d 903d 7650 febd 566f a2bd
00000070: af95 19be fa25 fbbd b490 a3bd b6d3 1fbe
00000080: dcaa 7b3c 36b7 76bd c7c8 643e 176a c9ba
00000090: 48a0 11be cd2e 20bd a1c9 e6bd 4ca0 423e
000000a0: 84b2 133d 100f 6dbd e68e 1b3d f072 ad3d
000000b0: b210 de3d 16c1 bcbc 21be 8f3c ce45 d73d
000000c0: d4ce cebd 5a21 babd eb78 93bd 3923 043c
000000d0: 1ac5 c6bd fa05 07be 253a 9cbe b92e 36bc
000000e0: 3a4b 093e c60a e6bd 56fd 56bd e8f6 0cbe
000000f0: 126a 41be 6212 d83d d085 d43c c2cd 85bc
00000100: fe34 11bc 5a0a 833c cf12 313d 1226 2abe
00000110: caa1 053e 5add 02be 96f2 943d e21d 6fbd
00000120: 4236 a5bd ceb8 b03d d0bd 28be 04d2 56bc
00000130: 17b0 9cbc 6fba 61be c970 10be 67e5 acbd
00000140: d869 bfbd 4745 0bbe a740 7fbe 4fb2 4dbe
00000150: cd15 73bd fcd2 813d 86e8 543d feda 68be
00000160: a0a8 7bbd 6221 423d 94b2 11be 3e98 29be
00000170: 12f6 55be 55cb 783d 4725 afbd 871b 39be
00000180: c97f eabd 8066 5fb8 7e81 3fbe a862 c6bd
00000190: 7285 2bbe 8f88 b8bd e027 3dbe 64d0 ce3c
000001a0: ca61 69bd 17b0 5bbd 46b2 123e 565a 303d
000001b0: 6b16 3ebe 8281 f9bd e4f7 f2bd 6be8 a5be
000001c0: 6fe6 653e 547d 29be 7a10 11be 2461 41be
000001d0: 11d0 123e 0692 4e3d 36aa a7bb 2f93 19bd
000001e0: 5f3e 0abd 95a3 203e 53cc 823c d85f 61bd
000001f0: 6357 49bd f2a9 5fbd c16c 883b 47df 0f3d
00000200: b610 b83c 3a04 93bd 0c88 80bd 2e37 723e
00000210: 3b41 94bd 9b8a 353e d1f3 afbd 0275 07be
00000220: ea28 bdbd c2fb 3ebe da09 a93d aeb2 473e
00000230: 2455 503d f355 bbbc 947d 413d bf55 80be
00000240: 39ae bbbe f2d0 12be 5cab 5e3d 7f6a f5bb
00000250: 4e3b 16be 1339 88be 1540 0fbe 16e0 78bd
00000260: 2a99 71be 0730 b5bd c9ac 4e3d 490f b1bd
00000270: 9a8f 9cbd e8e7 b2bd f47a 91bd 9de4 3abd
00000280: e2aa 2fbd 1300 f4bc 4bb4 2fbe 7037 21bc
00000290: 3fbb 463d 574c 18be fd56 9dbe ad21 2c3e
000002a0: d964 ca3d 01b8 04be d70b 913d a1d5 6a3e
000002b0: 935f 123e e709 f0bd 3d92 2dbe 3a75 35bd
000002c0: c31f cebd 7065 573c 3cc7 38be a764 7ebd
000002d0: da94 1b3e e896 ef39 0bc4 ab3c f438 2c3d
000002e0: d010 333e 572f 9d3d 3842 60bd 879b c23c
000002f0: e120 363e 3908 d73d 54a4 0dbc 4584 f7bd
00000300: 05fa c2bd 4a39 1dbc 3f8a e63c 5e6b 2bbc
00000310: 404c d4bd 1a67 663d 8b9f 383e 1a20 dabc
00000320: 64db 49be 356c 1c3e d8c5 033e 771a 55bd
00000330: 72ee bcbd bcf7 14bd 53a0 67be e821 ce3d
00000340: 5d25 423d 4ff9 d4bd 4191 943c c20f dabc
00000350: 37cb 643d 74e2 9bbd b568 e8bd 7830 283e
00000360: ec4d 39bd 2886 12be 7862 aa3c e1ca 89bd
00000370: 4c0b 0fbe 26cb 8dbd 2da6 6f3d 2150 46bd
00000380: 4165 47be 700c 3bbd bb0d f7bd 2750 313e
00000390: 09b5 e0bd 9648 4abe 3831 e5bd c9e9 1a3b
000003a0: b098 92bd a921 a23d 1321 64be a4a9 83bd
000003b0: 49ba 26bd ffba 90bd ca7d 493d aca3 50bd
000003c0: 29b5 ccbd 07e5 2a3e 38bc c7bc 6211 793d
000003d0: 3456 32bd daf6 5f3c b00f 2abe fcf4 1c3e
000003e0: 43b8 0dbe 4461 babd 1072 c4bd a5b1 debd
000003f0: e41a 18be a254 97bd a984 99bd c5a7 b4bd
-0.029966043 0.10349441 -0.005537573 -0.05229901 -0.11473903 -0.13475314 -0.058810335 0.05691502
-0.04653771 -0.030884337 -0.107931286 -0.15631653 -0.13388094 -0.19276236 -0.023459177 0.24358362
-0.19867061 -0.018788325 0.13402264 -0.14959738 -0.0917862 0.06855055 0.23869751 0.04566915
-0.26740596 0.07045996 -0.124176905 -0.07931392 -0.14998506 -0.12263103 -0.07986584 -0.15608105
0.01536056 -0.060233317 0.22342215 -0.00153667 -0.14221299 -0.039107133 -0.112689264 0.19006461
0.036058918 -0.057875693 0.037978075 0.08469188 0.10843028 -0.02304129 0.017546715 0.10511361
-0.10098043 -0.090883926 -0.07200798 0.008065038 -0.09705563 -0.13185874 -0.3051311 -0.011119538
0.13407603 -0.112325236 -0.052487694 -0.13766062 -0.18888119 0.10550381 0.025942713 -0.016333465
-0.008862732 0.015996147 0.043230828 -0.16616085 0.13049999 -0.12779751 0.07272832 -0.058378108
-0.080669895 0.08628999 -0.16478658 -0.013111595 -0.019126935 -0.22043775 -0.14105524 -0.084421925
-0.0934636 -0.13600646 -0.24927007 -0.2008755 -0.059346963 0.0633907 0.051979564 -0.22739789
-0.06144011 0.047395118 -0.14228278 -0.16561982 -0.2089465 0.060740788 -0.08552032 -0.18076907
-0.11450154 -5.3262804e-05 -0.18701741 -0.09686786 -0.16750124 -0.090104215 -0.18472242 0.025245853
-0.056978025 -0.05363473 0.14325818 0.0430549 -0.1856324 -0.12182905 -0.11863688 -0.32403883
0.22451185 -0.16551715 -0.14166442 -0.18884712 0.14337184 0.050432228 -0.0051167263 -0.03749388
-0.033750888 0.15687402 0.01596657 -0.055023044 -0.049155604 -0.05460543 0.004163355 0.035125043
0.022468906 -0.071785405 -0.06275949 0.23653862 -0.07239004 0.17728655 -0.08591426 -0.13228229
-0.09236319 -0.18650725 0.08253832 0.19501755 0.050862446 -0.022868132 0.0472389 -0.2506542
-0.3665636 -0.14337519 0.05436264 -0.007489502 -0.1467106 -0.26606044 -0.13989289 -0.06076058
-0.23593584 -0.08847051 0.05045775 -0.086454935 -0.07644577 -0.08735639 -0.071035296 -0.04562818
-0.042887576 -0.029785192 -0.1715862 -0.0098398775 0.048518416 -0.14872871 -0.3073043 0.16809721
0.098825164 -0.12960817 0.070823364 0.22933055 0.14294271 -0.11720639 -0.16950317 -0.04430125
-0.10064652 0.013146743 -0.18044752 -0.06210771 0.15193501 0.00045698066 0.020967504 0.042046502
0.17486882 0.07675045 -0.05475065 0.023755802 0.1778598 0.10499615 -0.008645136 -0.12085775
-0.09520344 -0.009596178 0.028142093 -0.01046261 -0.10366106 0.05625067 0.18029611 -0.026626635
-0.19712597 0.15275653 0.1286844 -0.052027192 -0.09225167 -0.03636907 -0.22619753 0.10065061
0.047398914 -0.10399114 0.018135669 -0.026618842 0.055857863 -0.07611552 -0.11348096 0.1642474
-0.045240328 -0.14308989 0.020798907 -0.06728149 -0.13969153 -0.06923513 0.058508087 -0.04841626
-0.19472219 -0.04566616 -0.12063166 0.17315732 -0.1097203 -0.19754252 -0.11191028 0.0023637882
-0.07158029 0.079165764 -0.22278242 -0.06428841 -0.040705 -0.07066917 0.049192227 -0.05093734
-0.09995491 0.1668893 -0.024381742 0.060807593 -0.04353924 0.013669694 -0.16607547 0.15327829
-0.13839822 -0.09100583 -0.09592068 -0.10873727 -0.14854008 -0.07389189 -0.07496006 -0.08821062

linear.3.bias f4 [64]
00000000: a7ca 3cbe f0c1 04be 2a46 01be 64d7 e5bc
00000010: fca5 213d 6608 c63d e03b 24bd d2c1 7fbd
00000020: 7514 56bd 2684 eabd c37b 04be c092 45be
00000030: 506a 14bd 935f 21be 2521 afbd 417a 0bbe
00000040: c760 8bbd 7530 89bc d588 adbd eea4 0abd
00000050: 94ef d63d 09e3 1e3e 064e f1bd 9213 2dbe
00000060: aeaf 38bd 9a63 29be 689b 16be 2383 44be
00000070: cf72 60be 85f9 5bbd 6abb 77bd 1676 a3bd
00000080: bdc2 3fbe a2e5 fabd 270d 07be 4419 95bd
00000090: 106e c4bd 1e96 97bd bc50 993c 363d 96bd
000000a0: aa1a a73c 5ae5 d0bc 2501 74bd a6d3 2cbe
000000b0: 82c5 483b ab67 b1bc a606 21be f297 fcbd
000000c0: 835b 33bd 6a84 dcbd 9850 d4bc c5a3 e0bd
000000d0: d9f0 483c 27c8 eabd 7235 34be 8da2 29be
000000e0: 96bc 33bc 3f02 6d3d 845a 13be 8086 10be
000000f0: 96ac 3dbe 5583 06be e074 96bd 54b6 d4bd
-0.1843668 -0.12964606 -0.12624422 -0.028056808 0.039464936 0.096695706 -0.040096164 -0.0624407
-0.052265603 -0.114509866 -0.12937836 -0.19294262 -0.0362342 -0.15759115 -0.08551244 -0.13620855
-0.06805568 -0.016746739 -0.08473364 -0.033848695 0.10494915 0.15516295 -0.1178246 -0.16901997
-0.045089416 -0.16541901 -0.1470772 -0.1919065 -0.21918796 -0.053704757 -0.060481466 -0.079815075
-0.1872663 -0.1225083 -0.13188611 -0.0728021 -0.09591305 -0.074016795 0.018715255 -0.07335894
0.020398457 -0.025499988 -0.059571404 -0.16877612 0.0030635302 -0.021655878 -0.15725192 -0.12333669
-0.043788444 -0.107674435 -0.025917336 -0.109687366 0.012264454 -0.11463957 -0.17598513 -0.16565914
-0.010970255 0.05786347 -0.14389998 -0.14113808 -0.18522868 -0.13136037 -0.07346511 -0.10386339

reg.weight f4 [2, 128]
00000000: 5c98 86ba c399 13be 49bf 973d 0e58 8ebe
00000010: bd88 ad3d b6fe 11bb f5ee 0fbe 86b2 f83d
00000020: d456 f0bc 38ae bebb d06a bfbd d4a1 643b
00000030: 4f87 043d 4cdf aebb 9035 8fbb 6394 833d
00000040: 0c6e bdbb 2ef6 6fbb 2109 e3bd 3045 8cb9
00000050: 8d6f 16bc 52dd efbd 988c d4bc c8cc 133e
00000060: bd9d 1bbc 908a 103a e685 1bbc d89c 103a
00000070: a4c7 69bd 0765 0ebe 9cb4 4abe 445f 17bb
00000080: 0782 b5bd 932c bdbb 1db3 e5bb 0855 d9bb
00000090: 88c1 923c 71ed 373d b0e7 2ebe b53f 5fbb
000000a0: 5a10 2bbb f501 0ebc f628 dbbb bb62 2ebd
000000b0: 6d35 ffbd 74c8 c1bd e84d 8fbd 1bf9 303e
000000c0: 162b a8bd 87ee 133d 173e 38be ea2b a9bb
000000d0: 9fd5 c1bd ceb5 32bc 0377 953d c110 38bb
000000e0: 488a f2bb a8ec 07bc ecfa 333b 0008 a83d
000000f0: 1fe8 73bc a22c 5dbb 2381 353d f46f 3bbb
00000100: 3420 a53d d1c1 663d 69ae b73d 8b7a afbd
00000110: 3a19 cbbd 841a 00bd cd07 cfbb f268 063d
00000120: e4b8 f53d 4625 843d c301 0bbd 3a1d b8bb
00000130: 80e5 4dbb 76ab 8bbb ce54 20ba f47b 46bc
00000140: a0a0 903c 7568 2c3d a043 6fbc 624a 313d
00000150: 48b5 1a3d 80c8 37bc ba8d 0c3e 79f5 1bbe
00000160: b5cf 8b3d 59be 91bc 94ee 28bc 34c9 c9bd
00000170: 4082 26bc 7496 9abd e2ef 0bbc b2a0 3dbd
00000180: be3e 043e a6fe b33b 249c 90ba b817 393d
00000190: da1a f6bc 251b c8bd 95b6 23be 35bc 0dbd
000001a0: aee3 56be a655 11bc 5deb 683e 0120 00bc
000001b0: accc ab3d 1843 bcbb 4971 4d3b cd9c e33d
000001c0: d44c f03c 1415 ba3c 9dc2 413b 17d4 feba
000001d0: 902f 94bb b990 32bc 883e e33d dcde 193c
000001e0: a4bd c63a 4888 923c e372 6f3c 8e39 19bb
000001f0: 831e 2ebb 471c 4ebc 9c42 89ba a296 01bd
00000200: 1db0 93ba c7aa 803b da36 64bc 367b 603b
00000210: 78fd 12bc 3064 84b9 90fe 08bb 57ec 80bb
00000220: 65c8 0c3b 673d a3bb 3b13 9cbb 759d 12bb
00000230: fc37 65bc e94f 60bb 72f7 81bb 1c2c 363c
00000240: a62a 033a 4208 c4bb f195 92bb 623d e1bb
00000250: 1073 93bb 98c1 dcba b635 c13b e188 47bd
00000260: cab2 9cbb 827c 2b3b 78cb 533b 7053 433b
00000270: 2432 03bc 5aa8 87bd 3aaa eeba 4b74 65bc
00000280: f02e 04bb 5dbb 8cbb 62d0 f7bb 2257 95bb
00000290: 0da6 55bb a8fe feba 86b6 033c fb20 6bbb
000002a0: 0e9a bbbb ec05 04ba 6fc3 86bb 5e42 d53b
000002b0: 48d2 1abb c89f 99bc 369a 6dbb 4df3 d5bb
000002c0: ace5 9ebc 30e7 51bc 1473 8c3b 3a30 96bb
000002d0: 78c9 d73a 4f5d 993a 7438 5dbb 00c7 1ab8
000002e0: 14a7 a43a 7caa acbb 7af5 e53c c41b dd3b
000002f0: f67e beba 0211 683b 2620 b6bb 48a8 c8ba
00000300: 5d81 233c d32f a03b 4458 333e 8019 9839
00000310: e892 fbbc e2aa 38bb c852 bbbb 345e c7bd
00000320: 9df4 0a3c 7035 e3b9 ec96 88bb 4617 18bc
00000330: f07e dcba 3c89 66bc 68f0 af3c 988a 9d38
00000340: 18ad 943d e7a8 b4bb 8b17 b8bb 2c70 d3bd
00000350: 39f4 82ba 0bb5 ccbb ec9c 013e 4aeb 863a
00000360: 6049 beb8 33b0 f3bb bcf3 76bc ae21 9c39
00000370: db4e 2bbb b3f1 5c3d 6aa9 fc3b 9bac 0fbc
00000380: 9ffa c43c 1372 0bbc 8c83 fab9 518e bd3b
00000390: 8489 cdbb b663 2a3b 404e db3a 32cb c73c
000003a0: 6d47 7d3a 8c60 d03a a135 0a3c c806 a6b9
000003b0: a09c 83bb 1d41 d3bb 1943 f03b a097 61bc
000003c0: cf37 16be 3255 f6bd f32e 133b 5099 083b
000003d0: 801d 9bba 526e 0d3b 5279 ffba 7ea7 96bb
000003e0: 9bda b2bb a230 d23a 1ae4 acbb 60f8 e93a
000003f0: 3115 0e3c 0007 88b9 c4e0 e33c 2caa 163d
-0.0010268795 -0.14414124 0.074095316 -0.27801555 0.084733464 -0.0022277064 -0.14055999 0.12143426
-0.029338278 -0.0058191083 -0.09346545 0.0034886496 0.032355603 -0.0053366777 -0.004370399 0.06424787
-0.005780941 -0.003661524 -0.110857256 -0.0002675443 -0.009181869 -0.117121354 -0.025945947 0.14433587
-0.009498057 0.00055138115 -0.009492373 0.00055165356 -0.057075158 -0.13905726 -0.1979546 -0.0023097554
-0.088626914 -0.005773136 -0.0070098774 -0.006632451 0.017914549 0.044904176 -0.1708057 -0.0034065072
-0.0026102276 -0.008667459 -0.0066882325 -0.042574625 -0.12461362 -0.094620615 -0.06997281 0.17282526
-0.08211343 0.03611615 -0.17992435 -0.0051627057 -0.09464573 -0.010907603 0.0729809 -0.0028086158
-0.0074017383 -0.008296169 0.0027462794 0.08204651 -0.014886885 -0.0033748527 0.044312607 -0.0028600665
0.08062783 0.05633718 0.08968813 -0.08568295 -0.09916921 -0.031275287 -0.0063180686 0.032814927
0.11998156 0.06452422 -0.033937227 -0.0056187185 -0.003141731 -0.004262383 -0.00061161525 -0.012114514
0.017654717 0.042091805 -0.014603525 0.043283828 0.03777054 -0.0112172365 0.1372594 -0.15230359
0.06826726 -0.01779096 -0.010310788 -0.098528296 -0.01016289 -0.07548228 -0.008541079 -0.04629583
0.12914559 0.005493003 -0.0011032862 0.045188636 -0.0300421 -0.097708024 -0.15987618 -0.034603316
-0.2098529 -0.008870518 0.22746034 -0.00782013 0.083886474 -0.005745303 0.003134804 0.11113892
0.02933351 0.022715129 0.0029565461 -0.001944187 -0.0045222715 -0.010898762 0.11095911 0.009391513
0.0015162718 0.01788725 0.0146147935 -0.0023380253 -0.002656848 -0.012579984 -0.0010472122 -0.031637795
-0.0011267696 0.0039266082 -0.013929093 0.0034253127 -0.0089715645 -0.00025251647 -0.0020903684 -0.003934424
0.002148175 -0.004981685 -0.0047630346 -0.0022371684 -0.0139903985 -0.0034227318 -0.0039662654 0.011118915
0.00050036085 -0.0059824297 -0.004473441 -0.0068737725 -0.0044998005 -0.0016842363 0.0058962954 -0.048714522
-0.0047820555 0.0026166742 0.0032317322 0.0029804371 -0.00800756 -0.066239074 -0.001820869 -0.014004777
-0.0020169578 -0.0042947964 -0.007562683 -0.004557506 -0.0032600195 -0.0019454556 0.008039122 -0.0035877812
-0.005725152 -0.0005036283 -0.004112653 0.0065081557 -0.0023623873 -0.018752947 -0.0036255247 -0.006529248
-0.019396625 -0.012811467 0.0042861793 -0.004583386 0.0016463241 0.0011700782 -0.0033755573 -3.6901794e-05
0.0012562 -0.0052693468 0.028071154 0.0067476947 -0.0014533687 0.0035410528 -0.0055580316 -0.0015308941
0.009979573 0.0048885136 0.1751414 0.00029010698 -0.030709699 -0.0028178026 -0.0057166554 -0.09734765
0.008481172 -0.00043336628 -0.004168382 -0.009282893 -0.0016822498 -0.014070805 0.02147694 7.5121585e-05
0.072595775 -0.005513299 -0.005618041 -0.103241295 -0.0009990997 -0.006247168 0.12657517 0.001029351
-9.073573e-05 -0.007436776 -0.015072759 0.00029779732 -0.002613953 0.05394144 0.0077106254 -0.00876918
0.024045287 -0.008511084 -0.00047781726 0.0057847877 -0.0062724967 0.0025999374 0.0016731694 0.024388883
0.00096618274 0.0015897914 0.008435638 -0.0003166704 -0.004016474 -0.006446971 0.0073322174 -0.01376906
-0.14669727 -0.120279685 0.0022458404 0.0020843334 -0.0011834353 0.0021580649 -0.0019491112 -0.0045976033
-0.0054581887 0.0016036222 -0.0052762153 0.0017850511 0.008672045 -0.00025945157 0.027817138 0.036783382

reg.bias f4 [2]
00000000: b795 48bd 7f29 b73b
-0.048970904 0.0055896635
