server/models/value_model_minmax20.pt (torch, 255287 bytes, 12 tensors)

conv.0.weight f4 [4, 1, 3, 3]
-0.3517391 -0.13516432 0.16450979 -0.24544103 -0.096874736 0.11110044 0.17298438 -0.21054384
0.17669079 -0.11511346 -0.011036111 -0.21843201 0.0063321367 0.2662864 -0.40198603 0.3092303
-0.10770379 0.030134877 -0.23609081 0.26950634 -0.35247096 0.30605093 0.26822475 0.36465612
0.073691815 -0.24971406 -0.0067544268 -0.40125018 -0.18360268 0.14731704 -0.00030422397 -0.03295588
0.26429212 -0.009448358 -0.2941704 -0.032707624
00000000: 2617 b4be 8468 0abe 4175 283e e554 7bbe
00000010: 4366 c6bd a188 e33d d122 313e ce98 57be
00000020: 6eee 343e 9bc0 ebbd ced0 34bc a4ac 5fbe
00000030: d07d cf3b b156 883e 1dd1 cdbe 6f53 9e3e
00000040: ce93 dcbd 6bdd f63c cac1 71be bcfc 893e
00000050: 1377 b4be b5b2 9c3e c154 893e 35b4 ba3e
00000060: bceb 963d 0bb5 7fbe 3d54 ddbb aa70 cdbe
00000070: 5702 3cbe 47da 163e 4080 9fb9 bffc 06bd
00000080: 4c51 873e 49cd 1abc 819d 96be 6ef8 05bd

conv.0.bias f4 [4]
0.26916954 -0.21890515 -0.0851782 0.09744979
00000000: 97d0 893e ac28 60be e871 aebd c193 c73d

conv.2.weight f4 [4, 4, 3, 3]
-0.24939068 0.083380945 -0.021631043 -0.102932684 0.0020897312 -0.0016601528 -0.10975426 0.10998196
-0.12284585 -0.020683736 0.09980765 -0.041793853 -0.0039129187 -0.253505 0.08019104 -0.0010041883
-0.19735505 -0.108857825 0.22892076 -0.010548035 0.03129353 -0.003470771 -0.010751905 -0.09584342
0.0039976486 0.09653414 0.21724702 0.109973215 0.2123924 0.053247727 0.010461966 -0.2958565
-0.035048284 -0.033336513 0.12416607 -0.18127836 -0.24800922 0.04793779 -0.050539874 0.030804455
0.027818693 0.02951519 -0.021641849 0.09581356 0.010742453 -0.054486223 0.09940353 -0.08435272
0.11501281 -0.023433208 0.031959407 0.105422735 -0.059804145 0.052980077 0.06728344 0.036438275
0.10481607 0.19539306 -0.14446391 -0.15817928 -0.07391384 -0.19770803 0.18200317 -0.017595014
-0.19083892 -0.034945536 -0.12511592 0.22730476 -0.12478768 -0.18318106 0.26363268 0.046703313
0.057183973 -0.04452522 -0.0084799845 0.032166686 0.029930115 0.1336329 0.03841917 -0.17271201
0.20119639 0.07475357 0.002945427 -0.15459107 -0.047261946 -0.19573529 -0.16334 -0.12601034
0.07505685 -0.098065674 0.015709376 -0.22728689 -0.25417975 0.17994219 -0.09258676 -0.10287359
0.102534175 -0.16244094 -0.050186794 -0.16159712 -0.0015810558 -0.071982525 -0.23228507 0.121774964
0.08618199 0.10959609 -0.23533852 0.12871848 -0.05289347 0.012770905 -0.029136643 0.10119323
0.1493411 0.14700584 0.071279526 -0.00888884 0.098955154 -0.039142847 0.16665207 -0.05467169
0.053149763 -0.06890939 -0.00042226072 0.047515698 -0.046021026 0.13443883 0.22319247 0.0882799
-0.11218938 0.055018373 -0.14098768 0.088828206 0.20847492 -0.21419933 -0.21778877 0.16420625
-0.21115276 -0.0037708739 -0.11699533 0.14636764 0.053663176 -0.10227856 0.030568073 0.09486256
00000000: 4560 7fbe a1c3 aa3d 9633 b1bc 5fce d2bd
00000010: dff3 083b 7c99 d9ba d7c6 e0bd 393e e13d
00000020: 9b96 fbbd f070 a9bc f467 cc3d 0830 2bbd
00000030: f137 80bb 68cb 81be 333b a43d f89e 83ba
00000040: 7117 4abe daf0 debd 346a 6a3e aad1 2cbc
00000050: a52d 003d e075 63bb c228 30bc 8e49 c4bd
00000060: b5fe 823b b1b3 c53d 0176 5e3e a339 e13d
00000070: 657d 593e 4a1a 5a3d aa68 2b3c 817a 97be
00000080: ca8e 0fbd de8b 08bd c84a fe3d 09a1 39be
00000090: 21f6 7dbe 6b5a 443d e602 4fbd a059 fc3c
000000a0: 07e4 e33c d7c9 f13c 3f4a b1bc e639 c43d
000000b0: 1d01 303c f22c 5fbd 1494 cb3d 1ec1 acbd
000000c0: d68b eb3d 00f7 bfbc dee7 023d e0e7 d73d
000000d0: 31f5 74bd a301 593d e6cb 893d 4d40 153d
000000e0: cfa9 d63d 1e15 483e 59ee 13be c0f9 21be
000000f0: 2460 97bd f973 4abe 0a5f 3a3e 6b23 90bc
00000100: 476b 43be 0d23 0fbd 631e 00be 94c2 683e
00000110: af90 ffbd d193 3bbe ddfa 863e f94b 3f3d
00000120: be39 6a3d 1460 36bd a2ef 0abc 37c1 033d
00000130: 0030 f53c 10d7 083e 6b5d 1d3d 6bdb 30be
00000140: 6d06 4e3e 6618 993d 1108 413b 1f4d 1ebe
00000150: be95 41bd d56e 48be 9a42 27be db08 01be
00000160: 68b7 993d a8d6 c8bd f3b0 803c e5bd 68be
00000170: d923 82be c442 383e 219e bdbd 64af d2bd
00000180: 70fd d13d eb56 26be ab90 4dbd b779 25be
00000190: 6e3b cfba 936b 93bd 23dc 6dbe 2765 f93d
000001a0: 2f80 b03d ea73 e03d 95fc 70be c7ce 033e
000001b0: d3a6 58bd 0f3d 513c f8af eebc 653e cf3d
000001c0: e0ec 183e b388 163e 00fb 913d 7fa2 11bc
000001d0: 00a9 ca3d 4054 20bd d7a6 2a3e 6cef 5fbd
000001e0: 91b3 593d 5e20 8dbd e062 ddb9 d29f 423d
000001f0: 8b80 3cbd 55aa 093e 918c 643e 18cc b43d
00000200: 8cc3 e5bd f25a 613d 135f 10be 90eb b53d
00000210: 737a 553e 1257 5bbe 0504 5fbe af25 283e
00000220: 6e38 58be c420 77bb 3f9b efbd 66e1 153e
00000230: ebcd 5b3d 6c77 d1bd e569 fa3c 4d47 c23d

conv.2.bias f4 [4]
-0.026134685 -0.058942385 -0.050505415 -0.05968914
00000000: 6818 d6bc 926d 71bd c4de 4ebd 9a7c 74bd

conv.5.weight f4 [64, 36]
-0.27784622 -0.062661886 -0.083929 -0.119230814 -0.075687565 0.07457119 -0.08748374 -0.079416275
-0.13051808 -0.07893731 -0.087749295 -0.25297645 0.124968655 0.08426942 0.07441202 0.105061874
-0.21753493 -0.12900709 -0.01811679 0.025012411 0.13792008 -0.10255141 0.046589106 0.06805596
-0.016639313 0.040311746 0.091379836 -0.2685698 0.011888087 -0.009157092 0.03306049 -0.01438235
-0.06329771 0.004339546 -0.10966448 0.015611306 0.08745195 -0.0029312286 0.25054064 0.022649819
0.019511338 -0.06913466 0.07568322 0.10956802 -0.1514595 0.09516364 -0.21838406 -0.02374088
-0.014076718 0.062326793 0.15930599 -0.0078876 0.27117088 -0.2647369 -0.059919313 0.18477878
-0.24160911 0.09225003 -0.018709432 0.20578027 -0.038155437 -0.043659378 0.06989978 -0.09041005
0.047527306 -0.15727818 0.091363996 -0.09328682 -0.2296627 0.07616403 0.07560993 -0.28136653
0.109873295 0.020015076 -0.17414136 0.014893212 0.14701565 0.130475 0.022643954 -0.007429092
-0.022951016 0.12617657 -0.13426964 0.19631201 0.1517524 0.2696382 -0.24046214 0.0108093135
0.21724924 -0.03391308 0.08822785 -0.23577012 0.1463671 0.21776865 0.017562946 -0.24657892
0.15941833 0.23069188 0.16940957 0.061708212 -0.15941171 -0.22994593 -0.08489371 -0.0756993
-0.05472636 0.18873173 0.032967623 -0.14491944 0.055367846 0.018500108 -0.12368152 -0.23506773
-0.0626787 0.2370883 0.0153064 -0.12440993 0.05459466 -0.03592072 -0.076210566 -0.14655891
0.008140467 -0.23886588 -0.08614991 0.08428066 -0.1708306 0.091223486 -0.058444448 -0.16563766
0.19767632 -0.22346826 -0.31874248 -0.14980642 -0.18016745 -0.29130593 0.24355987 -0.12082403
0.011483239 -0.21268788 0.23944736 -0.1445978 0.1051372 -0.227647 -0.045223463 0.10005488
0.1977904 0.07891578 -0.22603025 -0.07481239 -0.010375932 0.04026581 -0.15249126 -0.106652714
-0.061601367 0.14847337 0.052763183 0.15309322 -0.08579467 -0.04713874 -0.26116815 0.12238528
-0.08773476 -0.027884273 0.20617892 -0.11212089 0.14029124 0.15081675 0.0868332 -0.15392947
-0.15073258 0.16551036 0.10058418 -0.11079886 -0.15513897 -0.18198317 0.03938107 0.08182023
-0.116172366 0.2310965 -0.048522253 0.041546013 0.13917243 0.077942565 -0.06337538 -0.052151665
0.068367936 -0.14026019 -0.011519419 0.13789617 -0.103373505 0.0036721218 -0.18194978 -0.1139134
-0.11038033 -0.10956352 -0.19076706 0.14333981 -0.055914458 -0.075986296 -0.07317932 -0.12292237
0.010318173 -0.17479603 0.011152465 0.08280343 0.14022046 0.06215648 -0.00046227628 -0.121927954
0.04906907 0.03193152 -0.08123427 0.023065435 -0.09622562 -0.00039121398 0.043852746 0.07197373
-0.10284618 -0.036589164 0.24261639 -0.10718698 0.11947203 0.035364274 -0.060826816 -0.09324645
-0.102826305 -0.086328626 0.027081672 0.08378923 0.11181418 0.17258236 0.2595235 0.11832283
0.19475888 -0.10390023 7.003639e-05 0.1911618 -0.16836716 0.09064542 0.2257839 0.16000016
-0.041884363 0.091846816 0.0383461 0.07046371 0.041336678 -0.017206218 0.11486805 0.12455608
0.095855586 -0.050775986 -0.010401044 -0.06846596 0.24903005 0.013362482 -0.06228583 -0.054477844
00000000: dc41 8ebe e054 80bd f8e2 abbd 492f f4bd
00000010: 1502 9bbd c8b8 983d ad2a b3bd 00a5 a2bd
00000020: 88a6 05be e2a9 a1bd e7b5 b3bd 2186 81be
00000030: 91ef ff3d 7295 ac3d 5465 983d ae2a d73d
00000040: 7ac1 5ebe 6f1a 04be aa69 94bc d4e6 cc3c
00000050: ec3a 0d3e 7906 d2bd 38d4 3e3d ec60 8b3d
00000060: 2b4f 88bc ee1d 253d 5a25 bb3d fb81 89be
00000070: 40c6 423c a107 16bc 706a 073d f3a3 6bbc
00000080: 3ba2 81bd c032 8e3b c597 e0bd 90c6 7f3c
00000090: 021a b33d db19 40bb dd46 803e 1d8c b93c
000000a0: 3ed6 9f3c 7996 8dbd ceff 9a3d 3365 e03d
000000b0: 3318 1bbe 28e5 c23d 12a0 5fbe 3c7c c2bc
000000c0: 09a2 66bc 614a 7f3d 1c21 233e fe3a 01bc
000000d0: e9d6 8a3e 988b 87be f46d 75bd a636 3d3e
000000e0: 6168 77be 95ed bc3d 8644 99bc 10b8 523e
000000f0: e048 1cbd 2dd4 32bd 9e27 8f3d e728 b9bd
00000100: feab 423d 880d 21be 0c1d bb3d 290d bfbd
00000110: b32c 6bbe e3fb 9b3d 61d9 9a3d 460f 90be
00000120: 4005 e13d a8f6 a33c 1d52 32be a902 743c
00000130: 458b 163e 3d9b 053e d07f b93c be6f f3bb
00000140: c503 bcbc 6e34 013e fb7d 09be 0406 493e
00000150: fb64 1b3e 050e 8a3e b53b 76be 8c19 313c
00000160: 9676 5e3e 71e8 0abd ceb0 b43d b96d 71be
00000170: 42e1 153e bffe 5e3e 2be0 8f3c 2f7f 7cbe
00000180: 8f3e 233e 7e3a 6c3e b479 2d3e c0c1 7c3d
00000190: d33c 23be f276 6bbe c1dc adbd 3c08 9bbd
000001a0: bf28 60bd e442 413e 0f09 073d c365 14be
000001b0: 65c9 623d 8a8d 973c bd4c fdbd 98b5 70be
000001c0: b15d 80bd 46c7 723e b2c7 7a3c a2ca febd
000001d0: a69e 5f3d 9b21 13bd 4914 9cbd 8a13 16be
000001e0: 985f 053c 4299 74be 5d6f b0bd 579b ac3d
000001f0: 38ee 2ebe 61d3 ba3d 7263 6fbd eb9c 29be
00000200: a96b 4a3e ddd4 64be 3732 a3be db66 19be
00000210: d17d 38be 0d26 95be c267 793e 9772 f7bd
00000220: 3224 3c3c daca 59be b031 753e 7211 14be
00000230: 2c52 d73d 4c1c 69be 3d3c 39bd 93e9 cc3d
00000240: 9189 4a3e 999e a13d 7974 67be 3d37 99bd
00000250: d0ff 29bc c3ed 243d ab26 1cbe bd6c dabd
00000260: b751 7cbd 6709 183e 351e 583d 78c4 1c3e
00000270: 1eb5 afbd 8d14 41bd d5b7 85be 22a5 fa3d
00000280: 48ae b3bd 8f6d e4bc 9120 533e a39f e5bd
00000290: 82a8 0f3e b56f 1a3e 9bd5 b13d b09f 1dbe
000002a0: a459 1abe 8c7b 293e 14ff cd3d 83ea e2bd
000002b0: c0dc 1ebe cc59 3abe 0b4e 213d 5d91 a73d
000002c0: c7eb edbd 90a4 6c3e 45bf 46bd 272c 2a3d
000002d0: 3883 0e3e 5aa0 9f3d f4ca 81bd fc9c 55bd
000002e0: 7d04 8c3d 5ea0 0fbe f2bb 3cbc a734 0d3e
000002f0: 7db5 d3bd fba7 703b 0b51 3abe 6e4b e9bd
00000300: 150f e2bd d762 e0bd 7158 43be acc7 123e
00000310: 8f06 65bd b49e 9bbd 0adf 95bd b9be fbbd
00000320: 8e0d 293c bbfd 32be d4b8 363c d894 a93d
00000330: f495 0f3e cb97 7e3d ac5d f2b9 5db5 f9bd
00000340: a6fc 483d a0ca 023d 275e a6bd b9f3 bc3c
00000350: f011 c5bd da1b cdb9 f09e 333d f766 933d
00000360: 05a1 d2bd 85de 15bd 6e70 783e d984 dbbd
00000370: c0ad f43d 21da 103d 8a25 79bd fff7 bebd
00000380: 9996 d2bd 10cd b0bd 62da dd3c b099 ab3d
00000390: d5fe e43d 6eb9 303e 44e0 843e 3d53 f23d
000003a0: df6e 473e a5c9 d4bd 80e0 9238 ebbf 433e
000003b0: 7168 2cbe 4ea4 b93d e533 673e 15d7 233e
000003c0: f08e 2bbd 2f1a bc3d cd10 1d3d 474f 903d
000003d0: a650 293d 0ef4 8cbc f13f eb3d 4217 ff3d
000003e0: ef4f c43d 7bfa 4fbd 2469 2abc e237 8cbd
000003f0: bc01 7f3e 50ee 5a3c 6d1f 7fbd 2924 5fbd

conv.5.bias f4 [64]
-0.20121235 0.04818925 -0.049425118 -0.09300757 0.2403817 0.026604606 0.032849036 -0.04065323
-0.13752994 -0.044442184 -0.09500993 0.0300752 0.18157683 0.18391964 0.10672801 0.064919375
0.03550474 -0.15291809 -0.0336317 0.18437286 0.0043881517 0.11541746 -0.007913415 0.008599378
0.04403283 -0.1540505 0.052113995 -0.14245589 0.12923148 -0.038680263 0.079488255 0.14257856
-0.089341305 0.106990725 0.12978256 -0.008725127 -0.045116965 0.16178985 0.057787485 -0.11662437
0.033576313 0.22002047 0.1816214 -0.029803153 0.16899846 -0.07349255 -0.029081121 0.17633647
-0.027154414 -0.059799608 -0.0811331 0.03346274 0.17394066 0.11116512 0.13547772 -0.0842775
0.19402933 -0.071161285 -0.22514765 0.044178512 -0.09234695 -0.061008334 -0.041806687 -0.14694986
00000000: 9c0a 4ebe 1762 453d fe71 4abd c17a bebd
00000010: 9f26 763e e7f1 d93c b68c 063d 0084 26bd
00000020: a6d4 0cbe 0209 36bd 9194 c2bd 4460 f63c
00000030: 47ef 393e 6e55 3c3e 3794 da3d 73f4 843d
00000040: 6b6d 113d 8f96 1cbe 65c1 09bd 3dcc 3c3e
00000050: 7cca 8f3b fd5f ec3d 45a7 01bc 68e4 0c3c
00000060: c55b 343d 6abf 1dbe 7c75 553d f5df 11be
00000070: 4255 043e 326f 1ebd bdca a23d 1d00 123e
00000080: 93f8 b6bd f41d db3d b8e5 043e d6f3 0ebc
00000090: 91cc 38bd 3dac 253e 92b2 6c3d c2d8 eebd
000000a0: 5187 093d 0c4d 613e f6fa 393e be25 f4bc
000000b0: ef0d 2d3e 4383 96bd 883b eebc 8c91 343e
000000c0: ef72 debc 6ff0 74bd 1c29 a6bd 3a10 093d
000000d0: 801d 323e 8aaa e33d acba 0a3e af99 acbd
000000e0: a0af 463e 02bd 91bd 1b8d 66be 87f4 343d
000000f0: 6620 bdbd e0e3 79bd 7d3d 2bbd 067a 16be

linear.1.weight f4 [256, 169]
0.0058983564 0.03927634 0.05919365 0.054136388 -0.025531128 -0.022116046 0.031506017 0.038530543
0.0523298 0.049607404 0.015166454 -0.011316881 0.032183588 0.04855319 -0.002104357 -0.014606945
0.0063044503 -0.044173554 -0.075353146 -0.020839334 0.07390759 -0.03572101 -0.038651936 0.0125961155
-0.063693196 -0.065787256 -0.01698824 0.038327307 0.025421262 -0.0027178675 0.029781707 -0.00065297633
-0.044473805 -0.1055675 0.076891445 0.1335419 0.019612975 0.020964175 -0.042589024 0.062179737
0.04365121 -0.0557345 -0.05980307 -0.015668334 -0.00700948 0.08707236 0.07557284 0.066855624
0.056275073 -0.10630043 -0.09544955 -0.02009379 0.040363543 0.050073214 -0.00809928 -0.14155091
0.0034229893 0.11746708 -0.034100834 0.19405663 0.109114826 -0.09934111 -0.2325461 0.092538975
-0.0517214 -0.02578098 -0.04729327 -0.03856768 -0.12187276 0.03882515 0.11728368 0.10116813
0.021225996 -0.07609266 0.14487493 0.028054638 -0.052764453 0.031680584 0.028979488 -0.035843253
0.028441548 -0.062020995 0.036904514 0.074779235 -0.0065369015 -0.03615228 -0.06051471 0.0120696705
0.039388917 0.050748043 -0.033357933 -0.035545845 -0.07502456 -0.0037128513 -0.010801592 -0.04547203
-0.058275238 0.05672087 0.05309803 0.08487554 0.05591581 0.054057173 -0.059245348 -0.017436177
-0.011687763 0.077204704 0.0558247 -0.09083837 -0.21906097 -0.077245064 -0.08989272 -0.077380314
-0.036842145 0.019261606 0.026477426 0.046686873 -0.027133055 -4.9227143e-05 -0.09350484 0.0038525814
-0.066833414 -0.05962502 -0.07173374 0.022640444 0.020222818 -0.028165728 0.046307556 0.057452045
-0.03178647 0.06811691 0.050002508 -0.02715848 0.06355839 0.09724844 0.09743332 0.0069274767
-0.037147798 0.05011124 0.010573648 -0.011265397 -0.031354647 0.060661323 0.069087915 -0.042322554
0.038329273 0.04598538 -0.015783273 -0.020886 0.028071843 0.0042439997 0.010441452 -0.009715192
0.029839195 0.060886286 0.049214564 0.03212122 -0.060935453 0.017652497 -0.04599788 0.010452636
0.031554922 -0.0071871653 -0.071292154 0.05728098 -0.049168203 0.021991685 0.049634017 0.018248983
0.03853458 0.058048002 -0.06958019 -0.06756942 0.011232428 0.028531149 -0.069348074 0.0133373365
-0.036762696 -0.067893185 -0.049987867 0.045926005 -0.002309762 -0.051789306 -0.02223102 -0.009927824
-0.0195866 0.039755575 -0.017362688 -0.05354937 -0.046342753 0.06266924 0.06794072 -0.060224075
-0.033220623 0.018912159 -0.061385058 -0.059954736 0.05741165 0.00097159296 -0.02349826 0.026738763
-0.038946252 -0.007274933 -0.103239514 0.05731043 0.020510023 0.017962538 0.026630998 0.0031629503
0.0043074638 0.034999967 -0.017160848 -0.02816546 0.107269816 0.08356534 0.018962117 -0.08370467
0.020860596 0.06284597 -0.089058645 -0.024566757 -0.030368507 -0.04443521 -0.027306192 -0.060780335
-0.13024494 -0.10414602 -0.008366599 -0.032220673 0.014437917 -0.10781827 0.048994493 -0.023351459
0.05774412 -0.041544072 0.053795658 -0.029634733 -0.048421595 0.10567726 0.01904103 -0.17381062
-0.02019382 0.052627977 -0.11634074 -0.06307035 0.05283534 -0.04093669 0.06748887 -0.021678265
0.03954243 0.04877039 0.12251232 -0.12843522 0.050776098 0.10580868 0.0665137 0.13657618
00000000: 0047 c13b 3ae0 203d 0a75 723d 1ebe 5d3d
00000010: a826 d1bc b62c b5bc 740c 013d 34d2 1d3d
00000020: c657 563d 2231 4b3d b87c 783c 706a 39bc
00000030: f0d2 033d b6df 463d 40e9 09bb f851 6fbc
00000040: 9095 ce3b 54ef 34bd c052 9abd 40b7 aabc
00000050: dd5c 973d 3250 12bd 7e51 1ebd f05f 4e3c
00000060: 9471 82bd 78bb 86bd ec2a 8bbc 18fd 1c3d
00000070: 4040 d03c 401e 32bb c4f8 f33c 802c 2bba
00000080: 2a2a 36bd c633 d8bd 4379 9d3d 35bf 083e
00000090: 64ab a03c 10bd ab3c d471 2ebd 2eb0 7e3d
000000a0: 9ccb 323d dc49 64bd 10f4 74bd e15a 80bc
000000b0: c8af e5bb fe52 b23d efc5 9a3d 9aeb 883d
000000c0: b180 663d 0ab4 d9bd 0e7b c3bd bb9b a4bc
000000d0: 3e54 253d 9219 4d3d d8b2 04bc b9f2 10be
000000e0: 3b54 603b 9592 f03d 51ad 0bbd c8b6 463e
000000f0: 9877 df3d 5a73 cbbd 9120 6ebe 1385 bd3d
00000100: d2d9 53bd a232 d3bc 96b6 41bd 25f9 1dbd
00000110: 6d98 f9bd 1f07 1f3d 6d32 f03d 3d31 cf3d
00000120: 24e2 ad3c 78d6 9bbd 185a 143e d7d2 e53c
00000130: 8a1f 58bd 80c3 013d 6466 ed3c 60d0 12bd
00000140: 40fe e83c ba09 7ebd 3029 173d db25 993d
00000150: 8133 d6bb 6a14 14bd 46de 77bd debf 453c
00000160: 4656 213d 2edd 4f3d 54a2 08bd 8598 11bd
00000170: 7aa6 99bd 4f53 73bb 29f9 30bc e140 3abd
00000180: 04b2 6ebd 2554 683d 527d 593d 3ad3 ad3d
00000190: fa07 653d 0e6b 5d3d 40ab 72bd 50d6 8ebc
000001a0: 087e 3fbc 801d 9e3d 71a8 643d 7809 babd
000001b0: 8551 60be a932 9ebd ad19 b8bd 9279 9ebd
000001c0: cae7 16bd 84ca 9d3c 30e7 d83c bc3a 3f3d
000001d0: 2446 debc 3e79 4eb8 777f bfbd 977b 7c3b
000001e0: f5df 88bd 5d39 74bd 24e9 92bd 7478 b93c
000001f0: 53aa a53c d0bb e6bc feac 3d3d d652 6b3d
00000200: 8832 02bd e180 8b3d 6ecf 4c3d 767b debc
00000210: e72a 823d 312a c73d 1f8b c73d e3ff e23b
00000220: 4a28 18bd 7241 4d3d 183d 2d3c 8092 38bc
00000230: bb6d 00bd 0278 783d f77d 8d3d 6a5a 2dbd
00000240: 28ff 1c3d 2a5b 3c3d ec4b 81bc 1e19 abbc
00000250: ecf6 e53c 4011 8b3b a012 2b3c 782c 1fbc
00000260: 5471 f43c e663 793d 3695 493d 8a91 033d
00000270: 7497 79bd f89b 903c 4668 3cbd 8841 2b3c
00000280: bc3f 013d 5082 ebbb 9f01 92bd 769f 6a3d
00000290: 9964 49bd e827 b43c 0a4d 4b3d e47e 953c
000002a0: 70d6 1d3d bec3 6d3d 0f80 8ebd d661 8abd
000002b0: 3808 383c 28ba e93c 5d06 8ebd d884 5a3c
000002c0: 7b94 16bd 950b 8bbd 14c0 4cbd e81c 3c3d
000002d0: 605f 17bb 0621 54bd d41d b6bc 50a8 22bc
000002e0: 1474 a0bc bed6 223d 323c 8ebc 9656 5bbd
000002f0: e6d1 3dbd bb58 803d 8124 8b3d 85ad 76bd
00000300: 5912 08bd aced 9a3c e66e 7bbd 1993 75bd
00000310: 7a28 6b3d 80b2 7e3a 6c7f c0bc 400b db3c
00000320: 1b86 1fbd 9062 eebb 3d6f d3bd 57be 6a3d
00000330: a304 a83c 2c26 933c 4029 da3c 8049 4f3b
00000340: a025 8d3b 205c 0f3d e894 8cbc 40bb e6bc
00000350: 47b0 db3d 4e24 ab3d 7156 9b3c 5b6d abbd
00000360: d7e3 aa3c 63b5 803d 6164 b6bd 3940 c9bc
00000370: 60c7 f8bc b201 36bd 3cb1 dfbc cdf4 78bd
00000380: ee5e 05be 824a d5bd 0f14 09bc d3f9 03bd
00000390: 038d 6c3c d3cf dcbd 73ae 483d 8f4b bfbc
000003a0: 1985 6c3d 1e2a 2abd d658 5c3d 8ac4 f2bc
000003b0: b955 46bd 526d d83d effb 9b3c 69fb 31be
000003c0: 836d a5bc 6f90 573d 0e44 eebd 072b 81bd
000003d0: df69 583d 3bad 27bd 9b37 8a3d 9e96 b1bc
000003e0: 3ef7 213d 76c3 473d bde7 fa3d 8684 03be
000003f0: 99fa 4f3d 39b2 d83d 5638 883d a0da 0b3e

linear.1.bias f4 [256]
-0.068964556 -0.009830209 0.06089949 0.015618694 0.008377019 -0.028800733 0.05061454 -0.045472473
-0.030031027 -0.008437453 0.0053894264 0.005843118 0.045032896 -0.04894025 0.02466638 -0.059955426
-0.039073598 -0.04972238 -0.094466865 0.026329009 0.02610498 -0.034499716 -0.11329159 0.022894518
-0.015134274 -0.008432562 0.03325415 0.10393714 -0.056521222 -0.047071137 -0.08119894 -0.05896666
-0.068350405 0.09669295 -0.07170789 0.01293649 0.045341577 -0.104352295 -0.061430767 -0.056865044
0.07611449 0.09020716 -0.047381118 0.056560066 -0.099909574 -0.042865362 0.04279529 -0.027814362
0.030144732 0.07864916 -0.09867368 0.014611151 0.012136475 0.008599611 -0.044050578 -0.020023271
0.06870662 -0.0056037493 -0.11618079 0.032906782 0.034507796 -0.09901283 0.00052536523 0.09088307
-0.0056830808 0.032801945 -0.13084796 0.018360337 -0.0330081 -0.018323554 0.011657735 -0.035334885
-0.073953345 -0.07248736 -0.019939445 -0.060804635 0.009147062 0.070883974 -0.052021135 0.11835855
-0.016766697 0.029381324 0.04078807 0.029055908 -0.091252156 0.055792492 0.018380003 0.050037384
-0.078243144 -0.08654153 -0.03185099 0.014982786 0.07723297 -0.001023809 -0.030360399 0.032819778
0.07184391 -0.0037134117 0.02473477 0.040958047 -0.05861109 0.018277055 -0.04514663 0.08280496
0.036808137 0.06476653 -0.013627534 -0.007158981 0.08924354 -0.029667493 -0.076897494 0.033730287
-0.046332106 -0.08540117 -0.0291882 0.053934425 0.020006306 0.041023593 0.078258425 -0.0692061
0.057151046 -0.06607506 -0.04588385 -0.070099354 0.024295555 0.08261964 0.015256362 0.03664506
-0.03286163 0.04571523 -0.12749408 -0.016920846 -0.05483888 -0.119196974 -0.0041865576 0.013448558
-0.03687912 -0.0041920156 0.011036933 -0.06576562 -0.014385261 0.04973402 -0.057000622 -0.105620794
-0.006455484 0.010449258 -0.028163666 0.085201964 -0.022781337 -0.09956255 0.010866324 -0.10568764
-0.028816449 -0.0573286 0.059104066 -0.05461014 -0.08829813 -0.016213126 0.011038274 -0.077540345
-0.0117143 -0.02621627 -0.0363416 -0.12267793 0.05566609 -0.065986745 0.039754253 -0.016370522
-0.090982586 -0.12344464 0.056675423 -0.086638324 0.04886553 -0.020499317 0.01427821 -0.05417969
0.023116846 0.05772478 -0.08867997 0.0053406535 0.013658576 -0.07022283 0.020538215 -0.038653947
-0.10934654 -0.053012613 0.045229603 0.0054006195 -0.0688409 -0.05327701 -0.08123035 -0.06767394
-0.019580565 -0.034291446 -0.03912684 0.02600604 0.025855279 -0.107606985 -0.040706806 -0.053080734
-0.066291325 -0.111342534 -0.071159124 0.0254376 0.015026469 0.014872716 0.0006814478 0.020502245
-0.0503253 0.033163067 -0.044247437 -0.014307712 -0.101760186 0.051020622 -0.12952791 0.016788503
0.030047677 -0.014895187 0.022118319 -0.0004540172 -0.0073575964 -0.014617253 -0.11592955 -0.105074175
-0.02519224 -0.049456976 0.059813846 0.009080077 0.019176282 -0.032600604 0.029553557 -0.021445146
-0.10270615 0.034851443 -0.027025852 -0.0035116936 0.029927056 -0.005954898 0.050952412 -0.08712795
-0.051415604 0.017004367 -0.008158561 0.01765339 -0.018351417 0.00070801005 0.036815427 -0.0053958516
-0.049926084 -0.024759164 -0.020142315 -0.04637445 0.045888577 0.016697796 -0.06040675 -0.043931615
00000000: 4a3d 8dbd e30e 21bc be71 793d 8de5 7f3c
00000010: c43f 093c 84ef ebbc 3151 4f3d 5841 3abd
00000020: a103 f6bc 3e3d 0abc c999 b03b a077 bf3b
00000030: 6a74 383d 9275 48bd 2611 ca3c d293 75bd
00000040: a30b 20bd b2a9 4bbd d877 c1bd efaf d73c
00000050: 1cda d53c 934f 0dbd 6c05 e8bd 498d bb3c
00000060: bff5 77bc bb28 0abc 8135 083d ffdc d43d
00000070: cc82 67bd aacd 40bd a14b a6bd 0687 71bd
00000080: 4cfb 8bbd f406 c63d 96db 92bd 92f3 533c
00000090: 17b8 393d a8b6 d5bd d49e 7bbd 52eb 68bd
000000a0: eae1 9b3d 88be b83d b412 42bd 87ab 673d
000000b0: 649d ccbd 9793 2fbd 1d4a 2f3d f2da e3bc
000000c0: 16f2 f63c d012 a13d 6d15 cabd 9c63 6f3c
000000d0: 11d8 463c 62e5 0c3c 616e 34bd d807 a4bc
000000e0: 0eb6 8c3d a89f b7bb 32f0 edbd 43c9 063d
000000f0: 0c58 0d3d 3dc7 cabd aab8 093a e720 ba3d
00000100: 2339 babb 555b 063d 02fd 05be 6b68 963c
00000110: 8033 07bd 471b 96bc 1600 3f3c 50bb 10bd
00000120: da74 97bd 4174 94bd 0c58 a3bc 480e 79bd
00000130: 8fdd 153c 9e2b 913d 1d14 55bd f865 f23d
00000140: 505a 89bc 1ab1 f03c 6411 273d a806 ee3c
00000150: 69e2 babd ab86 643d a991 963c 00f4 4c3d
00000160: f13d a0bd b03c b1bd 2f76 02bd 5c7a 753c
00000170: 522c 9e3d 5431 86ba 5fb6 f8bc 086e 063d
00000180: e622 933d b65c 73bb 93a0 ca3c a0c3 273d
00000190: 2f12 70bd c3b9 953c aceb 38bd a695 a93d
000001a0: 21c4 163d 51a4 843d 0546 5fbc e395 eabb
000001b0: 51c5 b63d 3e09 f3bc 6f7c 9dbd c528 0a3d
000001c0: bcc6 3dbd cfe6 aebd 181c efbc 58ea 5c3d
000001d0: 44e4 a33c 5b08 283d f445 a03d eebb 8dbd
000001e0: 3717 6a3d 5c52 87bd b4f0 3bbd 4090 8fbd
000001f0: 7907 c73c 7c34 a93d d2f5 793c 2119 163d
00000200: eb99 06bd e53f 3b3d cf8d 02be 969d 8abc
00000210: bc9e 60bd 8b1d f4bd 642f 89bb 5757 5c3c
00000220: 8f0e 17bd 2d5d 89bb 41d4 343c 20b0 86bd
00000230: 28b0 6bbc e6b5 4b3d 7c79 69bd b74f d8bd
00000240: 8688 d3bb 5d33 2b3c 7db7 e6bc 5e7e ae3d
00000250: ed9f babc 73e7 cbbd ab08 323c c372 d8bd
00000260: 7910 ecbc 65d1 6abd 1b17 723d e2ae 5fbd
00000270: a6d5 b4bd 64d1 84bc e0d9 343c 79cd 9ebd
00000280: 56ed 3fbc 81c3 d6bc eeda 14bd 913e fbbd
00000290: 2002 643d 0f24 87bd 5bd5 223d 791b 86bc
000002a0: 1455 babd 8bd0 fcbd 7d24 683d 6f6f b1bd
000002b0: 3927 483d 2fee a7bc 27ef 693c 86eb 5dbd
000002c0: 8a5f bd3c d270 6c3d d89d b5bd a600 af3b
000002d0: 38c8 5f3c fdd0 8fbd c23f a83c 9a53 1ebd
000002e0: 14f1 dfbd c123 59bd ad42 393d aef7 b03b
000002f0: 75fc 8cbd fe38 5abd 195c a6bd a298 8abd
00000300: 6c67 a0bc 3075 0cbd 7743 20bd 9e0a d53c
00000310: 73ce d33c 0d61 dcbd 2ebc 26bd 2f6b 59bd
00000320: bfc3 87bd 8e07 e4bd e0bb 91bd 8462 d03c
00000330: 9431 763c b1ac 733c 30a3 323a 53f4 a73c
00000340: e721 4ebd ffd5 073d cd3c 35bd e56a 6abc
00000350: a567 d0bd 00fb 503d f7a2 04be 0b88 893c
00000360: 8c26 f63c f10a 74bc 7a31 b53c 2809 eeb9
00000370: fe17 f1bb 347d 6fbc 796c edbd 2131 d7bd
00000380: f55f cebc 6693 4abd 5dff 743d 9ac4 143c
00000390: 9417 9d3c 3688 05bd 4d1a f23c bbad afbc
000003a0: 9a57 d2bd 63c0 0e3d 5265 ddbc 7124 66bb
000003b0: 9629 f53c 4e21 c3bb 7ab3 503d 2370 b2bd
000003c0: 2b99 52bd be4c 8b3c 7cab 05bc d89d 903c
000003d0: b655 96bc c099 393a c6cb 163d afcf b0bb
000003e0: 4b7f 4cbd bbd3 cabc 7f01 a5bc 23f3 3dbd
000003f0: a9f5 3b3d d1c9 883c 116d 77bd a3f1 33bd

linear.3.weight f4 [64, 256]
0.025587711 0.08753266 -0.036531463 -0.01739958 -0.05557799 -0.08400124 -0.037280075 0.029923256
0.0017196343 -0.09655819 -0.06556852 -0.1311804 -0.019241622 -0.15536802 -0.00739723 0.12095485
-0.08712089 -0.08487943 0.008057386 -0.079788506 -0.07650255 0.11600025 0.09789654 0.039427068
-0.12280428 0.058971696 4.5396388e-05 -0.100007966 -0.13533719 -0.072776206 -0.06702288 -0.014266986
0.0137930205 -0.009501005 0.21626493 0.030404972 -0.06098117 0.06359343 0.00042123772 0.108089626
0.10040621 -0.09566729 0.10854109 0.08395747 0.07338409 0.013046378 0.052101195 0.20549671
0.044487473 0.00068777055 0.015717067 -2.3643894e-05 -0.0858378 -0.02874111 -0.1442096 -0.026518662
0.1120933 0.003673391 0.016715245 -0.036066942 -0.07538537 -0.0014836523 -0.018888036 0.016433045
0.08629447 0.01790922 -0.02800381 -0.033199325 -0.044413585 -0.015728647 0.04333252 -0.033578984
0.029740307 0.09142171 -0.10090243 -0.02276829 0.037700817 -0.126664 -0.05694624 -0.14063616
-0.020966973 -0.12241296 -0.060289063 -0.1290799 0.051870774 0.10678731 -0.008640522 -0.045009293
-0.08476015 0.02120821 -0.08553146 -0.16915363 -0.101993226 -0.008036213 -0.14830618 -0.23087548
-0.12862395 -0.0012779196 -0.21117304 -0.05359192 -0.06992593 0.0015253208 -0.11447446 0.03107278
-0.035093118 -0.00060036854 0.07815497 -0.029830148 -0.09627135 -0.05871894 -0.01701351 -0.15796143
0.15908767 -0.0817755 -0.029288184 -0.13413395 0.003961634 0.0011869177 0.013016798 0.09557189
-0.03334211 0.12255783 0.0005346192 -0.14215028 -0.06303547 0.008479932 0.002918947 -0.044206392
0.0021305564 0.035673272 0.08469479 0.16473575 -0.016687144 0.022576977 0.06142008 -0.024223605
0.06365243 -0.051554583 0.07432001 0.16313717 0.020245085 -0.08130435 0.0177563 -0.20162316
-0.12227544 -0.0064649247 0.15641348 0.020931583 -0.15402745 -0.11381408 -0.051280953 -0.014304486
-0.044819135 -0.20518722 0.002334841 -0.008805572 -0.031084215 -0.030203108 -0.086779326 -0.043675072
0.051901188 0.018105028 -0.1612516 0.015545739 0.038040806 -0.14807054 -0.20062128 0.1158797
0.07914086 0.044698022 0.024405057 0.13040778 0.020902101 -0.023157941 -0.066378735 0.024058884
-0.06707009 -0.027474308 -0.051296506 -0.072342895 0.10726984 0.01293936 -0.053490408 -0.07528264
0.08438965 0.016239066 -0.016565535 0.05378388 0.111595504 0.14410038 -0.004076654 -0.17644782
-0.090446055 0.03558085 0.095251225 -0.022269396 -0.12136895 0.029675905 0.034265645 -0.023405865
0.012148009 0.10416397 0.031820606 0.056827832 0.0041591353 -0.08329641 -0.12726612 0.08508098
0.023792302 -0.07307856 -0.039798353 0.039405797 0.03881176 -0.07505412 -0.059128232 0.048570175
-0.013931006 -0.012058081 -0.009221635 0.018335346 -0.023952825 -0.11007946 0.12665719 -0.028143816
-0.13253574 -0.07490408 -0.111709036 0.086416885 -0.037845593 -0.0903442 -0.13519262 -0.014795374
0.08842318 -0.074657105 -0.114612825 -0.039129294 0.041142885 -0.105725795 0.010160378 0.054815784
-0.054450195 0.082208864 0.07144201 0.03662902 0.010265591 -0.008414634 -0.1508343 0.033562914
-0.09909891 -0.044702977 0.0040828884 0.0076725627 -0.087179966 -0.039451182 -0.014025511 -0.09587033
00000000: 529d d13c 5344 b33d 04a2 15bd 9089 8ebc
00000010: bfa5 63bd d808 acbd feb2 18bd 9e21 f53c
00000020: 5a65 e13a 4dc0 c5bd ca48 86bd 2854 06be
00000030: 9ba0 9dbc cb18 1fbe 7664 f2bb 2db7 f73d
00000040: 706c b2bd 44d5 adbd 2003 043c 2868 a3bd
00000050: 5ead 9cbd 8a91 ed3d fb7d c83d 477e 213d
00000060: cf80 fbbd 4e8c 713d 0068 3e38 fad0 ccbd
00000070: d595 0abe b10b 95bd 4b43 89bd 14c0 69bc
00000080: 1ffc 613c 1aaa 1bbc 8e74 5d3e d913 f93c
00000090: 64c7 79bd 463d 823d 92d9 dc39 185e dd3d
000000a0: c5a1 cd3d 36ed c3bd ca4a de3d e5f1 ab3d
000000b0: 664a 963d 7ac0 553c 1068 553d bb6d 523e
000000c0: 7f38 363d 804b 343a 14c1 803c e056 c6b7
000000d0: bacb afbd 7a72 ebbc aeab 13be aa3d d9bc
000000e0: 2c91 e53d 46bd 703b 69ee 883c eeba 13bd
000000f0: a563 9abd 1c77 c2ba 15bb 9abc 989e 863c
00000100: 28bb b03d 5bb6 923c 3f68 e5bc 04fc 07bd
00000110: 05eb 35bd 5dd9 80bc 717d 313d 1e8a 09bd
00000120: f2a1 f33c 4e3b bb3d efa5 cebd 9184 babc
00000130: 2c6c 1a3d 35b4 01be 7640 69bd ed02 10be
00000140: eec2 abbc a5b3 fabd aaf1 76bd 852d 04be
00000150: 7376 543d 4eb3 da3d fa90 0dbc aa5b 38bd
00000160: bb96 adbd d7bc ad3c 1e2b afbd 9c36 2dbe
00000170: d3e1 d0bd 52aa 03bc 93dd 17be 9f6a 6cbe
00000180: ffb5 03be de7f a7ba bf3d 58be 3383 5bbd
00000190: 5335 8fbd 46ed c73a 9671 eabd 588c fe3c
000001a0: cdbd 0fbd 0d62 1dba b70f a03d 5b5e f4bc
000001b0: ea29 c5bd 4583 70bd eb5f 8bbc a4c0 21be
000001c0: e1e7 223e ea79 a7bd c6ed efbc 695a 09be
000001d0: 98d0 813b 5992 9b3a 6844 553c 32bb c33d
000001e0: bd91 08bd 99ff fa3d b025 0c3a d88f 11be
000001f0: be18 81bd 6aef 0a3c ce4b 3f3b c311 35bd
00000200: cea0 0b3b 231e 123d 7674 ad3d 7db0 283e
00000210: 7ab3 88bc 5af3 b83c 9f93 7b3d 9570 c6bc
00000220: 355c 823d e62a 53bd 1735 983d 6e0d 273e
00000230: 05d9 a53c e582 a6bd a975 913c 4d76 4ebe
00000240: 8c6b fabd b8d7 d3bb db2a 203e b678 ab3c
00000250: 5fb9 1dbe 5b17 e9bd fa0b 52bd 5d5d 6abc
00000260: 4594 37bd 991c 52be 2204 193b 3f45 10bc
00000270: 53a4 febc 826c f7bc 5cb9 b1bd a2e4 32bd
00000280: 5796 543d ff50 943c 241f 25be 8eb3 7e3c
00000290: add0 1b3d ce9f 17be aa6f 4dbe 5652 ed3d
000002a0: 9a14 a23d 4615 373d 1ded c73c 9e89 053e
000002b0: e23a ab3c b9b5 bdbc 93f1 87bd 2317 c53c
000002c0: 0b5c 89bd cd11 e1bc 491c 52bd 8328 94bd
000002d0: 4ab0 db3d 9cff 533c c218 5bbd c92d 9abd
000002e0: 7bd4 ac3d ca07 853c 72b4 87bc 7c4c 5c3d
000002f0: 2f8c e43d 0d8f 133e 7495 85bb bdae 34be
00000300: c83b b9bd 3abd 113d 1313 c33d 4f6e b6bc
00000310: 4990 f8bd e21a f33c 225a 0c3d a8bd bfbc
00000320: 7108 473c eb53 d53d 5356 023d 4dc4 683d
00000330: 5b49 883b 4f97 aabd 0d52 02be f03e ae3d
00000340: 13e8 c23c 36aa 95bd 9903 23bd f967 213d
00000350: 14f9 1e3d f9b5 99bd 7230 72bd 85f1 463d
00000360: e03e 64bc 428f 45bc 5716 17bc 0234 963c
00000370: b738 c4bc 5771 e1bd 6cb2 013e dc8d e6bc
00000380: 73b7 07be 4f67 99bd b5c7 e4bd 56fb b03d
00000390: fb03 1bbd 6106 b9bd ef6f 0abe 4c68 72bc
000003a0: 3617 b53d d3e5 98bd 21ba eabd 0a46 20bd
000003b0: 7185 283d c486 d8bd b777 263c 8486 603d
000003c0: 2b07 5fbd 1f5d a83d 3050 923d 5008 163d
000003d0: 0231 283c 88dd 09bc 4f74 1abe 4479 093d
000003e0: 5ff4 cabd 781a 37bd c0c9 853b 1f6a fb3b
000003f0: 698b b2bd 9097 21bd 42cb 65bc aa57 c4bd

linear.3.bias f4 [64]
-0.083179094 -0.021662815 -0.0592763 0.031921417 0.02118094 0.043092366 0.002430555 -0.041203626
-0.020664431 -0.017279487 -0.07804737 -0.12780412 0.06156464 -0.071094066 -0.076022856 -0.06420147
-0.0191876 0.003323705 -0.0446297 -0.059912097 0.084386185 0.007495537 -0.04395453 -0.09743538
-0.0010810744 -0.08446413 -0.02792629 -0.16620934 -0.13511734 -0.06686259 -0.085239194 -0.015112504
-0.088960834 -0.038455244 -0.009169442 0.024741825 -0.07277731 0.01639561 0.061875436 0.012668484
-0.0023567155 0.036951005 0.03215519 -0.08406548 0.038381778 0.0695183 -0.09990515 -0.014768447
-0.032320052 -0.082504086 -0.029375585 -0.020990795 0.14133729 0.025096249 -0.073025204 -0.035153717
0.008433496 0.013906221 -0.16063577 -0.15269645 -0.13551562 -0.025143912 -0.07073335 -0.10141469
00000000: cd59 aabd 3776 b1bc b5cb 72bd 08c0 023d
00000010: a783 ad3c 9f81 303d f249 1f3b 22c5 28bd
00000020: 7448 a9bc b68d 8dbc 4dd7 9fbd 15df 02be
00000030: 342b 7c3d c499 91bd dfb1 9bbd 0f7c 83bd
00000040: 502f 9dbc 84d2 593b a2cd 36bd 6366 75bd
00000050: aad2 ac3d 1f9d f53b aa09 34bd 338c c7bd
00000060: d6b2 8dba 88fb acbd adc5 e4bc c832 2abe
00000070: 335c 0abe 41ef 88bd e391 aebd 709a 77bc
00000080: 1931 b6bd 3f83 1dbd 6d3b 16bc 5eaf ca3c
00000090: 450c 95bd 1650 863c 1971 7d3d 798f 4f3c
000000a0: 2073 1abb f059 173d 29b5 033d 862a acbd
000000b0: 3636 1d3d 9c5f 8e3d 129b ccbd 5bf7 71bc
000000c0: 0862 04bd e7f7 a8bd 11a5 f0bc e3f4 abbc
000000d0: b9ba 103e a696 cd3c 3d8e 95bd 58fd 0fbd
000000e0: a52c 0a3c ebd6 633c b47d 24be 755c 1cbe
000000f0: 9bc4 0abe 9bfa cdbc a6dc 90bd 81b2 cfbd

reg.weight f4 [2, 128]
-0.020743556 -0.14635374 0.1025723 -0.247423 0.13620688 0.012251908 -0.1386202 0.081038654
-0.10209877 -0.05069687 -0.14013144 0.123516396 0.11225021 0.099716894 0.05356966 0.13092345
0.07461543 -0.06760553 -0.145793 0.018179309 0.07063526 -0.13131636 -0.10004294 0.15540938
0.038141817 -0.10612619 -0.073635735 -0.08120951 -0.10439738 -0.13562244 -0.16122283 0.07029921
-0.11639445 0.03849157 0.057692286 -0.041855447 0.08783368 0.12771776 -0.122324646 0.028685294
0.0029155023 0.11113984 0.042833872 -0.09159268 -0.1333388 -0.110509664 -0.092332624 0.19709775
-0.08232454 0.11388972 -0.15634368 -0.042210635 -0.1250576 -0.10512909 0.12083697 -0.10687778
-0.10084342 -0.054149676 0.009338631 0.13167697 0.009896636 0.073054105 0.08723738 -0.13558425
0.11774202 0.13433945 0.071802005 -0.14476727 -0.092385784 -0.11028436 -0.075156264 0.015598944
0.1466255 0.12278367 -0.06373615 -0.07141044 -0.06433298 -0.048281647 -0.06348676 -0.06746987
0.005348455 0.09511451 -0.14725354 0.061334744 0.054864734 -0.107369535 0.12684205 -0.16144611
0.11695539 -0.05145833 0.02591041 -0.14367096 -0.045161836 -0.12889843 -0.02632385 -0.07429195
0.15024386 0.076519266 0.011485905 0.08856022 -0.15707202 -0.06461464 -0.15406716 -0.16661544
-0.10445437 -0.019781275 0.15320913 0.10299505 0.10504662 0.07372056 -0.072630495 0.14380325
-0.00575734 0.01943037 -0.08189298 0.056759134 0.06383847 0.078947775 0.13831092 0.024253896
-0.07484659 0.10621337 -0.061631247 -0.09496137 -0.094964065 -0.023410697 0.0024846217 0.008872978
-0.0055913865 0.013372758 -0.0012403061 -0.06958507 -0.024669603 -0.034289315 -0.008314745 0.018720178
-0.0010160679 0.02099887 0.056543313 0.0059461766 -0.016397933 0.010966248 -0.01732865 0.025913393
0.019435693 0.0064911735 0.010001035 -0.018358253 0.0052044964 -0.02577899 -0.011110437 -0.031746592
0.0126250805 0.00873453 0.024512567 0.0040015024 0.014041804 -0.07791247 0.028787848 -0.025034517
-0.008498734 -0.0075684525 0.011920813 0.014168801 -0.0010639133 0.0052596545 0.006938358 -0.004365057
-0.0036032621 0.0102876155 0.021010585 -0.011228867 -0.005646118 -0.007410733 0.027589852 0.013844301
-0.035309665 -0.042468317 0.0062418934 -0.0128826825 0.0015503857 0.014091184 -0.002192209 -0.07387102
0.0010514902 -0.016912239 0.02589109 0.017162707 0.04818692 0.006986725 0.010068569 0.043468576
0.07053815 0.0034895106 0.19083534 0.017584939 -0.092863604 0.0027713287 -0.019668084 -0.13354307
0.00930848 -0.0059857233 0.0023863027 -0.020585937 -0.0025786893 -0.051472094 -0.08073645 0.00019610382
0.08312371 -0.008824986 0.043773666 -0.1546927 0.005823456 0.0005208546 0.13187398 0.010686968
-0.0031251614 -0.060669526 0.0002604036 -0.00089293125 0.024392812 0.051229432 -0.002972283 0.0020873314
0.043706816 -0.004595606 -0.0007785401 0.05607958 -0.00079922704 0.047628168 0.0012974273 -0.014559941
-0.0014317546 -0.002966567 0.017103342 0.09473985 0.0050993096 -0.005509008 -0.03149339 -0.0026032464
-0.16952772 -0.13541442 0.0006661962 -0.013579245 0.00050570443 0.00042144954 -0.020834932 -0.00431427
0.012663437 -0.0033356159 -0.01794568 0.019479677 -0.002307521 -0.013116078 0.005388094 0.12663704
00000000: 64ee a9bc c1dd 15be 6d11 d23d 745c 7dbe
00000010: d179 0b3e 3abc 483c 74f2 0dbe 98f7 a53d
00000020: 2919 d1bd 85a7 4fbd 9e7e 0fbe 2af6 fc3d
00000030: 70e3 e53d 5f38 cc3d dc6b 5b3d cc10 063e
00000040: f9cf 983d c574 8abd c34a 15be c6ec 943c
00000050: 38a9 903d cc77 06be 50e3 ccbd a323 1f3e
00000060: 983a 1c3d b058 d9bd 55ce 96bd 2c51 a6bd
00000070: 4bce d5bd 9ce0 0abe 9917 25be 08f9 8f3d
00000080: 3760 eebd 56a9 1d3d bf4e 6c3d 9e70 2bbd
00000090: 25e2 b33d 72c8 023e 5885 fabd 6cfd ea3c
000000a0: 0312 3f3b 499d e33d 9272 2f3d f194 bbbd
000000b0: f789 08be e452 e2bd e318 bdbd fed3 493e
000000c0: c599 a8bd 033f e93d 8f18 20be 0fe5 2cbd
000000d0: 190f 00be ec4d d7bd 6079 f73d bde2 dabd
000000e0: ff86 cebd 0dcc 5dbd 0f01 193c 54d6 063e
000000f0: 8025 223c 649d 953d 83a9 b23d 99d6 0abe
00000100: ba22 f13d 4890 093e ee0c 933d df3d 14be
00000110: c234 bdbd c4dc e1bd 87eb 99bd b792 7f3c
00000120: ff24 163e 0176 fb3d 1988 82bd a33f 92bd
00000130: 02c1 83bd fac2 45bd 5905 82bd a52d 8abd
00000140: 1842 af3b 65cb c23d a2c9 16be 243a 7b3d
00000150: d8b9 603d 8fe4 dbbd e2e2 013e 2152 25be
00000160: 4f86 ef3d f8c5 52bd 1142 d43c 7b1e 13be
00000170: 9efb 38bd f3fd 03be 1da5 d7bc 6126 98bd
00000180: 87d9 193e 22b6 9c3d 612f 3c3c 105f b53d
00000190: 7dd7 20be ae54 84bd c8c3 1dbe 3d9d 2abe
000001a0: 2cec d5bd 570c a2bc dbe2 1c3e 12ef d23d
000001b0: af22 d73d cefa 963d 4cbf 94bd 2941 133e
000001c0: 12a8 bcbb 702c 9f3c 82b7 a7bd 447c 683d
000001d0: bebd 823d 5faf a13d 61a1 0d3e 1bb0 c63c
000001e0: 2b49 99bd 6586 d93d 0c71 7cbd 1b7b c2bd
000001f0: 857c c2bd cac7 bfbc 09d5 223b f85f 113c
00000200: f337 b7bb 6a19 5b3c c491 a2ba 9e82 8ebd
00000210: e817 cabc f472 0cbd 913a 08bc 0f5b 993c
00000220: 952d 85ba d205 ac3c f699 673d 25d8 c23b
00000230: f554 86bc c7ab 333c d0f4 8dbc 5348 d43c
00000240: 9a37 9f3c e9b3 d43b 62db 233c 0c64 96bc
00000250: 7b8a aa3b 762e d3bc 8d08 36bc b708 02bd
00000260: 6dd9 4e3c 461b 0f3c 94ce c83c 091f 833b
00000270: 980f 663c 9390 9fbd 7ed4 eb3c 3015 cdbc
00000280: 463e 0bbc c800 f8bb 834f 433c 4224 683c
00000290: 0273 8bba 2e59 ac3b 2a5b e33b c108 8fbb
000002a0: b524 6cbb 638d 283c 641e ac3c 48f9 37bc
000002b0: 1203 b9bb bcd5 f2bb 1d04 e23c 35d3 623c
000002c0: dea0 10bd 42f3 2dbd cc88 cc3b e311 53bc
000002d0: 5036 cb3a b6de 663c 2aab 0fbb b049 97bd
000002e0: 28d2 893a 898b 8abc 8d19 d43c ce98 8c3c
000002f0: a65f 453d e6f0 e43b a4f6 243c 1b0c 323d
00000300: 4e76 903d 46b0 643b 576a 433e 4a0e 903c
00000310: 462f bebd 2e9f 353b f61e a1bc 84bf 08be
00000320: 9882 183c e323 c4bb 8463 1c3b d7a3 a8bc
00000330: 3aff 28bb 67d4 52bd 2759 a5bd 38a1 4d39
00000340: c33c aa3d ad96 10bc 044c 333d c367 1ebe
00000350: b1d2 be3b f689 083a f909 073e 6518 2f3c
00000360: 82cf 4cbb 9c80 78bd c886 8839 9a13 6aba
00000370: 6fd3 c73c f4d5 513d a2ca 42bb 9ccb 083b
00000380: eb05 333d bd96 96bb f116 4cba b4b3 653d
00000390: 3883 51ba c115 433d 700e aa3a d28c 6ebc
000003a0: b6a9 bbba bc6a 42bb 4f1c 8c3c f706 c23d
000003b0: 1c18 a73b e984 b4bb 37ff 00bd 3a9b 2abb
000003c0: ad98 2dbe 14aa 0abe aca3 2e3a 7b7b 5ebc
000003d0: 4091 043a 00f6 dc39 05ae aabc b85e 8dbb
000003e0: 4e7a 4f3c 599a 5abb d202 93bc d893 9f3c
000003f0: c739 17bb d2e4 56bc 9c8e b03b 24ad 013e

reg.bias f4 [2]
0.028595015 0.015001951
00000000: 1840 ea3c beca 753c
