server/models/value_model_minmax50.pt (torch, 255287 bytes, 12 tensors)

conv.0.weight f4 [4, 1, 3, 3]
0	0xbeb651a2	-0.35609156
1	0xbe1fd185	-0.15607269
2	0x3e3f5f4a	0.18688694
3	0xbd637487	-0.05553105
4	0xbdb7031e	-0.089361414
5	0x3df1c09c	0.118043154
6	0x3ce82593	0.02833823
7	0xbe93e3a1	-0.28884605
8	0x3e378acb	0.17924039
9	0x3b7440e3	0.003727012
10	0xbd94b6df	-0.072614424
11	0xbe167363	-0.14692454
12	0x3db0cad2	0.08632435
13	0x3e40509a	0.18780747
14	0xbe8d8d30	-0.2764678
15	0x3e14525b	0.14484541
16	0xbe76caa1	-0.24100734
17	0x3cf3ede4	0.029776521
18	0xbe4f1a88	-0.20224965
19	0x3e883c13	0.26608333
20	0xbec7147e	-0.38882822
21	0x3de2832e	0.11060177
22	0x3e8c62e5	0.274192
23	0x3eba3ff7	0.36376926
24	0x3dc3f07d	0.09567354
25	0xbec1e5ee	-0.37870735
26	0xbd3d13b2	-0.04616136
27	0xbe122447	-0.14271651
28	0xbecfbba2	-0.4057284
29	0x3daf6afa	0.08565326
30	0xbd9b5426	-0.075844094
31	0xbdbd8f01	-0.092557915
32	0x3e903d61	0.28171828
33	0xbca2338d	-0.019799972
34	0xbe9c0728	-0.3047421
35	0xbde78c5a	-0.11306067

conv.0.bias f4 [4]
0	0x3e24e83e	0.16104218
1	0xbe22e73e	-0.15908524
2	0xbdc29d68	-0.09502679
3	0x3dc62ccd	0.09676514

conv.2.weight f4 [4, 4, 3, 3]
0	0xbe89769a	-0.26848298
1	0x3cbc6612	0.02299789
2	0xbd71a220	-0.058992505
3	0xbdf49a6f	-0.11943518
4	0xbdb21e4b	-0.08697184
5	0xbd2f3a20	-0.04278004
6	0xbe0e0fbb	-0.13873188
7	0x3d9344d6	0.07190864
8	0xbdf515cd	-0.11967049
9	0xbc92fe05	-0.017943392
10	0x3d44a80f	0.048011836
11	0xbbf29278	-0.0074027143
12	0x3dccbc9a	0.099969104
13	0xbe2fd026	-0.17169246
14	0xbcde87b0	-0.02716431
15	0xbdec00a3	-0.11523559
16	0xbd6c31e7	-0.057664778
17	0xbe3f0400	-0.1865387
18	0x3e1269e0	0.142982
19	0x3dba1317	0.09085672
20	0x3cad008a	0.021118421
21	0xbc57f9d2	-0.01318212
22	0xbbed4bab	-0.0072416863
23	0xbe574818	-0.21023595
24	0x3d8bdf1f	0.06829666
25	0xbda57c16	-0.08080308
26	0x3e842fec	0.2581781
27	0xbc4ab70c	-0.012372743
28	0x3ea1ae66	0.31578368
29	0x3dabab99	0.08382339
30	0x3ddd625e	0.10809778
31	0xbe9d5bb9	-0.3073404
32	0x3cadd366	0.021218967
33	0xbda9d16b	-0.082918964
34	0x3c40e37a	0.011772985
35	0xbe4b865a	-0.1987547
36	0xbe2bf806	-0.16793832
37	0x3e548312	0.20753124
38	0xbe11a0d5	-0.14221509
39	0xbcf17f32	-0.029479597
40	0x3e0a8be2	0.13529924
41	0x3ce275f8	0.027644143
42	0x3d76f34a	0.060290612
43	0x3e67c7ce	0.22634813
44	0xbdd6bd50	-0.10485327
45	0xbdb634dd	-0.088968016
46	0x3c5929b3	0.013254571
47	0xbea94da6	-0.33067054
48	0xbd8282b3	-0.06372585
49	0xbd7df255	-0.061998684
50	0x3d21610e	0.0393992
51	0xbde99d49	-0.11406953
52	0xbe05cdb2	-0.13066748
53	0x3ceaa9af	0.028645365
54	0x3d8e2ffa	0.069427446
55	0x3c300838	0.010744147
56	0x3dff3abf	0.12462377
57	0x3dd268c4	0.10273889
58	0xbe192131	-0.14954068
59	0xbf26a3fc	-0.6509397
60	0xbc8af562	-0.01696271
61	0xbed5da6a	-0.417682
62	0x3e9eac14	0.3099066
63	0x3cbd4658	0.023104832
64	0xbe1b2a14	-0.1515277
65	0xbe8977c5	-0.2684919
66	0xbd2193c6	-0.03944757
67	0x3e5cc73d	0.21560378
68	0xbefe8fc9	-0.49719074
69	0x3c82c92e	0.01596507
70	0x3ef7710a	0.4832843
71	0xbd7d151e	-0.061787717
72	0x3d16e5da	0.036840297
73	0xbd4a7c1c	-0.049434766
74	0xbddd8e1c	-0.10818121
75	0x3dbc9f26	0.09210043
76	0xbd5127bc	-0.051063284
77	0x3def7ec0	0.116940975
78	0x3d50b6b0	0.050955474
79	0xbe0eaa61	-0.13932182
80	0x3eb352ab	0.35024008
81	0x3d6c7fd8	0.05773911
82	0x3d4fadda	0.050702907
83	0xbd9c6541	-0.076365
84	0x3c84a65c	0.016192608
85	0xbe8a418a	-0.27003127
86	0xbe3d7d17	-0.18504749
87	0xbe2ed296	-0.1707252
88	0xbd7858ec	-0.060631678
89	0xbe5543f7	-0.20826708
90	0x3c26746c	0.010159593
91	0xbe2c524b	-0.16828267
92	0xbf0c19d0	-0.54726887
93	0x3b163391	0.002291892
94	0xbe0d1cec	-0.13780564
95	0xbd47d6f0	-0.048788965
96	0x3d8f004e	0.0698248
97	0xbe30cad3	-0.17264871
98	0xbd4a5690	-0.04939896
99	0xbdf67022	-0.120331064
100	0xbcdc0724	-0.026858874
101	0xbe7252b6	-0.23664364
102	0xbd351c5a	-0.04421649
103	0x3d8abd46	0.06774382
104	0x3e03adad	0.12859221
105	0x3e1b2c1e	0.15153548
106	0xbdc2878e	-0.09498511
107	0x3da18cc6	0.078881785
108	0x3cebeda7	0.028799845
109	0xbd1003a7	-0.035159733
110	0xbd1b226b	-0.03787462
111	0x3ddbab74	0.107260615
112	0x3d734674	0.05939336
113	0x3de7e733	0.113233946
114	0xbca77e26	-0.020445894
115	0x3e128fce	0.1431267
116	0x3e81b8c4	0.25336277
117	0xbd27bc91	-0.040951315
118	0x3c4be86b	0.0124455495
119	0xbe315aef	-0.17319845
120	0x3d9f872a	0.077894524
121	0xbe10d8a2	-0.14145139
122	0xbd8dc26c	-0.06921849
123	0x3d099630	0.033590496
124	0xbd8be886	-0.0683146
125	0x3e05c37b	0.13062851
126	0x3e8a216a	0.26978618
127	0x3edc407b	0.43017945
128	0xbeb53161	-0.35389236
129	0xbcd193ce	-0.025583174
130	0xbd3ab08e	-0.045578532
131	0x3bd745e1	0.0065696095
132	0x3e2f1270	0.17096877
133	0xbe8e6e99	-0.27818754
134	0xbeb475c9	-0.35246113
135	0x3e4b66f2	0.1986349
136	0xbe8861bd	-0.26637068
137	0x3e72890b	0.2368509
138	0xbcd04d97	-0.025427623
139	0x3d155408	0.03645709
140	0x3e51bc33	0.20481949
141	0xbcc57349	-0.024102824
142	0x3e178041	0.14795019
143	0x3d8094cc	0.06278381

conv.2.bias f4 [4]
0	0xbcf6224e	-0.030045655
1	0xbe6cbad5	-0.23118146
2	0xbe1ff7c1	-0.15621854
3	0xbd88c1ba	-0.066775754

conv.5.weight f4 [64, 36]
0	0xbe910fd8	-0.283324
1	0xbc48c0e4	-0.01225302
2	0xbc2b0cba	-0.010440046
3	0xbdd18c33	-0.10231819
4	0xbdc76a5a	-0.09737082
5	0x3ddebf10	0.10876286
6	0xbd92990b	-0.07158097
7	0x3cfdfab8	0.031003341
8	0xbc6e33c0	-0.014538705
9	0x3df8907b	0.121369325
10	0x3d0fe68a	0.03513197
11	0xbd86ec50	-0.06588042
12	0x3d0dbfdf	0.03460681
13	0x3bcbfd76	0.0062252833
14	0xbda46cd5	-0.080285706
15	0x3cdb32cb	0.026757618
16	0x3cdb03f0	0.026735276
17	0xb88bff80	-6.675627e-05
18	0x3d7765dd	0.06039988
19	0x3d93f90c	0.07225236
20	0x3dc6ccef	0.09707057
21	0xbdb69fe2	-0.08917214
22	0xbcd05a4f	-0.025433687
23	0xbba82f82	-0.0051326165
24	0xbcf00000	-0.029296875
25	0xbdcc68b5	-0.09980909
26	0xbd30f80e	-0.043205313
27	0xbe77b9ca	-0.24191967
28	0x3d97225b	0.073796
29	0x3da9c718	0.08289927
30	0xbc503138	-0.012707047
31	0x3c6ee3ad	0.014580649
32	0x3cbae38e	0.022813585
33	0xbbdcb2be	-0.006735175
34	0xbd0e0710	-0.034674704
35	0x3dc88ff1	0.0979308
36	0x3e1d4660	0.15358877
37	0xbd09fd7f	-0.03368902
38	0x3e66757a	0.22505751
39	0xbdf68d8b	-0.12038716
40	0x3d1a4653	0.037664723
41	0xbd7405f0	-0.059575975
42	0x3d84d714	0.064863354
43	0x3da00807	0.07814031
44	0xbe4d4914	-0.20047408
45	0x3dcf72ba	0.10129304
46	0xbeb7092f	-0.35749194
47	0xbd45626f	-0.048189577
48	0xbd27c620	-0.04096043
49	0x3c9b170b	0.018931886
50	0x3eb490b3	0.35266647
51	0xbdac7bea	-0.08422072
52	0x3ea2db51	0.3180795
53	0xbeca8d8c	-0.39561117
54	0xbe1acdcd	-0.1511757
55	0x3e2d49b6	0.1692265
56	0xbe8198a3	-0.25311765
57	0xbd6e8f59	-0.058242176
58	0xbcab22ca	-0.020890612
59	0x3e9d7f48	0.3076117
60	0xbdbcd264	-0.09219816
61	0xbbe4258f	-0.006962485
62	0xbec58821	-0.3858042
63	0xbd9cca20	-0.0765574
64	0x3dbb5a02	0.09148027
65	0xbdde938c	-0.10867986
66	0xbcb9931c	-0.022653155
67	0xbdab2535	-0.08356706
68	0xbed44fe2	-0.41467196
69	0x3db2b436	0.08725779
70	0x3cebffe8	0.028808549
71	0xbf152894	-0.5826504
72	0x3e8cf6a0	0.2753191
73	0x3e2bd8fd	0.16781993
74	0x3de42824	0.11140469
75	0xbe105d00	-0.14097977
76	0x3e0fd597	0.14046322
77	0xbeb28b8c	-0.3487209
78	0x3dc2bfa7	0.09509211
79	0x3ce5a3e4	0.02803225
80	0xbca5d2e4	-0.020242162
81	0xbda95352	-0.08267845
82	0xbe9d8ac1	-0.30769923
83	0x3ebf68a8	0.37384534
84	0x3db85cbe	0.09002064
85	0x3e24eb5f	0.16105412
86	0xbe30aa7a	-0.17252532
87	0x3d222bc4	0.03959252
88	0x3e9e5996	0.30927724
89	0x3e02f681	0.12789346
90	0xbdcfd7de	-0.10148595
91	0xbddc1e28	-0.10747939
92	0xbe0880d0	-0.13330388
93	0xbda8083d	-0.08204696
94	0x3eab0d5c	0.3340863
95	0xbe45cdf1	-0.19316842
96	0x3e950aef	0.29109904
97	0x3eb28078	0.3486364
98	0xbe41e5a1	-0.18935253
99	0xbc1dccaf	-0.00963132
100	0x3df4fcc6	0.11962275
101	0xbeb4fa1b	-0.35347065
102	0xbe2406e5	-0.16018255
103	0xbe24cde6	-0.16094169
104	0xbe95bd44	-0.2924596
105	0x3e23b203	0.15985875
106	0xbdcbdd22	-0.09954287
107	0xbefddf8f	-0.49584624
108	0xbd19f3bf	-0.03758597
109	0x3dd0dbb9	0.10198159
110	0xbf0dfd86	-0.5546497
111	0x3d056617	0.032568064
112	0xbe05e3d1	-0.13075186
113	0x3e828448	0.25491548
114	0xba4a79b0	-0.00077238213
115	0xbdf202a9	-0.11816914
116	0x3dd34cb9	0.10317368
117	0x3d027245	0.031847257
118	0x3e50deb3	0.20397453
119	0x3e05a27d	0.13050266
120	0x3d6e494d	0.058175374
121	0x3d84a80d	0.06477366
122	0xbf994990	-1.1975574
123	0x3d881bae	0.066459045
124	0xbcb268b3	-0.02177844
125	0x3e874759	0.2642162
126	0x3d2f8af0	0.04285711
127	0xbea7377a	-0.32659513
128	0x3ef417fe	0.47674555
129	0xbe2e93e0	-0.17048597
130	0xbd8d0b8a	-0.068869665
131	0xbf113cb0	-0.56733227
132	0xbdd59a11	-0.104297765
133	0xbe7805e8	-0.24221003
134	0x3f809d8c	1.004808
135	0xbe2f7a0b	-0.171364
136	0xbea18289	-0.31544903
137	0xbec2a14b	-0.38013682
138	0x3e0804c2	0.13283065
139	0xbe192901	-0.14957048
140	0x3e15e1fa	0.14636984
141	0xbe554d04	-0.2083016
142	0xbc0c5dcd	-0.008567286
143	0x3e42607b	0.18982117
144	0x3eabf47f	0.33584973
145	0x3d8f646c	0.07001576
146	0xbd5bb73a	-0.053641535
147	0xbe81837b	-0.25295624
148	0xbd817ad9	-0.063222595
149	0xbe421ab1	-0.18955494
150	0xbd274ca2	-0.040844567
151	0xbd5ba18f	-0.05362087
152	0xbdc41109	-0.09573562
153	0x39dabdf8	0.00041721738
154	0xbe0107f6	-0.12600693
155	0x3d6bc6d5	0.057562668
156	0x3db1aa73	0.08675089
157	0xbd978935	-0.07399217
158	0xbe94daf6	-0.29073304
159	0x3e15d8c0	0.14633465
160	0xbdcc5d5c	-0.099787444
161	0xbd667de8	-0.056272417
162	0xbd99fdd4	-0.07519117
163	0xbcee4e9d	-0.02909022
164	0xbdb50c8f	-0.08840286
165	0xbe227244	-0.15863901
166	0x3e3f4758	0.18679559
167	0xbd3773ff	-0.044788357
168	0xbdda9a68	-0.10673982
169	0x3df475b4	0.119365126
170	0xbe03c6a5	-0.12868746
171	0xbe6cf957	-0.2314199
172	0x3d1e6f2b	0.038680237
173	0xbe36d4d2	-0.17854622
174	0x3ceed128	0.029152468
175	0xbc953c64	-0.018217273
176	0xbead084d	-0.33795395
177	0x3e12b7c2	0.1432791
178	0xbdd5c520	-0.10437989
179	0xbe95b59f	-0.29240128
180	0x3e98b3ec	0.2982477
181	0x3daf7e09	0.08568961
182	0x3d11293b	0.03543971
183	0xbd8f6dd4	-0.0700337
184	0xbe62709a	-0.22113267
185	0xbdab3fd3	-0.08361783
186	0x3da57895	0.0807964
187	0x3e4a8890	0.19778657
188	0xbdfa3536	-0.122171804
189	0x3b5aac40	0.003336683
190	0xbeee8f32	-0.46593624
191	0xbec22cf8	-0.37924933
192	0xbd28ec2a	-0.04124085
193	0x3dbeabe1	0.09310127
194	0xbe52596c	-0.20541924
195	0x3d2199d0	0.039453328
196	0xbd207b42	-0.039180048
197	0xbe0ea600	-0.13930511
198	0xbdd30161	-0.103029974
199	0xbe51dcfd	-0.20494457
200	0xbd9a0b63	-0.07521703
201	0xbe972a20	-0.29524326
202	0x3c8a754a	0.01690163
203	0x3e21da41	0.15805914
204	0xbdecb149	-0.11557252
205	0xbd82e89e	-0.063920245
206	0xbdec4fd2	-0.11538662
207	0xbe616c11	-0.2201388
208	0x3da5f426	0.08103208
209	0x3c44821d	0.011993912
210	0xbd1fa00f	-0.038971003
211	0xbd6faff0	-0.058517396
212	0xbe683fed	-0.22680636
213	0xbca39272	-0.019967292
214	0x3c7df5d8	0.015500508
215	0xbbe30332	-0.006927871
216	0x3ba0f816	0.0049123866
217	0xbd7bcee1	-0.061476592
218	0x3e380196	0.17969355
219	0xbe0b3dfe	-0.13597867
220	0x3e29a6c3	0.16567521
221	0x3d07c6a4	0.033148423
222	0x3c475fc2	0.012168827
223	0xbc38f252	-0.011288242
224	0xbe0576d1	-0.13033606
225	0x3b10193e	0.0021987702
226	0xbd99ef6d	-0.0751637
227	0x3d8c56f2	0.06852521
228	0x3d83e86e	0.06440817
229	0x3d9b1049	0.075714655
230	0x3ed96625	0.42460743
231	0x3df818e4	0.121141225
232	0x3da738fd	0.081651665
233	0xbe12711a	-0.14300957
234	0xbbf0b8fe	-0.0073462715
235	0x3e378941	0.17923452
236	0xbe2385db	-0.1596903
237	0x3dc4f97b	0.09617897
238	0x3e1d7077	0.15374933
239	0x3e6e61ab	0.23279445
240	0xbddb5b99	-0.1071083
241	0x3df55add	0.119802214
242	0xbe791190	-0.24323106
243	0x3e0cc12a	0.13745561
244	0x3da59bb8	0.080863416
245	0x3d45baaf	0.04827374
246	0x3d3b302a	0.04570023
247	0x3e1c7f33	0.15282898
248	0x3dbf6fc6	0.09347491
249	0x3c9f5022	0.01944739
250	0x3d20f6ac	0.039297745
251	0xbdce0ef6	-0.10061447
252	0x3ec1c409	0.37844875
253	0x3d25463a	0.040350176
254	0x3de2c566	0.11072807
255	0xbe273300	-0.16328049

conv.5.bias f4 [64]
0	0xbe89cdac	-0.26914728
1	0xbc9c37a0	-0.019069493
2	0xbe41183a	-0.18856898
3	0xbe121e5c	-0.14269394
4	0x3dcb6a19	0.09932346
5	0xbe3e3051	-0.18573119
6	0x3c6a1216	0.014286539
7	0xbda3adc1	-0.07992125
8	0xbe9b0d41	-0.3028355
9	0xbe10cf93	-0.14141683
10	0xbe3f6317	-0.18690144
11	0xbe8cffe1	-0.2753897
12	0xbd50547f	-0.05086183
13	0xbeaeddb1	-0.34153512
14	0xbdfcd8cc	-0.12346038
15	0xbdd99f8e	-0.10626136
16	0xbe35f358	-0.1776861
17	0xbec313e9	-0.38101128
18	0xbe4aa2ca	-0.19788662
19	0xbe009092	-0.12555149
20	0xbed1e920	-0.40998173
21	0xbc0944e9	-0.008378246
22	0xbe66fb8e	-0.22556898
23	0xbdf9d89c	-0.12199518
24	0xbea27eaf	-0.31737277
25	0xbebe7f91	-0.372067
26	0xbe5763d2	-0.21034172
27	0xbf050d29	-0.51973206
28	0xbbbdabe6	-0.005788314
29	0xbdcc7c00	-0.099845886
30	0x3d12c2a0	0.03583014
31	0xbe663f85	-0.22485168
32	0xbe71f633	-0.23629074
33	0xbe335416	-0.17512545
34	0xbdb7489a	-0.089493945
35	0xbe27b111	-0.16376139
36	0xbe901239	-0.28138903
37	0xbe535aad	-0.20640059
38	0x3d52684d	0.051369
39	0xbe7b25bb	-0.24526112
40	0xbda80c04	-0.08205417
41	0xbe51b299	-0.20478286
42	0xbddc50bc	-0.10757586
43	0xbe8805af	-0.26566836
44	0x3dbd2606	0.09235768
45	0xbe3d55f7	-0.18489824
46	0xbe767990	-0.2406981
47	0x3e095054	0.13409549
48	0xbe1a63d8	-0.1507715
49	0xbeb4eb27	-0.35335657
50	0xbdfcab01	-0.12337304
51	0xbeb48225	-0.35255542
52	0x3caee26c	0.0213482
53	0xbdcfd269	-0.101475544
54	0xbd9ee96f	-0.07759368
55	0xbe6d7c61	-0.23191978
56	0xbdf124d2	-0.11774601
57	0xbe60cf2f	-0.21954034
58	0xbec75fc2	-0.38940245
59	0xbd91a2e2	-0.071111456
60	0xbeabb903	-0.3353959
61	0xbe64411a	-0.2229046
62	0xbeabdf44	-0.33568776
63	0xbe4d754c	-0.20064276

linear.1.weight f4 [256, 169]
0	0x3bc14700	0.0058983564
1	0x3d20e03a	0.03927634
2	0x3d72750a	0.05919365
3	0x3d5dbe1e	0.054136388
4	0xbcd126a8	-0.025531128
5	0xbcb52cb6	-0.022116046
6	0x3d010c74	0.031506017
7	0x3d1dd234	0.038530543
8	0x3d5657c6	0.0523298
9	0x3d4b3122	0.049607404
10	0x3c787cb8	0.015166454
11	0xbc396a70	-0.011316881
12	0x3d03d2f0	0.032183588
13	0x3d46dfb6	0.04855319
14	0xbb09e940	-0.002104357
15	0xbc6f51f8	-0.014606945
16	0x3bce9590	0.0063044503
17	0xbd34ef54	-0.044173554
18	0xbd9a52c0	-0.075353146
19	0xbcaab740	-0.020839334
20	0x3d975cdd	0.07390759
21	0x3c80c1b8	0.015717372
22	0x3c73d417	0.014882109
23	0x3c4e5ff0	0.0125961155
24	0xbd827194	-0.063693196
25	0xbd86bb78	-0.065787256
26	0xbc8b2aec	-0.01698824
27	0x3d1cfd18	0.038327307
28	0x3cd04040	0.025421262
29	0xbb321e40	-0.0027178675
30	0x3cf3f8c4	0.029781707
31	0xba2b2c80	-0.00065297633
32	0xbd362a2a	-0.044473805
33	0xbd8c981c	-0.0686495
34	0xbcc2e600	-0.023791313
35	0xbc151994	-0.009100337
36	0x3ca0ab64	0.019612975
37	0x3cabbd10	0.020964175
38	0xbd2e71d4	-0.042589024
39	0x3d7eb02e	0.062179737
40	0x3d32cb9c	0.04365121
41	0xbd6449dc	-0.0557345
42	0xbd74f410	-0.05980307
43	0x3e133004	0.14373785
44	0x3dfd411a	0.12365933
45	0x3decd05c	0.11563179
46	0x3e23374b	0.15939061
47	0xbe80d1d1	-0.25160077
48	0x3e0d2c3f	0.1378641
49	0xbe9507ae	-0.29107422
50	0xbd09bb37	-0.033625808
51	0xbd939beb	-0.07207473
52	0x3d25543e	0.040363543
53	0x3d4d1992	0.050073214
54	0xbc04b2d8	-0.00809928
55	0xbd37d73a	-0.04488299
56	0xbe5306ba	-0.20608035
57	0x3e97996c	0.2960924
58	0x3dc7a685	0.09748558
59	0x3da19949	0.07890565
60	0x3e672bb8	0.22575271
61	0xbe57556b	-0.21028678
62	0xbec8c5d5	-0.39213434
63	0x3c84f6fc	0.016231053
64	0xbd53d9d2	-0.0517214
65	0xbcd332a2	-0.02578098
66	0xbd41b696	-0.04729327
67	0xbd1df925	-0.03856768
68	0xbe1f14e1	-0.15535308
69	0x3d84ee55	0.06490771
70	0x3eacfbb4	0.33785784
71	0x3dd42c97	0.10360067
72	0x3e0e50ae	0.13897964
73	0x3d8d959d	0.06913302
74	0x3e8949b7	0.26814052
75	0x3d837e27	0.06420546
76	0xbd581f8a	-0.052764453
77	0x3d01c380	0.031680584
78	0x3ced6664	0.028979488
79	0xbd12d060	-0.035843253
80	0x3ce8fe40	0.028441548
81	0x3d6ed4d8	0.058308452
82	0x3e035739	0.12826242
83	0x3e014d66	0.12627181
84	0xbe798765	-0.24368055
85	0xbe8b1aa4	-0.27168763
86	0xbe555296	-0.20832285
87	0x3d8c3dfd	0.06847761
88	0x3d215646	0.039388917
89	0x3d4fdd2e	0.050748043
90	0xbd08a254	-0.033357933
91	0xbd119885	-0.035545845
92	0xbd99a67a	-0.07502456
93	0xbd8787ae	-0.06617676
94	0x3db4be58	0.08825368
95	0xbd88c52b	-0.06678232
96	0x3e36181d	0.17782636
97	0x3d4f24dd	0.050572265
98	0xbd02bedd	-0.031920303
99	0xbd199e56	-0.037504517
100	0x3dbb6c42	0.09151508
101	0x3d5d6b0e	0.054057173
102	0xbd72ab40	-0.059245348
103	0xbc8ed650	-0.017436177
104	0xbc3f7e08	-0.011687763
105	0x3d4024c0	0.046910048
106	0x3e16b787	0.14718448
107	0xbdd758fa	-0.10515018
108	0xbe9b68a0	-0.3035326
109	0xbd0af777	-0.033927407
110	0xbd9f0cb3	-0.07766094
111	0xbdcdcee8	-0.1004923
112	0x3e41cd2d	0.18925925
113	0xba27385c	-0.00063789426
114	0x3cd8e730	0.026477426
115	0x3d3f3abc	0.046686873
116	0xbcde4624	-0.027133055
117	0xbca35949	-0.019940035
118	0xbe19f16e	-0.15033504
119	0xbd801cff	-0.062555306
120	0xbd0bfd92	-0.03417737
121	0xbd0853ad	-0.033282924
122	0x3e43df59	0.19128169
123	0x3e161a4d	0.1465847
124	0x3e679b0b	0.22617738
125	0xbce6bbd0	-0.028165728
126	0x3d3dacfe	0.046307556
127	0x3d6b52d6	0.057452045
128	0xbd023288	-0.03178647
129	0x3d8b80e1	0.06811691
130	0x3d4ccf6e	0.050002508
131	0xbcde7b76	-0.02715848
132	0x3d822ae7	0.06355839
133	0x3e0efeac	0.13964337
134	0x3e1b902e	0.15191719
135	0x3c117f20	0.008880407
136	0xbd18284a	-0.037147798
137	0x3d4d4172	0.05011124
138	0x3c2d3d18	0.010573648
139	0xbc389280	-0.011265397
140	0xbd006dbb	-0.031354647
141	0x3d787802	0.060661323
142	0x3d8d7df7	0.069087915
143	0xbd2d5a6a	-0.042322554
144	0x3d1cff28	0.038329273
145	0x3d3c5b2a	0.04598538
146	0xbc814bec	-0.015783273
147	0xbcab191e	-0.020886
148	0x3ce5f6ec	0.028071843
149	0x3b8b1140	0.0042439997
150	0x3c2b12a0	0.010441452
151	0xbc1f2c78	-0.009715192
152	0x3cf47154	0.029839195
153	0x3d7963e6	0.060886286
154	0x3d499536	0.049214564
155	0x3d03918a	0.03212122
156	0xbd799774	-0.060935453
157	0x3c909bf8	0.017652497
158	0xbd3c6846	-0.04599788
159	0x3c2b4188	0.010452636
160	0x3d013fbc	0.031554922
161	0xbbeb8250	-0.0071871653
162	0xbd92019f	-0.071292154
163	0x3d6a9f76	0.05728098
164	0xbd496499	-0.049168203
165	0x3cb427e8	0.021991685
166	0x3d4b4d0a	0.049634017
167	0x3c957ee4	0.018248983
168	0x3d1dd670	0.03853458
169	0x3d6dc3be	0.058048002
170	0xbd8e800f	-0.06958019
171	0xbd8a61d6	-0.06756942
172	0x3c380838	0.011232428
173	0x3ce9ba28	0.028531149
174	0xbd8e065d	-0.069348074
175	0x3c5a84d8	0.0133373365
176	0xbd16947b	-0.036762696
177	0xbd8b0b95	-0.067893185
178	0xbd4cc014	-0.049987867
179	0x3d3c1ce8	0.045926005
180	0xbb175f60	-0.002309762
181	0xbd542106	-0.051789306
182	0xbcb61dd4	-0.02223102
183	0xbc22a850	-0.009927824
184	0xbca07414	-0.0195866
185	0x3d22d6be	0.039755575
186	0xbc8e3c32	-0.017362688
187	0xbd5b5696	-0.05354937
188	0xbd3dd1e6	-0.046342753
189	0x3d8058bb	0.06266924
190	0x3e3d2e75	0.18474753
191	0xbe0e59b7	-0.13901411
192	0xbd081259	-0.033220623
193	0x3c9aedac	0.018912159
194	0xbd7b6ee6	-0.061385058
195	0xbd759319	-0.059954736
196	0x3d6b287a	0.05741165
197	0x3a7eb280	0.00097159296
198	0xbcc07f6c	-0.02349826
199	0x3cdb0b40	0.026738763
200	0xbd1f861b	-0.038946252
201	0xbbee6290	-0.007274933
202	0xbdd4fb95	-0.10399548
203	0xbcfcdb34	-0.030866243
204	0x3dce4918	0.10072535
205	0x3c93262c	0.017962538
206	0x3cda2940	0.026630998
207	0x3b4f4980	0.0031629503
208	0x3b8d25a0	0.0043074638
209	0x3d0f5c20	0.034999967
210	0xbc8c94e8	-0.017160848
211	0xbce6bb40	-0.02816546
212	0x3dcce5f6	0.10004799
213	0x3dbec4cc	0.0931488
214	0x3e2f4549	0.17116274
215	0x3c1787ae	0.009248657
216	0x3e13967d	0.14412875
217	0xbddb2dac	-0.107020706
218	0xbb717545	-0.003684358
219	0xbd8383e1	-0.06421638
220	0xbd35f007	-0.04441836
221	0xbd3601b2	-0.04443521
222	0xbcdfb13c	-0.027306192
223	0xbd78f4cd	-0.060780335
224	0xbe25c4d0	-0.1618836
225	0xbe207642	-0.15670112
226	0x3e24ef9a	0.16107026
227	0xbc915bd0	-0.017743975
228	0x3e20c011	0.15698268
229	0xbe13a65b	-0.14418928
230	0xbd09aef2	-0.033614106
231	0x3da86924	0.08223179
232	0xbd04b783	-0.032401573
233	0xbd2a2a1e	-0.041544072
234	0x3d5c58d6	0.053795658
235	0xbcf2c48a	-0.029634733
236	0xbd4655b9	-0.048421595
237	0x3dfb615a	0.12274428
238	0x3d05c6b9	0.03266022
239	0xbe97caf2	-0.29647022
240	0xbdab8d3a	-0.08376546
241	0xbd80a0e6	-0.06280689
242	0xbe21f12e	-0.15814659
243	0xbc3afb89	-0.01141251
244	0x3d1192de	0.035540454
245	0xbd27ad3b	-0.04093669
246	0x3d8a379b	0.06748887
247	0xbcb1969e	-0.021678265
248	0x3d21f73e	0.03954243
249	0x3d47c376	0.04877039
250	0x3d99f053	0.07516541
251	0xbead304d	-0.33825913
252	0x3bc37c30	0.005965732
253	0x3e2ce6a7	0.16884862
254	0x3d49dd82	0.049283512
255	0x3da3bc45	0.07994894

linear.1.bias f4 [256]
0	0xbdbacd15	-0.091211475
1	0xbd94e578	-0.0727033
2	0xbafd0d1d	-0.0019306276
3	0xbce2152e	-0.02759799
4	0xbc454b86	-0.012041932
5	0xbdce81f3	-0.100833796
6	0x3d67516b	0.05647413
7	0xbd9c4fb7	-0.07632392
8	0xbdf16e7c	-0.11788651
9	0xbd9aaf72	-0.07552995
10	0x3c8d2eb0	0.017234176
11	0xbd91465e	-0.070934996
12	0x3d5d69af	0.054055866
13	0xbdaa91dc	-0.08328602
14	0xbc423db1	-0.011855529
15	0xbdff4e8b	-0.12466153
16	0xbde03a07	-0.10948568
17	0xbd776fc8	-0.060409337
18	0xbd540f20	-0.051772237
19	0xbda79839	-0.08183331
20	0x3cfbcf4f	0.0307385
21	0xbdceb1a3	-0.10092475
22	0xbe16fec4	-0.14745623
23	0xbdbfccee	-0.09365259
24	0x3c43ef73	0.011958945
25	0x3c50eccf	0.012751772
26	0xbd281cf3	-0.041043233
27	0x3e2dbad9	0.16965808
28	0xbe0411bb	-0.12897389
29	0xbd9f1770	-0.07768142
30	0xbe073de7	-0.13207208
31	0xbda03df9	-0.0782432
32	0xbd8624aa	-0.06549962
33	0x3d45b805	0.048271198
34	0xbdf66607	-0.12031179
35	0xbd580710	-0.05274111
36	0x3d2cefa0	0.04222071
37	0xbe029675	-0.12752707
38	0xbdf50811	-0.11964429
39	0xbddbf862	-0.10740735
40	0xbc0a2cd8	-0.008433543
41	0xbd285d87	-0.04110482
42	0xbdf2adfc	-0.11849591
43	0xbd2be46d	-0.04196589
44	0xbe27440f	-0.16334556
45	0xbe0c4be1	-0.1370082
46	0x3caa5d35	0.020796398
47	0xbd201d91	-0.039090697
48	0xbbd1d2be	-0.0064032963
49	0x3d87eed1	0.066373475
50	0xbdf76e68	-0.12081605
51	0x3cd9ea48	0.026600972
52	0x3d433592	0.04765851
53	0xbda853b7	-0.08219092
54	0xbd8630a1	-0.06552244
55	0xbd51d1ff	-0.05122566
56	0x3d59ee60	0.053205848
57	0xbc3a7414	-0.011380214
58	0xbdf984f6	-0.121835634
59	0x3bbce56a	0.005764653
60	0x3d753260	0.059862494
61	0xbd58b7f7	-0.052909818
62	0xbcc38644	-0.023867734
63	0xbc482a7c	-0.01221716
64	0x3bde0ea7	0.006776649
65	0xbd58d655	-0.052938778
66	0xbe0d7622	-0.13814595
67	0xbc9c1b60	-0.019056022
68	0xbda9f57a	-0.08298774
69	0xbda7764a	-0.08176859
70	0xbd9031ca	-0.070407465
71	0xbd74813a	-0.059693553
72	0xbdd70ec7	-0.105008654
73	0xbe0b28da	-0.13589802
74	0xbd97cfaf	-0.074126594
75	0xbe1eafd4	-0.1549676
76	0xbd37557e	-0.044759266
77	0xbd5f5872	-0.054527707
78	0xbdd3fd52	-0.103510514
79	0x3e27f7a6	0.16403064
80	0xbd0ea0b3	-0.034821223
81	0xbd9820ff	-0.074281685
82	0xbcffccd5	-0.031225601
83	0xbd8b8612	-0.06812681
84	0xbda1d762	-0.07902409
85	0xbbceafca	-0.006307577
86	0x3c2ef50b	0.01067854
87	0xbc99cea2	-0.018775288
88	0xbe3d7c07	-0.18504344
89	0xbdd6e5eb	-0.10493072
90	0xbda27136	-0.079317495
91	0x3d987899	0.07444877
92	0x3e0d3e7e	0.1379337
93	0xbcbbcc23	-0.022924488
94	0xbd6a7fe4	-0.057250872
95	0x3dcdb98a	0.100451544
96	0x3bc43d96	0.005988787
97	0xbcc0802d	-0.023498619
98	0x3e06d71c	0.13167995
99	0xbd2b26a2	-0.04178489
100	0xbd81c73b	-0.06336828
101	0xbd3353f9	-0.043781254
102	0xbdeb027b	-0.114750825
103	0xbd071601	-0.03297997
104	0x3b5a45db	0.0033305797
105	0x3c6a9f61	0.014320225
106	0xbdf4a05a	-0.11944647
107	0xbd4f55ab	-0.05061881
108	0x3db8a432	0.09015693
109	0xbd94a1e4	-0.07257441
110	0xbd7654c2	-0.060139425
111	0xbd5bf1af	-0.053697284
112	0xbd74bdc6	-0.059751295
113	0xbd8292ab	-0.06375631
114	0xbd77746a	-0.060413755
115	0x3db4989b	0.0881817
116	0xbd507429	-0.05089203
117	0xba073f35	-0.000515926
118	0x3df62837	0.12019389
119	0xbddb8586	-0.10718827
120	0x3dc5d9a1	0.0966065
121	0xbc961b8c	-0.018323682
122	0xbda6085c	-0.08107063
123	0xbcf65045	-0.030067572
124	0xbd68ee58	-0.056867927
125	0x3a2984a4	0.00064666034
126	0xbd8ae612	-0.06782164
127	0x3d4e3aa0	0.050348878
128	0xbdaaa339	-0.083319135
129	0xbc998d46	-0.018744122
130	0xbe335010	-0.1751101
131	0xbd3b4150	-0.045716584
132	0xbe20277d	-0.15640064
133	0xbe60b1ce	-0.21942827
134	0xbd837898	-0.06419486
135	0xbd6c2aca	-0.057657994
136	0xbd4a5736	-0.049399577
137	0xbcf09227	-0.029366566
138	0x3cf00c47	0.02930273
139	0xbdd57dab	-0.1042436
140	0xbd065ed2	-0.03280527
141	0xbb1d8f33	-0.0024041652
142	0xbdac9785	-0.084273376
143	0xbe3c9028	-0.18414366
144	0xbd99ad90	-0.075038075
145	0xbda15b25	-0.078787126
146	0xbdc509ef	-0.09621035
147	0xbc3c9d33	-0.011512089
148	0xbdb67ce4	-0.0891054
149	0xbdf068b6	-0.11738722
150	0x3dbf0246	0.093266055
151	0xbe085cb8	-0.1331662
152	0xbc377c09	-0.011199006
153	0xbd3e1a20	-0.046411633
154	0x3ce36c30	0.027761549
155	0xbd291227	-0.041277077
156	0xbdb8bc1b	-0.09020253
157	0xbd8b42d0	-0.06799853
158	0x3b516608	0.0031951685
159	0xbda8dd58	-0.08245343
160	0xbd5d2fe0	-0.054000735
161	0xbca3833b	-0.019960037
162	0xbd331e7c	-0.043730244
163	0xbe21e98b	-0.15811746
164	0xbd18a1c1	-0.037263636
165	0xbe12b0dc	-0.14325279
166	0x3e1005c5	0.14064701
167	0xbd004a76	-0.03132101
168	0xbd605d99	-0.05477676
169	0xbe04fc99	-0.12986983
170	0xbc9233dd	-0.017846996
171	0xbdabfb0d	-0.083974935
172	0x3c5aeafb	0.013361688
173	0xbd74c9c3	-0.059762727
174	0xbd940223	-0.0722697
175	0xbd41a455	-0.04727586
176	0xbd288ef2	-0.04115195
177	0x3dd47267	0.10373383
178	0xbe0f5a07	-0.13999186
179	0xbd4dbd23	-0.050229203
180	0xbc3b91aa	-0.011448303
181	0xbe241b15	-0.16025956
182	0x3dbe80c0	0.09301901
183	0xbdfd7ffc	-0.12377927
184	0xbe0eaf83	-0.1393414
185	0xbe0c75a3	-0.1371675
186	0x3e09e860	0.1346755
187	0xbd83a808	-0.06428534
188	0xbe3d4a4a	-0.1848537
189	0xbdf18df9	-0.11794657
190	0xbe26ace2	-0.16276887
191	0xbdfeaffa	-0.124359086
192	0xbd6956a9	-0.05696741
193	0xbdce6460	-0.10077739
194	0xbdbca32f	-0.09210812
195	0xbc0c8821	-0.008577378
196	0xbd829f98	-0.06378096
197	0xbe03b74c	-0.12862891
198	0xbdac3b7f	-0.084097855
199	0xbe17f858	-0.1484083
200	0xbdc18d44	-0.094507724
201	0xbe4949ff	-0.19657134
202	0xbe2af252	-0.16694
203	0x3c160be1	0.009158106
204	0x3d4d538f	0.050128516
205	0xbd8f4924	-0.06996372
206	0xbdf0e5c2	-0.11762573
207	0x3d674e82	0.056471355
208	0xbda47f9b	-0.08032151
209	0x3c1ad45f	0.009450047
210	0xbc9f78f9	-0.019466864
211	0xbd6dabb7	-0.05802509
212	0xbe028b70	-0.12748504
213	0x3c8137ea	0.015773732
214	0xbdca0537	-0.09864276
215	0xbd629911	-0.055321757
216	0x3c1a720c	0.009426605
217	0xbde86567	-0.11347466
218	0xbd2e87f7	-0.042610135
219	0xbc60361a	-0.013684774
220	0xbd8a3540	-0.06748438
221	0xbd435362	-0.047686942
222	0xbe0e53a9	-0.13899101
223	0xbe3747e9	-0.17898525
224	0xbd4af02c	-0.049545452
225	0x3a9e5671	0.0012080205
226	0x3db1d21c	0.08682653
227	0xbd92a928	-0.0716117
228	0xbd2ac904	-0.04169561
229	0x3c6861dd	0.014183489
230	0x3d697a1c	0.05700122
231	0xbd0c290c	-0.034218833
232	0xbda7fad7	-0.08202141
233	0x3c8496bb	0.016185155
234	0xbdd38654	-0.103283554
235	0xbdc10410	-0.09424603
236	0x3d2ebb5e	0.042659156
237	0xbdc1d148	-0.09463745
238	0xbd147bc7	-0.036250856
239	0xbddcabfe	-0.107749924
240	0xbdf97818	-0.12181109
241	0xbd928116	-0.071535274
242	0xbdb4658b	-0.0880843
243	0xbd4fb48a	-0.050709285
244	0xbc07ca80	-0.008288026
245	0x3d6b8661	0.0575012
246	0x3d755a1e	0.059900396
247	0xbdefdb66	-0.11711769
248	0xbe1bb0dd	-0.15204187
249	0xbd3ccdaa	-0.046094574
250	0xbcd18351	-0.025575312
251	0xbe2e3c84	-0.17015272
252	0x3d375d37	0.04476663
253	0x3a905246	0.0011010848
254	0xbdc9de67	-0.09856873
255	0xbe172232	-0.14759138

linear.3.weight f4 [64, 256]
0	0xbdb05efb	-0.08611866
1	0x3e8232b5	0.2542931
2	0x3d559f7a	0.05215404
3	0xbe1e320a	-0.15448776
4	0xbddceacf	-0.10786974
5	0xbe441f2a	-0.19152513
6	0xbe2f72a3	-0.17133574
7	0x3e0b4707	0.13601314
8	0xbe06f3a3	-0.13178878
9	0x3cd967e3	0.026538795
10	0xbd929e64	-0.07159117
11	0xbe980e49	-0.296984
12	0xbdb199ec	-0.086719364
13	0xbe67b42e	-0.22627327
14	0x3d6c161f	0.057638284
15	0x3ed0df65	0.40795437
16	0xbea7b793	-0.32757244
17	0x3c9d3046	0.019188058
18	0x3e8ba231	0.2727218
19	0xbe91cd7d	-0.28477088
20	0xbe31aa07	-0.17350017
21	0x3cb0edbf	0.021597741
22	0x3e8df0e5	0.2772285
23	0xbc1ea716	-0.009683391
24	0xbe9a8988	-0.30183053
25	0x3e14135d	0.14460512
26	0xbdc8cd95	-0.09804837
27	0x3d00917b	0.03138874
28	0xbe64de51	-0.22350432
29	0xbdc83db8	-0.09777397
30	0xbcb9d1ed	-0.022683108
31	0xbea63c4a	-0.32467872
32	0x3ce5c336	0.028047185
33	0xbda667e2	-0.08125283
34	0x3e24b4b3	0.16084556
35	0xbd2a8b43	-0.041636717
36	0xbe9e557f	-0.30924603
37	0xbdc0f59b	-0.094218455
38	0xbe785d1e	-0.24254271
39	0x3eb9733c	0.3622073
40	0xbdbd9381	-0.0925665
41	0xbcb2cbcb	-0.021825692
42	0xb8988a88	-7.273728e-05
43	0xbc8f90d9	-0.017525123
44	0x3e950263	0.29103383
45	0xbe1a13d8	-0.15046632
46	0xbcceda08	-0.02525045
47	0x3dacfc92	0.084466115
48	0xbdf095f6	-0.11747353
49	0xbe6c9236	-0.2310265
50	0xbe5a4c6a	-0.21318212
51	0x3cff3342	0.031152371
52	0xbe1c5a4a	-0.15268818
53	0xbe7100d5	-0.23535474
54	0xbe985ff1	-0.29760697
55	0xbdb4bd49	-0.08825166
56	0x3d8e691d	0.069536425
57	0xbdac5917	-0.0841543
58	0xbe5efb5b	-0.21775572
59	0xbe0b217f	-0.13586996
60	0xbe94be14	-0.29051268
61	0x3df40793	0.11915507
62	0xbe0a817a	-0.13525954
63	0xbdd3e43f	-0.10346269
64	0x3e01b7db	0.12667792
65	0x3dad7812	0.08470167
66	0xbcf5e9d5	-0.030018726
67	0xbe109711	-0.14120127
68	0x3e7ddd5c	0.24791473
69	0xbe857d73	-0.26072273
70	0x3e3b00a3	0.18261962
71	0xbd19b82d	-0.03752916
72	0xbe29906b	-0.16558997
73	0x3d84eead	0.06490836
74	0xbe9e7440	-0.30948067
75	0xbe1b29c6	-0.15152654
76	0x3d83cbe5	0.06435374
77	0xbec5dd03	-0.3864518
78	0xbe238d9a	-0.15971985
79	0xbd4e24f2	-0.050328203
80	0xbde35a11	-0.11101163
81	0xbe4bbdba	-0.19896594
82	0xbe9f80f7	-0.3115308
83	0xbea372ef	-0.31923625
84	0xbe068ef6	-0.13140473
85	0x3e1eddb4	0.1551426
86	0x3e1121cb	0.14173047
87	0xbe90e86f	-0.28302333
88	0xbc79f023	-0.015255007
89	0x3da88379	0.082282014
90	0xbe88eecb	-0.26744685
91	0xbde54084	-0.11193946
92	0xbd9481d3	-0.072513245
93	0x3e1fb20b	0.15595262
94	0xbdfd837c	-0.12378594
95	0x3b7da9cd	0.0038705945
96	0xbe094a00	-0.13407135
97	0xbe0263c1	-0.12733366
98	0xbe54d6f3	-0.20785122
99	0xbe3f8746	-0.18703946
100	0xbe85d564	-0.26139367
101	0xbe81baf3	-0.25337943
102	0xbe99dfd9	-0.30053595
103	0x3d6f5211	0.058427874
104	0xbda76a8d	-0.0817462
105	0xbdcddaf6	-0.10051529
106	0x3eace411	0.3376775
107	0xbd05e47b	-0.0326886
108	0xbe2a647f	-0.16639899
109	0xbd2d696b	-0.042336863
110	0xbd03c33a	-0.032168604
111	0xbebd257b	-0.36942658
112	0x3e801d17	0.25022194
113	0xbe5a92d7	-0.21345077
114	0xbe1e40bf	-0.15454386
115	0xbe513c3e	-0.20433137
116	0x3e5c3640	0.2150507
117	0xbdecbc16	-0.11559312
118	0x3d97d4a1	0.074136026
119	0xbd35773b	-0.04430316
120	0x3d3247b2	0.043525405
121	0x3e5652f8	0.20930088
122	0x3c71d105	0.014759307
123	0xbd78023f	-0.060549017
124	0xbe85c66b	-0.26127943
125	0xbd9033bc	-0.070411175
126	0x3d336d13	0.043805193
127	0x3de0139f	0.109412424
128	0xbd73ad39	-0.05949137
129	0xbdf75766	-0.12077217
130	0x3c85f507	0.01635219
131	0x3e768ecd	0.24077912
132	0x3dbb9502	0.0915928
133	0x3eb4f4f2	0.35343128
134	0xbe7a3142	-0.24432853
135	0xbe858253	-0.26075992
136	0xbe60a23c	-0.21936888
137	0xbe249659	-0.16072978
138	0x3d5fb3d2	0.05461485
139	0x3e2998c6	0.16562185
140	0x3e67047f	0.22560309
141	0x3cc9fd8b	0.024657032
142	0xbd0f3451	-0.034962002
143	0xbeaaac55	-0.33334604
144	0xbec9de06	-0.39427203
145	0xbe234957	-0.15945946
146	0x3de1ebed	0.110313274
147	0xbd4454a1	-0.04793227
148	0xbe8baf09	-0.2728198
149	0xbeea6b00	-0.4578476
150	0xbe366e41	-0.17815496
151	0xbe757f05	-0.23974235
152	0xbe97eac1	-0.2967129
153	0xbe24bcb4	-0.1608761
154	0xbe4aa19d	-0.19788213
155	0xbde412bc	-0.11136386
156	0x3d602637	0.054723945
157	0xbdc078ca	-0.09398039
158	0xbcc33dc3	-0.023833161
159	0xbdef638c	-0.11688909
160	0xbcf2e2f3	-0.029649233
161	0xbb2a6901	-0.0026002529
162	0xbe52acf1	-0.20573784
163	0xbb94c940	-0.0045405924
164	0xbd4abfa2	-0.04949916
165	0xbe9fb58f	-0.31193206
166	0xbea39783	-0.31951532
167	0x3e3e227a	0.1856784
168	0x3e78cbb5	0.24296458
169	0xbe8091ca	-0.25111228
170	0x3d847f90	0.06469643
171	0x3e3a181d	0.18173261
172	0x3e39f6af	0.18160509
173	0xbea6dd30	-0.32590628
174	0xbe2c418a	-0.16821876
175	0x3d727272	0.059191175
176	0xbe26a104	-0.1627236
177	0xbd40eb7e	-0.047099583
178	0xbe974017	-0.29541084
179	0xbd956105	-0.07293896
180	0x3e000662	0.12502435
181	0x3cb2b972	0.021816943
182	0xbcad737e	-0.021173235
183	0x3d65d83e	0.056114428
184	0x3eb69028	0.35656857
185	0x3e2f6b14	0.17130691
186	0x3d46bf65	0.04852237
187	0x3dd5e51f	0.10444092
188	0x3e763bbc	0.24046224
189	0x3e86444f	0.2622399
190	0xbd8b9334	-0.06815186
191	0xbdaf7e87	-0.08569055
192	0xbe2f97b4	-0.17147714
193	0x3d3e8eec	0.04652302
194	0x3d7b0f4d	0.06129389
195	0x3cb94126	0.022614073
196	0xbaacbaee	-0.0013178268
197	0xbcefa51d	-0.029253537
198	0x3e45904c	0.19293326
199	0x3e278257	0.16358314
200	0xbea83983	-0.32856378
201	0x3e9157b1	0.28387216
202	0x3eba890e	0.3643269
203	0xbe2cfd7d	-0.16893573
204	0xbd9cb38d	-0.07651434
205	0x3da9e888	0.08296305
206	0xbed19685	-0.4093515
207	0x3d749993	0.059716772
208	0x3e29b67b	0.16573517
209	0xbe23d0a4	-0.15997559
210	0x3e3d098a	0.1846067
211	0xbe1ae3ca	-0.15125957
212	0x3d98bbc2	0.07457687
213	0xbe3ecefc	-0.18633646
214	0xbd8df434	-0.06931344
215	0x3ee55c35	0.4479691
216	0xbe067f30	-0.13134456
217	0xbe37fd83	-0.17967801
218	0x3dc90ccd	0.09816895
219	0xbdb41449	-0.087929316
220	0xbe3bf9fa	-0.18357077
221	0xbe1b3ac7	-0.1515914
222	0x3d12a39f	0.035800572
223	0xbe814f42	-0.2525578
224	0xbe82b1aa	-0.25526172
225	0xb9d9a77e	-0.00041514257
226	0xbd95b048	-0.073090136
227	0x3e5e450a	0.21706024
228	0xbda33870	-0.07969749
229	0xbe2c0010	-0.16796899
230	0xbcf40361	-0.029786767
231	0xbc93f976	-0.018063288
232	0xbe339e67	-0.17540894
233	0x3e01ca63	0.1267486
234	0xbe87bef5	-0.26512876
235	0x3d936779	0.0719747
236	0xbe0ff308	-0.14057553
237	0xbd42b133	-0.04753227
238	0xbd963d21	-0.07335878
239	0x3e158257	0.14600502
240	0xbe654156	-0.22388205
241	0x3ea8e1a5	0.32984653
242	0x3daea2ba	0.085271314
243	0x3e475202	0.19464877
244	0x3d4d7022	0.050155766
245	0x3e15dd9c	0.14635319
246	0xbe531e98	-0.2061714
247	0x3e5b6175	0.21423896
248	0xbe6a71ba	-0.22894946
249	0xbc36df21	-0.0111615965
250	0x3c9bce1d	0.01901918
251	0xbe3e1e2a	-0.18566194
252	0xbe62a3d4	-0.22132808
253	0xbdde3f9b	-0.108519755
254	0xbe1dca5e	-0.15409228
255	0xbd9f3716	-0.07774179

linear.3.bias f4 [64]
0	0xbe3f7758	-0.1869787
1	0xbe1bc769	-0.15212788
2	0xbde05ff8	-0.109558046
3	0xbd3530d4	-0.04423602
4	0xbd3053d2	-0.043048687
5	0x3d87575f	0.066084616
6	0xbcd53e04	-0.026030548
7	0xbd73dab7	-0.059534755
8	0xbe10c39a	-0.14137116
9	0xbde51582	-0.11185743
10	0xbe2d5e82	-0.16930583
11	0xbe4d3ec4	-0.20043474
12	0xbde13ec0	-0.10998297
13	0xbe2f7745	-0.17135341
14	0xbdd11292	-0.1020862
15	0xbe25e224	-0.16199547
16	0xbde135f6	-0.1099662
17	0xbccf2b11	-0.02528909
18	0xbdfee08d	-0.124451734
19	0xbd03e227	-0.032198098
20	0x3dc2f18e	0.09518729
21	0x3e0f12a6	0.13971958
22	0xbde5ce23	-0.11220958
23	0xbe72b2e1	-0.2370105
24	0xbd0c8214	-0.03430374
25	0xbe8dd64f	-0.27702567
26	0xbe5f031b	-0.21778528
27	0xbe872250	-0.26393366
28	0xbe9a728d	-0.3016552
29	0xbe217514	-0.15767318
30	0xbe21c3d5	-0.1579736
31	0xbe26b1a4	-0.16278702
32	0xbe3cffa4	-0.18456894
33	0xbe344692	-0.17605045
34	0xbe4c74fa	-0.19966498
35	0xbd995b32	-0.07488097
36	0xbe1dd1ef	-0.15412115
37	0xbe0c243e	-0.136857
38	0x3b3db641	0.0028947743
39	0xbd8835c9	-0.06650884
40	0xbc7d234e	-0.015450312
41	0xbd8f87a2	-0.07008292
42	0xbd7cbc3a	-0.061702944
43	0xbe338828	-0.17532408
44	0x3c909b43	0.01765216
45	0x3955b2c0	0.00020379853
46	0xbe37fe41	-0.17968084
47	0xbe10f2a9	-0.14155068
48	0xbd8fa486	-0.07013802
49	0xbe0278c9	-0.12741388
50	0xbca4376b	-0.020045957
51	0xbdfc7b46	-0.123282
52	0x3c8a9249	0.016915457
53	0xbdee8431	-0.11646307
54	0xbe2f184d	-0.17099114
55	0xbe472fcd	-0.19451828
56	0xbdda4861	-0.106583364
57	0x3d53bc9f	0.051693555
58	0xbe7b3bf4	-0.24534589
59	0xbe0ad9cd	-0.13559647
60	0xbe6178fa	-0.22018805
61	0xbe12b47e	-0.14326665
62	0xbdc16351	-0.09442771
63	0xbe3a1990	-0.18173814

reg.weight f4 [2, 128]
0	0xbb63eef2	-0.0034779874
1	0xbe230b8e	-0.15922377
2	0x3decf1ab	0.11569532
3	0xbec0ed0c	-0.37680852
4	0x3df8d646	0.121502444
5	0x3d8c3fa5	0.06848077
6	0xbe30efa8	-0.17278922
7	0x3e3eb815	0.18624909
8	0x3b710b8a	0.003678056
9	0x3d30f3f3	0.043201398
10	0xbd4a31db	-0.049363952
11	0xbccb8f7c	-0.024848692
12	0x3d220e18	0.039564222
13	0x3baeee14	0.0053384397
14	0xbc0d55d0	-0.008626416
15	0x3dd39f48	0.10333115
16	0x3bb3873c	0.0054787677
17	0x3b94bef1	0.0045393636
18	0xbd0565dd	-0.032567848
19	0x3c2d0fd2	0.010562854
20	0xbb375126	-0.0027971952
21	0xbde7f425	-0.11325864
22	0x3ac2c00c	0.001485826
23	0x3e0538cb	0.13009946
24	0xbae6c14c	-0.0017605214
25	0xbade6380	-0.0016966909
26	0xbbd5c70c	-0.0065239724
27	0xb8a48a60	-7.845904e-05
28	0xbb9da31a	-0.004810703
29	0xbe0c020d	-0.13672657
30	0xbe7645b7	-0.24050032
31	0x3bcd8158	0.0062715225
32	0xbdb84fbc	-0.08999583
33	0x3c797fc4	0.015228216
34	0x3c251cd3	0.010077673
35	0x3c1a49dd	0.009417024
36	0x3cf6c55c	0.030123405
37	0x3b054b04	0.0020338902
38	0xbe53863d	-0.20656677
39	0xba57947a	-0.0008223724
40	0xbb482218	-0.00305379
41	0x3bfd0df4	0.0077226106
42	0x3bc4075c	0.0059823226
43	0xbbbee243	-0.0058253123
44	0xbe1452d6	-0.14484724
45	0xbdb853b9	-0.09000344
46	0xbae5fed0	-0.0017547254
47	0x3e4fcb2f	0.20292352
48	0xbe0203e2	-0.12696794
49	0x3b950f2c	0.004548928
50	0xbe56ee1b	-0.20989268
51	0x3b1ca776	0.0023903525
52	0xbdcf628a	-0.10126217
53	0xbd12c04f	-0.03582793
54	0x3d1cfac3	0.038325083
55	0x3c19836b	0.009369711
56	0x3c71c2b9	0.014755898
57	0x3c5d35e8	0.013501622
58	0xbab275c2	-0.0013615417
59	0x3df3be42	0.11901523
60	0xbcfb77f9	-0.030696856
61	0x3c09d23c	0.00841194
62	0xbc16a3d2	-0.009194331
63	0x3c7e787e	0.015531657
64	0x3e0b4d76	0.13603768
65	0x3dd458d7	0.10368507
66	0x3d798166	0.06091442
67	0xbd84cf5f	-0.064848654
68	0xbd51594e	-0.05111056
69	0xbcd98eec	-0.026557408
70	0xbba00a5c	-0.0048840474
71	0xbc1c6ea8	-0.009547867
72	0x3ca54577	0.020174725
73	0x3dd49d43	0.10381558
74	0x3bca01c3	0.006164761
75	0x3c359a55	0.011084159
76	0x3c1b3775	0.009473671
77	0x3af60758	0.0018770499
78	0x3baca59f	0.005268767
79	0xbaf98b5c	-0.0019038725
80	0x3b3de058	0.002897283
81	0x3d8e3bfd	0.069450356
82	0x3badcca9	0.0053039384
83	0x3c8d4965	0.017246911
84	0x3d0b2860	0.03397405
85	0xbc06b5a8	-0.008222021
86	0x3e1acc09	0.15116896
87	0xbdc985ca	-0.09839971
88	0x3d19fc06	0.037593864
89	0x3c269b0e	0.010168804
90	0x3b9f8ac2	0.004868836
91	0xbd7d8b9d	-0.061900724
92	0x3c5fb8e2	0.013654919
93	0xbd845283	-0.0646105
94	0xbc4fec96	-0.012690684
95	0xbce0c362	-0.027436916
96	0x3e267ed1	0.16259314
97	0x3c0b4e6c	0.008502584
98	0x3c5b142c	0.013371509
99	0x3d787828	0.060661465
100	0xbc21b438	-0.009869628
101	0xbdceaeca	-0.10091932
102	0xbe146e3b	-0.14495175
103	0xbc703b31	-0.01466255
104	0xbe015bb7	-0.12632643
105	0xb9a12b50	-0.00030740583
106	0x3e68175f	0.22665165
107	0x3d85b63c	0.06528899
108	0x3e0b9e17	0.13634525
109	0x3c1b3953	0.009474116
110	0x3c8c8cd3	0.017156994
111	0x3e3eff5c	0.186521
112	0xbbb04d29	-0.005380292
113	0xbb49c9e4	-0.0030790502
114	0xbbffe809	-0.007809643
115	0x3bfcb674	0.00771218
116	0x3c80df14	0.015731372
117	0xbc91c49e	-0.01779395
118	0x3e0f1fa4	0.13976914
119	0x3c8130df	0.015770374
120	0xbaf3316c	-0.0018554158
121	0x3c917a84	0.017758615
122	0x3b89d8ee	0.0042067682
123	0xbc939375	-0.018014649
124	0x3b90b4bf	0.004416078
125	0x3c8eda2a	0.017438013
126	0x3bb700b7	0.005584802
127	0xbc5f240a	-0.013619432
128	0x3b83ea45	0.00402573
129	0x3a479c27	0.0007614516
130	0x3bd19d09	0.006396894
131	0x3ab3c172	0.0013714267
132	0x3ba5697c	0.005047975
133	0xba8542c2	-0.001016699
134	0x3a91698e	0.001109408
135	0x3c010ab0	0.007876083
136	0x3b4d71a8	0.0031348262
137	0x3c2b5dc6	0.010459369
138	0x3c03b9b4	0.008039881
139	0x3af41240	0.0018621162
140	0xbc50362d	-0.012708229
141	0xba63fc5a	-0.0008696966
142	0x3be6bad1	0.007041313
143	0x3c51a71f	0.012796192
144	0x3aafd448	0.0013414705
145	0x3a45ec18	0.00075501343
146	0x3c2e14aa	0.010625044
147	0x3aa21339	0.0012365348
148	0x39d48288	0.00040533044
149	0x3c0f5b39	0.0087497765
150	0x39c7b608	0.00038091862
151	0xbcc0996f	-0.023510663
152	0xbb56a7a8	-0.003275374
153	0x3b0c3222	0.0021392186
154	0x3bc80e85	0.0061052465
155	0x39b17a48	0.00033851177
156	0x39f62f30	0.00046955934
157	0xbceaefed	-0.028678859
158	0xbb003341	-0.00195618
159	0xbb7922fa	-0.0038015232
160	0x3c951b87	0.018201603
161	0x3a918580	0.0011102408
162	0xbb5d5696	-0.0033773533
163	0x3b15eaa7	0.002287546
164	0xbb56f6e2	-0.0032800962
165	0xbb16d360	-0.0023014173
166	0x3b8b40bf	0.0042496617
167	0x3b03f622	0.002013572
168	0x3bc5670c	0.006024247
169	0x3b881bc6	0.0041537015
170	0x3b35fcd5	0.0027769108
171	0xbaa43dd0	-0.0012530629
172	0xbb3f6b65	-0.00292083
173	0xbbb68330	-0.005569838
174	0xbab68419	-0.0013924866
175	0x39138a96	0.0001407064
176	0xbbd439fd	-0.0064766393
177	0x3b628928	0.0034566615
178	0xbae7a1c9	-0.0017672117
179	0x3a3ff3ae	0.0007322383
180	0x3c324475	0.010880579
181	0xba91eced	-0.0011133231
182	0xbbe8f0e2	-0.0071087936
183	0x39a37628	0.00031177816
184	0xbb4a4e81	-0.0030869546
185	0xba448479	-0.00074965466
186	0xbafed78c	-0.00194429
187	0x3b5e39a4	0.0033908868
188	0xbb3044c2	-0.0026896452
189	0xbb1013ca	-0.0021984451
190	0x3bd0915e	0.0063649854
191	0xb99d7e73	-0.00030039586
192	0x3bd449c2	0.006478519
193	0xbc5713af	-0.0131272515
194	0x3e1c4b8c	0.15263194
195	0xbad0e962	-0.0015938694
196	0x3c738338	0.014862828
197	0xbabca281	-0.0014391692
198	0xbc2b6a6a	-0.010462383
199	0xbd9eb941	-0.07750178
200	0xbb08cfe8	-0.0020875875
201	0xbc29ddd0	-0.010367826
202	0xbc533536	-0.012891104
203	0xb7cb7580	-2.4254201e-05
204	0x3a9f14b8	0.0012136912
205	0xbbca6633	-0.006176734
206	0x3b6549b6	0.0034986562
207	0xba6cf82a	-0.0009039665
208	0x3d680add	0.056650985
209	0xbb96071b	-0.0045784838
210	0x3aa384c0	0.0012475476
211	0xbd82ab9a	-0.06380387
212	0x3b160f59	0.0022897332
213	0x39b49fdc	0.0003445138
214	0x3dbeef07	0.093229346
215	0x3a56edb4	0.00081988727
216	0xbbfb8587	-0.00767583
217	0xbc0f6e27	-0.00875429
218	0xbbf928d6	-0.007603745
219	0x3a6d726a	0.00090578815
220	0xbb83136f	-0.0040001194
221	0x3cc4f302	0.024041656
222	0xbbbf76d0	-0.005843021
223	0xbb2f3a4a	-0.0026737624
224	0x3aedd3c0	0.0018144771
225	0xba170c7a	-0.0005762052
226	0xbb853808	-0.0040655173
227	0xbbc5c73c	-0.0060357135
228	0xbb3192f3	-0.0027095645
229	0xbbce6cd0	-0.0062995926
230	0xba128a20	-0.000559004
231	0x3c87672e	0.016528692
232	0xbb0a7568	-0.0021127108
233	0xbae69408	-0.0017591724
234	0x3b7767b4	0.003775102
235	0xbcee4ee9	-0.029090362
236	0xbc194d48	-0.009356804
237	0xbb3b494a	-0.002857762
238	0xbaec181d	-0.0018012557
239	0xbcf535ce	-0.029932883
240	0xbe037ce3	-0.12840609
241	0xbdda434c	-0.10657367
242	0xba870f4f	-0.0010304245
243	0x3b8b34c2	0.0042482326
244	0xbb676332	-0.0035306928
245	0x3b86d097	0.0041142213
246	0xbc9c7ed2	-0.019103441
247	0xbc02e146	-0.00798828
248	0xbc208aef	-0.009798749
249	0x3abd53ed	0.0014444567
250	0xbb0b34f6	-0.0021241284
251	0xbb061634	-0.0020460011
252	0xbc09d004	-0.008411411
253	0xbb2e7921	-0.0026622491
254	0xbb21afaa	-0.0024671354
255	0x3c5549f3	0.013018119

reg.bias f4 [2]
0	0xbce6a6f5	-0.028155783
1	0x3b78ef8e	0.0037984583
