server/models/value_model100.pt (torch, 255203 bytes, 12 tensors)

conv.0.weight f4 [4, 1, 3, 3]
0	0xbc97f056	-0.018547218
1	0xbcf0cd79	-0.029394852
2	0x3d3ba075	0.04580732
3	0xbcc3e98e	-0.023915078
4	0xbccd96fc	-0.025096409
5	0xbd4ee964	-0.050515547
6	0x3bbff0b9	0.005857554
7	0xbe8fac55	-0.28061166
8	0xbbb7f3cc	-0.0056137796
9	0xbcf77eb6	-0.030211788
10	0xbe126dd8	-0.14299715
11	0x3bb92105	0.005649688
12	0x3c85f45e	0.016351875
13	0x3d1ecde3	0.038770568
14	0xbcdcd2ad	-0.026955927
15	0x3d319735	0.043357093
16	0xbeae80d9	-0.34082678
17	0xbd1f55a6	-0.03890004
18	0xbc2339f4	-0.009962548
19	0x3d894361	0.06702305
20	0xbea182e2	-0.31545168
21	0xbc77addb	-0.015117134
22	0x3e9e45b4	0.30912554
23	0x3ea4433c	0.32082546
24	0x3c86a6a2	0.016436879
25	0xbea88251	-0.32911924
26	0xbbbdd0d1	-0.005792715
27	0xbc25b3e5	-0.010113691
28	0xbf32d0bc	-0.69849753
29	0xbd9efba7	-0.077628426
30	0xbacc3b38	-0.0015581613
31	0x3da627b4	0.081130415
32	0x3e196d89	0.1498319
33	0xbb93e0a2	-0.0045128623
34	0xbe11e2bf	-0.14246653
35	0xbdb8990c	-0.090135664

conv.0.bias f4 [4]
0	0x3c606d66	0.013697958
1	0x3dd23688	0.10264307
2	0x3c3314dc	0.010930266
3	0x3d0db885	0.0345998

conv.2.weight f4 [4, 4, 3, 3]
0	0x3d151cf9	0.036404584
1	0x3ced9370	0.029000968
2	0x3d00fd5e	0.03149163
3	0x3c9d17a8	0.01917632
4	0xbbcb5b3f	-0.0062059457
5	0x3db6f35c	0.08933136
6	0x3d59b0f1	0.05314726
7	0x3d921241	0.07132388
8	0xbd0a12b5	-0.033709247
9	0xbc09f32e	-0.008419795
10	0xbc1bb515	-0.009503623
11	0x3d0c17af	0.034202274
12	0xbc6c025b	-0.014404858
13	0xbdc0f9a7	-0.094226174
14	0xbd338ea4	-0.043837205
15	0xbc57b165	-0.013164853
16	0xbd6e0571	-0.058110658
17	0xbc2f2f45	-0.010692422
18	0xbc077e45	-0.008269851
19	0x3cba73b1	0.022760244
20	0x3b7cae0c	0.0038555888
21	0xbcc738b6	-0.024319034
22	0xbd403bef	-0.046932157
23	0xbc177594	-0.009244341
24	0xbb14af74	-0.0022687586
25	0xbca83686	-0.020533811
26	0x3c2236ae	0.009900732
27	0xbc7fc52a	-0.015610972
28	0xbb2b8a60	-0.0026175007
29	0x3d2dbe19	0.04241762
30	0x3c4e143b	0.0125780655
31	0x3cf0a218	0.029374167
32	0x3c9eba2a	0.01937588
33	0x3ceced15	0.028921643
34	0x3d9d8e6e	0.07693182
35	0x3cf72874	0.030170657
36	0xbb169b9a	-0.002298093
37	0x3bf57690	0.0074909404
38	0xbd9fd1d2	-0.07803692
39	0xbc0d1644	-0.008611266
40	0xbd8de549	-0.06928498
41	0xbc6cae12	-0.0144457985
42	0x3c4dc5a7	0.012559331
43	0x3e38948e	0.18025419
44	0x3d2b8eb0	0.041884124
45	0x3b94fc6f	0.004546694
46	0xbb17bad8	-0.002315214
47	0xbebb0dbd	-0.3653392
48	0x3c4dccf4	0.012561072
49	0xbc190df6	-0.009341707
50	0x3ea03d64	0.31296837
51	0x3c146e68	0.009059526
52	0xbd4bf3db	-0.049793106
53	0xbe0c15ee	-0.1368024
54	0xbac3aaf0	-0.0014928263
55	0xbacac0fe	-0.0015468893
56	0xbd0b17b0	-0.033958137
57	0x3702a400	7.786788e-06
58	0xbc6942ac	-0.014237087
59	0xbfa8b237	-1.3179387
60	0xbc139408	-0.009007461
61	0xbcd1fa55	-0.025632063
62	0x3d55d495	0.052204687
63	0x3bc725a4	0.006077485
64	0x3c40f656	0.011777481
65	0x3e12e634	0.14345628
66	0x3a434c7a	0.00074500556
67	0x3c8c4181	0.017121078
68	0xbf25db13	-0.64787406
69	0x3b72ecba	0.003706737
70	0x3e258a44	0.16166025
71	0xbe5a0c89	-0.21293844
72	0x3af5d973	0.0018756822
73	0x3ae61cf1	0.0017556233
74	0xbd3de20a	-0.046358146
75	0xbb9d199f	-0.004794314
76	0x3cbbf00a	0.022941608
77	0x3d9222ca	0.07135542
78	0x3d01b6be	0.031668417
79	0x3c94223a	0.018082727
80	0x3caf6ad2	0.02141324
81	0xbc5ace08	-0.013354786
82	0x3bfa8bde	0.007646068
83	0xbcf71589	-0.030161636
84	0xbb68fd33	-0.003555131
85	0xbc63de06	-0.013907915
86	0xbe06a3ff	-0.13148497
87	0xbd406060	-0.04696691
88	0x3d5222a0	0.051302552
89	0xbd9c9297	-0.07645147
90	0x3bccf153	0.006254354
91	0x3ae12c7c	0.0017179395
92	0xbed318aa	-0.41229755
93	0xbbce93e1	-0.0063042496
94	0x3b45a392	0.003015731
95	0xbd06c893	-0.032906126
96	0x3bc2617c	0.005932031
97	0xbc2c940f	-0.010533347
98	0x3b8de89d	0.004330708
99	0x3bf0e96f	0.007352046
100	0xbccd1b66	-0.025037479
101	0xbea1c620	-0.3159647
102	0xbc86967e	-0.016429182
103	0x3b7fe228	0.0039044712
104	0x3da21b48	0.0791536
105	0x3af9f982	0.0019071552
106	0x3d0f8673	0.03504033
107	0x3dc24464	0.09485701
108	0xbcbf8fd4	-0.023384012
109	0x3de2def3	0.110776804
110	0x3cb1b66e	0.021693435
111	0x3da2a3b0	0.07941377
112	0xbc25046e	-0.010071857
113	0xbb0b1cbf	-0.002122685
114	0xbdb5a2ac	-0.08868918
115	0x3d1ad881	0.03780413
116	0x3d1c16a3	0.038107526
117	0xbcf5e8a6	-0.030018162
118	0xbd31f8c1	-0.04345012
119	0xbd4d1eb2	-0.0500781
120	0x3c1a6910	0.009424463
121	0x3daf9dff	0.08575057
122	0x3cc20741	0.0236851
123	0xbda76f45	-0.0817552
124	0xbd824395	-0.063605465
125	0xbd793b8b	-0.0608478
126	0x3915da4c	0.00014291069
127	0x3c5520d7	0.013008318
128	0xbbe5c09d	-0.0070114867
129	0x3c8b6fe8	0.017021134
130	0xbd13c594	-0.036077097
131	0xbd115104	-0.035477653
132	0x3b6471d2	0.0034857881
133	0xbd43fec6	-0.047850393
134	0x3b81aaa2	0.0039571086
135	0xbd54070f	-0.051764544
136	0x3ce1a860	0.027546108
137	0xbca7fd00	-0.020506382
138	0x3c2cf4e5	0.010556434
139	0xbd04badd	-0.03240477
140	0x3ca83c8e	0.020536687
141	0x3d0b9db5	0.034085948
142	0x3d827cca	0.06371458
143	0x3ae8cbb4	0.0017760904

conv.2.bias f4 [4]
0	0x3c4e2780	0.01258266
1	0x3d1b5aec	0.037928507
2	0x3bf60c47	0.007508788
3	0x3b62dce2	0.003461652

conv.5.weight f4 [64, 36]
0	0x3ccf065b	0.025271585
1	0x3dc2bc6d	0.095085956
2	0xbd4d68fe	-0.050148956
3	0xbc6cd271	-0.01445447
4	0xbc3fb5df	-0.011701076
5	0x3b950a63	0.0045483573
6	0xbb276cad	-0.0025546954
7	0x3d8214e5	0.063516416
8	0x3c396eaf	0.011317893
9	0xbc68294c	-0.014170002
10	0x3b406a48	0.0029360224
11	0x3ca67d39	0.020323383
12	0xbaf9aaa4	-0.0019048047
13	0x3ac82ca2	0.0015272091
14	0x3c322201	0.010872365
15	0xbb2fc5d4	-0.0026820796
16	0xbd016a44	-0.031595483
17	0xbb68b694	-0.0035509216
18	0xbd7d6b9c	-0.061870202
19	0xbd964c59	-0.07338781
20	0x3d2c02b6	0.041994773
21	0x3bdf5129	0.006815095
22	0xbcb19677	-0.021678193
23	0xbc2667bd	-0.010156569
24	0x3c781297	0.015141151
25	0xbbc1d6cf	-0.0059154998
26	0xbc2789a2	-0.010225685
27	0xbbf31c85	-0.0074191713
28	0xbd432e8f	-0.047651824
29	0x3d1cc442	0.038273104
30	0xbc8e90d6	-0.017403048
31	0x3c84eb8e	0.016225602
32	0xbcd61334	-0.026132204
33	0x3c1f08a2	0.009706648
34	0xb7e0a502	-2.6779719e-05
35	0xbd25dbfe	-0.040493004
36	0xbe705db5	-0.23473246
37	0x3e1c5744	0.15267664
38	0x3f5d97cb	0.8655974
39	0xbeca876f	-0.39556453
40	0x3ed42b34	0.4143921
41	0x3f29cdb6	0.66329515
42	0xbed57977	-0.41694233
43	0xbea209c0	-0.31648064
44	0x3d8ea06d	0.069641925
45	0xbf491db6	-0.7856096
46	0xbef7a0eb	-0.48364958
47	0xbf32bd09	-0.69819695
48	0x3e143599	0.14473571
49	0x3d7774dc	0.06041418
50	0x3dcb01d3	0.09912457
51	0x3d8e6e99	0.069546886
52	0x3dc05b7f	0.093924515
53	0xbfcd078d	-1.6017929
54	0xbf4349a7	-0.7628426
55	0x3d6d5b2b	0.057948273
56	0xbef7853e	-0.48343843
57	0x3f0a6972	0.54067147
58	0x3f0c6e31	0.5485564
59	0x3e9207f1	0.28521684
60	0x3e906a54	0.28206122
61	0x3d27a79a	0.04093132
62	0xbf80ea5b	-1.007152
63	0x3e52a341	0.20570089
64	0x3e1a60a4	0.15075928
65	0x3e63225e	0.22181079
66	0x3eb91b19	0.36153486
67	0x3e1136cd	0.14181061
68	0xbf2aff8e	-0.66796196
69	0x3af0ff66	0.0018386662
70	0xbf1ff142	-0.62477505
71	0xbf35d865	-0.71033317
72	0xbf2735f6	-0.6531671
73	0x3db8f974	0.090319544
74	0x3e607739	0.2192048
75	0xbd00c178	-0.031434506
76	0x3e811cac	0.25217187
77	0xbd3e01eb	-0.046388548
78	0xbd3b9b91	-0.045802657
79	0xbd63e87e	-0.055641644
80	0x3e804f70	0.25060606
81	0xbf9e177c	-1.2350917
82	0xbe8c556e	-0.27408928
83	0xbdff280d	-0.12458811
84	0x3d7e8b95	0.062144835
85	0x3d40b71b	0.047049623
86	0x3fc8b8a4	1.5681348
87	0x3e3c9102	0.18414691
88	0xbe32d06d	-0.1746232
89	0xbf25fac5	-0.6483577
90	0xbf25412a	-0.6455256
91	0xbc8fba0c	-0.017544769
92	0xbee1609f	-0.4401903
93	0x3d41e3d6	0.047336422
94	0x3eb9d846	0.36297816
95	0x3fbc50df	1.471218
96	0x3e884cdb	0.26621136
97	0x3e4f88b3	0.2026699
98	0xbfa89eb7	-1.3173436
99	0x3f0c3996	0.5477537
100	0x3e73d0cd	0.2381012
101	0x3d8f2b3b	0.069906674
102	0x3e461781	0.19344904
103	0xbea53f00	-0.32274628
104	0xbe466c44	-0.19377238
105	0x3d805d87	0.06267839
106	0xbe8686ba	-0.26274663
107	0xbde76ec3	-0.11300423
108	0x3e768f8b	0.24078195
109	0x3d0682f8	0.032839745
110	0xbdfc4390	-0.12317574
111	0xbd3420d7	-0.04397663
112	0x3c24b839	0.010053688
113	0x3e0791dc	0.13239235
114	0xbcd72920	-0.026264727
115	0xbd056ec1	-0.032576326
116	0x3c54b6dc	0.01298305
117	0x3f32174e	0.6956681
118	0x3b721f7f	0.0036945043
119	0x3f043b5c	0.51653075
120	0x3c822ddf	0.015891014
121	0x3c1e21c1	0.009651602
122	0xc095fab4	-4.6868534
123	0x3c59aa12	0.013285177
124	0x3e7b1f93	0.24523763
125	0x3f30eb90	0.6910944
126	0x3f17c943	0.59291476
127	0x3e10bc85	0.14134414
128	0x3e650ea8	0.22368872
129	0x3d3cdcf6	0.046109162
130	0x3c94d048	0.018165722
131	0xc037b40c	-2.8703642
132	0x3d02add4	0.031904057
133	0x3d908a73	0.07057657
134	0x3fd51fb1	1.6650296
135	0x3d884b07	0.06654935
136	0x3da60ae8	0.08107549
137	0xbb429cd4	-0.0029695528
138	0x3c3fa358	0.011696659
139	0xbccf7156	-0.025322597
140	0xbcad78d4	-0.02117578
141	0xbb0ebb3a	-0.0021779076
142	0x3d372fe0	0.04472339
143	0xbe153cc8	-0.14573967
144	0xbeac6baa	-0.3367589
145	0x3e5cfedf	0.215816
146	0x3e98996c	0.29804552
147	0xbdf8a70b	-0.12141236
148	0x3d4169cd	0.04722004
149	0x3e741c94	0.23839027
150	0xbf0ec32e	-0.5576657
151	0xbe541ea1	-0.20714809
152	0x3ec8429c	0.3911332
153	0xbf139124	-0.5764334
154	0x3d1f7521	0.038930062
155	0x3e4361c5	0.19080265
156	0x3d09d215	0.033647615
157	0x3c0e9346	0.008702105
158	0xbfa2932b	-1.2701162
159	0x3e297913	0.16550092
160	0x3ebb5f5b	0.36596188
161	0xbe4fb0ac	-0.20282239
162	0xbeb3113f	-0.34974095
163	0xbe0d82c3	-0.13819413
164	0x3d203896	0.039116465
165	0x3e5aa71a	0.21352807
166	0x3ef1f3b8	0.47256255
167	0xbf0770b3	-0.5290634
168	0x3e522ddc	0.20525306
169	0x3e4ffacc	0.20310515
170	0x3ea09c9e	0.3136949
171	0x3ee0b3a8	0.43887067
172	0x3ea1cafe	0.31600183
173	0x3eeac856	0.4585597
174	0x3e2fcd51	0.17168166
175	0xbdb1e6de	-0.086866125
176	0xbf2f9c06	-0.6859745
177	0xbe84cde0	-0.2593832
178	0xbeea2ac1	-0.45735744
179	0xbf1400a3	-0.5781347
180	0xbe512c66	-0.20427093
181	0x3c7c3eaf	0.015395804
182	0x3f185018	0.59497213
183	0xbe01ebe6	-0.12687644
184	0x3df13089	0.117768355
185	0x3ea03f7c	0.31298435
186	0xbea7a222	-0.32740885
187	0x39ac05ef	0.00032810817
188	0x3e937554	0.28800452
189	0xbe3ffc65	-0.18748625
190	0xbc77e95e	-0.015131323
191	0xbf241c8e	-0.6410607
192	0x3bd68c49	0.006547485
193	0x3d65c9b8	0.056100577
194	0xbf6d0e33	-0.9259979
195	0x3d1e6818	0.03867349
196	0x3daecd0a	0.08535202
197	0xbe517fc7	-0.204589
198	0xbe93a130	-0.28833914
199	0xbd2f107b	-0.042740326
200	0x3c0430b7	0.008068255
201	0x3ed2a455	0.41141
202	0x3e5b444f	0.21412776
203	0xbdc5b8d0	-0.09654391
204	0x3e9918dd	0.29901782
205	0xbdf56f38	-0.11984104
206	0x3efa6a11	0.48909047
207	0x3e37e498	0.17958295
208	0xbd89d3ff	-0.06729888
209	0x3efdff19	0.49608687
210	0xbd3b59b3	-0.04573984
211	0xbdaa34fd	-0.08310888
212	0xbd3ecea1	-0.046583775
213	0xbe8ce4ad	-0.27518216
214	0xbea30848	-0.31842256
215	0x3e4b2a80	0.19840431
216	0xbf37e2db	-0.7183053
217	0x3e25aee6	0.1618
218	0xbe68e6b9	-0.22744264
219	0xbc83c0a1	-0.016083064
220	0x3d9c6243	0.076359294
221	0x3e812b95	0.25228563
222	0xbee41296	-0.4454543
223	0x3b930970	0.004487209
224	0x3e56d885	0.20981033
225	0xbf3aa7e6	-0.7291244
226	0xb8cefc60	-9.869854e-05
227	0xbe5d74e8	-0.21626627
228	0xbbd191d0	-0.006395556
229	0xbc25634a	-0.010094473
230	0x3d11e38a	0.03561739
231	0x3b493649	0.0030702522
232	0x3e84fe3e	0.2597522
233	0xbe754d7a	-0.23955336
234	0xbf212e7d	-0.6296156
235	0xbdbeedf0	-0.09322727
236	0xbd529e88	-0.05142072
237	0x3ebccd98	0.36875606
238	0xbceb9e15	-0.028761903
239	0xbd5c29eb	-0.053750914
240	0x3c703737	0.014661602
241	0x3d7977e5	0.060905356
242	0xbe8cd1e4	-0.27503884
243	0x3f17f917	0.59364456
244	0xbe0a4b68	-0.13505328
245	0xbe136b7c	-0.14396471
246	0xbc374636	-0.011186173
247	0xbe11b554	-0.14229327
248	0x3db107b6	0.08644049
249	0xbeaa7dbe	-0.3329906
250	0xbeaecf56	-0.3414256
251	0x3da85719	0.082197376
252	0x3e029702	0.12752917
253	0x3de2dbd6	0.11077087
254	0x3e09607d	0.13415714
255	0xbcaa1b18	-0.020764872

conv.5.bias f4 [64]
0	0x3c9560e6	0.018234681
1	0xbf2747df	-0.6534404
2	0xbfa642dc	-1.2989154
3	0xbe845cfd	-0.25852194
4	0xbdd7c4c9	-0.10535581
5	0xbea3cd17	-0.3199241
6	0x3d8c44ef	0.068490855
7	0x3e21c4f3	0.15797786
8	0xbf0e0c4c	-0.55487514
9	0xbe50b16d	-0.20380183
10	0xc05c7571	-3.444668
11	0xc072b70c	-3.7924223
12	0xc0465f17	-3.0995538
13	0xc05de9d4	-3.4673967
14	0x39ed9d27	0.0004532125
15	0xc050bd11	-3.2615397
16	0x3c172fca	0.009227702
17	0xc05c3810	-3.4409218
18	0xbf87bfdd	-1.0605427
19	0x3c55b284	0.01304305
20	0xc07081fa	-3.7579331
21	0xc05b0362	-3.4220815
22	0xbf1655d3	-0.5872471
23	0xbbbc6088	-0.005748812
24	0xc05d19c8	-3.4546986
25	0xc01be64a	-2.4359307
26	0xbf08c145	-0.53419906
27	0xc03ffe62	-2.9999013
28	0xc0552d89	-3.3309042
29	0x3d1eb9bc	0.03875135
30	0x3f9ff232	1.2495787
31	0xc05d150c	-3.4544096
32	0x3a6eb532	0.00091059797
33	0x3ad180d5	0.001598383
34	0xc055061e	-3.3284984
35	0xba2485d2	-0.00062760443
36	0xc0693ce1	-3.6443408
37	0xc06f25ed	-3.7366898
38	0x3ec9acf7	0.39389774
39	0x3c48fb16	0.012266895
40	0xba2c4468	-0.00065714726
41	0x3bd5b100	0.006521344
42	0x3a09d54b	0.00052579184
43	0x3cf4a5e2	0.029864255
44	0xbeff0077	-0.49805042
45	0xbf5f0985	-0.871239
46	0xc05d86ee	-3.4613605
47	0x3f0b24cb	0.54353017
48	0xc045c67e	-3.09024
49	0xbfa1921a	-1.2622712
50	0xbf22fd3e	-0.63667667
51	0xc04ab1d8	-3.1671047
52	0x3c9bb163	0.019005483
53	0xc04bdc16	-3.185308
54	0xbe0d4e7f	-0.13799475
55	0xbf093e04	-0.53610253
56	0x3b834463	0.004005955
57	0xbbfc5a6c	-0.007701209
58	0xc05d93ec	-3.4621534
59	0xbf035d49	-0.51314217
60	0xbf5b12c2	-0.855755
61	0xbf18b25a	-0.5964714
62	0xc05e0b1c	-3.469428
63	0xbc2ef3f7	-0.010678283

linear.1.weight f4 [256, 169]
0	0x3bc14700	0.0058983564
1	0x3d20e03a	0.03927634
2	0x3d72750a	0.05919365
3	0x3d5dbe1e	0.054136388
4	0xbcd126a8	-0.025531128
5	0xbcb52cb6	-0.022116046
6	0x3d010c74	0.031506017
7	0x3d1dd234	0.038530543
8	0x3d5657c6	0.0523298
9	0xbdcc522a	-0.09976609
10	0x3c787cb8	0.015166454
11	0xbc396a70	-0.011316881
12	0x3d03d2f0	0.032183588
13	0x3d46dfb6	0.04855319
14	0xbb09e940	-0.002104357
15	0xbc6f51f8	-0.014606945
16	0x3bce9590	0.0063044503
17	0xbd34ef54	-0.044173554
18	0xbd9a52c0	-0.075353146
19	0xbcaab740	-0.020839334
20	0x3d975cdd	0.07390759
21	0xbecc0ba4	-0.3985263
22	0x3d4794f5	0.04872604
23	0x3c4e5ff0	0.0125961155
24	0xbd827194	-0.063693196
25	0xbd86bb78	-0.065787256
26	0xbc8b2aec	-0.01698824
27	0x3d1cfd18	0.038327307
28	0x3cd04040	0.025421262
29	0xbb321e40	-0.0027178675
30	0x3cf3f8c4	0.029781707
31	0xba2b2c80	-0.00065297633
32	0xbd362a2a	-0.044473805
33	0x3dc8260a	0.097728804
34	0xbead2c6b	-0.3382295
35	0xbeb62016	-0.35571355
36	0x3ca0ab64	0.019612975
37	0x3cabbd10	0.020964175
38	0xbd2e71d4	-0.042589024
39	0x3d7eb02e	0.062179737
40	0x3d32cb9c	0.04365121
41	0xbd6449dc	-0.0557345
42	0xbd4ffbda	-0.050777294
43	0xbd650ba0	-0.05591929
44	0x3e622fd4	0.22088557
45	0x3e26fd72	0.16307619
46	0x3ad23863	0.0016038533
47	0xbf342686	-0.7037128
48	0x3ea6c0a5	0.3256885
49	0xbf20f0af	-0.62867254
50	0x3dd8a9a7	0.105792336
51	0x3cbb8d2f	0.02289447
52	0x3d25543e	0.040363543
53	0x3d4d1992	0.050073214
54	0xbc04b2d8	-0.00809928
55	0x3e8969ec	0.26838624
56	0xbf0fa1a0	-0.56105995
57	0x3e58dbab	0.21177547
58	0xbe0c87bd	-0.13723655
59	0xbdc5a7ee	-0.09651171
60	0x3dbadf63	0.09124639
61	0xbed43a78	-0.41450858
62	0xbe6a5cb4	-0.22886926
63	0x3db30324	0.087408334
64	0xbd53d9d2	-0.0517214
65	0xbcd332a2	-0.02578098
66	0xbd41b696	-0.04729327
67	0xbd1df925	-0.03856768
68	0xbefe99d4	-0.49726737
69	0xbde052d9	-0.10953302
70	0xbe3f56c1	-0.18685438
71	0x3dbd04d4	0.092294365
72	0x3dc40fe4	0.095733434
73	0xba680a3c	-0.00088516227
74	0x3e9932af	0.2992148
75	0xbe4fde9f	-0.20299767
76	0xbd581f8a	-0.052764453
77	0x3d01c380	0.031680584
78	0x3ced6664	0.028979488
79	0xbd12d060	-0.035843253
80	0x3ce8fe40	0.028441548
81	0x3cc8bb48	0.024503365
82	0xbe8996ad	-0.2687277
83	0xbf06d1d7	-0.5266394
84	0xbeb5e6be	-0.35527605
85	0x3c92bccc	0.017912291
86	0xbf55653f	-0.83357614
87	0x3f042eb2	0.5163375
88	0x3d215646	0.039388917
89	0x3d4fdd2e	0.050748043
90	0xbd08a254	-0.033357933
91	0xbd119885	-0.035545845
92	0xbd99a67a	-0.07502456
93	0xbecb6048	-0.39721894
94	0xbe4cbd3b	-0.1999406
95	0xbe96f416	-0.29483098
96	0xbe9bf09c	-0.30457008
97	0xbe2a1d50	-0.16612744
98	0x3cc40e80	0.023932695
99	0xbe71c27d	-0.23609348
100	0xbe8e7796	-0.27825612
101	0x3d5d6b0e	0.054057173
102	0xbd72ab40	-0.059245348
103	0xbc8ed650	-0.017436177
104	0xbc3f7e08	-0.011687763
105	0xbc9cb7d8	-0.019130632
106	0x3cea32b3	0.028588628
107	0xbe71fafa	-0.23630896
108	0xbe8aa6de	-0.27080435
109	0xbe963fb9	-0.29345492
110	0xbd524afe	-0.05134105
111	0x3ddbf443	0.107399486
112	0x3cf7c88f	0.030247001
113	0xbe49ec4b	-0.19719045
114	0x3cd8e730	0.026477426
115	0x3d3f3abc	0.046686873
116	0xbcde4624	-0.027133055
117	0xbdd240fa	-0.102662995
118	0xbe48e047	-0.19616805
119	0xbe4f7e20	-0.20262957
120	0xbea36598	-0.31913447
121	0xbd601d53	-0.054715466
122	0xbe497706	-0.1967431
123	0xbe5ba125	-0.2144819
124	0x3e3a2a73	0.18180256
125	0x3e027253	0.12738924
126	0x3d41b0b0	0.047287643
127	0x3d6b52d6	0.057452045
128	0xbd023288	-0.03178647
129	0x3d8b80e1	0.06811691
130	0x3d4ccf6e	0.050002508
131	0xbcde7b76	-0.02715848
132	0x3d822ae7	0.06355839
133	0xbd167b7d	-0.03673886
134	0xbe89e5f0	-0.2693324
135	0xbe6812f4	-0.2266348
136	0xbd18284a	-0.037147798
137	0x3d4d4172	0.05011124
138	0x3c2d3d18	0.010573648
139	0xbc389280	-0.011265397
140	0xbd006dbb	-0.031354647
141	0x3d787802	0.060661323
142	0x3d8d7df7	0.069087915
143	0xbd2d5a6a	-0.042322554
144	0x3d1cff28	0.038329273
145	0x3d3c5b2a	0.04598538
146	0xbdda118a	-0.106478766
147	0x3d641cf7	0.055691686
148	0x3ce5f6ec	0.028071843
149	0x3b8b1140	0.0042439997
150	0x3c2b12a0	0.010441452
151	0xbc1f2c78	-0.009715192
152	0x3cf47154	0.029839195
153	0x3d7963e6	0.060886286
154	0x3d499536	0.049214564
155	0x3d03918a	0.03212122
156	0xbd799774	-0.060935453
157	0x3c909bf8	0.017652497
158	0xbd3c6846	-0.04599788
159	0x3d845a03	0.06462481
160	0x3d013fbc	0.031554922
161	0xbbeb8250	-0.0071871653
162	0xbd92019f	-0.071292154
163	0x3d6a9f76	0.05728098
164	0xbd496499	-0.049168203
165	0x3cb427e8	0.021991685
166	0x3d4b4d0a	0.049634017
167	0x3c957ee4	0.018248983
168	0x3d1dd670	0.03853458
169	0x3d6dc3be	0.058048002
170	0xbd8e800f	-0.06958019
171	0xbd8a61d6	-0.06756942
172	0x3c380838	0.011232428
173	0x3ce9ba28	0.028531149
174	0xbd8e065d	-0.069348074
175	0x3c5a84d8	0.0133373365
176	0xbd16947b	-0.036762696
177	0xbd8b0b95	-0.067893185
178	0xbe4e20ba	-0.20129672
179	0x3d3c1ce8	0.045926005
180	0xbb175f60	-0.002309762
181	0xbd542106	-0.051789306
182	0xbcb61dd4	-0.02223102
183	0xbc22a850	-0.009927824
184	0xbca07414	-0.0195866
185	0x3d22d6be	0.039755575
186	0xbc8e3c32	-0.017362688
187	0xbd5b5696	-0.05354937
188	0xbd3dd1e6	-0.046342753
189	0x3d8058bb	0.06266924
190	0x3d5ddb47	0.054164197
191	0xbe2d2a28	-0.16910613
192	0xbd081259	-0.033220623
193	0x3c9aedac	0.018912159
194	0xbd7b6ee6	-0.061385058
195	0xbd759319	-0.059954736
196	0x3d6b287a	0.05741165
197	0x3a7eb280	0.00097159296
198	0xbcc07f6c	-0.02349826
199	0x3cdb0b40	0.026738763
200	0xbd1f861b	-0.038946252
201	0xbbee6290	-0.007274933
202	0xbf29ece4	-0.6637709
203	0x3cb1e2e4	0.021714635
204	0x3d930dd4	0.07180372
205	0x3c93262c	0.017962538
206	0x3cda2940	0.026630998
207	0x3b4f4980	0.0031629503
208	0x3b8d25a0	0.0043074638
209	0x3d0f5c20	0.034999967
210	0xbc8c94e8	-0.017160848
211	0xbd22faa0	-0.039789796
212	0xbdade1d0	-0.08490336
213	0x3ea47688	0.32121682
214	0x3dc5c3a0	0.09656453
215	0xbde59fc3	-0.11212113
216	0x3e9185b2	0.28422314
217	0x3d282f40	0.041060686
218	0xbe094471	-0.13405015
219	0xbda04905	-0.07826427
220	0xbd97327e	-0.073826775
221	0xbd3601b2	-0.04443521
222	0xbcdfb13c	-0.027306192
223	0xbd78f4cd	-0.060780335
224	0xbe3c3daa	-0.18382898
225	0xbd8f5c3e	-0.07000016
226	0xbe1c4b9b	-0.15263216
227	0xbeb022fd	-0.34401694
228	0xbdd7e4fe	-0.10541724
229	0xbe18e077	-0.14929377
230	0x3dd53f33	0.10412445
231	0xbdfc044a	-0.123055056
232	0xbe40477b	-0.18777268
233	0xbd2a2a1e	-0.041544072
234	0x3d5c58d6	0.053795658
235	0xbcf2c48a	-0.029634733
236	0xbd4655b9	-0.048421595
237	0x3dc0387f	0.09385776
238	0xbe6e06cc	-0.2324478
239	0xbf01934d	-0.5061539
240	0xbdfe07e5	-0.124038495
241	0xbf10532e	-0.5637692
242	0xbeac54fd	-0.3365859
243	0xbf2d950f	-0.6780557
244	0x3d765368	0.060138136
245	0xbd27ad3b	-0.04093669
246	0x3d8a379b	0.06748887
247	0xbcb1969e	-0.021678265
248	0x3d21f73e	0.03954243
249	0x3d47c376	0.04877039
250	0xbd6d1920	-0.05788529
251	0xbe268ac3	-0.16263871
252	0xbcb483df	-0.022035537
253	0x3d98a48b	0.07453259
254	0xbe87df79	-0.26537684
255	0xbeb396e8	-0.3507607

linear.1.bias f4 [256]
0	0xbe45bdf0	-0.19310737
1	0xbe7a148d	-0.24421902
2	0xbe468b80	-0.19389153
3	0xbe85bbd5	-0.26119867
4	0x3dacbdbb	0.08434626
5	0xbeb8b0f6	-0.3607251
6	0x3da3e06c	0.080017895
7	0xbd9a85c0	-0.07545042
8	0xbee9ce90	-0.45665407
9	0xbefee11d	-0.49781123
10	0xbebb7439	-0.36612108
11	0xbe751bbf	-0.23936366
12	0x3dbfb6ad	0.093610145
13	0xbea95761	-0.33074477
14	0xbef7bcb5	-0.4838616
15	0xbece17a7	-0.4025242
16	0xbe83a526	-0.25711936
17	0xbe9e23e6	-0.30886763
18	0xbea6e21d	-0.32594386
19	0xbe6a7bc8	-0.22898781
20	0x3e309c1d	0.17247052
21	0xbe6ee419	-0.233292
22	0xbedc6cb1	-0.43051675
23	0xbe04940b	-0.12947099
24	0x3bfafc98	0.007659506
25	0xbe154a16	-0.14579043
26	0x3dbff926	0.09373693
27	0xbda4f3a5	-0.08054284
28	0xbe91e0c9	-0.2849181
29	0xbe1fa729	-0.1559111
30	0xbf515104	-0.81764245
31	0xbde60d6a	-0.11233027
32	0xbeed2958	-0.46320605
33	0xbe399edb	-0.18127005
34	0xbed954a7	-0.42447397
35	0xbe2a1080	-0.16607857
36	0xbe2142ad	-0.15748091
37	0xbe8a83ea	-0.27053767
38	0xbe8da187	-0.27662298
39	0xbed08139	-0.4072359
40	0xbe4a3175	-0.19745429
41	0xbf2b3721	-0.66880995
42	0xbe7299f2	-0.23691538
43	0xbe46dbc2	-0.19419768
44	0xbefd60f9	-0.49488047
45	0xbeab199b	-0.33417973
46	0xbd575254	-0.05256875
47	0xbd5cbe19	-0.05389223
48	0xbf0a0efd	-0.5392912
49	0xbc8db31d	-0.017297322
50	0xbe1a42f4	-0.15064603
51	0xbe9a6cf3	-0.30161247
52	0x3d0aa221	0.033846024
53	0xbe3d679c	-0.18496555
54	0xbe18185d	-0.14853044
55	0xbf1ff6dc	-0.6248605
56	0xbd369cda	-0.04458318
57	0xbe1fec3a	-0.15617457
58	0xbe71eb1c	-0.23624843
59	0xbdef51ac	-0.116854995
60	0xbe9e4267	-0.30910036
61	0xbe994f9b	-0.29943547
62	0xbe80f5b4	-0.25187457
63	0xbdbe7fa3	-0.093016885
64	0xbea63ea7	-0.32469675
65	0xbe27e6cd	-0.16396637
66	0xbeb70796	-0.35747975
67	0xbeb6cf04	-0.35704815
68	0xbeaa1e4b	-0.33226237
69	0xbe96b87c	-0.29437625
70	0xbe497b56	-0.19675955
71	0xbebac7df	-0.36480615
72	0xbea04872	-0.3130527
73	0xbe9ae39a	-0.3025177
74	0xbdb7f77d	-0.089827515
75	0xbe98fd47	-0.29880735
76	0xbe82d722	-0.25554758
77	0xbe6ef38e	-0.23335096
78	0xbe41c418	-0.1892246
79	0xbcd1b083	-0.025596863
80	0xbe98d1eb	-0.29847655
81	0xbcbb415a	-0.02285831
82	0xbe126920	-0.14297915
83	0xbe3b4bc1	-0.18290617
84	0xbed6bd38	-0.41941237
85	0xbe6b9216	-0.23004946
86	0xbeb64231	-0.35597375
87	0xbdb8eed9	-0.090299316
88	0xbf447587	-0.7674183
89	0xbe3a9813	-0.18222074
90	0xbe0416d3	-0.12899332
91	0xbe8dee51	-0.27720883
92	0x3df35b15	0.11882607
93	0xbe082838	-0.13296592
94	0x3d57b567	0.052663233
95	0xbe1d08df	-0.15335415
96	0xbe5a9470	-0.21345687
97	0xbe3717c6	-0.17880163
98	0x3d372bd4	0.044719532
99	0xbe86ab89	-0.26302746
100	0xbe6e0d82	-0.2324734
101	0xbcdea394	-0.02717761
102	0xbe36937f	-0.17829703
103	0xbef765c8	-0.4831984
104	0xbc9cbcd4	-0.019133009
105	0xbdd5746c	-0.10422596
106	0xbf426751	-0.759389
107	0xbe0acb06	-0.1355401
108	0xbdab2cff	-0.08358192
109	0xbe933734	-0.28753054
110	0xbe9bbe43	-0.30418596
111	0xbe37ddef	-0.17955755
112	0xbe6f410f	-0.23364662
113	0xbe085a33	-0.13315658
114	0xbd215683	-0.039389145
115	0xbd4db484	-0.05022098
116	0xbea7a5a6	-0.32743567
117	0xbdfdd6c2	-0.123944774
118	0xbd6fbfbf	-0.058532473
119	0xbed55eff	-0.4167404
120	0xbeab12ad	-0.33412686
121	0xbeaefe25	-0.34178272
122	0xbe91c67d	-0.28471747
123	0xbe7fc633	-0.24977951
124	0xbe2f7405	-0.17134102
125	0xbf855920	-1.0417824
126	0xbe05192a	-0.1299788
127	0xbed24a72	-0.41072422
128	0xbe8c6953	-0.27424106
129	0xbe059287	-0.13044177
130	0xbeac0b0c	-0.33602178
131	0xbd2313c9	-0.03981379
132	0xbf315529	-0.6927057
133	0xbeffee68	-0.49986577
134	0xbe730bde	-0.23734996
135	0xbe220a08	-0.15824139
136	0xbd49b572	-0.049245305
137	0xbe66c221	-0.22534992
138	0xbea3c665	-0.319873
139	0xbe40256a	-0.18764272
140	0xbe7804ac	-0.24220532
141	0xbea84239	-0.32863024
142	0xbd35e1e0	-0.044404864
143	0xbebe3fee	-0.3715815
144	0xbeaac5a9	-0.33353928
145	0xbef5b8a3	-0.4799243
146	0xbe03ff13	-0.12890272
147	0xbeaac533	-0.33353576
148	0xbe95b916	-0.29242772
149	0x3c92d254	0.017922558
150	0x3e8643f3	0.26223716
151	0xbe67a444	-0.22621256
152	0xbd9fb3a2	-0.07797934
153	0xbd7244d8	-0.059147686
154	0xbc8fcd50	-0.017553955
155	0xbdbdf5da	-0.09275408
156	0xbeb15b7f	-0.34640118
157	0xbe208612	-0.15676144
158	0xbefe57fb	-0.496765
159	0xbce84071	-0.02835104
160	0xbdfcc610	-0.12342465
161	0xbd7450c2	-0.05964733
162	0xbe41c107	-0.1892129
163	0xbe3bd9c5	-0.18344791
164	0xbe57f0f3	-0.21088009
165	0xbe68d1e5	-0.22736318
166	0x3ea8f359	0.3299816
167	0xbe1c032c	-0.15235585
168	0xbe4b0208	-0.19824994
169	0xbe5b760e	-0.21431753
170	0xbe83bb7f	-0.25728986
171	0xbecdb950	-0.40180445
172	0xbec31ef6	-0.3810956
173	0xbe036d32	-0.12834623
174	0xbe9a0d9b	-0.30088505
175	0xbf0f8394	-0.5606015
176	0xbf5ad58d	-0.854821
177	0xbdf070d2	-0.11740269
178	0xbe5d7d99	-0.21629943
179	0xbe7fd461	-0.2498336
180	0xbd953c58	-0.072869
181	0xbf078c7f	-0.52948755
182	0x3d9bbe9a	0.07604714
183	0xbe76f04d	-0.24115105
184	0xbf061083	-0.52368945
185	0xbf0309c7	-0.51186794
186	0x3dec1390	0.11527169
187	0xbe8adbd8	-0.27120852
188	0xbf3732ae	-0.71561706
189	0xbeb2d7bc	-0.34930217
190	0xbed45678	-0.4147222
191	0xbf06b5eb	-0.52621335
192	0xbc85bbbe	-0.016324874
193	0xbeb9e931	-0.36310723
194	0xbe7dcb22	-0.2478452
195	0xbe653fd6	-0.22387633
196	0xbeb3ed54	-0.35142004
197	0xbec92802	-0.39288336
198	0xbee25fbc	-0.44213665
199	0xbef02810	-0.46905565
200	0x3d1534d7	0.036427345
201	0xbf109ead	-0.5649212
202	0xbed2892f	-0.41120288
203	0xbe54c5aa	-0.20778528
204	0xbe9209cd	-0.28523102
205	0xbf0a17fd	-0.53942853
206	0xbe94a989	-0.29035595
207	0xbe32a62c	-0.17446202
208	0xbe891bfe	-0.2677917
209	0xbcac89c8	-0.021061793
210	0xbef63136	-0.4808442
211	0xbeaa9b42	-0.33321577
212	0xbea45925	-0.32099262
213	0xbe4b4f81	-0.19854547
214	0xbeff7d0a	-0.49900085
215	0xbee655d3	-0.44987354
216	0xbe4deed9	-0.20110644
217	0xbe86c233	-0.26320037
218	0xbe934847	-0.2876608
219	0xbed69674	-0.41911662
220	0xbe87bcaa	-0.26511127
221	0xbe3e3715	-0.185757
222	0xbef757d3	-0.48309192
223	0xbe759073	-0.23980884
224	0xbe8f81a9	-0.2802861
225	0xbe85770a	-0.26067382
226	0xbea55b20	-0.32296085
227	0xbee748e0	-0.45172787
228	0xbebb6e87	-0.36607763
229	0xbd8670a9	-0.06564457
230	0xbd982b36	-0.07430117
231	0xbe9f4fce	-0.31115574
232	0xbe232f54	-0.15936023
233	0xbed45ee0	-0.41478634
234	0xbeadbdd9	-0.33933905
235	0xbec7c99a	-0.39020997
236	0xbe2aac11	-0.166672
237	0xbf11bd83	-0.56929797
238	0xbe966e4a	-0.2938102
239	0xbdc2577e	-0.09489344
240	0xbea7dd94	-0.32786238
241	0xbe8a5835	-0.27020422
242	0xbe697b49	-0.22800936
243	0xbe9f930b	-0.31166872
244	0xbe2545ac	-0.16139859
245	0xbe643130	-0.22284389
246	0x3d3c652f	0.045994934
247	0xbeffe57c	-0.4997977
248	0xbd8c3614	-0.06846252
249	0xbea35fdb	-0.3190907
250	0xbebff775	-0.37493482
251	0xbec1172a	-0.37712985
252	0x3c13ff10	0.00903298
253	0x3d7b454f	0.061345395
254	0xbe908557	-0.2822673
255	0xbea6df31	-0.32592157

linear.3.weight f4 [64, 256]
0	0xbaf361a6	-0.001856853
1	0x3f232272	0.63724434
2	0x3d2828a7	0.041054394
3	0x3e981112	0.29700524
4	0xbc12cb56	-0.008959612
5	0x3d781cf4	0.060574487
6	0x3e46d5ee	0.19417545
7	0xbd6eea31	-0.05832881
8	0x3dca133a	0.098669484
9	0x3f56774a	0.8377577
10	0xbd2c8987	-0.042123344
11	0x3ebb1a20	0.3654337
12	0xbdb73642	-0.08945896
13	0x3ce10bbc	0.027471416
14	0x3ea368b0	0.31915808
15	0x3f8a4f0d	1.0805374
16	0x3e41168e	0.1885626
17	0xbe42bf3f	-0.19018267
18	0x3ef2b235	0.47401586
19	0x3e784cca	0.24248043
20	0x3d858f0d	0.065214254
21	0x3dde837a	0.10864921
22	0x3f17d9ce	0.5931672
23	0xbdda691b	-0.106645785
24	0xbd7da27a	-0.061922528
25	0xbdc3636c	-0.095404476
26	0xbd489dcf	-0.048978623
27	0x3ed501e9	0.4160302
28	0x3e2d5bd9	0.16929568
29	0xbc2edd16	-0.010672828
30	0x3f52980f	0.82263273
31	0x3cb41380	0.021981955
32	0x3f0a83b8	0.54107237
33	0xbc3cd26e	-0.01152478
34	0x3f0165a0	0.5054569
35	0xbe6c79cf	-0.23093341
36	0xbd703b5a	-0.058650352
37	0x3ed90bc6	0.42391795
38	0x3dd8827f	0.10571765
39	0x3f4923d3	0.7857029
40	0xbcc2ad9b	-0.023764422
41	0x3e34b81d	0.17648359
42	0x3de2d996	0.110766575
43	0xbc9f64ff	-0.019457338
44	0x3f6d6f0a	0.9274756
45	0xbe51b2aa	-0.20478311
46	0x3e58d367	0.21174394
47	0x3d567682	0.05235911
48	0xbd1c83ef	-0.03821176
49	0xbdb3acc8	-0.0877319
50	0xbeb0b29d	-0.3451127
51	0x3ea8b3c9	0.32949665
52	0x3e0231ca	0.12714306
53	0xbdc28710	-0.094984174
54	0x3e10b54f	0.14131664
55	0x3cdeba8d	0.027188564
56	0xbceb378f	-0.028713016
57	0x3ed04145	0.40674797
58	0x3c5a11c8	0.013309903
59	0x3dfba321	0.12286974
60	0x3bb9cf0c	0.005670434
61	0x3e06abcc	0.13151473
62	0xbe237270	-0.15961623
63	0x3c8150e3	0.01578564
64	0x3f617e9a	0.88083804
65	0x3ad019b0	0.0015876796
66	0x3e4b416c	0.19849175
67	0xbd74b675	-0.059744317
68	0x3f0bb21c	0.5456865
69	0x3db72fd6	0.08944671
70	0x3f27c2fb	0.6553189
71	0x3ec774d2	0.38956314
72	0xbe17679d	-0.14785619
73	0x3e8c97ef	0.27459666
74	0xbdc37ac9	-0.09544904
75	0xbd11ef15	-0.035628397
76	0x3f0f5177	0.5598368
77	0x3d2a8ec6	0.041640066
78	0xbcb49e55	-0.022048155
79	0xbe5bc427	-0.21461545
80	0x3c19efc5	0.009395544
81	0xbddcffe3	-0.10790994
82	0xbb858b43	-0.004075439
83	0x3d8db603	0.069194816
84	0x3e45eacc	0.19327849
85	0x3ef2496e	0.47321647
86	0x3f6ec70e	0.93272483
87	0x3cc769a3	0.024342364
88	0x3f130985	0.574364
89	0xbdeb8ae9	-0.115011044
90	0x3de128f6	0.10994141
91	0x3e1a9d16	0.15098986
92	0x3de28c02	0.110618606
93	0xbd1bb7c9	-0.038017068
94	0x3d7e6bfa	0.062114693
95	0xbe3498f0	-0.17636466
96	0xbe2e6eb1	-0.17034413
97	0x3de341e9	0.11096556
98	0x3e6c194c	0.23056525
99	0xbd310f9e	-0.043227784
100	0x3de04f7c	0.109526604
101	0xbd577ad8	-0.052607387
102	0xbc8bb627	-0.01705463
103	0x3e7f5e98	0.24938428
104	0xbe12ce72	-0.14336565
105	0x3db1e13e	0.0868554
106	0x3e78c8e5	0.24295385
107	0xbe60a507	-0.21937953
108	0x3d400d99	0.046887968
109	0x3d3e17f9	0.04640958
110	0x3e6aa3b9	0.22914018
111	0x3d742336	0.059603892
112	0x3f836584	1.0265355
113	0x3d90851a	0.07056637
114	0xbcc45075	-0.023964146
115	0x3e2e2f4f	0.17010234
116	0x3e8a67de	0.2703237
117	0xbead4e23	-0.33848676
118	0x3e6dbd51	0.2321675
119	0xbcd00969	-0.025395112
120	0x3ea979a5	0.3310062
121	0x3ee4795b	0.44623837
122	0x3eb77892	0.35834175
123	0x3bcec86f	0.0063105146
124	0x3bbead0f	0.00581897
125	0x3eb5d050	0.35510492
126	0x3c35f971	0.011106835
127	0x3f295348	0.661427
128	0x3e02469f	0.12722252
129	0xbd48b468	-0.049000174
130	0x3d773501	0.060353283
131	0x3e47ba68	0.19504702
132	0x3f3d3ef4	0.73924184
133	0x3f86da42	1.0535357
134	0xbc0f3f00	-0.008743048
135	0x3cc26fcf	0.023734955
136	0x3d3cf9c2	0.046136625
137	0xbdc0e48f	-0.09418594
138	0x3f2e62cc	0.681195
139	0x3db2ff8c	0.08740148
140	0x3f2e4bc1	0.6808434
141	0x3f346b09	0.7047582
142	0x3c87658b	0.016527912
143	0x3e7ada5d	0.24497361
144	0xbf0e9261	-0.55692106
145	0xbd666501	-0.05624867
146	0x3d802060	0.06256175
147	0x3ddbf660	0.10740352
148	0x3c93f9de	0.018063482
149	0xbd8a9a37	-0.067676954
150	0x3d187bae	0.037227325
151	0xbd6ba4e7	-0.05753031
152	0xbd9898c5	-0.074510135
153	0x3b30768e	0.0026926133
154	0xbdb4c8ef	-0.088273875
155	0xbe472e70	-0.19451308
156	0x3e4b8187	0.1987363
157	0x3dd79d50	0.10528052
158	0x3d701cf6	0.05862137
159	0xbdf0d63e	-0.117596135
160	0xbde142fb	-0.10999104
161	0x3cc2115a	0.023689914
162	0x3d56b316	0.052416883
163	0xbd4e2cba	-0.050335623
164	0xbea9f80b	-0.33197054
165	0xbe0c1d91	-0.13683154
166	0x3d484b07	0.048899677
167	0x3ebbcc16	0.36679143
168	0x3e98e9d5	0.298659
169	0xbd58b853	-0.05291016
170	0x3f0b9454	0.54523206
171	0x3f483dd6	0.78219354
172	0x3f237d22	0.6386281
173	0x3da4cabb	0.0804648
174	0xbc4e9904	-0.012609724
175	0x3ec42500	0.3830948
176	0x3d1e0f1c	0.03858863
177	0xbd041ef0	-0.032256067
178	0xbeb7db27	-0.35909387
179	0x3e1eb694	0.15499336
180	0x3cf43efb	0.029815188
181	0x3c9049d0	0.017613322
182	0xbabb62f2	-0.0014296456
183	0x3ea7b394	0.32754195
184	0x3f627204	0.88455224
185	0x3f6189ca	0.88100874
186	0xbc2f2a8f	-0.010691299
187	0x3e041c0b	0.12901323
188	0x3ed4dbbb	0.4157389
189	0x3e7f382a	0.24923769
190	0x3daa692a	0.0832084
191	0x3d6e3007	0.05815127
192	0xbe4cba49	-0.19992937
193	0x3de49c77	0.11162656
194	0xbe1286af	-0.1430919
195	0x3e34acb1	0.17644002
196	0x3f0c2fcc	0.5476043
197	0xbd2128bf	-0.0393455
198	0x3f3d0ec9	0.73850685
199	0x3f805237	1.002509
200	0x3cda0c24	0.026617117
201	0x3f1f80b1	0.6230574
202	0x3f4ca4a1	0.79938704
203	0x3db41656	0.08793323
204	0xbe567066	-0.20941314
205	0x3f187594	0.5955441
206	0x3dc171be	0.09445523
207	0xbe1f160c	-0.15535754
208	0x3dd2838d	0.102789976
209	0x3c6bf535	0.014401724
210	0x3e9a625d	0.3015317
211	0xbeb2304b	-0.3480247
212	0x3f15a33f	0.5845222
213	0x3e0e9a85	0.13926132
214	0x3e374196	0.17896113
215	0x3f87dfcd	1.0615174
216	0x3ead9179	0.3390005
217	0x3d8112c4	0.063024074
218	0x3f75e23a	0.9604832
219	0x3e8f1d3f	0.27952
220	0xbdeb9ccc	-0.11504516
221	0xbef48f27	-0.47765467
222	0x3f4ed19e	0.807886
223	0x3ec306e0	0.38091183
224	0x3cf47841	0.029842498
225	0xbd8ef0bb	-0.069795094
226	0x3f4aa4fc	0.79157996
227	0x3de3862e	0.11109577
228	0x3e74282d	0.23843451
229	0xbe9dff82	-0.30859
230	0x3e4ddce3	0.20103793
231	0x3f0659f7	0.52481025
232	0xbce4c595	-0.027926246
233	0x3f7804bb	0.9688222
234	0x3d1e75b1	0.038686458
235	0x3eab7354	0.33486426
236	0x3bb59a9a	0.0055421116
237	0xbdb98819	-0.09059162
238	0x3d97e428	0.07416564
239	0x3d8f072a	0.06983788
240	0xbdb7498b	-0.08949574
241	0x3f3d3320	0.73906136
242	0x3ea00c17	0.31259224
243	0x3e9a9e3a	0.30198842
244	0x3e601d8c	0.21886271
245	0x3f0fecfe	0.56220996
246	0x3d9e36db	0.077253066
247	0x3f4caf85	0.7995532
248	0xbd929bd6	-0.071586296
249	0x3e52dfca	0.20593181
250	0x3d8d4c94	0.06899372
251	0x3e43364a	0.19063678
252	0xbdfc4ab6	-0.123189375
253	0xbde6463d	-0.11243866
254	0x3e8f7a8a	0.28023177
255	0x3d06ea80	0.03293848

linear.3.bias f4 [64]
0	0xbf21d653	-0.6321766
1	0xbee90a43	-0.45515642
2	0xbf55b932	-0.8348571
3	0xbf0c5c5f	-0.5482845
4	0x3dae7f3a	0.0852036
5	0xbeb26549	-0.348429
6	0xbf0cacc7	-0.5495114
7	0xbf1605ef	-0.58602804
8	0xbf5a2317	-0.8520979
9	0xbf0b5087	-0.5441975
10	0xbf119aa2	-0.56876576
11	0xbf2d6fc6	-0.6774868
12	0xbf2749f4	-0.6534722
13	0xbf49b886	-0.78797185
14	0xbf287207	-0.6579899
15	0xbf25a48d	-0.6470421
16	0xbf26f09f	-0.6521091
17	0xbede9b6d	-0.43477955
18	0xbf3ef315	-0.74589664
19	0xbf5a2905	-0.8521884
20	0xbef2e59e	-0.4744081
21	0xbee100ed	-0.4394602
22	0xbef4ac3a	-0.47787648
23	0xbf1294e8	-0.5725846
24	0xbe9399f0	-0.28828382
25	0xbf41de43	-0.7572977
26	0xbf5278a4	-0.82215333
27	0xbf4a1ef2	-0.7895347
28	0xbf5f9c6c	-0.87348056
29	0xbeea2ae4	-0.45735848
30	0xbf1cfa68	-0.6131959
31	0xbf290757	-0.66026825
32	0xbf070851	-0.52747065
33	0xbf39e0d6	-0.726087
34	0xbf507fd9	-0.8144508
35	0xbeaee937	-0.34162304
36	0xbf2adb16	-0.6674055
37	0xbead2fc7	-0.33825514
38	0xbedef500	-0.43546295
39	0xbf0a8903	-0.54115313
40	0xbf26aa25	-0.6510337
41	0xbf55df78	-0.8354411
42	0xbef97ab1	-0.4872642
43	0xbf08c34c	-0.53423
44	0xbe9b0b5d	-0.30282107
45	0xbf0c4a4d	-0.54800874
46	0xbf4cb71c	-0.799669
47	0x3dfaa70d	0.12238894
48	0x3eae37fe	0.34027094
49	0xbdd17a7a	-0.10228439
50	0xbeb6a2dc	-0.35671127
51	0xbf1855ff	-0.5950622
52	0xbef7cc8d	-0.48398247
53	0xbf20c7b9	-0.6280475
54	0xbeda9d04	-0.42697918
55	0xbf045297	-0.5168852
56	0xbf58fca8	-0.8476052
57	0xbf0517d2	-0.5198947
58	0xbf42b527	-0.76057667
59	0xbf30a36c	-0.6899936
60	0xbf483e2b	-0.7821986
61	0xbf3436ed	-0.7039631
62	0xbf4557bc	-0.77087
63	0xbf2a0692	-0.66416276

reg.weight f4 [2, 128]
0	0x3b607578	0.0034249704
1	0xbc55dca9	-0.013053098
2	0x3fa0a6d3	1.2550911
3	0xc02d0123	-2.7031944
4	0x3e601a1b	0.21884958
5	0x3e08da69	0.13364567
6	0xbb939582	-0.0045039067
7	0x3ed584b5	0.4170281
8	0xbc95c49f	-0.018282233
9	0x3e7d070f	0.24709724
10	0x3c03e169	0.008049347
11	0x3d48bc58	0.049007744
12	0xbb5c32e2	-0.0033599664
13	0x3c141a81	0.009039522
14	0x3c03b4a6	0.008038675
15	0x3ce076cc	0.027400397
16	0xbb5255ba	-0.0032094554
17	0x3c2fb299	0.010723733
18	0x3e47cbda	0.19511357
19	0x3babb17a	0.0052396627
20	0x3c8a51fb	0.016884794
21	0x3c4a770d	0.0123574855
22	0x3b8558c0	0.0040694177
23	0x39ec20c4	0.0004503784
24	0x3c00fec2	0.007873239
25	0xbba06b02	-0.004895569
26	0xbd030e0d	-0.03199582
27	0x3f516f3d	0.8181036
28	0x3bdac469	0.006676246
29	0x3be51f80	0.0069922805
30	0xbee1e0fb	-0.4411696
31	0x3c445a4f	0.011984422
32	0x3ae1b2e6	0.0017219454
33	0xbac41ba7	-0.0014961854
34	0x3b3770fe	0.0027990933
35	0x3c18e017	0.009330771
36	0x3bb611dd	0.0055563287
37	0x3c7392ef	0.014866575
38	0xbd79bd24	-0.060971394
39	0x3b857f70	0.0040740296
40	0xbb78cbdf	-0.0037963314
41	0x3c012063	0.007881257
42	0x3a1cfbe7	0.0005988464
43	0x3b584b15	0.0033003737
44	0xbd71aa6f	-0.05900043
45	0x3b94a7cd	0.004536605
46	0x3c50cfc3	0.012744847
47	0x3f1d8fba	0.61547434
48	0x3b2fb9f0	0.0026813708
49	0x3f9c8776	1.2228839
50	0xbc40933c	-0.011753853
51	0xbaf9e123	-0.0019064288
52	0xbb67c160	-0.0035363063
53	0xbbc254b7	-0.005930509
54	0x3e85db15	0.2614371
55	0xbda6ebfd	-0.0815048
56	0x3bd1ce48	0.0064027645
57	0xbbe76742	-0.00706187
58	0x3bb8e0d7	0.0056420374
59	0xbd8c68ce	-0.068559274
60	0xbba99098	-0.0051747076
61	0x3c46ad22	0.012126239
62	0x3c3fbc37	0.011702589
63	0xbbdd4e96	-0.006753753
64	0x3b0d22fc	0.0021535745
65	0xbba93971	-0.0051643183
66	0x3c28e423	0.010308298
67	0xbb7ed8fc	-0.0038886657
68	0xbd13c1f1	-0.03607363
69	0xbc153807	-0.009107596
70	0x3c608b3d	0.013705072
71	0xbbbd27d2	-0.005772569
72	0x3c4d7568	0.012540199
73	0x3c032ed2	0.008006768
74	0xbb9b4b6a	-0.0047392147
75	0x3b545f1e	0.0032405327
76	0x3cabc3b6	0.020967346
77	0xbba27d79	-0.004958805
78	0x3b2be710	0.0026230253
79	0x3c29bdee	0.010360224
80	0x3b5ff0b4	0.003417057
81	0xbd0e4133	-0.034730148
82	0x3b6bb742	0.0035967384
83	0x3bf177cc	0.007369017
84	0xbcb7f8d9	-0.022457527
85	0x36b42700	5.368958e-06
86	0x3bc42786	0.005986157
87	0xbc93149c	-0.017954163
88	0x3a43f886	0.00074756925
89	0xbc0ce191	-0.008598701
90	0xbc189687	-0.009313232
91	0x3bdaa4f0	0.006672494
92	0x3c6687bd	0.014070448
93	0x3cda5780	0.026653051
94	0xb997ae81	-0.0002893098
95	0x3c7b3752	0.015333014
96	0x3c3685ed	0.011140329
97	0x3ba51233	0.00503757
98	0xbaf91987	-0.00190048
99	0x3c8f79b2	0.017514084
100	0xba54bc84	-0.0008115249
101	0xbc2267b9	-0.009912425
102	0xbc13f578	-0.009030692
103	0x3b17dade	0.0023171226
104	0xbbcb514a	-0.006204759
105	0xbbec0df8	-0.0072038136
106	0x3b9a3ed7	0.004707198
107	0x3b8a7a32	0.0042259926
108	0xb91d49fa	-0.00015000245
109	0xbcd99772	-0.026561473
110	0x3c08cc57	0.0083495
111	0x3cb0e61c	0.0215941
112	0xb9a6eeec	-0.00031839998
113	0xbaad2546	-0.0013209961
114	0xbc2c41fb	-0.010513778
115	0xbc85a60b	-0.016314527
116	0xbb2933d5	-0.0025818248
117	0xbb81079e	-0.0039376756
118	0x3cc766a7	0.02434094
119	0x3c6b97f6	0.014379492
120	0xbb6daf58	-0.0036267843
121	0xbc2d1539	-0.010564142
122	0xbc6c2d94	-0.014415164
123	0xbc44ab27	-0.0120036965
124	0xbc3b8f8a	-0.011447797
125	0xbbbf5fe0	-0.0058402866
126	0xbb7e8288	-0.0038835127
127	0x3c204c06	0.00978375
128	0xbbb18de3	-0.0054185255
129	0x3aaed199	0.0013337611
130	0x39ff17ad	0.0004865503
131	0x3b350bf2	0.0027625528
132	0xbb288435	-0.0025713567
133	0xba58719a	-0.0008256674
134	0xbc329115	-0.010898848
135	0x3a565510	0.00081761274
136	0xbb0d9c38	-0.0021608006
137	0xbc014841	-0.007890762
138	0x3c22151b	0.009892727
139	0xbcd31b56	-0.02576987
140	0x3bced839	0.006312397
141	0x3ca11b73	0.01966641
142	0x3ac5ea55	0.0015099744
143	0x3cdb9626	0.026804995
144	0xba529503	-0.0008033069
145	0x3d00d6e5	0.03145494
146	0x3b4e0c70	0.0031440519
147	0xbb8a253c	-0.0042158645
148	0x3c381f2d	0.011237902
149	0x3bf44fd1	0.007455804
150	0x3aa4d6b2	0.0012576191
151	0x3bfbf68e	0.0076893037
152	0x3ce9e217	0.02855019
153	0x3c54775a	0.012967909
154	0xbb196917	-0.0023408586
155	0xbc8f837e	-0.017518755
156	0x3c80fc0f	0.01574519
157	0x3c8001cc	0.015625857
158	0xbb3ccd13	-0.0028808757
159	0x3ca0fa74	0.019650675
160	0x3a779316	0.000944422
161	0xbbd342d4	-0.0064471755
162	0x3a836378	0.0010024151
163	0x3bb38d46	0.0054794876
164	0x3c99703a	0.018730272
165	0x3c6dd2f3	0.014515626
166	0x3b0b6ba7	0.0021273883
167	0xbbe268ce	-0.0069094663
168	0x3b33454b	0.0027354534
169	0xbb812940	-0.003941685
170	0x3a742f51	0.0009314912
171	0xbc15ab8d	-0.009135139
172	0x3a484563	0.0007639734
173	0x3a9db422	0.0012031833
174	0x3c8a6d78	0.016897902
175	0xbaf48931	-0.0018656609
176	0xbb6a0fec	-0.0035715057
177	0x3b25587a	0.0025229738
178	0x3ad74a1c	0.0016425285
179	0x3b1d7e18	0.0024031457
180	0x3b0d4a25	0.0021559086
181	0x3c600176	0.013672223
182	0x39434f60	0.00018626219
183	0xbafb1d67	-0.0019158543
184	0xbba7df35	-0.005123044
185	0x3c2fb3b1	0.010723994
186	0x3ca0574c	0.019572876
187	0xbb918065	-0.0044403546
188	0x3b085077	0.0020799914
189	0xb849aca6	-4.8082926e-05
190	0x3c8a9347	0.01691593
191	0x3b31a470	0.002710607
192	0xbc837ec5	-0.01605166
193	0xbc992bed	-0.018697703
194	0x3d41cc4d	0.047313977
195	0x3b269cf5	0.0025423144
196	0xbc826da8	-0.015921429
197	0x3b4e6b40	0.0031497031
198	0xbb0658ad	-0.0020499632
199	0xbb918132	-0.00444045
200	0xbae709dc	-0.001762684
201	0xbc0469f1	-0.008081899
202	0x3b9dfd13	0.0048214286
203	0xbcb1c46a	-0.021700103
204	0xbc330624	-0.010926757
205	0xbbe2958d	-0.0069148005
206	0xbba8cdfe	-0.0051515093
207	0x3b4c1079	0.0031137748
208	0x3ebeaf73	0.37243232
209	0x3b946455	0.004528562
210	0xbc0952a8	-0.008381523
211	0x3c01deaf	0.007926627
212	0x3bec6010	0.0072136
213	0x3afa0e75	0.0019077795
214	0xba865a56	-0.0010250311
215	0xbbf65d7d	-0.007518469
216	0xbc7666e5	-0.01503918
217	0xbbd0e3b8	-0.0063748024
218	0x3a1d220e	0.0005994149
219	0xbbd3b600	-0.006460905
220	0x3bae0852	0.0053110505
221	0x3cb1f464	0.02172298
222	0xbbae79e4	-0.005324589
223	0xbb902435	-0.0043988475
224	0xbbbafc78	-0.005706366
225	0x3bbbde08	0.0057332553
226	0xbba01fe3	-0.0048866137
227	0xbc00c87e	-0.007860301
228	0x3afcd323	0.0019288998
229	0xbb74d53f	-0.003735855
230	0xbb78e83a	-0.0037980215
231	0xbb930a8e	-0.004487342
232	0xba46dd41	-0.000758607
233	0x3a1505aa	0.0005684743
234	0xbc286142	-0.010277094
235	0x3c7830eb	0.015148382
236	0xbd94f26c	-0.07272801
237	0xbc0b2046	-0.008491581
238	0x3c92e288	0.017930284
239	0xbceea358	-0.029130623
240	0xbe97f52e	-0.29679245
241	0xbde95730	-0.11393583
242	0x3a963db8	0.0011462485
243	0x3c0854bc	0.0083209835
244	0xbbe773c0	-0.007063359
245	0x3c161958	0.009161316
246	0xbc9619a5	-0.018322775
247	0x3995ce30	0.00028573116
248	0xbc0954eb	-0.008382062
249	0xbc0d1437	-0.008610777
250	0x3c822a2e	0.015889253
251	0xbc491396	-0.012272736
252	0xbbd9c9fe	-0.006646394
253	0xbc299db1	-0.010352538
254	0x3b1c6464	0.0023863548
255	0x3adf584e	0.0017039867

reg.bias f4 [2]
0	0x3ea58e04	0.32334912
1	0x3c1758bd	0.009237465
