server/models/value_model_minmax30.pt (torch, 255287 bytes, 12 tensors)

conv.0.weight f4 [4, 1, 3, 3]
000000 4b 09 a1 be 8b d0 17 be 66 c9 30 3e 73 ea 19 be
       -0.31452402 -0.14825647 0.17264327 -0.15030842
000010 5b 7e ef bd 58 90 c7 3d 6b b9 0a 3e 77 09 8e be
       -0.11694022 0.09744328 0.13547294 -0.27741596
000020 f2 61 32 3e 39 5e 3d bd b2 2c 57 bd 94 09 27 be
       0.17420176 -0.046232436 -0.05253286 -0.16312248
000030 8c 05 6f 3d bc c8 8a 3e 0a 0a 9c be b5 4e 90 3e
       0.0583549 0.27106273 -0.3047641 0.2818505
000040 96 f0 1b be 55 ba ab 3c 95 ac 86 be 7e c6 93 3e
       -0.15228495 0.020962873 -0.26303545 0.28862375
000050 59 de c7 be 75 e5 82 3e da e2 a5 3e 1c 31 c1 3e
       -0.39036825 0.25565687 0.32399637 0.3773278
000060 3e af a1 3d c0 da 93 be 22 da b1 3b bb a1 b4 be
       0.07894753 -0.2887783 0.005427615 -0.3527964
000070 b6 96 60 be 40 a6 21 3e a4 7b bd 39 25 9e 03 3b
       -0.21932492 0.15786076 0.0003614101 0.0020083275
000080 39 95 60 3e 2f bf 09 bc 58 55 90 be f4 60 4d bd
       0.21931924 -0.008407398 -0.28190112 -0.05014129

conv.0.bias f4 [4]
000000 87 a5 82 3e 7f 20 3f be cb d9 bc bd 68 e4 e2 3d
       0.25516912 -0.1866474 -0.09221228 0.11078721

conv.2.weight f4 [4, 4, 3, 3]
000000 d8 d6 79 be 9f 6e 55 3d 27 1e d9 bc df 43 1d be
       -0.24398363 0.05210745 -0.026503636 -0.15357922
000010 9c e9 95 bc 0b 6c 4e bc d4 1a 8f bd 70 a1 61 3d
       -0.01829987 -0.012599002 -0.06987539 0.0550856
000020 75 a1 f2 bd dc 1a 27 bd 91 5e a3 3d 37 f4 00 bd
       -0.11847202 -0.0407971 0.079770215 -0.0314829
000030 76 07 88 bb 00 7e 68 be 28 e9 30 bc 55 8d cc 3b
       -0.00415128 -0.22704315 -0.010797776 0.006242434
000040 4b be 23 be 17 96 cf bd 7b 29 93 3e f8 03 56 bb
       -0.1599056 -0.10136049 0.28742585 -0.0032656174
000050 64 22 bc 3c 30 0f 8c 3c 33 4a 6d 3c bf a1 10 be
       0.022965617 0.017097086 0.0144830225 -0.14124201
000060 a1 b8 50 3d f0 c6 85 3d f3 10 64 3e 1d ca 80 3d
       0.050957326 0.06532085 0.2227209 0.0628855
000070 41 43 6a 3e 1b a6 6b 3d 96 ff b0 3d 47 1e b2 be
       0.22877218 0.057531457 0.08642499 -0.34788725
000080 ff fb 56 bd fc 4c e6 ba 33 d0 ef 3d 28 bb 2e be
       -0.052486416 -0.001757055 0.11709633 -0.17063582
000090 f6 fd 54 be 16 de ec 3d 51 e0 5f bd 13 ee db 3b
       -0.20800003 0.11565797 -0.054657284 0.0067117303
0000a0 db a5 e4 3c 5a 54 eb bb 1e 6d 0f 3c 53 88 37 3e
       0.027911117 -0.0071816863 0.008754043 0.17923097
0000b0 36 44 07 3c 44 70 03 bd 59 6a fe 3c 30 12 20 be
       0.008256009 -0.032089487 0.03105657 -0.15631938
0000c0 ba 78 2c 3d 92 61 85 bd b7 4e 9a 3d f2 a9 c9 3d
       0.04210732 -0.06512751 0.07534545 0.098468676
0000d0 5f de 5b bd 4d c1 0e 3d 90 fd c7 3c bf 3f 7f 3d
       -0.053678866 0.034852315 0.0244129 0.062316652
0000e0 26 12 fc 3d 91 70 41 3e 16 a8 2c be 80 4e a8 be
       0.12308149 0.18890597 -0.16860995 -0.3287239
0000f0 40 8f c9 bd b9 00 8a be 40 21 5d 3e 43 8f e8 3b
       -0.09841776 -0.26953676 0.21594715 0.0070971563
000100 a3 91 14 be 61 e9 b6 bd ac e9 a4 bd bc 89 67 3e
       -0.14508681 -0.08931232 -0.08052382 0.22611135
000110 a7 93 65 be c8 81 d6 bd 85 36 a3 3e c0 fc 1d 3d
       -0.22419606 -0.104739726 0.31877533 0.03857112
000120 41 2f 07 3d 16 bd c3 bb 70 5d 86 bd 54 be fa 3c
       0.03300405 -0.0059734685 -0.065607905 0.030608334
000130 2d f7 97 bb 7f f3 13 3e 46 62 85 3c 5e 77 46 be
       -0.00463762 0.14448355 0.016282212 -0.19381472
000140 34 07 7a 3e 88 b9 57 3d 3e d5 28 3c 85 d3 80 bd
       0.2441681 0.05266717 0.010304747 -0.06290344
000150 58 1d 51 3c 57 f3 75 be ab 7c 34 be eb 88 f3 bd
       0.012763344 -0.24018608 -0.17625682 -0.118913494
000160 c2 13 87 3c 74 de eb bd b8 a1 02 3d 91 d0 66 be
       0.016488913 -0.11517039 0.03189251 -0.225405
000170 92 67 bc be 94 b7 e3 3d 6b 94 cb bd 47 f4 ab bd
       -0.36797768 0.11118999 -0.09940418 -0.083962016
000180 bc e6 01 3e 2f 84 34 be 4c f2 c6 bd cf cd 1e be
       0.12685674 -0.17628549 -0.09714183 -0.15508197
000190 fe c9 1e bd 17 5c ff bc 91 77 3d be dc cd 05 3e
       -0.038766854 -0.031171842 -0.18502642 0.1306681
0001a0 ea 97 41 3d 85 ed 1a 3e 8f f8 2c be 4d 33 0d 3e
       0.047264017 0.15129669 -0.16891693 0.13789101
0001b0 dd 25 75 3d 36 8d fd 3c 9f 23 9d bb fe 02 18 3e
       0.059850562 0.030951124 -0.004795506 0.14844891
0001c0 05 08 3e 3e d3 33 2c 3e 51 c8 71 3d 89 ac 95 3d
       0.18557747 0.16816644 0.059028927 0.07308299
0001d0 e8 3f 63 3e 5c 52 1c bd fa a1 31 3e d0 27 09 be
       0.22192347 -0.03816448 0.17346945 -0.13394094
0001e0 23 14 22 3d 82 c2 e6 bd ea 4b cf bd 10 a5 2d 3d
       0.039569985 -0.11267568 -0.10121901 0.042393744
0001f0 f5 f8 d3 bd db da f4 3d 30 56 89 3e 31 71 2e 3e
       -0.10350219 0.11955806 0.26823568 0.17035367
000200 93 d4 6c be 53 3b 32 3c f5 df 0b be 18 80 8e 3d
       -0.23127966 0.010878402 -0.13659652 0.06958026
000210 40 8d 68 3e 6a 1d 4f be c6 16 9c be dc 5f 70 3e
       0.22710133 -0.20226064 -0.30486125 0.23474067
000220 f6 b1 88 be 4d ba 99 3d 96 98 51 bd e8 7c 14 3e
       -0.26698273 0.07506237 -0.051170908 0.14500773
000230 b2 cd a1 3d ce 98 b2 bd 46 af 19 3d 6f 1a d1 3d
       0.079005614 -0.087205514 0.03752067 0.1021012

conv.2.bias f4 [4]
000000 a7 b4 66 bd 33 a8 2f be 7c 70 f5 bd a8 78 90 bc
       -0.056324627 -0.17154007 -0.11984345 -0.017635658

conv.5.weight f4 [64, 36]
000000 af c0 45 be eb 4c a1 bd d1 0e 02 bd 43 91 c1 bd
       -0.19311784 -0.07875999 -0.03175241 -0.094515346
000010 07 ef db bc ae 89 ae 3d ae 7a cf bd c9 8f 16 bd
       -0.026847376 0.08522354 -0.10130821 -0.036758218
000020 f8 09 2c be c1 e8 dc 3b d4 c4 af bd e6 e1 1b be
       -0.16800678 0.0067416136 -0.08582464 -0.15222892
000030 7b 9d a0 3d 9a 81 16 3d 60 bf f3 bc 68 88 75 3d
       0.07842537 0.03674469 -0.02975434 0.05994454
000040 84 29 ce bd 9d 00 d4 bd ee 0a c3 bc 27 5c d4 bc
       -0.10066512 -0.103516795 -0.023808923 -0.025922848
000050 0f 1e 72 3d e5 90 0d be 0e 96 30 3e 6f f6 1e 3d
       0.059110697 -0.13824804 0.17244741 0.038809236
000060 10 bb 6d 3c 1e 62 d0 3c dc 1a 1c bd 13 ee 98 be
       0.014509931 0.02543741 -0.038111553 -0.29869136
000070 36 c6 59 bd ea b2 28 be 47 35 b7 bc 07 47 ad bd
       -0.053167544 -0.164745 -0.022364272 -0.08460813
000080 19 27 d4 bd d7 25 f6 bc 29 c1 16 be f8 f5 8a bd
       -0.1035902 -0.03004734 -0.14722122 -0.06785196
000090 1e 39 15 3e 5a a4 0b bd f2 f9 70 3e 0c 89 7d ba
       0.1457257 -0.034092285 0.23532847 -0.00096716057
0000a0 57 aa 61 3d f7 fe a2 bd 12 b4 93 3d 5d ec e4 3d
       0.05509409 -0.07958787 0.0721208 0.11177895
0000b0 77 e3 5a be a5 79 07 3e b6 1a 5f be d3 c0 15 bd
       -0.21375833 0.13229997 -0.21787533 -0.036560845
0000c0 d9 3c b1 bd 56 57 8f 3d 1b f6 5f 3e e8 c4 df bd
       -0.08654184 0.0699908 0.21871226 -0.10926229
0000d0 75 7c 92 3e 0d 16 90 be 62 25 da bd 2a 0e 3d 3e
       0.28610578 -0.28141823 -0.106516615 0.18462434
0000e0 e9 f4 8e be a5 ca a8 3d 95 eb aa bc 34 8d 83 3e
       -0.27921227 0.082417764 -0.020864287 0.25693667
0000f0 6f cf 84 bd 96 09 9a bc 0c 07 e7 bd 1f e1 d2 bd
       -0.06484877 -0.018803399 -0.11280641 -0.10296845
000100 14 ed a0 3d 97 97 08 be d0 25 34 3d 13 da a2 bd
       0.07857719 -0.13339077 0.043981373 -0.079517506
000110 a3 48 a1 be fa 67 a3 3d a4 ac 1f 3d 8c ae ea be
       -0.3150073 0.07978816 0.038983002 -0.45836294
000120 04 ac 30 3e d1 3d a1 3c 6b 80 f4 bd f5 88 27 bd
       0.17253119 0.019682797 -0.11938556 -0.040902097
000130 84 51 fb 3d 33 77 84 3c bb c9 6b 3d 26 f5 03 bd
       0.12271407 0.01617012 0.057565432 -0.032216214
000140 a1 48 cb bd a2 a4 a6 3d b0 bb 1f be e8 9f 83 3e
       -0.09925962 0.0813687 -0.15598941 0.25707936
000150 82 bb e0 3d 09 93 84 3e 50 ba 59 be 49 8e 24 3d
       0.10973264 0.2589343 -0.21262479 0.040174756
000160 88 88 66 3e ce 0c 3b bd 51 bb 30 bd 99 1a 6b be
       0.2251302 -0.04566651 -0.04314739 -0.22959365
000170 2e fb 46 3d 64 20 a1 3d 98 f5 31 3e dd fc 71 be
       0.048579387 0.07867506 0.17378843 -0.23631616
000180 fb fe 52 3e b0 e4 55 3e c5 9e 41 3c be 38 29 bc
       0.2060508 0.20888019 0.011817639 -0.01032847
000190 b2 a6 99 bd ad 35 9d be 3f 43 ff bd f1 bc cd bd
       -0.07502498 -0.30705014 -0.12463998 -0.10045803
0001a0 05 34 3e be dc b9 15 3e c1 fe d1 bc c9 9b bb be
       -0.18574531 0.14621681 -0.025634171 -0.36642292
0001b0 33 49 f0 bb 8e 37 6f 3c 9d 44 8c be ab 4b 27 be
       -0.007332945 0.014600648 -0.27396098 -0.16337459
0001c0 2a f4 f0 bd 1a c1 ad 3e 35 8f db 3c 2a ab fd bd
       -0.117653206 0.33936387 0.026801685 -0.123861626
0001d0 1e 75 11 3e 14 18 cd bc e6 3d dd bc cf 2b 86 3d
       0.14204833 -0.025035895 -0.027007055 0.065513246
0001e0 cd e6 87 3d 7f 03 15 be 0c 40 ef be 17 b9 3c 3e
       0.06635819 -0.14552115 -0.4672855 0.18429981
0001f0 91 be 8f bd bf fe 36 3e d5 8e 7e 3c 8e 75 7c be
       -0.070187695 0.17870615 0.0155369835 -0.24654219
000200 2a 90 df 3e 3a d7 83 be 5f bc 4b be 0c c8 87 be
       0.43664676 -0.25750142 -0.19896077 -0.2651981
000210 e0 f5 16 be 3a 61 92 be ba 4d f4 3e 26 c6 0f be
       -0.14742231 -0.28589803 0.4771555 -0.14040431
000220 89 48 21 be ec fb b7 be b2 f9 3e 3e d8 d1 36 be
       -0.15750326 -0.3593439 0.18649939 -0.17853487
000230 88 e4 32 3e f5 2c 59 be 3b eb 15 bc 98 52 26 3e
       0.1746999 -0.21208556 -0.009150322 0.16242445
000240 9c bb 6e 3e 4c 16 a2 3d 08 df 39 be 8c 6c fe bd
       0.23313755 0.07914409 -0.18151486 -0.124230474
000250 15 6c b4 3b af 97 f1 bc 6e 0a 09 be a4 9b e9 bd
       0.0055060484 -0.029491274 -0.13382885 -0.11406639
000260 1d da cb bd 75 6e 6f 3d 90 b6 df 3c c7 11 05 3e
       -0.09953711 0.05845495 0.027308732 0.12995063
000270 d2 b8 31 bd 5d c2 31 bd 09 52 86 be 3c d5 16 3e
       -0.04338915 -0.04339825 -0.26234463 0.1472978
000280 b1 63 84 bd 1a 48 5c bd d8 a0 6c 3d e2 a5 cc bd
       -0.06464327 -0.0537797 0.05777058 -0.09992577
000290 34 40 98 3d 00 d3 76 3d b1 a6 07 3e b8 2e 1b be
       0.07434121 0.06025982 0.13247181 -0.1515454
0002a0 67 28 08 be 80 fb 0c 3e 5e cc 70 bb 5d 82 39 be
       -0.13296662 0.13767815 -0.0036742906 -0.18116136
0002b0 c4 20 fa bd 1e e8 59 be 21 e9 12 3d 14 69 78 3d
       -0.12213281 -0.21279952 0.03586686 0.060647085
0002c0 40 69 58 be 53 ee 28 3e d5 6b c1 bd f1 19 a6 bd
       -0.211339 0.16497163 -0.094443955 -0.08110417
0002d0 87 38 58 3e 4d c8 00 3e d9 17 40 bd 39 1a 3e bd
       0.21115313 0.12576409 -0.046897743 -0.046411727
0002e0 8d 61 5e 3d c0 8f b8 bd 1f b1 a1 bc 69 8d 15 3e
       0.05429225 -0.09011793 -0.019737778 0.14604725
0002f0 d7 e5 5b bd 98 23 ad bd f5 f9 5a be 31 12 24 be
       -0.05368599 -0.084540546 -0.21384414 -0.16022564
000300 24 4e c3 bd 3d 4e 06 be d6 9f 33 be 13 6d f5 3d
       -0.095363885 -0.13115783 -0.17541441 0.11983695
000310 a3 df ad bc 30 bf 73 bd 6a 17 18 bd d3 6d 31 be
       -0.021224802 -0.059508502 -0.037131704 -0.17327051
000320 cd 80 d0 bc 0d 7a 49 be bd be 65 bb 89 ea 22 3d
       -0.025452042 -0.19675465 -0.0035056316 0.03977445
000330 35 70 02 3e 1f 85 ef 3a 98 33 dc bd 31 66 26 be
       0.12738116 0.0018273926 -0.10752028 -0.1624992
000340 49 b6 15 3d e7 48 b1 bd 90 00 73 bd cf 86 9b 3c
       0.036550794 -0.08656483 -0.05932671 0.01898518
000350 67 08 04 be aa ea ee bd cb e2 cd 3c 6a 3e 89 3d
       -0.1289383 -0.11665852 0.025132557 0.06701358
000360 c0 6c 3e bd a6 bc 60 bd cf e4 57 3e 85 4f f4 bd
       -0.04649043 -0.05486741 0.21083377 -0.1192923
000370 c9 ee 18 3e 7f cd 3b 3d c2 f0 b8 bc 41 95 56 bd
       0.1493484 0.045850273 -0.02257574 -0.052388433
000380 b5 29 0d be 65 d3 7c 3c 1f a8 cd 3c a2 e1 b1 3d
       -0.13785441 0.01543126 0.02510458 0.08685614
000390 cc 67 55 3d 3a b4 2b 3e 2c 1a 99 3e 80 51 47 3d
       0.05210094 0.1676797 0.2990278 0.04866171
0003a0 41 18 24 3e 24 d9 e8 bd 79 84 c9 3b 4e b0 22 3e
       0.16024877 -0.11369541 0.006149825 0.15887567
0003b0 46 9c 3f be e0 d4 c0 3d 02 4d 5d 3e 08 f5 52 3e
       -0.18711957 0.09415603 0.21611407 0.20601285
0003c0 79 70 86 bd 1c 05 ea 3d 2b 0f bc bd 1e 2f 9b 3d
       -0.06564421 0.11426756 -0.091825806 0.07577346
0003d0 c3 9e 5b 3d a1 eb 10 bb a5 a4 93 3d c0 56 09 3e
       0.053618204 -0.0022113102 0.07209138 0.13411999
0003e0 53 6b 9d 3d 7c ec 3e bd 3d 43 0a 3c 3e 48 31 be
       0.07686486 -0.046612248 0.008438882 -0.17312714
0003f0 a8 d8 94 3e 15 52 a9 3c 07 9a 34 bc 36 6f c3 bc
       0.29071546 0.020669023 -0.011023051 -0.02385674

conv.5.bias f4 [64]
000000 6c a8 8e be da d9 85 3c 30 19 0a be 7b 44 bb bd
       -0.2786287 0.016339231 -0.13486171 -0.09143921
000010 44 73 1e 3e 8d 0d d4 bd 43 91 16 3c 88 84 ca bd
       0.15473658 -0.10354147 0.0091899065 -0.098885596
000020 fb ed 49 be f5 14 b8 bd d5 cd ff bd aa 1b 8b bd
       -0.19719689 -0.08988372 -0.12490431 -0.06792386
000030 9c 07 ad 3d f4 40 dd 3c 18 18 a2 bd 9c a1 f4 bc
       0.08448717 0.027008511 -0.07914752 -0.029862218
000040 af 6e 1c be 3b 72 9e be c1 07 c5 bd 5d 75 b1 bd
       -0.15276597 -0.30946526 -0.096206196 -0.086649634
000050 ca 64 15 be 34 64 83 3d 8c e6 a7 bd 9c 0d 87 bd
       -0.14589229 0.064155966 -0.0819827 -0.06594393
000060 e8 3e 1f be 3f dd 7b be e3 ce 45 bd 31 ed 7a be
       -0.1555134 -0.24596117 -0.048293006 -0.24504544
000070 e6 43 a9 3d 3c 80 6b bd 19 1d 9d 3c c2 35 72 bd
       0.08264904 -0.05749534 0.019178914 -0.0591333
000080 b4 ac 0c be 33 f4 fa bd c6 2f 02 3c dc a8 4a bd
       -0.13737756 -0.122536086 0.00794596 -0.049477443
000090 88 93 13 be 76 77 79 3d 0d 62 30 3d 03 12 29 be
       -0.14411747 0.060904942 0.04306226 -0.16510777
0000a0 9f ef 2d bd bd f7 5b 3d d4 ef 08 3c a0 86 ee bd
       -0.04246485 0.05370306 0.008357961 -0.116467714
0000b0 10 aa 00 3e c6 2f ef bd 2b 75 b8 bd 60 69 d7 3d
       0.12564874 -0.11679034 -0.09006723 0.105181456
0000c0 0e a9 99 bd 09 bd 2b be bd f8 f4 bd 31 97 9f bd
       -0.07502948 -0.1677133 -0.119615056 -0.07792509
0000d0 66 0d d4 3d 5e b6 1f bc 69 16 2a 3d c6 91 0c be
       0.10354118 -0.00974807 0.04152528 -0.13727483
0000e0 a7 7d c7 3d ab da 30 be 4d e5 8b be 3c de c5 bc
       0.09740763 -0.17270915 -0.2732338 -0.024153821
0000f0 70 5b 00 be 07 f6 11 be 00 62 11 be 8e 05 74 be
       -0.1253488 -0.14254008 -0.1419754 -0.23830244

linear.1.weight f4 [256, 169]
000000 00 47 c1 3b 3a e0 20 3d 0a 75 72 3d 1e be 5d 3d
       0.0058983564 0.03927634 0.05919365 0.054136388
000010 a8 26 d1 bc b6 2c b5 bc 74 0c 01 3d 34 d2 1d 3d
       -0.025531128 -0.022116046 0.031506017 0.038530543
000020 c6 57 56 3d 22 31 4b 3d b8 7c 78 3c 70 6a 39 bc
       0.0523298 0.049607404 0.015166454 -0.011316881
000030 f0 d2 03 3d b6 df 46 3d 40 e9 09 bb f8 51 6f bc
       0.032183588 0.04855319 -0.002104357 -0.014606945
000040 90 95 ce 3b 54 ef 34 bd c0 52 9a bd 40 b7 aa bc
       0.0063044503 -0.044173554 -0.075353146 -0.020839334
000050 dd 5c 97 3d 32 50 12 bd 20 a2 0f bd f0 5f 4e 3c
       0.07390759 -0.03572101 -0.035066724 0.0125961155
000060 94 71 82 bd 78 bb 86 bd ec 2a 8b bc 18 fd 1c 3d
       -0.063693196 -0.065787256 -0.01698824 0.038327307
000070 40 40 d0 3c 40 1e 32 bb c4 f8 f3 3c 80 2c 2b ba
       0.025421262 -0.0027178675 0.029781707 -0.00065297633
000080 2a 2a 36 bd b2 b5 77 be 50 70 85 3d 89 ae 3c 3e
       -0.044473805 -0.24190405 0.065155625 0.18425955
000090 64 ab a0 3c 10 bd ab 3c d4 71 2e bd 2e b0 7e 3d
       0.019612975 0.020964175 -0.042589024 0.062179737
0000a0 9c cb 32 3d dc 49 64 bd 10 f4 74 bd 8a 56 aa 3d
       0.04365121 -0.0557345 -0.05980307 0.08317287
0000b0 6c 86 35 3d 7b 22 fa 3d 63 41 81 3d e1 34 9c bc
       0.044317648 0.12213608 0.063113 -0.019068183
0000c0 e1 36 d9 3d e1 b0 18 be 26 f7 d0 bd 34 c7 d1 bc
       0.106061704 -0.14911224 -0.1020339 -0.025607683
0000d0 3e 54 25 3d 92 19 4d 3d d8 b2 04 bc 3b 89 19 be
       0.040363543 0.050073214 -0.00809928 -0.14993756
0000e0 51 6c 73 bd 69 5d 3d 3e 6a 88 84 3d 27 89 47 3e
       -0.05942947 0.18492664 0.064713314 0.19485913
0000f0 ae 55 37 3e 41 aa a3 bd d1 63 94 be 38 69 4e 3d
       0.17903778 -0.07991458 -0.28982404 0.050393313
000100 d2 d9 53 bd a2 32 d3 bc 96 b6 41 bd 25 f9 1d bd
       -0.0517214 -0.02578098 -0.04729327 -0.03856768
000110 f8 fd 18 be c7 8a 15 bd 55 df 58 3e a4 9c 34 3e
       -0.14940631 -0.0365093 0.21178944 0.17637879
000120 c4 78 f3 3d 61 56 93 bd c0 de 41 3e 46 41 05 3d
       0.118882686 -0.0719421 0.18932629 0.032532953
000130 8a 1f 58 bd 80 c3 01 3d 64 66 ed 3c 60 d0 12 bd
       -0.052764453 0.031680584 0.028979488 -0.035843253
000140 40 fe e8 3c 11 7e 8e bd 20 8a fe 3d bb 37 0a 3e
       0.028441548 -0.06957639 0.12428689 0.13497822
000150 6c b3 c2 bd 7a 2d f6 bd b9 74 1e be d7 fd 09 3c
       -0.09506878 -0.12020393 -0.15474214 0.008422337
000160 46 56 21 3d 2e dd 4f 3d 54 a2 08 bd 85 98 11 bd
       0.039388917 0.050748043 -0.033357933 -0.035545845
000170 7a a6 99 bd fa c4 0e bc 2f 35 b2 3d 85 24 9b 3d
       -0.07502456 -0.008713955 0.0870155 0.07575325
000180 21 61 39 bb 87 89 1d 3d 77 4f 92 3d 0e a4 10 3d
       -0.0028286653 0.038461234 0.07144063 0.035312705
000190 76 ec 42 3d 0e 6b 5d 3d 40 ab 72 bd 50 d6 8e bc
       0.047588788 0.054057173 -0.059245348 -0.017436177
0001a0 08 7e 3f bc 9d 25 43 3d a6 ff 12 3d 88 6f f9 bd
       -0.011687763 0.047643293 0.035888337 -0.12179476
0001b0 07 b7 90 be a9 ff 3b bd a3 23 e6 bd eb 88 80 bd
       -0.2826464 -0.045898113 -0.11237266 -0.06276115
0001c0 64 1d 46 bd c5 de 8a bd 30 e7 d8 3c bc 3a 3f 3d
       -0.048367873 -0.06780771 0.026477426 0.046686873
0001d0 24 46 de bc 4a 1c f0 bc f7 ca cb bd 28 60 de 3b
       -0.027133055 -0.029310364 -0.09950822 0.006786365
0001e0 f7 a3 33 bd 88 5e 39 be 3b 51 69 bd 83 55 c4 3d
       -0.04385754 -0.18102467 -0.056962233 0.095866226
0001f0 78 da 67 3d d0 bb e6 bc fe ac 3d 3d d6 52 6b 3d
       0.056604832 -0.028165728 0.046307556 0.057452045
000200 88 32 02 bd e1 80 8b 3d 6e cf 4c 3d 76 7b de bc
       -0.03178647 0.06811691 0.050002508 -0.02715848
000210 e7 2a 82 3d 41 88 dd 3c 76 38 02 3e c3 d4 9b 3d
       0.06355839 0.02704251 0.1271685 0.076089405
000220 4a 28 18 bd 72 41 4d 3d 18 3d 2d 3c 80 92 38 bc
       -0.037147798 0.05011124 0.010573648 -0.011265397
000230 bb 6d 00 bd 02 78 78 3d f7 7d 8d 3d 6a 5a 2d bd
       -0.031354647 0.060661323 0.069087915 -0.042322554
000240 28 ff 1c 3d 2a 5b 3c 3d ec 4b 81 bc 1e 19 ab bc
       0.038329273 0.04598538 -0.015783273 -0.020886
000250 ec f6 e5 3c 40 11 8b 3b a0 12 2b 3c 78 2c 1f bc
       0.028071843 0.0042439997 0.010441452 -0.009715192
000260 54 71 f4 3c e6 63 79 3d 36 95 49 3d 8a 91 03 3d
       0.029839195 0.060886286 0.049214564 0.03212122
000270 74 97 79 bd f8 9b 90 3c 46 68 3c bd 88 41 2b 3c
       -0.060935453 0.017652497 -0.04599788 0.010452636
000280 bc 3f 01 3d 50 82 eb bb 9f 01 92 bd 76 9f 6a 3d
       0.031554922 -0.0071871653 -0.071292154 0.05728098
000290 99 64 49 bd e8 27 b4 3c 0a 4d 4b 3d e4 7e 95 3c
       -0.049168203 0.021991685 0.049634017 0.018248983
0002a0 70 d6 1d 3d be c3 6d 3d 0f 80 8e bd d6 61 8a bd
       0.03853458 0.058048002 -0.06958019 -0.06756942
0002b0 38 08 38 3c 28 ba e9 3c 5d 06 8e bd d8 84 5a 3c
       0.011232428 0.028531149 -0.069348074 0.0133373365
0002c0 7b 94 16 bd 95 0b 8b bd 14 c0 4c bd e8 1c 3c 3d
       -0.036762696 -0.067893185 -0.049987867 0.045926005
0002d0 60 5f 17 bb 06 21 54 bd d4 1d b6 bc 50 a8 22 bc
       -0.002309762 -0.051789306 -0.02223102 -0.009927824
0002e0 14 74 a0 bc be d6 22 3d 32 3c 8e bc 96 56 5b bd
       -0.0195866 0.039755575 -0.017362688 -0.05354937
0002f0 e6 d1 3d bd bb 58 80 3d 81 24 8b 3d 4f c4 b0 bd
       -0.046342753 0.06266924 0.06794072 -0.08631193
000300 59 12 08 bd ac ed 9a 3c e6 6e 7b bd 19 93 75 bd
       -0.033220623 0.018912159 -0.061385058 -0.059954736
000310 7a 28 6b 3d 80 b2 7e 3a 6c 7f c0 bc 40 0b db 3c
       0.05741165 0.00097159296 -0.02349826 0.026738763
000320 1b 86 1f bd 90 62 ee bb fd 87 d4 bd 4b 3a 1b 3d
       -0.038946252 -0.007274933 -0.103775 0.03789739
000330 34 ab 57 3d 2c 26 93 3c 40 29 da 3c 80 49 4f 3b
       0.052653506 0.017962538 0.026630998 0.0031629503
000340 a0 25 8d 3b 20 5c 0f 3d e8 94 8c bc 40 bb e6 bc
       0.0043074638 0.034999967 -0.017160848 -0.02816546
000350 84 4b bf 3d 71 17 02 3d fa 38 b7 3c 99 40 96 bd
       0.09340575 0.031760637 0.022366036 -0.0733654
000360 31 d9 6e 3d f2 19 56 3d 78 57 60 bd a6 8b 21 bd
       0.0583126 0.052270837 -0.054770917 -0.03943982
000370 80 f8 00 bd b2 01 36 bd 3c b1 df bc cd f4 78 bd
       -0.031486988 -0.04443521 -0.027306192 -0.060780335
000380 7f bc 48 be c1 67 c4 bd 38 fc b4 3d 8a 14 00 bd
       -0.19603156 -0.09590102 0.088371694 -0.031269588
000390 42 28 42 3c dd 6c af bd 16 8f 2a 3c 39 ae 45 bc
       0.0118504185 -0.08565686 0.010410091 -0.012065464
0003a0 dc 1f 42 3d 1e 2a 2a bd d6 58 5c 3d 8a c4 f2 bc
       0.047393665 -0.041544072 0.053795658 -0.029634733
0003b0 b9 55 46 bd 25 ac 28 3e ab 50 71 3d 11 d6 4e be
       -0.048421595 0.16471918 0.05891482 -0.20198847
0003c0 70 22 99 3b 33 ff 84 bc 06 1b 4e be 1c 8f df bc
       0.0046732947 -0.01623497 -0.20127496 -0.02728992
0003d0 34 7b c0 3c 3b ad 27 bd 9b 37 8a 3d 9e 96 b1 bc
       0.023496248 -0.04093669 0.06748887 -0.021678265
0003e0 3e f7 21 3d 76 c3 47 3d 33 9d 94 3d e6 55 4f be
       0.03954243 0.04877039 0.07256546 -0.20247611
0003f0 b6 eb 8d 3c 2a 80 e0 3c a3 30 b4 3b 59 2d 04 3d
       0.01732431 0.027404863 0.005498962 0.03226981

linear.1.bias f4 [256]
000000 2d 3d b4 bd e3 b0 bb bc c7 89 93 3d 36 9a 32 3b
       -0.08800731 -0.022911495 0.07204013 0.0027252561
000010 5c 5a 00 bd e4 b4 c3 bc 8d 71 fa 3c 79 e4 51 bd
       -0.031336173 -0.023889966 0.030571723 -0.05124328
000020 c4 65 7a bd a0 8c 1e 3c 20 99 36 3d e6 b4 3d bd
       -0.061132208 0.009677082 0.044579625 -0.046315096
000030 c7 7e 86 3d 6e b1 01 bd 0e d7 08 3c 88 f3 97 bd
       0.065671496 -0.03166335 0.008352054 -0.07419497
000040 0e 64 1d bd d3 c9 ff bc 08 76 9c bd fc 7a 19 bc
       -0.038425498 -0.031224167 -0.076397 -0.009367701
000050 2e 3c 3c 3d 34 3f 31 bd 78 84 bc bd 85 e5 4e 3d
       0.04595583 -0.043273166 -0.09204954 0.050511856
000060 32 5b 8f 3b f7 bf 81 3b 72 85 7c 3c 07 7e 02 3e
       0.004374885 0.0039596516 0.015412675 0.12743388
000070 88 8b bb bd 17 5a 39 bd b2 c0 a6 bd fc 51 7e bd
       -0.09157473 -0.045251932 -0.081422225 -0.062089905
000080 c1 84 9b bd 7c ff 9a 3d e8 07 92 bd 43 83 b8 bb
       -0.0759368 0.07568261 -0.07130414 -0.005630882
000090 f8 8c 63 3d db 7b fb bd 69 c6 83 bd 8d a1 9f bd
       0.05555436 -0.12279483 -0.06434328 -0.07794485
0000a0 41 8a 6c 3d 9d 89 8d 3d 38 db 75 bd 34 0c 14 3d
       0.057749037 0.06911013 -0.060023516 0.03614445
0000b0 57 77 ea bd 4e 56 dd bd 78 bc c5 3c f8 8d 00 bd
       -0.114485435 -0.10807477 0.02413772 -0.031385392
0000c0 41 2e 84 bc 12 3f 54 3d 7d 11 ca bd 2b 08 aa 3c
       -0.016135337 0.05181796 -0.09866617 0.020755848
0000d0 d6 fd d3 bb ce 14 58 bd 63 9d ab bd fd a8 c8 bc
       -0.0064694686 -0.052754216 -0.083796285 -0.024494642
0000e0 ea a2 84 3d 0d 4d 9c bc ed ed 2c be 70 d1 d4 3c
       0.06476386 -0.01907971 -0.16887636 0.025978774
0000f0 f4 0b 50 3d 9b 36 a6 bd 37 49 81 bc 24 27 3a 3d
       0.05079265 -0.08115884 -0.015781982 0.045447484
000100 ce 25 fa 3b aa 8b 34 3d 3d ef 1f be 23 b0 db 3b
       0.007633901 0.044078507 -0.15618606 0.0067043467
000110 96 b0 8b bd b0 4b b0 bd eb d4 1b bc 4c 62 54 bd
       -0.068207905 -0.08608186 -0.009511213 -0.051851556
000120 6d 60 48 bd 3f 18 7b bd 7b 42 00 bd f2 0f ad bd
       -0.048920084 -0.06130242 -0.0313134 -0.08450307
000130 ca ec ac bb f8 e1 1e 3d f5 0f 3b bd d3 f2 ca 3d
       -0.005277251 0.03878972 -0.045669515 0.09909596
000140 77 ab 9f bc 7e 7d 9d 3c db 85 33 3b 3f 54 8d bc
       -0.01949094 0.019224878 0.0027393016 -0.017252086
000150 99 9b c8 bd bc b6 0a 3c f2 4e 86 3c 12 58 6f 3c
       -0.09795303 0.008466419 0.016395066 0.0146084
000160 d3 c1 ba bd db 8e 8b bd e1 8d 2f bd 35 79 23 3d
       -0.09119 -0.06814357 -0.042859916 0.039910514
000170 26 00 a9 3d fd 3c 7d bc c1 b7 2b bd 5c 6c 4e 3d
       0.082519814 -0.015456435 -0.04192329 0.05039631
000180 32 2b af bb 7c 11 1e bc 50 b5 2e 3d 80 60 04 bb
       -0.0053457255 -0.009647723 0.04265338 -0.002019912
000190 6e 36 28 bd 6c 38 9e 3c ec f0 9d bd 9a 07 83 3d
       -0.041067533 0.019314013 -0.07711968 0.06397934
0001a0 c8 33 43 3c 47 88 b5 3c f7 de 96 bd bc 6a 57 bc
       0.011914201 0.022159709 -0.07366746 -0.013148006
0001b0 e1 91 be 3d 21 fc 19 bd 71 f1 9b bd 30 c8 34 3b
       0.09305168 -0.037593964 -0.07614411 0.0027585141
0001c0 8d 0a 6e bd c6 38 d5 bd c0 4d 04 bd ad 35 18 3d
       -0.05811553 -0.10411219 -0.03230071 0.037160564
0001d0 a9 cd 85 bc 65 df 13 3d 87 ad 8d 3d 0e fb be bd
       -0.016333418 0.036101718 0.06917863 -0.09325229
0001e0 1c 16 a1 3d 76 cd 59 bd a5 14 81 bd 89 8e 74 bd
       0.07865545 -0.05317446 -0.06302766 -0.059706245
0001f0 0a 3b 4e bb 2e 9b 9a 3d cc 0a 4e bc eb 32 aa 3c
       -0.0031468295 0.075491294 -0.012575816 0.020776233
000200 a7 dc 1b bd 8f 8c ef bc db 73 22 be da e6 bf bc
       -0.038052227 -0.029241828 -0.15864508 -0.023425508
000210 a0 5e 9d bd 67 94 14 be bf 15 03 bd 1b 1d 27 bc
       -0.07684064 -0.14509736 -0.03200316 -0.01019981
000220 ff 23 45 bd 7d 5b 41 bb 84 4a e3 3c 37 ca b6 bd
       -0.04813003 -0.0029503994 0.027745493 -0.08925288
000230 e3 78 cd bc c6 6c 84 3d 84 c2 a6 bd 6e 50 06 be
       -0.025082057 0.064660594 -0.0814257 -0.13116619
000240 df e1 11 bd ae 31 e9 bc 7c e0 85 bd 9c dc c5 3c
       -0.035615798 -0.028466072 -0.065369576 0.024153046
000250 ac 2b 3c bd dc 5a d3 bd c4 f0 06 3d 59 a0 02 be
       -0.045940086 -0.103200644 0.032944456 -0.1275648
000260 47 ab e4 bc 4e f9 89 bd 38 9c 3e 3d ad b2 b1 bc
       -0.027913703 -0.06737004 0.0465357 -0.021691645
000270 db e5 de bd 8f 0c 23 3b 5b 86 13 bc 4f 79 ad bd
       -0.10883685 0.0024879312 -0.009004201 -0.084704034
000280 75 4c 54 bd b7 51 69 bc 78 05 48 bd 38 17 21 be
       -0.051830728 -0.014240674 -0.04883334 -0.15731514
000290 b8 f8 32 3d 51 d9 a4 bd 68 1f 82 3d 83 a8 11 bd
       0.043694228 -0.08049262 0.063536465 -0.035561096
0002a0 0e 79 a5 bd 3d 6b e6 bd 92 0f 21 3d ab 37 dd bd
       -0.0807973 -0.11250923 0.03932149 -0.108016334
0002b0 ed a8 0e 3c 26 ee e7 bc b3 85 8b bb 91 98 4e bd
       0.008707267 -0.0283118 -0.0042578815 -0.050438467
0002c0 c8 92 ba b9 9b 9a b5 3d 50 51 ea bd 04 4c 87 bb
       -0.00035586045 0.08867379 -0.114412904 -0.004128935
0002d0 ef f5 83 3c 01 a9 8c bd c6 fe aa 3c 4a ee 96 bd
       0.016108481 -0.068681724 0.020873439 -0.07369669
0002e0 e4 67 d6 bd 79 30 bc bd cb 47 a5 3d 9c d7 1c 3c
       -0.10469034 -0.09188933 0.08070334 0.00957289
0002f0 29 a2 18 be 7b da 4b bd c1 19 89 bd 7d 07 b9 bd
       -0.14905609 -0.049768906 -0.06694365 -0.090346314
000300 9b 8a b4 bc 4b 25 96 bd f0 3d 6d bd 52 cd 7d 3c
       -0.022038748 -0.07331332 -0.057920396 0.015490847
000310 0c d3 07 3a 9a da b5 bd 7b 17 c7 bd b6 a8 81 bd
       0.000518129 -0.088795856 -0.097212754 -0.06331007
000320 98 e2 9c bd 25 e6 0e be 62 67 89 bd f0 d4 f9 3c
       -0.07660407 -0.1395498 -0.06709172 0.030497044
000330 91 a7 d0 3c 9c 90 bb bc d9 b5 de bc 56 0e ab 3c
       0.025470527 -0.022896104 -0.027186321 0.02088086
000340 66 45 a9 bd d3 d3 93 3c 39 7c d0 bc da 62 22 bc
       -0.0826519 0.018045342 -0.025449859 -0.009911263
000350 83 54 24 be b8 16 91 3d ec 2c f4 bd 0a 29 10 3c
       -0.16047864 0.070844114 -0.11922631 0.008798847
000360 58 71 cf 3b 71 95 5b bd 30 da c4 3b ea 9b 33 bc
       0.0063306503 -0.053609315 0.0060074553 -0.010962466
000370 59 bb 57 bd c3 2b e0 bc 4f c8 e5 bd c0 45 e8 bd
       -0.052668903 -0.027364617 -0.112198465 -0.11341429
000380 0e 07 3d bd 95 2f 47 bd cf a7 b7 3d c0 45 dd bc
       -0.046149306 -0.048629362 0.08967554 -0.027010798
000390 7c c9 af 3b 9f e0 e0 bc 13 3f e9 3c aa 80 63 3c
       0.005364595 -0.027450858 0.028472459 0.013885656
0003a0 56 e1 3e bd 72 3e c8 3c a5 04 09 bd 40 b2 4a bc
       -0.046601616 0.024443839 -0.033451695 -0.0123716
0003b0 2d 72 f3 3c 4e 29 56 bc e4 a2 92 3d 93 cf 9b bd
       0.02971753 -0.013071371 0.07159975 -0.07607951
0003c0 7f d2 82 bd d1 cc 58 3c 8c 4d 11 bd be a2 82 3c
       -0.06387805 0.013232426 -0.035474345 0.015946742
0003d0 88 b9 47 ba c1 62 05 3d 2f 9f 42 3d 0b 17 2a bd
       -0.0007618894 0.032564882 0.04751509 -0.04152588
0003e0 36 e5 72 bd c7 2e c5 bc 8a 8d 23 bd 75 33 48 bd
       -0.059300624 -0.024070157 -0.039929904 -0.0488772
0003f0 75 67 69 3c 0a f5 b7 3c a9 45 8c bd 84 96 cd bd
       0.0142458575 0.02245571 -0.06849224 -0.10038474

linear.3.weight f4 [64, 256]
000000 81 97 91 3d 2a e7 54 3d cc ed 9d bd c2 8f 8f bc
       0.07108975 0.051978268 -0.07711372 -0.017524604
000010 42 fd 15 be 9d 3a 9a bd 72 6b 90 bc ad 44 63 3c
       -0.14647391 -0.07530711 -0.017629359 0.013871354
000020 20 3e f1 bb 76 20 e9 bd c9 65 d2 bd 9a b4 41 be
       -0.007362142 -0.113831446 -0.1027332 -0.1891655
000030 69 f8 c0 bd d1 2e 68 be eb 81 8f 3c 68 f0 12 3e
       -0.094223805 -0.22674109 0.017518004 0.1434952
000040 2a e4 ea bd 3e 5b bc bd 34 0a c8 3d 00 9d c1 bd
       -0.114693 -0.091970906 0.09767571 -0.094537735
000050 e4 c3 07 be 7b 75 ee 3d 6e 69 0f 3e dd b3 89 3d
       -0.1325832 0.11643501 0.14005062 0.06723759
000060 0f 66 5f be 31 8c a1 3c 83 b6 b9 bc 27 ff bd bd
       -0.21816276 0.019720169 -0.022670036 -0.09277182
000070 12 53 14 be f1 2a e2 bd 9b fd 6f bd 8b 4e 60 bd
       -0.14484814 -0.11043347 -0.058591466 -0.054762404
000080 42 8c b0 3c 66 b4 3a bd 0a 34 f3 3d 49 71 9c 3c
       0.021551255 -0.045582198 0.1187516 0.019096987
000090 ff c7 e7 bd 9d 6b 1b 3c 4e 95 bc bb ed 7a c6 3d
       -0.11317443 0.009486106 -0.005755103 0.09691415
0000a0 fb a6 4e 3d c7 b3 a4 bd 1a 85 d1 3d fb 55 85 3d
       0.050452214 -0.08042102 0.10230465 0.0651054
0000b0 b6 25 09 3e dc 8a 03 bd 1a 7c 45 3d 45 23 8e 3d
       0.13393292 -0.03211485 0.048214056 0.06940321
0000c0 ae 77 89 bd a3 1f ab bd 2c 71 5e bc e4 65 f8 3c
       -0.0671228 -0.083556436 -0.013576787 0.030322023
0000d0 b3 ce 45 bd 4e 54 c2 ba b7 64 3b be 5a 51 3b bc
       -0.048292827 -0.001482615 -0.18300138 -0.01143297
0000e0 87 ea b7 3d 11 c2 59 bd dc a1 35 bc 9d 89 8e bd
       0.089802794 -0.05316359 -0.011085954 -0.069598414
0000f0 0c d5 24 be 78 16 13 3d 14 df 56 3b a1 26 97 bc
       -0.16096896 0.0359101 0.0032786774 -0.018451037
000100 a3 22 7f 3d 5b 69 41 bc 21 d8 11 3d b4 3a c7 bd
       0.06228889 -0.011804904 0.035606507 -0.097279936
000110 8c d3 6e 3d 18 1a 0a 39 97 41 ee 3c 2c 95 72 bc
       0.058307216 0.00013170426 0.02908401 -0.014806073
000120 1a 17 07 bb 46 71 df 3d b6 33 c6 bd 92 78 cd ba
       -0.0020613135 0.10910277 -0.09677832 -0.0015676192
000130 53 41 62 bd c4 2d 07 be 7a 9d 73 bd d2 31 f5 bd
       -0.05523808 -0.13201052 -0.059476353 -0.11972393
000140 25 08 fc bc a7 35 10 be 76 47 08 be 6b 03 ee bd
       -0.030765602 -0.14082967 -0.1330851 -0.11621746
000150 39 6d 13 bd a3 d4 dd bc 81 e6 d6 3c 31 3d fa bd
       -0.035992835 -0.027078932 0.02623296 -0.122187026
000160 e5 5c 5f bd e4 e3 88 3d b7 62 a1 bd 46 4e 33 be
       -0.05453195 0.06684092 -0.078801565 -0.17510328
000170 39 6b 27 be c0 27 3f bb 6a 79 d3 bd bb 57 7f be
       -0.16349496 -0.002916798 -0.10325892 -0.2493581
000180 8d 9e 54 bd 66 65 c9 3c 2e 64 56 be b5 e3 a5 bd
       -0.05190902 0.024584483 -0.20936653 -0.08100072
000190 f2 62 b1 bd 1c ff 6c 3d 09 56 81 bd ea 9f 9a 3d
       -0.086614504 0.05786048 -0.06315238 0.075500324
0001a0 66 af d6 bc 3f 40 8a bd b7 25 cd 3d 83 a6 cb 3c
       -0.026206683 -0.06750535 0.10016959 0.024859672
0001b0 00 8a 1f be ee 63 f5 bd ca b2 87 bd 3a ab 5b be
       -0.15579987 -0.11981951 -0.06625898 -0.21452036
0001c0 8f 2a 38 3e b9 38 58 bd a4 99 e7 bc 84 a3 3e be
       0.17984985 -0.05278847 -0.028271504 -0.18617064
0001d0 7c c0 9c bc 2b 42 c8 3c 4c 57 1f bc e1 ee a8 3c
       -0.019134752 0.024445614 -0.009725403 0.020621719
0001e0 89 c8 cd bd 35 42 e8 3d 74 c8 32 3c e2 35 d0 bd
       -0.10048015 0.11340753 0.01091205 -0.10166527
0001f0 5f 88 34 bd a5 86 09 bc 58 6e a3 3c 26 35 9f bb
       -0.044075366 -0.008393918 0.019950077 -0.0048586307
000200 71 fa be 3c b9 ec 57 3d 72 e8 a4 3d 06 96 58 3e
       0.02331278 0.05271599 0.08052148 0.2115098
000210 62 8c d3 bd 28 47 3a bc 3e 26 71 3d 2e a7 44 bd
       -0.1032951 -0.011369504 0.05887436 -0.048010997
000220 6b 87 8a 3c ca 59 de bd 4b 3d ce 3d 16 af 2a 3e
       0.016910275 -0.1085697 0.100702845 0.16668352
000230 5e c4 97 3c 5f 1e c9 bd 3d d3 20 3d 5d 33 5e be
       0.018526252 -0.09820246 0.039263953 -0.21699281
000240 1b 72 69 be 9d 80 c4 bd 77 e7 0a 3e 94 93 31 3c
       -0.22797434 -0.095948435 0.1356486 0.010838408
000250 62 16 dd bd 0f f2 31 be 44 1e 14 be 24 14 07 3d
       -0.10795285 -0.17377494 -0.1446467 0.032978192
000260 79 e5 ed bd 6b e9 06 be 52 6f bd 3d 94 5f c7 bc
       -0.11616034 -0.1317498 0.09249748 -0.024337567
000270 02 5a 02 be 81 8c 62 bd 82 1d 41 bd 7b 27 e2 bc
       -0.12729648 -0.055309776 -0.04714728 -0.027606716
000280 40 01 f3 bb 7c e2 8e bd ff d5 0c be 11 76 4a 3d
       -0.0074159205 -0.06976792 -0.13753508 0.049429003
000290 7c 94 b2 3d 96 67 11 be 39 f0 94 be 7f 07 0e 3e
       0.087197274 -0.14199671 -0.29089525 0.13870047
0002a0 b5 e1 12 3e e5 5c ba bd e9 0a 43 3d 61 bf 70 3e
       0.14343913 -0.090997495 0.047617827 0.23510505
0002b0 e1 c8 cf 3d e5 c8 16 3d 57 fd bc bd 58 ca fc bb
       0.101457365 0.03681268 -0.09228008 -0.007714551
0002c0 d1 94 ac bd 25 3b 60 bc 4c cb 06 be 26 57 47 bd
       -0.08426822 -0.013685976 -0.13163489 -0.048667096
0002d0 cc 2c c7 3d c4 2d c9 3c ad 16 c1 bc 1b 64 2f bd
       0.09725341 0.024557956 -0.023570383 -0.042820077
0002e0 44 88 71 3c 36 d0 51 3d 50 7b 1f bd 86 ae af 3d
       0.014741961 0.051223956 -0.03893596 0.085782096
0002f0 4a 3c 84 3d df 6c ab 3d 14 c5 c7 bc 84 67 ca bd
       0.06456812 0.08370375 -0.024385966 -0.09883025
000300 a5 96 d2 bc 0b a8 29 3d a3 9a a4 3d 40 13 1f b9
       -0.025706599 0.041420024 0.08037307 -0.00015170593
000310 05 26 49 be ca 6f 30 bb a4 bf b8 3d 91 8a 54 bd
       -0.1964341 -0.00269221 0.090209275 -0.05188996
000320 df 23 6b bd d1 73 f1 3d 9e f1 9b 3d 2c 63 13 3d
       -0.057407256 0.11789668 0.07614444 0.03598325
000330 fd bf 77 bd e8 98 ce bd 9f f0 37 be df 9f ce 3d
       -0.06048583 -0.10087758 -0.17962883 0.10089087
000340 9c 28 35 bc 41 29 9c bd 69 55 1c bd 5d 2e fc 3c
       -0.011057045 -0.07625056 -0.03816739 0.030783826
000350 e4 5a 80 3d d9 91 8c bd 7b 76 dd bd 16 74 67 3d
       0.06267336 -0.06863756 -0.10813614 0.056507193
000360 b7 a1 43 bc 01 dc 99 bd fa f6 e8 3c 7b 6f 50 bc
       -0.011940411 -0.075126655 0.02843808 -0.0127218915
000370 28 d9 c6 bd 31 bb ed bd 51 4d 89 3d 4f 4b 81 bb
       -0.09709388 -0.116079696 0.067042 -0.003945745
000380 62 d3 11 be 08 84 4b bd bb 6e 2c be 4b 8a d5 3d
       -0.14240792 -0.04968646 -0.16839115 0.10426768
000390 42 aa 99 bd 33 e0 35 be 0c 0c 0d be 3d 8d 34 3c
       -0.07503177 -0.17761306 -0.13774127 0.011020002
0003a0 b4 62 82 bc 48 39 de ba 3d d1 2a be f5 d3 27 bd
       -0.015916206 -0.0016954327 -0.1668138 -0.040973622
0003b0 fd 31 2c bc 67 57 e4 bd fd 5c 68 bb d0 81 95 bd
       -0.010509965 -0.11149483 -0.0035455816 -0.073001504
0003c0 58 2c 04 bc f1 a4 98 3d 92 d6 43 bc 2b 46 95 3d
       -0.008067213 0.07453335 -0.011953013 0.07288774
0003d0 07 f2 85 bd 0a 24 2e bd 5e 32 4b be f5 3d e5 3d
       -0.06540304 -0.04251484 -0.19843432 0.11193458
0003e0 14 71 05 be a2 b4 7b bd b1 11 97 bd ef fb 9a bd
       -0.13031417 -0.06145156 -0.07376421 -0.07567584
0003f0 ad eb 15 bd 93 2f 75 bd dd 32 8e bd 2f 5d ab bd
       -0.03660171 -0.059859823 -0.06943295 -0.08367383

linear.3.bias f4 [64]
000000 bf 5c 0e be c4 63 84 bd 83 13 d3 bd a5 93 3e bb
       -0.13902567 -0.06464341 -0.10306456 -0.0029079702
000010 ef a9 dd 3c a4 3b b4 3d 61 98 08 bb 37 85 32 bd
       0.02705857 0.08800438 -0.0020842778 -0.043584075
000020 66 3a 4d bd 13 9f 81 bd 0f f1 f8 bd 73 af 28 be
       -0.05010452 -0.06329169 -0.12155353 -0.16473179
000030 d4 7a c9 3c 7a 42 89 bd 27 a0 58 bd a2 ba c7 bd
       0.024594702 -0.067021325 -0.05288711 -0.09752394
000040 9a 1e 52 bd a5 12 3d 3c 42 ac b4 bd c3 07 35 bd
       -0.051298715 0.01154009 -0.08821918 -0.044196855
000050 a3 1e fa 3d 42 33 93 3d 53 b3 cc bd d5 af 02 be
       0.12212875 0.07187511 -0.09995141 -0.12762387
000060 0d 00 6c bb e3 bf cd bd 2c 7a dd bd d5 82 21 be
       -0.0036010772 -0.10046365 -0.10814318 -0.15772565
000070 bf f8 f4 bd 4e 97 8b bd 23 30 40 bd 2e a3 55 bd
       -0.11961507 -0.068159685 -0.046920907 -0.052157573
000080 1f 0d 15 be 8e 00 82 bd c7 d7 a5 bd 79 c6 da bc
       -0.14555787 -0.06347762 -0.08097797 -0.026705967
000090 86 a3 b6 bd 1d 56 34 bd 51 93 71 3d c4 e8 44 bd
       -0.08917908 -0.044027437 0.058978382 -0.048073545
0000a0 07 00 a3 3c b6 58 ac bc 1e 5a ca bb 15 28 04 be
       0.019897474 -0.021038394 -0.0061752936 -0.12905915
0000b0 0f 50 d4 3c 93 7c 31 3d 59 cf ce bd dc ba 95 bd
       0.025917081 0.043331694 -0.10098142 -0.07311031
0000c0 b8 b8 be bc 42 bc b0 bd f7 75 f0 3a e3 a0 a0 bd
       -0.02328144 -0.08629657 0.0018345703 -0.07843187
0000d0 00 6d 33 3d 1c 1d 09 bd 71 94 06 be af 43 07 be
       0.043805122 -0.033475026 -0.13142563 -0.13209413
0000e0 33 74 35 bc db 15 7b 3d a0 7f 02 be 87 1e 0d be
       -0.011075067 0.06130014 -0.12743998 -0.13781177
0000f0 66 5c 2b be 9d 52 b1 bd 19 24 df bd 51 eb c8 bd
       -0.16734466 -0.08658335 -0.10895557 -0.09810508

reg.weight f4 [2, 128]
000000 a8 4e 10 3c 83 45 1a be eb 01 c8 3d d5 bc 9e be
       0.008807816 -0.15065579 0.09765991 -0.31003442
000010 c5 a3 ce 3d 02 3d f1 3a b3 a4 09 be 4a 99 c5 3d
       0.1008983 0.0018405023 -0.13441734 0.09648378
000020 92 59 e3 bd ec e2 ac 3b 78 28 20 be 4b 00 81 3d
       -0.111010686 0.0052760746 -0.15640438 0.06298884
000030 a1 8d 95 3d 7c 93 5c 3c 36 e2 c7 3b 65 e2 d2 3d
       0.07302404 0.013462897 0.0060999645 0.102970876
000040 6a 40 be 3b e9 4a 13 3c 5d 0f 0e be 30 73 ec b8
       0.0058060186 0.008990028 -0.13873048 -0.00011274812
000050 97 b5 b0 3c 89 aa 06 be 0d 76 9a bd 39 76 21 3e
       0.021570964 -0.13150991 -0.07542048 0.15767755
000060 1d 22 43 3c 3b e3 26 bc d9 6d 33 bd c6 2c 04 bd
       0.011909989 -0.010186012 -0.04380593 -0.03226926
000070 8f d1 d7 bd 42 ec 1c be 3e f7 3b be c0 ef a9 3b
       -0.10538017 -0.153245 -0.18356034 0.005186051
000080 8f 72 df bd c6 94 d2 3b 99 d4 15 3d 02 25 e2 3b
       -0.10910522 0.0064264266 0.036579702 0.0069013843
000090 b1 7b 56 3d fd 73 c4 3d 36 85 18 be d9 d8 84 3b
       0.052364055 0.095924355 -0.14894566 0.0040541706
0000a0 b7 1a e1 3b 9a f1 19 3c d0 66 a0 3b 34 41 a1 bd
       0.0068696397 0.009395981 0.0048950687 -0.07873765
0000b0 7a aa 07 be b6 a2 ce bd fd f3 b0 bd 5a 36 35 3e
       -0.13248625 -0.100896284 -0.08640287 0.17696515
0000c0 5f 35 03 bd 55 5e 9c 3d 74 4e 33 be f7 2f 06 3c
       -0.03203332 0.0763518 -0.17510396 0.008190147
0000d0 8f 5a d1 bd 58 d3 38 bd 45 bb d3 3d 24 3a a4 bd
       -0.10222351 -0.045123428 0.10338453 -0.08018902
0000e0 d0 de 33 bd 55 14 0d 3b 94 41 cf 3c 22 17 04 3e
       -0.043913662 0.0021527011 0.025299825 0.1289945
0000f0 c7 cb ea 3c 7e 5a 40 3d b1 5d 9f 3d 4a 22 eb bc
       0.028661622 0.0469613 0.07781542 -0.028702874
000100 08 fd b3 3d dc 2e 5f 3d 03 b8 ce 3d 9d 74 c5 bd
       0.08788496 0.054488048 0.10093691 -0.09641383
000110 0b fb d4 bd 2d 88 24 bd d5 f6 12 bc 54 7d 01 3d
       -0.10399445 -0.04016893 -0.008969982 0.031613663
000120 e0 5d 15 3e df d6 6e 3d 9d 11 18 bd db c4 95 ba
       0.14586592 0.058310386 -0.037126172 -0.0011426465
000130 e7 ed 14 3b 73 9d 94 bd 71 9d 9f bb df 6c 3b bd
       0.0022724809 -0.072565936 -0.0048710634 -0.045758124
000140 b2 49 f9 3c 5f 56 96 3d f2 16 84 bd 57 86 73 3d
       0.030430648 0.07340693 -0.06449689 0.05945429
000150 de 8d 5b 3d 63 f5 1c bd ed 4f 08 3e 3d 84 5b be
       0.053602092 -0.038319957 0.1331174 -0.21437164
000160 81 7a d0 3d 8c 24 14 bb bc b7 b6 ba 60 40 25 be
       0.10179616 -0.0022604791 -0.0013940255 -0.16137838
000170 db a0 66 3c 2e 88 6f bd 53 af 9f bc 29 07 ec bc
       0.014076437 -0.05847948 -0.01949278 -0.028812008
000180 52 38 fb 3d 2f 51 5d 3d 12 6e 4e bb 2a 9e 8e 3d
       0.122666016 0.0540325 -0.0031498712 0.06963761
000190 61 d0 9c bd 7a 52 ba bd 6a 1b 1a be 40 60 cd bd
       -0.076569326 -0.090977624 -0.1504952 -0.10028124
0001a0 a0 e6 3f be f4 5b bf 3b f4 a8 63 3e 16 1d e2 3c
       -0.1874032 0.005839819 0.22232419 0.02760176
0001b0 47 92 98 3d 46 95 61 3c 44 8a 21 bd 0d c3 b5 3d
       0.07449775 0.0137685 -0.0394385 0.088750936
0001c0 ac ce b2 3c 65 ff 0f 3c 26 7e 9b bc f4 9e 96 3c
       0.021827064 0.008788918 -0.01898105 0.018386342
0001d0 b8 b9 27 bc 2b 60 80 ba dc bd ce 3d f6 b1 e0 3b
       -0.01023715 -0.0009794285 0.100948066 0.006857152
0001e0 93 bc 9e 3b 67 62 19 3d c3 94 4e 3c 4b 99 9e 3b
       0.004844257 0.03744736 0.01260871 0.0048400513
0001f0 b1 92 29 3b 3e 02 14 bb 56 bc df 3b b4 6b 8a bb
       0.0025874788 -0.0022584344 0.0068278713 -0.004224265
000200 76 67 6c 3c b3 61 e6 3c a6 fc 91 bc 50 b8 42 3c
       0.014428964 0.028122758 -0.017820667 0.011884764
000210 23 96 90 bb e2 13 04 3a 78 fd 09 bb f2 eb 12 3c
       -0.004412429 0.0005038363 -0.002105562 0.008967387
000220 00 c7 a0 bb 49 96 fa 3a 36 ea 09 3d 0c b2 74 ba
       -0.004906535 0.0019118275 0.033670627 -0.00093343924
000230 68 53 7c 3b 20 27 d1 3a 7e 5e 0f 3b c6 ec 91 3c
       0.0038501862 0.0015957095 0.002187639 0.017813098
000240 0a 9c 0a 3c 88 cf b5 ba 07 c9 32 3c 70 a2 18 bb
       0.008460054 -0.0013871053 0.0109121865 -0.002329018
000250 4f 82 60 3b dc 5d 37 bb 5b 53 90 3c c0 34 59 bd
       0.0034257357 -0.0027979529 0.017617872 -0.053028822
000260 aa ba 0e 3b 20 ee e1 bb 96 34 f3 3b 03 e4 23 3c
       0.002177874 -0.006894842 0.00742204 0.010003093
000270 16 e8 0c 3c 07 a8 9e bd 71 ff 15 3c e8 60 b7 3b
       0.0086002555 -0.077468924 0.00915514 0.005596269
000280 a8 9c 08 3c c0 53 dd ba a6 b5 23 3c 59 40 ab 3a
       0.008338131 -0.0016885921 0.009992039 0.0013065442
000290 54 ae 28 3c 48 f2 a0 bb 41 ed 31 bc 7a 65 87 3a
       0.010295469 -0.0049116947 -0.010859788 0.0010329925
0002a0 2c cc c6 b9 4b 5c ca 3b 12 4e c6 3a 5f e7 e8 bb
       -0.00037917623 0.006175553 0.0015129468 -0.0071076597
0002b0 00 1b 1b b9 84 c6 56 3b 8a 2c 08 3c a6 34 82 ba
       -0.0001479201 0.0032772133 0.0083114 -0.0009933903
0002c0 4d c0 c1 bc 53 f3 c7 bc 3a 49 07 3c 70 51 1c 3b
       -0.023651266 -0.024408018 0.008257205 0.0023852251
0002d0 3a 9b c9 3b 10 41 16 3c 91 86 5e 3c 38 e1 2e bd
       0.0061525377 0.009170786 0.013581888 -0.042695254
0002e0 cf 57 67 bb f7 4f 01 3b 39 77 06 3d d0 54 83 3c
       -0.003530014 0.00197315 0.032828543 0.016031653
0002f0 06 71 06 3d 03 39 96 3b dc 0b 28 ba 41 05 cb 3c
       0.03282263 0.004584433 -0.00064104586 0.024782779
000300 b0 51 16 3d 0b 82 01 bb 46 4a 44 3e bf 89 9f 3b
       0.036698997 -0.001976135 0.19168958 0.0048687155
000310 a4 7e 83 bd c0 21 e3 39 13 5b a1 3b b5 bc dd bd
       -0.06420639 0.0004332196 0.004924187 -0.10827009
000320 00 54 60 3b 80 4f 44 3a 80 38 7f b8 a4 91 60 bb
       0.0034229755 0.0007488653 -6.0849357e-05 -0.0034266496
000330 33 70 1e bb 9f 60 bd 3b 3f fe 0f 3d fc b6 7a 3b
       -0.0024175763 0.0057793404 0.035154577 0.003825604
000340 d1 81 82 3d c5 3e 83 bb 96 cd c4 3c 46 18 f8 bd
       0.06372417 -0.0040052854 0.024023812 -0.12114005
000350 62 63 e9 3b 50 2f 63 ba fe 54 20 3e f0 5c e0 b8
       0.007122443 -0.0008666413 0.15657422 -0.00010698463
000360 62 d3 62 bb 52 d5 52 bc 12 1e ba 3b 5c c1 37 3a
       -0.0034610857 -0.012868242 0.005679854 0.0007009709
000370 ca 0c 87 3a 4c fe 69 3d ae 4f c7 ba 27 bf 23 3c
       0.0010303494 0.057127282 -0.0015206242 0.009994305
000380 ba 97 0c 3d b8 ed a5 3b 80 18 65 bb bf 70 c8 3c
       0.034324385 0.0050637387 -0.003495723 0.024467824
000390 55 d9 22 b9 30 58 a4 3c 8a ad 93 3a 7e e6 db 3b
       -0.00015530486 0.020061582 0.0011266929 0.0067108264
0003a0 4e b1 cd 3a a0 73 23 bc 1e 27 53 3c e7 9b f0 3c
       0.00156931 -0.009976298 0.012887744 0.029371215
0003b0 c1 17 0c 3c 21 86 54 3a 94 bc 48 3a 58 ff b4 bc
       0.008550585 0.0008107145 0.0007657495 -0.022094414
0003c0 a5 12 19 be 59 f7 f3 bd 40 21 c0 39 b4 d1 22 bb
       -0.14948519 -0.11912412 0.00036645867 -0.002484423
0003d0 d4 43 fc bb f3 62 8f 3b 8a b3 39 bc f8 9c d3 39
       -0.0076985154 0.0043758093 -0.011334309 0.00040362007
0003e0 48 2a 27 3c f5 cb 83 bb 5a e5 a4 bb dc ae 19 3b
       0.010202952 -0.0040221163 -0.0050322236 0.0023450172
0003f0 70 54 8e b9 a0 93 c7 bb 59 cf b1 3c 60 89 8f 3d
       -0.0002714726 -0.0060905963 0.021705316 0.07008624

reg.bias f4 [2]
000000 61 2b d6 bc 99 84 71 3b
       -0.026143732 0.0036852716
