server/models/value_model_minmax90.pt (torch, 255287 bytes, 12 tensors)

conv.0.weight f4 [4, 1, 3, 3]
00000000: 6652 55bd f796 9fbd fc5d 9c3d 6a45 dcbb
00000010: 704e 94bb 9901 f7bc a66c b93c fdbd dcbe
00000020: 0a9c b5bc 1b66 e0bd 55ab 29be b3be 8ebd
00000030: 0a4b d23d 53cc 783e 7239 61be 9770 243d
00000040: 02b7 fbbe 871b 073e 638e 05bd b793 f13d
00000050: 4ed7 e6be b0e9 3dbc 0b2b 9b3e d655 f83e
00000060: fd04 223e d35a d6be a7bd 60be 011a d2ba
00000070: 2f45 39bf 90bd bbbc f0f0 e7b6 41a4 693c
00000080: ef93 4d3e 8109 30bd 63c6 57be 4b5e 6ebe
-0.052080534 -0.07792466 0.076351136 -0.006722142 -0.004525952 -0.030152129 0.022634815 -0.431137
-0.022169132 -0.10956975 -0.16569264 -0.06969967 0.10268219 0.24296694 -0.2199457 0.040146437
-0.4916306 0.13194095 -0.032606494 0.117957525 -0.4508614 -0.01159136 0.30306277 0.48502988
0.15822215 -0.41866168 -0.21947347 -0.0016029478 -0.7237119 -0.022917539 -6.9123853e-06 0.014260353
0.20075963 -0.042977814 -0.21071772 -0.23278157

conv.0.bias f4 [4]
00000000: 0398 2d3e 98df 62bd 8fac bebc a07c f33d
0.16952519 -0.055389017 -0.023275642 0.11889005

conv.2.weight f4 [4, 4, 3, 3]
00000000: 33c8 bcbe 4eef 783e 4949 9fbd b6a5 6c3e
00000010: 9090 d2bc 77f0 803d 8718 43bd 8e2b 8dbc
00000020: 9583 2abe 2bbc 5bbd 2cf1 75bc 19c0 833d
00000030: d531 063e f943 07bf f4d8 b93d bb64 31be
00000040: 133d 9abd 02f0 2bbe b4db ae3c bbf7 c3bc
00000050: 32cd 8cbd 5523 cd3b 8caf 7cbd fcda 6dbe
00000060: eff6 9a3d 8a36 8abe 2646 083e ae77 3dbe
00000070: d6fc 4f3e b17d c23d 9b0b 7cbd f5ff 7cbe
00000080: 02c1 973e fddc e53c 80c8 403e b070 c1bd
00000090: 0507 cf3d d054 8d3d 2c54 87be f3f0 503d
000000a0: 8e74 febd 2024 fbbc ee81 3a3e a00c a93e
000000b0: b71b 47bd 89bd 20bd adc3 bc3c 2e7f 06bf
000000c0: 03b4 a1bc b95d 82bd b5fe 623e d4ba 5cbe
000000d0: c4e2 973c e1ea 4abe 7bcb 503c d2b9 ab3c
000000e0: fc50 423e b905 d33c 36f9 7abe 14cb adbf
000000f0: 9c74 a53c 06b1 d0be f5dc b53e 358a 0b3d
00000100: 6c05 8cbd bf4f 033e 2891 513a 3fff 4d3e
00000110: 01c6 41bf 3f58 443e ad5e f63e 4cb3 8bbe
00000120: fbef aebc e5ad b3bd d123 0c3c ad82 90bc
00000130: 43f1 023c 54d1 9cbd 014a 8c3e 847c 88bd
00000140: 781a a33e b627 4b3c 6ca2 55bb 1e23 c4be
00000150: 29aa b8bd 7245 f2bd 0d79 e0be 50e3 2ebe
00000160: 7589 89be 1e2f 8cbe 80db a33b 68f6 1cbd
00000170: e709 5bbf 18b3 59bc 01b2 7fbe 3cd3 9d3d
00000180: 6555 243d f74a a0bd e07f bd3c 41e0 5abd
00000190: af20 2e3d fa4a e3be 0b07 573d 5c96 f03c
000001a0: 4696 b53e b6e4 3d3e bff3 8b3d 04e8 eb3d
000001b0: 64af 99bd 5778 c63e c5c1 dcbd 6209 0d3e
000001c0: d344 c0bd 7850 033d 0eda 1bbc 070d 1d3e
000001d0: fb3a ea3d fb90 c5bc 9130 13be 7723 123e
000001e0: fb6d fe3d 55fc 3ebe 18f7 19be 9202 2d3e
000001f0: 000f 94be 3780 2d3d 76ce e63c c01c 603e
00000200: 7914 1fbf 65bc 88bd 1740 193e 4eee 8fbe
00000210: dbaf 073e facc 69be a04d 94bd 5b9c aa3d
00000220: ef52 11be 18ab 2b3e 3e3d d13b ac41 84bd
00000230: b850 933e 4fcf 8e3d 380e 233c 3fdf 263d
-0.3687149 0.24310037 -0.0777765 0.23110089 -0.025703698 0.06295865 -0.047630813 -0.017232683
-0.16651757 -0.053646248 -0.015011113 0.06433124 0.13104947 -0.52838093 0.09074584 -0.17323582
-0.0753118 -0.16790774 0.021344997 -0.023921838 -0.068750754 0.0062603154 -0.061690852 -0.23228067
0.0756663 -0.26994735 0.1330801 -0.18502685 0.20311293 0.0949663 -0.061534505 -0.24707015
0.2963944 0.028059477 0.18826485 -0.094453216 0.10108761 0.06900942 -0.26431406 0.051011037
-0.12424575 -0.030656874 0.18213627 0.33017445 -0.048610415 -0.039243255 0.023042524 -0.5253781
-0.019739157 -0.063655324 0.22167476 -0.21555644 0.018540747 -0.19816162 0.012743826 0.02096263
0.18976206 0.025759565 -0.24509129 -1.35776 0.020197205 -0.40760058 0.3552014 0.03406735
-0.06836972 0.1282339 0.0007994347 0.201169 -0.75692755 0.19174288 0.48119107 -0.2728523
-0.021354666 -0.08773402 0.008553461 -0.017640436 0.007992092 -0.07657114 0.2740021 -0.066643745
0.31856132 0.012399605 -0.0032598032 -0.38308042 -0.090168305 -0.11829652 -0.43842354 -0.170789
-0.26862684 -0.27379698 0.0050005317 -0.03832093 -0.85561985 -0.013287328 -0.24970247 0.077063054
0.0401205 -0.078267984 0.023132265 -0.05343652 0.04251164 -0.4439314 0.05249695 0.029368572
0.35466212 0.18544278 0.068336 0.11518863 -0.07504156 0.38763687 -0.10779146 0.1377311
-0.09388127 0.032059163 -0.0095124375 0.15337001 0.11437031 -0.024116984 -0.14373995 0.14271341
0.12423321 -0.18650945 -0.15035665 0.16895512 -0.28917694 0.042358603 0.02817462 0.21885967
-0.62140614 -0.066765584 0.14965855 -0.281115 0.13250677 -0.22832099 -0.07241368 0.08330604
-0.14191793 0.16764486 0.0063854745 -0.064578384 0.2877252 0.06973135 0.0099521205 0.040740248

conv.2.bias f4 [4]
00000000: fcd8 86bd 55db c9bd becd 23be 4b23 21be
-0.06584355 -0.098562874 -0.15996453 -0.1573612

conv.5.weight f4 [64, 36]
00000000: 99bb 0dbd 9985 81bc 9c0f 17bd 7f7e bebb
00000010: 0ac8 6abc ff5d 953d 62dc 4fbd 4419 efbc
00000020: f641 d7bd 76df 1cbc 4875 363c d8b7 00bc
00000030: 9f36 913b 7a94 523c 6f88 f13c 3688 2b3d
00000040: 56c7 af3d 6b07 6f3d 5808 233d 1a31 353d
00000050: a702 90bc 091e 323d b778 aebb 44cc 5ebd
00000060: 5879 453a 5234 bbbc c663 6bbd 509e 23be
00000070: ca17 5b3c 4884 d93b 00cb 273d 3f18 1abd
00000080: bf54 2e3d e83d e43c 946e 56bc 57bd 6dbc
00000090: 2835 a7bd ca14 b9bd d824 24be adff b1bd
000000a0: 7a66 fb3d 45d6 843e 7d45 2b3d ba6f 01be
000000b0: 9638 0cbc 52ea bf3c 0cd6 babe 4613 88be
000000c0: f157 a4bb 3543 caba 4967 3f3e cd91 1dbd
000000d0: 8e8b 233e 2d2b 3cbf 5d38 70be a0b9 adbb
000000e0: 4302 13be 9c0f 60bd 076e 09be d6f6 733e
000000f0: 734a 4a3d 7d15 e63c 90f6 ebbe 2291 85be
00000100: 41d8 9cbd 1b6a a4be d08d 203e 17a1 13be
00000110: dce6 d7be 2547 85bd 9d54 ce3c c4cb dabe
00000120: 6203 1fbe c1b3 c43e f8b6 f03e 6a67 41be
00000130: aea2 82be 0265 90be 7e18 81be e78f e6bd
00000140: 1d77 4d3e a492 1fbf c7d0 0abf ef52 9d3e
00000150: 909d f33d 2499 6c3e fd34 083f 343d 053f
00000160: 4054 d33e 6ba3 1f3e e9b8 19bf 62ae 5dbd
00000170: 9930 b8be 6b42 f23e bb68 c83e 1f1a e03e
00000180: 253a 643f e1f4 c13b 307d 14be 3978 143f
00000190: bf31 093e 8083 063d f395 8c3e faf9 32bf
000001a0: aa56 37bf 089a 20be 9d01 28bf e775 a6be
000001b0: 10e1 6d3e 176f 133e 07b7 24bf 2a60 013d
000001c0: e5fb a8bc d84e f13d f253 513d 695e cdbd
000001d0: 744d 6e3e 7cef 8dbb 9aae 0bbc a4a1 d53e
000001e0: 3739 1c3d ce8a 233d 74be 20c0 ba71 7e3d
000001f0: a895 533d 023a de3e 0cc0 f33a 26bf 86be
00000200: 3487 793e ba73 32be 1156 663c 67d3 c7bf
00000210: b3d9 36bd 0e35 ab3b 5ce4 ed3f 8adc 0bbe
00000220: 3437 d53c 4e72 25be 1fd7 bf3d acbb 503d
00000230: c273 8abc 212c 2ebd de36 203c 753f 863e
00000240: a210 1bbe ce3b 533e c38b 973d 6944 c7bd
00000250: e3f2 a93e 1793 8c3d 1221 09bf ec62 f8be
00000260: 7d47 0e3f 3e1d 03bf d233 b0be acec eb3d
00000270: 67ed 9d3d 1fe6 8cbd 20fd f2be 9a2b d43e
00000280: 95ff 5d3e bb2d d6be 1ad8 84be 02fb 48bd
00000290: 24ce 963e 14f2 0dbe 1ee8 813e a243 b13d
000002a0: 7bd0 993e cd60 0d3f 2be5 3bbe 21cd 52bd
000002b0: a7ed 1e3f b044 c73e 12e3 363e 2ff5 dcbd
000002c0: 0c4f 80bf 4344 993d c669 dabd eec5 16bf
000002d0: 5bdf b83e af0e ebbd 7530 5f3e 183a 7ebe
000002e0: 5395 8f3e 4e21 29bd baa1 debd 6ad3 f23b
000002f0: 79a2 e63e f230 d6bc e085 dcbe 9a3a 7cbf
00000300: 53d2 3c3d 4013 fabd 1e84 e2be afe2 1ebe
00000310: 5a5d 0cbe 4660 ccbe 2388 e5bc c75a 1d3e
00000320: cda0 a03e ea98 e0bc af33 13bd 94ba 8a3e
00000330: ed7d 003e 0772 15be 8a8a 463c 7882 22be
00000340: 24f5 533e b1ee d63e 9b95 d4bc d569 17bd
00000350: c7be 21bf 2969 37bc 3665 0d3d 9679 493d
00000360: 338f 14be d910 99bd 2a19 533b 80ec 21bd
00000370: 947c ff3d ab18 d73d 6f7b 42bc eb06 d8bc
00000380: 7029 94bd 34ea 8f3a 545d 48bd 86ed 213d
00000390: 0487 7e3d b9aa 57bc ae2e 063f 35a0 dc3c
000003a0: babc 953c 4f6e 8abd fd5b 313e 2f64 823e
000003b0: 0c0b 31bd 5911 593e 05ed b8bd e88e b93e
000003c0: 5252 f2bc ebdc fd3d 522f e7be e24d 453e
000003d0: 6b38 89bd 1350 95bd 0e03 903d 8108 c83c
000003e0: 2de8 763e f697 843c 4841 bf3d 0793 3dbc
000003f0: 1388 c33e 1eb6 39bb eb5b 87bd 48f9 673c
-0.034602735 -0.015810775 -0.03688012 -0.0058134194 -0.01432992 0.07293319 -0.050747283 -0.029186852
-0.10510628 -0.009574762 0.0111363605 -0.007856332 0.00443156 0.012852782 0.029484002 0.041877948
0.08582942 0.058356684 0.03980288 0.04423628 -0.01757939 0.043485675 -0.005324449 -0.05439402
0.0007533035 -0.022852097 -0.0574682 -0.1597836 0.013372371 0.0066380836 0.04096508 -0.03762078
0.04256129 0.02786155 -0.013087887 -0.014510474 -0.081644356 -0.09037168 -0.1602968 -0.086913444
0.12275405 0.25944725 0.041814316 -0.12640277 -0.008558413 0.023427162 -0.3649143 -0.26577204
-0.0050153662 -0.0015431406 0.18691744 -0.038469125 0.15971205 -0.7350338 -0.23459001 -0.0053016692
-0.14356332 -0.054702386 -0.13420878 0.23824629 0.049387407 0.028086418 -0.4608655 -0.2608729
-0.07658435 -0.32112202 0.15679097 -0.1441692 -0.4216832 -0.0650771 0.025186831 -0.42733586
-0.15528634 0.3841839 0.47014594 -0.18887106 -0.2551474 -0.28202063 -0.25214 -0.11257916
0.2006497 -0.6233313 -0.5422482 0.30727336 0.11895287 0.23105294 0.53205854 0.52046514
0.41275215 0.15589683 -0.60047776 -0.054121383 -0.35974577 0.47316298 0.39142403 0.4376993
0.8915122 0.0059190844 -0.1450088 0.57995945 0.13397883 0.032840252 0.27458152 -0.69912684
-0.71616614 -0.15683758 -0.6562746 -0.32511827 0.23230386 0.14397846 -0.6434178 0.03158585
-0.020627925 0.117826164 0.051105447 -0.10027773 0.23271734 -0.0043315273 -0.008525515 0.41724885
0.0381405 0.039927296 -2.5116243 0.062120177 0.051656395 0.4340363 0.0018596663 -0.2631771
0.24367982 -0.17426959 0.014058606 -1.561139 -0.044641208 0.0052248305 1.8585315 -0.13658348
0.0260273 -0.16156885 0.09367203 0.050960228 -0.0169009 -0.042522553 0.009778706 0.2622029
-0.15143064 0.20628282 0.07399704 -0.09729845 0.3319312 0.06863993 -0.53566086 -0.4851297
0.5557783 -0.51216495 -0.34414536 0.11519751 0.077112965 -0.068798296 -0.47458744 0.41439515
0.21679528 -0.41831765 -0.25946122 -0.049067505 0.29454148 -0.13861877 0.25372404 0.08655478
0.3004187 0.5522583 -0.1834914 -0.051465157 0.6208138 0.38919592 0.17860058 -0.107889526
-1.0024123 0.07483723 -0.10664706 -0.58895767 0.36107907 -0.1147741 0.21795829 -0.24826849
0.28043613 -0.041291527 -0.10870691 0.0074104564 0.45045832 -0.026146386 -0.4307089 -0.9852692
0.04609902 -0.12210703 -0.44241422 -0.1551616 -0.13707486 -0.399172 -0.028019017 0.1536666
0.3137268 -0.027416665 -0.03593796 0.27095473 0.12548037 -0.14594279 0.012117991 -0.15870082
0.20698982 0.41978982 -0.025950244 -0.036966164 -0.6318173 -0.011194506 0.03452035 0.04918822
-0.14507751 -0.074739166 0.0032211044 -0.039532185 0.12474933 0.10502752 -0.011870249 -0.026370486
-0.07234466 0.0010979832 -0.04891713 0.03953316 0.06214048 -0.013163262 0.5241498 0.026931861
0.018278468 -0.06759321 0.17320247 0.2546706 -0.043223426 0.21198024 -0.09029583 0.3624184
-0.029580269 0.123956524 -0.4515329 0.19267991 -0.06700214 -0.072906636 0.07031833 0.024418117
0.24112006 0.016185742 0.09338623 -0.011570699 0.38189754 -0.002833731 -0.06609329 0.014158554

conv.5.bias f4 [64]
00000000: 97c2 ccbd 7660 e1bd 0b87 25bf cdf7 61be
00000010: e697 34be 364a 8fbe 4281 943e 5100 8f3d
00000020: e3d0 16bf 850d 73be 1425 24bf 427f 48c0
00000030: 58c2 04bf b13b 33bf 217b cebd 4f4d 0dbf
00000040: f673 a4bd 437f 34bf fbcf 2abf 3290 b3bd
00000050: cbef 49c0 ff29 edbe 0098 e5be 9138 03bf
00000060: f6e2 35bf 51d4 38bf 2ab5 eabe 5924 4bc0
00000070: 49fe b9be 3e45 cdbe 10f3 1c3f 7c14 24bf
00000080: 14c4 21bf 1052 e6bd 76d6 16bf 007d fabd
00000090: ff65 50bf 33c5 35c0 f25f a43e 4ca8 aabd
000000a0: 161f 06be 829f e8bd f821 a4bd 0ab3 f4be
000000b0: 1f71 0e3e 88b8 0ebf fa49 33bf 0e92 893e
000000c0: 8197 0cbf 88f3 41bf 6ab0 01be b49b e1be
000000d0: 0781 05bf 5913 e2be cabc 67be 9939 ffbe
000000e0: 4a5c dabe 8a1d a2bd 24f9 47bf fdb7 c7be
000000f0: 0497 3fbf f263 22bf 89bc 34bf 1063 e7be
-0.099980526 -0.110047266 -0.64659184 -0.22067185 -0.1763607 -0.27986306 0.29004866 0.06982482
-0.58912486 -0.23735626 -0.64119077 -3.1327672 -0.51859045 -0.70012957 -0.10082079 -0.5519609
-0.0802993 -0.70506686 -0.66723603 -0.087677374 -3.1552608 -0.46321103 -0.4484253 -0.5125819
-0.7104944 -0.7219897 -0.45841342 -3.1740935 -0.36326817 -0.4009189 0.61308384 -0.64093757
-0.63189816 -0.11246121 -0.5892099 -0.12230873 -0.81405634 -2.840161 0.3210445 -0.08332881
-0.13097796 -0.11358549 -0.080142915 -0.47792846 0.1391034 -0.5575032 -0.70034754 0.26869243
-0.54918677 -0.75762224 -0.12664953 -0.44064105 -0.52150005 -0.44155386 -0.22630611 -0.4984863
-0.42648536 -0.079157904 -0.78114533 -0.3900756 -0.74839807 -0.63433754 -0.7060018 -0.45192766

linear.1.weight f4 [256, 169]
00000000: 0047 c13b 3ae0 203d 0a75 723d 1ebe 5d3d
00000010: a826 d1bc b62c b5bc 740c 013d 34d2 1d3d
00000020: c657 563d 2231 4b3d b87c 783c 706a 39bc
00000030: f0d2 033d b6df 463d 40e9 09bb f851 6fbc
00000040: 9095 ce3b 54ef 34bd c052 9abd 40b7 aabc
00000050: dd5c 973d 6897 73be a5cb 833b f05f 4e3c
00000060: 9471 82bd 78bb 86bd ec2a 8bbc 18fd 1c3d
00000070: 4040 d03c 401e 32bb c4f8 f33c 802c 2bba
00000080: 2a2a 36bd 0a86 a63d 52dc 24be b030 9dbe
00000090: 64ab a03c 10bd ab3c d471 2ebd 2eb0 7e3d
000000a0: 9ccb 323d dc49 64bd 2a23 d3bd ed60 9e3e
000000b0: 3e73 8a3e ab0c c73e e99d e53d 9e54 2cbf
000000c0: bcdc 9a3e a966 15bf 262e 9a3d b3fe 8fbd
000000d0: 3e54 253d 9219 4d3d d8b2 04bc a2fc 873e
000000e0: 9ea2 a8be 632f 043f 4011 7a3d f368 e3bc
000000f0: d486 8c3e f2e1 e6be d76f c4be e0a0 2d3d
00000100: d2d9 53bd a232 d3bc 96b6 41bd 25f9 1dbd
00000110: 84d5 8ebe afe2 fd3d 578b c33e 9bd3 b33e
00000120: 02e4 a93e b548 383e 638c 293f 17b0 03bc
00000130: 8a1f 58bd 80c3 013d 6466 ed3c 60d0 12bd
00000140: 40fe e83c 49c5 963e 6118 1a3d 5d99 44be
00000150: 35d0 d9be a313 543d 53ec 11bf eb20 fc3e
00000160: 4656 213d 2edd 4f3d 54a2 08bd 8598 11bd
00000170: 7aa6 99bd 3692 71be 2408 913d b373 17bd
00000180: 033b 7d3e 05c8 bb3d 311a cd3e 4269 2f3e
00000190: 7020 14be 0e6b 5d3d 40ab 72bd 50d6 8ebc
000001a0: 087e 3fbc 5845 1a3d e8f1 f73d e8a7 1fbe
000001b0: a239 90be 5b6e 05bd 86ab 5fbe cc85 1abb
000001c0: ad07 b53e 8016 e5bd 30e7 d83c bc3a 3f3d
000001d0: 2446 debc f5c1 b0bd 119c 39be 8d27 d4bc
000001e0: f35f 593c cf7b d43b 9f0b bb3e b8d9 e43d
000001f0: 56cd c03e f961 8c3c feac 3d3d d652 6b3d
00000200: 8832 02bd e180 8b3d 6ecf 4c3d 767b debc
00000210: e72a 823d 828d 713e 7a5d a3bd bad3 0cbe
00000220: 4a28 18bd 7241 4d3d 183d 2d3c 8092 38bc
00000230: bb6d 00bd 0278 783d f77d 8d3d 6a5a 2dbd
00000240: 28ff 1c3d 2a5b 3c3d 68e7 8dbc 1e19 abbc
00000250: ecf6 e53c 4011 8b3b a012 2b3c 782c 1fbc
00000260: 5471 f43c e663 793d 3695 493d 8a91 033d
00000270: 7497 79bd f89b 903c 4668 3cbd 8841 2b3c
00000280: bc3f 013d 5082 ebbb 9f01 92bd 769f 6a3d
00000290: 9964 49bd e827 b43c 0a4d 4b3d e47e 953c
000002a0: 70d6 1d3d bec3 6d3d 0f80 8ebd d661 8abd
000002b0: 3808 383c 28ba e93c 5d06 8ebd d884 5a3c
000002c0: 7b94 16bd 950b 8bbd 14c0 4cbd e81c 3c3d
000002d0: 605f 17bb 0621 54bd d41d b6bc 50a8 22bc
000002e0: 1474 a0bc bed6 223d 323c 8ebc 9656 5bbd
000002f0: e6d1 3dbd bb58 803d 9ab8 643e 1986 8cbe
00000300: 5912 08bd aced 9a3c e66e 7bbd 1993 75bd
00000310: 7a28 6b3d 80b2 7e3a 6c7f c0bc 400b db3c
00000320: 1b86 1fbd 9062 eebb b373 f8be e3f2 2f3e
00000330: 6973 3c3e 2c26 933c 4029 da3c 8049 4f3b
00000340: a025 8d3b 205c 0f3d e894 8cbc 14fd e1bc
00000350: 5003 2a3e 8c2b 833e 06b0 dc3d 4405 38be
00000360: b3ca 8f3e 14fa 54bd 3c36 4f3d cb88 343c
00000370: fe4c 16be b201 36bd 3cb1 dfbc cdf4 78bd
00000380: d4c7 dabd f9d7 82be e7fd 913e bf24 58bf
00000390: 3bd4 dc3e 3909 6bbd 94bb 633e 0a5e 633d
000003a0: 949b 97bd 1e2a 2abd d658 5c3d 8ac4 f2bc
000003b0: b955 46bd 364a 3e3e 8d2f df3d 09f5 a6bd
000003c0: 6a70 c4ba 2ff1 a4be 5f35 22be d1fa b3be
000003d0: d64f 693e 3bad 27bd 9b37 8a3d 9e96 b1bc
000003e0: 3ef7 213d 76c3 473d 2cdc d13d 736c b2be
000003f0: 435b 603d de00 253e 840d a5bd eaa6 ab3d
0.0058983564 0.03927634 0.05919365 0.054136388 -0.025531128 -0.022116046 0.031506017 0.038530543
0.0523298 0.049607404 0.015166454 -0.011316881 0.032183588 0.04855319 -0.002104357 -0.014606945
0.0063044503 -0.044173554 -0.075353146 -0.020839334 0.07390759 -0.23788226 0.004022079 0.0125961155
-0.063693196 -0.065787256 -0.01698824 0.038327307 0.025421262 -0.0027178675 0.029781707 -0.00065297633
-0.044473805 0.08131035 -0.1609967 -0.30701208 0.019612975 0.020964175 -0.042589024 0.062179737
0.04365121 -0.0557345 -0.103094414 0.30933324 0.27041048 0.38876852 0.112117596 -0.67316616
0.30246532 -0.5835977 0.07528333 -0.07031002 0.040363543 0.050073214 -0.00809928 0.2655993
-0.32936567 0.51634806 0.061051607 -0.027760005 0.27446616 -0.45094258 -0.38366577 0.04238975
-0.0517214 -0.02578098 -0.04729327 -0.03856768 -0.27897274 0.12396752 0.38192245 0.3512238
0.3318177 0.17996486 0.6622984 -0.008037589 -0.052764453 0.031680584 0.028979488 -0.035843253
0.028441548 0.29447392 0.037620906 -0.19199128 -0.42541662 0.05177654 -0.5700123 0.49243864
0.039388917 0.050748043 -0.033357933 -0.035545845 -0.07502456 -0.23590931 0.07081631 -0.036975574
0.24729542 0.0916901 0.40059045 0.17129996 -0.14465499 0.054057173 -0.059245348 -0.017436177
-0.011687763 0.037663788 0.12106687 -0.15591395 -0.2816897 -0.032575946 -0.21842775 -0.0023578284
0.3535742 -0.11185932 0.026477426 0.046686873 -0.027133055 -0.08630744 -0.18125941 -0.025897766
0.013267505 0.0064844857 0.36532304 0.11174339 0.3765666 0.01713656 0.046307556 0.057452045
-0.03178647 0.06811691 0.050002508 -0.02715848 0.06355839 0.23589137 -0.079768136 -0.13752642
-0.037147798 0.05011124 0.010573648 -0.011265397 -0.031354647 0.060661323 0.069087915 -0.042322554
0.038329273 0.04598538 -0.017322257 -0.020886 0.028071843 0.0042439997 0.010441452 -0.009715192
0.029839195 0.060886286 0.049214564 0.03212122 -0.060935453 0.017652497 -0.04599788 0.010452636
0.031554922 -0.0071871653 -0.071292154 0.05728098 -0.049168203 0.021991685 0.049634017 0.018248983
0.03853458 0.058048002 -0.06958019 -0.06756942 0.011232428 0.028531149 -0.069348074 0.0133373365
-0.036762696 -0.067893185 -0.049987867 0.045926005 -0.002309762 -0.051789306 -0.02223102 -0.009927824
-0.0195866 0.039755575 -0.017362688 -0.05354937 -0.046342753 0.06266924 0.22336045 -0.27446058
-0.033220623 0.018912159 -0.061385058 -0.059954736 0.05741165 0.00097159296 -0.02349826 0.026738763
-0.038946252 -0.007274933 -0.48525771 0.17182498 0.184034 0.017962538 0.026630998 0.0031629503
0.0043074638 0.034999967 -0.017160848 -0.027586497 0.16602826 0.2561916 0.10775761 -0.17970759
0.28084335 -0.051996306 0.05058883 0.011018942 -0.14677808 -0.04443521 -0.027306192 -0.060780335
-0.106826454 -0.255554 0.28514025 -0.8443107 0.4313067 -0.057381842 0.22239524 0.055509605
-0.07402721 -0.041544072 0.053795658 -0.029634733 -0.048421595 0.18582997 0.108977415 -0.081522055
-0.0014987115 -0.32215258 -0.15840672 -0.35152295 0.22784361 -0.04093669 0.06748887 -0.021678265
0.03954243 0.04877039 0.102470726 -0.34848365 0.054774534 0.16113612 -0.080592185 0.08381446

linear.1.bias f4 [256]
00000000: 7cb5 15be 0fac 44be 5d30 d3bd 9a7d cdbc
00000010: 393c cd3d f4d1 91be 6914 1e3d b9d3 95bd
00000020: e1f5 27be 172e 4ebe 5f9f 10be 6f4a d3bd
00000030: 973c ad3d df91 57be a522 1abe c010 4abe
00000040: c8b9 debd 6745 4fbe 441b 13be 1dba 6dbe
00000050: 085c b93d 0b23 3cbe 0ca4 98be 3f42 e33c
00000060: 0095 2d3b 15bf 0b3d b821 9fbb 06db 953c
00000070: 4085 3cbe 46b5 36be 3848 b2be dcaf 80bd
00000080: 7010 a5bd e810 f13c 0f9f 69be 140b 93bc
00000090: bb0a 4fbd c0ed e7bd 8a03 28be a034 92be
000000a0: b023 98bd 26d2 cbbe 47aa 44be 45db 9bbd
000000b0: d8dc 70be 0d56 76be ff27 32bd f1b8 b2bc
000000c0: 1249 ccbd 7dd8 9b3d 3550 15bd ce0f 21bd
000000d0: 2fda 8f3d a051 45be a931 7bbd 9a86 27be
000000e0: acdb a8ba ea94 0d3c c53e 51be 3ecd 0a3d
000000f0: 412f 4d3d 944b a0bd 4294 86bd 00ea d6bc
00000100: 973b ccbd 99fc b5bd 3620 62be 72c6 ccbd
00000110: 0ec6 30be 882e bbbd 2959 00be 8f3c 97be
00000120: 98e3 6cbe f84b 87be 0508 acbc cd27 56be
00000130: bb21 01be 8722 37bd 060b f9bd 046b 983d
00000140: 66e6 ddbd 3ce5 bfbc 2b68 053d 401b 2ebe
00000150: af09 51be e1bf 4abe 35ab e0bd 799e 3abe
00000160: da93 e3be 5e06 bfbd 917b 46be 1798 063e
00000170: 1b57 bd3d 3dc6 e6bd 53db 0f3d c5c0 aa3d
00000180: 9df1 f8bd 4358 06be 53d0 1c3e dab4 26be
00000190: d5f4 49be fcf3 9bbd 88f0 fdbd ee1d abbe
000001a0: 6031 febb b270 8b3c 2422 8fbe 6e9a 3cbe
000001b0: 3927 ae3d 2d93 05be f641 8fbd 46c2 e4bd
000001c0: 3d16 b6bd a787 4cbe dd42 dbbd 95f4 973d
000001d0: 25f7 40be 662b e73c 494f 5f3d c095 eabd
000001e0: a62f 68bd 5d95 f6bd 4dfa 0dbe f8ab 60bc
000001f0: 575f d7bd e101 9cbe 2cbd f3bd 1d1c 68be
00000200: 937e 36be 692e 02be 534a 50be 0eff eebc
00000210: 5876 b4be 64a3 8bbe 2407 63be 3a25 d8bd
00000220: 9495 f2bc b066 c8bd 87de a3bd ca6c 47be
00000230: 6dab b8bd 0b2d 05be d1b6 72bd 1da3 8abe
00000240: ed9d 54be 7ab2 eabd fd4e 2dbe 1af9 1ebe
00000250: 1097 11be 7e52 36bd a756 4b3e 5e7b 3abe
00000260: 3eb9 7fbc a4d0 8dbd c7e0 963c 6591 82bd
00000270: 9548 76be 4bee 26be 5714 d4bd fc03 2dbd
00000280: 1366 8fbd cb1f 02bd 29ac 26be 6aaa 8bbe
00000290: 8101 00be 8ebf f0bd ee03 683e 69cf 22bd
000002a0: b5e4 a8bd 0d5f 1dbe e636 2dbe 8401 93be
000002b0: ef3d 88bd 7e1d 9cbd 9a26 00be 1b74 4fbd
000002c0: d894 523c 7e25 e4bc 03a9 32be 08a5 02be
000002d0: 7769 1cbd c820 77be 39b1 023d 7b04 5fbe
000002e0: e9c8 8fbe d581 b6be e2ea 083d f37f 47be
000002f0: f2a7 bbbe 07e2 27be d915 7bbe b443 a0be
00000300: 944b 8cbd 6dec 62be dfe9 3bbe e6d7 acbd
00000310: 85e7 0dbe ce76 5dbe d1cb 72be 125a aebe
00000320: bdc8 3bbe 71fd b0be 7247 93be 1429 8cbb
00000330: decd 2d3d 1ae9 19be c0b7 34be 506a a9ba
00000340: d649 34be fdf0 843d 1845 8f3a f3e6 15be
00000350: 426a 2fbe ea48 89bd 4855 77be 377c 6abe
00000360: 73e5 96bd 3a37 05be 7bfd 63be 6cbe 7bbc
00000370: 4b48 0fbe 1f2f d6bd 902e 8bbe 4649 6cbe
00000380: 981f 5ebe b119 00bd 5c90 d6bc 3c21 88be
00000390: 7646 ebbd e723 b63d 662f 273d 2aca 0dbe
000003a0: 0583 2cbe 9c5c 00be 90f7 40be 1a9f 0ebe
000003b0: d374 e9bd 05c5 89be a093 2cbe ba45 00be
000003c0: a156 89be 886e f1bd 1404 2abe b3f9 dabd
000003d0: d968 c6bd 5eee 44bd cb30 f93c 54e2 94be
000003e0: f151 5fbd db53 0ebe 8d82 07bd d9e7 98be
000003f0: b506 803d 96da 8a3c 3e1c 3cbe 8aea 8cbe
-0.14620012 -0.1920626 -0.10311959 -0.025084306 0.10021252 -0.28480494 0.038593683 -0.073157735
-0.16402389 -0.2013477 -0.14123295 -0.103169315 0.08458822 -0.21051739 -0.15052278 -0.19732952
-0.10875279 -0.20241319 -0.1436587 -0.23215528 0.09050757 -0.18372743 -0.29812658 0.02774155
0.0026486516 0.034117777 -0.0048563145 0.018292915 -0.18410206 -0.17842588 -0.34820724 -0.062835425
-0.08059776 0.029427007 -0.22814582 -0.017949618 -0.050547343 -0.11324644 -0.164076 -0.28555775
-0.07428682 -0.39808768 -0.1920558 -0.07610182 -0.23521745 -0.24056263 -0.043495174 -0.021816703
-0.099748746 0.07609651 -0.036453445 -0.039321713 0.07024037 -0.19269419 -0.061326656 -0.1635994
-0.001288285 0.008641461 -0.20434101 0.03388714 0.050093893 -0.078269154 -0.06571247 -0.026234627
-0.09972303 -0.0888607 -0.220826 -0.09998788 -0.17263052 -0.091397345 -0.12534012 -0.2953839
-0.23133695 -0.26425147 -0.020999918 -0.2091362 -0.12610523 -0.044710662 -0.12160306 0.074422866
-0.10834961 -0.023424737 0.032570045 -0.17002583 -0.2041385 -0.19799758 -0.10970155 -0.18224515
-0.4444874 -0.09327386 -0.19383074 0.13143955 0.0924513 -0.1126828 0.035121273 0.08337549
-0.12155459 -0.13119607 0.15313844 -0.16279927 -0.19722302 -0.07614896 -0.12399393 -0.33421272
-0.007757351 0.01702151 -0.27955735 -0.18418285 0.08503575 -0.13044424 -0.06995003 -0.11169867
-0.0889096 -0.19973622 -0.107061125 0.07419697 -0.18844278 0.028218936 0.05451897 -0.11454344
-0.056686066 -0.120402075 -0.13865013 -0.013712876 -0.105162315 -0.30470183 -0.11901316 -0.22666974
-0.17821722 -0.12713017 -0.20340852 -0.029174354 -0.3524654 -0.27273095 -0.22170693 -0.105539754
-0.02961234 -0.09785211 -0.08001428 -0.19475093 -0.09017072 -0.13005464 -0.05925638 -0.2707757
-0.20763369 -0.11459823 -0.16924663 -0.15524712 -0.14217782 -0.044512264 0.19857274 -0.18211123
-0.01560813 -0.06924561 0.018417729 -0.06375388 -0.24051125 -0.16301839 -0.10355442 -0.042240128
-0.07001891 -0.0317686 -0.16276611 -0.27278453 -0.12500574 -0.11755286 0.22657749 -0.039748583
-0.082467474 -0.1536829 -0.16915473 -0.28712094 -0.06652438 -0.07622813 -0.12514725 -0.050647836
0.01285287 -0.027849909 -0.17447285 -0.12758267 -0.038186517 -0.24133599 0.031907294 -0.21779053
-0.2808297 -0.3564593 0.033427127 -0.19482403 -0.3665157 -0.16394816 -0.24520053 -0.31301653
-0.06850353 -0.22160502 -0.18350933 -0.08439617 -0.13857849 -0.21627352 -0.23710562 -0.34053093
-0.18338294 -0.3456836 -0.28765446 -0.004277358 0.04243266 -0.15030327 -0.1764822 -0.001292536
-0.17606291 0.06491277 0.0010930626 -0.14638881 -0.17130378 -0.067033604 -0.24153626 -0.22898947
-0.07367983 -0.13009349 -0.22264664 -0.015365224 -0.13992421 -0.104582064 -0.27183962 -0.23074827
-0.2169174 -0.0312745 -0.026191883 -0.26587856 -0.11488049 0.088935666 0.040816687 -0.1384665
-0.16846855 -0.12535328 -0.18844438 -0.1392788 -0.113992356 -0.26908126 -0.1685319 -0.12526599
-0.26823905 -0.1178866 -0.16603118 -0.106921576 -0.09687967 -0.048078887 0.030418774 -0.29078925
-0.054521505 -0.13899176 -0.033083487 -0.29864386 0.06251279 0.016949933 -0.18370149 -0.2752269

linear.3.weight f4 [64, 256]
00000000: 01eb 23be 1a1f 1d3f 7549 143e 1364 cdbd
00000010: 8b86 35be 629d 48be f6a4 0b3e d604 1a3c
00000020: b00e 94bd 6aab f33e 5e04 fd3d 7598 28be
00000030: dcf8 72be ca90 2abe 7c95 9b3e 4a64 863f
00000040: ca86 edbe ed69 223e 271d 673e 7195 4fbe
00000050: c264 86be f251 c73e f385 d03e 974d 4abd
00000060: 6557 4ebe b4ee f93d 5306 e6bd aa99 b13e
00000070: e147 a3be 786d 3c3c 66bd 9a3e 61e0 61be
00000080: 0330 f23d 12a1 9abd 8219 c83e 48f9 d3be
00000090: ba55 b4be 32ae 73bd 3840 ecbe 5a0e 0e3f
000000a0: ad6a 3e3e 1317 b03e 62f7 0fbd d299 17be
000000b0: d807 0f3f a611 ecbe ce43 9e3e 80b5 133d
000000c0: 1d73 0fbe 1c25 0bbf b153 49be a1e9 c63d
000000d0: 779c e0bd 001b d8bd 3ec5 86be 90dc 20bc
000000e0: c9cc 633e e422 8dbc 6688 6cbe 4a52 32be
000000f0: 455f 73be 9b73 13be ac91 1dbf c409 32be
00000100: a3a6 ec3e 8a33 853e 17fa 18bf d73f a2bd
00000110: 6a4b 153f 0ef8 2ebe 88e5 f93e 475f 733e
00000120: d1e0 f6be e39f 9f3e b4b2 a4be f1ef 83be
00000130: 59bb f93e 7029 c6be 6f60 9ebe 3a89 9cbe
00000140: f3b6 83be 9ed6 25bd b061 98be 4a0f 5ebe
00000150: fa4a 54be ac67 023f 5d5d 1d3f 4c44 0abf
00000160: 7eda ae3e c27d 1e3e 40fc 78be 83e3 dabb
00000170: 3b7e c53e 6a59 ea3e e846 9ebd 7b47 02bf
00000180: d9d0 14bf ddff 9dbe 0540 32be 7d93 87be
00000190: a188 51be 9e00 95be 5819 24be b5d9 b63e
000001a0: 20ae 3a3e 41c3 55be 8992 223f dc25 08bf
000001b0: 1ca5 f4be a988 a33e b884 07be 9aa6 a3be
000001c0: 1a9d 343f c19f c9bd 06c8 3bbe a17d b8bd
000001d0: da3e a53e d506 d7be c722 c03e 8188 513e
000001e0: 917a a03e 9a57 543e 7bb5 163e d671 d1be
000001f0: efd8 d6be c7b4 493e b85f 983e 0d8b 8b3e
00000200: 6d33 01bf 4adc 9abe 3e6a 793e 5498 e73e
00000210: 472e ba3e b234 6d3f 164a 45be 99c5 9fbe
00000220: b30e 04be 05fb f2bd 7481 a93e 2225 dd3e
00000230: e16d fd3e 2d6e 0d3f 96de 8bbe 79d9 e9bd
00000240: b108 38bf e9cf bdbc 0caa ac3e 8434 383e
00000250: 25b7 eebe 23c1 84be 58a4 02be 3e01 59be
00000260: 2ef7 11be da56 ebbe 8d4c 0bbe 113e 69be
00000270: 76cd bf3e 9970 413e ccf2 ee3d 276a 00bf
00000280: e736 41be 1051 a3bd 169c a1be a796 f0be
00000290: cc9a 9dbe 4c96 6dbe b4fe e6bd 83bf 933e
000002a0: 8905 ff3e e0c9 7bbe 3685 e43e de97 e03e
000002b0: bd5c c63e 945d e5bd 6969 fc3d acba e53d
000002c0: 3e36 38be fd50 d2bd 8384 20bf ca45 acbe
000002d0: 9ba6 103e aa86 aa3c f027 4dbe e196 b63e
000002e0: 17f3 313f 99d1 293f 11ce 253e 6535 0d3f
000002f0: 1dc2 3c3f ff42 443e 47e6 aebd cc4e 3c3e
00000300: d4a1 1cbe 0436 913e 48d5 283e a0a3 06b8
00000310: 0347 cf3e 5248 d6bd 42a1 d33e 5131 753f
00000320: f2d4 72be 1360 1b3f f4fe 1a3f 659f 0fbe
00000330: 7a7d b7be d966 f63e 898e ccbe 0135 3cbe
00000340: 72d7 583e a612 78bd c5fa f43d 6a14 31bf
00000350: 4187 e83e f9cf 0dbe a59f cbbd d593 823f
00000360: 3458 c53e e512 47be 6bce 213f 83a6 f0bd
00000370: 5453 f7be e126 11bf 067b 043f 417d f5bd
00000380: 3d6a d5be ec6a 2fbe 611b aa3e c811 133f
00000390: 30db 76bd f1f2 c2be 992a 71be 04b7 043e
000003a0: ab59 d6be 04d0 f43e 9e7e 89be 5d03 853e
000003b0: af87 a8bd 0c03 3b3e 8321 53be f356 bb3e
000003c0: 3e34 dabe a538 fd3e 138d 123f 7bca fa3e
000003d0: 332e a33e f7f2 203f 8d63 99be 6526 ef3e
000003e0: 58ef 33be bc35 973e 3a86 8b3d bc7d 0ebe
000003f0: bf82 55be e1d9 b3bd 7826 08bf 8565 2abe
-0.16007616 0.6137558 0.14481147 -0.10028853 -0.17727105 -0.19591287 0.13637146 0.009400567
-0.07229364 0.47591716 0.123543486 -0.16464408 -0.23727745 -0.16656795 0.30387485 1.0499356
-0.46391898 0.1586072 0.22569714 -0.20271851 -0.26248747 0.38929707 0.40727195 -0.0493904
-0.20150526 0.12203732 -0.11231675 0.3468755 -0.31890777 0.011500709 0.30222625 -0.2205825
0.11825564 -0.07550253 0.3908196 -0.41401124 -0.35221654 -0.059492297 -0.46142745 0.5549065
0.18595381 0.34392604 -0.035148032 -0.14804772 0.55871344 -0.46107215 0.30911106 0.036061764
-0.14008756 -0.543535 -0.19660832 0.0971253 -0.10967343 -0.10552025 -0.2632236 -0.009818211
0.22246088 -0.017228551 -0.23098907 -0.17414203 -0.23766811 -0.14399569 -0.615504 -0.17386538
0.46220884 0.26015884 -0.59756607 -0.07922333 0.583182 -0.17086813 0.4880793 0.23766814
-0.48218396 0.3117667 -0.3216759 -0.25768998 0.48775747 -0.3870349 -0.30932948 -0.30573446
-0.25725517 -0.040487878 -0.2976203 -0.2168552 -0.20731726 0.5093944 0.61470586 -0.5401046
0.3415107 0.1547766 -0.24314976 -0.0066799535 0.3857287 0.45771343 -0.07728368 -0.5089032
-0.58131176 -0.3085927 -0.17407234 -0.26479712 -0.20462276 -0.29102033 -0.16025293 0.35712972
0.18230486 -0.20875265 0.63504845 -0.5318277 -0.47782218 0.319402 -0.13234222 -0.31963044
0.7055222 -0.09844924 -0.18338022 -0.09008337 0.32274514 -0.419974 0.37526533 0.20462228
0.3134351 0.20736542 0.14717667 -0.40907162 -0.41962382 0.19697867 0.29760528 0.27254525
-0.50469095 -0.30246192 0.24356934 0.45233405 0.36363432 0.9265853 -0.19266543 -0.31205443
-0.12896232 -0.118642844 0.33106577 0.43192393 0.49497893 0.5524624 -0.27318257 -0.11418433
-0.7188826 -0.023170428 0.33723485 0.17988783 -0.46624103 -0.25928602 -0.12758005 -0.2119188
-0.14254448 -0.459647 -0.1360342 -0.22777583 0.37461442 0.18890609 0.116674036 -0.50161976
-0.188686 -0.07974446 -0.31564397 -0.4698994 -0.30782163 -0.23201865 -0.112790495 0.2885705
0.4980891 -0.24588728 0.44632882 0.43865865 0.3874263 -0.11199489 0.12324793 0.112172455
-0.17989442 -0.102693535 -0.62702197 -0.33646995 0.14126055 0.020816166 -0.20034766 0.35661986
0.6951155 0.66335446 0.1619189 0.551596 0.73733693 0.19166182 -0.08540016 0.18389434
-0.15296108 0.28361523 0.1648761 -3.2100477e-05 0.40483865 -0.10463013 0.41333967 0.95778376
-0.23714045 0.6069347 0.6054528 -0.14025648 -0.3583792 0.48125342 -0.39952496 -0.18379594
0.21175936 -0.06056466 0.11961893 -0.69171774 0.4541569 -0.13848867 -0.09942559 1.0201365
0.38543856 -0.19440801 0.63205594 -0.117505096 -0.48305762 -0.5669995 0.5175022 -0.11986781
-0.41682616 -0.17130631 0.33224013 0.5744901 -0.060267627 -0.38075975 -0.23551406 0.1296044
-0.41865286 0.47814953 -0.26854414 0.25979128 -0.082290046 0.18262881 -0.20618252 0.36589774
-0.42617983 0.4945728 0.5724651 0.48982605 0.31871185 0.62870735 -0.29958764 0.4670898
-0.17571771 0.29533184 0.06812711 -0.13915151 -0.20850657 -0.087817915 -0.531837 -0.16640289

linear.3.bias f4 [64]
00000000: 315c 5cbe 0f07 bbbe bc9b 97be d7ee b4be
00000010: ec91 82be abfd 42be 999b d4be 47d7 91be
00000020: 72cb 0cbf cec4 b4be 82c7 c9be 315e ebbe
00000030: b4a5 d5be 8822 01bf 37be d2be 2c36 e0be
00000040: 6e0b e7be c236 b0be 2016 ecbe 4f9b f5be
00000050: 8579 1fbd 6e65 2abe dc69 84be e304 ddbe
00000060: 19ae c4be 3116 23bf adc7 14bf 426e 1dbf
00000070: 0cb4 12bf c550 c8be a663 c0be c6ab d8be
00000080: d872 63be 1bc5 05bf 3952 21bf e994 82be
00000090: 5edf e7be e93a c1be 1a8d f9bd c2fc a9be
000000a0: 15f5 90be 6b89 09bf 29b8 78bd 0669 9bbe
000000b0: 922a 49be 66f7 aebe 9f01 ecbe dea1 66be
000000c0: 6077 913c 0b57 5dbe 1eb3 c2be 502c ddbe
000000d0: 001c aabe 26b7 a1be fd03 3cbe a03f e6be
000000e0: 2ce4 ebbe 9a35 78be e386 f4be 5cac 01bf
000000f0: 04a9 17bf 2f4b c5be 7151 f2be 72e8 ebbe
-0.21519543 -0.36528823 -0.29611003 -0.3533847 -0.25501955 -0.19042079 -0.41524962 -0.28484556
-0.5499793 -0.353064 -0.39410025 -0.459703 -0.41727984 -0.50443316 -0.41160747 -0.4379133
-0.45125908 -0.34416777 -0.4611063 -0.47970054 -0.03893425 -0.16640255 -0.25862014 -0.4316779
-0.38414076 -0.63705736 -0.5811718 -0.61496365 -0.5730598 -0.39124122 -0.37576026 -0.42318553
-0.22211778 -0.52253884 -0.63016087 -0.25504234 -0.45287603 -0.37740257 -0.12185116 -0.3320065
-0.28311983 -0.5372531 -0.060722504 -0.30353564 -0.19645146 -0.34173125 -0.46094987 -0.22522685
0.017757118 -0.21615236 -0.3802728 -0.4319787 -0.33224487 -0.31585044 -0.18360896 -0.44970417
-0.4607252 -0.24239197 -0.4775916 -0.50653625 -0.5924227 -0.38533923 -0.4732776 -0.4607578

reg.weight f4 [2, 128]
00000000: c02b dfba 2cce b0bd 9942 803e 36f7 8dbf
00000010: c7f8 263d f7e5 853d f1f2 81be be0f 943e
00000020: 5f55 01bc 49fc 2b3d 00c1 f6b8 75f8 a23c
00000030: 4414 c8ba 5c38 8639 23c0 8cbb 52ce abbc
00000040: 5e77 18bb 9dc9 eeba 436b 97bb e1ce 04bb
00000050: 5d07 ca3b 6828 e5b9 7811 6739 4f70 95ba
00000060: e795 3fba ba78 913a 36ca aebd c9d2 a43d
00000070: c7ef 03bd c954 18bd 8315 bfbe acde 97ba
00000080: 4715 cebc 1605 8ebb 35f8 c63a 5096 e5ba
00000090: 20c3 13bc 2c4a 95bb f734 8dbe 16fd 77ba
000000a0: 344a 72bb 7b9e 27bb 4072 7e38 3a90 c8bb
000000b0: bced 30be 2f7c b0bb a749 d9ba 608c 9c3e
000000c0: ff5b a0bb b856 153e a3e0 13be 63e6 aebd
000000d0: 20d1 a03b 2533 ccbc 4181 8e3d 9d2a 13be
000000e0: 04ce 23bc 1482 0bbb ac06 093a 6820 5f3d
000000f0: 72ca 0b3d 2b24 fc3c 5fa1 90bb 8fe5 12bc
00000100: 176d 913d a704 293c e6fb 9539 ec29 99bb
00000110: d0ee abbd 903d 813b 51c6 7fbb 047b 863a
00000120: 3b6f 163c dc5d 1b3c 5668 b43b af2b 563c
00000130: c426 debb 156e d93b 0859 79ba 90d6 8bba
00000140: aea7 023c 4e17 91bc b8a5 233c 344a bf3a
00000150: dc32 363b 1f82 63bd 8322 0a3c bb79 12bd
00000160: b347 23bc 62fc 043c 0f5a 883c 1fe0 5cbc
00000170: 9992 10bd 88e2 88b8 beb0 493c d0ef 23bb
00000180: cced c53d 4c66 02bb 2cae e03a 1eb7 94bc
00000190: 8f3e 76bb cf62 7bbc 2a7e b8bc e2a4 3fbc
000001a0: dc13 74bc b361 673a e3a1 153e a0e2 8b3b
000001b0: 8fee 883d 1f55 56bb 92dc 373b af82 fd3d
000001c0: 3ef0 843b 885f 8e3b cb30 ccbc 40b1 4839
000001d0: 0892 bcbb ac8a 56bb 313a d63a f585 cdbc
000001e0: 8d3c 84bb 7328 e1ba abaa 4d3c e136 923b
000001f0: 9db1 0abc 8594 9ebb a979 a83c cf58 c6bb
00000200: 3425 523c f474 e13a a774 08bc f669 05bc
00000210: ac8a 873c 36f9 083c b026 d3ba 05b7 6bbc
00000220: d857 ce3b a7ac 143c 8cc9 033c 47e5 503d
00000230: 9ddc f43b d6e5 2f3c 25dd 413c 237e 2f3c
00000240: a60a c3bb 9893 263c 9d14 0f3c 720c 04bc
00000250: fa60 a63c ea9f 133c 32e6 5a3c 2ea8 203c
00000260: 8c78 143c ba8d 413c 9225 573c 5e4e 083d
00000270: 0c88 323b 0eeb 363c 58cc 08bc 67a1 003c
00000280: 94c0 443c 1ae1 a13c fd5f f23b 4cc9 6e3b
00000290: 2bb3 df3b 0360 043d dbf9 90bb b69f 673b
000002a0: c208 ba3b dad6 0a3c f684 ab3b 006a 813c
000002b0: a351 463b 0cd5 8f3c c4f6 293c 069d f9bb
000002c0: a56a 553c aec6 37bb f8a9 15bb 2e38 263c
000002d0: 2019 ed3b d029 803c 1c2e 003c f023 bb3b
000002e0: 2f0a bfbb 5241 35bb f136 143c 1008 4aba
000002f0: 62fd dd3b ec34 833c 8023 1b3c 0987 0b3b
00000300: a0cb 8439 8cc5 ccbc cfde 103e 58f1 75bb
00000310: c1eb 8c3b c5e3 0a3c 52ce 99bb 78fd cd3a
00000320: d746 03bc e827 32bb 6cf1 9239 5cc2 103b
00000330: 9ee1 febb 2005 033a d2a1 b03a ce16 ac3b
00000340: 64bd c03d a6d2 323c ad68 5d3b f416 2a3b
00000350: cac3 b1bb 2e9f ad3a 543a 903a cc08 0a3a
00000360: 3624 503b 6270 b9bb 984e 43ba 20ea 0f3a
00000370: 2c47 b2ba 6ba5 023c b478 8abb eeae 9bbb
00000380: e34b fb3b c2ec dd3b ca9a 473b 294b e2bb
00000390: 2870 87bb 969a babb f1bf 3e3c 677d df3b
000003a0: 4976 8d3b 2d81 e73b 0814 323c 50e2 a83c
000003b0: c62b 34bb 212b c63b 46cc 58bc 0f40 7abc
000003c0: 7be0 edbd 779e c3bd 7ccc 3c3c 9495 85bc
000003d0: dc72 09bb cd1c 783b aa5a b8bb de12 2fbc
000003e0: 098b 2fbc 4784 d9bb 809c 6abb 484c 993a
000003f0: ac4f be3a b436 10bb 9a44 b8bb a4a5 e43b
-0.0017026588 -0.08633074 0.2505081 -1.1091068 0.040764596 0.06538003 -0.25380662 0.2891826
-0.007893889 0.041988645 -0.00011766143 0.019893864 -0.0015264829 0.00025600463 -0.0042953654 -0.020972405
-0.0023264508 -0.0018218044 -0.004620941 -0.002026491 0.0061654286 -0.0004370839 0.00022036384 -0.0011401268
-0.0007308409 0.0011098601 -0.085346624 0.080480166 -0.03221109 -0.037190232 -0.373211 -0.0011586747
-0.02515663 -0.0043341024 0.0015180173 -0.001751611 -0.009018689 -0.004555961 -0.2757947 -0.0009460015
-0.0036970498 -0.002557664 6.0664723e-05 -0.006120709 -0.17278188 -0.0053858976 -0.0016577736 0.30575848
-0.0048937793 0.14583862 -0.14441161 -0.085400365 0.004907742 -0.024926731 0.06958247 -0.14371724
-0.009997848 -0.002128725 0.00052271294 0.054474264 0.034128614 0.030778965 -0.004413768 -0.008965864
0.07100885 0.010316051 0.00028607174 -0.004674187 -0.08395159 0.0039441064 -0.0039028118 0.001026005
0.009181793 0.009482827 0.005505602 0.013071938 -0.0067795236 0.0066354373 -0.0009511863 -0.0010668803
0.007974548 -0.017711308 0.009988241 0.0014594258 0.002780131 -0.055544015 0.00843108 -0.035760622
-0.009965825 0.008116813 0.016644506 -0.013481169 -0.035296056 -6.52718e-05 0.012310205 -0.0025014766
0.09664497 -0.00198974 0.0017141751 -0.018153723 -0.003757391 -0.015343382 -0.022521097 -0.011697026
-0.014897313 0.0008826509 0.14612536 0.004268959 0.066861264 -0.0032704545 0.0028055054 0.123784415
0.0040569594 0.0043448843 -0.02492561 0.00019139517 -0.005754713 -0.0032736463 0.0016344247 -0.02508829
-0.0040355385 -0.0017178193 0.012552897 0.0044621085 -0.008465198 -0.0048394823 0.020565825 -0.0060530673
0.012826253 0.0017200992 -0.008328593 -0.008142939 0.016545616 0.008360198 -0.0016109552 -0.014386897
0.006297093 0.009074367 0.008043658 0.050999906 0.007472588 0.0107359495 0.01183251 0.010711226
-0.005952197 0.010167025 0.008732942 -0.008059608 0.020309914 0.009010294 0.013360547 0.009805722
0.009061944 0.011813575 0.013131516 0.03327786 0.0027241735 0.01116444 -0.008349501 0.007850981
0.012008805 0.019760657 0.0073966966 0.00364359 0.0068267784 0.032318126 -0.0044243163 0.0035342998
0.0056773135 0.008474076 0.005234356 0.015797615 0.0030261062 0.017557643 0.010373775 -0.0076175956
0.013025914 -0.0028042006 -0.0022836905 0.01014523 0.007235661 0.015644938 0.007823493 0.005711071
-0.0058300714 -0.0027657342 0.009046302 -0.000770689 0.0067745904 0.016016446 0.009468913 0.0021290204
0.00025328714 -0.024996541 0.14147495 -0.0037527885 0.004300565 0.008477156 -0.0046937848 0.0015715798
-0.008012495 -0.002718443 0.00028027163 0.0022088503 -0.0077783605 0.0004998017 0.0013475961 0.005251742
0.094111234 0.01091448 0.0033784315 0.0025953623 -0.005424951 0.0013246292 0.0011003711 0.0005265593
0.0031759865 -0.005659149 -0.0007450371 0.00054899044 -0.0013601533 0.007974009 -0.0042258147 -0.004751078
0.0076689585 0.0067726085 0.0030457252 -0.0069059324 -0.004133243 -0.0056946976 0.011642442 0.006820369
0.004317079 0.0070649595 0.010869034 0.020615727 -0.0027491911 0.006047622 -0.013232296 -0.015274062
-0.11615082 -0.09551709 0.011523362 -0.016306676 -0.0020973003 0.0037858963 -0.0056260424 -0.010685651
-0.010714301 -0.006638083 -0.0035798848 0.0011695707 0.0014519594 -0.0022005262 -0.0056234123 0.0069777537

reg.bias f4 [2]
00000000: 64c1 403e f7ea edbb
0.18823773 -0.007260676
